Misc/baselinev10.pt (torch_old, 847573 bytes, 12 tensors)

weight f4 [16, 3, 3, 3]
0	0x3c4124ae	0.01178853
1	0xbdd786d4	-0.10523763
2	0x3ddc52f6	0.10758011
3	0xbd1bc65d	-0.03803097
4	0x3db51d57	0.08843487
5	0xbd48c394	-0.049014643
6	0xbdd2ff96	-0.103026554
7	0x3d56644a	0.052341737
8	0x3bc5c40a	0.0060353326
9	0x3e56d048	0.2097789
10	0x3e0b5001	0.13604738
11	0x3e7a60e2	0.2445102
12	0x3e2e97f8	0.17050159
13	0x3dbb017e	0.09131144
14	0x3e884bc4	0.26620305
15	0x3e0519b4	0.12998086
16	0x3e2ab0d6	0.1666902
17	0x3d78ff85	0.060790557
18	0xbda164f7	-0.07880586
19	0xbdd309c4	-0.10304597
20	0xbda529ca	-0.08064611
21	0xbe69b1f4	-0.2282179
22	0xbd84307f	-0.064545624
23	0xbe6e05b0	-0.23244357
24	0xbdcd860c	-0.10035333
25	0x3d733fa0	0.05938685
26	0xbe4978f0	-0.1967504
27	0xbde5cb4d	-0.11220417
28	0xbcf9cff1	-0.030494662
29	0xbd11e56e	-0.03561919
30	0x3d35c7f6	0.04438015
31	0x3d2d16b6	0.042257987
32	0x3de4794d	0.11155949
33	0xbe0265fa	-0.12734213
34	0xbbb8dc94	-0.0056415293
35	0x3dfa3762	0.12217595
36	0x3e0de5d6	0.13857207
37	0xbcda4c44	-0.026647694
38	0xbde236c8	-0.11045605
39	0x3d52e1be	0.051484816
40	0x3e0594ff	0.13045119
41	0xbdc635e3	-0.09678247
42	0xbde48791	-0.1115867
43	0x3e009d46	0.12559995
44	0x3d169e1c	0.03677188
45	0xbe7adb39	-0.2449769
46	0xbdf06ef8	-0.117399156
47	0x3ddbc8da	0.10731669
48	0xbda96e60	-0.082730055
49	0x3e2e8eb2	0.17046621
50	0x3e5d8602	0.21633151
51	0x3cd7911f	0.026314316
52	0x3cc766bb	0.024340978
53	0xbcac57bc	-0.021037929
54	0x3ca2dae7	0.019879771
55	0x3d43b1e2	0.047777064
56	0xbe0b08ae	-0.1357753
57	0xbc92b525	-0.017908642
58	0xbe0214d4	-0.12703258
59	0x3e0c51fc	0.1370315
60	0xbdc0df67	-0.094176106
61	0x3e49a12f	0.19690393
62	0xbd06534a	-0.032794274
63	0xbdcd5f86	-0.10027985
64	0x3daf21da	0.085513785
65	0x3ca0c9df	0.01962751
66	0x3e245103	0.16046529
67	0x3dbb61a5	0.091494836
68	0xbe42622b	-0.1898276
69	0x3e1b870e	0.15188238
70	0xbcf12916	-0.029438537
71	0xbdc109d2	-0.09425701
72	0x3e3160dd	0.17322107
73	0x3e22fa65	0.1591583
74	0xbe37aaa9	-0.17936195
75	0x3d0b5b24	0.034022465
76	0x3e3e4ed4	0.18584758
77	0x3d8e40a9	0.06945927
78	0x3e4308ae	0.1904628
79	0xbd8d0fa8	-0.06887752
80	0xbe065739	-0.1311921
81	0x3e1c0da9	0.15239586
82	0x3d81e607	0.06342702
83	0x3e2d71a5	0.16937883
84	0xbdb18ac0	-0.086690426
85	0xbe0f25c8	-0.13979256
86	0xbd053844	-0.032524362
87	0xbe45caa5	-0.19315584
88	0x3d835d44	0.064142734
89	0x3e049ad8	0.12949693
90	0x3da43bd7	0.08019226
91	0x3d2c62ae	0.042086296
92	0x3e225e7d	0.15856357
93	0xbdc5e11c	-0.09662077
94	0x3e6b86c6	0.2300063
95	0xbe25754d	-0.16158028
96	0xbe3216d9	-0.17391528
97	0xbcc1791f	-0.023617325
98	0x3e2ef739	0.17086495
99	0x3da5ee86	0.08102135
100	0x3e214dc4	0.15752321
101	0xbd074060	-0.033020377
102	0x3dd377a3	0.10325553
103	0x3d3b91da	0.04579339
104	0x3e25431f	0.16138886
105	0x3e1cc103	0.15308003
106	0x3dfc1ed0	0.123105645
107	0x3d1a0fe0	0.037612796
108	0xbb4187fe	-0.002953052
109	0xbdb4ae3b	-0.08822294
110	0xbd30e84e	-0.043190293
111	0x3e02ef2b	0.12786548
112	0xbd4efbae	-0.05053299
113	0x3e0745eb	0.13210265
114	0xbd8dfd00	-0.069330215
115	0xbd0330c5	-0.032028932
116	0x3bc05807	0.0058698687
117	0xbe842751	-0.25811246
118	0xbd92dedb	-0.071714126
119	0xbd6d7f65	-0.05798282
120	0xbdc674b8	-0.09690231
121	0xbdecb136	-0.11557238
122	0x3e0c9d45	0.13731869
123	0x3dafa5c2	0.08576538
124	0xbe277dce	-0.16356584
125	0x3dc77e8b	0.09740933
126	0xbed36ebe	-0.41295427
127	0xbedca11a	-0.4309166
128	0xbe2a7980	-0.16647911
129	0xbe996bbb	-0.29965004
130	0xbecceb10	-0.40023088
131	0xbee8ec8a	-0.45492965
132	0xbeaf7ed6	-0.34276456
133	0xbe4caad9	-0.19987048
134	0xbecbfe6e	-0.39842552
135	0xbe2b2082	-0.1671162
136	0x3dc4b9ff	0.096057884
137	0xbe0e8da8	-0.13921225
138	0xbe40d81b	-0.18832438
139	0xbda765df	-0.08173727
140	0xbd39ac63	-0.045330416
141	0xbe0d4a92	-0.13797978
142	0xbd8bd980	-0.06828594
143	0x3dce9fc1	0.100890644
144	0xbe664087	-0.22485553
145	0xbd73a7f6	-0.059486352
146	0xbe279fa2	-0.16369489
147	0xbe462af6	-0.19352326
148	0x3cba6c43	0.022756701
149	0xbe3a5f9a	-0.18200532
150	0xbe4798e4	-0.19491917
151	0x3d8eae35	0.06966821
152	0x3caa1a09	0.020764368
153	0x3e80a18a	0.25123245
154	0x3cd91236	0.026497941
155	0x3b2f4596	0.0026744357
156	0x3d8a3c55	0.06749789
157	0x3da8a572	0.08234681
158	0x3e666a18	0.22501409
159	0xbdca0ce2	-0.098657385
160	0x3db654e0	0.08902907
161	0x3e3e5f2b	0.18590991
162	0xbd7dc64d	-0.061956692
163	0xbd5b3dd5	-0.053525764
164	0x3dfdb88f	0.123887174
165	0xbe17c8cb	-0.1482269
166	0x3d98f4c6	0.07468562
167	0xbde344bb	-0.11097094
168	0x3e0596a5	0.13045748
169	0xbdd7c586	-0.105357215
170	0x3e244ce4	0.16044956
171	0xbd8448cc	-0.064591974
172	0xbd6f486b	-0.058418673
173	0x3df02b5e	0.11727022
174	0x3e9c07ab	0.304746
175	0xbd8ada5b	-0.06779929
176	0xbc3e5427	-0.011616743
177	0x3e9126af	0.28349826
178	0x3d4d6647	0.050146367
179	0x3e2f4826	0.17117366
180	0xbeacb84c	-0.33734357
181	0xbe5d4d7e	-0.21611592
182	0xbe672d2a	-0.22575822
183	0x3d477ec8	0.048704892
184	0xbdc84e57	-0.09780567
185	0xbeabe72f	-0.33574817
186	0xbb08ab50	-0.0020854063
187	0xbe1dd779	-0.15414228
188	0xbe76fa15	-0.24118836
189	0xbd745b90	-0.059657633
190	0xbd1c5e3f	-0.038175818
191	0x3e20fbaa	0.15721002
192	0xbd9db4e0	-0.07700515
193	0xbd9fc143	-0.078005336
194	0xbd1cbf56	-0.03826841
195	0x3d1356c1	0.035971407
196	0x3d91d03c	0.07119796
197	0x3c7c68fc	0.01540589
198	0xbd961ccf	-0.073297136
199	0xbe371fd5	-0.17883237
200	0xbdc74d87	-0.09731584
201	0xbe121e48	-0.14269364
202	0x3d814a4a	0.06312998
203	0xbe9366aa	-0.28789264
204	0xbe30b891	-0.17257906
205	0xbe6eee14	-0.23333007
206	0xbdf32f08	-0.11874205
207	0x3e5caef3	0.21551113
208	0x3e5a7b41	0.2133608
209	0xbe21a0e5	-0.15784033
210	0x3d855788	0.06510836
211	0x3e3566f1	0.1771505
212	0x3df2e5bb	0.11860224
213	0x3e4e63ac	0.2015521
214	0x3c910fe3	0.01770777
215	0xbe0bfd6a	-0.13670889
216	0x3def8495	0.1169521
217	0xbd95dff1	-0.07318104
218	0x3db16f14	0.086637646
219	0xbd91a496	-0.071114704
220	0x3d5a8ea2	0.05335868
221	0x3e18c18e	0.14917585
222	0x3e1d92fe	0.15388104
223	0xbe48c146	-0.19604978
224	0xbe0ed24d	-0.13947411
225	0xbdd412a0	-0.10355115
226	0xbdf19704	-0.11796382
227	0x3d298ec7	0.04139593
228	0xbde14cfd	-0.110010125
229	0xbe2adc7b	-0.16685669
230	0xbe6a8671	-0.22902848
231	0xbe41c6fb	-0.18923561
232	0xbbc6eb7a	-0.0060705515
233	0xbe919fcf	-0.28442237
234	0xbe9a5977	-0.3014638
235	0xbeb14fc6	-0.34631175
236	0xbdeb6958	-0.11494702
237	0x3c94ab77	0.018148167
238	0xbe66a55c	-0.22524017
239	0xbdb4706a	-0.08810504
240	0x3e3a0874	0.18167287
241	0xbbb0fbbe	-0.0054011038
242	0xbe0aa3d2	-0.13539055
243	0xbc1331e3	-0.008984062
244	0xbd105a86	-0.03524258
245	0x3d9ed3e3	0.07755258
246	0xbe20d4af	-0.15706132
247	0x3da238d2	0.07920994
248	0x3dbdf4ef	0.09275233
249	0xbe130105	-0.14355858
250	0x3e0e88c8	0.13919365
251	0x3e2eadc1	0.1705847
252	0xbe96110f	-0.2930989
253	0xbe38651a	-0.18007317
254	0xbdcd4abe	-0.100240216
255	0xbe846793	-0.2586027

bias f4 [16]
0	0x3e8f54ef	0.27994487
1	0x3e7652fd	0.24055095
2	0x3e7fb61c	0.24971813
3	0x3c9ac0d3	0.018890774
4	0x3d7f5da3	0.06234516
5	0xbc53b1a2	-0.012920769
6	0xbc219a6b	-0.009863476
7	0x3d0d5480	0.034504414
8	0xbdc5a66e	-0.096508846
9	0xbe7cad99	-0.24675597
10	0xbd92cced	-0.07167993
11	0xbe34db1d	-0.1766171
12	0xbe5e0693	-0.21682195
13	0x3d9ba105	0.075990714
14	0x3de1eaee	0.110311374
15	0x3d0609fe	0.032724373

weight f4 [32, 16, 3, 3]
0	0xbe25fc32	-0.16209486
1	0xbe235dd3	-0.1595376
2	0xbe5434b4	-0.2072323
3	0x3d81ad5c	0.06331894
4	0x3d162e18	0.036665052
5	0xbd998e3c	-0.07497832
6	0x3dc7551d	0.09733031
7	0x3c03ae48	0.008037157
8	0xbde2847f	-0.11060428
9	0xbe00e7b2	-0.12588385
10	0xbddf6c42	-0.109093204
11	0x3cc04c5d	0.023473913
12	0x3c393004	0.011302952
13	0xbd7ac1bc	-0.061219916
14	0xbdc2f01b	-0.09518453
15	0x3cd59ef9	0.02607678
16	0xbb284aa5	-0.0025679257
17	0xbca11d52	-0.019667301
18	0xbd2e39bb	-0.042535525
19	0xbd3b17fa	-0.045677163
20	0xbd29de52	-0.041471787
21	0xbd2e49ed	-0.04255097
22	0x3d97ba9d	0.074086405
23	0x3d0763f1	0.033054296
24	0x3ddbeaea	0.10738166
25	0x3cfe468c	0.031039499
26	0x3ca46b49	0.020070689
27	0xbd9b5600	-0.075847626
28	0xbd24a029	-0.040191803
29	0xbcd98514	-0.026552714
30	0xbb85a111	-0.0040780385
31	0x3cc0e402	0.023546223
32	0xbd1854a3	-0.03719009
33	0x3d07fc7b	0.03319977
34	0x3bfe7acd	0.007766104
35	0xbd84c13a	-0.064821675
36	0xbdd147e2	-0.10218789
37	0xbe0c4097	-0.13696514
38	0xbca908b0	-0.020634025
39	0xbd232440	-0.039829493
40	0x3c7d0dcd	0.015445185
41	0xbd821683	-0.0635195
42	0xbd8d9ca5	-0.06914643
43	0xbd3d624a	-0.046236314
44	0x3cbe3ba1	0.023221793
45	0x3cb41ea0	0.02198726
46	0xbdfac9f9	-0.122455545
47	0xbe4d1f67	-0.2003151
48	0x3ddae41b	0.10688039
49	0x3df7d738	0.121015966
50	0xbdaa9a29	-0.08330185
51	0x3e1750e0	0.14776945
52	0x3ddb0ddc	0.10696003
53	0x3bfda939	0.00774112
54	0xb94c9546	-0.00019510565
55	0xb86be780	-5.6243967e-05
56	0x3d58a8ac	0.052895233
57	0x3dc49cad	0.09600196
58	0x3d899078	0.06717008
59	0x3c6e742c	0.014554065
60	0x3dd18975	0.10231296
61	0x3c6d63c9	0.014489123
62	0x3d8cae55	0.06869189
63	0xbcc36649	-0.023852484
64	0xbd6f8b48	-0.05848244
65	0xbdcae4ea	-0.09906943
66	0x3d6f7aac	0.0584666
67	0x3d9dd45e	0.077065215
68	0xbb083a25	-0.002078661
69	0x3c452abb	0.0120341135
70	0x3dedac91	0.1160518
71	0xbc21b289	-0.009869226
72	0x3dc080c1	0.09399558
73	0xbca6b104	-0.02034808
74	0x3d3c2ffd	0.045944203
75	0xbc8ad1e8	-0.016945794
76	0xbc266892	-0.010156767
77	0x3cc1861e	0.023623522
78	0xbd987154	-0.074434906
79	0x3d486d14	0.04893215
80	0x3cb7d3d2	0.022439871
81	0x3dcd076f	0.100111835
82	0x3d5f07fc	0.054450974
83	0x3d2ad850	0.041710198
84	0xbd648c59	-0.05579791
85	0xbd954704	-0.07288936
86	0x3ce7300e	0.028221156
87	0xbdf039d6	-0.11729781
88	0xbd26c568	-0.040715605
89	0x3d1c5235	0.038164336
90	0xbc153fc0	-0.0091094375
91	0xbd794364	-0.060855284
92	0x3d04f628	0.032461315
93	0x3d934256	0.07190387
94	0xbca116a1	-0.01966411
95	0xbd3445b4	-0.044011787
96	0x3dab58cd	0.08366547
97	0x3dc091a7	0.09402781
98	0xbd9da737	-0.07697909
99	0x3b835779	0.0040082303
100	0x3c14e19e	0.009086994
101	0xbcfe3ab4	-0.031033851
102	0x3d9ea76b	0.07746776
103	0xbc787415	-0.015164395
104	0x3d9ffa8c	0.0781146
105	0x3cda2ee1	0.026633682
106	0x3c98827f	0.018616913
107	0xbd2b2286	-0.04178097
108	0x3ce73cbc	0.028227203
109	0xbcc4938e	-0.02399614
110	0x3d09f836	0.033683978
111	0xbd80abb6	-0.06282751
112	0x3d811ad6	0.06303947
113	0xbd8c7e51	-0.068600304
114	0xbbef085e	-0.0072946986
115	0x3d968ce8	0.073510945
116	0xbdd3c21e	-0.10339759
117	0x3d04d20b	0.032426875
118	0xbd2129fe	-0.039346687
119	0xbdeed9ef	-0.11662661
120	0x3b9d5b23	0.004802124
121	0x3d26f38e	0.040759616
122	0xbd602f7b	-0.05473278
123	0x3da5d633	0.08097496
124	0x3dfde4b1	0.12397135
125	0x3c8fbafc	0.017545216
126	0xbc230850	-0.009950712
127	0x3cdb738c	0.026788495
128	0xbd304160	-0.043031096
129	0xbd56007e	-0.052246563
130	0xbd4f892d	-0.05066793
131	0xbd784e8f	-0.060621794
132	0x3d054f03	0.032546055
133	0x3d058ff5	0.03260799
134	0xbcda027b	-0.02661251
135	0xbda8be69	-0.08239443
136	0x3d1ddf55	0.038543064
137	0xbd4c3955	-0.049859364
138	0xbb7b0f40	-0.003830865
139	0xbd4b0ded	-0.049573828
140	0xbd2421eb	-0.04007141
141	0x3d6091b1	0.054826442
142	0xbd4ce9a5	-0.05002751
143	0xbd3cad5a	-0.04606376
144	0x3d696b82	0.056987293
145	0xbd3de917	-0.04636487
146	0xbd3183c7	-0.043338563
147	0x3c990751	0.018680247
148	0x3cef1fc8	0.02918996
149	0xbc3d36dc	-0.011548724
150	0x3d33dda2	0.043912537
151	0x3d7913e7	0.060809996
152	0x3c9d8cb8	0.019232139
153	0x3cb3df4c	0.021957062
154	0xbd5f4319	-0.05450735
155	0x3d77470e	0.060370497
156	0x3d4157e5	0.047202963
157	0xbafd34c0	-0.0019318089
158	0xbd0f6411	-0.03500754
159	0x3d4fce32	0.050733753
160	0x3d73bcc9	0.05950621
161	0x3c02f2dd	0.007992473
162	0x3d0ca9ec	0.034341738
163	0x3d1a15d7	0.037618484
164	0xbd0ec17f	-0.0348525
165	0x3c09222f	0.008369966
166	0x3dbafdc3	0.091304325
167	0x3c322be9	0.010874727
168	0xbd749f49	-0.05972222
169	0x3b575720	0.0032858327
170	0x3d67c468	0.056583792
171	0xbd009f8c	-0.031402156
172	0xbd368bbb	-0.04456685
173	0x3d8cd6c0	0.06876898
174	0x3d2d003e	0.04223656
175	0xbc83a7e2	-0.016071264
176	0x3c04898b	0.008089433
177	0xbc0d9275	-0.008640875
178	0x3c9ef0b0	0.019401878
179	0x3bc2190b	0.0059233955
180	0xbdf9c840	-0.12196398
181	0xbd971361	-0.07376743
182	0xbd953452	-0.0728537
183	0xbc90932d	-0.017648304
184	0xbe0182cd	-0.12647553
185	0xbc44a640	-0.012002528
186	0xbe2cff3e	-0.16894242
187	0xbd5cf807	-0.053947475
188	0xbb195496	-0.0023396364
189	0xbcfea5d9	-0.031084942
190	0xbdcc5403	-0.099769615
191	0xbd3e029a	-0.0463892
192	0xbde6d8db	-0.11271831
193	0xbe41fe20	-0.18944597
194	0xbe7b612e	-0.2454879
195	0x3dbb5851	0.091477044
196	0x3a98d344	0.0011659642
197	0x3adc8370	0.0016823839
198	0x3d680783	0.05664779
199	0xbc90acd8	-0.017660543
200	0x3d6faa80	0.05851221
201	0x3cbba1e3	0.022904342
202	0xbd0659b3	-0.032800388
203	0xbc5ca962	-0.013468118
204	0x3d7ce924	0.061745778
205	0xbd0d60c1	-0.0345161
206	0xbd5b347c	-0.05351685
207	0xbdacec07	-0.08443456
208	0xbc8e0974	-0.017338492
209	0x3c85d8d7	0.016338749
210	0x3d55b5ed	0.05217545
211	0xbcdde0d9	-0.027084755
212	0x3bce298f	0.0062915753
213	0xbd9b1e99	-0.075741954
214	0xbdaa0a26	-0.08302717
215	0xbdbaeeac	-0.09127554
216	0x3d8f9c9d	0.070122935
217	0xbc61144b	-0.013737748
218	0xbd32e7e7	-0.04367819
219	0x3cc8ea9a	0.02452593
220	0xbd08f1e7	-0.03343382
221	0xbd70db1c	-0.05880271
222	0x3d00276c	0.031287596
223	0x3c037d27	0.008025444
224	0xbd7df21f	-0.061998483
225	0xbd7e33d5	-0.06206115
226	0x3d1c9b85	0.038234252
227	0x3d81b9f0	0.06334293
228	0x3b3244ab	0.0027201574
229	0xbd2e5069	-0.042557154
230	0x3d2592b4	0.04042311
231	0x3c84475d	0.01614731
232	0xbd8e1b19	-0.06938762
233	0xbd571096	-0.052506052
234	0x3c96e0db	0.018417766
235	0x3d5216e6	0.05129137
236	0xbcb8e319	-0.022569226
237	0x3d25a688	0.04044202
238	0xbd40978c	-0.047019526
239	0x3daf6797	0.0856468
240	0x3d8215b6	0.06351797
241	0x3c9464cd	0.018114472
242	0x3d2f0600	0.04273033
243	0x3cf64272	0.03006098
244	0xbd475bbe	-0.048671477
245	0x3ae3bcd5	0.0017375002
246	0x3ca43a00	0.020047188
247	0xbc869ca9	-0.016432123
248	0x3da34aa7	0.07973223
249	0xbceac5d2	-0.028658781
250	0xbd93b0df	-0.0721147
251	0xbd11137a	-0.035418965
252	0xbda0286a	-0.07820208
253	0x3cefd4ff	0.02927637
254	0xbdb6cd06	-0.08925824
255	0xbdb616b2	-0.088910475

bias f4 [32]
0	0x3d3e0f98	0.04640159
1	0x3d9f709e	0.07785152
2	0x3dd44213	0.10364165
3	0x3d860a7b	0.06544968
4	0x3da41ed7	0.08013695
5	0xbcf1b18a	-0.029503603
6	0x3e17ff06	0.14843377
7	0x3c258ffd	0.01010513
8	0xbd2c0c37	-0.042003836
9	0x3c65d5ef	0.0140280565
10	0xbc9be958	-0.019032165
11	0x3db2845d	0.087166525
12	0x3c7434e6	0.01490519
13	0x3c822e77	0.015891297
14	0xbc674fb4	-0.014118124
15	0x3d2db5a9	0.042409573
16	0x3d318cfe	0.04334735
17	0x3d15704f	0.03648406
18	0x3da59ca1	0.08086515
19	0x3e0cccf8	0.13750064
20	0x3d0f7498	0.0350233
21	0x3e58e38e	0.21180555
22	0x3d2006a3	0.03906883
23	0xbceb7467	-0.028742028
24	0x3ddc41d1	0.10754741
25	0xbde3889b	-0.1111004
26	0x3dfbc0c3	0.12292626
27	0x3d518f06	0.05116179
28	0x3b0fde30	0.0021952502
29	0xbd56e2c9	-0.052462373
30	0xbcc10635	-0.02356253
31	0xbb924935	-0.0044642934

weight f4 [64, 32, 7, 7]
0	0xbdc34bb0	-0.095359206
1	0xbd70306b	-0.058639925
2	0xbd7750eb	-0.060379904
3	0xbd5256af	-0.0513522
4	0xbd6f7c83	-0.058468353
5	0xbdaaffcf	-0.08349573
6	0xbd873328	-0.06601554
7	0xbd6be064	-0.057587042
8	0xbd97e920	-0.07417512
9	0xbda3d0b5	-0.07998792
10	0xbdb09e54	-0.08623949
11	0xbd6a0ca6	-0.05714097
12	0xbd650acb	-0.055918496
13	0xbd3ff864	-0.046867743
14	0xbd3ce121	-0.046113137
15	0xbd8744aa	-0.066048935
16	0xbd8f5123	-0.069978975
17	0xbda723fe	-0.08161162
18	0xbd585baf	-0.05282181
19	0xbd7caabf	-0.061686274
20	0xbd63685f	-0.055519458
21	0xbd31c985	-0.043405075
22	0xbd5c4a4d	-0.053781796
23	0xbd43f4b6	-0.047840796
24	0xbd36f5e6	-0.0446681
25	0xbd3e219c	-0.04641877
26	0xbd808a4f	-0.0627638
27	0xbd8a98ca	-0.067674235
28	0x3b06ec05	0.0020587456
29	0xbc0d79f1	-0.00863503
30	0xbd6466ad	-0.05576198
31	0xbcbc673e	-0.022998448
32	0xbd826caa	-0.06368382
33	0xbcacb74e	-0.0210835
34	0xbd564246	-0.052309297
35	0xbc5f1827	-0.013616598
36	0xbb4b25d2	-0.0030997884
37	0xbd493df1	-0.049131338
38	0xbce80ad6	-0.02832548
39	0xbcee62fc	-0.029099934
40	0xbd8cc576	-0.068736
41	0xbc633e84	-0.013869885
42	0xbcccfe7d	-0.025023693
43	0xbc09d38d	-0.008412254
44	0xbcbfcb4f	-0.023412375
45	0xbcb83361	-0.022485437
46	0xbd84e1e6	-0.06488399
47	0xbd31b823	-0.043388497
48	0xbd5aafcb	-0.053390305
49	0x3bdfef7c	0.0068339687
50	0xbc716c70	-0.014735326
51	0xbc0f8292	-0.008759158
52	0x3b0d321a	0.0021544755
53	0xbcbd148d	-0.023081088
54	0xbb55d935	-0.0032630686
55	0xbc906709	-0.017627256
56	0xbaa97bca	-0.0012930569
57	0xbb9f9177	-0.0048696357
58	0xbcc20134	-0.023682214
59	0xbbfee1a3	-0.007778363
60	0x3b4315ba	0.0029767589
61	0x3c1ce8cb	0.009576987
62	0xbcd6785b	-0.026180437
63	0xbcabdee4	-0.020980306
64	0x3c07a23b	0.008278425
65	0xbc5b87a5	-0.013399039
66	0xbc21797b	-0.009855623
67	0xbcc0aabb	-0.02351891
68	0xbc07857d	-0.008271572
69	0xbd041812	-0.032249518
70	0x3ad1184e	0.0015952678
71	0x3ca49d56	0.020094555
72	0x3c86c287	0.01645018
73	0xbc92ddc6	-0.017928015
74	0x3cda66a1	0.026660265
75	0xbcb8c7d6	-0.022556227
76	0xbc917b83	-0.01775909
77	0x3c5dc2f7	0.013535253
78	0x3c77c183	0.01512182
79	0x3cc2c4c8	0.023775473
80	0x3ab74fb3	0.0013985544
81	0xbc78edb0	-0.015193388
82	0xbca92c9a	-0.02065115
83	0xbb3ea81f	-0.0029091907
84	0xbcc98660	-0.024600208
85	0xbc478c92	-0.012179511
86	0x3cd6c668	0.026217654
87	0x3b129a61	0.002236985
88	0x3c68671b	0.0141847385
89	0xbc72fbe2	-0.014830561
90	0x39af4247	0.00033427982
91	0x3cc87291	0.024468692
92	0x3c362e79	0.011119478
93	0x3c8c00aa	0.01709016
94	0xbb61a57e	-0.0034430916
95	0xbbe0dfbd	-0.006862609
96	0x3cc3b597	0.0238903
97	0xbcb659be	-0.02225959
98	0xbbeed4df	-0.00728856
99	0xbc8207ed	-0.01587292
100	0x3c6c74b4	0.014432121
101	0xbc13e007	-0.00902558
102	0x3c69d178	0.014271133
103	0x3b244c68	0.0025069956
104	0xbc723d32	-0.014785098
105	0xbd2b490c	-0.04181771
106	0xbcfb9b80	-0.030713797
107	0xbcc5d4cd	-0.024149323
108	0xbc5ae375	-0.013359894
109	0xbb4257a2	-0.0029654284
110	0xbcb49b24	-0.022046633
111	0xbba7f71a	-0.0051258923
112	0xbd457508	-0.048207313
113	0x3c22e033	0.009941149
114	0xbce26ac7	-0.027638806
115	0x3b2c9cd0	0.0026338585
116	0xbceb11cd	-0.028695012
117	0xbccb8c04	-0.024847038
118	0xbc96d936	-0.018414121
119	0xbcf30afb	-0.029668322
120	0xbbd74fcc	-0.006570792
121	0xbb940b5b	-0.0045179552
122	0x3b15d6c3	0.0022863604
123	0xbcb8a164	-0.022537895
124	0x3ccfd03a	0.025367845
125	0x3c04cb89	0.008105167
126	0xbcf2beaa	-0.029631931
127	0x3c1ca5f2	0.009561049
128	0xbc5308ae	-0.012880487
129	0xbc910e9f	-0.017707167
130	0x3b91398d	0.0044319094
131	0xbbdf015a	-0.006805581
132	0x3c59c90d	0.013292563
133	0xbc97fe9a	-0.01855402
134	0xbcd36cea	-0.02580877
135	0x3ca2261f	0.019793568
136	0x3c0df41c	0.008664157
137	0x3be40e2d	0.0069596977
138	0x3b8f601e	0.0043754717
139	0xbc928a64	-0.017888255
140	0xba0ff6c8	-0.00054917904
141	0x3b0f6a2e	0.0021883356
142	0xbc55ab99	-0.0130414
143	0x3c8ee04d	0.01744094
144	0xbcadccc2	-0.0212158
145	0xbbb3641f	-0.005474582
146	0x3bade15b	0.0053064055
147	0xbd7cce6d	-0.0617203
148	0xbd08f60b	-0.03343777
149	0x3bae2346	0.0053142635
150	0x3bccc712	0.006249317
151	0x3c370493	0.011170524
152	0xbbacfe02	-0.0052793035
153	0x3b364262	0.0027810563
154	0xbc65f4b6	-0.014035394
155	0xbb0d6f90	-0.002158139
156	0x3a4028cc	0.0007330298
157	0xbc3fd3be	-0.011708198
158	0xbd0c9587	-0.034322288
159	0xbd2b2c99	-0.04179058
160	0xbca1a686	-0.019732725
161	0xbc51d44c	-0.012806963
162	0xbc158173	-0.009125101
163	0x3c3f1e67	0.011664963
164	0xbca84537	-0.020540817
165	0xbadd8ba0	-0.0016902573
166	0xbcd0afe3	-0.025474494
167	0xbcaeb7ef	-0.02132794
168	0x3b537d47	0.0032270716
169	0x3d1d9efb	0.038481694
170	0x3c0f4962	0.008745523
171	0x3b5774e1	0.0032876062
172	0x3d1c998a	0.038232364
173	0xbc6fff12	-0.014648216
174	0x3d0c89e8	0.034311205
175	0x3d6a3b7d	0.05718564
176	0x3d55d835	0.052208144
177	0x3d4b6600	0.04965782
178	0x3d20e45e	0.039280288
179	0x3d04bb11	0.032404963
180	0x3aa5b2cc	0.0012641787
181	0x3cc4e773	0.024036145
182	0x3d86c10e	0.06579791
183	0x3d18c844	0.037300363
184	0x3d3cb68d	0.04607253
185	0x3caeacb7	0.021322591
186	0x3c3cb715	0.0115182595
187	0xbc9e92bd	-0.01935708
188	0xbce759e4	-0.028241105
189	0xbbe723a3	-0.007053809
190	0x3c1e512c	0.009662908
191	0x3d011323	0.03151239
192	0x3d102b9d	0.035197843
193	0xbcf157dd	-0.029460842
194	0xbcc6b68f	-0.024256973
195	0x3ce5c6f5	0.028048972
196	0x3c364467	0.011124707
197	0xbc2c8ec8	-0.010532089
198	0x3bc7fb84	0.006102981
199	0x3c98ea5b	0.018666437
200	0x3bcbc4dc	0.006218536
201	0xba55ae49	-0.00081512757
202	0xbc7c927c	-0.015415784
203	0x3c7e0094	0.0155030675
204	0xbb6234d8	-0.003451636
205	0xbd063518	-0.032765478
206	0xbcd88eeb	-0.026435336
207	0x3c61e7ad	0.013788146
208	0xbcea8f16	-0.028632682
209	0x3a1ed440	0.00060588494
210	0x3cdb20dc	0.026749067
211	0xb98a8db8	-0.00026427
212	0x3aa91f55	0.0012903014
213	0x3c347c57	0.011015973
214	0x3c929ee4	0.01789803
215	0x3c8d0d59	0.017218279
216	0xbc1ee302	-0.009697678
217	0xbbf6ae63	-0.0075281127
218	0x3b6830f2	0.0035429564
219	0x3b9f4ac7	0.004861209
220	0x3cd7582a	0.026287157
221	0xbc119b2d	-0.008887094
222	0xbbc86056	-0.0061149998
223	0xbcb12839	-0.021625625
224	0x3c2cfbca	0.010558078
225	0x3c21103f	0.0098305335
226	0x3bab7116	0.0052319868
227	0x3ce4554c	0.027872704
228	0x3cc84a2f	0.024449436
229	0xbc88d7b2	-0.016704414
230	0x3cdf1f45	0.02723659
231	0x3c914358	0.017732307
232	0x3c9c0089	0.019043224
233	0x3c1c172a	0.009527007
234	0x3af82692	0.0018932393
235	0x3cdc6538	0.026903734
236	0xbc86a423	-0.016435688
237	0x3c07add7	0.008281193
238	0x3c91375b	0.01772659
239	0x3be0b62b	0.0068576536
240	0x38ab74f6	8.175701e-05
241	0x3d013aca	0.031550206
242	0x3b9ce201	0.004787684
243	0x3c3cdab0	0.011526749
244	0x3c427b57	0.011870227
245	0x3e1c7c0d	0.15281697
246	0x3df67c61	0.12035442
247	0x3d446cce	0.047955327
248	0x3ad47fe4	0.0016212431
249	0x3b02d892	0.0019965512
250	0x3c6cba7d	0.014448759
251	0x3d204cbe	0.039135687
252	0x3da51016	0.08059709
253	0x3d90f0f5	0.07077209
254	0x3c267f3b	0.01016217
255	0x3d005d72	0.031339116

bias f4 [64]
0	0xbdd31826	-0.1030734
1	0x3d205a9b	0.039148908
2	0x3da900c9	0.08252103
3	0x3dad6f5a	0.08468504
4	0xbde41765	-0.11137275
5	0xbdf400e5	-0.11914233
6	0xbe107b53	-0.14109544
7	0x3ded3a9c	0.115834445
8	0x3de7bfcf	0.113158815
9	0x3dfbd9a9	0.12297375
10	0xbd9ae326	-0.075628564
11	0xbdb23a12	-0.08702482
12	0x3e041e97	0.12902294
13	0x3db8b4b1	0.09018839
14	0xbdbf5272	-0.09341897
15	0x3dd79d65	0.105280675
16	0xbdb87294	-0.09006229
17	0xbd9c1d5e	-0.07622789
18	0x3d8a3195	0.06747738
19	0xbe11e6c0	-0.1424818
20	0x3dd69a54	0.104786545
21	0x3e0ddd0a	0.13853851
22	0xbcbc1c5a	-0.022962738
23	0x3ba6b53c	0.005087523
24	0xbdb88580	-0.09009838
25	0xbdc209f7	-0.09474557
26	0x3df7616b	0.12079128
27	0x3d00bef3	0.031432103
28	0x3877533e	5.8966914e-05
29	0x3d252abd	0.04032396
30	0xbcff63c5	-0.031175504
31	0xbc923882	-0.01784921
32	0xbcfda6b9	-0.030963289
33	0x3d9c0960	0.07618976
34	0x3db3fa81	0.08788014
35	0xbd6a9840	-0.057274103
36	0xbe20f093	-0.15716772
37	0xbde9396a	-0.11387904
38	0xbe00b641	-0.12569524
39	0xbdf1360f	-0.11777889
40	0x3db847c8	0.08998066
41	0x3db5cc14	0.088768154
42	0xbdcb5a79	-0.09929366
43	0x3da11181	0.07864667
44	0x3e09cee9	0.13457836
45	0x3e0c40b0	0.13696551
46	0xbbad0046	-0.0052795736
47	0xbdec249b	-0.115304194
48	0xbe03da46	-0.12876233
49	0x3dbc9d3e	0.09209679
50	0xbdadc043	-0.08483937
51	0x3dd50ee6	0.10403232
52	0x3d06fefc	0.032958016
53	0xbd8b0804	-0.06788638
54	0x3d2a0ae7	0.041514304
55	0x3db58f8e	0.088652715
56	0xbc64964d	-0.01395185
57	0xbde35319	-0.11099834
58	0xbdd2b393	-0.10288157
59	0xbdb8e1ab	-0.09027418
60	0xbdb7b2b9	-0.089696355
61	0x3de6ddab	0.112727486
62	0xbdeab0f2	-0.11459531
63	0x3d1aa1c1	0.037751917

weight f4 [64, 32, 7, 7]
0	0x3d95a2fd	0.07306478
1	0x3d9ab35c	0.07553741
2	0x3d3d7c65	0.04626121
3	0xbc81fc99	-0.015867518
4	0xbcd0601e	-0.025436457
5	0xbcfcf6c0	-0.030879378
6	0xbd1b6e83	-0.03794719
7	0x39776f9f	0.00023597338
8	0x3c41f23b	0.011837537
9	0x3bc98900	0.006150365
10	0xbd422b36	-0.04740449
11	0xbcbbf18a	-0.022942323
12	0xbcfcc884	-0.030857332
13	0xbb8b4d1e	-0.0042511364
14	0x3b3877e5	0.0028147635
15	0x3c6b4c10	0.014361396
16	0xbc8c6b7b	-0.017141094
17	0xbd351df6	-0.044218026
18	0xbbe04f05	-0.0068453574
19	0xbcef13ef	-0.02918431
20	0xbd12e249	-0.035860334
21	0x3cf41aed	0.029797995
22	0xbc074446	-0.008256024
23	0xbbefc428	-0.007317085
24	0xbbba8a20	-0.0056927353
25	0xbd20770d	-0.039176036
26	0xbcb453ba	-0.02201258
27	0xbce50de3	-0.027960723
28	0x3bf7e177	0.0075647193
29	0x3c80b3c4	0.015710719
30	0xbbe8bbf8	-0.0071024857
31	0x3c89700e	0.016777065
32	0xb95627fc	-0.00020423526
33	0x3c547814	0.012968082
34	0xbc1fefcd	-0.009761763
35	0x3c5fbdfc	0.013656136
36	0x3c4efdbf	0.01263374
37	0xbb274014	-0.0025520371
38	0x3b8de718	0.004330527
39	0x3b723a20	0.0036960915
40	0x3a189260	0.00058201514
41	0x3c30219f	0.010750203
42	0xbcbe36f1	-0.023219557
43	0xbcb36e7c	-0.021903269
44	0xbca73ae4	-0.020413823
45	0xbbf6efca	-0.0075359093
46	0x3d0c6567	0.034276392
47	0x3d25f0a9	0.040512715
48	0x3c8d450a	0.017244834
49	0xbd1269f8	-0.03574559
50	0xbc8b6b2d	-0.017018879
51	0xbc8d2cc2	-0.017233256
52	0xbc1bccc9	-0.009509274
53	0xbc7149c2	-0.014727058
54	0xbcc8a798	-0.024493977
55	0x3ca6ff0c	0.020385288
56	0xbcf24bab	-0.029577097
57	0xbc3023ed	-0.010750753
58	0xbcea531f	-0.028604088
59	0x3c7b23be	0.015328346
60	0x3c86618d	0.016403938
61	0x3c20c471	0.00981246
62	0x3d0ede47	0.03487995
63	0xbcc2ab9c	-0.02376347
64	0xbc878555	-0.01654307
65	0x3c855b3a	0.016278852
66	0xbccb47b1	-0.024814459
67	0x3c1386b6	0.009004286
68	0xbb6482fd	-0.0034868114
69	0xbc23d71a	-0.010000015
70	0xbca92c4e	-0.020651009
71	0xbc5f305f	-0.013622372
72	0x3ba3cd18	0.0049988143
73	0xbce94d43	-0.028479224
74	0x391fdb0d	0.00015245024
75	0xb8889bb8	-6.51399e-05
76	0x3cc4061f	0.0239287
77	0xbb9fceb2	-0.004876935
78	0x3c6704b6	0.014100244
79	0xbcc1062c	-0.023562513
80	0xbcdc5b3e	-0.026898976
81	0x3c3cb95a	0.011518801
82	0x3c9ede93	0.019393241
83	0x3ae06963	0.0017121251
84	0x3c084a0e	0.008318437
85	0x3c386186	0.01125372
86	0x3c3d136e	0.011540277
87	0xbcb69643	-0.022288447
88	0xbb952dba	-0.00455257
89	0xbb04a2d7	-0.0020238662
90	0x3c3b6a54	0.011438925
91	0xbcbaad9c	-0.022787862
92	0xbcd88dc5	-0.026434788
93	0x3bbea921	0.0058185016
94	0x3cc3a45a	0.02388208
95	0xbc14ae14	-0.009074707
96	0x3b3421c3	0.0027485944
97	0x3d739a4c	0.05947332
98	0x3cab0a36	0.020878892
99	0x3a4d4e24	0.0007831773
100	0x3d49e02d	0.049286056
101	0x3cce4c07	0.025182737
102	0x3ae1e732	0.0017235039
103	0x3d25fc84	0.04052402
104	0x3d3a06e6	0.045416735
105	0x3c7f4e63	0.015582654
106	0x3ceff608	0.029292122
107	0x3d101d7b	0.035184365
108	0x3c24c9f1	0.010057912
109	0x3cae0803	0.021244055
110	0x3ca9d86e	0.020733085
111	0x3a875d9f	0.0010327584
112	0x3c4f2a65	0.012644385
113	0x3c462ef2	0.012096154
114	0x3b2c1767	0.0026259066
115	0x3cde5192	0.027138505
116	0x3cee3ff7	0.029083235
117	0xba8db4e5	-0.0010811357
118	0x3d269cf8	0.04067704
119	0xbc53002e	-0.012878461
120	0xbc126f7b	-0.008937712
121	0x3c875635	0.016520599
122	0x3cd2fc52	0.025755081
123	0x3c849929	0.016186314
124	0x3c794bad	0.015215796
125	0x3c9bdc6b	0.019026002
126	0x3b19b98d	0.0023456544
127	0xbc388bca	-0.011263797
128	0x3c66f1b1	0.01409571
129	0x3b0d684d	0.002157706
130	0x3ba847ef	0.0051355283
131	0x3cc5a48b	0.024126312
132	0x3d67584b	0.056480687
133	0x3a925f52	0.0011167324
134	0xbb4bf6ba	-0.0031122402
135	0x3c8a5e6d	0.016890729
136	0x3c96b110	0.018394977
137	0x3c7249bd	0.014788088
138	0x3c16d20c	0.0092053525
139	0x3c9bf43e	0.019037362
140	0x3c67af0b	0.014140855
141	0x3cbadb75	0.022809723
142	0xbb2e8cca	-0.002663421
143	0x3c6df03e	0.01452261
144	0x3c50f20c	0.012753021
145	0xbb62c651	-0.003460307
146	0x3d008a81	0.031382088
147	0x3c07d7ef	0.008291229
148	0x3ca90b39	0.020635234
149	0xbc730cb7	-0.014834574
150	0x3b7a4770	0.0038189553
151	0xbcb562de	-0.02214187
152	0xbd1e88b7	-0.0387046
153	0xbd63c1c7	-0.055604722
154	0x3c80e713	0.015735185
155	0x3d15c53a	0.036565043
156	0x3cb08b48	0.02155079
157	0x3cb485e6	0.022036504
158	0xbbc47863	-0.0059957965
159	0x3c9916e3	0.018687671
160	0xbc2bfdaa	-0.01049749
161	0x3d0396dc	0.032126293
162	0x3d152d9a	0.036420442
163	0xbb93955a	-0.004503888
164	0xbca73781	-0.020412209
165	0xbcab16aa	-0.02088483
166	0xbcfcd3a5	-0.030862639
167	0xbd26f368	-0.040759474
168	0x3c892533	0.01674137
169	0x3d1748d0	0.036934674
170	0x3d1e79f8	0.038690537
171	0x3ba15b5c	0.004924221
172	0x3ca6d615	0.020365754
173	0xbca50b49	-0.020146983
174	0xbc53fc0a	-0.012938509
175	0x3c933d83	0.017973667
176	0x3cb1fba8	0.021726444
177	0xbc33f840	-0.01098448
178	0x38fcf651	0.000120621764
179	0xbc1a8405	-0.00943089
180	0xbcf0206a	-0.029312331
181	0xbbf5a49d	-0.00749643
182	0x3c5a3c19	0.013319992
183	0xbcd5bd0b	-0.02609112
184	0xbceca47b	-0.028887024
185	0xbc5c2e59	-0.0134387845
186	0x3c311415	0.010808011
187	0xbbaeee2a	-0.00533845
188	0xbc5bdbf3	-0.013419139
189	0x3b5f2daa	0.0034054318
190	0x3c0bfeb3	0.008544612
191	0x3aead0d0	0.0017915014
192	0xbd3003b9	-0.0429723
193	0xbc1792a3	-0.0092512695
194	0xbc6f6aac	-0.014612835
195	0xbcfe31ef	-0.03102967
196	0xbc946d2e	-0.018118467
197	0x3c6d6931	0.014490412
198	0x3c25920e	0.010105623
199	0x3cdee31a	0.0272079
200	0xbb18c0e1	-0.0023308324
201	0x3c5c3b4c	0.013441872
202	0x3bd2fdab	0.006438931
203	0x3bbc7c16	0.005752097
204	0xbc4fffeb	-0.012695293
205	0xbc6a71b6	-0.014309337
206	0xbbb12dc1	-0.0054070656
207	0x3c34fcbe	0.011046587
208	0xbc4ed073	-0.01262294
209	0x3c2c3d2c	0.010512631
210	0x3c35ddbf	0.011100232
211	0x3cc028f9	0.023457037
212	0x3c9a35bf	0.018824456
213	0xbc327810	-0.010892883
214	0x3b3422c1	0.0027486535
215	0x3c7d343d	0.015454349
216	0x3ca82e6a	0.020529944
217	0xbc343d98	-0.011001013
218	0xbc607c8f	-0.013701572
219	0x3ce458b7	0.027874334
220	0xbbf1befe	-0.0073775044
221	0xbc626474	-0.013817895
222	0x3c8969cc	0.01677408
223	0xbc8ceb38	-0.017202005
224	0xbc0f81a7	-0.008758939
225	0xb955ba94	-0.00020382769
226	0x3b19367e	0.0023378427
227	0x3b8b362d	0.0042484016
228	0xbc9f8451	-0.019472273
229	0xbc7bbb38	-0.015364461
230	0xbad5d50b	-0.0016314102
231	0x3c431ba3	0.011908445
232	0xb98ff037	-0.0002745406
233	0x3ce96651	0.028491171
234	0x3c625495	0.013814111
235	0x3af2f5de	0.0018536409
236	0xbb1fe161	-0.002439581
237	0x3c1373fb	0.00899982
238	0xbc0dce26	-0.008655107
239	0x3bcc4d02	0.006234766
240	0xbc886e64	-0.0166542
241	0xbd223365	-0.039599795
242	0xbce037f0	-0.027370423
243	0xbd445785	-0.047935028
244	0xbd44d6dd	-0.048056472
245	0x3d3fb7f0	0.046806276
246	0xbb7542a5	-0.0037423756
247	0x3c99448d	0.018709445
248	0xbb9b0330	-0.0047306046
249	0xbcdc2346	-0.026872288
250	0xbc5a230e	-0.013314022
251	0xbc249074	-0.010044206
252	0x3cffb63e	0.03121483
253	0x3d051aec	0.032496378
254	0x3bb62ba4	0.0055594016
255	0xbc3590b1	-0.01108186

bias f4 [32]
0	0x3e759db3	0.23985939
1	0x3e447d0b	0.19188325
2	0xbe415ff5	-0.18884261
3	0x3e447658	0.1918577
4	0x3e4e2c02	0.20133975
5	0xbe2154f5	-0.15755065
6	0x3e3a8bd7	0.18217407
7	0x3cf8c0a6	0.0303653
8	0x3dacb51b	0.084329806
9	0x3e4e725d	0.20160814
10	0x3e5b39ab	0.21408717
11	0x3e345f26	0.17614421
12	0x3e83d68f	0.25749633
13	0x3d08e2ac	0.033419296
14	0x3ccdecbd	0.0251373
15	0x3d92af52	0.07162346
16	0x3e59997f	0.2124996
17	0x3e3ae8a0	0.18252802
18	0x3e6c3211	0.23065974
19	0x3e5169a7	0.2045046
20	0x3e8403ab	0.25784048
21	0x3e55a622	0.20864156
22	0x3e6130bd	0.21991248
23	0x3de89166	0.113558576
24	0x3e67d04f	0.22638057
25	0x3e6ceaf4	0.23136503
26	0x3e668733	0.22512512
27	0x3e46aea1	0.19402553
28	0x3e2eed9c	0.17082828
29	0x3e4effaf	0.20214723
30	0x3e2c4be4	0.16825825
31	0x3e30cd99	0.1726593

weight f4 [32, 16, 3, 3]
0	0xbd868baa	-0.065696076
1	0x3cce1aee	0.025159325
2	0x3d46e1c6	0.048555158
3	0xbcae7328	-0.021295145
4	0x3e0990fd	0.13434215
5	0x3d0c7b2c	0.034297153
6	0x3c7a52fd	0.015278575
7	0x3d126162	0.035737403
8	0x3b50897e	0.0031820233
9	0x39392bda	0.00017659311
10	0x3d177279	0.036974404
11	0xbc1fafd2	-0.009746509
12	0x3ce1ca03	0.027562147
13	0x3c80cd3f	0.015722869
14	0x3d61579d	0.055015195
15	0x3c279c18	0.010230087
16	0x3d7a80e5	0.06115808
17	0x3d740502	0.05957509
18	0x3d55fae6	0.05224123
19	0x3bc37d99	0.0059659
20	0x3daad1d1	0.083408006
21	0x3d55971b	0.05214606
22	0x3d8d59f0	0.0690192
23	0x3dd1aaa7	0.102376275
24	0xbd2230d8	-0.039597362
25	0x3d7a3b4f	0.061091717
26	0x3b8f74ce	0.004377938
27	0x3c5d2a5f	0.013498872
28	0x3ccd10c3	0.025032407
29	0x3cb135c2	0.021632079
30	0x3ce88740	0.028384805
31	0x3de16ee3	0.11007478
32	0x3dca6c9e	0.09883998
33	0x3c106a7f	0.008814453
34	0x3db8efaf	0.09030091
35	0x3dfd727b	0.12375351
36	0xbd0b131c	-0.03395377
37	0x3d26057d	0.040532578
38	0x3d3ae812	0.045631476
39	0xbc3c12ec	-0.011479121
40	0xbd29fd28	-0.041501194
41	0x3c02c26e	0.007980926
42	0x3d1462c2	0.036226995
43	0x3ba7ced9	0.0051210937
44	0x3d76f587	0.060292747
45	0x3c49dd6f	0.01232086
46	0x3ae721b4	0.0017633946
47	0x3c05a7ed	0.008157712
48	0x3bb256bd	0.005442469
49	0x3c1dd53b	0.009633358
50	0x3d2b69bd	0.041848887
51	0x3b28179f	0.0025648845
52	0x3d80d178	0.06289953
53	0x3c23338d	0.009961021
54	0x3d7b87a4	0.061408654
55	0x3bd0e796	0.0063752634
56	0x3d2f5761	0.04280794
57	0x3d58fc03	0.052974712
58	0x3cbd6839	0.023120986
59	0xbd2cfe75	-0.042234857
60	0xbaf98929	-0.0019038069
61	0x3cb56ac6	0.02214564
62	0xbd1c371e	-0.0381385
63	0xbb90cefe	-0.0044192066
64	0x3d5427f3	0.05179591
65	0x3cd1e74e	0.02562299
66	0x3ca9d117	0.020729585
67	0x3d247d57	0.040158596
68	0xbc42548c	-0.011860978
69	0xbd8f0dbf	-0.06985044
70	0xbd374d44	-0.04475142
71	0x3d3e6e45	0.04649188
72	0x3cc3f459	0.023920225
73	0x3d21b6c1	0.03948093
74	0xbb017d59	-0.001975855
75	0xb9784c5a	-0.00023679566
76	0x3df7b428	0.12094909
77	0x3ddebc4b	0.10875758
78	0x3de93c91	0.11388505
79	0x3db66743	0.08906414
80	0x3c1ab1e1	0.009441824
81	0x3c59492d	0.013262075
82	0x3d922959	0.07136793
83	0x3df7dbfa	0.12102504
84	0x3daa36cd	0.08311234
85	0x3e1a427f	0.15064429
86	0x3e12b162	0.14325479
87	0x3db8a547	0.09015899
88	0x3e0cb7a2	0.13741925
89	0x3daa49c9	0.08314855
90	0x3d41281f	0.047157403
91	0x3e116344	0.14198023
92	0x3cf13738	0.029445276
93	0x3d878231	0.06616629
94	0x3e1072a3	0.1410623
95	0x3dc05e5b	0.09392997
96	0x3d81088e	0.0630046
97	0x3dba2831	0.09089697
98	0x3d501a13	0.050806116
99	0xbd9ce729	-0.07661278
100	0x3d46f850	0.048576653
101	0x3d6aca7d	0.057322014
102	0x3d5076e0	0.050894618
103	0x3d81c8cc	0.06337127
104	0xbc34ae5d	-0.0110279
105	0x3dd5ac2b	0.10433229
106	0x3de26f19	0.110563464
107	0xbbcffcd9	-0.0063472805
108	0x3d166031	0.03671283
109	0x3dc46fde	0.095916495
110	0x3d4d1467	0.050068285
111	0x3db726e2	0.08942963
112	0x3d7d3346	0.061816476
113	0x3d2addda	0.04171548
114	0x3ca28131	0.019836994
115	0xbc832518	-0.016008899
116	0x3d3c43b0	0.04596299
117	0xbc17a7bf	-0.009256302
118	0x3c893ed2	0.016753588
119	0x3d72bbcf	0.05926114
120	0x3d8a1096	0.06741445
121	0xbcd7b755	-0.026332537
122	0xbd56b180	-0.05241537
123	0x3d3b20c0	0.04568553
124	0x3c6d1ead	0.014472646
125	0xbcaea7e1	-0.021320285
126	0x3dc58d17	0.096460514
127	0x3da735e7	0.08164578
128	0x3d784c38	0.060619563
129	0x3dcca294	0.09991947
130	0x3e33f208	0.17572796
131	0x3db3b577	0.08774846
132	0x3ca79995	0.020458976
133	0x3dc4c405	0.096077
134	0x3d8243fd	0.06360624
135	0xbd32ab76	-0.04362055
136	0xbc2003d3	-0.009766537
137	0x3d60f6a0	0.0549227
138	0x3d20bbd5	0.03924163
139	0x3d7b2bb9	0.061320994
140	0xbc5a0a75	-0.013308157
141	0xbabefc09	-0.0014570962
142	0x3d0a900c	0.03382878
143	0x3cd8fd04	0.026487835
144	0x3d0ae67f	0.033911224
145	0xbd6190a4	-0.05506958
146	0xbccbc580	-0.024874449
147	0xbd874cc6	-0.0660644
148	0x3d7542db	0.05987821
149	0x3cec6d46	0.0288607
150	0xbc591f4e	-0.0132520925
151	0x3db5f689	0.088849135
152	0x3d2bba8f	0.041925963
153	0x3d10fa25	0.035394806
154	0xbd8e81cd	-0.06958351
155	0x3bbe95ed	0.0058162124
156	0xbd938b9b	-0.07204362
157	0x3bac80c9	0.005264376
158	0x3d7cf7ec	0.061759874
159	0x3c89ce16	0.016821902
160	0x3d11b8af	0.03557652
161	0x3dcfeab1	0.10152186
162	0xbc4e0185	-0.0125736045
163	0xbbc2f424	-0.005949514
164	0xbe14ad72	-0.14519289
165	0xbc10d9a4	-0.008840952
166	0x3ced07dd	0.028934414
167	0x3b8bac89	0.004262511
168	0xbdbbaf7b	-0.091643296
169	0x3d2b2f33	0.04179306
170	0xbe2fcf63	-0.17168956
171	0x3cddfd38	0.027098283
172	0x3d0d4097	0.034485426
173	0xbbd3ffcd	-0.006469703
174	0x3da07904	0.07835582
175	0x3e06c1ed	0.13159914
176	0x3d285624	0.041097775
177	0x3dad3715	0.08457772
178	0x3d4b812e	0.049683742
179	0x3cd4c167	0.025971128
180	0x3d922986	0.07136826
181	0x3d99caed	0.07509408
182	0xbd7ed2c2	-0.062212713
183	0x3cadfc5a	0.021238495
184	0x3cb3649c	0.02189856
185	0xbd445681	-0.04793406
186	0x3c9d9727	0.019237114
187	0xbbbf86ba	-0.005844918
188	0xbc9d93f1	-0.019235583
189	0x3d4fd90a	0.050744094
190	0xbc515356	-0.0127762165
191	0xbc3fabe4	-0.011698697
192	0xbd89513d	-0.06704948
193	0x3d0c7eb7	0.034300532
194	0x3d047c49	0.03234509
195	0x3b58078c	0.0032963483
196	0x3d9f4afe	0.077779755
197	0x3ccfeb6b	0.02538081
198	0xbdabd7a9	-0.08390743
199	0xbd79627c	-0.060884938
200	0xbbc02c43	-0.0058646514
201	0xbe07ab68	-0.1324898
202	0xbb34c9a2	-0.0027586003
203	0xbda99b01	-0.08281518
204	0xbd975bf9	-0.07390589
205	0xbc5e9d89	-0.013587364
206	0xbd908fad	-0.07058654
207	0x3d8c6829	0.068558045
208	0x3caf26d5	0.021380821
209	0xbda04fa8	-0.07827693
210	0x3d09dea3	0.03365959
211	0xbc63e2df	-0.013909071
212	0xbd13fca7	-0.03612962
213	0xbd14b2ab	-0.036303204
214	0xbd830a7b	-0.06398483
215	0xbd19606a	-0.037445463
216	0x3d8f6cbb	0.070031606
217	0xbc19d792	-0.009389775
218	0xbc6f5ec0	-0.0146099925
219	0x3db552c7	0.08853679
220	0x3ae0dd8e	0.0017155872
221	0xbcf46315	-0.029832402
222	0xbcfe5397	-0.031045718
223	0x3d68bd87	0.056821372
224	0x3d1d1a5e	0.038355224
225	0x3d20ee08	0.039289504
226	0xbbfb427e	-0.0076678386
227	0xbbfb0d5b	-0.007661504
228	0x3d83ee97	0.06441992
229	0x3e0d679e	0.13809058
230	0x3db61fcc	0.088927835
231	0x3d44497f	0.047921654
232	0x3e04466d	0.1291749
233	0x3d0f5231	0.034990493
234	0xbd09296b	-0.033486765
235	0x3d37441f	0.0447427
236	0xbcd2d829	-0.025737839
237	0x3d07c9c4	0.033151403
238	0x3decf968	0.11571008
239	0x3d88f9db	0.06688281
240	0x3dae0b95	0.08498303
241	0x3d7a9e8f	0.06118637
242	0x3d6efd42	0.058346994
243	0x3d404ee9	0.046950255
244	0x3c82c0ef	0.015961139
245	0x3da1dd11	0.07903493
246	0x3cc5e8bc	0.024158828
247	0x3b84129f	0.00403054
248	0x3d2e9ada	0.042628147
249	0xbd0fa7ec	-0.035072252
250	0xbd3b5aaf	-0.04574078
251	0xbd5eb441	-0.054371122
252	0xbde2324a	-0.11044748
253	0x3d325cd6	0.043545566
254	0x3d5259ef	0.0513553
255	0xbcd4c419	-0.025972413

bias f4 [16]
0	0x3e69e9f7	0.22843157
1	0xbd4778bc	-0.048699126
2	0x3e322080	0.1739521
3	0x3dd2f1a5	0.10299996
4	0x3dde50bc	0.108552426
5	0x3df203f1	0.11817158
6	0xbccd2a82	-0.025044683
7	0x3e59afac	0.2125842
8	0x3e7d6b9d	0.24748082
9	0x3e6b0a41	0.2295313
10	0x3de6bcc8	0.11266476
11	0x3e14d622	0.1453481
12	0x3d367d58	0.04455313
13	0x3dcc9752	0.099897996
14	0x3dcd86f3	0.10035505
15	0x3e2a17a2	0.16610578

weight f4 [16, 2, 3, 3]
0	0xbde2cbfb	-0.110740624
1	0xbe25783d	-0.16159149
2	0x3dcf7fd9	0.10131807
3	0xbe2a6925	-0.16641672
4	0xbc1c8a0a	-0.009554395
5	0xbdf41c69	-0.11919481
6	0x3d987d2f	0.07445752
7	0x3e5e0fd4	0.21685725
8	0x3d2f69ab	0.042825382
9	0xbd908e87	-0.07058435
10	0x3e04e737	0.12978826
11	0x3e0087a0	0.12551737
12	0x3da4c620	0.08045602
13	0x3e82dba5	0.255582
14	0x3ddb197d	0.10698221
15	0xbdbdde6c	-0.09270939
16	0x3df2e4ef	0.11860072
17	0xbd407671	-0.046987955
18	0xbe23b3ab	-0.15986507
19	0xbe3e68a8	-0.1859461
20	0xbd369a95	-0.044581015
21	0xbe2ccfd8	-0.16876161
22	0xbea7cb16	-0.3277213
23	0xbdf9a443	-0.121895336
24	0xbc314774	-0.010820258
25	0xbe2f1c8c	-0.17100734
26	0x3d08ed4f	0.03342944
27	0xbd4ad02f	-0.049514946
28	0xbe172465	-0.14759977
29	0xbe203eeb	-0.15649001
30	0xbe8ef89c	-0.2792405
31	0xbe91fa42	-0.28511244
32	0xbdadf954	-0.08494821
33	0x3e130e0b	0.14360826
34	0xbdfc13ed	-0.12308488
35	0x3d1ffa17	0.039056864
36	0x3ca1fa32	0.019772623
37	0xbaaebd69	-0.0013331595
38	0xbd50015c	-0.050782546
39	0x3de83e00	0.113399506
40	0xbd22603a	-0.03964255
41	0x3e3870c2	0.18011764
42	0x3de3ce2f	0.11123311
43	0xbdea48ec	-0.1143969
44	0x3d57cc08	0.052684814
45	0x3d9b9aa9	0.075978585
46	0x3cbd978c	0.023143552
47	0x3bfab980	0.007651508
48	0x3c8d97c7	0.017284287
49	0x3ea431a7	0.32069132
50	0x3e95a1d8	0.2922504
51	0xbd95587a	-0.07292266
52	0x3d3857e9	0.045005713
53	0xbcafbe11	-0.021452935
54	0x3ce75476	0.028238516
55	0x3e5230b8	0.20526397
56	0xbe2a01ea	-0.16602293
57	0x3d9796fc	0.07401845
58	0xbcbf7636	-0.023371797
59	0xbd92c625	-0.07166699
60	0xbe19c8cf	-0.15018009
61	0xbe1c953a	-0.152913
62	0xbbc84475	-0.0061116763
63	0x3d9f2476	0.07770626
64	0x3c53393d	0.012892065
65	0x3d50a44b	0.050937932
66	0x3e064495	0.131121
67	0x3e0b7f57	0.13622795
68	0xbda2dba5	-0.0795205
69	0x3c02c90c	0.007982504
70	0x3de17508	0.1100865
71	0x3d80cfcc	0.06289634
72	0x3d822e43	0.0635648
73	0xbdd6bb09	-0.10484893
74	0x3d7817c3	0.060569536
75	0x3da2ee26	0.079555795
76	0xbe148539	-0.14503945
77	0xbd292f75	-0.041305024
78	0x3e293695	0.16524728
79	0xbddc5a75	-0.10759441
80	0x3e16ce91	0.14727236
81	0x3e7c7cd9	0.24657
82	0x3e465526	0.19368419
83	0x3e6f8439	0.23390283
84	0x3d67fd56	0.056638084
85	0xbd3aac70	-0.045574605
86	0x3d7e6cad	0.06211536
87	0x3d553396	0.05205115
88	0x3e0f4efb	0.13994972
89	0x3bbaa8c8	0.00569639
90	0xbda82bde	-0.08211492
91	0x3e106d7c	0.14104265
92	0x3d6198a2	0.055077203
93	0xbda2e9af	-0.07954728
94	0xbd996527	-0.074899964
95	0x3e2592f6	0.16169342
96	0xbe26711a	-0.16254082
97	0xbd4c1d3d	-0.04983257
98	0xbe30bce0	-0.1725955
99	0x3e4e2704	0.20132071
100	0xbd687ab3	-0.05675764
101	0x3e298085	0.16552933
102	0xbc78c5ba	-0.01518386
103	0xbac77502	-0.0015217366
104	0x3e84ca98	0.25935817
105	0x3e244dd3	0.16045313
106	0x3bb73aa0	0.0055917054
107	0x3db0b10e	0.086275205
108	0xbe129857	-0.14315926
109	0xbe32cc74	-0.17460805
110	0xbe50438b	-0.20338266
111	0xbe1712f9	-0.14753331
112	0xbea0caa8	-0.31404614
113	0xbe7a6139	-0.2445115
114	0xbe0ff3ac	-0.14057797
115	0xbe2f7c2e	-0.17137215
116	0xbdbe30b5	-0.09286634
117	0xbe1eead2	-0.15519264
118	0xbda4f406	-0.08054356
119	0x3c8dc3ff	0.017305372
120	0xbccd7f9b	-0.025085261
121	0xbdd05146	-0.10171752
122	0xbbb9358a	-0.0056521343
123	0xbe451f58	-0.19250238
124	0xbd7c4e07	-0.06159785
125	0xbd8deb5e	-0.06929658
126	0x3e334c52	0.17509583
127	0x3e20e29f	0.15711449
128	0xbcfa25bf	-0.030535577
129	0xbe36f2c2	-0.17866042
130	0xbc8c376a	-0.017116267
131	0xbd9f6fae	-0.07784973
132	0x3d55d665	0.052206416
133	0x3c59d589	0.01329554
134	0xbe0b3237	-0.13593374
135	0x3d68ea3c	0.05686401
136	0xbb91045a	-0.0044255676
137	0x3e4b72f7	0.19868074
138	0x3e8aa482	0.27078635
139	0x3e0cfd29	0.13768448
140	0xbcdc3cf4	-0.026884533
141	0xbdbb43a1	-0.091437586
142	0xbdb06b53	-0.086142205
143	0x3e29c28a	0.16578117
144	0xbd8457b9	-0.06462044
145	0xbdb37150	-0.08761847
146	0xbd39dc61	-0.045376185
147	0x3ce2b2c9	0.027673142
148	0xbd8a0204	-0.06738666
149	0xbdf8cd50	-0.12148535
150	0xbe49e1cc	-0.19715041
151	0xbdb47a82	-0.08812429
152	0x3e1c83c8	0.15284646
153	0xbdfe99e8	-0.12431699
154	0x3e5a733d	0.21333022
155	0xbd820069	-0.063477345
156	0xbd0afa8f	-0.033930358
157	0x3e961da0	0.29319477
158	0x3e82face	0.25581974
159	0x3e1f65e9	0.1556622
160	0x3dbcda97	0.0922138
161	0x3e4f1750	0.20223737
162	0x3e4cc0c1	0.19995405
163	0x3d8305ef	0.06397616
164	0x3e4308ae	0.1904628
165	0x3b1cfe27	0.0023955198
166	0x3e963406	0.29336566
167	0x3e82ef8d	0.25573388
168	0x3db0131e	0.08597396
169	0x3e560b9d	0.20902868
170	0x3e1c1e61	0.15245964
171	0xbdc3f6dd	-0.0956857
172	0x3dae11cf	0.084994905
173	0x3d28e82e	0.04123705
174	0x3e6afd7f	0.22948264
175	0x3e34548e	0.1761038
176	0x3e411fcc	0.18859786
177	0xbe19e023	-0.15026908
178	0x3e091ac1	0.13389112
179	0x3b09582f	0.0020957103
180	0x3db844f6	0.08997528
181	0x3e22ab9b	0.15885775
182	0xbe1e71a0	-0.15473032
183	0x3e3b779f	0.1830735
184	0x3ea7b71b	0.32756886
185	0x3e01f8ad	0.12692519
186	0x3d099358	0.033587784
187	0x3e816c66	0.25278014
188	0x3e0aa265	0.13538511
189	0x3d7abfdb	0.061218124
190	0xbdfe7010	-0.12423718
191	0xbbbe90e1	-0.0058156108
192	0xbd0bbdcf	-0.034116562
193	0xbdf2c8b3	-0.118546866
194	0xbe822257	-0.25416824
195	0x3e3a5a23	0.18198447
196	0xbd3a35fb	-0.045461636
197	0xbdd36b11	-0.10323156
198	0x3d05c1f4	0.03265567
199	0xbd63017a	-0.05542133
200	0xbd8efbb7	-0.069816045
201	0xbda03b97	-0.07823866
202	0x3e249202	0.16071323
203	0x3d955554	0.07291666
204	0x3ce9c8df	0.028538166
205	0x3d91d0a9	0.07119877
206	0xbe3edc14	-0.1863864
207	0x3e6aa869	0.22915806
208	0x3d3c6858	0.045997947
209	0x3e5895ba	0.21150866
210	0xbe087ae2	-0.13328126
211	0x3d3519a0	0.04421389
212	0xbe2b511b	-0.16730158
213	0x3dbd57db	0.09245273
214	0x3d90db03	0.07073023
215	0x3e587359	0.21137752
216	0x3d72715d	0.059190143
217	0x3c65f351	0.014035062
218	0x3e2c88f4	0.16849118
219	0xbbd4374c	-0.0064763185
220	0x3e11ee63	0.14251094
221	0x3e0fdae0	0.14048338
222	0x3d77e78c	0.060523555
223	0x3d9eb90d	0.077501394
224	0xbce24964	-0.027622886
225	0xbe1c5623	-0.15267234
226	0xbe0a8bc2	-0.13529876
227	0xbe89473c	-0.2681216
228	0xbdd5f7a4	-0.10447624
229	0xbe83351b	-0.25626454
230	0xbe18a6c9	-0.14907373
231	0xbd6ca836	-0.057777606
232	0xbe157d70	-0.14598632
233	0xbe3cb0ea	-0.18426862
234	0x3e3616ec	0.17782182
235	0x3d91b047	0.071137
236	0x3de5c04a	0.11218317
237	0x3d32205c	0.04348789
238	0xbdfc14ca	-0.12308653
239	0xbe0f7d97	-0.14012752
240	0x3e3a5089	0.18194784
241	0x3e2b3a40	0.1672144
242	0x3e49c313	0.19703321
243	0x3df78b0e	0.120870695
244	0x3b6d4f55	0.0036210616
245	0x3e214fdb	0.15753119
246	0x3df687d0	0.12037623
247	0x3e4b45a9	0.19850792
248	0x3ddf1ea1	0.10894514
249	0x3e0dad5f	0.13835667
250	0xbd2807d5	-0.041023094
251	0xbdeb2411	-0.114814885
252	0x3d9a4b08	0.07533842
253	0xbd037fa3	-0.032104146
254	0x3dd88822	0.1057284
255	0x3d968ce5	0.07351092

bias f4 [2]
0	0x3d362c9e	0.044476144
1	0x3da057d9	0.078292556
