Misc/baselinev1.pt (torch_old, 848108 bytes, 12 tensors)

weight f4 [16, 3, 3, 3]
000000 da 86 2b be 85 6e 2d be 90 55 25 3d 51 2b e6 3d
       -0.1675066 -0.16936691 0.040364802 0.11238731
000010 f8 a5 49 3e eb 70 0c 3d 9d c1 14 bd e0 52 48 bc
       0.19692218 0.034287374 -0.036317457 -0.01222679
000020 72 a4 14 bd 10 79 bd 3e 5f 42 c3 3e 4c bd 9b 3e
       -0.03628964 0.37006426 0.38136575 0.3041786
000030 b7 57 ab 3e f5 9f b9 3e 11 9d 97 3e b3 a9 96 3e
       0.3346536 0.3625485 0.2961202 0.29426345
000040 08 3e a8 3e e7 1c 8c 3e 96 ad 17 3e d7 9e d1 3d
       0.32859826 0.273658 0.14812312 0.102353744
000050 fa d6 92 3d 13 fe 98 3d 5a 1e 8e 3d 0f 94 7e 3c
       0.0716991 0.07470336 0.06939383 0.01553823
000060 e1 70 6e 3d c2 a0 68 3c d7 92 47 bc fa 4c 86 3a
       0.05821312 0.014198484 -0.012181005 0.001024633
000070 61 cb 02 be 8e 53 d6 3d 78 32 14 be ef 53 f1 3d
       -0.12772895 0.104651555 -0.14472377 0.11783587
000080 82 6f 49 3d d0 47 87 3d 79 9e 26 bd f3 32 ea bc
       0.049178608 0.06605494 -0.040678475 -0.028588748
000090 bd a5 9d bd 55 76 7b bd e1 7e 1b 3b 5f de 8d bd
       -0.07697628 -0.061392147 0.0023726749 -0.069271795
0000a0 38 2c ae bd e7 ad 27 bd 29 c9 10 bd bc de ce bc
       -0.08504528 -0.04093733 -0.03534809 -0.025252692
0000b0 50 b9 68 bc cc 68 29 3e 54 18 2f 3e 3b bd 4a 3e
       -0.014204338 0.16543883 0.17099124 0.19798748
0000c0 aa f6 27 3e b3 80 20 3e 08 34 3c 3e 89 e1 12 3e
       0.16402689 0.15674095 0.18379223 0.14343847
0000d0 9c 72 2f 3e 18 cf 48 3e 6e 02 85 3d 6d 31 74 bb
       0.17133564 0.1961025 0.06494604 -0.0037260905
0000e0 e9 c7 90 3d e7 7e fc 3d 45 7e b7 3c 92 1e a2 3d
       0.0706938 0.12328892 0.022399077 0.07915987
0000f0 92 cc ef bc 1f 54 2c be 94 19 97 bd 47 8b d7 3e
       -0.029272351 -0.16828965 -0.073779255 0.42098448
000100 e9 bf c0 3e 5a 42 b9 3e 3e 7d d9 3e 1f 90 c9 3e
       0.37646416 0.36183435 0.42478365 0.39367768
000110 a0 d1 a7 3e d5 2b ce 3e 01 26 cf 3e 55 c0 d4 3e
       0.3277712 0.40267816 0.40458682 0.41552988
000120 d8 50 de 3d 80 5b 73 3d c9 a2 a2 bc 03 1c 1b 3e
       0.108552635 0.059413433 -0.019853013 0.15147404
000130 80 c1 e0 3d 1e 9a 7b bc 4c 98 0b 3e 30 b9 f2 3d
       0.10974407 -0.015356569 0.13632315 0.11851728
000140 41 1c 8e 3d 02 e7 f4 bd 05 d5 40 bd 20 d0 23 3e
       0.06938983 -0.11958124 -0.04707815 0.15997362
000150 90 05 1a bc 3c 7e c2 bd d7 08 3a 3e 32 eb 31 be
       -0.00940074 -0.094967335 0.18167435 -0.17374876
000160 a8 92 56 38 6e 1b a0 3d f6 5f 6a 3e e4 74 63 3e
       5.115816e-05 0.07817732 0.22888169 0.22212559
000170 54 60 5f 3e 28 43 22 3e c1 02 33 3e c3 fb 3e 3e
       0.2181409 0.1584593 0.1748152 0.18650727
000180 3e 07 54 3e 0c 02 8f 3e e4 99 6f 3e 20 3e 76 3e
       0.20705888 0.2793125 0.23398548 0.24047136
000190 9c fa 76 3e d8 fe 9d 3e 55 10 02 3e b9 84 4a 3e
       0.24119037 0.30858493 0.12701543 0.19777192
0001a0 ef 9c 94 3e 38 7c 06 3e 55 8b 3d 3e d1 60 80 3e
       0.2902598 0.13133323 0.18510182 0.25073865
0001b0 01 9f 8b bd a7 ab d6 bb bd 28 67 bd 17 2b 85 bd
       -0.06817437 -0.0065512243 -0.056435335 -0.06502359
0001c0 56 81 71 3c e4 21 83 bd 0b 29 f7 3d 46 99 55 3d
       0.014740309 -0.064029485 0.12068375 0.052148126
0001d0 6b 6d b4 3c 66 67 44 bd b4 ae 89 bd 55 32 4e bd
       0.02202483 -0.04795017 -0.06722775 -0.05034097
0001e0 86 a6 24 bd 82 87 26 bd 66 2f 07 bd 50 a0 0f bb
       -0.04019787 -0.040656574 -0.033004187 -0.0021915622
0001f0 3c ac 41 bc 31 4d 97 3c bc 18 3c 3e 37 19 1d 3e
       -0.011820849 0.018469425 0.1836881 0.1534165
000200 9e f4 1f 3e d4 e1 25 3e 2f 08 1f 3e 4d 53 2c 3e
       0.15620658 0.16199428 0.15530466 0.16828652
000210 b1 8c 3b 3e 97 9a 29 3e 4b 8d 52 3e 14 77 37 3d
       0.18315388 0.16562878 0.20561711 0.044791296
000220 34 87 c4 bb c7 15 f8 3d 07 c6 13 3d 08 40 05 be
       -0.005997563 0.12113529 0.036077525 -0.13012707
000230 b0 3f fa 3d ea 7d 0b bd 3d c7 aa bd de f0 b8 bd
       0.12219179 -0.034055628 -0.08338783 -0.09030317
000240 13 0d bd 3d f1 43 00 3e 70 3c 5f 3d a7 21 9a 3d
       0.09231009 0.12525918 0.054500997 0.0752595
000250 1d 3a a2 3d ff 4e 8a 3d 18 b2 9c 3d a9 44 13 3e
       0.079212405 0.067533486 0.07651156 0.1438166
000260 9c ea 8d 3d 61 61 f4 be c6 7b 0a bf 10 7f ee be
       0.06929514 -0.47730544 -0.54095113 -0.46581316
000270 24 97 01 bf 27 f9 06 bf 30 84 fc be ac b6 04 bf
       -0.5062125 -0.52723926 -0.493196 -0.51841235
000280 0d c1 14 bf b9 d2 fb be d6 0e 2b 3e dc 86 0d bd
       -0.5810707 -0.49184206 0.16704878 -0.03455244
000290 da 9e a5 bd a3 ea 2c bd 49 89 af bd 31 6b 49 be
       -0.08086939 -0.042215955 -0.08571107 -0.19669797
0002a0 2b dc 2c 3e 7e 64 b3 3c c8 fa 50 bd 0b 78 9d 3d
       0.16880862 0.021898504 -0.051020414 0.07688912
0002b0 ef d5 96 3d 2a e2 e3 3d b3 39 d4 3d cf 89 e8 3d
       0.07365023 0.11127122 0.10362568 0.1135441
0002c0 1d e4 14 3e 01 69 02 3e 64 0c 04 3e 6c 73 30 3e
       0.14540143 0.12735368 0.12895352 0.1723153
0002d0 47 47 c8 3c 74 cc fb bc 88 e6 af bd 5e 8e 7e bc
       0.02444805 -0.03073714 -0.08588892 -0.015536873
0002e0 33 91 c3 bd 13 62 03 be 90 a0 cb 3c 12 84 ad bd
       -0.09549179 -0.12830381 0.024856836 -0.08472456
0002f0 f4 1c b2 bd dd 11 ad 3d 70 04 14 3e 1f 64 1a 3d
       -0.086969286 0.08450673 0.14454818 0.03769314
000300 9a fb 5e be e0 20 57 3d fb 41 0d 3e 68 c0 59 3d
       -0.21775666 0.052521586 0.13794701 0.05316201
000310 9f 6e 49 be 9e f0 96 bc bc 7b 01 bf 2f 09 f0 be
       -0.19671105 -0.018425282 -0.5057943 -0.46882007
000320 e3 12 de be 1a 93 fc be e5 a2 de be 24 42 c2 be
       -0.43373784 -0.4933098 -0.43483654 -0.37941086
000330 78 bd db be 1d 48 ca be aa 9e bc be 5b 8c 59 be
       -0.4291799 -0.39508143 -0.368398 -0.21244948
000340 a6 e8 89 be 02 db ac be e0 bd 7e be 51 08 91 be
       -0.2693531 -0.3376084 -0.24877119 -0.28326657
000350 36 f3 ac be 03 88 a6 be b0 65 a9 be a9 0c be be
       -0.33779305 -0.32525644 -0.33085394 -0.37119034
000360 42 d5 85 bd a9 6c 13 3e e4 92 13 bd a8 55 fa bd
       -0.06534816 0.1439692 -0.036028758 -0.12223369
000370 53 8e 06 3e 75 7b 3c be c1 11 e3 3d c0 17 d7 3d
       0.1314023 -0.1840647 0.11087371 0.10502577
000380 7e 85 b6 bd 00 1e 5f bc ed 87 7d bd 59 1d 93 bd
       -0.0891218 -0.013617992 -0.061897207 -0.07183332
000390 f5 21 e7 bc ac 1f ac bd ae 76 f4 bd 56 69 de bc
       -0.028214434 -0.084044784 -0.11936699 -0.027149837
0003a0 21 ca a2 bd 59 4e a3 bd d4 ac 44 3e 33 69 4a 3e
       -0.07948709 -0.07973928 0.19206554 0.19766693
0003b0 5c 5d 66 3e 17 09 3c 3e d7 ad 36 3e 23 cf 1f 3e
       0.22496551 0.18362843 0.17839752 0.1560636
0003c0 15 96 46 3e 73 34 24 3e 77 e0 08 3e 0c c9 07 bd
       0.19393189 0.16035633 0.13366877 -0.033150718
0003d0 13 d1 cf bc e9 42 f2 3d 9e 1c d5 bc 7a 90 bb 3c
       -0.025368249 0.11829168 -0.026014622 0.02289604
0003e0 9b c1 44 bd f0 e9 92 3c 38 49 29 bd 46 73 f1 bc
       -0.0480362 0.017933816 -0.041329592 -0.029473912
0003f0 d1 fb c7 ba 69 72 18 bc 72 82 b1 bb b2 a3 7a bb
       -0.0015257542 -0.009304621 -0.0054171616 -0.0038244543

bias f4 [16]
000000 c9 95 36 3e 50 ae 0e 3e 65 57 2c 3d ab 92 43 3e
       0.17830576 0.13933682 0.042075533 0.19098918
000010 71 ed e4 3e c8 2a 5c bc 74 b2 da 3e d5 14 a3 be
       0.44712403 -0.013437934 0.42714274 -0.3185183
000020 12 e6 ec 3d e9 16 ee 3f 73 61 05 be f7 87 af 3e
       0.1156732 1.8600742 -0.13025455 0.3428342
000030 af a1 98 3f 22 c6 18 bd 40 92 55 3d 34 92 71 3f
       1.1924342 -0.03729833 0.052141428 0.94363713

weight f4 [32, 16, 3, 3]
000000 ce ad f6 3c 12 7f 78 bd be 9c 8d bd f4 d1 b6 3c
       0.030112173 -0.06066806 -0.06914662 0.02231691
000010 c1 68 bd 3d 1f 42 20 3d 80 ce e5 3b 06 0d 34 bc
       0.09248496 0.039125558 0.007013142 -0.010989433
000020 db 0e cb 3d 80 c0 6b bd 44 ed 3b 3d 8c 20 12 bd
       0.09914943 -0.05755663 0.04588057 -0.03567557
000030 30 20 2c bd 9c e2 b6 bd ee 3b 8a 3d 65 bf 9b bc
       -0.042022884 -0.08929941 0.06749712 -0.019012162
000040 ce ba 24 3d 0b 71 bd bd f5 19 97 3b 60 6d 3d bd
       0.040217213 -0.09250077 0.0046112486 -0.046246886
000050 6f eb aa bd f1 6d c7 3c 4b 1b ad 3b d6 9f 53 bd
       -0.08345687 0.024344416 0.0052827946 -0.051666103
000060 ba 0d e7 bc 7c 08 ac 3d 8b f4 bf bc 6d 52 9b bb
       -0.028204788 0.08400056 -0.023432037 -0.0047400505
000070 05 8d 82 bd a3 44 ee bd 66 fe cc 3d 2a 67 ad bd
       -0.063745536 -0.11634185 0.1000946 -0.084669426
000080 e0 7a 85 bd ea f5 dd bc 10 c6 fd 3c b5 c8 e4 3d
       -0.06517577 -0.0270948 0.030978233 0.11171094
000090 4b cd 0a 3d eb 23 a2 3b 4d 4f 58 be 4f a8 9c 3c
       0.03388719 0.0049481294 -0.21124001 0.019123225
0000a0 f9 97 69 3c e8 2e 69 3c 13 7e e2 bd 9d b8 17 3c
       0.0142574245 0.014232375 -0.11059203 0.009260324
0000b0 6f 9d 34 bd 4c 86 47 3e 80 c5 a3 b6 05 b5 95 be
       -0.044095453 0.19484824 -4.8807706e-06 -0.2923967
0000c0 78 d0 85 3e 11 2d 02 bc 7a c5 6f be 62 40 17 3e
       0.26135612 -0.007945315 -0.23415175 0.14770654
0000d0 4e 74 69 be 74 f6 d9 be 91 ab a3 bc 86 00 40 3d
       -0.22798273 -0.4257084 -0.01997927 0.0468755
0000e0 16 c4 97 be 3c 7d a3 37 12 0b 8f bc be 44 0f be
       -0.2964179 1.9489431e-05 -0.017461333 -0.13991067
0000f0 00 3a 41 bd 97 3e 94 bb 93 0b 1a be b1 bc 45 3d
       -0.047174454 -0.004524063 -0.15043478 0.048275653
000100 9f 16 78 3c a1 05 86 bd ea cb dd 3a 16 58 f4 bc
       0.015142112 -0.065440424 0.0016921733 -0.029827159
000110 11 ec 32 3d 03 cb 87 3d 0b ec 0c bd 6b 2b ba bd
       0.04368216 0.06630518 -0.034404796 -0.090903126
000120 b2 64 07 3d 20 47 04 be 2a 01 9b bd 00 cd 37 3d
       0.033055015 -0.12917757 -0.075685814 0.044873238
000130 69 02 31 3d 59 b3 c1 bd 4e 4e 34 bd e8 16 fd bd
       0.04321519 -0.09458036 -0.04401999 -0.12357885
000140 70 dd 93 bd b0 f7 8b bd 18 7c d0 3c 49 1b 08 3e
       -0.0721997 -0.06834352 0.025449798 0.13291658
000150 cd 99 9f 3d 93 49 31 be 0c af 80 bd 1e 67 a0 bd
       0.07793007 -0.17313223 -0.062833875 -0.07832168
000160 10 cd 1b 3d f7 cc e9 bd 19 73 25 3d 9d d6 22 3d
       0.03803736 -0.11416047 0.04039297 0.039755452
000170 18 b7 11 3c 02 c6 fa bd 50 bc 2a bd 68 bb 06 be
       0.008893751 -0.12244798 -0.041683495 -0.13157427
000180 84 10 b9 bd 3e a6 8f 3a 7b fd a2 bd 87 70 1c be
       -0.09036353 0.0010959578 -0.07958504 -0.15277301
000190 ec 21 08 be 42 d1 0d 3d 99 ec 5d bd 98 62 b1 bd
       -0.1329419 0.034623392 -0.054180715 -0.086613834
0001a0 d2 f0 33 bd 2c f5 5f bb 90 e9 1f bd 38 ab 50 be
       -0.043930836 -0.0034173233 -0.039041102 -0.20377815
0001b0 30 56 c8 3d 68 22 14 3d ea ee 6f be ce b8 00 3e
       0.09782064 0.036165625 -0.23430982 0.12570497
0001c0 8f 88 b5 3d 26 2c 92 bd 96 6f 5b bd 8a 85 98 bd
       0.08863937 -0.07137327 -0.053573214 -0.074473456
0001d0 ac 66 a0 be ee f4 a6 bd fc 1b b9 bc 80 5e f1 bc
       -0.31328332 -0.081521854 -0.022596352 -0.029464006
0001e0 e5 f0 52 3d 0d 17 2d bb 14 d0 52 bd 76 d3 f7 3c
       0.051499266 -0.0026411444 -0.05146797 0.0302522
0001f0 a6 12 c4 3d 3f 88 90 3d 92 c0 a5 3c ba 4b 48 bd
       0.095738694 0.07057237 0.020233426 -0.048900343
000200 39 3e 24 bd 42 88 20 3d 18 f8 6d bd 07 14 00 be
       -0.040098403 0.039192446 -0.05809793 -0.1250764
000210 5d 6e 19 bc b3 b7 8e bd da ce 1f 3d 8d 05 25 3d
       -0.009364692 -0.069686316 0.03901563 0.040288497
000220 6c c3 85 3d 71 59 82 be 32 97 a7 3d ca f6 1a 3c
       0.065314144 -0.25458863 0.08183135 0.009458253
000230 29 13 e3 bd 39 6c 6a 3d b6 2d 5a 3d c5 d7 20 3e
       -0.11087639 0.057232115 0.05326625 0.1570731
000240 a5 36 21 be 8d bf 92 bd a5 30 d9 bd 63 af 75 bd
       -0.15743501 -0.07165442 -0.10604981 -0.059981715
000250 d4 e6 5b bc 2e db 64 bd be 80 88 3d 89 dd 2c 3e
       -0.013421733 -0.05587309 0.066651806 0.16881384
000260 7a e8 e1 3d b7 53 18 bd 31 f2 8a bd 85 e0 59 3b
       0.110306695 -0.03718921 -0.067844756 0.0033245396
000270 41 ab 26 bd c2 9e a7 bd 64 f3 d0 bd 1f df 1f 3d
       -0.040690664 -0.081845775 -0.10202673 0.039031144
000280 da 00 f1 bc 6f 0f 67 3c cd e1 8b bd 42 11 20 3d
       -0.029419351 0.014102801 -0.068301775 0.03907896
000290 b8 ba 09 bd 94 f2 df bd ed 7b 93 3c 0f c7 c5 bd
       -0.033625335 -0.1093494 0.018003428 -0.09657108
0002a0 2a a6 91 3d c1 a1 86 bd ea 4d 07 bb 6f 90 8e bd
       0.071117714 -0.06573821 -0.0020645806 -0.06961142
0002b0 68 76 40 3d 22 3a 8f bd 42 86 0c be 5d 08 51 bd
       0.04698792 -0.0699351 -0.1372309 -0.051033366
0002c0 f5 a8 56 3d bc 42 29 3d ee 7f f0 3d d0 96 01 3d
       0.052407224 0.04132341 0.11743151 0.031637967
0002d0 a6 47 ca bd 9d 69 e3 bd 30 07 d9 bd a5 6e 48 3e
       -0.09876947 -0.111041285 -0.10597074 0.19573458
0002e0 20 54 55 3e ff 23 83 3d 22 4f 0f 3d 32 fe 19 3e
       0.20832872 0.0640335 0.034987576 0.15038374
0002f0 87 f1 2b 3e fb de 5b 3c 2f ef b5 bb 51 c0 8a bc
       0.16791354 0.013419862 -0.0055521945 -0.016937407
000300 c8 9c cb 3b 0b 06 a6 bd 8b 70 3a 3b fd f0 ac 3c
       0.006213758 -0.08106621 0.0028448428 0.021111006
000310 93 84 3a be 71 6a c2 bc bb 9e a2 bc 1e eb 82 3d
       -0.18214636 -0.023732396 -0.01985108 0.06392501
000320 1e 84 75 bd b6 0f 8c 3d 61 99 06 3e 0e 72 10 be
       -0.05994045 0.06838934 0.13144447 -0.14106008
000330 4b 33 af bd c3 61 19 be d8 1c e3 bd 3f 80 40 bd
       -0.08554705 -0.149787 -0.11089486 -0.046997305
000340 fb 01 35 bd db 31 87 3d 8e 39 a9 bd e9 23 58 3c
       -0.04419134 0.06601306 -0.08262931 0.013192155
000350 5d 81 ab bb d8 83 6d bd 80 83 d0 3c bb d9 66 bd
       -0.005233927 -0.057987064 0.02545333 -0.056359988
000360 77 b9 45 3c d7 c5 7e bd f3 cc c8 bd 66 43 e4 bb
       0.012068144 -0.062200394 -0.09804716 -0.0069660423
000370 71 4a 06 3b f6 db 41 bc ce 14 ae bc 15 1e b0 3d
       0.0020491148 -0.011832228 -0.021250155 0.08599488
000380 49 55 94 bc b4 a1 2e 3e ba 72 7e 3e 58 f3 85 3e
       -0.018107073 0.17053872 0.24848452 0.2616222
000390 84 61 fe 3d 9b 72 1d 3d f9 73 89 3e 8a 89 41 be
       0.124209434 0.038439374 0.26846293 -0.18900123
0003a0 62 4d 51 be 5d 39 cf bd 1e 84 4b 3d 36 61 05 3e
       -0.20439675 -0.10118363 0.049686544 0.13025364
0003b0 d2 f3 28 bd 3d 4a 10 3d 18 b2 10 3e 97 35 b8 bc
       -0.04124815 0.03522705 0.14130437 -0.022486491
0003c0 d6 ce c1 3c df 16 56 3d 91 72 fe bc 3a b3 0e be
       0.023658197 0.052267905 -0.031060489 -0.13935557
0003d0 ef 62 59 3c c4 1a 1c bd 2c 1f 1b be 0d 76 2d 3d
       0.0132682165 -0.038111463 -0.1514861 0.04234891
0003e0 d3 27 96 3c 0e f0 be 3d 74 21 21 3d a6 82 ed bc
       0.018329537 0.093231305 0.039338544 -0.028992962
0003f0 aa d0 ee ba f8 76 92 3d 72 e0 5a bc 33 a2 ad 3d
       -0.0018220146 0.07151598 -0.013359176 0.08478203

bias f4 [32]
000000 6d 5a 45 3d 4b 49 7a 3e 07 c1 1e 3b 9f 93 b3 3d
       0.04818194 0.24442022 0.002422394 0.08768391
000010 72 53 8f be ef 68 aa 3d a3 0f bd 3d 3e 31 5e 3e
       -0.2799335 0.08320796 0.09231498 0.21698472
000020 d4 82 21 3e c6 b3 1f 3e b0 7c 34 3e 7d e9 46 be
       0.15772563 0.15595922 0.1762569 -0.19425006
000030 34 df 74 3d 6f 1b a6 3d 9a f9 e3 bd 7c b9 39 3e
       0.059783176 0.08110701 -0.11131592 0.18137163
000040 61 47 f0 bd e9 5a ef 3e 02 80 60 be 38 2c 20 3c
       -0.117323644 0.46749046 -0.21923831 0.009776168
000050 65 4c 98 be e8 15 a1 3d 93 e9 03 3d b5 6b c6 bd
       -0.29745784 0.078655064 0.032205176 -0.09688512
000060 c3 e7 c8 3a 18 7d 9e bb 42 6d 79 3e 50 b0 9f 3d
       0.001532786 -0.0048366897 0.24358085 0.07797301
000070 ab d6 3e 3e 8b 2f 0e 3d c5 b9 9b bd 7f d1 fd 3e
       0.18636577 0.03471331 -0.07603792 0.49573895

weight f4 [64, 32, 7, 7]
000000 5a a5 f2 bd 93 27 a4 bc ae 1b 0d bc db 48 28 bd
       -0.118479446 -0.020038402 -0.008612556 -0.041085105
000010 39 f8 89 bd 1c 15 c2 bc f8 7d 88 bd 8d 1c 38 bd
       -0.06736798 -0.023691706 -0.06664652 -0.044949103
000020 35 e7 8e 3d 17 22 d2 3d f5 78 d4 3d 1d 96 f4 3a
       0.06977693 0.10260408 0.10374633 0.001866046
000030 3c a3 18 3c f0 a9 86 3c d1 5c 70 bd 98 e0 92 3d
       0.009316262 0.016438454 -0.058682267 0.07171744
000040 e6 15 82 3d cc ec ff 3d f3 d9 c5 3d 59 05 22 3d
       0.06351833 0.12496337 0.09660711 0.03955588
000050 65 6b 77 3d c8 b6 06 bd d3 7b 88 3d 7c 54 86 3c
       0.060405154 -0.032889158 0.066642426 0.016397707
000060 07 df 30 3d 8b 33 24 3d 45 43 bf 3c 39 e8 da bc
       0.043181445 0.040088218 0.023347506 -0.02672206
000070 80 f1 54 bd af c3 dd bc 55 84 59 bc 62 29 69 bd
       -0.051988125 -0.027070848 -0.013276179 -0.05692423
000080 2c 5f c7 bc c9 40 dc bc e0 e9 c0 3a 53 c4 d3 b9
       -0.024337374 -0.02688636 0.0014718138 -0.0004039133
000090 48 81 bd 3c 7d ba b0 3b 4b cc c0 bc 3a 25 6d bd
       0.023132935 0.005393325 -0.023534914 -0.05789683
0000a0 76 f8 50 bc 00 9d 34 3b 08 f1 35 bd a5 66 24 bd
       -0.01275455 0.00275594 -0.04441932 -0.040136952
0000b0 73 bc 84 3b cf 59 07 3d e2 f0 aa bc 91 27 67 3c
       0.004050785 0.033044633 -0.020866815 0.014108554
0000c0 b1 39 ae bc a4 5e 19 3c 35 fe e3 3d 5b f3 0a 3e
       -0.021267744 0.009360943 0.111324705 0.13569395
0000d0 93 2c 67 3d 22 ed c6 bd 5c 9b 45 bc 81 28 99 3d
       0.056438994 -0.09713198 -0.012060966 0.07478429
0000e0 11 87 21 3e a3 2a 71 be 97 08 09 be 35 eb d7 3d
       0.1577418 -0.23551421 -0.13382183 0.10542909
0000f0 1d db 85 3c bb 2b 14 bd a2 a0 a9 3d d0 50 6b 3d
       0.016339833 -0.036174517 0.082825914 0.057450116
000100 04 72 aa 3d 68 ae ab 3d fd 0b ce 3b a9 78 78 3d
       0.08322528 0.08382875 0.00628805 0.060661945
000110 ac 05 dc bc 3b ad 07 ba 64 c9 c1 3d 3f 52 1c be
       -0.026858173 -0.00051756547 0.0946224 -0.1526575
000120 bc 5f 4e 3d e9 ff 6c 3d 3a cf b0 bd e0 8c 37 3e
       0.05038427 0.057861242 -0.08633275 0.17924833
000130 ac ee d8 bb 88 79 2a 3b 55 9a 1a be 83 60 93 bd
       -0.006620249 0.002601238 -0.15097935 -0.071961425
000140 b8 5b 4d bd ed b9 22 bd c6 a3 fb bd 48 87 96 3d
       -0.050136298 -0.039728094 -0.12287097 0.073500216
000150 d5 19 1e 3e 11 73 f0 3d ea 17 a1 bd a3 69 2c bc
       0.15439542 0.11740697 -0.07865889 -0.010523233
000160 95 8c 95 bb f4 2c 95 bb d3 b1 a1 bd 80 9f 00 be
       -0.004563878 -0.004552478 -0.078952454 -0.12560844
000170 a8 ef 13 be f3 1e 8e bd 6e c7 0b 3d 42 82 de 3d
       -0.1444689 -0.06939497 0.034125738 0.108646885
000180 b2 66 73 bd df f5 c0 bd 04 7a 5e bd fb 41 3d 3d
       -0.05942411 -0.09421896 -0.054315582 0.046205502
000190 44 55 e8 3c c9 de 3b bd 5b 09 39 bd 32 ed 55 bd
       0.02836097 -0.04586676 -0.045174938 -0.05222816
0001a0 2e b3 37 bd 6e cc 74 bb 5f 27 52 be 44 98 aa bd
       -0.044848613 -0.0037353295 -0.20522831 -0.083298236
0001b0 54 ac 04 bd 1c b4 d3 bd 28 dd f2 bd 2e 0f b1 3d
       -0.032390907 -0.103370875 -0.118585885 0.086454734
0001c0 29 78 ef 3c ef 22 6d 3d 98 c4 5a 3d 58 26 de 3b
       0.029232102 0.057894643 0.053410143 0.0067794733
0001d0 e7 5e 47 3d 88 c9 7f bd ed 20 9f bd 3a 19 a6 bd
       0.04867449 -0.062448055 -0.07769952 -0.0811028
0001e0 50 e8 a4 3c 2a 7a cf 3c 68 9f 99 bd df 5c 92 bd
       0.020130306 0.025326807 -0.075011075 -0.0714662
0001f0 79 a5 98 3d 71 98 a6 3c a0 f2 0d be 2a 8b b0 bd
       0.074534364 0.020336362 -0.13862085 -0.086202934
000200 0e 65 7f bd 99 b7 6d bd c6 db 82 bd de 02 44 3d
       -0.062352233 -0.05803642 -0.06389575 0.047854297
000210 dc 52 0e 3e 1c 2d 14 3e 5a 84 05 3c eb 02 3b bd
       0.13898796 0.14470333 0.008149231 -0.04565708
000220 ef e9 5c 3d 55 c3 ce bc d3 d6 9f bb 04 ca 9a bd
       0.053934034 -0.025239626 -0.004877904 -0.07558063
000230 c2 c6 33 be 57 c7 0c bd dd 2e b6 3d 43 e9 1f 3e
       -0.17556289 -0.034369793 0.08895657 0.15616326
000240 68 c0 f4 3c d9 7a af bd d1 da 65 bd 93 e3 65 3d
       0.029876903 -0.08568353 -0.056116883 0.056125235
000250 4a 12 9f 3d 04 09 8d 3d 46 a5 8e 3d 17 b7 ad 3d
       0.0776716 0.06886485 0.06965117 0.08482187
000260 ef 64 69 3d b0 a5 32 3d 6b 0e c4 3d 7c ef ac bb
       0.056981023 0.043615043 0.095730625 -0.005277572
000270 50 83 ac 3c 22 41 6d 3d 2e 3b 05 3c 84 51 58 3c
       0.021058708 0.057923444 0.008131785 0.013203029
000280 d2 80 c7 3c 40 9f a1 3d 41 68 28 3d 08 1c ab 3b
       0.024353418 0.07891703 0.04111505 0.0052218474
000290 0e 9e 74 ba ac b3 42 3d eb ce 97 3b 23 90 2c 3d
       -0.00093314133 0.04753463 0.004632821 0.042129647
0002a0 eb 02 b3 3d 94 2b a0 3d 55 44 ff 3c 1a 29 a5 3c
       0.08740791 0.07820812 0.031160513 0.0201612
0002b0 79 3f c8 bc 85 00 e9 bb c8 c5 80 bd f5 03 2c 3d
       -0.024444329 -0.0071106576 -0.06287724 0.04199596
0002c0 f4 7e fd ba 64 95 6d 3b 7a 56 9a bc e9 97 52 bb
       -0.0019340203 0.0036252374 -0.018840063 -0.0032134003
0002d0 30 1e ae bc 7a 23 2c bd c2 81 06 3d 2f ad 15 bc
       -0.021254629 -0.04202602 0.03283859 -0.0091355285
0002e0 e6 c8 64 bd 7a a5 9e bc 1d c0 da bb 5a 9f 18 bd
       -0.055855654 -0.019366015 -0.0066757337 -0.037261344
0002f0 0b 54 9a bd 1d 41 66 bd 46 2e 96 bd 59 47 2e bd
       -0.07535561 -0.05621444 -0.07333045 -0.04254851
000300 59 7b 85 3b f1 60 57 3c b4 fb 80 bd a0 8b c9 bd
       0.004073542 0.013145671 -0.062980086 -0.098410845
000310 55 60 89 bd ec f3 25 bd ea 4e 10 bd fe 56 43 bc
       -0.06707827 -0.040515825 -0.03523151 -0.011922596
000320 91 76 05 3d 74 2d a2 3c 91 1d da bc 6b 13 15 bd
       0.032583777 0.019797064 -0.026625426 -0.03639547
000330 ef a7 dd bc 74 da 5a bc 99 9f 0a 3d 55 e9 e3 bb
       -0.027057616 -0.013357747 0.03384361 -0.0069553056
000340 58 b1 8e bc 6f 5f 54 3b 2b 99 3a bd b4 ff 1d bd
       -0.017418548 0.0032405516 -0.04555623 -0.038573936
000350 ed b0 06 bd 8c 20 0e 3d 43 64 31 3c 38 e1 42 3c
       -0.032883573 0.034699008 0.010827127 0.011894517
000360 cc 75 f6 bc c4 f7 1b bd e3 8a 38 bd d5 1b 85 bc
       -0.030085467 -0.038078085 -0.045054328 -0.016248623
000370 0a 59 a3 bc e4 8a a9 3b 9a 45 0b bc 9f 44 51 bd
       -0.019939918 0.0051740278 -0.008500481 -0.051090833
000380 f1 f7 90 bd 16 01 96 bd 2f 45 81 bd 68 2a 02 bd
       -0.07078541 -0.07324426 -0.06312024 -0.031778723
000390 0b a8 c4 bc a2 93 16 bc 57 06 2c bd 1d 44 ba bd
       -0.02400591 -0.009190472 -0.041998234 -0.09095023
0003a0 ec 39 c0 bd dd cc c9 bd 93 54 ea bc dc 8e 34 bd
       -0.09386048 -0.09853528 -0.028604781 -0.044081554
0003b0 cf 22 6a bd 02 f5 80 bd da 27 f6 bd d6 cf 3d be
       -0.057162102 -0.062967315 -0.1201932 -0.18536314
0003c0 a3 ee 19 be 92 85 c4 bd 7e 54 ea bd c6 f5 bf bd
       -0.15032439 -0.09595789 -0.11441897 -0.093730494
0003d0 03 49 3d be fb 37 68 3c e0 ed 01 bc 97 99 0a bd
       -0.18484883 0.014173503 -0.007930249 -0.03383788
0003e0 1e f8 84 bc 80 4b ea b8 44 cc e9 bc 9b b8 4d bc
       -0.016231593 -0.000111720525 -0.028539784 -0.01255622
0003f0 c2 aa 08 3b a9 05 2d bc 61 ec 00 3d e3 32 ff 3c
       0.0020853733 -0.0105604315 0.03147543 0.031152194

bias f4 [64]
000000 10 56 a9 3e c4 59 75 be 4b a0 17 3e 40 70 3a be
       0.33073473 -0.23960024 0.1480724 -0.18206882
000010 b7 72 62 be 60 25 82 be 55 f4 71 be 3b 72 12 bd
       -0.22114073 -0.2541914 -0.23628362 -0.03575347
000020 df 92 41 3e 10 4b b2 be 21 1a 04 be 60 f3 18 be
       0.18903683 -0.34822893 -0.12900592 -0.1493659
000030 b4 1a 90 be 29 77 a7 3d 0c d9 00 be ab fc 35 3d
       -0.28145373 0.08177025 -0.12582797 0.044430416
000040 99 64 11 3e 4d 74 63 be 40 2c ba 3e 3f 09 5a 3e
       0.14198531 -0.22212334 0.36361885 0.2129259
000050 e0 c4 77 be c2 5f a1 3d 3b d2 8f 3e d3 9c 9d be
       -0.24196196 0.078795925 0.2809008 -0.3078371
000060 0a 73 46 3c 34 88 c5 3e 86 d9 70 bd 38 da 10 bb
       0.012112388 0.38580477 -0.058801197 -0.0022102725
000070 e2 51 e0 3e c4 cc 45 3e ae 65 16 3e da 6d 49 3e
       0.43812472 0.19316393 0.14687225 0.19670811
000080 b2 c5 22 bd 89 2e 8b 3e 01 33 47 3e f0 f6 99 be
       -0.03973932 0.2718394 0.1945305 -0.3007121
000090 ed 26 3a 3e 7b aa 73 3e de e0 a6 3e c7 c0 89 3d
       0.18178912 0.23795502 0.32593435 0.067262225
0000a0 73 0e 10 3e 57 5d 6f 3e b6 c8 92 3d cc 9b 6e 3e
       0.14068012 0.2337545 0.07167189 0.2330162
0000b0 ee 9a eb bd e2 90 b4 bd b3 8d b0 be 3a c2 89 be
       -0.1150416 -0.08816697 -0.34483108 -0.26905996
0000c0 8d 40 6a be 33 6b 87 be 83 df 28 be 27 2c 19 be
       -0.22876187 -0.26448974 -0.16491513 -0.14958249
0000d0 5f 40 69 be f1 77 bb 3d 42 8a 6f 3e 23 c6 13 3e
       -0.22778462 0.091537364 0.23392585 0.14431052
0000e0 a7 5c 9a 3e a0 01 af 3d 60 db 3d 3e 50 56 bb bb
       0.30148813 0.08545232 0.18540716 -0.0057170764
0000f0 7b 29 c9 be 7d 3f a8 be a4 00 94 be b0 40 a5 bd
       -0.3928946 -0.32860938 -0.2890674 -0.08068979

weight f4 [64, 32, 7, 7]
000000 ec e4 97 3c 87 7b 2b 3d c6 7c ea ba b2 2b bd 3c
       0.018541776 0.04186585 -0.0017889969 0.023092125
000010 e6 53 56 3d a7 ef 05 3d 88 fc ae 3c 28 b9 7e 3c
       0.052326106 0.032699253 0.02136065 0.015547074
000020 27 a8 a1 3c 53 84 81 3a 64 70 47 3c 46 fc 6a 3b
       0.019733502 0.0009881355 0.012172792 0.0035855933
000030 09 d7 f1 3c 6c b7 e6 3c c9 38 be 3c fc 6a 43 3c
       0.029521482 0.028163634 0.023220437 0.0119273625
000040 a9 03 1a bb 24 fb 89 3c ef 2d 11 3d cd 52 b2 3b
       -0.0023500717 0.016843386 0.035444196 0.0054419995
000050 0e b5 72 3b f0 1f bf 3c 4f 48 85 3c cc 45 06 3d
       0.0037034187 0.023330659 0.016269831 0.032781407
000060 e0 e2 55 bc ab 23 0f 3c 7c 62 94 bb a1 e5 89 bc
       -0.0130545795 0.008736531 -0.004528342 -0.016833128
000070 1c c2 92 3c 8a 89 37 3c c3 c4 c2 3c 21 58 a4 3c
       0.017914824 0.011202225 0.023775464 0.020061554
000080 a9 6b 1d 3d 3f 69 80 3c 2c 12 9b bc 0b cc 24 3d
       0.03843275 0.015675185 -0.018929563 0.040233653
000090 de 14 33 3d d9 c3 33 3d 13 54 06 3c f8 30 84 bb
       0.043721072 0.043887947 0.008198756 -0.004034158
0000a0 cb c5 00 3d 07 ba 4f bc 31 82 a8 3b 5c a0 15 bc
       0.03143863 -0.01267863 0.005142473 -0.009132471
0000b0 c2 b1 17 3d c9 e4 04 3d 0d 60 1d 3c a4 79 b7 3b
       0.037034757 0.03244475 0.00960542 0.0055992175
0000c0 c1 7a 9f 3c e3 c6 12 3e 7f 91 a1 3d 7b 1c 9b 3d
       0.019467713 0.14333682 0.07889079 0.075737916
0000d0 c8 73 05 3d a0 4f b1 3b b5 2d 19 3c 37 91 48 bd
       0.03258112 0.0054111034 0.009349276 -0.048966613
0000e0 99 62 97 3d 6a 3b 4b 3d ef 9f 45 3d ad d3 90 bc
       0.07391853 0.04961721 0.048248228 -0.01767906
0000f0 7d db 3d bd cb 6f 16 bd e9 e2 57 bd 9c 49 b1 bc
       -0.0463519 -0.036727708 -0.052706633 -0.021641545
000100 0c 77 87 3d 1b 1f 15 3d 94 7b 6d 3d bd 10 a5 bb
       0.06614503 0.036406618 0.05797918 -0.0050373957
000110 87 6a ef 3c 64 57 c9 bb 20 56 0d be 50 8d f9 3b
       0.0292256 -0.006144451 -0.13802385 0.0076157227
000120 d5 92 c3 3d 69 49 58 3d 9e 96 30 3d 38 8d 61 3c
       0.0954949 0.052804384 0.04311239 0.013766579
000130 ca 31 80 3c 22 06 2a bd 5b 39 5f bc b2 ed 4f 3b
       0.015648741 -0.041509755 -0.013624514 0.003172737
000140 0a ea b8 3c a4 ed 40 3d 04 02 9c 3d 34 c8 d0 3c
       0.022572536 0.04710163 0.07617572 0.02548609
000150 ae 56 a1 3d 7c 98 81 bc be 73 a8 bc 85 59 a7 3b
       0.07877861 -0.01581978 -0.020563003 0.005107107
000160 f2 22 35 3d 40 36 dd 3d 2b 05 81 bc 80 87 04 3e
       0.04422278 0.10801363 -0.015749535 0.12942314
000170 14 f8 b5 3c f0 68 0b bc e7 65 1b 3d 95 8b 27 3d
       0.02221302 -0.008508906 0.03793898 0.0409046
000180 24 5f 2e 3d 09 f7 0d bd 9a c0 db bc 12 51 9c bc
       0.042571202 -0.03465942 -0.026825238 -0.019081626
000190 0e 4e 9b 39 6b 5d 4d 3c e5 3b 51 bc b8 41 a4 bc
       0.0002962206 0.01253448 -0.012770628 -0.020050868
0001a0 86 91 5f bd b4 57 8e 3b f9 d2 90 3c 30 04 38 3d
       -0.05458214 0.004343951 0.017678725 0.04492587
0001b0 b4 e0 84 3d 00 0f d9 3c e9 b7 7e 3c c2 e2 57 bc
       0.06488171 0.02649641 0.015546777 -0.013176622
0001c0 cd ef 02 bc c5 3a cf 3c 44 ee 48 3d db a7 3a 3d
       -0.007991743 0.025296578 0.049055353 0.045570236
0001d0 98 0b 2b 3c ec cd 23 3b 20 82 ac 3c 35 d7 3e bc
       0.010439776 0.0024994565 0.021058142 -0.011647989
0001e0 bf 8e 15 3d ad a6 96 3c 77 b7 2f 3d d4 83 f1 3c
       0.036513086 0.018390024 0.042899575 0.029481806
0001f0 2e 9a 44 3d 0c f3 89 3c ae 57 ae bc da 5a 3a bb
       0.0479986 0.016839527 -0.021282043 -0.00284355
000200 16 07 a9 bb 4e 6d 09 3b 80 82 09 3d 5f 23 80 bb
       -0.0051583154 0.0020969692 0.03357172 -0.0039104666
000210 80 89 ac 3c 09 60 6d bd f4 07 5d bc 3b 1e 22 3b
       0.021061659 -0.057952914 -0.013490666 0.0024737257
000220 5c e5 13 3c 26 23 a9 3b a5 10 93 bc 6f 08 0f 3c
       0.0090268515 0.0051616607 -0.017952273 0.008730038
000230 c7 2b 64 bd b3 44 27 bc 6b b1 06 bd df d7 bc bc
       -0.05570581 -0.01020925 -0.032884043 -0.023052154
000240 27 fe ff ba 4a 66 4a bd 09 f9 27 bc 41 e0 76 3e
       -0.0019530699 -0.049413957 -0.010252246 0.24108984
000250 b4 3a 1c 3d 28 6c 72 bd e4 39 47 bd 5a f8 b9 bd
       0.03814192 -0.059185177 -0.048639193 -0.090805724
000260 2a 64 e7 3c 99 b3 e9 ba 55 7f 35 3d c2 65 bb 3d
       0.028246004 -0.0017830014 0.044310886 0.09150268
000270 c0 4b 0b bd 87 a1 e7 bd 5c 05 05 3d a7 25 a5 3c
       -0.034007788 -0.11310106 0.032475814 0.020159556
000280 61 3c fa bc 6c 3e 85 3c ee bc e6 3a 72 c4 8c 3d
       -0.030546369 0.016265117 0.0017603913 0.068734065
000290 c6 e0 03 3d e2 fa bd 3c b8 ab 9d 3d 20 e1 58 bc
       0.032196783 0.02319092 0.076987684 -0.013237268
0002a0 fa 9d 08 3e 6e 40 88 bd 89 bf 6c bc 83 de 2b bd
       0.13341513 -0.06652914 -0.014449962 -0.04196025
0002b0 93 13 9b bd 2f 1d b9 3c 15 40 20 3d b9 c3 8c 3d
       -0.07572093 0.022596924 0.039123613 0.06873269
0002c0 65 a7 3a 3d 48 9b e9 bd 1e b8 a1 bd 3f 16 9d 3d
       0.045569796 -0.11406571 -0.07896446 0.07670259
0002d0 c0 2e 07 3d ce a2 f8 3c 31 90 c9 39 33 0b 84 bd
       0.03300357 0.030351069 0.00038445138 -0.064474486
0002e0 c4 36 52 be 6e 90 84 bd 6d 71 b7 bc e4 0f ed 3b
       -0.20528704 -0.0647286 -0.022392953 0.0072345603
0002f0 e9 01 bc 3a 21 9f 5d bd d1 d2 f0 bd cd 82 e6 3d
       0.0014343831 -0.054106835 -0.1175896 0.11255417
000300 ac cf 58 3e b5 d9 9a 3e 49 00 3b 3e 3c 8e 82 bd
       0.2117297 0.30244222 0.18261828 -0.06374785
000310 c2 b7 e7 bc 13 05 82 bc 5e 7e 26 bd 6e 73 87 3a
       -0.028285865 -0.01587156 -0.040647857 0.0010334083
000320 5b 83 f4 3c ed 50 5d 3c 5a 3d 1a bd 61 59 77 bd
       0.029847791 0.013508064 -0.037656166 -0.060387973
000330 cd 80 8c 3c fa 4f 84 bd 06 76 22 bd 17 c9 89 bd
       0.01715126 -0.06460567 -0.039663337 -0.06727808
000340 fa 73 f0 bc 0c 62 d5 3a 44 c3 0f 3d 66 f2 24 bd
       -0.029352177 0.0016279831 0.03509833 -0.04027023
000350 e7 b9 0d 3c da 24 0d bc 1a e6 52 bc 4a cb 79 bc
       0.00865028 -0.008614743 -0.012872243 -0.015246222
000360 b7 10 89 3c f8 62 0f 3d 93 1a e1 3c c3 e0 df 3b
       0.016731603 0.035006493 0.027478492 0.0068322136
000370 d7 b0 5f bd f7 25 3e bd ea da 5b bc a1 6d d1 bb
       -0.054612007 -0.046422925 -0.013418892 -0.0063912426
000380 50 3e fc bc 1d 24 18 3c ed 40 1e 3c 8c 92 0d 39
       -0.030791432 0.009285954 0.009659034 0.00013501401
000390 60 34 be bb 44 9e fd 3b 7f d7 94 3c 81 98 ea bc
       -0.0058045834 0.007739814 0.018169163 -0.028637173
0003a0 1e e8 a6 3d ea 2e e6 3c 7c 5b 87 bc ec 4b a4 3b
       0.081497416 0.028098542 -0.016523115 0.0050139334
0003b0 b8 ab 74 3c 73 e6 fe ba 84 97 8a 3c 54 60 89 3c
       0.014933519 -0.0019447341 0.016917951 0.016769566
0003c0 63 fb 87 3c e2 0a e9 3c 2c 41 11 bc 5c d0 32 3b
       0.016599363 0.028447572 -0.008865636 0.0027284836
0003d0 13 be 28 3c 26 e5 20 3c f2 e5 3c 3b ea b9 b9 bb
       0.0102992235 0.009820258 0.0028823582 -0.0056679146
0003e0 e2 eb 1b bd 6f 90 3b 3b 7c 50 1d bb 29 a6 47 bd
       -0.038066752 0.0028620025 -0.0024004271 -0.048742447
0003f0 9a 20 82 bc 3d 26 b5 3c 4f a7 57 3d c9 8d f8 3c
       -0.015884686 0.02211296 0.052649792 0.030341046

bias f4 [32]
000000 75 41 a7 3d ab fd e0 3e c3 6e b2 3e c2 8f c8 3e
       0.08166782 0.43943533 0.3485013 0.39172179
000010 70 5f 8e bd 18 18 cc 3e 20 03 c3 3e ed 70 fd 3e
       -0.06951797 0.39862132 0.38088322 0.49500218
000020 8d b0 e4 3e 42 15 0b 3f a1 4e 06 3f f4 7c 78 bc
       0.44665948 0.5432931 0.5246373 -0.01516651
000030 28 59 bd 3e d3 e9 2e 3e 78 40 cf 3e 31 a9 c9 3e
       0.36982083 0.17081384 0.40478873 0.39386895
000040 b3 46 44 3e 1c 93 de 3e d2 ef c4 3e 1c 56 f8 3e
       0.19167595 0.4347161 0.38464218 0.48503196
000050 ce aa 8d 3e ea 7b dc 3e fd 4c 48 3d 26 1d ef 3e
       0.27669376 0.4306329 0.048901547 0.46701926
000060 65 1f 2f 3d 51 37 85 3d 07 31 47 bd ee 65 bd 3e
       0.04275455 0.065046914 -0.04863074 0.3699183
000070 07 c2 18 3e 1a 14 fd 3e 44 b4 0b 3f 04 35 00 3f
       0.14917766 0.494294 0.5457194 0.50080895

weight f4 [32, 16, 3, 3]
000000 fd d9 f8 3c 8f 93 48 3d 81 cc 33 3d bc dc 73 3d
       0.030377382 0.048968848 0.043896202 0.05953668
000010 21 71 48 3d ac c7 49 bc ed 66 99 3c 67 ae 6c 3d
       0.048936013 -0.012315672 0.018725837 0.05778351
000020 a9 96 40 3c 54 6c 09 3d 99 23 34 3c 7c 91 9a bd
       0.01175467 0.033550575 0.010994815 -0.0754728
000030 e7 63 20 3d d1 b2 d7 bd ba a2 92 3c 33 d8 1a bd
       0.039157774 -0.105321534 0.01789986 -0.03780384
000040 48 ba b1 3c 19 ea 17 bd 37 82 64 3c 4f 49 89 3c
       0.021695271 -0.037088487 0.013947061 0.01675859
000050 85 2d a5 b9 14 56 d8 bc e3 3e fe 3c 3b ba 88 3d
       -0.00031505167 -0.026408233 0.031035846 0.06676146
000060 b8 eb c3 bc ea 8a fc bc 7e be 21 bb 4b 62 6f 3d
       -0.02391611 -0.030827958 -0.0024680193 0.05844335
000070 14 23 9f bd 90 47 53 bc d6 53 02 be 7c a6 2c be
       -0.077703625 -0.01289548 -0.12727293 -0.16860384
000080 5a 23 8a be 48 2b dd bd f4 29 77 bc b1 af b0 bd
       -0.26980096 -0.10799271 -0.015085686 -0.086272605
000090 7e ef f6 3d d9 45 fe ba de 54 13 3a 29 90 b2 bd
       0.12057398 -0.0019399478 0.0005620251 -0.087189026
0000a0 be 05 9e 3c c0 00 b3 bd 07 f4 07 3d cc 8b 12 3d
       0.019289847 -0.087403774 0.033191707 0.035777852
0000b0 92 54 10 3d f3 cb 64 bd be 54 e4 bc 83 7a 6a bb
       0.035236903 -0.055858564 -0.02787244 -0.003577859
0000c0 82 a1 1d 3d 6d 42 4c 3d 7b 95 2e 3b bf d1 7e 3d
       0.038484104 0.049868036 0.002663939 0.06221175
0000d0 a4 30 fc 3c c8 53 82 3d bc 84 e4 bc 89 51 95 3c
       0.030784912 0.06363636 -0.027895324 0.018227356
0000e0 bc 5c f4 bc 7e b5 c7 bd 82 40 2d 3d d7 48 84 bc
       -0.029829375 -0.09751414 0.042297848 -0.016148014
0000f0 b6 6c a4 ba 60 44 db bb 70 0c 1f bd 03 8f 37 bd
       -0.0012544605 -0.0066915005 -0.03883022 -0.04481412
000100 e7 bb 0e be 1e 0c 44 3d 0a 8e 16 bd d5 be 84 bc
       -0.13938867 0.04786312 -0.036756553 -0.016204277
000110 e4 c7 36 3d f1 a7 a1 bb 21 e7 31 bd 32 32 7c 3d
       0.044624224 -0.0049333503 -0.043433312 0.061571307
000120 21 47 8b bc b1 89 5d 3d 50 f7 12 bd 27 5b 83 3d
       -0.01700169 0.05408639 -0.035880387 0.0641387
000130 47 b8 28 bc a3 f8 08 bd 9e 93 19 3d 8b 89 6d 3d
       -0.010297841 -0.033440243 0.037494294 0.0579925
000140 22 93 05 3d d1 5d 82 3d c2 50 64 3d a9 b8 54 bc
       0.03261102 0.0636555 0.05574108 -0.01298348
000150 38 30 01 3d 6f 6b 86 3d e2 98 c3 3d ed 4d 4f 3c
       0.031540126 0.0656346 0.095506445 0.012652856
000160 78 00 27 3d 71 77 90 3c b4 a2 d6 bc 9c 90 ab 3d
       0.04077193 0.01763508 -0.02620063 0.083771914
000170 a2 44 36 bd ae 6c 61 3c 91 80 62 3d 94 9d c5 3b
       -0.044499047 0.013758821 0.05529839 0.0060307477
000180 c0 25 2b 3d 0d ed fc bd 1f c8 e8 bc 9d fa af bd
       0.041784048 -0.12349901 -0.028415738 -0.085927226
000190 50 2a 17 bd ff 6e 09 be d4 71 4d bd 32 7b b2 3c
       -0.036905587 -0.13421248 -0.050157383 0.02178726
0001a0 cd 7b 0b be 0d 4d b7 3c 40 10 11 bc a9 57 a9 bc
       -0.13621445 0.022375608 -0.008853972 -0.020671682
0001b0 2f 65 99 3e cb 4e 08 bb e3 b3 46 bd 82 1d 6c 3d
       0.2996001 -0.0020798917 -0.048511397 0.05764533
0001c0 0b b3 f1 bc 45 85 a7 bd e1 65 74 bd a6 87 c7 3c
       -0.02950432 -0.08179716 -0.05966747 0.024356674
0001d0 6f 51 61 be f3 97 c5 bd 70 cc 1c bd 99 9d 6e bc
       -0.2200372 -0.09648123 -0.038280904 -0.014563941
0001e0 d7 07 24 3d 37 c0 b3 bd e4 49 5f bb 24 99 6c 3b
       0.04004654 -0.087768964 -0.0034071142 0.003610202
0001f0 ec 39 b4 ba f3 ab fc bc 75 04 8f 3c d9 a7 60 3d
       -0.0013750172 -0.03084371 0.01745818 0.054847572
000200 e3 43 ff 3c 01 1a db bb c7 72 d4 3d 8c 7b 98 3d
       0.0311603 -0.0066864495 0.103734545 0.0744544
000210 88 f2 e9 3c 93 6b 73 3c 9b 48 10 bd 7a 9a 49 be
       0.02855803 0.014857191 -0.035225492 -0.19687834
000220 15 e4 6d be 3c c6 0f be 37 b6 b4 bd a8 a4 0d be
       -0.23231538 -0.14040464 -0.08823817 -0.13832343
000230 31 ff 01 bd 3a 88 40 bd c0 6f 39 be fb ab 2d be
       -0.03173751 -0.047004916 -0.18109035 -0.16960137
000240 a8 e2 42 bd 5a 68 ae bb 23 99 91 3d d9 94 1c 3d
       -0.047579437 -0.0053224983 0.07109287 0.03822789
000250 c4 1b 95 3d df 09 15 3e 86 5b 3b 3d 24 a8 f5 3d
       0.072806865 0.14554547 0.04574158 0.11994961
000260 af 5e a5 3d 27 85 0d 3c 55 4e da bd 3a 6f a0 bc
       0.080747 0.008637703 -0.10659472 -0.019584287
000270 68 4e 69 3d 5b 74 23 3e 5b a9 b7 3c d2 af 77 bc
       0.05695954 0.15962355 0.022419622 -0.015117602
000280 19 fd 3f 3e 3b c0 95 3d 53 24 6b 3d c7 9e 9a 3d
       0.18748893 0.07312056 0.05740769 0.075498156
000290 7f 7b 94 3b 52 cb be 3d 08 21 cf 3d a6 1a 6b 3b
       0.0045313234 0.09316124 0.10113722 0.0035874038
0002a0 31 6e 58 3d 24 67 05 3d 22 4e 33 3d 2e bf 45 3b
       0.05283946 0.032569066 0.043775685 0.0030173766
0002b0 e1 8d 71 3d b8 7f 9d 3d 72 ec f1 3d 13 b6 15 3e
       0.058973197 0.07690376 0.118126765 0.14620237
0002c0 cd 81 ad 3d fe b7 3c 3e eb 00 69 3d 5e 24 66 3d
       0.08472023 0.18429562 0.05688564 0.056187026
0002d0 40 32 38 be c7 36 c7 3c 08 1e 9f 3c 35 0a df bd
       -0.17987919 0.024318112 0.0194235 -0.10890619
0002e0 af 1b e0 3d cb f7 2c bd 04 26 b4 3d 0b 4e df 3d
       0.1094278 -0.0422285 0.087963134 0.109035574
0002f0 c5 22 31 3e 5a 8a d4 3c 1e a8 36 3d 4b 09 35 3d
       0.1729842 0.025944877 0.044593923 0.044198316
000300 2e 0a 40 3d 4c f4 ce 3c bb dd 7a 3d 40 01 a9 3c
       0.046884708 0.025262974 0.061246615 0.020630479
000310 e5 3c 6b 3d cc 31 37 3d 24 d0 75 3c fb 30 d8 3d
       0.05743112 0.044725224 0.015003238 0.10556217
000320 b5 00 b5 3d d2 db 85 3d 63 f0 f3 3d 52 fc a9 3d
       0.088380255 0.06536068 0.119110845 0.083000794
000330 fc 81 b2 3d af 7e 17 3e f2 82 47 3d 40 d3 d0 3d
       0.08716199 0.1479442 0.048708864 0.10196543
000340 01 71 ff 3d 8b c3 2e bc 86 5a 91 3d 69 36 fc 3d
       0.12472726 -0.010666738 0.07097344 0.123150654
000350 95 e4 e2 3d fc 1a 8c 3d bd 12 19 3e 97 07 6d 3c
       0.11078755 0.06841084 0.14948554 0.014467142
000360 e3 8e 9a 3d 89 20 42 3d 71 cd 9b 3d c8 ef a3 3d
       0.07546785 0.04739431 0.07607544 0.08004719
000370 dc 82 88 3d be 58 dd 3d 3f 46 18 3d 27 d7 0a 3d
       0.066655844 0.10807942 0.037176367 0.03389659
000380 00 dd 49 3d 7c 3e 9b bd 33 34 aa bd 5c d0 9c bd
       0.049283028 -0.07580277 -0.083107375 -0.07656929
000390 68 55 6f bd 0d 7a 84 bc cf 6f f0 bc cc 70 ee bc
       -0.05843106 -0.01617148 -0.02935019 -0.02910652
0003a0 28 c9 fa bc 33 68 37 3c f9 54 57 3d 28 ab b6 3d
       -0.030613497 0.011194277 0.05257127 0.08919364
0003b0 95 8d 69 3d 86 bb 46 3d 6b a9 b5 3d ab ea cf 3d
       0.05701979 0.04851868 0.088702045 0.10152181
0003c0 f1 54 18 3c 34 54 af 3d d9 b3 82 3d d7 51 20 3d
       0.009297595 0.08560982 0.063819595 0.03914055
0003d0 4a 09 b4 3d 0a fd 26 3e 8f f4 26 3c 42 91 8f 3d
       0.08790834 0.16307464 0.010190143 0.070101276
0003e0 3a 95 5f 3e 57 0c b2 3c 4a 7e 23 bb 21 78 c3 3d
       0.21834269 0.0217344 -0.00249471 0.09544397
0003f0 61 57 d7 bd 06 79 36 3d 8c 8f 7a 3d 3b d4 d1 bd
       -0.10514713 0.04454901 0.061172053 -0.10245558

bias f4 [16]
000000 cc 12 59 3e be 38 d4 3e 80 71 9d 3e 50 67 97 3d
       0.21198577 0.4144954 0.30750656 0.07392752
000010 65 27 e5 3e d8 70 84 3e c7 cd fc 3e 62 3a e9 3e
       0.44756618 0.25867343 0.49375746 0.45552355
000020 eb 7e 8a 3e 28 b1 17 3f ae ea 2a 3e df 40 ae 3e
       0.27049956 0.59254694 0.16691086 0.34033868
000030 bf a4 d9 3e 5b 34 e9 3e 9c bd 5c 3e 04 01 83 3e
       0.42508504 0.45547757 0.21556705 0.25586712

weight f4 [16, 3, 3, 3]
000000 65 82 18 bd 3a 0f 0f 3e 8b a4 9c 3d be e2 ce 3d
       -0.03723373 0.13970652 0.076485716 0.101018414
000010 9c ff 29 3e be e2 ad 3d ba 01 8d bb b9 4e ed ba
       0.16601413 0.08490513 -0.0043031843 -0.0018105126
000020 68 91 31 3e 59 b0 42 bd 19 ce 07 be e9 a5 ba 3c
       0.17340624 -0.04753146 -0.13262214 0.02278419
000030 ef 99 1a 3c 25 69 53 bd 99 e6 00 bd df 3b 32 3d
       0.009436115 -0.051613946 -0.031469915 0.04351413
000040 b0 6c 9b bd 35 37 98 bd 3a 96 51 81 68 69 7d 81
       -0.0758909 -0.07432405 -3.849502e-38 -4.6544386e-38
000050 ca f3 eb 80 2f 81 ad 80 18 19 da 80 54 77 63 01
       -2.1668797e-38 -1.5933883e-38 -2.002914e-38 4.177893e-38
000060 e4 18 30 00 f8 0a eb 00 b9 4b db 00 f3 4b 10 3e
       4.417033e-39 2.1585276e-38 2.0139138e-38 0.14091472
000070 e8 16 1e bc 77 f2 01 be 9c 53 cd 3d 00 c2 f7 3d
       -0.009649016 -0.12690149 0.10025713 0.120975494
000080 29 0a b7 bd 44 f7 f5 3d a8 fd 17 3e c9 94 36 bd
       -0.08937485 0.12010053 0.14842856 -0.044575486
000090 c6 c0 51 3d 9a 55 ea 3c 68 c5 9c bd 4c 82 6e 3d
       0.051209234 0.028605271 -0.0765484 0.05822973
0000a0 69 b5 8d 3e 7c 84 bc 3c c2 62 f0 3c 0d fa 25 3e
       0.27677467 0.023012392 0.029343966 0.16208668
0000b0 c9 da 67 3d 29 d5 99 81 f2 97 84 01 ca 17 b4 00
       0.056605134 -5.6509193e-38 4.870717e-38 1.6538923e-38
0000c0 4e 22 86 81 32 e8 01 01 23 6d 52 01 4a a7 52 81
       -4.927305e-38 2.386015e-38 3.864921e-38 -3.8690932e-38
0000d0 f0 14 5b 81 78 6c b6 80 73 5b 02 3e 4a b8 5d 3e
       -4.023897e-38 -1.6752972e-38 0.12730198 0.21652332
0000e0 b3 f6 12 3e 62 16 e2 3d 77 fe 85 3e cb f4 fc 3c
       0.14351921 0.110394254 0.26170704 0.030878445
0000f0 98 66 c7 bc 39 2b 8a 3d dc d2 24 3e b6 06 bc bd
       -0.024340913 0.06746525 0.16096061 -0.091809675
000100 d4 bf 09 bd 4e e6 70 3d 92 28 d7 3c d8 17 54 3d
       -0.033630207 0.058813386 0.026264463 0.05178055
000110 42 f9 93 bd 46 6d 12 3e b5 af db 3d fb 9f 03 be
       -0.072252765 0.14299497 0.10726873 -0.12853996
000120 b4 64 03 81 aa 39 16 01 f0 d4 50 00 5c 82 5e 80
       -2.413315e-38 2.759202e-38 7.423227e-39 -8.679301e-39
000130 b0 e6 55 80 18 4f 51 01 f8 e6 be 81 78 b3 9e 01
       -7.888772e-39 3.8443984e-38 -7.01264e-38 5.829756e-38
000140 87 90 cf 80 15 aa 79 3c e1 52 05 be 50 51 20 be
       -1.9061794e-38 0.015238305 -0.13019897 -0.15656018
000150 18 b2 20 bd 29 67 8c be bc 12 70 be f6 e2 f6 bc
       -0.039232343 -0.27422455 -0.23444647 -0.03013752
000160 86 7c 7b be e2 66 21 be 55 83 c0 ba 62 96 9b bc
       -0.2455922 -0.15761903 -0.0014687577 -0.018992607
000170 3d 85 d1 bd c5 d0 c8 3d c5 93 14 3e eb 5c 29 3d
       -0.10230491 0.09805445 0.14509495 0.04134838
000180 41 37 2e bd ef 34 2f 3c ab 1d 8d bd c8 5a d3 00
       -0.042533163 0.010693773 -0.06890424 1.9409856e-38
000190 65 7c 39 01 f2 a5 aa 80 26 23 b1 01 0a 9b 9a 81
       3.4068382e-38 -1.5671564e-38 6.5069967e-38 -5.6793136e-38
0001a0 9a 16 2d 01 13 ac 53 81 0a 0c 41 00 ec 3a 16 00
       3.1791297e-38 -3.8878037e-38 5.973626e-39 2.041518e-39
0001b0 cf e9 e2 3c 6c 6e 5c bc dc 37 05 bc df 66 dc bc
       0.02769938 -0.013454061 -0.008130994 -0.026904522
0001c0 97 5c 25 3c af 4b 8c bc a6 d1 10 3e 2d 69 5a 3e
       0.010092876 -0.017125932 0.14142475 0.21329184
0001d0 3f 4f f5 3d 16 4c 5f 3d 35 e9 8f 3d 63 a6 0e bb
       0.119780056 0.05451592 0.070269026 -0.0021766655
0001e0 a7 57 76 3d f3 20 11 3e f1 1b 59 3d b6 bd 9b 3d
       0.060142186 0.14172725 0.053005163 0.07604544
0001f0 cc 49 31 3e 7e b1 24 3e dd 4f 0e 81 dc 9f ee 80
       0.17313308 0.16083333 -2.613858e-38 -2.1914195e-38
000200 63 1e 2d 80 50 ef af 01 f9 3d 9d 81 60 1d 2b 80
       -4.143498e-39 6.4628244e-38 -5.776162e-38 -3.959464e-39
000210 db 0c 85 81 67 3f 93 01 34 3c b3 81 7a 37 f3 bc
       -4.887493e-38 5.409025e-38 -6.58406e-38 -0.02968954
000220 8e c8 0b 3d 86 69 3c bd b0 76 f8 3d 93 9e 4c bc
       0.03412681 -0.045999072 0.12132013 -0.012488979
000230 24 1d 34 3e e4 4d 08 3e 70 4c 50 3d b6 95 b9 bd
       0.17589241 0.13310963 0.050854146 -0.09061758
000240 36 64 10 bd 24 30 90 3d c3 a3 5f 3d 89 b7 8a bd
       -0.03525182 0.07040432 0.054599535 -0.06773288
000250 a6 c3 f8 bd 2a 08 81 bb 8f ec 14 bc 54 2d af 3d
       -0.12146692 -0.003937741 -0.009089603 0.085535675
000260 ab d2 93 bb d4 9c 6b 00 a6 e3 30 80 7b c8 47 01
       -0.0045111976 9.882657e-39 -4.489769e-39 3.6694365e-38
000270 ec f2 ab 81 0e 0b 80 00 9a 8b 81 01 e7 60 84 81
       -6.3164055e-38 1.1758909e-38 4.7587434e-38 -4.862819e-38
000280 42 d9 25 80 e7 3c 91 01 84 95 1d 3d 05 59 0e 3e
       -3.475851e-39 5.335198e-38 0.038472667 0.13901146
000290 d8 cd 59 bd cf 0d a7 bd 9e b7 4a 3d 03 73 97 3d
       -0.053174824 -0.08156931 0.049491517 0.073949836
0002a0 da 77 f5 bc e0 f5 45 3c 28 c4 b7 bc ee 36 b8 3d
       -0.029964376 0.012082547 -0.022432402 0.08994852
0002b0 05 cd bf 3d 1a 0a 85 bc f4 61 22 3e c6 ab 88 3e
       0.09365276 -0.016240168 0.15857679 0.26693553
0002c0 08 cd 8a bc b2 68 26 3e 6a 4b 2e 3e d0 ab d1 bb
       -0.01694347 0.16250876 0.17020956 -0.0063986555
0002d0 85 04 a4 01 bc 9e 30 00 52 f1 77 81 36 8a 0c 81
       6.025057e-38 4.465047e-39 -4.5539874e-38 -2.58131e-38
0002e0 5c bc da 00 83 2a ae 01 a3 8b 8e 01 9a e5 3c 01
       2.0087709e-38 6.3978507e-38 5.236293e-38 3.4694878e-38
0002f0 73 17 6d 80 73 07 e1 bd b7 79 91 bd df 52 65 3d
       -1.0018481e-38 -0.10987749 -0.071032934 0.055987235
000300 69 76 c9 3d 04 46 c9 3d af 5a 16 3e 7a f4 9f bd
       0.09837038 0.098278075 0.1468303 -0.07810302
000310 bc f5 4a bd 41 18 80 3d 6f 95 35 bb 4b 9e b3 3d
       -0.049550757 0.06254626 -0.0027707478 0.08770426
000320 6c 63 7f bd d2 ff 89 3d 29 09 2f 3e f0 93 4e 3d
       -0.062350675 0.06738247 0.17093338 0.050434053
000330 a0 03 64 3d d6 72 09 3e a0 66 c5 bc a4 f2 b5 00
       0.05566752 0.13422713 -0.024096787 1.6709268e-38
000340 ae 97 88 01 31 a5 74 81 a8 c2 8d 80 54 68 bf 01
       5.017616e-38 -4.493424e-38 -1.3018634e-38 7.031202e-38
000350 c0 df 77 00 60 d9 ef 00 ba d0 44 80 86 4a 05 00
       1.100869e-38 2.2026663e-38 -6.319691e-39 4.85911e-40
000360 27 97 9d 3d f3 1f 09 3e 9b 91 76 3d 5a c7 c7 3d
       0.07694846 0.13391094 0.060197454 0.0975482
000370 85 77 71 3e ab 04 d5 3d c9 b4 c1 3d 7e d1 15 3e
       0.2358075 0.10401281 0.0945831 0.14630696
000380 33 81 a0 bd 05 14 96 3d f8 98 50 3d 8a 98 a5 3d
       -0.07837143 0.07328037 0.050927132 0.08085735
000390 40 4b d7 3d fc 0e 85 3c 80 c0 90 3d 92 a4 90 3d
       0.105124 0.016242497 0.070679665 0.07062639
0003a0 1f ec ad 3c 99 0d 34 bc 61 77 66 81 d7 05 1c 81
       0.021230755 -0.01098957 -4.2329978e-38 -2.8656865e-38
0003b0 32 8f d5 00 f9 04 ba 01 ac 95 7e 81 68 9f 6e 81
       1.961233e-38 6.8332745e-38 -4.6759816e-38 -4.3828065e-38
0003c0 7b 70 92 80 84 4d 9e 01 c0 80 a5 00 c5 ac 40 3d
       -1.3448333e-38 5.8151263e-38 1.5199044e-38 0.047039766
0003d0 7b 8e 1d 3d ff 99 93 bc 89 5c 28 3c 54 64 90 bb
       0.038465958 -0.018017767 0.010275968 -0.0044064913
0003e0 67 eb 2d bd 40 10 92 3c 53 11 19 bd 50 35 89 bd
       -0.042460825 0.017830014 -0.037370037 -0.06699622
0003f0 0d fb be bd 63 2e ea bd 45 9f 53 bd 4a fb f7 bd
       -0.09325228 -0.11434629 -0.051665563 -0.121084765

bias f4 [3]
000000 47 0d 50 3c 9d 04 5e 3e 49 c1 95 00
       0.012698478 0.21681447 1.3752827e-38
