BetterMiniGAN/discriminator.pt (torch_old, 288737 bytes, 7 tensors)

weight f4 [20, 3, 3, 3]
0.07710054 0.080149144 -0.0008042391 -0.06246748 -0.118078984 0.036128193 -0.026592739 -0.06252251
-0.071310505 -0.05869248 -0.036308613 -0.17620236 0.13296026 -0.05662125 -0.076154836 0.10533505
0.06437722 -0.06313267 -0.11195191 -0.15505429 -0.09863921 -0.055899665 0.022220165 -0.06396162
0.07848025 0.10259218 0.01353763 0.08109729 -0.07586761 0.047219362 -0.21815959 -0.031965196
0.066329874 0.05234075 0.088375784 0.14217514 0.013039481 0.11204858 0.07664893 0.00084393274
0.09919889 -0.011262346 -0.10182919 -0.094359666 -0.16691591 -0.041350905 -0.07457818 -0.0003856929
-0.02684391 -0.025634177 0.025087312 -0.05191842 0.1294043 -0.07743046 0.013706201 0.053205058
0.019427095 -0.14545107 -0.049761835 0.011895832 -0.1741592 0.10437575 -0.03870267 0.019377096
-0.12866056 0.02470866 -0.01689963 0.057202045 0.12519413 0.07309174 0.0042186524 0.09787196
-0.07435548 0.14008394 0.16795394 -0.01576989 -0.054782405 -0.009832497 -0.07868701 0.005405035
-0.030336002 -0.16248544 0.03643905 0.037234593 -0.07914411 -0.041526683 0.0067757303 0.12122115
-0.17119013 -0.1393847 0.027551081 -0.044593137 -0.00901324 0.09373649 0.006162399 0.018737532
-0.013555164 0.10813174 -0.02299418 0.09301063 -0.10943605 0.061809503 -0.20530032 0.007975214
0.08562798 -0.15738228 0.09586651 0.09469607 0.00068470725 -0.07471089 -0.080547184 -0.0036749116
-0.089220956 -0.08283738 -0.07446882 0.09915561 0.10878903 0.26123247 -0.015358652 -0.118926585
0.1250121 0.22255732 0.17956164 -0.04084283 0.09422391 0.12429953 -0.08482662 -0.12801461
-0.14862011 -0.005423163 -0.024064735 -0.09030684 -0.03213505 -0.029033845 0.091067545 0.22006324
-0.15711226 0.06782656 -0.09348737 -0.12002926 0.048310336 0.21926762 0.17896268 -0.020803591
0.03839272 0.048351217 -0.01701051 -0.10712306 -0.018674124 0.019349549 -0.004239326 -0.07984566
-0.063523315 -0.1165788 0.027644744 0.14129037 -0.06867881 -0.051698964 0.00074382476 0.030659948
-0.04052754 0.018373234 -0.009294833 0.084984735 -0.11154919 0.029238211 -0.09210313 0.014005854
0.07231352 0.0032999378 0.020118693 -0.037309136 0.109985165 0.03813547 0.059001736 -0.05160621
0.0015961151 -0.10688319 0.027003566 -0.034300514 0.2700372 0.041214816 -0.047349203 0.018886155
0.1934947 0.11499855 0.15953884 0.21456747 0.07685293 -0.09586906 0.002446342 0.0881767
-0.017965896 0.03860183 -0.01922814 -0.09840463 -0.103118144 0.01859939 0.1837626 0.010720113
0.15983744 -0.035169173 -0.19250146 -0.016763862 -0.061335415 0.10436705 -0.12796588 0.033939973
0.03569986 -0.04371742 -0.08515689 -0.1840479 0.009099673 0.023039397 0.19028904 -0.10106811
0.04351444 -0.035641808 -0.028833175 -0.07268303 0.20145592 0.17013116 0.00172187 -0.038482122
0.04202793 0.1002517 0.044110063 0.11835204 0.14956693 0.048481572 -0.049790148 0.07592181
-0.03780642 -0.0005354205 -0.020322474 -0.047591418 0.07289921 0.021614082 0.09958636 0.096073456
-0.019531643 -0.106163375 -0.22674315 0.12213965 0.059717696 -0.060292304 0.0034508717 0.11193395
-0.0037262335 -0.0762699 0.012814328 0.16416654 -0.013491113 0.15540189 -0.03898847 -0.005389079
00000000: e3e6 9d3d 3c25 a43d 93d3 52ba e6dd 7fbd
00000010: 65d3 f1bd 28fb 133d 04d9 d9bc cd0b 80bd
00000020: 3e0b 92bd 8767 70bd 57b8 14bd 646e 34be
00000030: bc26 083e afeb 67bd 11f7 9bbd e7b9 d73d
00000040: 34d8 833d b44b 81bd 0b47 e5bd 8dc6 1ebe
00000050: 5b03 cabd 0cf7 64bd 1007 b63c 4ffe 82bd
00000060: 41ba a03d d91b d23d f0cc 5d3c 5616 a63d
00000070: 7a60 9bbd 1769 413d 3a65 5fbe f0ed 02bd
00000080: f5d7 873d 4163 563d 5dfe b43d 5c96 113e
00000090: 8ca3 553c ba79 e53d 1dfa 9c3d 5e3b 5d3a
000000a0: ca28 cb3d b485 38bc d38b d0bd a43f c1bd
000000b0: 01ec 2abe 915f 29bd 72bc 98bd d336 cab9
000000c0: c2e7 dbbc c4fe d1bc e883 cd3c 69a8 54bd
000000d0: 9082 043e dc93 9ebd f98f 603c 8ced 593d
000000e0: 9225 9f3c 20f1 14be 11d3 4bbd bce6 423c
000000f0: ca56 32be f4c2 d53d b186 1ebd b7bc 9e3c
00000100: 98bf 03be d169 ca3c 1871 8abc b14c 6a3d
00000110: e432 003e 1fb1 953d 9f3c 8a3b 1871 c83d
00000120: b047 98bd 2a72 0f3e 1efc 2b3e db2f 81bc
00000130: 8463 60bd 7b18 21bc a826 a1bd b81c b13b
00000140: 3583 f8bc 9562 26be 1d41 153d 4d83 183d
00000150: 4f16 a2bd e217 2abd f206 de3b cb42 f83d
00000160: 774c 2fbe ddba 0ebe ceb2 e13c 4ba7 36bd
00000170: 45ac 13bc ebf8 bf3d f3ed c93b 747f 993c
00000180: 7b16 5ebc 2c74 dd3d 4a5e bcbc 5b7c be3d
00000190: 0220 e0bd f62b 7d3d 3f3a 52be 79aa 023c
000001a0: b95d af3d d228 21be a955 c43d 03f0 c13d
000001b0: ed7d 333a 0602 99bd ecf5 a4bd c9d6 70bb
000001c0: 7ab9 b6bd a5a6 a9bd 1c83 98bd 1912 cb3d
000001d0: c8cc de3d 43c0 853e dba2 7bbc c88f f3bd
000001e0: 2c03 003e 11e6 633e 02df 373e d04a 27bd
000001f0: 77f8 c03d c190 fe3d 94b9 adbd 4316 03be
00000200: df2f 18be cab4 b1bb 6823 c5bc cbf2 b8bd
00000210: 0ba0 03bd 63d8 edbc 9f81 ba3d 4258 613e
00000220: 09e2 20be a7e8 8a3d 4e76 bfbd e7d1 f5bd
00000230: 0fe1 453d b187 603e fe41 373e 4b6c aabc
00000240: af41 1d3d ed0b 463d a059 8bbc 5663 dbbd
00000250: 7afa 98bc f282 9e3c 0bea 8abb 1f86 a3bd
00000260: 8318 82bd dec0 eebd 3b77 e23c 6cae 103e
00000270: 7aa7 8cbd 4bc2 53bd 3cfd 423a 922a fb3c
00000280: 3500 26bd 7783 963c 5b49 18bc 7a0c ae3d
00000290: e773 e4bd f984 ef3c 91a0 bcbd cf78 653c
000002a0: 1c19 943d c543 583b f5cf a43c 77d1 18bd
000002b0: e73f e13d f033 1c3d ceab 713d 0961 53bd
000002c0: bc34 d13a 93e5 dabd 9536 dd3c b27e 0cbd
000002d0: 5142 8a3e ded0 283d 3df1 41bd 23b7 9a3c
000002e0: 7a23 463e 5c84 eb3d 265e 233e 93b7 5b3e
000002f0: 1265 9d3d ff56 c4bd cf52 203b fc95 b43d
00000300: 372d 93bc f41c 1e3d 5584 9dbc 5e88 c9bd
00000310: 9b2f d3bd bf5d 983c 432c 3c3e 6aa3 2f3c
00000320: 6dac 233e 8d0d 10bd 1a1f 45be 5e54 89bc
00000330: d83a 7bbd 64be d53d 7d09 03be a404 0b3d
00000340: 043a 123d 0a11 33bd bc66 aebd 0d77 3cbe
00000350: cb16 153c 1ebd bc3c 21db 423e ccfc cebd
00000360: 333c 323d 25fd 11bd 8d33 ecbc d7da 94bd
00000370: 764a 4e3e dd36 2e3e 5fb0 e13a 6e9f 1dbd
00000380: 7b25 2c3d c350 cd3d c1ac 343d 8e62 f23d
00000390: 1328 193e 9d94 463d c1f0 4bbd e57c 9b3d
000003a0: e8da 1abd 765b 0cba 517b a6bc 38ef 42bd
000003b0: 2e4c 953d 0410 b13c eff3 cb3d 29c2 c43d
000003c0: d300 a0bc 2f6c d9bd 5b2f 68be 5a24 fa3d
000003d0: 8b9a 743d 10f5 76bd 0528 623b a03d e53d
000003e0: d333 74bb 6533 9cbd 30f3 513c 461b 283e
000003f0: d409 5dbc ac21 1f3e 60b2 1fbd df96 b0bb

bias f4 [20]
-0.07824634 -0.16698845 -0.07215334 0.05848189 -0.17752698 0.14919466 0.1827105 -0.14668785
0.04458288 -0.0232996 0.0628147 -0.08643389 -0.024451258 0.050029125 0.19098468 0.05324113
0.14645882 -0.0682167 -0.050625928 -0.14202932
00000000: 9e3f a0bd 05ff 2abe 21c5 93bd b58a 6f3d
00000010: a2c9 35be 7cc6 183e 7618 3b3e 5735 16be
00000020: 8a9c 363d cede bebc fea4 803d 4004 b1bd
00000030: 014e c8bc 57eb 4c3d 7d91 433e 5f13 5a3d
00000040: 4df9 153e 32b5 8bbd 225d 4fbd 2270 11be

weight f4 [20, 20, 3, 3]
0.05657378 -0.091229334 -0.074888475 -0.014113968 0.018601887 -0.06391587 -0.05293127 0.03488234
-0.084367774 0.051704884 0.0261519 -0.0016579276 -0.018901838 0.06212015 0.058456276 0.06611223
-0.046293616 -0.055069793 0.043107286 -0.12017206 0.009833997 0.017892905 -0.06462455 -0.057115756
0.08517095 -0.043641258 -0.06619564 -0.014550642 -0.13196573 0.059057202 -0.06883297 0.04618762
0.14259945 -0.031615335 -0.08225529 -0.04103987 0.0002301494 0.04832986 -0.048975572 -0.14256625
0.10060581 -0.04915051 0.011485568 -0.19517034 0.093325235 -0.08001796 0.012511059 -0.05413619
0.1490334 0.017060012 -0.10396213 -0.053621955 -0.17170928 -0.06215941 -0.07362876 0.056767456
-0.015819145 -0.13115826 -0.015269143 -0.12893718 -0.010270187 0.050098225 -0.04192243 0.0037752343
-0.076015584 0.08248643 0.02619651 0.075140014 0.012152865 0.09554765 -0.04112834 -0.059623964
0.05448672 0.030863475 -0.01804838 0.018714767 -0.0010773373 -0.011033826 -0.026460104 -0.018135257
0.0049164365 -0.030778816 0.0399787 0.030140078 -0.06369635 -0.0138272075 0.053416505 0.17350033
0.003957502 -0.04665135 -0.12382156 0.09607879 -0.017900208 -0.0044692904 0.12727085 0.07807067
-0.09599275 -0.020964043 0.0025077828 0.12094341 -0.10878252 0.14674385 0.05046699 0.083567254
-0.10032072 -0.102032684 0.023568304 -0.04359084 0.01590409 0.025736162 -0.0010408096 0.0744471
0.10930234 -0.0062750108 -0.062078007 0.032234337 -0.098233946 -0.098670945 -0.08731454 -0.022151664
-0.12857896 -0.005192161 -0.03497211 0.057061322 -0.002276262 0.10717743 0.10803826 -0.0010985731
0.06090599 0.05586491 0.038411476 0.05563672 0.07309528 0.029602388 0.06955878 -0.14654903
0.06228011 0.11171384 -0.112546824 0.0023587772 -0.042613573 0.070052706 0.040950324 0.061210234
-0.013036109 0.13079147 -0.05802574 0.08454591 -0.019220252 -0.052284315 -0.06436106 -0.03762235
-0.008082975 -0.13617386 0.04559781 0.0018122857 -0.010139077 0.1256486 0.040899057 0.07567082
0.06266696 -0.08456065 -0.054683387 -0.120619975 0.014071735 0.057222366 -0.17486192 0.080192894
0.04958551 -0.024276031 0.07779551 0.0005826032 -0.054894865 -0.047849756 0.004434868 -0.010920104
0.18782309 -0.04628228 0.021587271 0.053220943 -0.05270473 -0.076589555 -0.00063863915 -0.017336065
0.066472724 -0.20249447 -0.009027069 -0.053274773 0.115380034 -0.0021208734 0.15114951 0.15180768
-0.020195443 0.037309706 -0.04144016 -0.102266245 -0.031066297 -0.11323635 0.08357784 0.033118792
0.14560933 0.05150552 0.19736215 0.022887306 -0.03490322 -0.006450959 -0.06524142 0.07479548
0.02408539 0.0037434571 -0.08254821 -0.104934044 0.057349123 0.030446079 0.059185375 -0.025938647
-0.031223584 -0.08462787 -0.052628946 0.12665406 -0.05692846 0.039510276 0.057250522 -0.059966538
-0.06272664 -0.035636753 -0.0062781535 0.02589693 0.052502368 0.034789942 -0.06932787 0.035640884
0.10389166 -0.20221843 0.028049428 0.050578456 0.05946642 0.11473274 -0.010874215 -0.09320536
0.11127907 0.14591189 0.010621617 0.04624982 0.058921676 -0.008193544 0.033865675 0.11543066
-0.133001 -0.12947 0.03949929 0.055019356 -0.078954436 0.10253451 0.041890737 -0.035739448
00000000: e8b9 673d 72d6 babd 215f 99bd 463e 67bc
00000010: fc62 983c 53e6 82bd 76ce 58bd c9e0 0e3d
00000020: 03c9 acbd 80c8 533d 823c d63c d24e d9ba
00000030: 07d8 9abc b371 7e3d d96f 6f3d d965 873d
00000040: 609e 3dbd dd90 61bd 4491 303d c51c f6bd
00000050: c61e 213c 2494 923c e059 84bd 36f2 69bd
00000060: 1b6e ae3d 2dc1 32bd 9491 87bd d165 6ebc
00000070: 0622 07be f7e5 713d 4df8 8cbd 3b2f 3d3d
00000080: 9705 123e 157f 01bd 7675 a8bd 6c19 28bd
00000090: 4254 7139 88f5 453d 9c9a 48bd e3fc 11be
000000a0: 6b0a ce3d 0c52 49bd f72d 3c3c bcda 47be
000000b0: 4d21 bf3d 75e0 a3bd 2ffb 4c3c e9bd 5dbd
000000c0: 369c 183e 70c1 8b3c 19ea d4bd b2a2 5bbd
000000d0: 8fd4 2fbe de9a 7ebd adca 96bd fe84 683d
000000e0: 2797 81bc 5a4e 06be 6d2b 7abc 1c08 04be
000000f0: 4944 28bc cc33 4d3d dbb6 2bbd ec69 773b
00000100: 0fae 9bbd a5ee a83d 109a d63c 02e3 993d
00000110: cf1c 473c 7cae c33d 3176 28bd 4238 74bd
00000120: 782d 5f3d 66d5 fc3c 32da 93bc b64f 993c
00000130: 7135 8dba 38c7 34bc dcc2 d8bc 6490 94bc
00000140: 0f1a a13b db23 fcbc b5c0 233d 53e8 f63c
00000150: 3b73 82bd 838b 62bc 44cb 5a3d 12aa 313e
00000160: efad 813b 7c15 3fbd 2896 fdbd f5c4 c43d
00000170: 75a3 92bc 2073 92bb 4a53 023e 84e3 9f3d
00000180: d997 c4bd c9bc abbc 9d59 243b 2eb1 f73d
00000190: 5fc9 debd 0544 163e 79b6 4e3d 4f25 ab3d
000001a0: f374 cdbd 83f6 d0bd 5112 c13c 4f8c 32bd
000001b0: 4b49 823c a5d4 d23c c66b 88ba b977 983d
000001c0: e8d9 df3d 9b9e cdbb 8245 7ebd 2708 043d
000001d0: e12e c9bd fe13 cabd f7d1 b2bd 6877 b5bc
000001e0: 34aa 03be 0123 aabb ea3e 0fbd 22b9 693d
000001f0: 572d 15bb d77f db3d 2a43 dd3d fffd 8fba
00000200: 8f78 793d 9bd2 643d 5a55 1d3d 54e3 633d
00000210: fab2 953d b580 f23c d574 8e3d f310 16be
00000220: 6e19 7f3d 3aca e43d f37e e6bd b795 1a3b
00000230: 928b 2ebd cb77 8f3d 87bb 273d 95b7 7a3d
00000240: 6795 55bc 33ee 053e 66ac 6dbd 6826 ad3d
00000250: ca73 9dbc 1428 56bd bbcf 83bd e519 1abd
00000260: 746e 04bc 2971 0bbe c5c4 3a3d 388a ed3a
00000270: 5f1e 26bc 07aa 003e c585 273d 4ef9 9a3d
00000280: 8957 803d 222e adbd b0fb 5fbd 9b07 f7bd
00000290: 228d 663c 0062 6a3d 010f 33be 2c3c a43d
000002a0: 2d1a 4b3d 87de c6bc 4153 9f3d d7b9 183a
000002b0: 70d9 60bd 1bfe 43bd 5f52 913b 3cea 32bc
000002c0: b254 403e 7d92 3dbd cad7 b03c 34fe 593d
000002d0: eae0 57bd fcda 9cbd 596a 27ba 5d04 8ebc
000002e0: da22 883d b65a 4fbe 46e6 13bc a636 5abd
000002f0: 5e4c ec3d 5afe 0abb f0c6 1a3e 7973 1b3e
00000300: ea70 a5bc 10d2 183d 28bd 29bd f770 d1bd
00000310: bf7e febc 76e8 e7bd dc2a ab3d 92a7 073d
00000320: 9d1a 153e 74f7 523d 4e19 4a3e 297e bb3c
00000330: aef6 0ebd 9162 d3bb 4b9d 85bd 5f2e 993d
00000340: b94e c53c ca54 753b 090f a9bd a9e7 d6bd
00000350: eae6 6a3d 0e6a f93c 5d6c 723d 497d d4bc
00000360: 9ac8 ffbc 6051 adbd 7391 57bd 9ab1 013e
00000370: d12d 69bd 87d5 213d 867f 6a3d 799f 75bd
00000380: d376 80bd d8f7 11bd f8b8 cdbb cc25 d43c
00000390: b90c 573d e67f 0e3d c5fb 8dbd 2dfc 113d
000003a0: 27c5 d43d 5912 4fbe eac7 e53c 5b2b 4f3d
000003b0: 1093 733d 00f9 ea3d c329 32bc 74e2 bebd
000003c0: 48e6 e33d ed69 153e 4a06 2e3c 7470 3d3d
000003d0: db57 713d 373e 06bc bcb6 0a3d e966 ec3d
000003e0: 6a31 08be c993 04be 02ca 213d fa5b 613d
000003f0: ddb2 a1bd 9dfd d13d 9f95 2b3d 8763 12bd

bias f4 [20]
-0.06681893 -0.019539429 0.032778542 -0.052532002 -0.04900646 -0.06271109 -0.0393876 0.04032816
0.051313013 0.0005408294 0.055222142 -0.033391234 -0.061140608 -0.021896962 0.07304592 -0.031059878
-0.06857066 -0.042983506 -0.05368534 -0.056441385
00000000: 5dd8 88bd 2711 a0bc cb42 063d cc2b 57bd
00000010: ffba 48bd ac6e 80bd e454 21bd 242f 253d
00000020: 982d 523d 72c6 0d3a 9d30 623d 3fc5 08bd
00000030: 936e 7abd 4261 b3bc 1999 953d 4971 febc
00000040: c66e 8cbd 790f 30bd 29e5 5bbd 152f 67bd

weight f4 [16, 3920]
0.009391656 0.0022418688 0.013244024 -0.0057431306 0.0048383935 -0.003470866 0.011260628 0.010056094
0.0070065907 0.00863778 -0.0065596076 0.011472087 -0.013508681 -0.0026626473 0.0032640016 0.0014358296
0.01118982 0.011188567 0.011980163 0.0046503944 0.011710538 -0.0047094994 0.014283044 0.012190369
0.0038126055 -0.0067140195 0.004082087 0.008049169 -0.006070887 -0.013702768 -0.0079165 0.0020935743
0.008475418 -0.008803076 0.00014036921 0.014159568 -0.008922125 -0.015582852 0.0052248095 0.005054894
-0.014190499 0.004617357 -0.0062846886 -0.0026192993 0.0053031733 -0.012231978 0.012437654 0.0134559125
-0.011638242 -4.7097506e-05 -0.0009335386 0.011330511 -0.012709584 0.013981897 0.013510484 -0.0038786437
-0.009445468 -0.011768367 0.0073940246 0.0077265096 -0.014024817 0.010325069 0.009609411 -0.004239085
0.0063735493 -0.015661824 -0.009601216 -0.011874876 0.0016760525 -0.0071127154 -0.0054487274 0.0039428887
0.008775584 -0.0014768722 -0.009307896 -0.0018522317 0.004055603 -0.0022756942 -0.012844358 0.010443235
-0.0015538416 -0.004302254 -0.0073714717 -0.0079324115 0.0066523673 0.0024234569 0.0026202651 0.008992994
-0.006226611 -0.015419128 3.7622744e-05 0.004846985 0.00074560416 -0.009070045 0.0012102153 -0.00031248463
0.015323117 0.012957355 0.012810674 0.014484043 -0.009531602 0.0065430664 0.012418349 -0.013611537
0.005860512 0.010882647 0.0030706122 0.012596655 0.0036615562 -0.004386787 -0.004131529 0.0137993675
-0.0073358747 0.015476075 -0.0120235495 0.014621607 -0.0067155645 0.015518573 -0.0012790243 -0.0047204583
-0.005806933 0.015345909 -0.010874519 0.013589074 -0.012768819 0.0149752395 0.011899285 0.0034755508
0.012808768 0.0063178237 -0.008798145 0.015360236 0.0023148968 0.0015788666 0.0039676493 -0.00078535365
-0.0017675213 0.0060702763 0.014783674 0.010192644 0.007613535 0.0027443958 -0.0015342258 0.0021341336
0.012553444 0.0150375925 0.002279547 0.010261917 -0.013793363 0.00013927907 -0.009726249 0.008190058
0.0073455134 -0.0077530746 -0.015984891 0.0112553295 0.0024085818 -0.004687782 -0.0078001525 0.0022076587
0.009591406 -0.00429959 0.009760986 -0.014113061 -0.002873587 0.00044848432 -0.008646674 -0.016262775
-0.0010994318 -0.014496688 0.013814033 -0.009676756 0.0020129152 -0.0037162544 -0.012557224 -0.015374975
0.00058449135 0.0047385152 -0.013220642 0.0043869596 0.004381796 0.0040177065 0.0075231832 0.009562054
-0.0075501734 -0.015252752 0.011988354 -0.0016912859 -0.0003252187 -0.0011707895 0.011228289 0.014790708
-0.012598992 -0.0013048789 0.0028336153 -0.012384662 -0.0075727375 0.007310808 0.01226311 0.015028594
0.0064035626 -0.010618812 0.0034231208 -0.008137602 -0.01477171 -0.00273207 0.0067554186 0.0074663525
0.012714236 0.015386933 0.008343677 0.012167226 0.008408156 0.008124705 -0.012113698 0.002225594
0.013477819 -0.012126849 -0.012660602 -0.006540285 -0.010953975 0.004081893 0.0076961056 -0.010616691
0.009726228 -0.015309003 -0.003571253 0.0030462751 -0.007765905 0.010706316 0.002054946 0.008826927
-0.001926613 0.013326523 -0.010082959 -0.010578576 -0.0093379915 -0.011876633 -0.0070953975 0.00779835
-0.008168665 -0.008825654 -0.0008207032 -0.007628332 -0.01287431 0.007643446 -0.013206394 -0.0043634917
-0.0038808226 -0.013919347 -0.0051147267 -0.011950862 0.0031434577 0.0006408424 0.0025288987 -0.01190364
00000000: 76df 193c 51ec 123b 76fd 583c df30 bcbb
00000010: 638b 9e3b 7877 63bb 7f7e 383c 51c2 243c
00000020: 8b97 e53b 7a85 0d3c faf1 d6bb 6cf5 3b3c
00000030: 8453 5dbc cf7f 2ebb dce8 553b 7232 bc3a
00000040: 8255 373c 4050 373c 7248 443c 5662 983b
00000050: 8edd 3f3c 2552 9abb 6e03 6a3c 1dba 473c
00000060: e8dc 793b 4701 dcbb 07c3 853b a9e0 033c
00000070: 4bee c6bb 9381 60bc 35b4 01bc 5934 093b
00000080: 7bdc 0a3c c73a 10bc 1330 1339 88fd 673c
00000090: 1b2e 12bc 384f 7fbc e134 ab3b 86a3 a53b
000000a0: 447f 68bc 334d 973b caef cdbb 8da8 2bbb
000000b0: 3ec6 ad3b a268 48bc 4dc7 4b3c 3076 5c3c
000000c0: 53ae 3ebc 908a 45b8 b7b8 74ba 9ca3 393c
000000d0: dc3b 50bc 5414 653c 145b 5d3c d830 7ebb
000000e0: 2ac1 1abc 1cd0 40bc 9349 f23b a92e fd3b
000000f0: 59c8 65bc 7a2a 293c ca70 1d3c 06e8 8abb
00000100: 35d9 d03b 3a4d 80bc 6b4e 1dbc d78e 42bc
00000110: fdae db3a c811 e9bb 3d8b b2bb 5933 813b
00000120: 78c7 0f3c 9c93 c1ba 2580 18bc 95c6 f2ba
00000130: dde4 843b d023 15bb 2471 52bc 1a1a 2b3c
00000140: 46aa cbba ecf9 8cbb 638c f1bb f2f6 01bc
00000150: 1afc d93b dcd2 1e3b c1b8 2b3b 5a57 133c
00000160: 9908 ccbb 83a0 7cbc 1dcd 1d38 75d3 9e3b
00000170: a674 433a 879a 14bc 16a0 9e3a fad4 a3b9
00000180: d00d 7b3c 164b 543c dce3 513c 7b4e 6d3c
00000190: 702a 1cbc 3867 d63b 5576 4b3c ed02 5fbc
000001a0: 8a09 c03b 214d 323c 533c 493b 3362 4e3c
000001b0: b8f6 6f3b 09bf 8fbb c761 87bb be16 623c
000001c0: c761 f0bb 5d8f 7d3c 6cfe 44bc 778f 6f3c
000001d0: 3d0e dcbb 9d41 7e3c efa4 a7ba 13ae 9abb
000001e0: 1648 bebb 686d 7b3c 0a2b 32bc b5a4 5e3c
000001f0: 4f34 51bc b55a 753c 38f5 423c 11c6 633b
00000200: dedb 513c bf05 cf3b 1826 10bc 80a9 7b3c
00000210: 86b5 173b f9f1 ce3a 0e03 823b 31e0 4dba
00000220: 2cac e7ba 2be9 c63b 3937 723c 0cff 263c
00000230: f67a f93b 52db 333b 1318 c9ba d2dc 0b3b
00000240: f6ac 4d3c 3c60 763c 7464 153b 9921 283c
00000250: 8ffd 61bc 710b 1239 d85a 1fbc 982f 063c
00000260: a2b2 f03b 810d febb bff2 82bc 4668 383c
00000270: 4cd9 1d3b f79b 99bb 6c98 ffbb 5eae 103b
00000280: 4625 1d3c 93e3 8cbb 8bec 1f3c 783a 67bc
00000290: ca52 3cbb 8c22 eb39 c8aa 0dbc 8339 85bc
000002a0: cf1a 90ba 8483 6dbc 4154 623c 428b 1ebc
000002b0: 1deb 033b 678c 73bb d1bc 4dbc 52e7 7bbc
000002c0: 8d38 193a 8c45 9b3b 649b 58bc 7cc0 8f3b
000002d0: 2b95 8f3b f7a6 833b 0985 f63b 29aa 1c3c
000002e0: 7267 f7bb aee6 79bc cd6a 443c 23ae ddba
000002f0: 1d82 aab9 2d75 99ba dcf6 373c ba54 723c
00000300: 016c 4ebc 7808 abba 2db4 393b 0ae9 4abc
00000310: ba24 f8bb 818f ef3b 36eb 483c 7e3a 763c
00000320: fad4 d13b 87fa 2dbc 7056 603b 9453 05bc
00000330: 0b05 72bc 870c 33bb 8f5c dd3b 4ea8 f43b
00000340: 5f4f 503c 7a19 7c3c ebb3 083c 0b59 473c
00000350: 5dc2 093c 7c1d 053c 8878 46bc 45db 113b
00000360: 12d2 5c3c b1af 46bc 6a6e 4fbc e34f d6bb
00000370: 4d78 33bc 66c1 853b 9d2f fc3b a1f1 2dbc
00000380: c25a 1f3c 9dd2 7abc af0b 6abb 04a4 473b
00000390: 2279 febb 8b69 2f3c 46ac 063b d19e 103c
000003a0: 6886 fcba 7d57 5a3c ff32 25bc c351 2dbc
000003b0: 60fe 18bc 3696 42bc 8280 e8bb 4d89 ff3b
000003c0: ddd5 05bc 7a99 10bc 7624 57ba 16f7 f9bb
000003d0: c5ee 52bc df75 fa3b a25f 58bc 9ffb 8ebb
000003e0: 6655 7ebb f90d 64bc 7099 a7bb 8ccd 43bc
000003f0: 7802 4e3b 35fe 273a e1bb 253b 7c07 43bc

bias f4 [16]
-0.007959476 -0.010379069 -0.006156453 -0.0052027483 0.0069996836 -0.007452825 -0.010927086 -0.0031868776
-0.014338116 -0.0070767505 -0.0067139673 0.0007884125 0.0004603921 0.014569347 0.010596202 0.010502729
00000000: 7668 02bc f80c 2abc 12bc c9bb d17b aabb
00000010: 9a5d e53b d436 f4bb 8507 33bc efda 50bb
00000020: 6bea 6abc 16e4 e7bb d700 dcbb 78ad 4e3a
00000030: c860 f139 45b4 6e3c b19b 2d3c a313 2c3c

weight f4 [1, 16]
0.24420615 0.2199624 -0.18789434 0.24242127 -0.22553973 0.24268353 0.16485682 -0.16577375
0.046205122 -0.07240279 -0.18175636 -0.050453417 0.04177077 -0.20100513 -0.016642602 0.13772003
00000000: 2d11 7a3e d33d 613e 6067 40be 483d 783e
00000010: e3f3 66be 0882 783e 3ad0 283e 98c0 29be
00000020: 9541 3d3d ea47 94bd 571e 3abe 3ea8 4ebd
00000030: d417 2b3d 4ad4 4dbe 1156 88bc 7b06 0d3e
