Mini_GAN/baselinev8.pt (torch_old, 845242 bytes, 12 tensors)

encoder.0.weight f4 [16, 3, 3, 3]
00000000: 4795 0fbd 9bae 4cbd a1ad b43d fe58 e3bd
00000010: 2111 033e c1ed 943c 2fad 073e 83eb aebd
00000020: d3c0 c6bd 17d8 373e 804a 523e d48f 493e
00000030: 29c3 2bbc 6466 4abe 437a 083e 6ac5 5ebe
00000040: 0011 87be c740 afbd 8a74 a03e beed 4f3e
00000050: aab0 8b3e ab2d 853e 5e78 413c 513c 8cbe
00000060: aa49 83be 8b7a 69be efca bebe ab7c 0abd
00000070: e8d0 f53d 00c7 f83d 1251 2dbe 829d f6bd
00000080: 895c 763d a1e5 863d a8a8 c93d 52cb 0dbe
00000090: 74e6 d6be 7898 f3be 5667 9cbe f89d 0abe
000000a0: e622 fdbe 437d 4bbe 9d00 b5bd 656e fdbd
000000b0: 05b6 15bf 30fb 54be 6ca7 6a3d 0f3c 2abe
000000c0: 646b d1be 18eb c13d 7b40 e03c 8a04 e4be
000000d0: f88a 0dbe e771 0cbe 6c92 af3d 57b6 23be
000000e0: 42de 283c 9699 ccbc d89e a0bc 32eb 393b
000000f0: fdfe ba3d 95f1 2bbe de1d 9e3c f127 8cbd
00000100: 48da 873c f1c5 d93d 3d61 0cbd 287b 22be
00000110: 6a4b 903d b147 a73d e72f 10be c509 b73d
00000120: 0c32 093e 0309 f03c 954e 333e 96d5 12be
00000130: 405a 8a3e 1f08 803e 405a 41be d082 d93d
00000140: a9a7 953d 946c 173e 2a80 8f3d b3be 15be
00000150: 3e2c 333d f08a f43d 8f29 00be 1f7e 71bc
00000160: fee0 a6bd 8302 233d eed1 99be b962 94be
00000170: 171e 6fbe 9af3 87be 50db c9bd bb26 95be
00000180: 911d a3be 84c0 babe e1b1 00bf 30c6 62bd
00000190: e108 1a3d 5a17 273e ba9c d43d 393f 293d
000001a0: 158c 333e a4cc babd 2a37 b13d f5e1 ce3d
000001b0: da90 f23d c098 3a3c b956 383d d99c 9abd
000001c0: 6d72 5a3d dc6e 8abd 0b8f 2abe f830 93bc
000001d0: 66b7 313d 63ab 9abe 8486 28be 3535 45bd
000001e0: afcf 5dbe b353 53be b75e 50be cd5e 5bbe
000001f0: 661e b9bd cb51 97be c8b8 c13c f10c 2d3b
00000200: e66e c63e 1fc2 373b 8e69 1dbe a65d 5e3e
00000210: e1e8 ed3d 7103 813e f9f0 0a3e c618 f13c
00000220: 4a5a 9b3d 2b37 8fbc 72fe a53d 5759 11bd
00000230: 555e f9bd 3009 d83b 0e68 82bd 86ca d73d
00000240: 8c55 253e 77ce db3b d757 5b3e 65d4 963d
00000250: f510 c53d b2a5 813e 4944 343e 7b72 b33e
00000260: 0f9d 013e d0eb 14be c279 55be e230 92be
00000270: c0a0 6fbe 97d4 87be 7a90 1abe 9649 74be
00000280: 53ec 593d 7245 9cbe 4f22 773d 7432 e43d
00000290: 9976 20be 4d77 8d3d 37dd cd3c e886 2a3e
000002a0: fa93 0fbe 75ed 0cbe 4626 0cbe b615 fdbd
000002b0: c596 423e 3533 c7bd 78ac f53d ee63 75bd
000002c0: b4cf eb3d 9b94 15bd f05e 703e 230e 223e
000002d0: 1fc8 df3d 16e6 13be 13fa 963d 93ef 17bb
000002e0: 6564 85bd 24aa 67be 750e 293d 4748 58be
000002f0: 592b 06be c4bc 073e 2861 cfbc 317e c6bd
00000300: 8bd4 93bd 3d1f 03be a087 f03b d232 04bd
00000310: b0d2 cb3d d2af f23d c6c6 70bd 72b1 d5bd
00000320: 8268 d43d 0746 1d3e 36bb 82be db1e 8b3c
00000330: 59f4 ffbd d637 703a 9a60 173d 6d6c 40be
00000340: b882 0e3e 6b24 863e adcd e7bd f495 8fba
00000350: d165 3c3e a940 783e ffc4 3c3e 7aac 663e
00000360: b982 063e 5280 d33d 38f5 353c a5fc ffbd
00000370: 0a43 debd 977a ad3c 6737 21bd e24e ee3c
00000380: 9bbb 93bd 7883 06bd 5494 f93d 4812 533e
00000390: 2cca 8d3d b313 3d3d d61a dc3e 2218 8c3d
000003a0: 19fd 013e bafa a93e 4585 72be f360 8cbd
000003b0: 3632 623d 53d0 98bc 85ac 93be 876c 8dbe
000003c0: 22fc e1bd 7536 d6bc acdd 29be 8d61 bdbd
000003d0: 47a0 0c3d d7cd d83d 43e2 10be 5468 4f3d
000003e0: f060 bebb 64f4 05be 1743 bebd e47a 003e
000003f0: 6e72 19be 5f4b b53d 7889 c03b 1e6e 9d3d
-0.03505447 -0.049971204 0.088221796 -0.11100958 0.12799503 0.018179776 0.13249658 -0.08541014
-0.09704747 0.17953525 0.20536232 0.19683772 -0.0104835415 -0.19765621 0.13327889 -0.21754995
-0.26380157 -0.08557277 0.31338912 0.20305535 0.2728322 0.26011404 0.011808483 -0.27389768
-0.2564214 -0.22800653 -0.372642 -0.0338103 0.12002736 0.12147331 -0.16925457 -0.12041761
0.060146842 0.06586767 0.09846622 -0.13847092 -0.41972697 -0.47577262 -0.3054759 -0.13536823
-0.49440688 -0.19872002 -0.088380076 -0.12374572 -0.58480865 -0.20798945 0.057288572 -0.16624473
-0.40902245 0.09468669 0.027374497 -0.44534713 -0.13822544 -0.13715325 0.0857285 -0.15987526
0.010306897 -0.02497558 -0.019606993 0.0028368947 0.091306664 -0.16791375 0.019301351 -0.06843556
0.016583577 0.106334575 -0.03427242 -0.15867293 0.07045634 0.08167971 -0.14080773 0.0893741
0.13397998 0.029301172 0.17510445 -0.14339289 0.2702198 0.25006196 -0.18882084 0.10620654
0.07307369 0.14787513 0.07006867 -0.14623527 0.043743365 0.11940563 -0.12515853 -0.014739542
-0.081483826 0.039797317 -0.30042976 -0.2898157 -0.23351322 -0.2655304 -0.09856284 -0.29131112
-0.31858495 -0.36475003 -0.5027142 -0.055364788 0.037606124 0.16317502 0.10381456 0.04132006
0.17533906 -0.09121063 0.086531 0.10101692 0.118440345 0.0113889575 0.04500458 -0.075494476
0.05333178 -0.06759426 -0.16656129 -0.017967686 0.043387793 -0.30208883 -0.16457564 -0.048146445
-0.21661256 -0.20637397 -0.20348631 -0.21422882 -0.09039001 -0.2955459 0.02364768 0.0026405419
0.38756484 0.002803929 -0.15372297 0.21715412 0.11616684 0.25197938 0.13568486 0.029430758
0.07585581 -0.01748236 0.08105172 -0.03548559 -0.121761955 0.006592892 -0.06367503 0.10536675
0.16145915 0.006707962 0.21420227 0.0736473 0.09622375 0.25321728 0.17604174 0.3504828
0.1265757 -0.1454308 -0.20847228 -0.2855292 -0.23401165 -0.2652938 -0.15094176 -0.23856196
0.053203892 -0.30521733 0.060335454 0.11142436 -0.15670241 0.069075204 0.025129898 0.16653025
-0.14021292 -0.13762458 -0.13686475 -0.12357657 0.19002827 -0.09726564 0.119957864 -0.059909754
0.115142256 -0.036518674 0.23473716 0.15825705 0.10926842 -0.1444324 0.073719166 -0.002318357
-0.06513289 -0.22623497 0.041273553 -0.21121322 -0.13102473 0.13255602 -0.025314882 -0.09692038
-0.07218274 -0.12804885 0.0073403865 -0.03227503 0.09952295 0.11849941 -0.058783315 -0.10434236
0.10371496 0.15358745 -0.25533456 0.016982486 -0.124977775 0.00091635936 0.03695736 -0.18791361
0.13917053 0.2619966 -0.113185264 -0.0010954724 0.18398215 0.24243416 0.18434523 0.22526732
0.13135804 0.103272095 0.011105828 -0.1249936 -0.108526304 0.02117662 -0.039359476 0.029090349
-0.07213517 -0.032840222 0.121864945 0.20612442 0.06923327 0.046161365 0.42989224 0.068405405
0.12694205 0.33199102 -0.23683651 -0.06854429 0.055223666 -0.018654024 -0.2884256 -0.27621862
-0.11034419 -0.026149014 -0.16588467 -0.09247122 0.03433254 0.10586136 -0.14148812 0.050636604
-0.0058098957 -0.13081509 -0.0929014 0.12546879 -0.14985058 0.088522665 0.0058757626 0.07687019

encoder.0.bias f4 [16]
00000000: 1560 453f f5ca 0dbe 7274 9b3f 0359 a2bc
00000010: 5b86 4ebe 0649 96be 0327 0c3f ad9f b53e
00000020: 8fda 9b3e caaa e83e 9a04 00be 1fd3 bdbd
00000030: 5166 04be 8fa1 c63d fa23 f73d 2279 18be
0.77099735 -0.13846953 1.2144911 -0.019817835 -0.2016844 -0.29352587 0.5474703 0.35473385
0.30440184 0.45442802 -0.12501755 -0.09268784 -0.12929656 0.096987836 0.12067409 -0.14889959

encoder.2.weight f4 [32, 16, 3, 3]
00000000: 43b4 4e3d c726 743d 9156 bbbc 1faa 2dbc
00000010: dc29 403d beb5 713c a38a 883d e2eb 5e3d
00000020: fa62 94bc 2374 1f3d 90bd d33a 40e8 aebc
00000030: 302c 45bd a101 533d b6d4 793b 1838 4fbb
00000040: 5ac5 79bd d54d 37bd 4485 893d 6db4 9c3d
00000050: 1248 503d e295 b33d c602 05bb 3f14 97bc
00000060: d330 93bb 55ef cc3c a7e8 143e 8483 583d
00000070: ab4a 14bd ed9c 3b3c ecfb 99bd 8f59 79bc
00000080: 3dfa 8f3d 60a4 ce3b 20a8 93bd bacc 90bb
00000090: d015 85bd ebfb a2bd b98f a3bd 81e9 f4bd
000000a0: d27a 39bd d080 8dbd 43bb 3ebd c64b cbbd
000000b0: a8ac 793c 828b 4bbc 33e2 92bc b3c0 3fbd
000000c0: 1898 cc3d c987 a13d ec45 57bc 9d14 703d
000000d0: 4263 e93d e228 04bd 9cbf eebc 5c49 7fbd
000000e0: acb8 c1bc 3102 8ebd a845 3fbd 7cf0 48bd
000000f0: c2ba 1bbd c808 443d 2a9d e1bc b99c aabd
00000100: 7faf 8cbc b58d abbc 434f bcbd 1fc7 d2bd
00000110: 3ce3 d8bd 9732 0abe ebdc c6ba e795 9d3b
00000120: b9f5 e0bc 5a1c 8f3c 47c5 44bd 84fa 7a3c
00000130: 5712 4ebc 1639 a1bb 9c94 1bbd 0b97 a23d
00000140: c212 89bc 1733 053d a0a4 983d abe1 a13d
00000150: 412f efbc a6ee e0bd ee22 683d 6ca6 f53a
00000160: cea0 183c 21a5 a13c da8b cdbd b581 bdbd
00000170: 1829 2abd bd75 0cbe b3e1 29be 0ad5 02bc
00000180: e06d babd 7277 0dbe f04e 8abd 3d20 88bd
00000190: 8c1b 6c3c f8fa 823c 38e1 cdbd 9ad5 c6bd
000001a0: 0fe9 a9bc c84a e3bd 0acf 27bd c4dd 3f3d
000001b0: 1cd7 2d3c c79f d1bc f5d4 223c d302 a03d
000001c0: fc60 81bd f02b c33d e9d4 fdbc 5371 7dbd
000001d0: db1a 8a3d e493 9bbd 6f5f 5bbd 5e99 563d
000001e0: efdf 0fbd 5d8e 9d3c 7e71 0fbd ccd3 1dbd
000001f0: 2253 44bd dc93 263d 077d a13d de22 933c
00000200: a6f8 63b9 0266 b73d e67e de3d c81e dd3b
00000210: c026 43bd 603d c13d 756d 983d 5d2c 673a
00000220: 653f 153c 6250 6e3d 3f79 2e3c 2177 b43d
00000230: 3df4 323c a74b 5c3d 8341 8b3d 12d3 eebc
00000240: cb95 26bd a37a bc3c c828 393d 7327 0e3d
00000250: 3387 ab3c d8c1 323c ba0d ab3c 4a1a f63d
00000260: 7886 863d 0402 bdbb f204 2a3d ebd2 89bd
00000270: 6171 9d3c c0a7 583d ed08 023d 5f80 3c3d
00000280: 7ced d03c 0d5d e03c a453 61bd 7efc 38bd
00000290: f391 89bc b1da a4bb 3b5c 79bd ab51 89bd
000002a0: e80c 25be 6118 243c 0a7f 2fbd 4bc3 843c
000002b0: 26be 713d 45d5 033d 766e d73c 0bcf c93d
000002c0: 5ca2 a93d f988 9b3d c326 633d da32 033d
000002d0: 10fd 34bd a33f 40bd 4e1a 06bd 3eb5 44bd
000002e0: 1563 39bd 401a 58bd 5424 2cbe 835d 03bd
000002f0: b710 4c3d fc6e 92bd 843a 0bbe 2e5c d7bd
00000300: 6a6f 85ba 4aa9 03be ad57 0dbe ed77 7dbd
00000310: ddf4 913b 5a30 bfbd e581 083c eee0 263e
00000320: cdc4 9ebc debc 29bd cb44 b13c e20a e83c
00000330: eaa2 9a3c 3a9d 563d 8464 4dbc 8644 3f3c
00000340: e379 da3d e40f c83a df2f 623d c00a f73c
00000350: cf1a bd3d 3d0d 35bd d83f 693d 2dc9 d0bb
00000360: 9011 cabc 1e31 2ebd 7445 aabb 1653 e4bd
00000370: a668 f93c 5c46 a3bd caee 12bd 7c50 e2bd
00000380: 4b47 fabd 008f 96bd 0bcf 8dbc 19ec 5dbd
00000390: 7b31 cfbd efc8 99bb e027 00bd ce3f e4bd
000003a0: cae7 f9bc 7a75 083b 4d5a 153d e3be 273d
000003b0: 0846 b43c 38c0 9bbc 1007 a03d ddcb a53d
000003c0: 7301 e4bb 907c d3bc 5808 3b3d db73 453d
000003d0: cdef 063d 89e4 993d f791 d6bc 816c 143d
000003e0: 210d 573d 5d3d debc 479f e13c 877b a9bc
000003f0: 8b18 fd3c c19e 90ba ef2d b23c 56d6 033c
0.05046488 0.059607293 -0.022868427 -0.010599642 0.04691492 0.014752803 0.06667068 0.054424174
-0.018113602 0.038929116 0.0016154516 -0.02135098 -0.048137844 0.051515225 0.003812117 -0.0031619128
-0.060979225 -0.04475196 0.067148715 0.07651601 0.05084998 0.08768822 -0.0020295843 -0.018442271
-0.0044919043 0.025016466 0.14541875 0.052859798 -0.03620402 0.011450988 -0.075187534 -0.015219106
0.07030151 0.006306216 -0.07209802 -0.0044189366 -0.06498301 -0.07958206 -0.07986397 -0.119586
-0.045283146 -0.06909335 -0.046565305 -0.09926562 0.015238918 -0.012423398 -0.017930126 -0.04681463
0.09989947 0.07887227 -0.013139229 0.05861341 0.11395885 -0.03226555 -0.0291441 -0.06232582
-0.023647629 -0.06934012 -0.04669729 -0.04905747 -0.038019903 0.047859937 -0.027540762 -0.08330674
-0.017173527 -0.020941595 -0.091948055 -0.102918856 -0.105902165 -0.13495861 -0.001517204 0.0048091295
-0.02746092 0.017469574 -0.0480397 0.015318517 -0.012577615 -0.0049201353 -0.03798352 0.079389654
-0.016732577 0.032519426 0.07453275 0.07904371 -0.029197337 -0.109830186 0.056673937 0.0018741614
0.009315683 0.01973206 -0.1003644 -0.09253255 -0.041543096 -0.13716789 -0.16590004 -0.007985363
-0.09102988 -0.13815096 -0.067533374 -0.06646774 0.014410865 0.015988812 -0.10052723 -0.0970871
-0.020741014 -0.11098248 -0.040968932 0.04684235 0.010610368 -0.025588883 0.009938468 0.07813039
-0.063173264 0.09529865 -0.030985313 -0.061875653 0.067434035 -0.07596567 -0.05355781 0.052392356
-0.03512567 0.019232923 -0.035020344 -0.038532063 -0.047930844 0.040668353 0.07885175 0.017960962
-0.00021741036 0.08955003 0.10864048 0.006748054 -0.047644377 0.094355345 0.07442752 0.00088185613
0.009109353 0.058182128 0.0106490245 0.088117845 0.010922489 0.053783085 0.06799605 -0.02915338
-0.040670197 0.023007696 0.045204908 0.03470559 0.020938491 0.010910474 0.020880569 0.12016733
0.06568617 -0.0057680625 0.041508622 -0.067296825 0.019219102 0.052894354 0.031746794 0.04602086
0.025503866 0.02738812 -0.055011407 -0.04516267 -0.016793227 -0.005030953 -0.060878973 -0.0670503
-0.16118205 0.010015578 -0.042845763 0.016206404 0.05901923 0.03218581 0.026297789 0.098539434
0.08282921 0.07594485 0.055456888 0.032030918 -0.04418665 -0.04693569 -0.03273993 -0.04802441
-0.045260508 -0.05275941 -0.16810733 -0.0320716 0.049820628 -0.07150075 -0.1359654 -0.10515629
-0.0010180299 -0.12857547 -0.13802977 -0.06188195 0.004454239 -0.09335394 0.0083317505 0.16296741
-0.019380951 -0.041439883 0.021639248 0.028325502 0.018876512 0.052396037 -0.012536172 0.011674052
0.10667779 0.0015263525 0.055221435 0.030156493 0.09233629 -0.044202078 0.05694565 -0.0063716383
-0.024666578 -0.04252731 -0.0051962677 -0.1114866 0.030445408 -0.07972404 -0.03587226 -0.110505074
-0.12220629 -0.07351494 -0.01731064 -0.05418024 -0.101168595 -0.0046931426 -0.031288028 -0.11144982
-0.030506033 0.0020821975 0.03646307 0.040953528 0.02200605 -0.019012555 0.07813847 0.080955245
-0.0069581806 -0.025816232 0.045662254 0.04820619 0.032943536 0.07514293 -0.026192648 0.03623629
0.052502755 -0.02712887 0.02754177 -0.020688785 0.030895492 -0.001103364 0.021750418 0.008046707

encoder.2.bias f4 [32]
00000000: a367 b8bd 2361 11be c7e5 223e d55a 623d
00000010: da97 6d3d 3035 953f 3f72 123e b3e2 6d3e
00000020: d943 ae3d eaed 2fbe e60c 353d 9169 9bbd
00000030: 03e4 cf3d 72a1 cbbc 26ad de3d 3935 8f3d
00000040: 294f 913d 8ed8 853f f379 7f3d 0b08 bfbd
00000050: 7c4d bc3c b66b 34bd 4d6a 68bd 60f1 23bd
00000060: 3cce f8bc 5e37 283f a24d a83c f634 9e3e
00000070: 8302 cdbd 600a c83e 7513 41bd e02f b6ba
-0.09004142 -0.14197211 0.15907966 0.055262405 0.058006145 1.1656857 0.14301394 0.2323101
0.08509035 -0.17180601 0.044201754 -0.075884946 0.10150912 -0.024857257 0.10872869 0.06992573
0.07095177 1.0456712 0.06237216 -0.09327706 0.022986166 -0.044048034 -0.056742 -0.040025115
-0.030371778 0.65709484 0.02054483 0.3089978 -0.10010245 0.39070415 -0.047137696 -0.0013899766

encoder.4.weight f4 [64, 32, 7, 7]
00000000: 2239 42bd cfdd f63b 7130 f0bb a876 f6bc
00000010: 8ea9 00bd eeac 6ebd 3d09 b5bc 533f e4bc
00000020: 82bd f8bc 55ce 11bc d205 f3bc 8ece 45bd
00000030: a978 24bd fb68 32bd 8c29 30bd ffcc e2bc
00000040: 1900 f0bc e10b 1bbc 5194 14bd 1815 12bc
00000050: e41d 70bd 02d4 f0bc a52c 46bb 80c0 21bc
00000060: bf47 d1bb d098 bdbc 982d 50bd e627 38bd
00000070: 44d4 683b b7c5 79bc d6db 613b 45ae a8bc
00000080: 4a4f 55bc 8681 b3bc c1a6 b8bc 6122 a3bc
00000090: 51f6 a73c ab56 d4bb 680e af3b 830a 293b
000000a0: d4fa 1e3c 1d7e 2d3c 2750 e2bc dd33 013d
000000b0: 11f9 afbb e19b 0a3c 54b6 593c 804a a0ba
000000c0: ba02 943c 9ee3 983d 7371 e33d e5c1 c33d
000000d0: 6686 043e 16f5 c73d a4d3 813d f19a 113e
000000e0: a6cf 903d 06f9 cb3d 294f d03d 4989 8d3d
000000f0: e09d 523d ac17 123d f70d a13d 356d 4f3d
00000100: 269e 0c3d 7054 4f3d 6daa 8f3d 0397 a03c
00000110: 5b1c a6bc 9887 3d3d 15b3 103c be9f b8bb
00000120: 1194 283a 307e 65bc 786c 21bc 00f5 efbc
00000130: 6df4 1c3c fd6b 2d3d 1913 063b a0ee aa3c
00000140: f271 9ebb 5a91 72bb aa24 4dbc d80c dd3b
00000150: 6200 363c 4ef7 c2bc 027d df39 0fb3 85bb
00000160: bdb9 5ebc b1c6 3ebd cbe8 9a3c a9e9 0abd
00000170: ab21 9dbc 2473 8e3b 85ba 03bc 4d20 31bd
00000180: a031 bebc 4bb6 d53c 33de 50ba 2297 063d
00000190: 6fa1 8e3c 9d70 673c 6543 353d 6de1 903d
000001a0: f8c1 453d 88c7 73bc 85ec b8bc 646d 193c
000001b0: b834 4bbb d0ce da3a 1f9d 84bc 4df2 393d
000001c0: dae6 e4bc 5e3d 2abd 37c5 6bbd 5cd4 8bbc
000001d0: 1caa 15bd 07e8 213c 4f5d 2e3d 974f 31bd
000001e0: ef85 86bd c660 0abd 772d 28bd e1fa 4ebd
000001f0: d635 0fbc 8acd f43a 4f30 e63b 30e6 b33c
00000200: 102c 503c dd06 bd3c 5eae a3bc d52a 12bd
00000210: bde6 143d 7872 bc3c e048 4b3d 6c50 1e3c
00000220: f5da d73b 5d74 d23c b29b e2bc bb8e 0c3d
00000230: 5093 4f3c 1a94 0dbc c9ac 4abc 4081 83bc
00000240: 2849 32bd 6809 c7bc 3fc4 1ebc 9cf3 713c
00000250: ba9b 3cbc 553a 863c 85db 5bbc 05c4 78bc
00000260: d0fc b139 29df 8c3c 0215 26bc f1e2 7cbc
00000270: 3192 103c dca5 0ebb 57fd 6f3c 9580 c6bc
00000280: a413 033c 4f59 abbc 1c4a 0abd d62c 0fb9
00000290: 1848 653a 68e2 873b 11ea 0dbd 5bdb efba
000002a0: 8d61 33bc e865 7e3c 0afd f93c ead4 af3b
000002b0: b202 993b e14d 9fbc 90cd 90bc bbec 993c
000002c0: b085 0bbc 2f73 adba 0859 ba3a 5c0c 3b3c
000002d0: 5c66 5b3c e8db e2bb 6554 d9ba d0e6 bf3c
000002e0: 8e6f 3dbb afee 943c f4de 893c 4d95 78bc
000002f0: 4e0d 75bc a827 8e3b e692 ccbc c49b a43c
00000300: 0c24 cfbb 8e77 373b f339 c4bc 6330 11bd
00000310: 3b30 74bc aaf5 ce3b 7a35 54bc 8d0d 10bc
00000320: c0cb 133c 6667 51bb 525f ddbc 1993 9f3c
00000330: 1fdf 8bbc 4b8d 64bc f609 a7bc ae61 103c
00000340: 76bd 0c3d af4b 77bc cc1e a5bc 3faa b9bc
00000350: 3640 74bc e590 03bc 7493 f03c 32d1 743c
00000360: b5f9 823c 0a69 10bd f104 59bd 5e09 1dbb
00000370: d522 dc3b 44f3 853b 1853 893c 9848 3abb
00000380: 0749 14bc 725d ddbb 8c7b 9ebc 4e2b b33c
00000390: 5a13 d93c 3a1e 0b3d cc42 5d3c f2d7 163d
000003a0: 726e 1dbc 5b59 2dbc 5d9f 173d 7040 f03b
000003b0: 3e3f 4b3c 423a 383c bbb6 493d 47a3 2b3b
000003c0: f68c 943b 7d92 acba 45cb c6ba a5ba 0a3d
000003d0: d4cf 043d ba9f 8dbc b1a1 4dbd c467 08bd
000003e0: 3819 36bb 5132 22bd 6a13 69bd 3c95 76bd
000003f0: d42e 58bd 55e0 2dbc 132f 02bd f3d1 fcbb
-0.047417767 0.007533766 -0.0073299934 -0.030085877 -0.0314117 -0.058270387 -0.022099132 -0.027862227
-0.030363802 -0.008899291 -0.029665861 -0.04829269 -0.040154133 -0.04355715 -0.043008372 -0.02768564
-0.029296922 -0.009463281 -0.036274258 -0.008916162 -0.058622256 -0.029397968 -0.0030239013 -0.009872556
-0.0063867266 -0.023144156 -0.05082473 -0.044959925 0.003552691 -0.015244893 0.0034463308 -0.02059091
-0.013019392 -0.021912348 -0.022540452 -0.019913854 0.020503195 -0.006480058 0.0053422935 0.002579362
0.009703357 0.01058915 -0.02762611 0.0315436 -0.005370267 0.008460016 0.013288099 -0.0012229234
0.018067706 0.074652895 0.11105623 0.09558467 0.12941894 0.09763543 0.06339195 0.14219262
0.07070856 0.09959607 0.101713486 0.06910951 0.051420093 0.035667107 0.07863992 0.050641257
0.03433051 0.050617635 0.07014928 0.019603258 -0.020277193 0.04627189 0.008831759 -0.005634277
0.0006430755 -0.014007136 -0.009852521 -0.02929163 0.00957976 0.042339314 0.002045816 0.020865738
-0.0048353607 -0.0037012906 -0.012520948 0.006745916 0.01110849 -0.023799565 0.00042627013 -0.0040801833
-0.013594088 -0.046576206 0.018909832 -0.033914242 -0.019181093 0.004347222 -0.008040075 -0.043243695
-0.023217022 0.0260879 -0.00079676806 0.032858975 0.017410962 0.01412597 0.044253726 0.070742466
0.048280686 -0.014879115 -0.022573719 0.00936446 -0.0031006765 0.0016693715 -0.016188202 0.04539709
-0.02794211 -0.04156243 -0.057561126 -0.017069034 -0.036539182 0.00988198 0.042569455 -0.043288793
-0.065685146 -0.033783697 -0.041058984 -0.050532226 -0.008740863 0.0018676978 0.007024802 0.021960348
0.012705818 0.023074562 -0.019980606 -0.03568538 0.03635286 0.023003802 0.049630046 0.009662729
0.006587381 0.025690252 -0.027662132 0.034315806 0.012669399 -0.008641267 -0.012370297 -0.016052842
-0.0435268 -0.024296477 -0.009690343 0.014767554 -0.0115117375 0.016385237 -0.013419037 -0.015183453
0.0003394843 0.017196255 -0.010136845 -0.015434966 0.008823917 -0.002176634 0.014647803 -0.024231235
0.008000288 -0.02091661 -0.033762082 -0.00013654245 0.00087463995 0.004146863 -0.03464705 -0.0018299626
-0.010948551 0.015527226 0.030516166 0.0053659575 0.0046695108 -0.019446315 -0.017676145 0.01878964
-0.00851576 -0.001323318 0.0014217207 0.011416521 0.013391104 -0.0069231875 -0.0016580938 0.02342549
-0.0028905603 0.01818022 0.016829945 -0.015172315 -0.014956785 0.0043382235 -0.02497239 0.020093806
-0.006321436 0.0027994844 -0.023953414 -0.035446536 -0.014904077 0.0063159065 -0.012952203 -0.008792293
0.009020746 -0.00319525 -0.027022991 0.019479321 -0.017074166 -0.0139497025 -0.020390492 0.008812351
0.03436037 -0.015093728 -0.020156287 -0.022664187 -0.014907887 -0.008030151 0.029367186 0.014942454
0.01598821 -0.035256423 -0.052983228 -0.0023961882 0.0067180195 0.0040878374 0.016763255 -0.0028424617
-0.009050614 -0.0067555243 -0.019346021 0.021871235 0.026498485 0.033964373 0.013504695 0.036827035
-0.009608852 -0.010580386 0.037017215 0.0073319003 0.012405215 0.0112443585 0.04924653 0.002618985
0.0045334054 -0.0013166216 -0.001516678 0.033869404 0.032424763 -0.017288078 -0.05020303 -0.033302084
-0.0027786028 -0.039598767 -0.05690328 -0.060200915 -0.052779034 -0.010612567 -0.031783175 -0.0077154576

encoder.4.bias f4 [64]
00000000: 0029 313d 1851 f2be 0488 18be 2f63 463e
00000010: a230 083f 0134 87be 17ec 9c3e 2143 8ebe
00000020: 7a69 423d a67b c33e 7013 813e 614f f1be
00000030: ac3b 88bd 85bc 8d3d 0df6 093e c616 243e
00000040: 659a 0a3d c9b7 ec3e d071 6cbc cb19 a63e
00000050: 5f1a 863e a835 91be 5695 653d c2a2 64be
00000060: 6731 21bd b265 813e c8a3 95bd 6c85 3f3e
00000070: bb76 4c3e e4be b4be 9216 b33e e8e7 23be
00000080: 84b0 423d 8c06 563e 007c 01bf d311 40bd
00000090: da35 d93e 9482 933e 67c7 92be ff27 b73d
000000a0: 0314 18be 72ab b33e ca92 8dbe ae9b f53d
000000b0: 929e a2be c5b1 173e a3dc 3abe a0a8 d23e
000000c0: 6e58 243e 49b7 8bbe 1906 213e 3eec 31be
000000d0: 23f8 abbe 2833 a63e 5e01 33be f08c 873c
000000e0: 0feb 833e 8ce5 e53e e756 76bd c95d 213e
000000f0: 64bd c13e a387 513e 5d47 86be 6bc1 75be
0.04325199 -0.47327495 -0.14895636 0.19373773 0.5319921 -0.26406863 0.30648872 -0.2778559
0.04746387 0.38180274 0.25210142 -0.47130874 -0.066520065 0.06920723 0.13472767 0.16024312
0.03383865 0.46233967 -0.014431432 0.32441553 0.26191995 -0.2836125 0.05605062 -0.22327712
-0.039353754 0.252729 -0.073066294 0.1870324 0.19967167 -0.35301888 0.34978157 -0.16006434
0.04753162 0.20900935 -0.50579834 -0.046892 0.42423898 0.2881056 -0.28667757 0.089431755
-0.14851384 0.3509174 -0.27651054 0.11992584 -0.31761605 0.14813907 -0.18248229 0.41144276
0.16049358 -0.27288273 0.15724982 -0.17375275 -0.3358775 0.32460904 -0.1748099 0.016546696
0.25765273 0.44901693 -0.06014147 0.15758432 0.37839806 0.20461898 -0.2622632 -0.23999564

decoder.0.weight f4 [64, 32, 7, 7]
00000000: 7109 a03a 690d ce3b ec9b 993b 8eca 2dbd
00000010: 4fd4 30bd a993 11bd b102 1dbb 93f6 c53c
00000020: 29e4 783c 4318 7d3b 9ade 26bd 319e 02bc
00000030: 422b 19bd bc8c 213c d9d9 9dbc 8079 07bc
00000040: 3e1b 04bc 1868 5dbb 1283 06bc 202e fbbc
00000050: 5e1d 633c 459c b7bc a2d7 cd3c 9e31 2c3d
00000060: a8e5 4d3c fbfa 0839 de86 e8bc 9697 d83b
00000070: 69ef d4bc 2501 3c3c bd9f 823c b3c7 073d
00000080: 558b 61bc 3185 6d3c eef9 1539 0fce 1bbd
00000090: 3d57 fb3a b59d f93c 91f6 273d bfdb 1a3d
000000a0: 0160 6e3c 6342 ebbb c018 4dbb 5fec b6bb
000000b0: e9fa f63c 18ff b33d 178c 9e3d b6a8 7e3d
000000c0: 3a71 63bc 35c8 ae3d 264a b83d 016d 493d
000000d0: 60aa 683c a259 81bc 36ec bf3c 31b3 e23c
000000e0: 210f bd3d b049 c83d 42c4 2e3d d790 b7bb
000000f0: 9a16 0bbb 5bbc 723b a12d c53c 975c 4a3d
00000100: 3cce b83c 8116 533c 40e9 bcbc a7b8 7cbd
00000110: 127d 2ebd c045 54bc 3fa9 203d 4770 933c
00000120: c172 003b 96f0 32bd d8b4 85bd f7c7 55bd
00000130: 0f5f fd3a 5381 9b3d 9944 7c3b ddf8 ebbb
00000140: 394b 4abd 2716 0cbd 3f03 f2bc 809a 8d3c
00000150: a558 173d 96b4 44bd 233f 60bd ae2e dabc
00000160: 588a 1ebd 7fa8 92bd 5f09 843b b909 763c
00000170: c61a 35bd 3be4 2cbd 41d7 eeba 91e9 e5bc
00000180: 6721 3dbd 238e 653c 0012 a4bd 001c 2cbd
00000190: e1a3 acbc 94f4 67bd 90ae 7dbd 6606 38bd
000001a0: c11d 81bd adb5 2abd ed6c 1abd c803 11bd
000001b0: 98c2 b1bc ab6d 8cbc a2b2 f9bc 3866 8fbc
000001c0: 0019 5ebd da3f bfbc a555 a9bc c3ff febc
000001d0: 5aca 90bc 6d2f 0dbc c097 a1bc bd73 43bd
000001e0: 04bc 65bd 4bb6 deba 90cf 983c f66a 82bc
000001f0: f2d7 21bd 20f7 9dbc 4791 30bd e673 7ebc
00000200: 72e0 31ba aa24 083c b64a ecbb 2151 a0bc
00000210: 1176 25bd 1a32 d8bc 05b7 57bd 4f5f b03b
00000220: 7d6f 8abc 9edc cdbc 3f13 debc 0bac 00bd
00000230: 2571 86bd 343e 87bd 2ce4 03bd fdc5 88bd
00000240: a6db 69bd d944 50bd 92d1 5bbd ee0d 173e
00000250: df83 a53d c8cc 1c3d 33c3 353b f7f1 0dbb
00000260: db4f af3b 3657 b43c 57bb 803d 8ffc 6c3c
00000270: 5fcb fd3b fb05 c9bc 81e8 f13c de22 6a3d
00000280: d728 1a3d bb07 663d 3949 813d edb2 bbbc
00000290: 944d 1fbc 4b39 723d 539f 9d3d 6b90 aa3d
000002a0: 4f43 823d dbcf 623d 76c4 d63c f3c5 93bb
000002b0: df21 293d c368 633d 994a a03d a91c be3d
000002c0: 0b9b 943d 8048 3b3d 580b a63c d0d1 8b3d
000002d0: ac41 6f3d 7b29 723d 596f 1d3c 24e2 1d3d
000002e0: 2a4c 423c bd11 ecbb 84de d23c c699 8f3b
000002f0: eb9e 0e3c 9e51 fcbb 856b afbb 5246 5abc
00000300: f61f 2ebd 05e6 0cbd 0e68 d8bc 7717 2fbc
00000310: 42e7 1b3d 2d84 abbc 18b8 d4bc 05bb c4bc
00000320: 6b17 65bc 12cd 9bbc 602e 15bc cb96 1d3d
00000330: 9fdd a1bb cf5c 9fbc b887 863c d97b 6abc
00000340: e859 e8bb 7374 18bd 0ae0 653d a7a8 903c
00000350: a851 f6bc 6830 24bd 1bae 16bc 6919 b7bc
00000360: eec2 29bd 1d1f 383d 750a 5cbc 25d3 38bc
00000370: 3a3f 77bc 7094 633c 807b 05bd 7dfa e3bc
00000380: 32bf 793d 97f3 4bbc be12 1fbd 968c 923b
00000390: 963b 47bb 1005 34bd fed6 99bd 07d9 da3c
000003a0: 7682 4039 8585 07bd 2695 dabc 0add ffbb
000003b0: 3b1c 3fbd 578d 4cbd 001d 833d 648e 6d3d
000003c0: 157a 953c 774d 86bc 6fca 9dbb 37a0 52bd
000003d0: 6ef5 4bbd 8ae1 493d 9490 373d 1678 a03d
000003e0: b362 7b3d 14fc 843d 3e6f 603d c738 3b3d
000003f0: b8f5 a73d aab8 673d 940a 553d 9e7c 963d
0.0012209845 0.0062882197 0.004687777 -0.0424295 -0.043171223 -0.03554121 -0.0023957903 0.024165427
0.015191116 0.0038619197 -0.040739633 -0.007972286 -0.03739477 0.009860214 -0.019268917 -0.008268714
-0.008063136 -0.0033783969 -0.008209961 -0.030661643 0.013861982 -0.022413382 0.025127236 0.042039506
0.012566961 0.00013063468 -0.028384622 0.0066098673 -0.025993066 0.011474882 0.01594531 0.033149432
-0.0137661295 0.014497087 0.00014302853 -0.03803831 0.0019175779 0.030470708 0.04100663 0.037807222
0.014549256 -0.007179545 -0.003129527 -0.005582377 0.03014894 0.0878889 0.07741564 0.062172614
-0.013881976 0.0853428 0.08998518 0.04917622 0.014200777 -0.01578981 0.023428064 0.027673336
0.09231401 0.0977968 0.042667635 -0.005601983 -0.0021223188 0.0037038538 0.02406961 0.049404707
0.022559278 0.012883783 -0.023060441 -0.061699536 -0.042599745 -0.012956083 0.039223906 0.017997874
0.0019599649 -0.043686472 -0.06528634 -0.052192654 0.0019330698 0.07593026 0.0038493036 -0.0072012977
-0.049388144 -0.034200814 -0.029542563 0.017285585 0.036949772 -0.048023783 -0.054747712 -0.026633587
-0.038706154 -0.07161044 0.0040294374 0.0150169665 -0.044214986 -0.042209845 -0.001822211 -0.028065475
-0.046174433 0.014010939 -0.08011246 -0.04201889 -0.021074237 -0.056629732 -0.061934054 -0.044927977
-0.06304503 -0.041677166 -0.037701536 -0.035403997 -0.021699235 -0.017142138 -0.030480687 -0.017504796
-0.05422306 -0.023345876 -0.020670721 -0.031127816 -0.017674614 -0.008617264 -0.01972568 -0.0477178
-0.05608751 -0.0016991583 0.018653661 -0.015920144 -0.039512582 -0.019282877 -0.043107297 -0.015530562
-0.0006785459 0.008309523 -0.0072110547 -0.019569935 -0.0403958 -0.026391078 -0.052664775 0.0053824554
-0.016898865 -0.025129613 -0.027108787 -0.031414073 -0.06564549 -0.06603661 -0.032200024 -0.06678388
-0.05709424 -0.05084691 -0.05366666 0.14751408 0.08081793 0.038281232 0.0027734756 -0.0021659115
0.0053500957 0.022014242 0.06285732 0.014464512 0.007745191 -0.024538985 0.029529812 0.05716216
0.037636604 0.056159716 0.06312794 -0.022912467 -0.009723086 0.05913667 0.07696404 0.08328327
0.06360494 0.055374008 0.026216727 -0.0045096814 0.041292068 0.05551983 0.078267284 0.0928281
0.072561346 0.04572344 0.020269081 0.06827128 0.05841224 0.05912159 0.009609067 0.038545743
0.011858979 -0.007204263 0.02574087 0.004382345 0.008704881 -0.007700159 -0.0053533935 -0.01332243
-0.04251095 -0.03439905 -0.026416805 -0.010686747 0.03806234 -0.02093705 -0.025966689 -0.02401496
-0.013982634 -0.019018684 -0.009105295 0.038473886 -0.0049397494 -0.019453434 0.016422138 -0.014311754
-0.007090796 -0.03722043 0.056121863 0.017658545 -0.030068234 -0.040085226 -0.009196783 -0.022350984
-0.041445665 0.044951547 -0.0134302275 -0.0112808095 -0.015090758 0.013890371 -0.032588482 -0.027829403
0.060973354 -0.012448213 -0.038836233 0.0044723256 -0.0030400506 -0.04395014 -0.0751171 0.026714815
0.00018359147 -0.03308632 -0.026682448 -0.0078083323 -0.046657782 -0.04993948 0.06402016 0.057997122
0.01824669 -0.01639436 -0.0048153917 -0.051422324 -0.049794607 0.049287356 0.044815615 0.078354046
0.061373424 0.064933926 0.05479359 0.045708444 0.08201164 0.056572594 0.05201204 0.073479876

decoder.0.bias f4 [32]
00000000: 7bf8 1d3f 8f05 963e c3ab b5bd 6d06 143f
00000010: 2609 003f 6d2d 02bf 2de9 623e 22c6 393d
00000020: f953 f53e 6dd3 20be 396f 2d3f db27 eb3e
00000030: 7bd1 ae3e 4a28 053e 0473 ed3d 3099 0abe
00000040: 6eae 693d 9361 05be c9a9 0a3f 393e 153f
00000050: 07a0 70be d995 ba3e 81b1 283f 0288 223f
00000060: 08cb 003f 457a 3d3e 8fa1 133e 6f32 e93e
00000070: 81be 123f 9c7a 81be af73 0f3f 5a1b b03e
0.61707276 0.29301116 -0.088706516 0.57822305 0.5001396 -0.50850564 0.22159262 0.04535497
0.4791563 -0.15705653 0.6774784 0.45928845 0.34144196 0.1300365 0.11594203 -0.13534999
0.057051115 -0.13025503 0.5416532 0.5829807 -0.23498546 0.3644245 0.6589585 0.6348878
0.503098 0.18503673 0.14417098 0.4554629 0.57321936 -0.25288856 0.56035894 0.34395868

decoder.2.weight f4 [32, 16, 3, 3]
00000000: 725d 10bd c96f 21bc ac58 10bd 3830 86bb
00000010: 9618 b53b 3a0d cd3b ee78 b53b 94b3 ca3c
00000020: 7c75 923d 7792 33bd e384 7f3d 5cfc d5bc
00000030: e20c 0cbe 457b 383b a484 6cbd 573f e63c
00000040: d8c2 cd3b acb0 083d 0bbd 55bd f04f 2ebd
00000050: c629 d23d b61a 183d e11d 2b3c 6157 5e3d
00000060: 18d4 87bc 811a 893d 6e65 623c c165 36bd
00000070: 68dd 8dbb 5f50 563d 2c71 3a3d 66e6 f33d
00000080: 625f 8a3d 33e7 923d 4cf0 ef3d 2b72 773d
00000090: 9a70 12bb a1df cf3d ab6c 6a3b 9fbb e83d
000000a0: 78bd 463e e421 bc3d fd5a 923d 4561 b03d
000000b0: f94c ea3d 4382 123d 0e82 1abc d1b9 dabc
000000c0: 18d1 823d 7d1e b23d d418 b83b bcd9 f63c
000000d0: b24e b73d c78d 043d 06de b53d a080 cb3c
000000e0: 9ca0 de3c b442 3bbd 2150 8d3d 5b70 813d
000000f0: 92de d6bc 7431 a53c c051 e9bb c2e5 50bd
00000100: 969a 3abd 4593 5e3d 21d0 c9bd 7a48 cebc
00000110: d2f5 28bd 7898 afbc b63c 053d 2d60 1cbc
00000120: d167 523d dc10 2bbd dcdd 83ba 3972 863d
00000130: 1910 4fbd 6d10 883d 999d 843d 1141 133e
00000140: 04f7 c13d 4fd1 37bd f0a0 ad3c 12cd c93d
00000150: 17c8 533d c34c e73c da50 c53b f69a 343d
00000160: 763c 9c3d de25 f7bc d2ea 78bd e05a bbbd
00000170: 054c f6bc 2b63 fabd a10e 6dbc 50f1 bc3d
00000180: f428 f23c c1ee 2b3c 9879 573d dc1d c23c
00000190: 33c9 a9ba 3896 963d c02d 68bd cc5a c33c
000001a0: f67c 413d 8d65 033d 33da 21bd 1ab2 6bbd
000001b0: fafe 3bbd ea45 5fbd c75d 20bd 5c7d 37bd
000001c0: 1bbd 49bd 89d9 a6bd c87b 9dbd cf0a 89bd
000001d0: 117e 1abd 1fcc 65bd 9cee ff3c 38d2 5d3d
000001e0: 76b4 78bd 588a 653d e160 063e 0a0f bbbd
000001f0: dc8b 53bd 3b3e 203e ed1f d53c 8e22 2f3d
00000200: 4472 32bd 3caf b63d 0207 c93d d489 11bc
00000210: 038d b03c 83d3 0d3d 825d 5a3d a4f3 673b
00000220: 3eae d63d 33e4 973d 62d7 813d 85e1 453e
00000230: b5d0 e23d 81fe 913d 282e cd3d f2a5 973c
00000240: abc4 7bbd 6a42 293d 8813 593d a01b ad3d
00000250: f081 c83d e86d e23c 38c7 b63d b6f6 873d
00000260: cc9b ab3c 59d7 85bd d88e 84bd afb7 093d
00000270: a6de 713b a8fc 50bd ef20 2dbd 417a f23c
00000280: bf31 aabd b2cb e0bb d8fb dcbd b092 28be
00000290: 77b4 cbbd 4177 2fbe c39e 0abe d16e cdbd
000002a0: e872 c0bb 79c5 6bbd 5c74 a1bd 914e d8bb
000002b0: 87c2 8cbc c6f0 9e3b db19 49bd ef77 78bc
000002c0: 2536 4a3d 1dd3 52bd b72b 493d 845a e63a
000002d0: 860a 80bd 998c 51bd 22c7 b1bc 77b9 13be
000002e0: 3de2 25be 6423 84bd 9ce0 bebc 61f8 00be
000002f0: 2e18 c4bd 7a79 2abc fffe ec3c 1635 583c
00000300: d994 a13d f421 dc3d 2915 563d e497 ab3d
00000310: d122 ae3d d663 003d 240b 3bbc ec1c 82bc
00000320: 103f b1bc f8f8 00bd d2c8 4ebe 4f2e 38be
00000330: 6018 713c 92b8 23bd 9688 07be 830b 7d3d
00000340: f056 1dbc 8a55 1ebb e1dc 1fbd b030 f83c
00000350: 71a6 cabd 8646 6f3d b727 073d d9ba 68bd
00000360: 87c2 c03b dde3 cabc bc8f 2f3c b8e9 75bd
00000370: 82b9 05be 3e4c db3c 406d b6bc 387a e4bc
00000380: e483 b13b 510a e6bd c57d 0abd ee08 80bd
00000390: 1a7e bfbd 6945 20be ec69 19be 4dd3 eabc
000003a0: 4a2f 48bd f6e8 4fbd 3481 143d bd87 03bd
000003b0: c6f1 473d 8108 2e3c f6e2 093d 8366 f93c
000003c0: 6d31 04bc ef5e cf3d 899f c33d 98ff d3bd
000003d0: b109 b6bc 8b2c 873c 7ad1 59bd 2b8a 22be
000003e0: 6013 c1bd 1e10 afbd 71cd 19bd a8c4 64bd
000003f0: 4eb9 c93c 67fb 363d c9b5 2c3d 99ca c1bc
-0.035245366 -0.009853312 -0.035240814 -0.0040951036 0.0055266125 0.0062576802 0.0055380976 0.024743833
0.071513146 -0.04384085 0.06238259 -0.02612131 -0.1367679 0.0028149646 -0.057743683 0.028106375
0.0062793307 0.033371612 -0.05218224 -0.042556703 0.10261874 0.03713485 0.010444135 0.05428255
-0.016580626 0.06694508 0.013818128 -0.044530634 -0.004329372 0.05232274 0.045518085 0.119091794
0.06756474 0.07173004 0.11715755 0.060411613 -0.0022344948 0.10150076 0.0035770338 0.11363911
0.19408214 0.091861516 0.07146261 0.08612303 0.114404626 0.03576876 -0.0094304215 -0.026699932
0.06387538 0.086972214 0.005618194 0.03013312 0.08950557 0.032361772 0.08880238 0.024841607
0.027176194 -0.04571791 0.06900049 0.06320258 -0.026229177 0.020165183 -0.007120341 -0.051000364
-0.04555758 0.054339666 -0.098541506 -0.025181044 -0.041250058 -0.021435007 0.0325286 -0.0095444145
0.05136854 -0.041764125 -0.0010060626 0.06564755 -0.05055246 0.06643758 0.06475372 0.1438029
0.094709426 -0.044877347 0.021194905 0.09853567 0.051704492 0.028234845 0.006021601 0.044093095
0.076287195 -0.030169424 -0.060770817 -0.091481924 -0.030065546 -0.12225946 -0.01446882 0.09225714
0.029560544 0.010493935 0.052606195 0.023695879 -0.0012953639 0.07352871 -0.056684256 0.023847006
0.047238313 0.03207927 -0.03951473 -0.057542898 -0.04589746 -0.054510035 -0.039151933 -0.044797286
-0.04925261 -0.0814696 -0.07689625 -0.06691515 -0.037717883 -0.05610287 0.031241708 0.05415556
-0.060718976 0.056040138 0.13122894 -0.09133728 -0.051647052 0.15648739 0.0260162 0.042757563
-0.043566003 0.08920142 0.0981579 -0.008882958 0.021551615 0.03462554 0.053311832 0.0035393024
0.10482453 0.074165724 0.06339909 0.1932431 0.11074964 0.07128621 0.10018569 0.018511746
-0.061466854 0.041323103 0.052997142 0.08452535 0.097904086 0.027640298 0.08924717 0.06638853
0.020948313 -0.06535215 -0.06472558 0.03362244 0.003690639 -0.0510222 -0.042267736 0.02959931
-0.083102696 -0.00686022 -0.10790223 -0.16462207 -0.0994653 -0.17135336 -0.13537125 -0.10030902
-0.005873073 -0.05756137 -0.07883522 -0.0066011627 -0.017182602 0.00485048 -0.049096923 -0.015165313
0.049368042 -0.051470865 0.049113955 0.0017574583 -0.06252007 -0.051159475 -0.0217014 -0.14426218
-0.16199584 -0.06452063 -0.023300461 -0.12594749 -0.095749244 -0.010404939 0.028930185 0.01319625
0.078897186 0.107486635 0.052266274 0.0837858 0.085027345 0.03134521 -0.01141623 -0.015882932
-0.021636516 -0.031487435 -0.20193794 -0.17986415 0.014715284 -0.03997094 -0.13235697 0.061778557
-0.009603247 -0.0024159872 -0.039029006 0.030296654 -0.098950274 0.058416866 0.03299686 -0.056818817
0.0058825645 -0.024766857 0.010715421 -0.060037345 -0.13059047 0.026769754 -0.022268891 -0.02789031
0.005417334 -0.112324364 -0.03381135 -0.06251703 -0.09350224 -0.15651478 -0.14981812 -0.02866521
-0.048873223 -0.05075928 0.03625603 -0.032111872 0.048814557 0.010622145 0.033663712 0.03044439
-0.008068425 0.10125529 0.09551913 -0.10351485 -0.022221418 0.016500732 -0.053178288 -0.1587302
-0.094275236 -0.08547996 -0.03754944 -0.05585161 0.024624493 0.04467335 0.04216555 -0.023656176

decoder.2.bias f4 [16]
00000000: f42e ac3e 5dfc c03e f748 483f 51cb cf3e
00000010: 40ab 323f 780c d23e 019b b23e 9620 aa3e
00000020: 34bb 0b3f 490e 683f b8ad 043f 9409 2f3f
00000030: 11ef 723e aac1 003f 2e32 6a3f d0a0 103f
0.33629572 0.37692538 0.78236336 0.40584806 0.69792557 0.41025138 0.34883884 0.33227986
0.54582524 0.906468 0.51827574 0.6837399 0.23724009 0.5029551 0.9148282 0.5649538

decoder.4.weight f4 [16, 2, 3, 3]
00000000: 1aa8 a83c 8c91 5cbd 7ee5 183b 4d47 8bbd
00000010: 8d1e 1fbe 591d eabd d311 3ebe 5e1a d8bd
00000020: e93c a13d 43ae f63d 0b01 093e 1889 02be
00000030: d01a 683e bd5b 153e 4950 403e 88d7 5a3e
00000040: bbed 5a3e 0606 05bd aaa7 233d edb7 7cbd
00000050: 034a 153e 1f9a 75bd fa22 58be 66e9 61ba
00000060: 8a23 1e3e b83d 95bd bf46 d33d aa11 da3d
00000070: 2a90 4abe d1a7 a93d 9ead 043d 5773 89be
00000080: 1c62 28be f9ef b73d 5df4 e9bd 30c7 0b3e
00000090: 60c8 b73b 9a45 d2bc 4880 a13d 45a0 8c3d
000000a0: a7fb 93bb 3d9d c33d b136 c53a 8caf 963b
000000b0: 5814 2e3e 1fa5 a6bd 0837 47bd 6324 703c
000000c0: 478d 80bd 160b 6fbe 719e cbbd 9529 87bd
000000d0: 8581 4cbe f297 f73d cd2a 0dbd 8574 323d
000000e0: 576f 3fbd d553 683e 261d 6c3e 6e8a 0a3e
000000f0: 1fc8 623d 8a26 ae3c 5810 4e3d 73c1 ca3d
00000100: dc4e 993d 075e 263e 25d1 03be d0ac 053e
00000110: d42b 9dbd ef45 2a3e 7747 f83d 23df 2c3d
00000120: ba3d 3f3c d4c5 133e e438 473e 5bf9 123e
00000130: 331a 9c3e 5529 253e ae6a 243e d041 313e
00000140: e564 72bd 39eb 35bd 7d2e 813d 9269 d9bc
00000150: 56bd d43c c8ec 48bc e0b2 89bd a58a 3d3c
00000160: 5df8 ebbd 3931 18bb 1f44 05be c189 a3bd
00000170: 40ea 853a af4c da3d f096 33bd e86b 06be
00000180: cc86 533e 44c0 7f3d 78a5 16be 404f 083e
00000190: c44c 6d3e 8676 333e 7b7f c13d 3390 b83e
000001a0: 9edd a53d 9036 973d 515c d8bc e58b 95bd
000001b0: a890 b73d 5dc6 e13d 3da2 4b3e c0dc 0a3e
000001c0: b563 373e e174 573e 2c82 7b3d 45ef ba3d
000001d0: 924d 563e a2b7 52be 73df 3ebe 8b57 76be
000001e0: 4a1a 2ebe a9fd 40be 1a88 87be 6746 bebd
000001f0: 2c7c 09be cba8 80be f373 debc 7620 53be
00000200: 19b3 0cbe 50f9 30be 934e babe 0620 60be
00000210: f7cc 09be e547 6abe 429a 20be c2f9 073d
00000220: 341b a73d 146c 8a3d 587f c53d 415c ea3d
00000230: f689 cc3d 7714 9c3d fe9e da3d 3ee4 fa3d
00000240: 0995 1c3e 4c06 913e 566b 133e b561 5f3e
00000250: a4cb ea3e 397d 893e 3d40 8f3e 4230 0c3f
00000260: 0193 b43e 6512 673d 06cb 5c3e 9077 343c
00000270: 7e2f 093e 33a9 7a3e efac cd3d 9ec1 493e
00000280: c74f d13e d9d7 273e 425c 043d 8c20 523c
00000290: 8f85 c5bd 96d7 c8bd f546 233d 7961 9bbd
000002a0: d193 b93b fd07 403d b06b c8bb d421 7fbc
000002b0: f7ef 2ebc fb20 40bd da39 12be 9c2c 14be
000002c0: c5ee 6bbe 3f58 c3bd 6a1f ebbd a88d 77be
000002d0: cdcf a83b c25a 24be f8bf 20be 5cfd 7cbd
000002e0: 914d 82be 11c8 89be be50 bebd ac14 5dbe
000002f0: 0e8d 65be 05dd 483d 695f 673e 45c0 6b3e
00000300: 316a eb3d a661 ea3e 84d2 ca3e a522 023e
00000310: ab9e f63e 8ff1 d03e acd8 a1bd 607e b3bb
00000320: 2d5e f7bd 39af 07bd d58a 1f3d 5495 e43c
00000330: 0f80 40bd 6bde a33c 2754 16be 6aa7 983b
00000340: bb5c b6bd e56f 18be a3d7 a3bc 80dd a5be
00000350: b58c 4cbe 5172 2fbe 7562 24be 78e6 73be
00000360: 6a8d 86bd f138 18be b415 cfbd 1f2e 20be
00000370: 15f3 9dbe 3d4b 34be 9a3a b8bd e83c 2fbe
00000380: ca83 b2bd 942f 83bd bdc3 24bd bb2f b53b
00000390: 75f0 08bd f2dd 183d 7911 93bc 7a29 90bd
000003a0: b1b5 adbb 5bdd aa3c bd08 163d 7918 f13d
000003b0: 1598 b33d a890 623e dbb6 733e 1443 bb3e
000003c0: 1f11 983d 9c0e 163e e50c 413e 6e2e 083e
000003d0: b468 ad3d 2649 5e3e c704 783e 41fe b63e
000003e0: 2107 103f ffe5 133e ba7e 393e 1888 a23e
000003f0: 3b06 c33d b954 c53d efc6 cbbd 1bbb 243d
0.02058797 -0.05384974 0.0023330147 -0.06800709 -0.15538998 -0.11431379 -0.18561487 -0.10551904
0.07872946 0.120449565 0.13379304 -0.1274761 0.22666478 0.14585777 0.18780626 0.21371281
0.2137975 -0.032476448 0.03995482 -0.061698843 0.14579014 -0.059961434 -0.21107092 -0.0008617848
0.15443245 -0.072871625 0.10316228 0.106479004 -0.19781557 0.082839616 0.032392137 -0.2684581
-0.16443676 0.08981318 -0.11423562 0.13650203 0.0056086034 -0.025667954 0.07885796 0.068665065
-0.0045160833 0.09551475 0.0015046207 0.0045985635 0.16999948 -0.08136963 -0.048636466 0.014657113
-0.062769465 -0.23344073 -0.0994233 -0.06599728 -0.19971283 0.12089528 -0.034464646 0.043568153
-0.04673704 0.2268823 0.23057994 0.13529369 0.05536663 0.021258611 0.050308555 0.09900179
0.07485744 0.16246806 -0.12872751 0.13054204 -0.07674375 0.1662824 0.12123006 0.042204987
0.011672432 0.14430934 0.19455296 0.14352934 0.30488738 0.16129048 0.1605632 0.17310262
-0.05917825 -0.04441378 0.06307695 -0.026539598 0.025969189 -0.012263484 -0.06723571 0.0115687
-0.11521981 -0.0023222698 -0.13014267 -0.07985259 0.0010216907 0.106591575 -0.043845117 -0.131271
0.2065689 0.06243922 -0.14711559 0.13311481 0.23173815 0.17525682 0.09448143 0.36047515
0.08098911 0.07383454 -0.026411207 -0.073020734 0.08963138 0.11024163 0.19886108 0.13560772
0.17909129 0.2104068 0.06140344 0.09127668 0.20928028 -0.20577863 -0.18639927 -0.24056832
-0.17002216 -0.18846764 -0.26471025 -0.09290772 -0.13426274 -0.2512878 -0.027154898 -0.20617852
-0.13740195 -0.17282605 -0.36388072 -0.21887216 -0.13457094 -0.22878988 -0.15683845 0.033197172
0.081594855 0.067588955 0.096434295 0.11443377 0.099872515 0.07621091 0.106748566 0.12250565
0.15291227 0.28325117 0.14396414 0.21814616 0.4585849 0.2685335 0.27978697 0.54761136
0.35268405 0.056414027 0.21561822 0.011014834 0.13397023 0.24478607 0.1004275 0.19702765
0.40881178 0.16390933 0.032314546 0.012825143 -0.09644615 -0.09806745 0.03986259 -0.07586951
0.005663373 0.04688262 -0.006116353 -0.01557203 -0.010677329 -0.046906453 -0.14279881 -0.14470142
-0.23040302 -0.09538316 -0.11480601 -0.24175131 0.005151725 -0.16050246 -0.1569823 -0.06176506
-0.25449803 -0.2691045 -0.09292744 -0.21589917 -0.2241709 0.049038906 0.2259499 0.23022564
0.11494864 0.45777625 0.39613736 0.12708528 0.4816793 0.40809295 -0.07902655 -0.0054777116
-0.120785095 -0.03312609 0.03895076 0.027903236 -0.046997126 0.020003518 -0.14680539 0.004658629
-0.08904406 -0.14886434 -0.020000285 -0.32395554 -0.1997555 -0.17133452 -0.16053183 -0.23818386
-0.06569941 -0.14865471 -0.101115614 -0.15642594 -0.3084952 -0.17606826 -0.08995552 -0.17113078
-0.08716543 -0.06405559 -0.040225733 0.0055293716 -0.033432443 0.03732104 -0.017952668 -0.07039161
-0.0053012003 0.020857504 0.036629427 0.11772246 0.08769242 0.22125494 0.23800223 0.36574614
0.074251406 0.1465401 0.18852575 0.13298962 0.08467236 0.21707591 0.24220572 0.35740855
0.5626088 0.14443205 0.18114749 0.31744456 0.09522673 0.096353 -0.09950053 0.0402175

decoder.4.bias f4 [2]
00000000: 2e73 d63d 90c4 a73e
0.104711875 0.32767153
