Mini_GAN/discriminator.pt (torch_old, 288732 bytes, 7 tensors)

weight f4 [20, 3, 3, 3]
000000 32 00 3d be d1 3f 82 bc 33 fa 25 3e 7b 87 3d be
       -0.18457106 -0.01589957 0.16208725 -0.18508713
000010 1e f2 00 be e6 b1 1f 3e 83 c7 de bc f6 12 4b bd
       -0.1259236 0.15595207 -0.027194744 -0.04957863
000020 55 0b 1f be 94 db 2d be e1 c9 ad bd bc 8d 24 3e
       -0.15531667 -0.16978294 -0.08485771 0.16069692
000030 62 e5 97 3d 88 72 cf 3d b0 03 8f 3d 59 9c 35 be
       0.07416798 0.10129267 0.06983125 -0.17735423
000040 c0 64 cd bd 6c 4d 6e bd 08 f0 8b 3d 63 53 2e 3e
       -0.10028982 -0.058179304 0.06832892 0.17023997
000050 f2 1f aa 3d 40 2e 99 bd 89 f3 dd bd d2 93 41 be
       0.08306874 -0.074795246 -0.10837466 -0.18904045
000060 ec 12 30 bd 95 c7 3d 3d 71 3b a2 bd fc 96 eb bd
       -0.042986795 0.046332914 -0.07921494 -0.11503407
000070 f1 ff 40 be 34 01 33 3e 95 e5 2b be dc eb 39 3e
       -0.18847634 0.17480928 -0.16786797 0.1815638
000080 9d 73 97 3d 80 a9 2d 3e 96 8c bb bc 4a 88 06 be
       0.07395098 0.1695919 -0.022894185 -0.13137928
000090 9b 0c 03 bd 7a b7 32 3e 22 9a 04 3e c4 92 64 bd
       -0.031994443 0.17452803 0.12949422 -0.05580403
0000a0 f1 32 36 bb 6f af 3a 3d df 3b 32 3e 02 04 13 3e
       -0.002780136 0.045577463 0.17405652 0.14356998
0000b0 2c 58 0a be 6c b8 d9 bc 55 4f c6 bd f9 20 98 bd
       -0.13510197 -0.026577197 -0.096831 -0.07428164
0000c0 8f d6 94 bd 5b 7c 11 3e f2 45 bf bc eb 0a 0c 3d
       -0.07267486 0.14207594 -0.023348782 0.0341901
0000d0 52 10 ef 3c 44 48 9e bc 17 f2 3e 3e 34 88 aa 3d
       0.029182587 -0.019321568 0.18647037 0.0832676
0000e0 44 48 37 be 1a 36 bb bc 59 8a 2b be e1 5a aa 3d
       -0.17898661 -0.022852946 -0.16751994 0.08318115
0000f0 be a1 ce bd 91 08 2f 3e 27 2a 92 bb ed 84 10 bd
       -0.100894436 0.17093112 -0.0044605914 -0.035283018
000100 39 f0 02 3d 42 5c 8c 3d f2 02 3b be 3e ec f9 bc
       0.031967375 0.06853534 -0.18262842 -0.030508157
000110 60 1e 25 be c2 b0 10 be bd 90 90 bc a7 bf 43 bd
       -0.16124868 -0.14129928 -0.017647142 -0.047790196
000120 c0 db 11 be be 24 34 be b3 20 59 bd 02 9e 07 3e
       -0.14243984 -0.17592141 -0.0530097 0.13243869
000130 ec 1d cf bc f9 e1 bd bd f9 ec 0d 3e ef 19 ff 3c
       -0.025282823 -0.092716165 0.13859929 0.031140296
000140 18 7a 33 be 5d 58 32 be 8a e7 ec 3c b6 d3 05 bd
       -0.17527044 -0.1741652 0.028919 -0.032672606
000150 cc 9e 2c be 2d 22 13 be 98 56 33 be 8e 23 44 3e
       -0.16857451 -0.14368506 -0.17513502 0.19154188
000160 d9 fb c2 bd c1 e1 89 bc 49 1f d6 bc d1 7f 55 3d
       -0.095206924 -0.01683128 -0.026137965 0.05212385
000170 c8 a1 b6 3d 03 5d 76 bd da ec 17 be bb ee 21 3e
       0.08917576 -0.060147297 -0.14836445 0.15813725
000180 ef 7b bf bd f3 ad 46 3d 46 52 1e 3c a5 15 d7 3d
       -0.0934981 0.048505735 0.00966317 0.10502175
000190 be df 5b 3d 1a 41 9e bc bb f7 2a 3e a7 9e 97 bc
       0.053680174 -0.019318152 0.16696064 -0.018508269
0001a0 e7 83 03 3d 19 31 81 bd 42 b0 40 bd a8 3a 0b 3e
       0.032108214 -0.06308193 -0.047043093 0.13596594
0001b0 f1 e3 ea bd 0d 29 36 be d2 99 17 3e 11 bf bb 3d
       -0.114692576 -0.17789097 0.14804772 0.091673024
0001c0 c2 25 2a be 83 60 6e bb fc 3e 13 be df 29 13 be
       -0.16615966 -0.0036373443 -0.14379495 -0.14371441
0001d0 dc e9 76 bc 02 88 10 be b1 99 a4 3d 47 e1 8a 3d
       -0.015070405 -0.14114383 0.08037127 0.067812495
0001e0 ac 79 2f 3e c0 7e 97 3d 9e 80 fc 3d ae 77 86 3d
       0.17136258 0.073972225 0.12329219 0.06565796
0001f0 e1 f8 06 bd c5 41 cb 3d cf 9f 21 be a7 e2 3c be
       -0.032952193 0.09924654 -0.15783618 -0.18445836
000200 9f b2 2f 3e b6 d6 29 be 88 04 9e 3d d5 f4 15 3d
       0.17157982 -0.16585812 0.07715708 0.036610443
000210 6c 5c 40 be 7a 85 06 be cf f5 ba 3d 54 e2 d6 bd
       -0.18785256 -0.13136855 0.091289155 -0.104923874
000220 4e 7c 32 be 9d ac 5f bd b9 7a 6f bc 8c 4a 19 be
       -0.17430231 -0.054607976 -0.014616662 -0.14969844
000230 1a e1 d7 bc dc d6 c6 3d cd be c3 bd 05 1b 3e 3e
       -0.026352454 0.0970895 -0.09557877 0.18564995
000240 7a e0 13 be 98 b4 39 3e 40 f9 3a 3e 55 68 39 3b
       -0.144411 0.18135297 0.18259144 0.0028290947
000250 cb 13 c1 3d 1e db cb bd 6c b2 45 3d c6 6c e5 3d
       0.09427603 -0.09953903 0.04826586 0.112023875
000260 e4 6f a5 bd a6 fe 12 3d 17 d4 84 3d 29 08 da 3d
       -0.08077982 0.035887383 0.064857654 0.10646088
000270 6e ab ed 3b b8 33 38 be 1d 67 8f bd 2b 0f dd bd
       0.007253102 -0.17988479 -0.07002089 -0.10793909
000280 85 5e f4 bd 5b 8c 0f be ac 08 e3 3d dd 4c 23 3e
       -0.11932091 -0.14018385 0.110856384 0.1594729
000290 d4 14 69 bc 0b ea 1a 3e c5 d7 32 3d 44 b2 09 bd
       -0.014226157 0.15128343 0.043662805 -0.033617273
0002a0 5f f2 93 3d 49 2b de bd 1e 3e 38 be 3e 06 ab 3d
       0.07223963 -0.108481 -0.17992446 0.083508
0002b0 63 5f f2 3d b7 cb 34 3e a6 ee aa bd 74 71 19 3e
       0.118346 0.17655836 -0.083463 0.14984685
0002c0 60 9b e0 3c 14 6a 72 3c 9f 8b 7a bb 72 a3 34 3d
       0.027417839 0.014795799 -0.0038230193 0.044101186
0002d0 e9 c5 cb 3d 60 74 aa 3d 7a 09 d8 3c 4b be 2e be
       0.09949858 0.08322978 0.026371706 -0.17064779
0002e0 fd bb 99 3c 6e 6a 89 bd d2 cc 09 be 3c b1 14 3e
       0.018766398 -0.06709753 -0.13457039 0.14520735
0002f0 72 81 02 be d0 83 20 3e 6a a5 0d 3e e4 28 3e 3e
       -0.12744692 0.15675282 0.13832632 0.18570286
000300 f1 6d b1 bd 4d 40 09 3e 96 77 61 bd 9a 03 ad 3b
       -0.08663548 0.13403435 -0.055045687 0.0052799704
000310 ea 44 91 bd ea ff 6d bd 09 d2 ef 3d 49 20 9f bd
       -0.070932224 -0.058105387 0.11709983 -0.0776983
000320 f0 72 13 bc 08 b8 0c be b4 8b 1c 3c 68 16 3c 3e
       -0.008999571 -0.13742077 0.009554792 0.18367922
000330 6c 49 fe 3d ed d3 ef 3d d0 84 c2 3c 84 4b 35 3e
       0.12416348 0.117103435 0.02374497 0.17704588
000340 ae 50 de 3d 8e 65 10 be fd 00 02 be 4a 4b 0b 3c
       0.10855232 -0.1410124 -0.1269569 0.008501837
000350 1a 2d d4 bd 3b 4a 10 bd b3 b3 21 3e 78 4b 09 be
       -0.10360165 -0.03522704 0.15791206 -0.13407695
000360 22 d2 b9 3d a0 4f 0d 3e e4 8f d8 3d 95 77 68 3d
       0.09073283 0.13799906 0.1057432 0.056754667
000370 70 44 06 3e b9 b8 ec 3d 19 d1 d1 bc ad d8 2e be
       0.13112044 0.115586706 -0.0256124 -0.17074843
000380 b4 b9 00 be b4 74 63 bc c7 57 53 bc 90 71 33 3e
       -0.1257084 -0.013882805 -0.012899346 0.1752379
000390 39 39 c6 3c e7 28 c5 ba aa 13 20 be 39 d3 d9 3c
       0.024197208 -0.0015042097 -0.15632501 0.026589977
0003a0 64 5c 12 3e ce d0 2f 3e 56 97 7f 3d 8f 57 da bd
       0.14293057 0.17169496 0.062400185 -0.10661232
0003b0 16 f0 0d bd e2 6b d5 bc 88 a4 01 bd aa 24 8e 3d
       -0.034652792 -0.02605242 -0.03165105 0.06940587
0003c0 53 ff 21 3e 25 c3 90 bd 12 31 9e bc 3a 89 78 bd
       0.15820055 -0.07068471 -0.019310508 -0.060677744
0003d0 4a a3 bf 3b e3 81 3f 3e ff 81 1a bd 08 46 07 3e
       0.005848323 0.18701892 -0.03772163 0.13210309
0003e0 8b 90 04 be 23 b2 2a bd 93 46 25 be e6 01 91 bd
       -0.12945764 -0.04167379 -0.16140203 -0.0708044
0003f0 b0 54 1e be 4a 9c e0 3d 6e e8 7b 3d 18 59 1e 3e
       -0.15461993 0.1096731 0.06150096 0.15463674

bias f4 [20]
000000 8f 71 57 3d ed c2 06 3e 59 95 f7 3c 8d 46 89 3d
       0.052598532 0.13160296 0.030222582 0.067029096
000010 6f b8 88 bd 4e 20 1f 3e dc 37 6e bd 7f 90 f0 bc
       -0.06675803 0.15539667 -0.05815874 -0.029365776
000020 6c 30 ec bd 1b 2c 64 bd 34 54 37 be f8 37 84 3d
       -0.11532673 -0.055706125 -0.17903215 0.06455988
000030 5d 1b 07 3e 04 3a 0f 3e 15 f4 fe 3d 1d 9b 3f 3e
       0.13194032 0.13986975 0.12448899 0.18711515
000040 49 a9 77 bd 85 15 4d bd 1f 1c f8 3d 0e 9e fd bd
       -0.060464177 -0.05006935 0.12114739 -0.12383662

weight f4 [20, 20, 3, 3]
000000 e8 b8 41 3c 06 2a 2f 3d b6 12 82 3d 25 6b c0 bc
       0.01182387 0.042764686 0.06351225 -0.02348859
000010 8c e8 e2 bc 2a 4e 84 3c 9f 2c 48 bd be b8 2e 3d
       -0.027698778 0.016150553 -0.04887068 0.042656653
000020 52 bb 05 bd bf 3f 91 bd c6 d0 b7 38 4c ec 19 3d
       -0.032649346 -0.07092237 8.765007e-05 0.037578866
000030 40 4f 66 3d dd cf 88 bd a6 03 16 bd 9a 70 95 3d
       0.056227922 -0.06680272 -0.036624573 0.07296868
000040 59 26 8d 3d c4 00 4e bc 5d 27 86 bd 0f 00 af 3c
       0.0689208 -0.012573425 -0.06550477 0.021362333
000050 4b 91 97 bb 26 56 97 3d f3 70 4e bd 90 ec c9 bb
       -0.0046254746 0.073894784 -0.050400686 -0.0061622337
000060 99 c1 36 3d 9d e8 83 bd 0d fd 95 bd be f8 58 bd
       0.044618223 -0.06440852 -0.07323656 -0.052971594
000070 93 f1 e2 3c 26 22 8f 39 cc 48 bd 3c 43 63 66 3d
       0.027703082 0.00027300528 0.023106001 0.056247007
000080 31 7b 8e b9 63 e2 32 3d c7 41 c5 3b e6 3c 16 3c
       -0.00027176135 0.04367293 0.006019804 0.009169793
000090 f7 f4 19 3d ef ac f6 3b d3 23 80 bd af 90 8a 3d
       0.037587132 0.0075279395 -0.06256833 0.067658775
0000a0 11 7e 00 3d 86 01 68 bd f1 66 1e 3d 43 b8 30 bd
       0.031370226 -0.056642078 0.03867239 -0.043144476
0000b0 ae ad 41 bd b0 84 f9 bc 0b 37 f7 3c 9b 45 80 bd
       -0.047284774 -0.030458778 0.030177614 -0.06263276
0000c0 61 eb 11 bd a0 81 f6 3b 7c d2 6d 3b 0d 92 81 bd
       -0.035624865 0.0075227767 0.0036288789 -0.06326685
0000d0 34 cf f0 bc 86 15 13 3c 11 12 93 3d ff 62 62 b9
       -0.029395677 0.0089773 0.0718118 -0.00021589918
0000e0 08 bb 57 3d d3 5c 96 3d 3e f4 23 3c 34 e0 c6 b9
       0.0526686 0.073419236 0.010006962 -0.00037932547
0000f0 c4 e2 48 3d f8 1c c8 3c 02 b9 86 3c 5b a4 8d 3d
       0.049044386 0.024427876 0.01644564 0.06916114
000100 4d a9 91 3d 12 38 a5 ba b5 22 16 3d aa 72 37 bd
       0.0711237 -0.0012605211 0.036654193 -0.044787087
000110 ee 92 98 3c f4 48 79 bd fb f0 23 3d 72 78 2a bd
       0.018624749 -0.06086059 0.04002474 -0.04161877
000120 fc 2c 85 bd d7 fa 12 3d a0 86 08 3d 04 27 8b 3d
       -0.06502721 0.03588375 0.033331513 0.06794551
000130 5b 99 9f 3c 7c 8e 8c 3c 22 c4 8c bc 57 28 62 bd
       0.019482305 0.017157786 -0.017183367 -0.055214252
000140 0c b3 0b bd 57 a0 92 bd 9b 22 80 bd 4f bd ee bb
       -0.0341063 -0.07159489 -0.062566005 -0.007285751
000150 f2 50 47 3d 87 94 8d bd 36 f3 86 bd 98 4b 6f 3c
       0.04866118 -0.06913095 -0.065893576 0.014605425
000160 72 3d b3 3c 25 e0 14 bd b3 3d 30 bc 85 4c 96 bd
       0.021879885 -0.036346573 -0.010756898 -0.07338814
000170 3d 16 31 3d 5b 3d 8b bd be 54 8b 3c 6d 64 e0 3c
       0.0432341 -0.06798812 0.017008182 0.027391637
000180 f4 66 48 3b 9a 2c 16 bd 42 93 3c 3d 14 81 2d bd
       0.0030578943 -0.03666363 0.046038873 -0.042359427
000190 0c fe c0 bc 23 1d b2 bc 62 a9 37 3d 1c 9d 42 bd
       -0.023558639 -0.02174241 0.04483927 -0.047513112
0001a0 05 da 1e bb b8 a0 92 3d d0 4a 70 3c f4 21 79 3c
       -0.0024238836 0.07159561 0.014666274 0.015205849
0001b0 1e 2f 19 bc ae a4 f1 bb 7a 1b 67 3c c9 9d 46 3c
       -0.0093496125 -0.0073743677 0.014105672 0.01212258
0001c0 fc ed 97 3c 19 91 17 3c 4e 46 49 3d 26 db cd bc
       0.018546097 0.009250903 0.049139313 -0.025128912
0001d0 5d bb 65 bd 74 f6 41 3d 85 5f 59 bc fb 9d 6f bd
       -0.056086887 0.047354177 -0.013267403 -0.05850027
0001e0 e1 8d 5e bd e2 21 96 bd 30 5d 21 3d 92 b9 2c 3d
       -0.054334525 -0.073306814 0.03939551 0.04216916
0001f0 50 5a 4c 3d 75 c1 81 3c 92 7d 96 bd 25 d2 8e bd
       0.049890816 0.015839318 -0.073481694 -0.06973676
000200 ec 62 34 3c f3 5b 21 bd 20 cc 02 bc 5c 40 18 bd
       0.011009913 -0.03939433 -0.0079832375 -0.037170753
000210 57 68 19 3d 3b e9 18 3d 97 e6 ce 3c db 48 76 3d
       0.03745302 0.0373318 0.025256438 0.060128074
000220 76 90 7c bd 95 2a 08 bd 6e 7b 40 bc ca 7b 54 3d
       -0.061661206 -0.033243734 -0.011748178 0.051875867
000230 d7 76 ff 3c ab ea 88 bd 51 db 53 bd 8e 86 25 3a
       0.031184597 -0.06685384 -0.05172283 0.00063143007
000240 36 8d 8d bb bd ab 93 3d e1 2f 98 bd 28 ba 85 bd
       -0.004319812 0.07210491 -0.07431007 -0.06529647
000250 94 02 3d 3d 99 dd 81 3d 79 f4 7b 3d 1c ab 6d 3c
       0.046145037 0.063410945 0.061512444 0.014506128
000260 6e 17 d5 3c ce e4 6f 3d b7 d4 c0 bc ce e7 20 bd
       0.026012149 0.058567815 -0.02353893 -0.039283566
000270 70 c9 05 bd c2 31 6f bd b6 5e 84 3d 99 0f 93 bd
       -0.03266281 -0.058397062 0.06463377 -0.071807094
000280 9c 85 35 bd 14 b6 b6 bc 23 90 ca 3a ad 81 78 bc
       -0.044316873 -0.022303618 0.0015454333 -0.015167636
000290 5e a4 f2 3c 8f ff 9c bc 7a c0 8c 3d 9d 74 31 3d
       0.029619392 -0.019164829 0.068726495 0.0433241
0002a0 26 f0 54 bc c4 40 6e ba 5a b0 21 bd 98 a4 4c bd
       -0.012996709 -0.00090886303 -0.039474823 -0.049961656
0002b0 71 87 85 bd 8f 84 94 bd 7c b1 ed bc b0 e8 27 3d
       -0.06519974 -0.07251846 -0.029015295 0.040993392
0002c0 ce 7a ed 3b b7 53 84 bd ae c8 dc 3c a7 ec 56 bd
       0.0072473055 -0.0646128 0.02695116 -0.052471783
0002d0 39 8d 9c 3c 63 85 0a bd 2e 31 fe 3c 0d 09 96 3d
       0.019110309 -0.033818614 0.03102931 0.07325945
0002e0 a3 8a d3 bc 07 7d 2b bd 7d 41 85 bd 28 c4 60 39
       -0.025822943 -0.041867282 -0.065066315 0.00021435379
0002f0 b9 0e 8a 3c 4b 51 44 3a 16 4e 32 3d c3 ae 1b bd
       0.016852723 0.000748892 0.0435315 -0.038008463
000300 c2 6c 0a bd 30 de 8f 3a 9c 0b 10 bd f7 d5 21 3d
       -0.033795126 0.0010976251 -0.03516732 0.039510693
000310 1d 29 88 3d 6d b1 e9 b8 33 e9 a5 3c 0a ed 9a bc
       0.06648467 -0.00011143354 0.0202528 -0.018911857
000320 73 33 6c bc c4 85 1b bd ea aa 69 3d da 44 b1 3c
       -0.014416563 -0.037969366 0.057047762 0.021639276
000330 f0 ce 6d bc b6 34 42 3d cd cf 5d 3d 1a c5 32 3c
       -0.01451467 0.04741355 0.054153252 0.0109112505
000340 6f 1e 1a bd 42 f3 93 3d 8e 19 0b 3d 27 4b 4b bb
       -0.03762668 0.07224132 0.033959918 -0.0031020136
000350 29 cd 0a 3c 58 03 d3 bc d0 9c 98 bc 32 10 2d bd
       0.008471766 -0.02575843 -0.018629462 -0.042251773
000360 86 4c 83 bd 11 f5 4e 3d a4 c4 50 3d 87 53 49 3d
       -0.0641108 0.050526682 0.05096878 0.049151924
000370 f7 a3 a7 bc 57 f0 4d 3d ee 11 43 bd c0 3f 02 bd
       -0.020463927 0.050278034 -0.04762452 -0.031799078
000380 db ff 5e 3d 11 eb 80 3d 52 8f 8c 3b c7 7a d9 3c
       0.05444322 0.06294835 0.004289546 0.026547803
000390 aa 39 1b 3d 81 ea 13 3d 98 c2 ed bb cd 48 9d 3c
       0.03789679 0.036112312 -0.0072558634 0.019199753
0003a0 8b f2 b6 bc d0 13 21 bc 67 6a e0 bc 28 93 62 3c
       -0.02233245 -0.009831384 -0.027394487 0.01382903
0003b0 47 ff 82 3d 2d c6 8f bd 3f 7c 13 bd da 2c 82 bd
       0.063963465 -0.07020221 -0.036007162 -0.06356211
0003c0 1e 44 60 bd 62 7b 53 3d 92 32 44 bc 0e 26 d6 38
       -0.05475246 0.05163134 -0.0119749475 0.000102114034
0003d0 06 72 77 3d ca 87 0c 3d 4a 70 da bc c0 1b 08 3d
       0.060411476 0.034309186 -0.026664872 0.03322959
0003e0 d9 19 36 bd 0d 1b 24 3c ce 94 77 39 f5 64 83 bb
       -0.044458244 0.010016215 0.0002361119 -0.0040098378
0003f0 83 20 33 3c 41 fb 1e bc 3f 3f 00 3d 5e 6e 0c 3c
       0.010933044 -0.009703458 0.031310316 0.008571235

bias f4 [20]
000000 6a 84 99 bd 82 3e 98 3d 6c 1d 36 3d c4 1f 40 bd
       -0.07495959 0.074337974 0.044461653 -0.046905294
000010 7a ab 46 3d 4a 19 23 3c 71 9a 58 3d 38 e5 49 3d
       0.048503377 0.00995476 0.05288166 0.049290866
000020 c5 76 50 bd 7c ad 88 3d d3 80 82 3b 0f 4d 8d bd
       -0.050894517 0.066737145 0.003982642 -0.068994634
000030 ac 0b 61 3d 27 c1 44 3c 4a 21 57 bd 20 c8 8a bd
       0.05494277 0.012008942 -0.05252198 -0.06776452
000040 f8 fb 5f bd da ac 43 bd d5 55 c2 bb 21 be e4 bc
       -0.054683656 -0.047772266 -0.005930642 -0.027922692

weight f4 [16, 3920]
000000 10 12 ea 39 91 1f fa b9 1c e8 16 bc a2 4a bf ba
       0.00044645416 -0.00047707235 -0.009210613 -0.0014594386
000010 8b 4a 60 3c 2a 7b ad 3b fe 6f f3 bb 62 37 ca ba
       0.013689647 0.0052942233 -0.007429122 -0.0015427882
000020 1b b0 f0 bb da 40 2e bc be f6 6c 3c f2 8d f6 3a
       -0.007345212 -0.010635579 0.014463125 0.0018810614
000030 27 00 72 bb 3f 3f 5b 3a cc be ed bb 9c 0f 79 3c
       -0.003692636 0.00083636114 -0.007255411 0.0152014755
000040 3d 99 2a bc 69 87 54 bb 1b f6 07 3b 6c 18 27 3c
       -0.010412511 -0.0032429344 0.0020746056 0.010198694
000050 99 0b 95 3a 14 bd 80 3c 8d 8b 1c 3c 02 38 00 3c
       0.0011371254 0.01571516 0.009554756 0.007825853
000060 e0 74 58 b9 bb 40 9f 3b db a9 73 3c 9c 91 ee bb
       -0.00020642905 0.0048600114 0.01487204 -0.0072805416
000070 2d 26 e6 bb ab 4c a6 bb 2e 9d 81 3c f2 cc 4f 3b
       -0.007023594 -0.0050750575 0.01582202 0.003170785
000080 71 0c 82 3c 3c 14 87 3c 8d 04 8b bb dd 35 99 b9
       0.015875073 0.01648914 -0.004242486 -0.00029222565
000090 4b 9d f2 bb 7a bf 21 3c 82 86 1c 3c 80 f5 22 bc
       -0.0074040047 0.009872312 0.009553554 -0.009946227
0000a0 d2 a6 ad bb ae d8 83 3b 1d ef c3 bb 44 54 88 3b
       -0.0052994275 0.004023633 -0.0059794323 0.004160436
0000b0 5b 69 00 3c 02 e5 90 bb 27 ae 77 3c c4 d6 5e b9
       0.007837619 -0.004421831 0.015117205 -0.00021251576
0000c0 8b 6e ed 3a 4d 37 56 3c 1e f2 99 bb 95 3e bc 3b
       0.0018114609 0.013074708 -0.004698052 0.005744765
0000d0 ed 63 3a bb 8a 3a 63 3c 6d 3c b8 bb 0f 5c 2a 3b
       -0.0028440908 0.013868937 -0.0056224377 0.0025994813
0000e0 7a 70 45 bc d4 2f 94 bb dd 4a 86 3c 64 6f 35 3c
       -0.012050742 -0.004522303 0.01639312 0.011073921
0000f0 df dd 02 3b 06 5e 89 3c 8f df 89 bb e5 a9 16 bc
       0.0019968671 0.016768467 -0.0042075585 -0.009195779
000100 0f ad 3b 3c 86 a9 60 bc fe ce df 3b cc 19 47 bc
       0.011454835 -0.013712293 0.0068300953 -0.012152147
000110 dc 96 20 3c ea 6a f3 3b a3 d7 60 3c e7 33 34 3c
       0.009801593 0.0074285166 0.013723287 0.010998703
000120 b4 2b 03 bc 3c 0f 12 bc a1 bd 13 3c 68 8a 52 3c
       -0.008006025 -0.008914765 0.009017379 0.012850381
000130 f0 09 b5 bb 13 0e 8b 3b 1f 0d 60 bc b3 0a d0 ba
       -0.0055248663 0.004243621 -0.013675003 -0.0015872329
000140 bb b6 6d bc d8 6e 91 3b 09 d9 4a 3b 18 3a 77 3c
       -0.014508898 0.0044382624 0.0030952117 0.015089534
000150 47 b2 b2 bb 99 f9 42 3c 80 06 62 3a ac 26 39 3b
       -0.005453381 0.011900329 0.00086221844 0.002825181
000160 c0 70 51 bb 13 85 0c bc 82 02 60 bb e1 e2 bf 3b
       -0.0031958073 -0.008576649 -0.0034181182 0.0058559035
000170 b6 a4 11 3b e0 10 65 bb cd 61 f3 bb fd cf 04 3c
       0.002222342 -0.0034952685 -0.0074274302 0.008106229
000180 a2 77 1f 3c 48 46 47 3c a9 6d 14 3b 6e 64 00 3c
       0.0097331125 0.012162752 0.002264837 0.007836444
000190 82 39 56 3c 2b b5 00 3b de 61 63 bc 4e 99 e5 3b
       0.013075234 0.0019639235 -0.013878314 0.0070068007
0001a0 cb 46 24 3c c1 47 4a bc fd c3 f2 bb 95 bb 61 3b
       0.010026644 -0.012346209 -0.0074086175 0.0034444083
0001b0 5f 9a 9b 3b 86 e9 0d 3c 1b 8b 3b bb f0 7c 71 3c
       0.004748627 0.008661633 -0.002861685 0.01473926
0001c0 c4 f4 26 bc bd 6b 97 3a 78 96 36 3c 05 68 7c 3c
       -0.010190193 0.0011552494 0.011144273 0.01540566
0001d0 38 fd 21 3c 97 d2 5e 3c eb 50 a2 3b 1a 23 15 ba
       0.009887032 0.013600013 0.004953494 -0.00056891295
0001e0 1a c5 25 bb 09 6f 02 3b 43 79 89 bb 9b f7 4b bc
       -0.0025294484 0.0019902608 -0.0041953637 -0.01244917
0001f0 d4 20 68 bc fd ab 97 bb f9 ee 7f 3c 0f b4 92 ba
       -0.014167983 -0.004628657 0.01562094 -0.0011192578
000200 9a f9 2c bb aa 06 69 3b 0e dc 91 39 8d 68 62 3c
       -0.0026393891 0.003555695 0.0002782051 0.013818872
000210 41 98 87 bc 97 f1 41 bc 59 7a 8e 3a 03 73 76 37
       -0.016552093 -0.011837385 0.0010870203 1.4689521e-05
000220 3a 70 1e bc 93 c7 a0 3a 0c 2b 31 3c 43 e2 c5 bb
       -0.009670312 0.0012266509 0.010813486 -0.0060389354
000230 08 0b 46 bc 2c 63 5c 3c b8 b6 40 3c fd 65 5e 3c
       -0.012087591 0.013451379 0.011762314 0.013574121
000240 6d 98 01 3c 88 b6 fb 3b b5 34 a8 3b 25 18 92 3b
       0.007909876 0.0076816715 0.0051332363 0.0044584447
000250 4f a2 d5 39 ea 11 f6 bb c2 55 01 3c e6 ba 3c 3c
       0.00040747455 -0.0075094597 0.007893981 0.011519169
000260 04 68 9e bb 45 0a 7b bb ab ee 3c 3c a7 b2 f2 bb
       -0.004834177 -0.0038305682 0.011531512 -0.007406551
000270 7e 31 61 3c 0b 42 2e bc e1 0f f4 ba 37 5a 6f 3c
       0.01374471 -0.010635863 -0.0018620455 0.014608911
000280 23 ec 2e 3b 7c f1 40 bc 2a ff 3b 3b d0 0f 1c 3b
       0.0026691041 -0.011776324 0.0028686025 0.0023813136
000290 0d 8c 74 bc d8 58 28 b9 b0 ca 5b bc 48 d1 a4 bb
       -0.014925969 -0.00016054825 -0.013415024 -0.005029831
0002a0 25 87 aa bb d0 f9 56 3b 26 4f 93 bb f8 c0 57 3c
       -0.0052040988 0.0032802708 -0.004495519 0.013168566
0002b0 e0 d9 78 3c de bf f1 bb 7f 72 d2 bb 24 bf 57 3c
       0.015188664 -0.0073776087 -0.0064223404 0.01316813
0002c0 96 b6 12 bb 44 a1 86 3c e4 3d e3 3b 18 6c 4f bc
       -0.0022386662 0.01643432 0.006934868 -0.012660049
0002d0 8c a5 34 bc 96 00 a2 bb f5 e9 53 bc f0 3f d9 bb
       -0.011025798 -0.0049439175 -0.012934198 -0.0066299364
0002e0 1b 88 04 3c 30 d8 85 bb 41 9a 21 bb 68 d8 a5 3a
       0.008089091 -0.0040846094 -0.0024658593 0.0012652995
0002f0 3b a8 82 3c 4d 96 47 bc 8d 6c a0 3b 5d 93 28 bc
       0.01594936 -0.012181831 0.0048957528 -0.01028904
000300 41 0b ed 3b cd 28 1c bc 7c f6 44 3b 0a 30 55 bc
       0.0072340076 -0.009531212 0.0030054143 -0.013011942
000310 e8 9c e1 bb 68 4f 01 3c 25 92 e6 3b 58 bf bc 3b
       -0.0068851598 0.007892467 0.0070364648 0.0057601146
000320 4b 6a 24 3c 04 99 bd ba 0f 9b 00 bc 62 f3 3c bb
       0.010035108 -0.0014465158 -0.007849469 -0.002883159
000330 ca 30 29 bc 98 62 09 bc 00 77 32 3c 5b 26 6c 3c
       -0.010326574 -0.008385323 0.01089263 0.0144134415
000340 ad b1 fb 3a 9c 6d 06 3c 5e 4c 39 3c 22 b9 08 3c
       0.0019202732 0.008204844 0.011309711 0.00834492
000350 9b d2 c7 3b 19 4c a4 bb 46 36 a6 3a 71 a1 83 bb
       0.006098104 -0.0050139544 0.001268097 -0.004017048
000360 7d 83 4e 3b 3f 0e 71 3c 96 87 07 3c c4 aa 6f bb
       0.0031511479 0.014712869 0.008272072 -0.003657029
000370 40 ac 29 bc 67 7b 59 3c d7 53 6a 3c 50 be 96 3c
       -0.010356009 0.01327405 0.014302216 0.018401295
000380 56 d7 48 3c 54 f9 27 3c 06 13 99 bb 8a 72 b6 3a
       0.012258371 0.010252316 -0.004671457 0.0013919633
000390 db f6 48 3a 2a 04 4c 3b f0 2a 8a 3c 7f a4 2b 3c
       0.0007666179 0.0031130412 0.016866177 0.010476231
0003a0 fa 94 0d 3c 83 51 81 3b a1 fe 33 3c c2 dc 0c 3c
       0.008641476 0.0039464845 0.010986001 0.008597555
0003b0 6b 1d 11 3c c9 28 04 bc c2 ec 29 3c cb f8 1c 3b
       0.008857111 -0.008066365 0.010371389 0.0023952003
0003c0 8a 6f fe bb de 05 26 bc 51 05 0c bc e1 95 b7 bb
       -0.0077647613 -0.010133235 -0.008546189 -0.0056025838
0003d0 0e ad 3c 3c 42 c7 7c 3c ae 0f d3 39 9a bd 8a 3a
       0.011515869 0.015428366 0.00040256738 0.001058507
0003e0 55 39 0f 3a 05 76 90 3b 72 69 32 3c f0 d3 0f bb
       0.000546356 0.0044086003 0.010889398 -0.0021946393
0003f0 44 ed ef 3b 88 f4 8c 3c 2f d2 e5 ba 34 76 3a bb
       0.0073219854 0.017206445 -0.0017533953 -0.0028451802

bias f4 [16]
000000 3a 51 1c bc 0c 12 91 3b 8c 32 f6 3b 98 b9 2b bc
       -0.00954085 0.0044272 0.00751335 -0.010481261
000010 55 00 67 3c 32 86 0f 3c 59 b5 ba 3a c8 ad 34 3b
       0.0140992 0.008760022 0.001424472 0.0027569402
000020 96 db c2 ba 69 77 6e 3a 95 c8 d0 39 cd 0d 6a bc
       -0.0014866467 0.0009096773 0.00039822297 -0.014285517
000030 61 b6 2d 3b df 6f 0f 3c f9 f4 ed ba dd 16 42 bc
       0.0026506411 0.0087546995 -0.0018154673 -0.011846271

weight f4 [1, 16]
000000 90 62 25 3e e3 e0 f1 3c 36 80 18 3e 72 5e b1 bd
       0.1615088 0.02952618 0.14892659 -0.08660592
000010 9f 15 a9 bd 54 a1 02 3e b0 c6 45 3e 56 71 a6 bd
       -0.08256077 0.12756854 0.19314075 -0.08127086
000020 d1 a6 1b bb 9e 8e 8d 3d 81 b1 29 3e d0 af 7f 3e
       -0.0023750553 0.06911968 0.16571619 0.24969411
000030 fa 2c 9c bd 3d 0e e3 bd 28 ed 8f bd e6 6b e9 b9
       -0.07625766 -0.110867 -0.07027656 -0.00044521614
