Mini_GAN/generator_stacked.pt (torch_old, 469371 bytes, 12 tensors)

weight f4 [32, 3, 3, 3]
0	0x3f2fe0f9	0.68702656
1	0x3ed13094	0.40857375
2	0xbea927aa	-0.33038074
3	0xbce46b13	-0.027883088
4	0xbd83c1e5	-0.06433467
5	0xbdee6588	-0.11640459
6	0xbe801be3	-0.25021276
7	0xbe824474	-0.2544285
8	0xbedd1b00	-0.43184662
9	0xbd460797	-0.048347082
10	0xbc75dc5a	-0.015006149
11	0x3d5aa598	0.05338058
12	0x3dc2b341	0.09506846
13	0xbd6a0c35	-0.057140548
14	0xbd72e55e	-0.059300773
15	0x3dcab688	0.09898096
16	0xbdd0f885	-0.10203651
17	0xbca6d7b5	-0.020366529
18	0x3c2fc17f	0.010727285
19	0xbba90d92	-0.0051590884
20	0xbd0321d2	-0.032014675
21	0xbc0820a9	-0.008308568
22	0x3bd784ce	0.006577111
23	0x3c44348a	0.011975417
24	0xbdb885f6	-0.09009926
25	0x3ddc6e1b	0.107631885
26	0x3c0b463e	0.008500634
27	0x3e04c7f5	0.12966903
28	0x3e3a3cbf	0.18187235
29	0x3e166fbe	0.14691064
30	0xbe3db340	-0.1852541
31	0xbe5d594f	-0.216161
32	0x3dcc058f	0.09961998
33	0x3e0b21ba	0.13587084
34	0xbe890b96	-0.26766652
35	0x3df5abb2	0.11995639
36	0xbd190c74	-0.03736539
37	0x3b1e0b9b	0.0024115804
38	0x3d22a732	0.03971023
39	0x3dead890	0.11467087
40	0xbd87d2f0	-0.0663203
41	0x3d6a2952	0.057168312
42	0x3d98f5e1	0.07468773
43	0x3d92c5fc	0.07166669
44	0xbddd37c5	-0.10801653
45	0xbc10a91a	-0.008829379
46	0x3c8b8800	0.017032623
47	0x3d408c8c	0.047009036
48	0xbe47ff1c	-0.1953091
49	0x3dd6bae7	0.104848675
50	0xbd959d85	-0.07305435
51	0xbd9b5162	-0.07583882
52	0xbca404e7	-0.020021869
53	0x3e0682c8	0.13135827
54	0x3e6d33dc	0.23164314
55	0x3bca5dd8	0.006175738
56	0x3e42da94	0.19028693
57	0x3ebca47c	0.36844242
58	0x3c9b6c76	0.018972617
59	0xbf26aaea	-0.65104544
60	0xbdf144fe	-0.11780737
61	0xbc360325	-0.011109148
62	0xbe4056a8	-0.18783057
63	0xbeeca4ef	-0.46219584
64	0xbdeb2749	-0.114821024
65	0x3c441313	0.011967438
66	0xbe959655	-0.29216257
67	0xbe182b7f	-0.14860342
68	0x3d37b184	0.044847026
69	0xbeb84f4f	-0.35998008
70	0xbe6fc77a	-0.23415938
71	0xbe49af96	-0.19695887
72	0xbefd34e3	-0.49454412
73	0xbe7fb18f	-0.24970077
74	0xbf1ff7d0	-0.62487507
75	0xbe14331e	-0.14472625
76	0xbe193972	-0.1496332
77	0xbec160bc	-0.37769115
78	0xbe94678c	-0.2898525
79	0xbe05e831	-0.13076855
80	0xbe922a27	-0.28547785
81	0xbdecedba	-0.1156878
82	0x3e833d44	0.2563268
83	0x3eab4730	0.3345275
84	0xbe90f755	-0.283137
85	0x3d6afba4	0.05736889
86	0x3eb204a6	0.3476917
87	0xbe706d11	-0.23479106
88	0xbefcada7	-0.49351236
89	0xbf70bb62	-0.94035923
90	0x3dcfb203	0.10141375
91	0x3c20d3c2	0.009816112
92	0x3e03b9fd	0.12863918
93	0x3d5d3335	0.054003913
94	0x3e04a04a	0.1295177
95	0x3d93ff97	0.07226484
96	0x3eace81c	0.33770835
97	0x3cfe16cf	0.031016735
98	0x3d3e34dc	0.04643713
99	0xbd8fab52	-0.07015099
100	0xbd9a1036	-0.07522623
101	0xbdee2dc5	-0.116298236
102	0xbdf0fbfa	-0.11766811
103	0xbc99f249	-0.018792288
104	0xbe228ca8	-0.15873969
105	0xbe243041	-0.16034032
106	0xbe232320	-0.15931368
107	0x3d9ad20a	0.07559593
108	0xbef941ff	-0.48683164
109	0xbe8beaf0	-0.2732768
110	0xbe8cf0d6	-0.27527493
111	0xbf0f58d4	-0.55994916
112	0xbedc2fbf	-0.43005177
113	0xbee6acff	-0.4505386
114	0xbf240a54	-0.6407826
115	0xbed30097	-0.41211388
116	0xbe92a444	-0.2864095
117	0xbe8cb7bd	-0.2748393
118	0xbe5a61e8	-0.21326411
119	0xbeae04aa	-0.33987933
120	0xbc653cd1	-0.013991551
121	0x3c862aac	0.01637777
122	0xbebb7090	-0.36609316
123	0xbec40b08	-0.38289666
124	0xbe45d72b	-0.19320361
125	0x3d3c7a1e	0.046014898
126	0x3e29f692	0.16597965
127	0xbf308fbf	-0.6896934
128	0xbed806bc	-0.42192638
129	0x3ebb8c70	0.36630583
130	0xbf0c6c5a	-0.5485283
131	0xbf123fa0	-0.57128334
132	0x3ea8d5e5	0.3297569
133	0xbf092c65	-0.53583366
134	0xbf147291	-0.57987314
135	0xbe2d4ea8	-0.16924536
136	0x3ec8d2e2	0.3922339
137	0x3ece1bf5	0.40255705
138	0xbc1e3b61	-0.009657712
139	0xbf5917b9	-0.8480182
140	0x3e9a8144	0.30176747
141	0xbf8c4071	-1.0957166
142	0xbd1ef70e	-0.03880983
143	0xbe1a618d	-0.15076275
144	0x3d146385	0.03622772
145	0xbd57ee3b	-0.05271743
146	0x3c82165a	0.015879799
147	0xbd259ece	-0.04043465
148	0xbd5524f0	-0.05203718
149	0x3cc90880	0.024540186
150	0xbe557321	-0.208447
151	0x3e26d3cf	0.16291736
152	0x3d0daeef	0.034590658
153	0xbd3a3688	-0.04546216
154	0xbd0187cd	-0.03162365
155	0xbd135798	-0.035972208
156	0x3e048816	0.12942538
157	0xbbbcb85b	-0.0057592816
158	0xbda85763	-0.08219793
159	0x3cda178d	0.026622558
160	0xbd6a14ef	-0.05714887
161	0x3cef7a89	0.029233234
162	0xbe8db4c0	-0.27676964
163	0xbe18e60b	-0.14931504
164	0xbc8052ce	-0.015664484
165	0x3d66ddf1	0.056364004
166	0xbec07904	-0.37592328
167	0xbdde1d75	-0.10845462
168	0xbe8aefdb	-0.2713612
169	0xbe67a618	-0.22621953
170	0xbe4ad0ce	-0.19806215
171	0x3ed6e7d0	0.41973734
172	0xbd83a7f3	-0.06428518
173	0xbe43a0dc	-0.19104332
174	0x3e7a6a51	0.24454619
175	0xbedd1cab	-0.43185934
176	0xbe99f60f	-0.3007054
177	0x3dc10583	0.094248794
178	0xbe04ba6a	-0.12961736
179	0xbeb54e15	-0.35411134
180	0x3ef1fc68	0.47262883
181	0x3da827c1	0.082107075
182	0xbec83783	-0.39104852
183	0x3cf6f078	0.030143961
184	0xbe2a5c77	-0.16636835
185	0xbd811990	-0.06303704
186	0x3e3faed0	0.1871903
187	0xbddd79de	-0.1081426
188	0xbe52fdab	-0.20604579
189	0xbe373b9b	-0.17893831
190	0xbe3e9c65	-0.18614347
191	0x3f4ebd90	0.80758
192	0xbf197bc4	-0.59954476
193	0xbebb4d64	-0.36582482
194	0x3ddc2649	0.1074949
195	0xbe03a5c6	-0.12856206
196	0xbd19d67c	-0.037558064
197	0xbeb5825d	-0.35451022
198	0xbd45c910	-0.04828745
199	0x3d481218	0.04884538
200	0xbc13ebf3	-0.009028423
201	0x3d14bda2	0.03631366
202	0x3c8977dc	0.016780786
203	0xbd0841a7	-0.033265736
204	0x3c80f1c5	0.015740285
205	0xbd5c351e	-0.053761594
206	0xbc4c1bdf	-0.012457817
207	0xbc9b3c75	-0.018949727
208	0xbc991899	-0.018688487
209	0xbd02b3bd	-0.031909693
210	0xbc024651	-0.007951335
211	0x3c69eddd	0.014277902
212	0x3d253742	0.0403359
213	0xbd0b25de	-0.03397166
214	0x3c899fa0	0.016799748
215	0x3d027541	0.031850103
216	0x3d664f49	0.056227956
217	0x3e8c8dd9	0.2745197
218	0x3e96f425	0.29483142
219	0x3d10d179	0.03535602
220	0x3e8b9bc4	0.27267277
221	0x3bf02a96	0.0073292954
222	0xbeaad8ec	-0.33368623
223	0xbef40bde	-0.47665304
224	0xbe007422	-0.12544301
225	0xbb81fd11	-0.0039669354
226	0xbe8473a0	-0.25869465
227	0xbd42d0e3	-0.04756249
228	0xbda84bb7	-0.082175665
229	0x3b6dd2d1	0.0036288986
230	0xbd852204	-0.065006286
231	0xbe44db48	-0.19224274
232	0x3cc59908	0.024120823
233	0x3e3b4faa	0.18292108
234	0xbcaaebd6	-0.020864408
235	0x3d40730b	0.046984714
236	0x3daa2c0e	0.08309184
237	0x3d5b2e05	0.053510685
238	0xbcdee3e3	-0.027208274
239	0x3cfd5793	0.030925548
240	0x3e0dcfb8	0.1384877
241	0xbcd5368f	-0.026026992
242	0xbdfa7541	-0.12229396
243	0xbec45bea	-0.38351375
244	0xbed63038	-0.41833663
245	0xbecf3a0b	-0.4047397
246	0xbf3df010	-0.7419443
247	0xbf676e6e	-0.9040288
248	0xbf4958cf	-0.78651136
249	0xbf2453c4	-0.64190316
250	0xbf653fdc	-0.89550567
251	0xbf27e3f0	-0.6558218
252	0xbe918b20	-0.28426456
253	0xbe33db79	-0.17564191
254	0xbeab82ec	-0.33498323
255	0x3c5899f1	0.013220296

bias f4 [32]
0	0x3e88b709	0.26702145
1	0xbf8fb5a0	-1.1227303
2	0xbfaf6a11	-1.3704244
3	0x3fde7b99	1.7381469
4	0xbedfe416	-0.43728703
5	0xbec6c270	-0.3882022
6	0xc0081582	-2.1263127
7	0x3fd49409	1.6607677
8	0xbe825b0e	-0.25460094
9	0xbefed70a	-0.49773437
10	0x3f5429a0	0.82876015
11	0xbe63eae1	-0.22257568
12	0xbe9a8e52	-0.30186707
13	0x3eeef9dc	0.46675003
14	0xbf86de6e	-1.053663
15	0xbdadb6d1	-0.08482135
16	0x401c4d54	2.4422197
17	0x3fdb941c	1.7154574
18	0xbf7a2686	-0.9771503
19	0xbfa23dce	-1.2675111
20	0x402e7e56	2.726461
21	0x400da60b	2.2132595
22	0xbe7701b9	-0.24121751
23	0x3fa34803	1.2756351
24	0xbf1acedf	-0.6047191
25	0x3f5b232e	0.85600555
26	0x3e3e13c1	0.18562223
27	0xbe93bddd	-0.28855792
28	0xbf36ad48	-0.71358156
29	0x3f86a526	1.0519149
30	0xbf289b6f	-0.6586217
31	0x3f810892	1.008074

weight f4 [16, 32, 3, 3]
0	0xbf3d6f2e	-0.7399777
1	0xbeff35c6	-0.49845713
2	0x3e460843	0.19339089
3	0xbf0e967d	-0.55698377
4	0xbd506001	-0.050872806
5	0xbfec46dc	-1.8459125
6	0xbf0abc2c	-0.5419338
7	0xbe3dcce5	-0.18535192
8	0xbf062f1f	-0.5241565
9	0xbfd1c5d2	-1.6388495
10	0xbf406157	-0.7514853
11	0xbf59f488	-0.8513875
12	0xbfdb8b56	-1.7151897
13	0xbe5e97d3	-0.21737604
14	0xbf73f424	-0.95294404
15	0xbfae2bcb	-1.3607115
16	0xbf01c858	-0.50696325
17	0xbe986eb0	-0.29771948
18	0xbf9aec1a	-1.2103302
19	0xbf115050	-0.5676317
20	0xbdf17da2	-0.11791541
21	0xbf3e59f1	-0.7435599
22	0xbf2ef7e3	-0.68346995
23	0x3f4252e3	0.75907725
24	0xbf9ac95d	-1.2092701
25	0x3e1fe168	0.1561333
26	0xbf9447d8	-1.1584425
27	0x3ee9e0bd	0.45679274
28	0x3f82dc8d	1.0223557
29	0xbf9a9fcd	-1.2080017
30	0xbeebe366	-0.4607193
31	0xbf7d0a6a	-0.98844016
32	0xbf7c1610	-0.98471165
33	0xbd8a27a3	-0.06745841
34	0x3f27feec	0.65623355
35	0xbe9fd853	-0.3121973
36	0xbd946751	-0.072462685
37	0xbbd8f874	-0.006621415
38	0xbd84d1d6	-0.064853355
39	0xbd5d80b1	-0.054077808
40	0x3e279c35	0.16368182
41	0x3e35b6ed	0.17745562
42	0x3ca2a588	0.019854322
43	0xbd9f3440	-0.07773638
44	0xbe58de90	-0.21178651
45	0x3e605f17	0.21911274
46	0x3dacbb98	0.08434218
47	0xbf869adc	-1.0516009
48	0xbe85c1c4	-0.26124394
49	0x3d764e1b	0.06013308
50	0xbf833784	-1.0251317
51	0xbee5dd65	-0.44895473
52	0xbc4f1633	-0.01263957
53	0x3e761495	0.24031289
54	0x3df5f824	0.1201022
55	0xbf3224e7	-0.6958756
56	0xbc4c192b	-0.012457172
57	0x3d92364b	0.07139262
58	0x3e921992	0.28535134
59	0xbe3e1cc0	-0.18565655
60	0x3e648636	0.22316822
61	0xbd8d6ef6	-0.0690593
62	0xbc7a044c	-0.0152598135
63	0x3f1e6371	0.61870486
64	0x3eda561a	0.42643815
65	0x3f03fdbb	0.51559037
66	0xbf1de7aa	-0.61681616
67	0xbeeb9e9d	-0.4601945
68	0xbfb01575	-1.3756548
69	0xbe932afb	-0.2874373
70	0xbeb1bdaa	-0.34715015
71	0xbe9e9887	-0.30975744
72	0xbede0c7f	-0.4336891
73	0xbee64c9d	-0.44980326
74	0x3ed7f012	0.42175347
75	0xbef7c281	-0.48390582
76	0xbfafc3aa	-1.3731587
77	0xbf5ebc06	-0.8700565
78	0xbe11603b	-0.14196865
79	0xbf28fc7e	-0.6601027
80	0xbfb86ee2	-1.4408839
81	0xbd98c561	-0.07459522
82	0xbbc7ac71	-0.0060935547
83	0xb9a7e53b	-0.00032023512
84	0xbaefc0de	-0.0018291732
85	0xbd9c4eca	-0.07632215
86	0x3e062772	0.13100985
87	0x3e207a02	0.15671542
88	0xbdb3f874	-0.08787623
89	0x3ea28e02	0.31748968
90	0xbe4f2888	-0.20230305
91	0x3e51b7f2	0.20480326
92	0x3d77fe9b	0.060545545
93	0x3dbb7bf6	0.09154503
94	0xbdd62990	-0.10457146
95	0xbe577765	-0.21041639
96	0xbe5f8f7e	-0.21832082
97	0xbd9b8752	-0.0759417
98	0xbd2a206f	-0.041534837
99	0xbd844897	-0.06459158
100	0x3de4da19	0.11174411
101	0xbd9c0760	-0.07618594
102	0xbd2ba391	-0.041904036
103	0xbc183531	-0.009290026
104	0x3d1e9456	0.038715683
105	0xbda8a835	-0.08235208
106	0xbd03516e	-0.03206008
107	0xbd919388	-0.071082175
108	0xbf06e2e1	-0.5268994
109	0xbe3cb63a	-0.18428889
110	0xbe1a5aa6	-0.15073642
111	0x3edebfe2	0.4350577
112	0xbf15bc12	-0.584901
113	0x3e70649d	0.23475881
114	0xbf1b5c5f	-0.6068782
115	0xbe0a9959	-0.1353506
116	0xbea1e124	-0.3161708
117	0xbe4f3a95	-0.20237191
118	0xbd2adcdc	-0.041714534
119	0x3dfc750d	0.12327013
120	0xbed0a4bf	-0.4075069
121	0xbed5cdac	-0.41758478
122	0xbe65566c	-0.22396249
123	0x3ecb0dac	0.39658868
124	0x3d34b67f	0.044119354
125	0x3e872103	0.26392373
126	0xbc88c39b	-0.016694834
127	0xbe8fb130	-0.2806487
128	0xbdfc909c	-0.123322695
129	0x3e0e8f93	0.13921957
130	0xbdbd89a7	-0.09254771
131	0xbdf3ecba	-0.119103864
132	0xbe017eec	-0.12646073
133	0xbd84691e	-0.06465362
134	0xbe16759a	-0.14693299
135	0xbdb96623	-0.09052684
136	0x3f18bd81	0.5966416
137	0x3d9911ed	0.07474122
138	0x3f14d7c6	0.58141744
139	0x3e31ac21	0.17350818
140	0x3b2fbd8e	0.0026815864
141	0x3dc838c5	0.09776453
142	0xbe3f3c37	-0.18675314
143	0xbde05a56	-0.1095473
144	0xbe1e6d8d	-0.15471478
145	0xbf64bda5	-0.89351875
146	0xbfe1ffc5	-1.765618
147	0xbe6b3fa9	-0.22973503
148	0x3e9eb347	0.30996153
149	0x3cda6305	0.026658544
150	0x3f2396f6	0.63902223
151	0x3f435eef	0.7631673
152	0xbe7770f2	-0.24164179
153	0xbd821209	-0.06351096
154	0xbeec20ab	-0.46118674
155	0xbf867b1a	-1.0506318
156	0xbf283324	-0.65703034
157	0xbf4689ab	-0.77553815
158	0xbffafe21	-1.9608804
159	0xbf03b6b9	-0.5145069
160	0xbf8ab365	-1.0835997
161	0xbf987772	-1.1911452
162	0xbfb958c9	-1.448022
163	0xbeebd775	-0.46062818
164	0xbf3738fe	-0.7157134
165	0xbf9843ad	-1.1895653
166	0xbe6c0523	-0.23048835
167	0xbe5f7018	-0.21820104
168	0xbecb02be	-0.3965053
169	0xbf16ffc8	-0.5898404
170	0xbdbc57a6	-0.09196405
171	0xbfeb4440	-1.8380203
172	0xbf922fad	-1.14208
173	0xbf1dcb16	-0.6163801
174	0x3e1d4a7d	0.15360446
175	0xbf2e7134	-0.68141484
176	0xbdeb18d8	-0.11479348
177	0xbf633840	-0.88757706
178	0xbe4034c5	-0.1877013
179	0x3f59a7b5	0.85021526
180	0xbe83d18d	-0.25745812
181	0xbecbd894	-0.39813673
182	0xbf005087	-0.50122875
183	0x3dcf0ec5	0.10110239
184	0x3ee61e70	0.44945097
185	0x3ee2770a	0.44231445
186	0x3ed256ed	0.41081944
187	0xbe2fe2a6	-0.17176303
188	0x3e7ad632	0.24495772
189	0xbe2487bf	-0.16067408
190	0xbd6abbe4	-0.057308093
191	0xbf993433	-1.1969055
192	0xbe9ce0a9	-0.30640152
193	0xbfb4d143	-1.4126362
194	0xbfb71c9b	-1.4305605
195	0xbddc1966	-0.10747032
196	0xbf8f34ee	-1.1188028
197	0xbf0caaf6	-0.54948366
198	0xbe638f75	-0.22222693
199	0xbd4d8055	-0.050171215
200	0xbdc63b6e	-0.09679304
201	0xbe695648	-0.2278682
202	0xbc76eacb	-0.015070627
203	0x3c5ef41c	0.013608005
204	0xbcbc0d29	-0.022955494
205	0x3e012da1	0.12615062
206	0xbdad9647	-0.08475929
207	0xbe2d9259	-0.16950358
208	0xbfa58dcc	-1.2933898
209	0xbfec5adb	-1.8465227
210	0x3df35f77	0.11883443
211	0x3ede1230	0.4337325
212	0xbf0fab03	-0.5612032
213	0xbdf7b966	-0.12095909
214	0x3ec30630	0.38090658
215	0xbef064c5	-0.4695188
216	0xbe69af8e	-0.22820875
217	0xbbf65136	-0.0075170053
218	0xbe55616d	-0.20837946
219	0x3bcbb890	0.00621707
220	0xbebf4351	-0.37356046
221	0xbef810b6	-0.4845025
222	0xbe8a1c49	-0.26974705
223	0x3d80ca7d	0.062886216
224	0xbdf05172	-0.117342845
225	0xbda827b7	-0.082107
226	0xbe69fdde	-0.22850749
227	0x3d95fe45	0.07323889
228	0xbcb2baa0	-0.021817505
229	0xbf1df4d9	-0.6170173
230	0xbe20ba21	-0.15696003
231	0x3d8c95c9	0.06864507
232	0xbedfc50d	-0.43705025
233	0xbdc6181c	-0.09672567
234	0xbf08ce35	-0.53439647
235	0xbf9299ae	-1.1453149
236	0xbf0d9896	-0.5531095
237	0xbea84b03	-0.3286973
238	0x3d93f6c0	0.07224798
239	0x3f9c1fb7	1.2197179
240	0x3efc45ab	0.49271902
241	0x3efeafa0	0.49743366
242	0xbf286573	-0.657798
243	0xbe165072	-0.14679125
244	0x3e85b36a	0.26113445
245	0xbf030b52	-0.5118915
246	0xbda0daa7	-0.078542046
247	0x3e2fd45b	0.17170851
248	0xbe72ade7	-0.23699151
249	0xbe4193fb	-0.18904106
250	0xbe28c107	-0.16479884
251	0xbe6868a1	-0.22696163
252	0xbd11ede5	-0.035627265
253	0xbd01e370	-0.031711042
254	0xbd12e944	-0.03586699
255	0xbd19c6be	-0.03754305

bias f4 [16]
0	0x3f45351a	0.7703415
1	0x40023d74	2.0350008
2	0xbe54f0c6	-0.20794973
3	0xbe70ece4	-0.23527867
4	0x3fa44d25	1.2836043
5	0xbe5d35d4	-0.21602565
6	0xbd672734	-0.05643387
7	0x3f03ae19	0.51437527
8	0x3ee554e9	0.44791344
9	0x3f958994	1.168261
10	0xbe1029d4	-0.14078456
11	0xbf8ad1d7	-1.0845288
12	0xbe33d878	-0.17563045
13	0x3fd5bae8	1.6697664
14	0xbf06cd1f	-0.5265674
15	0xbe61c862	-0.22049096

weight f4 [64, 16, 7, 7]
0	0xbfbef760	-1.4919243
1	0xbe9a64c1	-0.30154994
2	0x3db832f0	0.089940906
3	0xbf2641fa	-0.6494442
4	0xbe476be2	-0.19474748
5	0xbf1c380d	-0.61023027
6	0x3d8edd80	0.069758415
7	0xbf402fe1	-0.7507306
8	0xbfe4e97e	-1.7883756
9	0x3e0d233e	0.13782975
10	0xbf622975	-0.8834451
11	0x3e807378	0.25088096
12	0x3f20af80	0.6276779
13	0xbece5db6	-0.4030587
14	0x3db17576	0.08664982
15	0xbe67a769	-0.22622456
16	0x3f3d6d32	0.73994744
17	0xbec2f67a	-0.38078672
18	0xbec57a91	-0.38570073
19	0x3e1110cc	0.14166564
20	0xbe3c7a11	-0.1840594
21	0x3eca325f	0.39491555
22	0x39611500	0.00021465495
23	0x3eb3e93f	0.3513889
24	0x3c858d32	0.016302679
25	0x3e2535ef	0.16133855
26	0xbf6d23e8	-0.92632914
27	0x3eb5e8fd	0.35529318
28	0xbf56556c	-0.83724093
29	0x3f2945d4	0.66122174
30	0x3c755bbe	0.014975486
31	0x3e1b7fe0	0.15185499
32	0x3f245645	0.64194137
33	0xbe76d47c	-0.24104494
34	0xbf1d0c9f	-0.61347383
35	0x3f982159	1.1885177
36	0x3e665387	0.224928
37	0xbee6ed12	-0.45102745
38	0xbe924f15	-0.2857596
39	0x3f94a729	1.1613513
40	0xbeedc6ca	-0.46440727
41	0xbf391f16	-0.7231306
42	0x3e8ae4e7	0.27127764
43	0x3cd2b1b2	0.025719497
44	0xbf4f8c54	-0.810735
45	0x3e7d5970	0.24741149
46	0x3e0a847d	0.13527103
47	0xbfd229cc	-1.6419005
48	0xbf486ad0	-0.7828798
49	0xbd379507	-0.044819858
50	0xbedd8f7e	-0.43273538
51	0x3e957fef	0.29199168
52	0x3f430a9a	0.7618805
53	0x3f63f719	0.89048916
54	0x3ea40a63	0.32039174
55	0xbf1bc711	-0.60850626
56	0xbfd5031c	-1.6641574
57	0xc01bdeb7	-2.4354684
58	0xbf9360e6	-1.1513946
59	0xbe94d2cd	-0.29067078
60	0x3f8f6647	1.1203088
61	0xbea03fe2	-0.3129874
62	0xbf303b4f	-0.688405
63	0xbf9fc310	-1.2481403
64	0xc00abb74	-2.1676912
65	0xbe14216e	-0.14465877
66	0x3f2da94b	0.67836446
67	0x3fcfd5c3	1.623711
68	0xbde97980	-0.114001274
69	0xbfed357f	-1.8531951
70	0xbeddedb0	-0.43345404
71	0xbfaf864b	-1.3712858
72	0x3e997fc0	0.29980278
73	0x3f5e605f	0.868658
74	0x3f8a8652	1.0822241
75	0x3f1097cb	0.5648162
76	0x3e006a5f	0.12540577
77	0x3f21d0aa	0.6320902
78	0xbe95f22c	-0.29286325
79	0xbea09ab1	-0.3136802
80	0x3f2a32c8	0.66483736
81	0x3f4be2ac	0.7964275
82	0xbf94e21d	-1.1631504
83	0xbf527a23	-0.82217616
84	0x3ebbecda	0.3670414
85	0xbe13ed4b	-0.14445989
86	0xbedbc6aa	-0.42925006
87	0xbf2ba18d	-0.6704338
88	0x3e13df03	0.14440541
89	0xbf82263b	-1.0167917
90	0xbf15cce4	-0.58515763
91	0x3ea640af	0.32471225
92	0xbf85ff10	-1.0468464
93	0xbf855091	-1.0415212
94	0xbfe71547	-1.8053368
95	0xbeae0cb7	-0.33994076
96	0x3f17ae10	0.59249973
97	0x3f9b06b4	1.2111421
98	0xbdcb1b5f	-0.0991733
99	0x3d84a816	0.06477372
100	0x3d02f996	0.031976305
101	0x3dbb2a80	0.091389656
102	0x3d9ee840	0.07759142
103	0x3cd068f5	0.025440672
104	0x3d04db7b	0.032435875
105	0xbd8aadb9	-0.06771416
106	0x3db31d79	0.08745856
107	0x3d8bc5bf	0.068248264
108	0x3d78ae03	0.060712826
109	0x3d4f56e3	0.05061997
110	0x3cd37dfd	0.025816912
111	0x3db70dec	0.08938202
112	0xbdb2c987	-0.087298445
113	0x3d0ad328	0.03389278
114	0x3d833bff	0.06407928
115	0x3db1fb26	0.08690481
116	0x3d98fc19	0.07469959
117	0x3d4d52e0	0.050127864
118	0x3d8ca64c	0.06867656
119	0xbd62924c	-0.0553153
120	0x3cd98f43	0.02655757
121	0x3d38b16d	0.04509108
122	0x3d2b666e	0.04184573
123	0x3d8d3443	0.06894734
124	0x3d1730d6	0.036911808
125	0x3d8a9e7e	0.06768511
126	0xbdda8409	-0.10669715
127	0x3cc7fa0f	0.02441123
128	0x3d316854	0.043312386
129	0x3da7d50d	0.08194933
130	0x3dbfbffe	0.093627915
131	0x3d13097d	0.03589772
132	0x3d7ccc3e	0.061718218
133	0xbd56606e	-0.052338056
134	0x3ccf18c1	0.025280358
135	0x3d339d0b	0.04385094
136	0x3dc25e72	0.0949067
137	0x3d8e4ab7	0.069478445
138	0x3d462652	0.04837639
139	0x3dab32da	0.083593085
140	0x3e272b96	0.1632522
141	0x3cce18b9	0.025158273
142	0x3ce9d332	0.028543089
143	0x3db583aa	0.088630036
144	0x3d00d0f5	0.031449277
145	0x3d178784	0.036994472
146	0x3d71a221	0.05899251
147	0x3eec767a	0.4618414
148	0x3dc9c876	0.09852688
149	0x3c9f5cde	0.019453462
150	0x3c7a0a76	0.015261283
151	0xbe00c1f8	-0.12573993
152	0x3d612807	0.054969814
153	0xbf22b689	-0.63559777
154	0xbda41aca	-0.08012922
155	0x3e25d81e	0.16195723
156	0x3e57ff90	0.21093583
157	0x3c1b67bb	0.0094851805
158	0x3d8c637f	0.06854915
159	0xbd54685a	-0.05185733
160	0xbe9b879a	-0.30376893
161	0x3d5696d9	0.052389953
162	0xbe1454fa	-0.14485541
163	0xbb201d22	-0.0024431427
164	0xbd8f9a88	-0.07011896
165	0xbd43a20e	-0.04776197
166	0xbd81c6fc	-0.063367814
167	0xbefd8b29	-0.49520233
168	0x3e967d6d	0.29392567
169	0xbdff6580	-0.124705315
170	0xbec138bb	-0.37738594
171	0xbcb3e3fe	-0.021959301
172	0xbe0175f0	-0.12642646
173	0xbe231552	-0.15926102
174	0xbd1f2d9c	-0.038861856
175	0xbe44c0f7	-0.19214235
176	0xbcaa5954	-0.020794548
177	0x39d8bf3c	0.0004134121
178	0x3b3aeb05	0.002852143
179	0xbe1eb30f	-0.15497993
180	0x3e4bcd59	0.19902553
181	0xbe516e38	-0.20452201
182	0x3c7e2680	0.015512109
183	0x3e04fa08	0.12986004
184	0x3b7e646d	0.0038817183
185	0x3e77f99c	0.24216312
186	0x3d5f1b81	0.05446959
187	0x3d098774	0.033576444
188	0xbe27113c	-0.16315168
189	0x3cfe107e	0.031013723
190	0xbd308765	-0.043097872
191	0xbc7a0467	-0.015259839
192	0x3d626f05	0.055281658
193	0xbe487985	-0.19577606
194	0x3c897632	0.016779993
195	0xbecf96e5	-0.4054481
196	0xbc36e2b4	-0.011162449
197	0x3e1d9152	0.15387467
198	0x3ed7a599	0.42118528
199	0x3d113773	0.03545327
200	0x3ed01d4b	0.4064735
201	0xbdc887f0	-0.09791553
202	0x3ddffc91	0.10936845
203	0xbd41f966	-0.047356986
204	0x3deb0021	0.11474634
205	0x3d8bbc2f	0.068230025
206	0xbd8ce1c2	-0.068789974
207	0x3eadee62	0.33970934
208	0xbe6ae771	-0.2293985
209	0x3e814bbc	0.25253093
210	0xbe43e327	-0.1912962
211	0x3dc05500	0.093912125
212	0x3ea7b3b1	0.3275428
213	0x3e3483c6	0.17628393
214	0x3e88b0bb	0.26697335
215	0x3c79475c	0.015214767
216	0x3ed4dad4	0.41573203
217	0x3dd9b09d	0.106293894
218	0xbea8f915	-0.33002535
219	0x3e9094ba	0.2823847
220	0xbdad6c26	-0.08467893
221	0x3d231c24	0.03982176
222	0xbaeee68e	-0.001822667
223	0x3d14f568	0.03636685
224	0xbdff7f55	-0.124754585
225	0x3ccf8d8e	0.025336053
226	0xbe7b236e	-0.24525234
227	0xbeeee255	-0.46657053
228	0xbd9cfb49	-0.07665116
229	0xbc8910d9	-0.016731666
230	0x3c39cdf2	0.011340605
231	0x3ce50e5c	0.027960949
232	0x3e44a016	0.19201693
233	0xbce9a54c	-0.028521203
234	0xbc15b67b	-0.009137745
235	0xbb301896	-0.0026870123
236	0xbdd8632f	-0.10565793
237	0x3e0c4015	0.1369632
238	0x3f0eeb40	0.55827713
239	0x3e8e6fbb	0.2781962
240	0x3e0bf58e	0.1366789
241	0xbe2b92b4	-0.16755182
242	0x3d38e2bf	0.045138117
243	0xbe698100	-0.22803116
244	0xbe1287a3	-0.14309554
245	0x3d8450cb	0.064607225
246	0xbb292972	-0.0025812057
247	0x3d636cc2	0.05552364
248	0x3d703ec5	0.05865361
249	0x3d700947	0.058602598
250	0x3d5c9ce6	0.053860568
251	0xbc32e491	-0.010918752
252	0x3d783636	0.060598575
253	0x3da58c00	0.080833435
254	0x3e385b60	0.18003607
255	0xbd355eed	-0.04427998

bias f4 [64]
0	0x3de20d12	0.11037649
1	0xbf2a38af	-0.6649274
2	0x3f565f1f	0.83738893
3	0xbf8752b6	-1.0572116
4	0x3f83999a	1.028125
5	0xbf4f4ad4	-0.80973554
6	0x3f22a46f	0.63532156
7	0x3f247100	0.64234924
8	0x3f49a774	0.7877114
9	0xbf1d05ef	-0.6133718
10	0xbf1b56aa	-0.60679114
11	0xbe84c869	-0.2593415
12	0xbf78d9c1	-0.97207266
13	0x3ef46f29	0.47741058
14	0x3f8d71e6	1.1050384
15	0xbf20212e	-0.6255063
16	0x3e3dcfd4	0.18536311
17	0x3d7a7d86	0.061154865
18	0x3f288a91	0.65836436
19	0x3cd07b9e	0.02544957
20	0x3f046625	0.5171836
21	0xbf5c5ebf	-0.8608207
22	0x3e745614	0.23860961
23	0xbd23ec2b	-0.04002015
24	0x3e01cfb2	0.12676886
25	0xbf298613	-0.66220206
26	0x3ea811e4	0.3282615
27	0x3f9004f2	1.1251509
28	0xbfa46f10	-1.2846394
29	0xbf35e490	-0.71051884
30	0x3e8220c7	0.25415632
31	0xbf6d8c47	-0.9279217
32	0x3f26986a	0.65076315
33	0xbee41b26	-0.44551963
34	0x3f0c98b3	0.549205
35	0x3f96df9a	1.1786988
36	0xbee6a4a2	-0.4504748
37	0x3eab896c	0.33503282
38	0x3f7101a5	0.94143134
39	0xbcf2757b	-0.029597035
40	0x3edcd4ec	0.43131196
41	0xbe97f462	-0.29678637
42	0xbecaac52	-0.39584595
43	0x3f6a4a79	0.91519886
44	0xbe9104b0	-0.2832389
45	0x3f4d4f56	0.8019918
46	0x3dcd767e	0.10032366
47	0xbecf9ea2	-0.40550715
48	0x3f25048c	0.64460063
49	0x3f0d7af3	0.5526573
50	0xbefd0ed2	-0.4942537
51	0x3e6fef08	0.23431027
52	0x3e1c6457	0.15272652
53	0xbe302c1f	-0.17204331
54	0xbef201e3	-0.47267064
55	0x3f105c8e	0.5639123
56	0xbf4f26f8	-0.80918837
57	0x3e9c56d6	0.30535
58	0xbde8c1eb	-0.11365112
59	0x3ea9b6ea	0.33147365
60	0x3f54ea50	0.8317003
61	0xbf0f3dbd	-0.5595358
62	0x3e108742	0.14114097
63	0xbf5c450d	-0.86042863

weight f4 [64, 16, 7, 7]
0	0x3e2bcee1	0.16778137
1	0x3f238fef	0.638915
2	0x3ceb04be	0.028688785
3	0xbeab0704	-0.3340379
4	0xbe7f9193	-0.24957876
5	0x3e71fb8b	0.23631112
6	0x3e61bebd	0.22045417
7	0x3eb5b606	0.35490435
8	0x3ef5c4ca	0.480017
9	0x3e23bd11	0.15990092
10	0x3d95a765	0.073073186
11	0xbdd7ca9b	-0.10536691
12	0xbe3127dd	-0.17300363
13	0xbe94b2c5	-0.2904264
14	0x3e99919b	0.299939
15	0x3ec53e9f	0.3852434
16	0xbd488881	-0.048958305
17	0x3cad86a1	0.02118236
18	0x3e520026	0.20507869
19	0x3d9b8e75	0.07595531
20	0xbe977516	-0.29581517
21	0x3e78a9aa	0.24283472
22	0x3eb722f2	0.3576885
23	0x3ebf5793	0.373715
24	0xbe659907	-0.22421657
25	0x3da2e488	0.07953745
26	0x3eea80a0	0.45801258
27	0x3d0efbfd	0.034908284
28	0x3cebe8ee	0.028797593
29	0x3e210eb4	0.15728265
30	0x3e46dd2f	0.19420312
31	0x3eabcd18	0.33554912
32	0x3d58bdd9	0.052915428
33	0xbed2422d	-0.41066113
34	0xbdca5f21	-0.09881426
35	0xbe2fd726	-0.17171916
36	0x3cc2bf20	0.023772776
37	0xbe02fb9b	-0.12791292
38	0x3e73c568	0.23805773
39	0xbd61fe54	-0.055174187
40	0xbef75299	-0.48305205
41	0xbdc46b25	-0.09590749
42	0xbdf99fc8	-0.12188679
43	0xbe401eff	-0.18761824
44	0x3dfb5095	0.12271229
45	0xbd078116	-0.03308209
46	0x3eb07ca4	0.34470093
47	0x3db7362f	0.089458816
48	0x3dcc7d49	0.09984834
49	0xbf4ce4ad	-0.8003643
50	0xbf71edbd	-0.94503385
51	0x3de770b2	0.11300792
52	0xbd1e53bb	-0.03865407
53	0xbe9fc08b	-0.31201586
54	0xbd886b46	-0.06661086
55	0xbe2ee274	-0.17078573
56	0xbea105d5	-0.31449762
57	0xbe1d91a0	-0.15387583
58	0xbca40ced	-0.020025695
59	0xbe1b4a22	-0.15164998
60	0xbf1fb2ca	-0.62382185
61	0x3e70147e	0.23445317
62	0x3e12362f	0.14278482
63	0xbd7ee672	-0.06223149
64	0xbe515c5d	-0.2044539
65	0xbe264c4b	-0.16240041
66	0xbefafc07	-0.49020407
67	0xbe53ab12	-0.20670727
68	0x3e22ea93	0.15909795
69	0x3cfda084	0.030960329
70	0x3e4c2dea	0.1993939
71	0xbee34411	-0.44387868
72	0xbd4607e7	-0.04834738
73	0xbf210c0a	-0.62908995
74	0xbe27b7c1	-0.1637869
75	0xbee9ae56	-0.4564082
76	0x3dc77c77	0.09740537
77	0x3e84f0d2	0.2596498
78	0x3f00dd9e	0.5033816
79	0x3e861351	0.26186612
80	0x3dc22adb	0.0948083
81	0xbdec58d6	-0.115403816
82	0x3d7d92d9	0.061907623
83	0x3dcdc08d	0.10046492
84	0x3c0333e2	0.008007975
85	0xbdd79f86	-0.105284736
86	0xbb884e89	-0.0041597527
87	0x3e8e7f82	0.27831656
88	0xbf1b8456	-0.60748804
89	0xbebadf5d	-0.36498538
90	0x3d88288b	0.06648358
91	0xbd19fe20	-0.037595868
92	0x3defd861	0.11711193
93	0x3e077db9	0.13231553
94	0xbd8e3e2a	-0.069454506
95	0x3ec838f7	0.3910596
96	0xbd6d2b28	-0.057902485
97	0xbe04349b	-0.12910692
98	0xbf026754	-0.50938916
99	0xbe8e2080	-0.2775917
100	0x39217866	0.00015399008
101	0xbe1db5f1	-0.15401436
102	0xbf092759	-0.53575665
103	0xbdc1c069	-0.094605274
104	0x3eae45df	0.34037682
105	0xbf2f3593	-0.6844112
106	0xbe2904bb	-0.16505711
107	0xbe72f5fd	-0.2372665
108	0xbdfca688	-0.12336451
109	0xbeb69597	-0.35661003
110	0x3d913120	0.07089448
111	0x3dfaf3ba	0.122535184
112	0xbee10e13	-0.4395605
113	0x3e13e211	0.14441706
114	0xbe280415	-0.16407807
115	0x3c46e4b5	0.012139489
116	0xbebe7d8b	-0.37205157
117	0x3cb20ba6	0.02173407
118	0x3ec86f5c	0.3914746
119	0xbde0de6b	-0.10979923
120	0xbd0c95cc	-0.034322545
121	0x3e0f6670	0.1400392
122	0x3e4d648e	0.2005789
123	0x3db051e6	0.08609371
124	0xbe0eab2c	-0.13932484
125	0xbb51bb80	-0.0032002628
126	0x3e0d9f3d	0.13830276
127	0x3c07f21d	0.00829747
128	0x3d33f88c	0.043938205
129	0x3dc65f70	0.09686172
130	0xbd669092	-0.056290217
131	0x3e0cfe9c	0.13769001
132	0xbb067954	-0.0020519095
133	0xbe8da3cc	-0.2766403
134	0xbe57f4fb	-0.21089546
135	0x3e1474fc	0.14497751
136	0x3ef84d0f	0.4849629
137	0x3e87b826	0.26507682
138	0xbeb949d0	-0.36189127
139	0x3e82c629	0.2554181
140	0x3dc1a2fe	0.094549164
141	0xbe55e0b2	-0.20886496
142	0xbee1682f	-0.44024798
143	0x3db6ee75	0.08932201
144	0x3d4d4101	0.05011082
145	0x3e5a23ae	0.21302673
146	0x3ef5f8c1	0.48041347
147	0xbdefdd2b	-0.11712106
148	0xbf021383	-0.5081102
149	0xbdd86cfa	-0.10567661
150	0x3ed63918	0.41840434
151	0x3eb4bca7	0.3530018
152	0x3ed2821d	0.41114894
153	0x3ebfcf63	0.3746291
154	0xbe8e8b06	-0.2784044
155	0x3cb1b8c8	0.021694556
156	0xbf086f78	-0.5329509
157	0x3f0a8300	0.5410614
158	0x3e9c16f1	0.30486253
159	0xbea13633	-0.31486663
160	0xbe80a1ed	-0.2512354
161	0xbe8d1a60	-0.27559185
162	0xbe037209	-0.1283647
163	0xbe5d8d2e	-0.21635887
164	0x3ea8833c	0.32912624
165	0xbf01c74d	-0.50694734
166	0xbf7b7566	-0.9822601
167	0xbcd0b7ce	-0.02547827
168	0xbf6ed66b	-0.93295926
169	0xbef08c96	-0.4698226
170	0xbed97bf3	-0.42477378
171	0xbf4e0592	-0.8047725
172	0xbf2f1d29	-0.6840387
173	0xbd1c02e7	-0.038088705
174	0x3f64ea79	0.89420277
175	0xbf3250c2	-0.69654477
176	0xbfa4d596	-1.2877681
177	0xbf08785e	-0.53308666
178	0xbf3c16a4	-0.73472047
179	0xbf0bfe06	-0.54684484
180	0x3f0ee559	0.55818707
181	0x3e121aaa	0.14267984
182	0xbf98e928	-1.1946154
183	0xbf5bef00	-0.8591156
184	0x3cdd479c	0.027011685
185	0xbf1528e8	-0.58265543
186	0xbe0a35d0	-0.1349709
187	0xbe960395	-0.29299608
188	0x3ed813ae	0.42202514
189	0x3e854342	0.26027876
190	0x3e6f1eb2	0.23351553
191	0x3e96ca6c	0.2945131
192	0xbf365f4a	-0.7123915
193	0xbf1c98a0	-0.6117039
194	0xbec4f850	-0.38470697
195	0xbed34074	-0.4126011
196	0xbd7b16e7	-0.06130114
197	0x3ea21250	0.31654596
198	0x3ea93e18	0.33055186
199	0x3ebbfded	0.36717167
200	0x3f0ae9e6	0.5426315
201	0x3f162aa3	0.5865881
202	0xbf140c64	-0.57831407
203	0xbe8d9ae1	-0.27657226
204	0x3ecf52a2	0.4049273
205	0x3b30778c	0.0026926724
206	0x3f362740	0.7115364
207	0x3ea6c983	0.32575616
208	0x3efdc3a6	0.4956333
209	0x3e5f5178	0.21808422
210	0xbeacb695	-0.3373305
211	0x3e3d50af	0.1848781
212	0x3eee7248	0.46571565
213	0x3e629385	0.22126587
214	0x3c11f965	0.008909558
215	0x3efd228a	0.49440414
216	0x3e599437	0.21247946
217	0xbeaf887c	-0.34283817
218	0x3eca99d0	0.39570475
219	0x3f0288a7	0.50989765
220	0xbe29f790	-0.16598344
221	0xbcb2b055	-0.021812597
222	0xbecd0a70	-0.40047026
223	0x3f24ba3f	0.6434669
224	0xbdd4fc07	-0.10399633
225	0xbdb5ff18	-0.08886546
226	0x3ea222a4	0.31667054
227	0xbd569264	-0.052385703
228	0xbe1dc9f5	-0.15409072
229	0xbf218054	-0.6308644
230	0x3b4ebf03	0.0031546957
231	0xbf3426c4	-0.7037165
232	0xbd33e38b	-0.043918174
233	0xbddba090	-0.10723984
234	0x3f09d2e6	0.5383743
235	0xbdd877ad	-0.10569701
236	0x3d8d9b78	0.06914419
237	0xbd3702df	-0.044680472
238	0xbef2a2c8	-0.47389817
239	0xbe38481e	-0.1799626
240	0x3ec34d63	0.3814498
241	0x3f1e3c91	0.61811167
242	0xbd68b3c2	-0.056812055
243	0x3e5be217	0.21472965
244	0xbd98ab17	-0.07454508
245	0xbe2e1b50	-0.17002606
246	0xbfac4160	-1.3457451
247	0xbeae4f5d	-0.34044924
248	0x3c1ee25d	0.009697524
249	0x3ed3bc87	0.41354772
250	0x3f844a9a	1.0335267
251	0x3eddefc1	0.4334698
252	0xbf0b3aad	-0.5438641
253	0xbeb634fc	-0.355873
254	0xbec3cac0	-0.38240623
255	0x3e31d2f3	0.17365627

bias f4 [16]
0	0x3ddc67bd	0.10761974
1	0xbf5f267e	-0.8716811
2	0x3f9ff3f4	1.2496324
3	0xbf47aeee	-0.78001297
4	0x3fa17b6e	1.2615793
5	0xbf01260d	-0.50448686
6	0x3e17bc57	0.1481794
7	0x3fd20cb0	1.6410122
8	0xbfd23842	-1.6423419
9	0x3f8abb15	1.0838343
10	0x3fe27151	1.7690831
11	0x40082cfa	2.1277452
12	0x3fee879c	1.8635135
13	0x3fc0902f	1.5044001
14	0x3e79946f	0.24373029
15	0x3fbac42d	1.4591118

weight f4 [16, 32, 3, 3]
0	0x3d81ef4c	0.063444704
1	0xbeb8fd6c	-0.36130846
2	0xbebe119a	-0.37122804
3	0xbea43245	-0.32069603
4	0xbed57d02	-0.41696936
5	0x3c8238b0	0.015896171
6	0xbe2b11b1	-0.16705967
7	0xbf5d40d1	-0.86427027
8	0xbf75aed7	-0.9596991
9	0xbdd3fe37	-0.10351222
10	0xbf3edce9	-0.7455583
11	0xbf0cf8dd	-0.55067235
12	0xbedf491d	-0.43610469
13	0xbeb9fb78	-0.36324668
14	0xbf3b87b5	-0.7325395
15	0xbe82d679	-0.25554255
16	0xbe77c605	-0.24196632
17	0xbedf8e04	-0.43663037
18	0xbcacfa04	-0.02111531
19	0xbeb3083c	-0.3496722
20	0xbbb6dc16	-0.0055804355
21	0xbd2bfb8c	-0.04198794
22	0xbe26161e	-0.16219375
23	0x3c817a76	0.015805464
24	0xbce46d10	-0.027884036
25	0xbe49d2b4	-0.19709283
26	0x3c49d721	0.012319357
27	0xbd8e1bd8	-0.069389045
28	0xbeb096a6	-0.34489936
29	0xbd2fea02	-0.042947777
30	0xbe955e43	-0.29173478
31	0xbd3b6ab6	-0.045756064
32	0xbe98fa7e	-0.2987861
33	0xbdd0af9e	-0.10189746
34	0xbea2d255	-0.31801096
35	0xbda6be0d	-0.08141718
36	0xbdc7ef19	-0.09762401
37	0xbd6b9ac4	-0.057520643
38	0xbddaf98e	-0.1069213
39	0xbdf731ea	-0.12070067
40	0xbca8f0f3	-0.020622706
41	0xbda63580	-0.08115673
42	0xbcf690ae	-0.030098286
43	0xbd09e386	-0.03366425
44	0xbde912d0	-0.11380541
45	0xbd50ba55	-0.05095895
46	0xbeaf1639	-0.34196642
47	0x3d0b7820	0.034050107
48	0xbe43de43	-0.19127755
49	0xbdbca647	-0.092114024
50	0xbd7e9a40	-0.062158823
51	0xbe11eb62	-0.14249948
52	0xbebedfcb	-0.37280115
53	0xbdc5ae90	-0.09652436
54	0xbdb387e0	-0.087661505
55	0xbd170a21	-0.036874894
56	0xbd48ff39	-0.049071524
57	0xbda29f33	-0.07940521
58	0xbdda9e8e	-0.10674773
59	0xbd004de1	-0.03132427
60	0xbdd3410b	-0.1031514
61	0xbcd9e1a1	-0.026596846
62	0xbdb1d639	-0.08683438
63	0xbd1fca6b	-0.0390114
64	0xbb97d6d6	-0.0046337647
65	0xbdb015ec	-0.08597931
66	0xbd437b30	-0.047724903
67	0xbd9168dd	-0.07100079
68	0xbd593c0c	-0.05303578
69	0xbcfa589a	-0.030559827
70	0xbd8a1976	-0.067431375
71	0xbd84e779	-0.064894624
72	0x3db38d7d	0.08767221
73	0xbf2b1a18	-0.6683669
74	0x3d09059d	0.03345262
75	0x3cf37093	0.029716766
76	0xbda67140	-0.081270695
77	0xbd1d5698	-0.03841266
78	0x3d4fa62a	0.050695576
79	0xbe2d5a79	-0.16929044
80	0x3d55a086	0.05215504
81	0x3cbee7a2	0.02330381
82	0xbc70126e	-0.0146528315
83	0x3d84f948	0.06492859
84	0x3d9365fc	0.07197186
85	0x3e5ef412	0.21772793
86	0x3d930bfc	0.0718002
87	0x3d291041	0.041275267
88	0x3d0219f8	0.031763047
89	0x3d841fed	0.06451402
90	0xbfb10325	-1.3829085
91	0xbf1c361e	-0.61020076
92	0xbfe73599	-1.8063232
93	0xbec9b330	-0.39394522
94	0xbe8b570c	-0.2721485
95	0xbe5d35c1	-0.21602537
96	0xbf1f101d	-0.6213396
97	0xbef11fb3	-0.47094497
98	0xbd29ec0c	-0.041484877
99	0xbf5e2ed2	-0.8679019
100	0xbe794a13	-0.24344663
101	0xbf86908d	-1.0512863
102	0x3e0a92a7	0.13532506
103	0xbf49e6c6	-0.7886776
104	0xbe57eeb5	-0.21087153
105	0xbf4cbd54	-0.7997639
106	0xbf4fec50	-0.8121996
107	0xc017f8db	-2.374564
108	0xbe89e282	-0.26930624
109	0xbe863013	-0.26208553
110	0xbe8d76a4	-0.27629578
111	0xbea55ae3	-0.32295904
112	0xbeecbf04	-0.46239483
113	0xbeaf72dd	-0.3426732
114	0xbe8698d6	-0.2628848
115	0xbd649ff0	-0.05581659
116	0xbf1a83e2	-0.6035749
117	0xbe891d33	-0.2678009
118	0xbea1fc11	-0.31637624
119	0xbdcc436f	-0.099737994
120	0xbe8c51c7	-0.2740614
121	0xbe662ea3	-0.22478728
122	0xbe5d54c8	-0.21614373
123	0xbe0e86be	-0.13918588
124	0xbebdc6d8	-0.37065768
125	0xbe9fbba2	-0.3119784
126	0xbe3e04be	-0.18556497
127	0x3d5577ca	0.052116193
128	0xbd43b652	-0.047781296
129	0x3da727f8	0.0816192
130	0x3cab7b50	0.020932823
131	0x3e08ce93	0.13360052
132	0xbedd209b	-0.43188938
133	0xbe5425ac	-0.20717496
134	0x3d3fc8d2	0.046822377
135	0xbe590de9	-0.21196713
136	0xbe186baf	-0.14884828
137	0xbe1a8b84	-0.15092283
138	0xbf24d4f9	-0.6438747
139	0x3d2d6ae9	0.042338286
140	0xbf90a8f7	-1.1301564
141	0xbe127a7f	-0.14304541
142	0xbdc96295	-0.09833256
143	0xbdf11aac	-0.117726654
144	0xc0216e83	-2.52237
145	0xbc37f3a6	-0.011227524
146	0xbf7c0b3b	-0.98454636
147	0xbefe1191	-0.49622777
148	0xbc3d68e8	-0.011560656
149	0xbee4cc43	-0.4468709
150	0xbf01b4cb	-0.50666493
151	0xbc4b30c8	-0.012401767
152	0xbf65cb95	-0.89763767
153	0xbef62852	-0.48077637
154	0xbea9ca10	-0.33161974
155	0xbf1aea37	-0.60513633
156	0xbeebd128	-0.4605801
157	0xbee9059a	-0.45512086
158	0xbe88dbbb	-0.2673014
159	0xbf84c719	-1.037326
160	0xbea5ee8f	-0.32408568
161	0xbf1c28b6	-0.6099962
162	0xbb7cebd4	-0.0038592713
163	0xbd95ebe4	-0.07320383
164	0x3d086170	0.03329605
165	0x3cb944fe	0.022615906
166	0xbe828c77	-0.2549779
167	0x3ddab729	0.10679466
168	0x3c0dae4e	0.0086475145
169	0xbe5cbc9f	-0.21556328
170	0x3d65f741	0.056144003
171	0xbf5410d8	-0.828382
172	0xbe008f2f	-0.1255462
173	0xbd17d99c	-0.037072763
174	0xbf389e6a	-0.7211672
175	0xbf091d49	-0.5356031
176	0x3e0df8f1	0.13864495
177	0xbe88fadd	-0.26753893
178	0xbb94294d	-0.004521525
179	0x3d9ce69f	0.07661175
180	0x3e145241	0.14484502
181	0xbf25f3aa	-0.64824927
182	0xbe78bdc9	-0.24291147
183	0xbf7f4bb7	-0.99724907
184	0xbf15ff9c	-0.58593154
185	0xbef5e7d2	-0.48028427
186	0xbe932a6b	-0.287433
187	0xbf0912f3	-0.5354454
188	0xbe2cdf0f	-0.16881965
189	0xbc39873d	-0.011323747
190	0xbddddeba	-0.10833497
191	0xbd7bdd04	-0.061490074
192	0xbd7e41b2	-0.06207437
193	0xbddabefe	-0.1068096
194	0xbd1b183f	-0.03786492
195	0xbb220ac8	-0.0024725664
196	0xbd394255	-0.045229275
197	0xbcedf089	-0.02904536
198	0xbf74676d	-0.95470315
199	0xbf0df421	-0.55450636
200	0xbe3d4b7d	-0.18485828
201	0xbeb8d5da	-0.36100656
202	0xbf7bfd71	-0.98433596
203	0xbe9ce170	-0.30640745
204	0xbef7a4fe	-0.48368067
205	0xbe9f1450	-0.31070185
206	0xbea2ae6a	-0.31773692
207	0xbf0532eb	-0.5203082
208	0xbef76265	-0.48317257
209	0xbdfc844d	-0.12329922
210	0xbec5e16c	-0.38648546
211	0xbeb9b31b	-0.3626946
212	0xbdec6c34	-0.115440756
213	0xbea52e77	-0.32262012
214	0xbea66f0a	-0.3250659
215	0xbda5c373	-0.080939196
216	0xbfd81084	-1.688004
217	0xbf470423	-0.7774069
218	0xbf7cfe14	-0.9882519
219	0xbf88f5d5	-1.0700022
220	0xbfd6e8bc	-1.6789775
221	0xbefdf53e	-0.49601167
222	0xbfa5a49c	-1.294086
223	0xbfb40003	-1.4062504
224	0xbf95b20e	-1.1694963
225	0xbe0b320f	-0.13593315
226	0xbe857953	-0.26069126
227	0x3cc1a315	0.023637334
228	0xbdc53778	-0.096297204
229	0xbf8e6434	-1.112433
230	0xbd6f7ded	-0.0584697
231	0xbeb37ec6	-0.35057658
232	0xbf161199	-0.586206
233	0xbe40cb3f	-0.18827532
234	0xbfbe94c6	-1.4889152
235	0xbe67e776	-0.22646889
236	0xbe9a0f12	-0.30089623
237	0xbd8b05ac	-0.06788191
238	0xbea62fbe	-0.324583
239	0xbdd0c746	-0.101942584
240	0xbf84f209	-1.0386363
241	0xbf3fc9e3	-0.7491743
242	0xbecc34f5	-0.39884153
243	0xbf65f099	-0.8982025
244	0xbf3028f0	-0.68812466
245	0xbf5554fe	-0.8333281
246	0xbe7e3961	-0.24826576
247	0xbf604537	-0.87605613
248	0xbe88c7dc	-0.2671498
249	0xbf19ee87	-0.6012959
250	0xbead2392	-0.338162
251	0xbee1dd68	-0.44114232
252	0x39f279c4	0.0004624856
253	0xbdbabcda	-0.09118052
254	0x3e01ed98	0.12688291
255	0xbf3f1857	-0.74646515

bias f4 [32]
0	0x3f334ed3	0.7004215
1	0x40c11ea7	6.0349917
2	0x3ff59701	1.9186708
3	0xbeb8ea9f	-0.36116502
4	0xbd9ec067	-0.077515416
5	0x40a2b656	5.084758
6	0xbd082ef9	-0.03324792
7	0xbd702ed1	-0.058638398
8	0x3fd5045e	1.6641958
9	0x3f909be9	1.129758
10	0xbf328e80	-0.6974869
11	0x40a8f176	5.279475
12	0x3faf1e85	1.3681189
13	0x3fb6569a	1.4245179
14	0x3f89258c	1.0714583
15	0x40911fe4	4.535143
16	0x3ffeadf2	1.9896834
17	0x3e8e0e39	0.27745226
18	0x4084dfb9	4.15231
19	0x3f6e356e	0.9305028
20	0x3f29e83b	0.6636998
21	0xbe1e5317	-0.15461384
22	0x40915a8f	4.5423045
23	0x3fd3c2e2	1.6543849
24	0x40986f50	4.763588
25	0x3f8d3b4d	1.1033722
26	0xbf8b6510	-1.0890217
27	0x40558b83	3.3366401
28	0x3f49c2fb	0.7881314
29	0x3fc60939	1.5471565
30	0xbd593279	-0.05302665
31	0x402c0419	2.68775

weight f4 [32, 3, 3, 3]
0	0x3d49fd13	0.049313616
1	0x3d6a34d1	0.057179276
2	0x3d285e04	0.041105285
3	0x3d422b89	0.0474048
4	0x3d6a6fb3	0.05723543
5	0x3d38038b	0.044925254
6	0x3d2e69ad	0.04258125
7	0x3d661fb5	0.056182582
8	0x3d1f8ad4	0.038950756
9	0xbdbcc849	-0.09217889
10	0xbe04ae19	-0.12957038
11	0xbdbb8c8b	-0.09157666
12	0xbdcff95f	-0.10154986
13	0xbe1d0c13	-0.15336637
14	0xbdd7ccbe	-0.10537098
15	0xbd8468ca	-0.064652994
16	0xbdc2715b	-0.09494277
17	0xbd90fee9	-0.0707987
18	0xbd9ddb3c	-0.07707831
19	0xbd4597e0	-0.048240542
20	0xbd81a2b2	-0.0632986
21	0x3d540258	0.051760048
22	0xbb5eea80	-0.0034014285
23	0xbe121708	-0.14266598
24	0xbd737fe8	-0.059448153
25	0x3d4549dc	0.04816614
26	0x3e2b3d85	0.16722687
27	0x3d8e0010	0.06933606
28	0x3e1ba5cd	0.15199967
29	0x3d80e330	0.062933326
30	0x3dc048f3	0.09388914
31	0x3e4a873f	0.19778155
32	0x3dbe9311	0.093053944
33	0x3de6d1fe	0.112705216
34	0x3e50de0a	0.20397201
35	0x3dba55b3	0.09098377
36	0xbdb75bf4	-0.089530855
37	0xbe44fa4e	-0.19236109
38	0xbd58a82a	-0.05289475
39	0xbe41d7eb	-0.18930022
40	0xbed0a0ff	-0.4074783
41	0xbe28a5fb	-0.16469567
42	0xbe5c05e3	-0.2148662
43	0xbedbce6c	-0.42930925
44	0xbe566e95	-0.20940621
45	0xbe1a4404	-0.15065008
46	0x3d60e4dc	0.054905757
47	0x3e3a1e07	0.18175517
48	0xbcef1390	-0.029184133
49	0x3e09f56b	0.13472526
50	0x3e07d90b	0.13266389
51	0x3d9794a6	0.07401399
52	0xbdf96097	-0.12176626
53	0x3cea05b8	0.02856718
54	0xbd5bcf41	-0.05366445
55	0xbd8124cc	-0.063058466
56	0xbd2faeb8	-0.042891234
57	0xbdb680c8	-0.08911282
58	0xbdec2947	-0.115313105
59	0xbdabfcff	-0.083978646
60	0xbd186e3e	-0.03721451
61	0xbd6c23a2	-0.05765117
62	0xbd1734a1	-0.036915425
63	0x3d2990db	0.04139791
64	0x3d83d1a8	0.06436473
65	0x3d63332e	0.05546873
66	0x3dd77063	0.10519483
67	0x3e1cabe5	0.15299948
68	0x3df6470e	0.12025271
69	0x3d5d2295	0.053988058
70	0x3db2cf13	0.087309025
71	0x3d77bb20	0.06048119
72	0xbbe62ee0	-0.007024631
73	0x3d9a4772	0.07533158
74	0x3e2cf803	0.16891484
75	0x3e3d667b	0.18496124
76	0x3dd58292	0.10425295
77	0xbe1c4c26	-0.15263423
78	0x3dc82e22	0.09774424
79	0x3da82d82	0.08211805
80	0xbd9ed621	-0.077556856
81	0xbd106055	-0.03524812
82	0xbe6285da	-0.22121373
83	0x3d8e64e0	0.06952834
84	0x3e8dac72	0.27670628
85	0xbd9eba5a	-0.077503875
86	0xbeac496b	-0.33649763
87	0xbe0c31ce	-0.13690874
88	0xbe90e18c	-0.2829708
89	0xbd304213	-0.043031763
90	0xbe0722e0	-0.13196898
91	0x3d5d549d	0.05403577
92	0xbc804aea	-0.015660722
93	0xbe1a6778	-0.15078533
94	0xbdcd4f74	-0.1002492
95	0xbda13a1d	-0.07872412
96	0xbb9bc997	-0.004754256
97	0xbd89765b	-0.06712028
98	0x3d8fde42	0.07024814
99	0x3dd78542	0.10523464
100	0xbe09e393	-0.13465719
101	0xbd975ea2	-0.07391097
102	0xbcf7bc40	-0.030241132
103	0x3dda5e0e	0.10662471
104	0xbc414780	-0.011796832
105	0xbdcfe36a	-0.10150798
106	0xbc694b40	-0.014239132
107	0x3e2981b1	0.1655338
108	0x3e7ac8ec	0.24490708
109	0xbda16999	-0.07881469
110	0x3e4d5ba3	0.20054488
111	0x3d882d8f	0.066493146
112	0x3c39664d	0.011315894
113	0x3e14c527	0.14528333
114	0x3e16681c	0.14688152
115	0xbc944a91	-0.018101962
116	0x386e2606	5.6779034e-05
117	0x3da49d89	0.0803786
118	0x3e13b5b7	0.14424787
119	0x3ce68a4d	0.028142119
120	0x3e152b21	0.14567234
121	0xbd90d091	-0.07071031
122	0xbca2ffc2	-0.019897345
123	0x3cdbda95	0.026837626
124	0xbd56e428	-0.05246368
125	0xbd8325cd	-0.06403694
126	0x3e447dd5	0.19188626
127	0xbbf48700	-0.0074623823
128	0x3d3ca714	0.046057776
129	0x3d71edac	0.059064552
130	0xbde78335	-0.11304323
131	0x3cfaf120	0.030632555
132	0xb815c000	-3.5703182e-05
133	0xbe38de6e	-0.180536
134	0x3d905a02	0.07048418
135	0xbcb0a5ad	-0.021563375
136	0xbd33fb9f	-0.043941136
137	0xbca2539a	-0.019815255
138	0xbce3794f	-0.027767805
139	0xbd237d3e	-0.039914362
140	0xbca2b95f	-0.019863782
141	0xbcbac92f	-0.02280101
142	0xbceb064c	-0.028689526
143	0xbc8f6b09	-0.017507093
144	0xbd2bce21	-0.041944627
145	0xbdaf477c	-0.085585564
146	0xbd84cf30	-0.064848304
147	0xbdc0ea79	-0.09419722
148	0xbe4a066b	-0.19729011
149	0xbe0d1a49	-0.13779558
150	0xbd8ca94a	-0.06868227
151	0xbe041f4f	-0.12902568
152	0xbdd2537a	-0.10269828
153	0xbe124a44	-0.14286143
154	0xbe2f640b	-0.17128007
155	0xbcba4038	-0.0227357
156	0xbdce37f9	-0.1006927
157	0x3cdac220	0.026703894
158	0xbe413442	-0.18867591
159	0x3db9ff02	0.09081842
160	0xbdf90b72	-0.12160386
161	0x3e2435bd	0.16036125
162	0x3b6e2b01	0.003634155
163	0x3ce7ad19	0.028280782
164	0x3de854fa	0.11344333
165	0xbd5601b8	-0.052247733
166	0xbd3e8dba	-0.04652188
167	0x391ade83	0.00014769477
168	0x3dd61ed4	0.10455099
169	0x394862fd	0.00019110362
170	0xbd1e918a	-0.038713016
171	0x3e1d434a	0.153577
172	0x3d57e226	0.052705906
173	0x3b6dc929	0.003628323
174	0xba85d395	-0.0010210151
175	0xbcbbd161	-0.022926988
176	0x3df4a680	0.1194582
177	0x3aaab620	0.0013024248
178	0x3d9d5b4f	0.07683431
179	0xbdfc1d3e	-0.12310265
180	0x3d00f370	0.03148216
181	0xbde12f01	-0.109952934
182	0x3e3b2ed5	0.18279584
183	0xbe0931d1	-0.1339791
184	0x3e1b9c53	0.15196352
185	0xbd5649bc	-0.052316412
186	0xbdd4ead5	-0.10396353
187	0x3de14cca	0.110009745
188	0xbc5c6ed0	-0.013454154
189	0x3dbb4adc	0.09145138
190	0x3ded6489	0.11591441
191	0xbd595c23	-0.053066384
192	0x3cde5416	0.027139705
193	0xbd810184	-0.06299117
194	0xbd153969	-0.036431704
195	0xbb143d73	-0.0022619634
196	0xbd523493	-0.05131967
197	0x3e885b12	0.2663198
198	0xbd803dbb	-0.06261774
199	0xbcc7bd38	-0.024382219
200	0xbe050b7c	-0.12992662
201	0xbc1d98d0	-0.009618953
202	0xbd079565	-0.033101458
203	0xbda07640	-0.078350544
204	0x3bb1bf24	0.005424397
205	0x3e403bc8	0.18772805
206	0x3e1ff595	0.15621026
207	0x3da8398e	0.08214103
208	0x3d33b89c	0.04387723
209	0xbc65bb20	-0.014021665
210	0x3dfef51e	0.12449096
211	0x3c804370	0.015657157
212	0x3d4c1fc8	0.049834996
213	0xbd56f0c8	-0.05247572
214	0xbe38b385	-0.18037231
215	0x3d5c7138	0.05381891
216	0x3d8bb012	0.06820692
217	0x3dc46e0d	0.09591303
218	0x3d982e77	0.074307375
219	0x3debe8f8	0.11519045
220	0x3e352602	0.1769028
221	0x3df6e2cb	0.12054976
222	0x3db78d4a	0.089624956
223	0x3de830c8	0.11337429
224	0x3db71d46	0.0894113
225	0x3d6cb3b3	0.057788562
226	0x3db9b0d2	0.09066929
227	0x3d82f2cd	0.06393967
228	0x3de5bedf	0.112180464
229	0x3e3cab16	0.18424639
230	0x3dfabc25	0.12242917
231	0x3d99cb0c	0.07509431
232	0x3def1685	0.11674217
233	0x3da8dd1a	0.08245297
234	0xbe0c1db8	-0.13683212
235	0xbe10c3b9	-0.14137162
236	0x3e26ff8d	0.16308422
237	0x3da38662	0.07984616
238	0x3dda5032	0.10659827
239	0x3cc1ddf0	0.023665398
240	0x3cc0a2d8	0.02351515
241	0xbd588078	-0.052856892
242	0xbdb25c1f	-0.08708977
243	0x3c6e40aa	0.014541784
244	0x3dd2860f	0.10279476
245	0x3d128161	0.035767917
246	0x3de5027f	0.11182117
247	0x3e8e0886	0.27740878
248	0x3e0a7429	0.13520874
249	0x3d405f0e	0.04696565
250	0x3e070666	0.13186035
251	0x3d6b086b	0.057381075
252	0x3cae2f50	0.021262795
253	0x3dec526a	0.11539157
254	0x3d2dc63c	0.04242538
255	0x3debb09e	0.115082964

bias f4 [3]
0	0xbf97c671	-1.1857435
1	0x3f8f8385	1.1212012
2	0x3e32af4f	0.17449687
