Mini_GAN/generator_pretrained_simple.pt (torch_old, 866808 bytes, 12 tensors)

weight f4 [16, 3, 3, 3]
000000 85 54 04 bd 44 8e 49 bd 60 e5 b4 3d dd e6 de bd
       -0.032307167 -0.04920794 0.08832812 -0.108838774
000010 b0 8f 00 3e 29 d4 8f 3c 25 e4 0a 3e dd 6a a4 bd
       0.12554812 0.01755722 0.13563593 -0.08028195
000020 38 c6 c9 bd ec 25 2e 3e 96 cd 4c 3e f5 3c 49 3e
       -0.0985226 0.17006654 0.200003 0.1965216
000030 89 88 85 bc 3a 09 48 be b2 59 0a 3e 06 81 65 be
       -0.016300457 -0.1953477 0.13510779 -0.224125
000040 4b 89 87 be c1 a9 a9 bd 3b 5b a0 3e 75 54 53 3e
       -0.26471934 -0.08284331 0.31319603 0.20637687
000050 05 a5 8b 3e 04 61 84 3e e2 5f 76 3c 78 79 8e be
       0.27274337 0.25855267 0.015037509 -0.27827048
000060 05 b7 87 be 91 be 69 be 05 3e c0 be cf 49 11 bd
       -0.2650682 -0.22826602 -0.37547317 -0.03547078
000070 31 36 f2 3d 79 90 f7 3d 88 fe 2b be 73 00 f8 bd
       0.118267424 0.12088103 -0.16796315 -0.12109461
000080 79 f4 70 3d 39 0b 87 3d 74 f5 c4 3d b9 da 0d be
       0.058826897 0.065939374 0.09617129 -0.13852967
000090 13 9d e3 be 64 8b 00 bf ba ec a5 be 55 94 15 be
       -0.44455776 -0.50212693 -0.3240717 -0.14607365
0000a0 09 0c 03 bf fc 4a 59 be f0 a5 ca bd 91 9b 15 be
       -0.5119024 -0.2122001 -0.09894931 -0.14610125
0000b0 a8 95 1a bf de 7b 47 be 41 e4 8a 3d f9 d9 22 be
       -0.6038461 -0.19480845 0.06781817 -0.15903462
0000c0 cd 9d d0 be 41 42 cb 3d 3d 98 98 3c 9a 49 e3 be
       -0.40745392 0.09924746 0.01862728 -0.4439209
0000d0 5a 58 04 be c6 b6 0d be 06 b9 a8 3d f8 a1 21 be
       -0.12924328 -0.13839254 0.082384154 -0.15784442
0000e0 7b cc 2e 3c a7 05 cc bc 91 eb a2 bc 5e 7b 42 3b
       0.010668869 -0.024905039 -0.019887717 0.0029675583
0000f0 85 15 ac 3d 35 1a 2b be 29 f3 94 3c 49 82 89 bd
       0.08402542 -0.16709216 0.018182354 -0.06714303
000100 a4 98 9c 3c 5d 81 d4 3d 87 15 08 bd bf 14 1e be
       0.019115753 0.103762366 -0.033223655 -0.15437602
000110 43 40 8c 3d 06 d9 b0 3d 41 b9 0a be af 3e b4 3d
       0.068481945 0.08635144 -0.13547231 0.088010184
000120 82 37 0c 3e 3d 28 dc 3c df ff 34 3e 10 79 0d be
       0.1369305 0.026874656 0.17675732 -0.13815713
000130 0e fa 8a 3e 2d 74 81 3e 75 22 3a be a8 26 de 3d
       0.27143902 0.25283948 -0.18177207 0.10847217
000140 a2 3d 9c 3d 7b f8 19 3e 9e e2 91 3d 31 12 14 be
       0.07628943 0.15036194 0.07123302 -0.14460064
000150 1a 31 3f 3d dc 26 f5 3d df e0 fb bd e3 5a 43 bc
       0.046677686 0.119703025 -0.1229875 -0.011923525
000160 4b e7 a1 bd 30 1b 27 3d bd b2 9f be 5a 5b 98 be
       -0.07905444 0.040797412 -0.31191054 -0.29757196
000170 5d dd 7c be 04 76 8b be db 9b c1 bd 91 e8 96 be
       -0.24693818 -0.27238476 -0.09453555 -0.2947431
000180 88 e8 a2 be 95 bf b9 be 55 3e 00 bf 86 67 31 bd
       -0.31818032 -0.36278978 -0.5009511 -0.04331162
000190 e3 7f 1f 3d 1b ae 24 3e 04 37 e6 3d 00 51 31 3d
       0.03894032 0.16082041 0.11240962 0.04329014
0001a0 28 c6 36 3e a1 5f 9f bd e7 e1 ba 3d a6 89 d2 3d
       0.17849028 -0.07781912 0.09125119 0.102801606
0001b0 20 aa f9 3d 73 a0 4b 3c 5b 56 46 3d ac 0c 8c bd
       0.12190652 0.012428391 0.0484222 -0.068383545
0001c0 3d d9 68 3d 55 cb 88 bd 6f 14 24 be f6 ca 91 bc
       0.0568478 -0.066794075 -0.1602342 -0.017796975
0001d0 27 e6 2d 3d 2a c1 9a be 38 39 29 be 55 6e 4a bd
       0.04245582 -0.30225497 -0.16525733 -0.049421627
0001e0 19 93 5f be 72 24 52 be 49 38 52 be 5f 7a 5b be
       -0.21833457 -0.20521715 -0.20529284 -0.214334
0001f0 25 91 ba bd 3d 72 98 be 0a 4c e2 3c 2f d5 a3 b9
       -0.09109715 -0.29774657 0.027624149 -0.00031248617
000200 86 00 c9 3e e0 43 df 3b 36 22 22 be eb 37 5e 3e
       0.39258212 0.0068135113 -0.15833363 0.21701019
000210 a7 99 fc 3d 74 27 80 3e 61 d9 0e 3e c6 c9 f0 3c
       0.12333994 0.250301 0.13950111 0.029393088
000220 d3 9f 9e 3d ab 8a 89 bc 36 74 a7 3d d6 01 0b bd
       0.07745328 -0.016789755 0.08176462 -0.033937298
000230 0b bc f6 bd 33 9d 01 3c 3c 5b 7c bd 8e c4 db 3d
       -0.12047585 0.007911014 -0.061610445 0.10730849
000240 f2 42 23 3e 50 17 0c ba 57 6b 5c 3e fe 82 9b 3d
       0.15943506 -0.000534405 0.21525322 0.07593344
000250 94 ea b9 3d 0e 3e 83 3e 8c ac 38 3e 31 6b b6 3e
       0.09077945 0.2563328 0.18034571 0.35628656
000260 f8 da 07 3e 6a 48 18 be a6 eb 59 be 42 ab 92 be
       0.13267124 -0.14871374 -0.21281299 -0.28646284
000270 59 c6 73 be 30 53 89 be 2c dd 1d be 26 39 73 be
       -0.23806132 -0.2682128 -0.15416402 -0.23752269
000280 83 5d 7a 3d ce 4e 9c be e8 20 70 3d 9b 83 dc 3d
       0.061124336 -0.30528873 0.05862513 0.10767289
000290 51 cb 22 be ed f1 90 3d 3a 9d be 3c f6 58 29 3e
       -0.15897872 0.07077394 0.02326833 0.16537842
0002a0 c0 bb 10 be 49 94 0b be e7 a6 08 be 06 74 f8 bd
       -0.14134121 -0.13630785 -0.13344918 -0.12131505
0002b0 8a 07 49 3e 5f 88 b6 bd f1 b9 e6 3d 40 44 69 bd
       0.19631782 -0.089127295 0.11265934 -0.056949854
0002c0 2a 72 f6 3d 5a 8b 23 bd e2 36 72 3e d0 11 26 3e
       0.12033494 -0.039927818 0.23653749 0.16217732
0002d0 9d f3 f1 3d 31 c1 0d be 4f ca 9a 3d da 60 b2 3a
       0.11814044 -0.13843228 0.075581186 0.0013609186
0002e0 f3 ca 80 bd bb 51 69 be a1 f3 2e 3d 2f 1c 57 be
       -0.062887095 -0.22785084 0.04271281 -0.21006845
0002f0 57 c9 02 be d5 ac 09 3e 14 9a ca bc 99 8e c5 bd
       -0.12772118 0.13444836 -0.024731673 -0.09646339
000300 9b 09 93 bd 4b 32 02 be 04 45 03 3c 7c c2 fc bc
       -0.071795665 -0.12714498 0.00801206 -0.030854456
000310 70 e2 cb 3d 27 26 f2 3d d1 90 84 bd fd 5a e0 bd
       0.09955299 0.11823683 -0.06472934 -0.10954855
000320 7c 8e c2 3d 54 a9 19 3e 29 f7 83 be 87 41 15 3c
       0.09499833 0.15006 -0.25774506 0.009109861
000330 1b 97 07 be 70 64 8d ba df 2d ee 3c 4d 47 40 be
       -0.13241236 -0.0010787379 0.029074607 -0.18777199
000340 94 62 0e 3e 14 0b 88 3e d1 ff e6 bd 2d 12 1b bb
       0.13904792 0.26570952 -0.11279262 -0.0023661957
000350 fc 10 3c 3e db 7c 74 3e a6 94 3a 3e 2f ee 65 3e
       0.18365854 0.23875754 0.18220767 0.22454141
000360 dd d2 03 3e de 8a d1 3d 6e 72 25 3c ee 88 02 be
       0.12873407 0.10231565 0.010098083 -0.12747547
000370 05 11 e1 bd 28 5b ac 3c 2a cb 2b bd eb 50 ee 3c
       -0.10989574 0.02103956 -0.0419418 0.02909132
000380 54 e9 95 bd 51 64 16 bd 66 f7 f2 3d ea e8 55 3e
       -0.073198944 -0.036716763 0.11863594 0.20889631
000390 0f ff 97 3d fa ab 42 3d 06 bc dc 3e 01 e6 99 3d
       0.074216954 0.04752729 0.431122 0.07514573
0003a0 e8 80 05 3e 7d 3d ac 3e 47 51 76 be 4e 32 8e bd
       0.13037455 0.33640662 -0.24054442 -0.069431886
0003b0 24 65 7e 3d 2a 4d a0 bc 38 af 92 be 68 35 8d be
       0.062108174 -0.019568045 -0.28649306 -0.27579808
0003c0 b0 04 e6 bd c4 ab ce bc 3f 78 24 be 7c 8c c2 bd
       -0.11231363 -0.025228389 -0.16061495 -0.094994515
0003d0 27 90 14 3d b1 6d dc 3d 43 5b 0f be 81 e0 5d 3d
       0.036270287 0.107631095 -0.13999657 0.05416918
0003e0 6e eb 93 ba 9f a0 01 be 91 37 ba bd 98 5d 02 3e
       -0.0011285373 -0.12658928 -0.0909263 0.12731016
0003f0 e7 8a 13 be 7e 2d c0 3d 6a f8 df 3b 0e 2b 9d 3d
       -0.14408456 0.09383677 0.006835033 0.07674228

bias f4 [16]
000000 c9 d7 49 3f 2b 67 14 be fc 52 9e 3f 60 bb 9c bc
       0.78844887 -0.1449248 1.2369075 -0.019132316
000010 03 57 57 be 85 dd 97 be 20 e8 0d 3f 5d 75 bb 3e
       -0.21029286 -0.29661193 0.5543232 0.3661298
000020 e9 cf 9e 3e 71 aa eb 3e 32 26 fe bd 9d 66 c7 bd
       0.31017998 0.46028474 -0.12409629 -0.09736369
000030 af c9 09 be 73 41 ca 3d 5a ab f2 3d 43 eb 25 be
       -0.13455842 0.09875765 0.11849089 -0.16203026

weight f4 [32, 16, 3, 3]
000000 3f 25 68 3d c4 a1 87 3d 21 25 ad bc 35 07 75 bc
       0.056676146 0.06622651 -0.021135869 -0.014955332
000010 25 85 45 3d 6d 78 8e 3c 45 03 88 3d 8d c3 3c 3d
       0.04822268 0.017391408 0.066412486 0.04608493
000020 5e 81 5d bc 4e e6 23 3d 01 5e 37 3c f7 4d b3 bc
       -0.013519613 0.040014558 0.011191846 -0.021887762
000030 67 4f 67 bd e3 5a 57 3d 6d 3c ce bb 0b d0 ef bb
       -0.05647221 0.05257691 -0.0062938244 -0.007318502
000040 a1 b6 78 bd c0 0b 39 bd 31 60 3d 3d c9 e3 91 3d
       -0.060721043 -0.04517722 0.046234313 0.07123525
000050 05 3e 3b 3d c7 52 90 3d 1f 23 c2 bb 6a e4 bd bc
       0.045713443 0.070470385 -0.005924597 -0.023180205
000060 bc 2b bf bc d4 de 8f 3c e1 c7 14 3e 3f 12 6e 3d
       -0.023336284 0.017562307 0.14529373 0.05812287
000070 ef 9c bd bc 52 10 b7 3c 63 31 87 bd 54 1d e4 bb
       -0.02314612 0.02234665 -0.06601217 -0.006961504
000080 dc b7 a1 3d 94 d1 22 3b dc 01 79 bd b6 11 f0 bb
       0.078963965 0.0024844157 -0.06079279 -0.00732633
000090 5a f1 6f bd 20 48 8e bd 43 fc 90 bd f6 05 f4 bd
       -0.05857978 -0.069473505 -0.07079365 -0.119151995
0000a0 6d d5 43 bd 64 63 8a bd 61 df 10 bd 82 cd c3 bd
       -0.04781096 -0.067572385 -0.03536928 -0.09560682
0000b0 b4 fe 8a 3b 44 fc b6 bb 77 76 30 bc 0f 2b 1d bd
       0.0042417888 -0.0055842716 -0.010770432 -0.038371142
0000c0 15 b5 dc 3d 3b ca ad 3d 1a 55 94 bb 7e c5 7b 3d
       0.10776726 0.08485838 -0.0045267465 0.06146764
0000d0 5a a0 f9 3d 4d 7b ca bc fc ba a2 bc 9b cd 85 bd
       0.12188788 -0.024716998 -0.019864552 -0.06533357
0000e0 6d 4d 86 bc 46 17 8f bd 00 5d 7a bd 59 18 18 bd
       -0.016394341 -0.06986861 -0.061123848 -0.037132595
0000f0 73 9c f5 bc a6 0a 1a 3d 6f 19 a2 bc dc df b4 bd
       -0.029981827 0.03760781 -0.019787518 -0.0883176
000100 73 e7 b7 bc df a5 cc bc d9 b8 c2 bd d5 2d d5 bd
       -0.02244923 -0.024981437 -0.09507913 -0.104091324
000110 84 45 d9 bd ef a8 0d be 0c 04 ba 3b 17 f2 83 bb
       -0.10608962 -0.13833974 0.005676752 -0.004026662
000120 9a ba e6 bc 89 fe 44 3c 13 84 43 bd 56 12 5c 3c
       -0.02816515 0.012023577 -0.047733378 0.013432106
000130 65 ce a4 bc 0d fe 16 bc cf f3 18 bd 2f 6a 89 3d
       -0.020117948 -0.009215844 -0.03734189 0.06709706
000140 96 57 96 bc 14 9c 0d 3d c5 25 a1 3d 26 d9 a1 3d
       -0.018352311 0.034572676 0.07868532 0.07902746
000150 98 4a 07 bd 3b 61 df bd 04 d0 64 3d 31 1d 4d 3c
       -0.033030123 -0.10907217 0.05586244 0.012519167
000160 2b 3d 94 3c e1 63 17 3c 0d d6 c1 bd f9 21 b2 bd
       0.018095573 0.009240122 -0.09464655 -0.08697886
000170 c6 35 13 bd 35 b7 12 be a0 a7 20 be 68 09 29 bc
       -0.035939954 -0.143277 -0.15688944 -0.010317184
000180 11 17 c4 bd a6 25 05 be d6 a6 89 bd 78 d6 5f bd
       -0.09574712 -0.13002643 -0.067212746 -0.054647893
000190 d4 94 de 3c ad 05 b3 3c 79 c8 b4 bd 11 2c bc bd
       0.027170576 0.021853292 -0.088272996 -0.091880925
0001a0 29 a0 85 bc 5b 87 d4 bd 39 4c ff bc 16 f1 3a 3d
       -0.016311722 -0.103773795 -0.031164275 0.045640074
0001b0 ab ef a8 3c 94 7b 3a bc 41 bd a7 3c 4e e3 a7 3d
       0.020622095 -0.011382002 0.020475985 0.08197652
0001c0 9c c1 80 bd c9 21 c6 3d 94 92 8a bc 81 55 6f bd
       -0.06286928 0.09674413 -0.016915597 -0.058431152
0001d0 b9 4a 96 3d 97 7e 8e bd e4 b4 3e bd 6b 14 5d 3d
       0.07338471 -0.06957739 -0.04655923 0.05397455
0001e0 e3 fb 1d bd 89 ae bb 3c b6 0d 11 bd 85 81 48 bd
       -0.038570296 0.022910373 -0.035413466 -0.048951644
0001f0 bd 24 56 bd af 24 2c 3d d3 e5 bb 3d 53 cc c2 3c
       -0.05228113 0.04202717 0.09174695 0.02377907
000200 6b b7 a3 3b 82 28 cc 3d 4d d2 ed 3d 4c 76 f2 3b
       0.0049962304 0.09968664 0.11612377 0.007399356
000210 36 7b 17 bd 6e 28 d2 3d 51 63 9e 3d 9f 71 07 3c
       -0.036982737 0.102616176 0.07733787 0.0082668355
000220 67 af 0e 3c ef 30 5e 3d 39 ed 38 3c 15 54 b5 3d
       0.008708811 0.054245885 0.011287027 0.08853928
000230 12 94 58 3c 4d 1d 7e 3d 38 34 93 3d ed 74 d2 bc
       0.013218896 0.062039662 0.07187694 -0.02569052
000240 89 4c 22 bd 31 b4 a6 3c fc a7 3f 3d b0 40 15 3d
       -0.03962377 0.020349594 0.04679106 0.036438644
000250 9c a3 9c 3c 7c fb 1b 3c 33 5c 4d 3c 0b 64 ea 3d
       0.019120984 0.009520408 0.012534189 0.11444863
000260 6f c9 7a 3d e3 0b 07 bc f3 5c 10 3d a7 6f 89 bd
       0.06122726 -0.00824258 0.035244893 -0.06710749
000270 b8 3f b9 3c d6 0c 32 3d 0f 82 23 3d 1e 28 32 3d
       0.022613391 0.043469273 0.039918955 0.04349529
000280 7f 21 0f 3d a6 7d e0 3c e6 8a 69 bd 66 6f 47 bd
       0.034944054 0.027403664 -0.05701723 -0.048690222
000290 59 29 aa bc 41 8d e4 bb 4d 72 83 bd 7d e9 8d bd
       -0.02077167 -0.0069748466 -0.064182855 -0.069293
0002a0 25 aa 2c be 4b b6 07 3c 47 02 3a bd 2b 2a 91 3c
       -0.1686178 0.008283208 -0.045412328 0.017720303
0002b0 b6 01 7c 3d ee 33 0e 3d eb 5b d4 3c 86 b3 ce 3d
       0.06152507 0.034717493 0.025922736 0.10092835
0002c0 c7 8e b3 3d 5f 06 9f 3d dd ae 49 3d 61 b6 11 3d
       0.08767467 0.07764887 0.04923903 0.03557432
0002d0 4f 0e 29 bd 06 15 66 bd d0 11 18 bd a1 ca 54 bd
       -0.04127341 -0.056172393 -0.037126362 -0.051951054
0002e0 92 d5 51 bd ae c0 69 bd a6 99 31 be dc eb 33 bd
       -0.051229067 -0.05706852 -0.17343768 -0.043926105
0002f0 4f 2e 38 3d 97 15 8e bd d1 6b 05 be 36 eb e1 bd
       0.04496604 -0.06937712 -0.1302941 -0.11031191
000300 3a 50 24 ba d0 88 fe bd 01 8a 0a be e2 bb 6c bd
       -0.0006268058 -0.12428439 -0.13529207 -0.057796367
000310 63 d3 d9 3b d4 62 b0 bd 2b b4 50 3c bd 1f 1b 3e
       0.0066475137 -0.086126 0.012738268 0.15148826
000320 25 fd c3 bc 1f c4 58 bd eb b3 20 3c 3b ed 50 3c
       -0.02392442 -0.05292141 0.009808521 0.012751873
000330 7b b5 b0 3c 72 49 34 3d 12 90 b3 bc 94 37 6f 3c
       0.021570912 0.044015355 -0.021919284 0.014600653
000340 d3 81 d8 3d a3 e2 34 3b fb bc 57 3d 61 56 f0 3c
       0.10571637 0.0027600906 0.05267046 0.029338064
000350 23 26 bc 3d 52 b6 17 bd 63 d5 59 3d 07 02 91 bb
       0.091869615 -0.03703911 0.053182017 -0.0044252905
000360 c9 ab a6 bc 53 00 3c bd db c4 28 bb 08 41 e1 bd
       -0.020345585 -0.045898747 -0.00257521 -0.10998732
000370 4d 5c d9 3c eb 59 88 bd 47 02 a4 bc b0 b9 eb bd
       0.02653327 -0.066577755 -0.020020617 -0.115100265
000380 16 c4 0d be bd 86 9f bd d9 14 9b bc ce 09 75 bd
       -0.13844332 -0.07789371 -0.01893084 -0.059823804
000390 c8 c6 e1 bd fc 20 05 bc 98 4d 0f bd bf 6f f9 bd
       -0.11024243 -0.00812554 -0.03498611 -0.12179517
0003a0 5c 94 ff bc 22 f7 56 bb 61 76 1d 3d 4b 0d 30 3d
       -0.031198673 -0.0032801111 0.038442973 0.042981427
0003b0 91 fd ad 3c 57 cc a1 bc 16 06 9c 3d e8 d3 9f 3d
       0.021239074 -0.019750757 0.07618348 0.0780409
0003c0 85 7d e4 bb ad 6b ca bc 75 b5 30 3d e0 d2 52 3d
       -0.006972971 -0.024709547 0.0431418 0.051470637
0003d0 cb fe 1a 3d aa fb 96 3d 0f 43 c6 bc 12 c8 2f 3d
       0.037840646 0.0737222 -0.024201898 0.04291541
0003e0 43 69 5a 3d dc dc db bc 51 be fe 3c 0e dc a3 bc
       0.05332304 -0.026838712 0.03109661 -0.020002391
0003f0 6b 0b fa 3c f5 f9 7d bb 37 3b e1 3c 5e ce 94 3b
       0.030523023 -0.0038753722 0.027494056 0.0045412024

bias f4 [32]
000000 06 16 b3 bd 8c c4 0a be 85 1f 28 3e f2 cd 83 3d
       -0.08744435 -0.13551539 0.16418274 0.06435765
000010 ce 23 74 3d bf 67 97 3f 97 ce 12 3e 04 af 71 3e
       0.05960446 1.1828536 0.1433662 0.2360192
000020 dc 43 b2 3d e8 5d 33 be ee e5 6d 3d bb 1e a9 bd
       0.087043494 -0.17516291 0.058080606 -0.082578145
000030 bc 17 da 3d 00 0d 04 bd 74 a2 e7 3d e6 df 8e 3d
       0.10649058 -0.03223896 0.11310282 0.06976299
000040 8a ff 8f 3d f0 8d 87 3f aa b3 83 3d c9 07 c5 bd
       0.07031162 1.0590191 0.064307526 -0.096206255
000050 cf 11 af 3c ef a9 46 bd 2d ca 62 bd 91 af 27 bd
       0.021370796 -0.048501905 -0.05536859 -0.040938918
000060 d8 f9 ad bc 59 ba 2a 3f a7 05 c2 3c fd d7 9c 3e
       -0.021237299 0.66690594 0.023684336 0.30633536
000070 db 38 c3 bd c2 91 cb 3e 64 59 22 bd 22 67 29 ba
       -0.09532329 0.39759642 -0.03963603 -0.00064622064

weight f4 [64, 32, 7, 7]
000000 16 a7 49 bd b5 0e 3f 3b 7d 77 30 bc c1 45 de bc
       -0.04923161 0.0029153053 -0.010770676 -0.02713287
000010 ea 91 db bc 4d ad 61 bd a9 31 91 bc 48 32 d1 bc
       -0.026802976 -0.055096913 -0.017723875 -0.025536671
000020 cb 63 02 bd c7 7e 1e bc 0e 45 e1 bc 3a 17 3e bd
       -0.03183345 -0.009673781 -0.027498748 -0.04640887
000030 91 3e 1c bd 3a c4 27 bd 9d aa 22 bd 92 dd f3 bc
       -0.038145605 -0.04095862 -0.03971349 -0.029768739
000040 12 43 fe bc e7 f2 30 bc 29 95 19 bd 19 81 17 bc
       -0.031037841 -0.0108001 -0.037495766 -0.009247088
000050 0e c9 75 bd b1 4d cf bc 98 13 1b bb fb 14 1d bc
       -0.060006194 -0.0253056 -0.0023662802 -0.009587522
000060 ad 03 eb bb 22 95 bd bc 01 f2 52 bd a7 87 43 bd
       -0.007172069 -0.023142401 -0.051500324 -0.04773679
000070 0e 7c 28 3c 46 fa 4a bc 45 ef da 3b 15 39 9a bc
       0.010283483 -0.012388771 0.006681355 -0.018826047
000080 d3 4c 33 bc ce aa b6 bc f5 23 bd bc 4b 0b 3e bc
       -0.010943609 -0.022298243 -0.023088435 -0.011599372
000090 46 e8 c4 3c 3b dd f9 ba 5c 18 01 3c d8 a0 8e 3b
       0.024036538 -0.0019063124 0.007879343 0.00435267
0000a0 cd 84 19 3c 10 f0 41 3c d1 56 84 bc ad e9 14 3d
       0.009370041 0.0118370205 -0.016154679 0.036355663
0000b0 ef d3 84 ba bd 48 0f 3c 47 b1 60 3c f0 cb d9 38
       -0.0010133962 0.0087453695 0.013714141 0.00010385353
0000c0 90 6e a7 3c c8 2c a3 3d 2c 20 ee 3d 34 ff ca 3d
       0.020438462 0.07967526 0.1162723 0.099119574
0000d0 5a 17 0a 3e c9 e4 d4 3d 77 a9 78 3d d1 1b 0c 3e
       0.1348547 0.103952 0.06070849 0.13682486
0000e0 b3 7c 99 3d 01 d6 d4 3d a2 2d d5 3d 2e 36 93 3d
       0.074944876 0.103923805 0.104090944 0.07188068
0000f0 f7 da 5b 3d 85 18 12 3d f5 54 9c 3d 98 35 56 3d
       0.053675618 0.035667915 0.07633392 0.052297205
000100 c6 dc 05 3d b4 f3 40 3d c6 09 8c 3d a8 4f 96 3c
       0.03268125 0.047107413 0.06837802 0.01834853
000110 8e 86 ab bc da 7d 2c 3d 7c b8 b3 3b f6 72 3f bc
       -0.020938184 0.04211221 0.0054846387 -0.011685124
000120 50 4f cf bb ce d4 af bc 46 2d 97 bc c3 9a 14 bd
       -0.0063265935 -0.021463778 -0.018454205 -0.036280405
000130 06 40 f0 3a da b8 18 3d d9 8c 39 bb d4 54 7e 3c
       0.0018329627 0.037285663 -0.0028312712 0.015523154
000140 b5 11 36 bc 41 72 21 bc d5 cd 82 bc 64 87 7a 3b
       -0.01111262 -0.0098539 -0.015967289 0.0038227672
000150 8b 1a 48 3c e4 6b a3 bc 4d fb 2a 3b 28 33 14 bb
       0.01221336 -0.019948907 0.0026089728 -0.00226135
000160 18 07 42 bc 98 bc 28 bd 63 98 c3 3c 6f 84 08 bd
       -0.011842512 -0.041195482 0.023876375 -0.033329424
000170 d0 0b 6f bc 4a 01 03 3c fb 52 b9 bb 8a 61 29 bd
       -0.014590219 0.007995913 -0.005655644 -0.041352786
000180 d5 51 a2 bc 37 d6 ea 3c 41 54 44 3b 5d 4f 19 3d
       -0.019814411 0.028666599 0.0029957446 0.037429202
000190 00 d2 ca 3c d1 e7 9e 3c 96 f5 37 3d f3 7c 8e 3d
       0.024758339 0.019397648 0.044911943 0.06957426
0001a0 78 3f 3e 3d a9 c2 e6 bb 11 06 83 bc d8 a7 9f 3c
       0.046447247 -0.0070422483 -0.015994104 0.019489214
0001b0 3d f0 73 3b c9 28 2e 3b 6a fd 7d bc 75 cd 3e 3d
       0.003722205 0.0026574603 -0.015502313 0.046582658
0001c0 db d8 c5 bc 6e b5 1a bd 91 54 54 bd ad 01 1f bc
       -0.024151256 -0.03777068 -0.05183846 -0.009704989
0001d0 c7 90 fc bc a0 6c 5e 3c ca f6 2e 3d e0 6f 27 bd
       -0.030830754 0.013575703 0.042715825 -0.040878177
0001e0 ad 48 78 bd b8 da df bc 9a 4c f6 bc 2d 12 25 bd
       -0.060616184 -0.027325973 -0.030065823 -0.040300537
0001f0 a5 25 3b bb 12 07 34 3b 3a d9 b1 3b 95 af c2 3c
       -0.0028556373 0.0027470035 0.0054275068 0.023765365
000200 f6 6d 72 3c 2a d3 f7 3c 34 88 56 bc 2f 78 f8 bc
       0.014796725 0.030252058 -0.013093997 -0.030330746
000210 57 08 14 3d a6 80 df 3c ba d1 5a 3d cd 59 2c 3c
       0.036140766 0.027283024 0.053422667 0.010519457
000220 b3 99 20 3c 29 a6 db 3c 4b 64 dd bc f3 b4 f0 3c
       0.00980227 0.02681263 -0.027025362 0.029383158
000230 cf 7a 8f 3c 8a 3e 20 bc d5 3b 61 bc fc 3b 66 bc
       0.017514614 -0.0097805355 -0.013747175 -0.014052387
000240 68 a9 36 bd 31 81 bd bc fd 42 32 bc a9 eb 24 3c
       -0.044595152 -0.023132892 -0.010880229 0.010065951
000250 fc 57 53 bc 22 81 75 3c 43 90 99 bc 08 05 93 bc
       -0.012899395 0.014984401 -0.018745547 -0.017946735
000260 fc 2c 52 ba 4a 6d 81 3c 0f 11 8c bc ed 8c a6 bc
       -0.00080175675 0.015799183 -0.017097978 -0.02033087
000270 8e 7a 43 3b 66 8e 3f bc 82 63 23 3c 04 22 ce bc
       0.0029827687 -0.011691665 0.009972455 -0.025162704
000280 80 b5 b9 3b 7a d9 00 bd d6 89 27 bd ad e4 9e bb
       0.0056673884 -0.0314574 -0.040902935 -0.0048490376
000290 00 b6 a4 bb 3d 56 39 3b 37 6c 10 bd de 2f ba bb
       -0.005026579 0.0028280162 -0.03525945 -0.0056819757
0002a0 3d 72 8d bc 91 d0 6b 3c 64 d5 04 3d 52 ac a6 3b
       -0.017266387 0.014392988 0.032430068 0.00508646
0002b0 1c c2 ec 3b bd 70 8c bc 11 5b 9e bc 5a f5 7f 3c
       0.007225288 -0.017143602 -0.019330533 0.015622461
0002c0 fb 32 22 bc 55 fa a7 b9 9f 20 5f 3b 62 df 7c 3c
       -0.00989985 -0.00032039234 0.0034046543 0.015434118
0002d0 e6 a8 86 3c 89 18 09 bc b5 e7 8b ba d3 ea b7 3c
       0.016437959 -0.008367666 -0.0010673912 0.02245084
0002e0 28 9d 4a bb bf 96 ab 3c 24 ea a5 3c 08 c0 5b bc
       -0.0030916426 0.020945905 0.020253249 -0.013412483
0002f0 a5 cd 80 bc 56 be e2 3b 4b ca c2 bc 8f 9f b0 3c
       -0.015723059 0.0069196625 -0.023778101 0.021560458
000300 21 a5 ae ba ce 24 da 3b db 30 b0 bc 02 e4 0e bd
       -0.0013324359 0.0066572195 -0.021507671 -0.034885414
000310 02 43 5b bc da b3 ed 3b d6 42 59 bc 07 60 14 bc
       -0.013382675 0.007254106 -0.013260564 -0.009056098
000320 92 5a 08 3c 36 28 9e bb 21 1f f1 bc 13 76 d8 3c
       0.008322375 -0.004826571 -0.029433789 0.02642349
000330 db 18 1e bc 40 5e 44 bc 3b 83 83 bc 2e 77 53 3c
       -0.009649481 -0.011985362 -0.016053787 0.012906833
000340 93 87 26 3d b2 e3 0e bc f9 02 73 bc fc ff 8c bc
       0.040656637 -0.008721279 -0.014832252 -0.017211907
000350 14 fe 4b bc 0e ca a8 bb 9d 96 07 3d ae dc a8 3c
       -0.012450714 -0.00515104 0.03310262 0.02061304
000360 5f 51 c4 3c 03 cd 17 bd eb c9 61 bd 88 91 0f bc
       0.023964582 -0.03706075 -0.055124205 -0.008762725
000370 5d 69 42 ba 3b 15 d2 ba 8f 2a 6f 3c ac 02 b5 bb
       -0.0007416213 -0.0016028056 0.014597549 -0.005524
000380 a6 73 52 bc 79 a9 1d bc f2 41 c3 bc 94 81 65 3c
       -0.012844956 -0.009622925 -0.023835156 0.014007945
000390 cd 32 a3 3c 9f b2 ff 3c 25 9b 2e 3c 61 0b 1b 3d
       0.019921685 0.031213103 0.0106571065 0.03785265
0003a0 8e 96 8f bb a6 cf 81 bb a5 71 32 3d 4d dd 6d 3c
       -0.004381961 -0.003961521 0.04356541 0.014518094
0003b0 30 9d a6 3c 23 26 87 3c 4d 6e 44 3d 66 ae 41 3b
       0.020338625 0.016497677 0.047956754 0.0029553412
0003c0 7c 84 bf 3b ca 58 a6 b9 97 a4 e4 3a 32 7a 1c 3d
       0.005844651 -0.0003172814 0.0017444071 0.038202472
0003d0 79 5c 11 3d 0c 51 93 bc 0c a0 50 bd 8b b4 06 bd
       0.03548858 -0.017982982 -0.050933883 -0.032887023
0003e0 bf 78 0f 3a a3 56 17 bd 94 a2 5b bd f5 6a 77 bd
       0.00054730097 -0.036947858 -0.053621843 -0.060404737
0003f0 6f c5 4e bd 33 00 1b bc 04 e6 fd bc 8f e7 55 bb
       -0.050481256 -0.009460497 -0.030993469 -0.003263924

bias f4 [64]
000000 de 6c 2f 3d c4 5e f6 be 7a 5b 17 be e2 f0 46 3e
       0.042828433 -0.48119175 -0.1478099 0.19427827
000010 f1 e1 09 3f 53 6a 88 be e6 e3 9d 3e 7f 40 91 be
       0.53860384 -0.2664362 0.30837935 -0.2836952
000020 aa b0 57 3d c2 a5 c4 3e 10 27 84 3e 4a d3 f4 be
       0.052658714 0.38407713 0.25811052 -0.4781745
000030 99 6c 89 bd 34 f2 9e 3d 0b 09 0b 3e 01 70 2b 3e
       -0.067101665 0.0776104 0.13577668 0.16741945
000040 5f 61 16 3d 1e c4 ef 3e 48 e8 46 bc 30 33 a7 3e
       0.036713954 0.46829313 -0.012140341 0.3265624
000050 c2 79 87 3e 96 ca 90 be 9a 6f 74 3d 0f b9 65 be
       0.2646008 -0.2827956 0.059676744 -0.22433876
000060 a2 18 1b bd a7 65 83 3e c6 9c 94 bd bc be 41 3e
       -0.03786529 0.25663492 -0.07256465 0.18920416
000070 74 b8 54 3e c6 48 b5 be da 82 b4 3e 25 f1 22 be
       0.20773488 -0.35407084 0.35256082 -0.15912302
000080 d6 fb 51 3d 79 f7 5e 3e 7a d8 02 bf de 3c 3b bd
       0.05126556 0.21774091 -0.5111157 -0.045712344
000090 6a 27 db 3e 81 df 93 3e 76 a3 92 be 67 f6 c6 3d
       0.42803508 0.28881457 -0.28640336 0.09714966
0000a0 ed ac 1d be 02 f3 b7 3e 4a 1d 90 be 90 10 f5 3d
       -0.15397997 0.35927588 -0.28147346 0.1196605
0000b0 11 e4 a4 be f7 a2 17 3e 34 7b 3f be e5 56 d6 3e
       -0.3220525 0.1480826 -0.18699342 0.4186317
0000c0 04 fc 27 3e bd 6d 8d be e8 a2 26 3e d8 d8 2f be
       0.1640473 -0.27622786 0.16273081 -0.17172563
0000d0 31 6c ad be 95 60 a7 3e 36 c8 34 be 54 e9 a9 3c
       -0.33871606 0.32690874 -0.176545 0.020741142
0000e0 e5 3a 83 3e 6b b1 e7 3e fc 01 75 bd bb 46 1e 3e
       0.2563087 0.45252547 -0.059816346 0.15456669
0000f0 82 05 c4 3e be 87 4e 3e 7e 94 87 be a3 4c 75 be
       0.38285452 0.20168969 -0.26480478 -0.23955016

weight f4 [64, 32, 7, 7]
000000 fc 7e b0 bb 48 55 9f ba 74 e5 9f bb b6 e3 4c bd
       -0.0053862315 -0.0012156153 -0.004879648 -0.05002185
000010 ac 3c 49 bd fb 24 23 bd d9 f8 91 bb 73 2f c0 3c
       -0.049130127 -0.03983019 -0.004454714 0.023460126
000020 33 b4 56 3c 73 8d a9 b9 b5 aa 2a bd e9 88 f1 bb
       0.013104486 -0.0003233958 -0.041666705 -0.0073710573
000030 5e 52 12 bd 08 bd 6b 3c 81 51 7c bc 09 6b ee bb
       -0.035723083 0.01438833 -0.015400291 -0.007275943
000040 d2 8b 13 bc ea 33 8c ba f1 0f 83 bb 90 77 d3 bc
       -0.009005504 -0.0010696624 -0.003999703 -0.025813848
000050 91 34 a5 3c ff 04 81 bc 27 51 f6 3c 91 22 39 3d
       0.020166667 -0.015749453 0.030067993 0.04519898
000060 f9 54 87 3c 01 60 8d 3b 11 e9 c1 bc f2 4f 52 3c
       0.01652001 0.004314423 -0.023670705 0.012836443
000070 af 0a 90 bc de d8 90 3c 90 a4 a9 3c 8c 72 16 3d
       -0.01758322 0.017681535 0.020708352 0.036730334
000080 ee 3d 40 bc 8d f3 91 3c c9 31 bf 3b 57 4f f7 bc
       -0.011733515 0.01781633 0.0058347923 -0.0301892
000090 95 d1 f1 3b dc 98 0d 3d 3c 4d 30 3d 81 64 19 3d
       0.0073797205 0.034569606 0.043042406 0.037449364
0000a0 16 10 87 3c 09 13 8d bb cd 95 4a 38 6a dd 7c bb
       0.016487163 -0.0043052477 4.8300066e-05 -0.0038584122
0000b0 77 46 01 3d a8 44 b7 3d 45 28 9d 3d be 1c 81 3d
       0.03156134 0.08948642 0.076736964 0.0630431
0000c0 43 c9 53 bc 56 ea b4 3d e1 31 bf 3d 59 69 59 3d
       -0.0129264025 0.088337585 0.093356855 0.053078983
0000d0 16 25 97 3c 8c 5e 5d bc 0a e3 c1 3c 71 85 c9 3c
       0.018450301 -0.013511311 0.023667831 0.024599763
0000e0 f3 6c c3 3d e4 0b cf 3d a7 f7 3d 3d c4 0e 70 ba
       0.09542265 0.1010969 0.046378758 -0.00091574737
0000f0 0f 7f 95 3a 87 ab b2 3b d6 90 b6 3c d5 7d 4a 3d
       0.0011405664 0.0054525766 0.02228586 0.04943641
000100 89 f3 bd 3c af 92 7e 3c 53 f5 98 bc 68 7e 6f bd
       0.023187416 0.015537902 -0.018671667 -0.05847016
000110 50 a5 22 bd e4 7a 52 bc 1c a4 17 3d ad 8a 8d 3c
       -0.039708436 -0.012846682 0.03702174 0.01727804
000120 d8 16 76 3b 16 2b 21 bd a6 19 7c bd 53 10 46 bd
       0.0037550237 -0.03934773 -0.061547898 -0.04835541
000130 16 22 7b 3b 36 a1 9a 3d 86 ea 95 3b 6d 63 9e bb
       0.0038319877 0.0755028 0.0045750765 -0.00483363
000140 de 04 37 bd 14 c6 ef bc 53 49 cb bc 58 6b a4 3c
       -0.044682376 -0.029269256 -0.024815237 0.020070717
000150 f9 da 18 3d fc f5 42 bd f3 af 5c bd f0 70 d2 bc
       0.037318204 -0.04759787 -0.053878736 -0.025688618
000160 77 f3 12 bd 16 d1 8b bd 73 d1 cf 3b 1f c8 6e 3c
       -0.035876717 -0.06826989 0.006342107 0.01457408
000170 f7 49 38 bd ee 0d 28 bd 36 6d 56 b9 fe 4e cf bc
       -0.044992413 -0.04102891 -0.00020449315 -0.025306221
000180 97 75 2c bd 13 f5 94 3c 7d ac a4 bd 6e 08 2d bd
       -0.04210433 0.018183267 -0.08040712 -0.042244367
000190 9c 67 9f bc c6 62 5f bd 7a 73 7a bd b1 fe 37 bd
       -0.019458584 -0.054537557 -0.061145283 -0.044920627
0001a0 b8 86 7f bd a7 ce 2f bd fa a9 22 bd b8 c0 14 bd
       -0.062384337 -0.04292169 -0.039712884 -0.036316603
0001b0 4b c1 b5 bc b4 8f 94 bc d0 75 02 bd 7b 0e 91 bc
       -0.022186896 -0.01813493 -0.031850636 -0.0177071
0001c0 c7 d5 67 bd a3 72 d6 bc 46 a9 bd bc 52 75 09 bd
       -0.05660036 -0.02617771 -0.023152005 -0.03355915
0001d0 3c 86 9f bc cd 80 24 bc b8 d8 9b bc 56 d2 52 bd
       -0.019473188 -0.010040474 -0.019024238 -0.051470123
0001e0 e4 43 74 bd ef d7 ab bb 6f 06 7e 3c fe 9d 98 bc
       -0.059635058 -0.005244247 0.015504464 -0.018630024
0001f0 53 0d 2a bd 20 47 9f bc e2 79 3b bd c1 76 8e bc
       -0.041516613 -0.019443095 -0.045770533 -0.01739061
000200 b7 1c 57 bb b5 34 d3 3b 87 8f 12 bc 94 2f b2 bc
       -0.0032823512 0.006445492 -0.008945352 -0.021751203
000210 f1 4e 28 bd 50 75 ce bc 00 0e 54 bd 07 45 88 3b
       -0.04109091 -0.025202423 -0.051771164 0.0041586193
000220 2f c5 8d bc 73 2d d2 bc 7a 33 e6 bc 4e 34 ff bc
       -0.017305939 -0.025656438 -0.028100718 -0.03115287
000230 dc ce 6b bd 69 07 71 bd cc 02 e5 bc d0 a5 80 bd
       -0.057570323 -0.058844958 -0.027955435 -0.06281626
000240 44 33 5a bd dc 6e 3f bd 96 e2 3c bd 0b 4c 15 3e
       -0.053271547 -0.046736583 -0.046114527 0.1457979
000250 c8 7a a3 3d 6a a3 15 3d a3 37 24 ba 4c 86 36 bb
       0.07982403 0.036532797 -0.0006264394 -0.0027851043
000260 d7 f0 f7 3b 30 19 ca 3c fd 99 86 3d bc 8d 7b 3c
       0.007566552 0.024670213 0.0657234 0.015353616
000270 18 76 15 3c 6c 60 d4 bc 3c 02 fb 3c 77 5b 76 3d
       0.009122394 -0.025924884 0.030640714 0.06014582
000280 c3 22 28 3d b6 30 5b 3d c3 7d 7a 3d a5 0c c2 bc
       0.041048776 0.05351325 0.061155092 -0.02368767
000290 f1 ad 40 bc 18 e7 73 3d 91 b7 a1 3d e5 57 b0 3d
       -0.011760221 0.05954656 0.07896341 0.086105146
0002a0 47 5e 7d 3d 6c 25 61 3d 51 a0 dc 3c f6 82 c7 bb
       0.061857488 0.05496733 0.026931914 -0.00608861
0002b0 d2 55 25 3d 71 a3 60 3d 59 c2 a2 3d 81 21 c3 3d
       0.040365048 0.05484337 0.07947225 0.09527875
0002c0 56 5a 99 3d 15 a6 51 3d 78 c3 a4 3c 24 b0 86 3d
       0.07487933 0.05118378 0.020112738 0.06576565
0002d0 61 be 66 3d 40 b0 7a 3d b3 22 4a 3c 7f 6f 2c 3d
       0.056333903 0.06120324 0.0123373745 0.04209852
0002e0 2a 5e 8f 3c 2e c8 89 bb c6 9e c8 3c d5 20 6c 3b
       0.017500956 -0.0042047715 0.024489772 0.0036030312
0002f0 b2 11 5b 3c 6e 5c b1 bb 6c ae 19 bb ec 7f fc bb
       0.013370918 -0.00541263 -0.002344991 -0.007705679
000300 6a fc 17 bd 0c ae 00 bd 58 d8 c5 bc 5b 01 c0 bb
       -0.037105955 -0.031415984 -0.024151012 -0.0058595366
000310 1b 67 1b 3d 1a 51 bc bc a1 19 e9 bc 55 51 e1 bc
       0.037940126 -0.022987891 -0.028454604 -0.027504602
000320 6b a3 89 bc 81 be b9 bc ed 95 76 bc 74 71 20 3d
       -0.016801557 -0.022673847 -0.0150503935 0.039170697
000330 fe 7e d4 bb 83 a4 a4 bc 20 96 6d 3c 8e c9 89 bc
       -0.006484865 -0.020097977 0.014501125 -0.016819742
000340 2d 0f 28 bc f6 57 2b bd 59 25 69 3d 46 fa 82 3c
       -0.010257524 -0.041831933 0.056920383 0.01598848
000350 13 5c fa bc cb 34 2a bd be e6 39 bc 70 27 d1 bc
       -0.030561483 -0.041554254 -0.011346517 -0.0255315
000360 54 b0 33 bd f0 91 3c 3d 3a a5 78 bc b8 cf 2e bc
       -0.04386933 0.046037614 -0.015176112 -0.010669641
000370 82 5a 8a bc 42 4b 37 3c 59 5d 10 bd a5 eb ed bc
       -0.01688886 0.011187376 -0.035245273 -0.029043028
000380 a2 a5 80 3d cf 64 4a bc 60 3b 0e bd dc 1f c6 3b
       0.06281592 -0.012353136 -0.034724593 0.0060462784
000390 0b 55 0b bb f1 a6 2e bd cc 6c 97 bd 7b 4c db 3c
       -0.0021260406 -0.042639676 -0.07393798 0.026769867
0003a0 f4 5a 15 b9 f2 7a e0 bc 27 2a be bc 48 59 ab bb
       -0.0001424363 -0.027402375 -0.02321346 -0.005229149
0003b0 e7 8f 33 bd 33 0f 41 bd 69 47 7c 3d fe 9c 62 3d
       -0.043838408 -0.047133636 0.06159154 0.0553255
0003c0 24 1c c6 3c 1f 97 21 bc 09 4c 99 39 2b 9e 40 bd
       0.02418334 -0.00986269 0.00029239085 -0.04702584
0003d0 fb a0 3d bd ab cd 2f 3d 52 12 32 3d 4a 6e a1 3d
       -0.0462961 0.04292075 0.043474503 0.07882364
0003e0 96 d4 83 3d 69 90 93 3d 62 e4 80 3d 97 d1 4d 3d
       0.06437032 0.072052784 0.062935606 0.05024871
0003f0 10 7e a2 3d c8 e9 6a 3d 2d 30 58 3d 0f f3 9b 3d
       0.07934201 0.057351857 0.05278032 0.07614719

bias f4 [32]
000000 76 02 21 3f c6 b4 96 3e f0 92 ba bd 7c 08 16 3f
       0.6289438 0.29434794 -0.09110057 0.58606696
000010 37 bb 01 3f c9 94 06 bf 47 96 65 3e 76 53 41 3d
       0.5067629 -0.5257078 0.22420608 0.047198735
000020 fd 8b f8 3e 1e b3 24 be 5c b3 30 3f 3f ac ea 3e
       0.48544303 -0.16083953 0.6902368 0.45834538
000030 1f 3e b1 3e 24 fc 03 3e cd c2 f4 3d 51 88 0b be
       0.34617707 0.12889153 0.11951218 -0.1362622
000040 53 cc 5c 3d 19 07 07 be 07 6e 0c 3f 0c f5 16 3f
       0.053905796 -0.13186301 0.5485539 0.5896766
000050 9c 8c 72 be 74 d3 bc 3e 71 7b 2a 3f be c2 24 3f
       -0.2368645 0.36880076 0.66594607 0.64359653
000060 8f ef 02 3f dc 4d 3e 3e 5b 1f 16 3e 47 51 ec 3e
       0.5114679 0.18584388 0.14660399 0.4615576
000070 92 a7 14 3f 52 bf 81 be 54 be 11 3f 85 37 b4 3e
       0.5806819 -0.25341278 0.5693104 0.35198608

weight f4 [32, 16, 3, 3]
000000 b5 71 1e bd 7b 39 57 bc 90 7a 1c bd 55 9c 15 bc
       -0.03868266 -0.013136263 -0.038202822 -0.009131511
000010 e0 02 17 ba bd 6a 68 3b d8 11 09 3b a9 c3 c1 3c
       -0.0005760621 0.0035464012 0.0020915177 0.023652868
000020 1f 38 89 3d ad cb 3d bd bb 5e 93 3d 72 65 df bc
       0.067001574 -0.04633682 0.07195803 -0.027270053
000030 28 6c 02 be 23 c1 fa 3a 2a e9 a8 bd 13 4d 01 3d
       -0.12736571 0.0019131046 -0.082475975 0.031567644
000040 5b e4 6e 3c f8 42 17 3d 6e c8 40 bd de 52 0e bd
       0.014580811 0.0369291 -0.047066145 -0.034746997
000050 5a 30 e0 3d 95 53 41 3d 2b 68 aa 3c f5 dc 87 3d
       0.10946722 0.04719885 0.020801624 0.06633941
000060 dd f6 19 bc 58 7d 9b 3d 38 92 b8 3c b6 a7 36 bd
       -0.009397236 0.07592267 0.02253066 -0.044593535
000070 aa 12 07 bc 59 ec 58 3d 26 54 32 3d a4 e9 f6 3d
       -0.008244196 0.052959774 0.04353728 0.12056282
000080 cf ba 87 3d 80 4e 93 3d 62 54 ec 3d dc f0 81 3d
       0.06627428 0.07192707 0.11539532 0.063447684
000090 8e 9c c5 3b 07 4c d4 3d a7 3c 38 3c 3b 41 f6 3d
       0.0060306257 0.103660636 0.011244929 0.120241605
0000a0 81 6a 4b 3e 0f 9f cb 3d 3b 82 9f 3d fb ae b7 3d
       0.19864847 0.099424474 0.07788511 0.08968922
0000b0 a5 f6 f9 3d 80 ee 00 3d c5 1f 56 bc 91 1f f8 bc
       0.12205247 0.03147745 -0.013069098 -0.03028849
0000c0 0f c5 72 3d bc b6 a2 3d cf 38 59 3a 1c 1c d3 3c
       0.05926996 0.0794501 0.0008286358 0.02577024
0000d0 ac e4 ad 3d 23 91 e4 3c 34 70 c6 3d 14 19 2e 3d
       0.08490881 0.027901238 0.0968937 0.042504385
0000e0 58 8e 12 3d 48 86 02 bd 15 fe a6 3d ff 77 a6 3d
       0.03578028 -0.03186634 0.08153931 0.08128356
0000f0 c5 ec 85 bc f2 05 17 3d d8 48 5b 3b 59 8a 56 bd
       -0.016348252 0.036870904 0.0033460166 -0.052378032
000100 f9 29 0f bd a7 6d 66 3d 43 df bc bd 61 34 c2 bc
       -0.034952138 0.056256916 -0.09222271 -0.023706617
000110 50 d9 52 bd ab 58 b1 bc 6f 7c 17 3d 1a e0 02 bc
       -0.051476777 -0.021648725 0.036983903 -0.007988
000120 a6 4a 51 3d 86 c5 2e bd ad 10 62 3a 66 60 93 3d
       0.05109658 -0.04266884 0.00086237007 0.07196121
000130 33 d2 3d bd 8c 0b 93 3d e7 6b 8e 3d 39 b5 13 3e
       -0.04634304 0.07179937 0.069541745 0.144246
000140 ff ca d0 3d b7 e6 09 bd 14 0a f3 3c 63 0b dd 3d
       0.101949684 -0.033667292 0.029667892 0.107931875
000150 2b b6 7c 3d 85 cc 23 3d ed d3 81 3c 67 6d 63 3d
       0.061697166 0.039989967 0.015848124 0.055524256
000160 63 ea ae 3d 0d 79 b3 bc a3 a3 5b bd 62 a0 a6 bd
       0.085407995 -0.021908307 -0.053622853 -0.08136059
000170 e0 8f b4 bc 48 83 eb bd f9 a4 68 bc 3f a2 c7 3d
       -0.022041261 -0.11499649 -0.014199489 0.09747743
000180 ae 4e ef 3c 26 24 87 3c 51 b8 5f 3d 57 4d 0f 3d
       0.029212322 0.01649673 0.054619137 0.034985866
000190 5f 9f b0 3b cf 1e ab 3d d7 0b 3c bd b1 69 12 3d
       0.0053900923 0.08355486 -0.04590973 0.035745326
0001a0 bf f6 6a 3d 91 eb 35 3d 5f 02 09 bd 92 a6 44 bd
       0.05736422 0.044414107 -0.033449527 -0.048010416
0001b0 92 cf 27 bd de 6e 5c bd 5d a1 0c bd 77 e4 3d bd
       -0.04096944 -0.05381667 -0.034333576 -0.04636046
0001c0 2d 05 51 bd bc 12 a8 bd 67 a3 99 bd 4b c2 89 bd
       -0.051030327 -0.08206698 -0.0750187 -0.067265116
0001d0 eb 27 1a bd 30 dd 41 bd be 17 e7 3c d1 da 7d 3d
       -0.037635725 -0.04733008 0.028209563 0.061976258
0001e0 d5 5c 66 bd b1 34 5c 3d 81 54 0c 3e 94 a3 aa bd
       -0.056240875 0.053761188 0.1370411 -0.08331981
0001f0 ec 18 67 bd 1b 84 29 3e 05 95 18 3d c5 9d 5b 3d
       -0.05642025 0.165543 0.03725149 0.053617258
000200 51 11 03 bd fc 61 d0 3d d2 b8 e3 3d 68 c0 a0 3b
       -0.031998936 0.10174939 0.11119236 0.004905749
000210 c5 14 0d 3d 15 96 3d 3d 8e f6 86 3d ad 66 0e b9
       0.034443635 0.046285708 0.06589995 -0.00013580425
000220 97 ae d6 3d c0 ca 91 3d 73 e4 81 3d f9 84 43 3e
       0.10482519 0.071187496 0.06342401 0.19093694
000230 8b b9 e5 3d 3e 17 8c 3d 9e 93 d0 3d 9b ef 95 3c
       0.1121703 0.068403706 0.10184406 0.01830273
000240 3e 7b 7d bd 43 f3 28 3d d7 fc 54 3d 1d b1 ad 3d
       -0.06188511 0.041247617 0.05199894 0.08481047
000250 e4 89 c6 3d e5 03 e8 3c a8 0b b6 3d f0 db 8a 3d
       0.09694269 0.02832217 0.08888942 0.06780231
000260 7b 3a a7 3c cd b8 5f bd 99 df 61 bd ab b7 28 3d
       0.020413628 -0.0546196 -0.05514488 0.041190784
000270 63 98 ef 3b 63 39 3a bd 66 98 05 bd ac a6 05 3d
       0.007311867 -0.045464884 -0.03261604 0.032629654
000280 7a b7 99 bd e8 f8 93 bb a5 df d1 bd c8 d5 21 be
       -0.075056985 -0.004515756 -0.10247735 -0.15804207
000290 bc b5 be bd 72 79 2a be 48 3b 06 be 88 bb c3 bd
       -0.09312007 -0.1664789 -0.13108552 -0.09557253
0002a0 6f 38 95 bb 88 a7 62 bd 49 73 9c bd 9c 7e 51 bb
       -0.0045538465 -0.05533555 -0.076391764 -0.0031966334
0002b0 3d ec 7b bc c5 ee 03 3c 6c e6 40 bd fa b4 51 bc
       -0.015376148 0.008052533 -0.047094747 -0.012799496
0002c0 d8 50 51 3d fb ac 43 bd 5f 69 4b 3d 09 f1 9d 3b
       0.05110249 -0.04777239 0.049661037 0.0048199934
0002d0 c1 d3 60 bd 64 64 45 bd 4a dc 7d bc 02 8f 0e be
       -0.054889444 -0.048191443 -0.015494416 -0.1392174
0002e0 ad d4 25 be cd e5 77 bd 06 eb 87 bc 5d e5 fb bd
       -0.1619441 -0.06052189 -0.01659156 -0.12299607
0002f0 1f 9f b7 bd df 03 13 bc 51 78 f9 3c 82 1a 74 3c
       -0.08965897 -0.008973091 0.03045288 0.014898898
000300 fb 35 a2 3d fd 41 dc 3d f9 3a 5a 3d c0 3e aa 3d
       0.07920452 0.10754774 0.053278897 0.0831275
000310 62 3b af 3d 44 fe fe 3c a9 aa 2f bb 3a 9d 9e bc
       0.08556248 0.031127103 -0.0026804602 -0.01936208
000320 89 37 62 bc a1 c4 c2 bc dd 85 48 be c8 87 34 be
       -0.013807186 -0.0237754 -0.19582315 -0.17629921
000330 ef 77 bf 3c 0b 85 2b bd 87 5f 01 be e3 6f 82 3d
       0.023372618 -0.041874927 -0.12634097 0.06368997
000340 9a e0 cc bb 14 59 38 3a b5 79 eb bc f1 56 05 3d
       -0.0062523605 0.00070323166 -0.028744558 0.032553617
000350 a1 3e a1 bd d1 c9 7b 3d ea 3e 18 3d b5 8a 55 bd
       -0.07873274 0.061471764 0.037169375 -0.052134234
000360 c1 26 f9 3b 38 86 de bc 04 51 0d 3c ae df 7e bd
       0.007603497 -0.02716361 0.008625273 -0.062225036
000370 ae 86 0f be 27 63 c1 3c bb cd 9f bc fe b1 e9 bc
       -0.1401622 0.02360685 -0.01950728 -0.028527256
000380 65 ea ae 3b 51 b0 d9 bd 2a 0c e4 bc 68 f0 66 bd
       0.0053380006 -0.10629333 -0.027837832 -0.056381613
000390 d8 fc b4 bd 7b c5 16 be 81 6f 13 be 1e 1e d9 bc
       -0.088372886 -0.1472377 -0.14398004 -0.026503619
0003a0 7b 17 3e bd 85 43 44 bd 39 5f 3b 3d 7b 81 f6 bc
       -0.04640911 -0.047915954 0.04574511 -0.030091038
0003b0 b6 22 67 3d 15 e8 3b 3c 1e 1a 15 3d aa a6 04 3d
       0.056429587 0.011468907 0.03640186 0.032385506
0003c0 e1 01 b9 ba dc 13 d3 3d b0 23 d2 3d 24 85 c1 bd
       -0.001411494 0.10306522 0.10260713 -0.09449223
0003d0 60 7d a2 bc 02 bf c0 3c 6d a6 46 bd 5a 63 1d be
       -0.019835174 0.02352858 -0.04849856 -0.15369931
0003e0 db a6 b7 bd e1 ba 9c bd b3 a7 19 bd 53 28 47 bd
       -0.08967372 -0.07652832 -0.037513446 -0.04862244
0003f0 1d ea b4 3c a5 ea 3f 3d 84 64 1c 3d 04 0e b0 bc
       0.02208429 0.046854634 0.038181797 -0.021491058

bias f4 [16]
000000 85 42 ae 3e 9d 4e c2 3e ef 98 4a 3f 60 a8 d2 3e
       0.34035125 0.37950602 0.7913961 0.41144085
000010 25 cf 33 3f 28 de d4 3e ba 01 b5 3e 38 ad ab 3e
       0.7023795 0.41575742 0.3535288 0.33530593
000020 2b cc 0d 3f b7 88 69 3f f2 7f 05 3f 18 07 30 3f
       0.5538966 0.91224235 0.52148354 0.68760824
000030 89 34 72 3e 6c 50 01 3f e9 4a 6c 3f 75 ea 11 3f
       0.23652853 0.5051334 0.92301804 0.5699838

weight f4 [16, 2, 3, 3]
000000 28 17 8a 3c 48 5e 68 bd 85 77 0c 3b f5 56 96 bd
       0.016856745 -0.05673054 0.0021433544 -0.073408045
000010 88 69 26 be a2 3f ea bd 4d d2 3c be cf f9 e0 bd
       -0.16251194 -0.11437918 -0.18439598 -0.10985147
000020 a0 62 94 3d 8b da f6 3d 5b be 09 3e 0b 11 00 be
       0.07245374 0.120534025 0.13451521 -0.12506501
000030 28 a8 66 3e a1 9d 19 3e 09 6e 40 3e c1 49 5a 3e
       0.22525084 0.15001537 0.18791975 0.21317197
000040 70 60 5c 3e b1 17 f1 bc fa 77 30 3d a3 2c 87 bd
       0.21521163 -0.029430242 0.04308317 -0.06600311
000050 56 d7 0b 3e f5 c1 77 bd ab 05 60 be de ee cc bb
       0.13656363 -0.060487706 -0.21877162 -0.006254061
000060 a8 18 1c 3e 70 ec 98 bd b8 10 d1 3d 47 7b d2 3d
       0.1524378 -0.07466972 0.10208267 0.102774195
000070 13 2c 46 be 43 1f a7 3d ed da ce 3c 6f 44 8a be
       -0.1935275 0.081602596 0.025250876 -0.27005336
000080 84 75 26 be bc a8 af 3d 53 48 f5 bd 3f cf 0a 3e
       -0.16255766 0.085771054 -0.119766854 0.1355562
000090 4d d4 83 3b ca 44 d4 bc 8a d9 9e 3d e2 61 89 3d
       0.004023111 -0.025911707 0.07756336 0.06708123
0000a0 51 4e 04 bc d0 85 c0 3d d7 72 ff 3a 86 09 4e 3b
       -0.008075313 0.09400523 0.0019489181 0.0031438782
0000b0 31 e1 2b 3e 55 8a a9 bd 98 63 54 bd 5b de 5f 3c
       0.16785122 -0.08278338 -0.051852793 0.0136638535
0000c0 30 20 83 bd f6 1b 72 be 14 64 cf bd 6d 1a 87 bd
       -0.06402624 -0.23643479 -0.1012651 -0.06596837
0000d0 9e 7e 4c be 3d 75 f3 3d 4f 4b 07 bd db d9 3d 3d
       -0.19970176 0.11887596 -0.033030804 0.04635034
0000e0 93 93 34 bd 52 c9 67 3e 04 51 6f 3e bf 34 0d 3e
       -0.04408605 0.22635391 0.23370749 0.13789652
0000f0 39 ee 60 3d 0f 5d be 3c 49 ae 50 3d 5e ae c6 3d
       0.054914687 0.023237733 0.05094746 0.09701227
000100 aa f9 98 3d 43 87 25 3e aa 1d 00 be cc 8f 06 3e
       0.07469495 0.1616488 -0.12511316 0.13140792
000110 21 d6 98 bd 10 98 2a 3e 5c 90 fd 3d 85 4a 34 3d
       -0.07462717 0.1665957 0.1238105 0.04401638
000120 ca 0f 6c 3c e9 d7 17 3e 97 d1 47 3e d2 70 17 3e
       0.014408061 0.14828457 0.19513546 0.14789131
000130 b5 b0 9f 3e d7 7c 2a 3e 7d 28 27 3e 67 b5 34 3e
       0.31189504 0.16649185 0.16324039 0.17647325
000140 1c 29 60 bd a2 18 37 bd 0d 4a 6c 3d a2 b5 e3 bc
       -0.054726705 -0.044701226 0.057687808 -0.02779657
000150 6c 4b 9e 3c fa f1 83 bc 3a ad 95 bd a1 86 1e 3c
       0.019323073 -0.016106594 -0.07308431 0.009675653
000160 79 2b f2 bd dc 01 9b bb 08 48 03 be 30 b2 a3 bd
       -0.11824698 -0.0047304463 -0.12820446 -0.07992971
000170 6e 12 c2 3a a3 ea d6 3d 75 1a 38 bd 4d 76 05 be
       0.0014806518 0.10493972 -0.044947106 -0.1303341
000180 33 08 54 3e ed 26 75 3d 84 9c 16 be 1c 8a 07 3e
       0.20706253 0.059851576 -0.14708143 0.13236278
000190 b8 22 6f 3e 71 1e 34 3e cf 9c c8 3d 53 2e b9 3e
       0.23353088 0.17589737 0.09795534 0.36168155
0001a0 0e 73 ae 3d 17 84 97 3d 75 2b b8 bc 70 7c 91 bd
       0.08518039 0.07398241 -0.02248166 -0.07103813
0001b0 6d 0a b0 3d 35 b7 ee 3d 56 ce 4b 3e af 89 0e 3e
       0.085957386 0.11656038 0.1990293 0.1391971
0001c0 3e b2 3f 3e 86 70 5f 3e b1 f5 83 3d 4a d0 c8 3d
       0.18720338 0.21820268 0.06443346 0.09805353
0001d0 30 37 58 3e 77 37 58 be d0 72 48 be e1 05 7f be
       0.21114802 -0.21114908 -0.19575047 -0.24904586
0001e0 81 d2 3e be fc 23 50 be 08 53 90 be ef b4 d2 bd
       -0.18634988 -0.20326227 -0.28188348 -0.102884166
0001f0 4e 09 15 be 84 0f 84 be 98 55 f5 bc 34 76 53 be
       -0.1455433 -0.25793087 -0.02994804 -0.2065056
000200 8e a8 0d be 4a 72 31 be 7d d0 bd be 8d 8f 61 be
       -0.1383383 -0.17328754 -0.37073126 -0.22027417
000210 b2 f2 0a be 67 2b 6c be 6d bf 20 be 57 1f 06 3d
       -0.13569143 -0.23063432 -0.15698023 0.03274473
000220 d6 06 a5 3d 2a 8a 8a 3d e8 51 c0 3d 92 cf f1 3d
       0.080579445 0.06764634 0.093906224 0.11807169
000230 13 08 ca 3d 5c 42 9d 3d 5d d3 d9 3d 42 c0 fa 3d
       0.09864821 0.07678673 0.106360175 0.122437015
000240 6b a1 1a 3e 6f d3 90 3e 7e 73 19 3e 98 fc 63 3e
       0.15100639 0.2828631 0.14985463 0.22264326
000250 79 33 ef 3e c3 98 8e 3e b8 34 92 3e 33 3d 0e 3f
       0.46718958 0.27850923 0.28555846 0.5556213
000260 77 92 b8 3e 03 5a 70 3d 8d 73 5c 3e d2 2d 7e 3c
       0.36049244 0.058679592 0.21528454 0.015513854
000270 75 93 02 3e 05 0c 7a 3e 26 08 c9 3d ef b2 43 3e
       0.12751563 0.24418648 0.09816007 0.19111226
000280 df 56 ce 3e d4 be 25 3e bb 6a e4 3c 51 cc 09 3c
       0.40300652 0.16186076 0.027882924 0.008410529
000290 2b e2 c5 bd 94 7a c7 bd d5 2c 0e 3d 23 9e 9c bd
       -0.09662279 -0.09740177 0.034710724 -0.0764735
0002a0 4b 8d 35 3b cb e1 28 3d dc 5c 99 bb 76 93 88 bc
       0.0027702625 0.041230958 -0.004680259 -0.016671877
0002b0 00 c7 4b bc 55 f1 48 bd cc db 12 be bd e2 17 be
       -0.012437582 -0.049058277 -0.14341658 -0.14832588
0002c0 13 13 6e be 95 76 c5 bd 9b 3f ea bd 65 8f 76 be
       -0.23249464 -0.09641758 -0.11437913 -0.24078138
0002d0 01 27 15 3a d0 2e 2f be 54 9a 27 be 9a 31 8d bd
       0.0005689711 -0.17107701 -0.16367465 -0.06894226
0002e0 9b 3d 8b be a0 54 91 be 8e f0 cb bd 9e 90 6f be
       -0.2719544 -0.28384876 -0.099579915 -0.23395011
0002f0 03 65 70 be 22 6a 38 3d 40 0d 65 3e 0e b4 66 3e
       -0.23476033 0.04502309 0.22368336 0.22529623
000300 64 30 e3 3d 89 75 ec 3e c5 45 cc 3e 5c bf f7 3d
       0.11093214 0.46183422 0.3989698 0.12097046
000310 aa 6a f4 3e 8f aa cc 3e 42 a6 a7 bd 7a 59 17 bc
       0.47737628 0.39973876 -0.08186008 -0.0092376415
000320 81 4f f9 bd 27 8b 0c bd 7c 86 15 3d 76 14 c8 3c
       -0.12173367 -0.034312394 0.036505207 0.024423819
000330 24 44 46 bd a1 38 84 3c 9d e7 14 be c0 2d a6 3a
       -0.048404828 0.016140284 -0.14541478 0.001267843
000340 60 d5 b6 bd 50 05 18 be ca 71 c8 bc 8f da a5 be
       -0.08927417 -0.14845777 -0.024468321 -0.3239331
000350 15 a0 4c be fd aa 2f be ea fd 24 be 38 87 72 be
       -0.19982941 -0.1715507 -0.16112486 -0.23684394
000360 dc 99 87 bd f2 eb 16 be 78 ce ce bd 0d cc 1e be
       -0.06621143 -0.14738443 -0.100979745 -0.15507527
000370 cc ee 9d be 33 19 34 be 1e c0 b7 bd 35 56 2f be
       -0.3084625 -0.17587738 -0.0897219 -0.17122729
000380 5c be b3 bd 53 44 7b bd 5e 67 15 bd d4 df a0 3b
       -0.087765425 -0.061344456 -0.03647553 0.004909495
000390 cd 36 f4 bc 54 f5 22 3d 4b a4 82 bc 9e 2d 88 bd
       -0.029811287 0.039784744 -0.015947482 -0.06649326
0003a0 2a 7e c2 38 5e d4 b2 3c ae 6c 10 3d 96 f5 ec 3d
       9.274141e-05 0.02182978 0.035259895 0.11570279
0003b0 5a 07 af 3d 24 a5 5b 3e 39 59 6e 3e 65 48 b6 3e
       0.08546324 0.21449715 0.23276223 0.35602108
0003c0 ff 06 94 3d ce 6d 15 3e b9 88 3d 3e 59 d0 09 3e
       0.07227897 0.14592668 0.18509187 0.13458385
0003d0 f8 52 b3 3d 7d 8b 5e 3e 41 56 77 3e 9c 57 b7 3e
       0.087560594 0.21732898 0.24153997 0.35809028
0003e0 3f c7 0f 3f 49 dd 17 3e 1e b0 3b 3e 27 67 a2 3e
       0.561634 0.14830507 0.18328902 0.31719324
0003f0 c2 4b c4 3d f8 84 c5 3d 9d af bf bd 0d 8f 3a 3d
       0.09584762 0.096445024 -0.093596675 0.04554658

bias f4 [2]
000000 03 8d df 3d 87 f4 a8 3e
       0.10915568 0.3299906
