Baseline/best_interm.pt (torch_old, 829035 bytes, 16 tensors)

weight f4 [128, 3, 3, 3]
000000 ef 2e 38 be 20 b9 d6 bd 0e e6 ab bd a6 aa 31 be
       -0.17986654 -0.104845285 -0.08393489 -0.17350253
000010 4f 6e f3 3c a5 d5 96 3d a1 e2 f7 bc 95 73 92 bd
       0.029715685 0.07364968 -0.030259432 -0.07150952
000020 0e a8 80 3b cd 98 21 be 59 15 fa bd 9d d8 19 bc
       0.0039262837 -0.15780945 -0.12211103 -0.009390024
000030 10 03 2a 3e 80 47 83 bd 6c 19 b9 3d 8b c1 a4 bd
       0.16602731 -0.06410122 0.09038052 -0.08044728
000040 29 53 65 bd ee 89 40 be 56 90 28 3e 8a 30 45 3e
       -0.05598751 -0.18802616 0.1646131 0.19256797
000050 e3 98 97 3a 27 7b 02 3e cf 78 26 3e 80 69 ce 3d
       0.001156595 0.12742291 0.16257022 0.10078716
000060 60 2b d5 3d b8 79 36 be 45 07 34 be 29 f0 1b be
       0.10408664 -0.1781987 -0.17580898 -0.15228333
000070 32 d9 5f 3d 63 14 2f be 69 55 1b be e9 6b c9 bd
       0.054650493 -0.1709762 -0.151693 -0.09835035
000080 9e 45 3a be c2 af a5 bb 2c 7e b7 3c 88 95 f0 bd
       -0.1819062 -0.0050563524 0.02239903 -0.11747271
000090 b7 3d 00 3e 3c 1b 88 bd 71 1d 48 bd cc 9d 0f 3e
       0.12523542 -0.066458195 -0.048856203 0.14025038
0000a0 92 32 23 3e 71 64 e1 bc 75 b6 0f be 8b fd cf bd
       0.1593726 -0.027513715 -0.14034446 -0.10155781
0000b0 c0 e1 9a 3c bc b1 e7 3d 7d 70 c4 3d d4 ab 9d bd
       0.018906474 0.11313197 0.09591768 -0.07698789
0000c0 bd df 33 be 6c 90 26 be b4 a5 63 bd c8 9e 05 3c
       -0.17565818 -0.1626603 -0.05557795 0.008155532
0000d0 08 67 a5 bd 42 f0 15 be 76 a5 c5 3c 04 7e 18 be
       -0.08076292 -0.14642432 0.02412675 -0.14891821
0000e0 46 6f 13 be 8b 94 1c be b2 5c 47 bd ae b4 31 3e
       -0.14397916 -0.1529104 -0.048672386 0.1735408
0000f0 a8 62 a1 3d 58 47 9e bc e4 64 30 3d dc 5d 95 3d
       0.07880145 -0.019321129 0.043064967 0.07293293
000100 b0 73 31 bb c6 ba 22 be 50 8e fa bd 13 d4 09 be
       -0.0027077012 -0.15891561 -0.12234175 -0.13459806
000110 c0 cd 0d bc a4 fd 38 be 86 7a 23 bd aa bc 99 bd
       -0.008655012 -0.18065506 -0.03991177 -0.07506688
000120 fc 3c 45 3e 59 18 24 3e 65 a6 ec 3d 32 98 6c 3c
       0.19261545 0.16024913 0.11555175 0.014440583
000130 74 f8 6f bd 00 1f 58 3d d3 c0 03 be 0f a8 9e bd
       -0.058586553 0.05276394 -0.12866525 -0.077468984
000140 ba 35 0c bd 7d 85 2a bd 87 a2 36 be e0 7e a2 3d
       -0.034230925 -0.04163121 -0.17835437 0.07934356
000150 c9 3e 25 3e 25 dc d0 bd f2 7d 5f 3d 62 1c 9c bc
       0.16137232 -0.10198239 0.05456347 -0.019056503
000160 91 f4 69 bb d5 4e 67 3c 29 c2 28 3e 2b 99 c2 3c
       -0.0035698751 0.014117916 0.16480316 0.023754677
000170 b1 8b fe bd 51 b2 93 bd 52 d4 bb 3d da ea 6a 3d
       -0.12428988 -0.072117455 0.09171356 0.05735288
000180 44 8e 98 39 c3 2a e8 bc 80 87 9f bd b8 e0 83 bd
       0.00029097695 -0.028340703 -0.077895164 -0.06439346
000190 0a ef c7 bd bd a0 10 3d db e6 6d 3d b9 f7 1a 3e
       -0.0976239 0.035309542 0.05808149 0.15133561
0001a0 47 5c 22 bd a6 4e 93 3c db 8d 03 3e 19 73 b3 3d
       -0.039638784 0.017981838 0.12847082 0.087621875
0001b0 0e a6 db 3c 37 c0 7a 3d 64 b2 45 3c 6a e8 26 be
       0.02681258 0.061218467 0.012066457 -0.16299596
0001c0 39 c8 1b 3c 20 c4 23 bd c9 fd 33 3e d7 0a 34 3e
       0.009508186 -0.03998196 0.1757728 0.1758226
0001d0 33 08 25 3d 6f 3d 31 3e 7e d0 cd bd 4b d7 28 3e
       0.040291023 0.17308591 -0.10049532 0.16488378
0001e0 ba b0 29 3e db 91 19 bc 8b 95 22 be 16 2a 84 bd
       0.16571322 -0.009373154 -0.15877359 -0.0645334
0001f0 30 dd 5e bd 85 68 4d bb 3b 01 2a be b0 c2 34 3d
       -0.05441016 -0.0031342816 -0.16602032 0.04413098
000200 33 bf 92 bd a9 1e 27 bd 45 48 ba bd ff 3b 04 bd
       -0.071653746 -0.040800724 -0.090958156 -0.03228378
000210 db 61 2e be ac b5 bf bd 20 68 d5 3c 73 05 04 3e
       -0.17029516 -0.09360823 0.026050627 0.12892704
000220 d9 e0 36 3e 12 9e 0f be da 5e ac 3d b8 fa d3 bd
       0.1785921 -0.14025143 0.08416529 -0.10350555
000230 e7 75 14 be 97 76 8c bb 53 14 db bd 23 b8 25 be
       -0.14498101 -0.004286598 -0.10697236 -0.16183524
000240 4c 6a 3c be ab e4 07 be fe 33 1e 3e 5d 07 d3 3d
       -0.18399924 -0.13270824 0.15449521 0.10304139
000250 a6 39 a4 bd 40 d5 07 be 7f e3 1b be af 19 f1 bd
       -0.08018808 -0.13264942 -0.15223502 -0.11772477
000260 a3 11 aa bd 5d af f4 3d 92 ba 88 3d 11 69 90 bd
       -0.08304145 0.119475104 0.066762105 -0.0705129
000270 9d 24 0c 3e 59 38 ec bd 5c 70 1c be 72 c2 3e 3d
       0.13685842 -0.11534185 -0.15277237 0.046572156
000280 77 8d d0 bd 1f 79 70 3d 43 c1 24 3e 64 c5 bb bd
       -0.10183232 0.05870926 0.16089348 -0.09168509
000290 3f c2 09 be 7e 61 90 3d 40 2d 32 be 3a 57 2e 3e
       -0.13453005 0.07049845 -0.17400074 0.17025462
0002a0 45 9f bc bd e1 3d bb 3d 2e e2 1c be 7d c3 02 be
       -0.09210066 0.09142662 -0.15320656 -0.12769885
0002b0 eb a8 bd 3c 18 cb 88 3d a3 09 1c 3e 5e 95 24 3e
       0.023151835 0.06679362 0.15238051 0.16072604
0002c0 ec 3b 60 bc 7e f2 bd bc 2e 33 09 3d 7b 4d 3b bd
       -0.0136861615 -0.023186918 0.033496074 -0.045728188
0002d0 ae 8e 01 3c b6 55 39 be 96 2f 20 be d0 56 08 3e
       0.007907553 -0.18099102 -0.15643153 0.13314366
0002e0 a7 33 e3 bd 69 93 1c 3e 5e 00 b4 3c 20 d5 42 3d
       -0.11093836 0.15290608 0.021972831 0.047566533
0002f0 4d 22 34 3e 1d 6f ce bd c0 57 c6 bc 44 06 24 3d
       0.1759121 -0.10079787 -0.024211764 0.040045038
000300 e0 41 93 3d bd 80 39 be ac dc 97 3d ed d5 db bd
       0.07190299 -0.18115516 0.07415137 -0.107341625
000310 24 fb ff 3c 7e d8 0a 3e 4c f4 d6 bc 12 cc 53 bc
       0.031247683 0.13559148 -0.026239537 -0.012927072
000320 b9 73 ae bc 53 3b 1d 3e 7b 2c d2 3d e6 fd d1 3c
       -0.021295415 0.15354662 0.1026239 0.025633764
000330 45 0b fc bd d8 1e e4 bd 4f 0e 16 3e 04 e4 13 3e
       -0.12306837 -0.111386955 0.14653896 0.1444245
000340 36 67 f0 3d a2 84 13 be 00 a8 1f 3e b9 67 4a bc
       0.11738436 -0.14406064 0.1559143 -0.012353831
000350 3f 69 17 3e e0 5f 31 3e 0a 6c de 3c c0 87 97 bd
       0.14786242 0.1732173 0.027151126 -0.07398939
000360 99 25 3d 3e b9 c7 c2 bd b8 3c 05 3e d6 45 37 be
       0.18471374 -0.0951075 0.13011444 -0.17897734
000370 70 5a 60 bd ad 23 26 be aa 2e a5 bd f3 42 b3 3d
       -0.054773748 -0.16224547 -0.08065541 0.08753004
000380 c4 45 07 be 30 9c 2d be 57 82 09 3e 4b 2b c6 3d
       -0.13210207 -0.16954112 0.13428627 0.09676226
000390 ab 76 b8 bb 28 6d 0f be 57 31 6a bd a8 7e 8c bd
       -0.0056293807 -0.14006484 -0.05717596 -0.06860095
0003a0 42 79 e4 3d 31 c9 8f bd 97 8d 52 bd b9 d3 05 be
       0.111559406 -0.07020796 -0.05140456 -0.13069047
0003b0 47 81 ad bd 8c 81 e0 3d 8b ad 04 3e f2 2d 0c 3d
       -0.08471923 0.10962209 0.12956826 0.034223504
0003c0 9a 94 88 bd d0 c5 42 3e 5c 5b 32 3d f0 cd 9a bd
       -0.066689685 0.19020772 0.04354416 -0.07558811
0003d0 17 46 8b bd e7 5e e7 bc 6f 23 b8 3d 46 7b 8d 3d
       -0.06800478 -0.028243495 0.089911334 0.06908278
0003e0 4f 85 0d 3e a1 70 23 bc 09 ab 21 3e b6 b7 a2 bd
       0.13820384 -0.009975583 0.15787901 -0.07945196
0003f0 c3 a0 c3 bd 2d 75 9b bd 9c 90 3d be 6c e9 05 be
       -0.09552147 -0.07590709 -0.18512195 -0.13077325

bias f4 [128]
000000 b0 08 24 be 23 79 d2 bc 4b 1c 29 be 49 e5 30 be
       -0.16018939 -0.025692528 -0.16514699 -0.17274965
000010 19 c0 46 3c 8d 9f 44 3e 8e 59 47 3c c4 12 50 bc
       0.012130761 0.19201489 0.012167348 -0.012699787
000020 44 23 39 3e 2d 84 89 3c 39 7d da bd ac c5 00 3e
       0.18079859 0.01678666 -0.106684156 0.12575406
000030 22 89 13 3e e7 3e 2d 3e 80 73 1d 3e 77 77 2e 3e
       0.14407781 0.16918527 0.15376091 0.1703776
000040 76 a6 91 bd 31 9d e5 3c e5 27 93 bd f2 91 b3 bc
       -0.07111828 0.028029056 -0.07185344 -0.021920178
000050 e8 9b 1b 3e 2b 6c 16 be c3 38 d9 3d bd 71 e2 bd
       0.15196192 -0.146897 0.106065296 -0.1105685
000060 63 9b 03 bb 9f 12 b9 bc db 1d b2 bd 5f 5f 8b 3c
       -0.0020081631 -0.022591887 -0.08697101 0.01701325
000070 1a b1 cf bd 7b 3c 3b 3e 74 28 92 bd 3c d9 fa 3d
       -0.10141201 0.1828479 -0.07136622 0.122484654
000080 f1 ed 44 bd c8 f5 18 be dd e5 14 3e dd 99 4d bd
       -0.04807848 -0.14937508 0.14540811 -0.050195564
000090 02 1d 9e bd bd c1 69 3c f1 b5 00 bc aa c6 6c 3d
       -0.077203766 0.014267382 -0.007855878 0.05780665
0000a0 30 0c 25 bd 86 f1 5d bd f0 e4 d3 3d aa c1 ab 3d
       -0.040294826 -0.054185413 0.10346401 0.08386548
0000b0 86 f5 33 3e 89 15 c8 3c da b9 4a bd 74 68 1c bd
       0.17574129 0.024424331 -0.049493648 -0.03818555
0000c0 a3 e3 17 bd f4 83 7e bd 0e d6 80 bd 37 f2 53 bd
       -0.037082326 -0.06213756 -0.06290828 -0.051744666
0000d0 3c 4a 6b 3d ca cd 9c 3d b0 c6 11 3e 06 67 42 be
       0.057443842 0.07656439 0.1423595 -0.18984613
0000e0 a9 ad 16 3e 15 3e 0e bd f2 c8 40 be 48 ab 01 3e
       0.14714684 -0.034727175 -0.18826655 0.12662995
0000f0 d0 75 da bd 48 01 a3 bd 71 68 8b 3d 62 b8 10 3d
       -0.10667002 -0.07959229 0.0680703 0.03533209
000100 9f 1c 09 3e a7 af 05 be ba 96 d1 3d f8 f6 ce 3d
       0.13389824 -0.13055287 0.10233827 0.10105699
000110 f5 ef f7 3d 18 4f 7c bd ba 25 13 3d fa 92 78 3d
       0.12106315 -0.061598867 0.03592465 0.060687043
000120 a8 e5 40 3e 8a da ea bd fb 0e 32 be 23 c0 32 be
       0.18837607 -0.11467464 -0.17388527 -0.17456107
000130 8d 1a ff 3c dc 56 19 be bd 83 17 bd 34 11 ae bd
       0.03114059 -0.1497454 -0.03699087 -0.08499375
000140 04 9a 23 3d 9f 9d 0f be 1d 8c f8 3d 96 8d 42 be
       0.039941803 -0.14024971 0.121360995 -0.18999323
000150 85 48 ca bd 37 5e 28 3d e5 3e 42 be 1f 1b 45 3d
       -0.09877113 0.041105475 -0.18969305 0.048121568
000160 49 13 86 bd d4 f7 c5 bd eb 59 13 3e bd a0 70 bd
       -0.06546647 -0.0966641 0.1438977 -0.058747042
000170 7d 3c 56 3d 47 cb 87 bd 07 c3 b6 3d 41 5f 34 3e
       0.05230378 -0.06630569 0.08923917 0.17614461
000180 ec e7 3f 3e 65 dc e8 bd 7f ef 45 be dc a6 06 be
       0.18740815 -0.11370162 -0.19329642 -0.1314959
000190 48 9d 60 3d 43 20 98 3d 99 ee d4 3d a8 2d a5 3d
       0.054837495 0.074280284 0.103970714 0.08065349
0001a0 5f 4e 42 3e 65 e5 11 be 77 8c 19 be 75 13 6a bd
       0.18975209 -0.14247663 -0.1499499 -0.057147462
0001b0 a3 6c 1b 3e b7 2f 1c be 7b 8c 16 3e 7c 95 0e 3d
       0.1517816 -0.15252577 0.14702027 0.03481053
0001c0 cd 30 f4 3d a9 c3 45 3e 79 01 46 3e 08 e2 3e 3e
       0.119233705 0.1931292 0.193365 0.18640912
0001d0 0b b4 3e bd 2f aa a7 bd 1b 73 a8 3d b9 80 28 3e
       -0.04655842 -0.08186757 0.082250796 0.16455354
0001e0 54 fb 94 3b 07 02 2e bd 80 a1 f8 bc d0 9d 86 bd
       0.004546562 -0.042482402 -0.030350447 -0.06573069
0001f0 38 6f c2 3d a2 df 48 be 53 7e 2a 3e 8a 46 d0 ba
       0.094938695 -0.19616559 0.16649751 -0.0015890163

weight f4 [64, 128, 3, 3]
000000 ea c4 1f bc a6 9e 16 bb 24 99 24 bc 98 29 8e bc
       -0.009751538 -0.0022982745 -0.010046277 -0.017353818
000010 9d f5 39 3c 2c d0 c5 3a 43 81 e7 bb 51 25 51 3b
       0.011350063 0.0015091947 -0.0070649697 0.0031913111
000020 1d bb 81 3b a5 f3 f3 3b fb b8 9a bc 1b aa b0 bb
       0.003959073 0.007444816 -0.018887034 -0.005391372
000030 3f 27 bf bb 0f 3f df bc 19 88 af 3c c4 a5 92 bc
       -0.005833536 -0.027251748 0.021427201 -0.017901309
000040 fa 25 8e 3c af 58 8c 3c e5 db 19 3c 7c 2b f9 3c
       0.017352093 0.017132131 0.009390806 0.030416243
000050 2c 53 62 bc 10 8e a8 3b 23 aa 81 bc 5a 0e 1d bc
       -0.013813775 0.0051438883 -0.015828198 -0.009585941
000060 78 c6 91 3c 7a 01 f8 3c d2 f2 15 bc 2c 8b 5b bb
       0.017794833 0.030274142 -0.009152131 -0.00334997
000070 5e 76 01 bc 23 70 c7 3b ce f4 95 bc 80 91 7a bc
       -0.007901756 0.006086366 -0.018305209 -0.015293479
000080 56 19 e9 3a c4 dd 0d 3d a1 0a 3e 3c 4b dc 81 bb
       0.001778404 0.03463532 0.011599214 -0.0039630285
000090 81 e3 a7 3c b7 8a b9 3c a6 6f ab 3c cd 3c 8e 3a
       0.020494225 0.022649152 0.020927262 0.001085186
0000a0 df 24 16 bb a4 39 a3 3c c5 81 98 3c bf 1f cf 3c
       -0.002291016 0.019924946 0.018616566 0.025283692
0000b0 9d ef c4 3c ae 19 1e bb 1e 46 f7 3c 35 2f 51 3c
       0.024040038 -0.0024124193 0.030184802 0.012767603
0000c0 25 4d 0e 3d 71 ab 09 3d 0d 25 00 3d 5a 63 ce 3c
       0.03474154 0.033610765 0.031285334 0.025193859
0000d0 05 7a e3 3c ad 34 f4 bb ef d8 d3 bb ad 9e 12 ba
       0.027768144 -0.0074525685 -0.0064650695 -0.00055931025
0000e0 fe fd fb bb ed ea d3 3c c2 00 0e 3c c5 8b 3f bb
       -0.0076901903 0.025868857 0.008667173 -0.0029227596
0000f0 23 dd 07 bc 5c 86 b2 bc ab 7f e6 3b a8 71 0d 3d
       -0.008292469 -0.021792583 0.007034262 0.03453222
000100 65 71 e5 3c fa f0 02 3d 8c c4 ea 3c 61 30 ac 3c
       0.028008172 0.031968094 0.028658174 0.021019163
000110 c5 1c fe 3b ea 93 79 bc c2 ef e6 3c 5f 4c 68 bc
       0.0077548944 -0.015233019 0.028190497 -0.014178365
000120 92 b4 56 bc eb ff 8f 3c 6a 3b b3 3c c2 9b 28 bc
       -0.013104575 0.017578086 0.021878917 -0.010291042
000130 1a 65 c8 3c c6 94 b7 bc 22 e8 31 3c e1 dc 87 3c
       0.024462271 -0.022409808 0.010858567 0.016584815
000140 fa 56 24 3c b4 72 37 bc 65 28 6b bc ca 3d ef 3c
       0.010030502 -0.011196781 -0.0143528925 0.029204268
000150 6d c0 42 3c 36 33 eb bb b4 61 0b 3d b1 4d 5e ba
       0.011886698 -0.0071777357 0.034028724 -0.0008480205
000160 80 17 0c b7 f3 bd 57 3c f1 6e d8 3c 6d 04 38 bc
       -8.350122e-06 0.013167846 0.026420088 -0.011231524
000170 2b 93 84 3b bf 6f 18 bc fd 89 1a bc 60 ec 47 b8
       0.004045864 -0.009303986 -0.009432313 -4.766544e-05
000180 5c 80 80 3b f8 b8 a1 3c da 54 93 bc 6c 70 d2 3c
       0.0039215516 0.01974152 -0.017984796 0.025688373
000190 ed c9 01 3d e3 c3 af 3b 33 9d 76 3b fb 5e 80 3c
       0.031686712 0.0053639277 0.003763032 0.01567029
0001a0 d5 43 97 bc 3d be e5 3c da b6 b1 3a ff 48 00 3c
       -0.018464962 0.028044814 0.0013558522 0.007829904
0001b0 6a 69 b9 3c 37 12 ab 3c 5e eb a5 bb 09 41 54 bc
       0.022633273 0.020882709 -0.0050634583 -0.012954959
0001c0 37 a7 a1 bc 79 f1 82 bc d2 b3 1b 3b 00 da 6b bc
       -0.019733055 -0.015984284 0.0023758304 -0.014395237
0001d0 5e 96 b4 3b 7f 4b 72 bc 08 9d 90 3c a5 6c ab 3c
       0.005511089 -0.0147885075 0.017653003 0.02092583
0001e0 91 d5 d2 3c a7 51 96 bc 18 d9 a3 bc 1f 38 55 3c
       0.025736602 -0.018349482 -0.02000098 0.013013869
0001f0 54 57 76 bb f8 cd cd 3c be 82 d5 bc 04 57 e8 3c
       -0.0037588673 0.025122628 -0.02606332 0.028361805
000200 72 a6 9f bc a9 c4 b9 bc 70 7d 08 bb ce 8d 46 bc
       -0.019488547 -0.022676783 -0.002082672 -0.01211877
000210 80 e2 7e bc a4 41 a3 3c 5d 0a d3 3c 20 b9 3f 3c
       -0.0155569315 0.01992876 0.025761778 0.011701852
000220 45 54 ee 3a d1 7c 24 bb 69 17 81 bc 8e 67 c4 3c
       0.0018183073 -0.002509881 -0.015758233 0.02397516
000230 68 bc 93 bc 22 13 a2 bc 90 4e 9a 3c 8c 0d 8c ba
       -0.018034175 -0.019784514 0.01883629 -0.001068519
000240 b1 7d b3 3c 81 68 fb bb ed 04 de 3c 0e 89 9b bc
       0.02191052 -0.00767237 0.027101958 -0.018986251
000250 1e 60 a1 3c e8 28 cb 3c 02 eb ee 3a 44 cb b1 3c
       0.019699153 0.024799779 0.0018227997 0.02170337
000260 df ba 58 3b 7d 56 d0 bc 38 2d 6e 3c 4e c2 ae bc
       0.0033070368 -0.025431866 0.014537148 -0.021332886
000270 fe 69 93 3b 78 2b bb bc 4f 1a 2b bc c2 ee a9 bb
       0.0044987192 -0.022847876 -0.010443284 -0.005185933
000280 6e a3 fe bb d9 f8 cf bc b8 27 4d bc ef c1 cd bc
       -0.007770947 -0.025387214 -0.012521677 -0.025116889
000290 3b 94 a7 bc 41 c4 de bc 04 95 50 bc 9a 3e 1a bb
       -0.020456424 -0.02719319 -0.012730841 -0.0023535849
0002a0 0e 08 fc 3c 13 ed 86 bc 4c 84 94 bc b7 96 9b bc
       0.03076556 -0.016470468 -0.01812949 -0.018992765
0002b0 10 1a 07 3d 2f be 30 3b 7c cb 3f bb 0a 3e a6 3c
       0.03298384 0.0026968827 -0.0029265573 0.020293254
0002c0 bc 2c 51 bc 8a 6d 72 bb 87 41 01 3d cd ac b3 3c
       -0.012767013 -0.003699156 0.031556632 0.021932984
0002d0 e8 1d 9f bc 0c 6d d1 bb 9e 9d 8f 3b b1 61 46 3c
       -0.01942344 -0.006391173 0.004382803 0.012108252
0002e0 d9 0a 42 bc f0 16 c5 3c a4 d4 fb 3a a6 b9 c1 bc
       -0.011843407 0.024058789 0.0019213152 -0.023648094
0002f0 5e 63 1b 3c e4 9d a5 bc b4 a1 29 3c 76 2e a9 bc
       0.00948414 -0.02021689 0.010353494 -0.020652037
000300 8c 3f 50 b9 8e 60 af 3a dd b4 94 bc bc 66 12 bb
       -0.00019860099 0.0013380216 -0.018152649 -0.0022339066
000310 08 84 f4 3b 74 ea 08 bc 52 c4 0d 3c ad 7d a4 3c
       0.0074620284 -0.008356679 0.008652763 0.020079458
000320 e3 d4 04 3c 0f f1 c7 bc a3 8b 93 3b bd 4c 16 bc
       0.008107397 -0.024406938 0.00450273 -0.009173569
000330 3b 24 53 3c 49 7d 9c bc 75 4c 81 bc 3a 7d 4a 3b
       0.012887056 -0.01910271 -0.015783528 0.0030897395
000340 9b 16 ad 3c ec 9b 73 bb fe 4a 28 3b b4 fd a4 3a
       0.021128943 -0.0037171794 0.0025679464 0.0012587816
000350 87 67 9a bc 2a bc eb 3a da 6d 5b 3b 97 b9 14 3c
       -0.018848194 0.0017985154 0.0033482225 0.009077451
000360 1a 7b a5 3c 57 49 90 3c d0 18 cf 3c 72 ef 8a 3a
       0.020200301 0.017613096 0.025280386 0.0010599925
000370 6a 1b c8 bb 01 9b 09 3d dd 2a f8 3c a5 a2 ba 3c
       -0.0061067836 0.03359509 0.030293876 0.022782633
000380 86 44 f0 3c c3 e5 a9 3c b0 8c 04 3d e6 23 04 3d
       0.02932955 0.020739442 0.032360733 0.032260798
000390 39 b5 90 bc 77 59 af bc 80 b2 0e bc 25 50 eb 3c
       -0.017664539 -0.021404965 -0.00870955 0.02872474
0003a0 ce 6e 06 3d 30 0b 0a 3c 9b 00 96 bc f0 0e 2a bc
       0.032820515 0.008425519 -0.018310836 -0.010379538
0003b0 d0 c7 95 3c 3b f6 fb 3c c6 5f 17 3c 8b ba 7b bc
       0.018283755 0.03075706 0.009239143 -0.0153642995
0003c0 f2 22 ee 3c 9f 4c ea 3c 65 72 1c bc b2 e9 40 bc
       0.029069398 0.028600989 -0.009548758 -0.011774467
0003d0 1a 40 ad 3c 1b 98 8b bc e1 63 ec 3c d3 17 d8 ba
       0.02114873 -0.017040303 0.02885622 -0.0016486592
0003e0 47 60 81 3b f7 0c 3d bc 83 e3 cb bc 95 ae 33 3c
       0.0039482447 -0.011538736 -0.02488876 0.010966917
0003f0 ff 1c b9 bb 0e 2b 43 bc dc 9e e9 3c 2b 1f 27 3c
       -0.0056492086 -0.0119121205 0.028518133 0.010200302

bias f4 [64]
000000 56 36 ef 3c df 6b 2c 3c f0 01 ab 3c 5f 93 4c bc
       0.029200714 0.010523765 0.020874947 -0.012486308
000010 ab 6d 5c 3c be f3 3f 3c e2 ea 6e bc ba 92 ad bc
       0.013453881 0.0117158275 -0.014582368 -0.021188129
000020 52 47 30 3c f6 92 bb bb 20 4a 23 3c d7 d7 93 3c
       0.010759192 -0.005724306 0.009966403 0.018047256
000030 6f ad 68 bc 9d f8 10 3b 7d e7 b1 bc 39 4e 01 3b
       -0.014201506 0.0022120841 -0.021716828 0.0019730462
000040 98 5b f5 3a dd 6b 7b bc b8 ee 29 3c 63 b7 b4 bc
       0.0018719314 -0.015345541 0.010371856 -0.022060102
000050 c6 a1 b0 3b 19 d7 61 3b 00 c3 80 3c 04 77 be ba
       0.0053903786 0.0034460484 0.015717983 -0.0014531319
000060 39 06 41 bc 06 1d 9d bc d2 ec 91 3c 7c 33 5e 3c
       -0.011781269 -0.019178879 0.01781312 0.0135620795
000070 c0 7b c0 bc 01 41 49 bc c8 3b c0 3c 23 ce da bb
       -0.023496509 -0.012283565 0.023466006 -0.0066774054
000080 ae 45 02 bc 06 8b f0 bb 87 68 d7 bc 0d 5f 56 bc
       -0.007951183 -0.0073407916 -0.02629496 -0.013084185
000090 74 d9 2b 3c 6b ab 66 3b e0 98 48 bb e4 3d 0d 3a
       0.010488857 0.0035197388 -0.0030608699 0.00053879456
0000a0 0e 7d 73 3c 4e 33 a1 38 81 9f 17 bc c5 e9 97 3c
       0.014861358 7.6866345e-05 -0.009254337 0.018544087
0000b0 a3 51 5a 3c 36 70 24 3b ab b9 8b bc 85 bd 67 3b
       0.013325128 0.0025091297 -0.017056307 0.0035360765
0000c0 3a 9f 0c bc eb 9d d4 bb f7 2e 87 bc d6 a1 10 bc
       -0.008582884 -0.006488552 -0.016501887 -0.008827647
0000d0 73 bf 20 3c b3 6e 8f 3c c5 9a 8a bc b5 46 82 bb
       0.00981127 0.01750884 -0.016919503 -0.003975714
0000e0 70 b9 7e b9 33 05 91 3c 10 eb 8d bc 67 5f c6 3b
       -0.00024292408 0.017702674 -0.017324 0.0060538533
0000f0 5c 56 9a 3c 61 b5 d7 bc 66 87 12 bb d9 51 64 3c
       0.018840007 -0.026331605 -0.0022358536 0.01393553

weight f4 [32, 64, 3, 3]
000000 c6 cb 02 3c 4b 62 f0 bb ad 74 a3 bb 2b 50 7d bc
       0.007983154 -0.007335936 -0.004988274 -0.015461008
000010 82 69 0e bd 4e ae 77 bc 47 9c 12 bd 65 96 3d bc
       -0.03476859 -0.015117241 -0.03579357 -0.011571501
000020 67 ab c5 3c 70 a7 f8 3b e5 f7 0d 3c 50 a6 dd 3b
       0.024129583 0.0075883195 0.00866506 0.0067642108
000030 c0 1c 32 bc 09 ae 7d 3c 7f 99 c8 bc 75 35 7d bc
       -0.010871112 0.015483388 -0.024487255 -0.01545464
000040 8f ed 8e bc ce 81 7c bb 38 d5 85 3c e4 4a 10 3d
       -0.017447261 -0.0038529518 0.016337022 0.03522767
000050 7c c3 17 3c c4 4e e5 3b 23 66 cd 3b c2 c9 97 bc
       0.009262916 0.006997915 0.006268279 -0.018528823
000060 9d cd 01 bd 9b fb f8 3c 46 19 7f bb 72 87 89 3c
       -0.03169023 0.030393412 -0.0038924976 0.016788218
000070 7f 11 9a bc f2 81 02 bd cb c4 7e bc 86 cc 90 3c
       -0.01880717 -0.031862207 -0.015549849 0.01767565
000080 3d bd 5f 3c 7f 64 c1 bb 6a 9a 02 bc fd f8 fd bb
       0.013655958 -0.0059018726 -0.0079713855 -0.007750629
000090 fb 39 1a bd ce 47 44 bc 3f 6f 8e 3c ea 15 ae bc
       -0.03765295 -0.01198001 0.01738703 -0.021250684
0000a0 bf 72 65 3c fa 21 ea bc 14 0b 7d 3c e6 0f 0c 3c
       0.014004408 -0.028580654 0.015444536 0.008548712
0000b0 de 04 0b 3d eb 73 f3 3c fa 5b 42 ba d6 f7 44 bc
       0.03394019 0.02971836 -0.0007414218 -0.012021979
0000c0 65 e3 90 3b 7e 0d fc bb c2 f9 6b bc b8 1b 29 3b
       0.004421639 -0.007692038 -0.014402809 0.0025803875
0000d0 c1 8c ec 3b 71 67 26 bc c0 fa e4 3c 83 a4 f6 bc
       0.0072189276 -0.010156498 0.027951598 -0.030107742
0000e0 66 c7 c1 3b ba 9e b1 3c c5 03 bf 3c 61 ba 84 3c
       0.0059136627 0.021682132 0.023317227 0.016202154
0000f0 1f 4b 03 bd b7 94 d9 3b 78 c4 5b 39 f1 04 80 3b
       -0.032054063 0.0066400426 0.00020958658 0.003906839
000100 49 06 1b bd 5f b8 e6 3a c6 44 53 bb b3 7c d1 3a
       -0.03784779 0.0017602554 -0.0032237037 0.0015982598
000110 98 c4 72 bc 30 6f ad bb d1 95 b2 3b 33 e6 15 3c
       -0.014817379 -0.0052927956 0.0054499884 0.009149122
000120 ab 26 97 bb 38 34 8b 3a d2 e7 1d 3c 7a 73 31 bd
       -0.004612764 0.0010620421 0.00963779 -0.043323018
000130 da 87 a2 bc cf 62 a2 bc b7 56 af bc 83 2c 0c bd
       -0.01984017 -0.019822506 -0.021403654 -0.034222137
000140 46 c9 a5 bc 38 c3 8c 3c 35 95 fa bc 9e 79 cd bc
       -0.020237576 0.017182931 -0.030588726 -0.025082406
000150 2c 12 f2 3c 17 47 c9 3c 27 42 bb 3b 3a cc af 3c
       0.02954968 0.024570031 0.005714673 0.021459688
000160 62 17 b3 bb f8 70 73 3a c1 ac a0 bc 44 06 97 3c
       -0.005465434 0.0009286548 -0.019613625 0.018435605
000170 6a 52 70 3c f9 2f 26 bd ff ea 17 bd e6 31 c7 3b
       0.014668087 -0.040573094 -0.037089344 0.0060789464
000180 f9 6b 04 3d 5b 28 a2 3b 3f bf e9 3b 92 74 28 bc
       0.032329533 0.0049486584 0.007133394 -0.010281699
000190 f3 d0 a0 bc 2e 32 04 3b a6 51 f6 3b e3 c6 29 38
       -0.019630885 0.002017151 0.0075170575 4.0477968e-05
0001a0 25 c4 3a ba df d6 5a 3b 38 9a f4 bc 66 3d d8 3c
       -0.0007124565 0.0033392233 -0.029858693 0.026396465
0001b0 9b 1b 9d 3b 79 f6 49 3c 34 c5 b7 3b 16 1d 3a bc
       0.0047945506 0.01232683 0.0056082252 -0.011359474
0001c0 93 b1 37 bd cf bf a0 3b 34 91 63 3c db f3 3d 3b
       -0.044847082 0.004905678 0.0138896 0.002898446
0001d0 96 a3 b3 3c 8d e4 1f bc e1 1f dd bc a4 1e 96 3a
       0.02192859 -0.009759081 -0.02699274 0.0011453223
0001e0 34 0a 24 bd ac df e1 bc 25 d7 0f bd ce cd e4 3c
       -0.040048793 -0.027572475 -0.035117287 0.027930167
0001f0 eb 6c 0d 3d 6a fd d8 bc 31 b4 62 bc ed 06 08 3d
       0.0345277 -0.026488025 -0.013836906 0.03320973
000200 ce 6a 44 bb dd 77 63 3c 57 3c c0 bc 65 db 10 bd
       -0.0029970887 0.013883558 -0.023466272 -0.03536548
000210 42 27 18 bd 21 39 27 bc 6a 6b d2 3c 76 b6 fc 3c
       -0.037146814 -0.010206492 0.025685985 0.030848723
000220 fb 49 81 3c e4 ca 32 bc ed c8 b9 bb 88 3b 12 bd
       0.015782347 -0.010912631 -0.005669704 -0.035701305
000230 60 d2 b1 bc 51 c7 20 bd e6 49 6d bc 5a cb 3a 3b
       -0.02170676 -0.039252583 -0.014482951 0.0028502555
000240 c1 59 d3 3a f5 4c ac bc de 39 d9 bc f8 cd e0 3c
       0.0016124771 -0.02103279 -0.026516851 0.027441964
000250 25 61 59 3c e8 0d 09 bc 33 92 38 bd 84 81 9d 3c
       0.01326779 -0.008365132 -0.0450613 0.019226797
000260 c8 ff 53 bb f6 e9 2c bd d3 bf 08 bd 38 44 17 3d
       -0.0032348502 -0.04221531 -0.033386063 0.036930293
000270 2f 4b d6 3c f8 5a ef bc 67 36 6e bc 9f 31 89 bc
       0.026158897 -0.029218182 -0.014539338 -0.016747294
000280 00 e0 93 3c 53 36 c0 bc 27 61 67 bc bf 4c 24 bd
       0.018051147 -0.023463404 -0.014122284 -0.040112253
000290 8d 6a 1f bd 39 a1 2f bd d5 b8 12 3d 3f 82 1e bd
       -0.038919974 -0.042878363 0.0358208 -0.03869843
0002a0 62 58 c6 3b 2b 4a b0 3b 9f 5d 10 3d aa 0b ab 3b
       0.0060530165 0.0053799353 0.035245534 0.0052198963
0002b0 a7 b6 06 3d a4 e5 02 bd e7 d0 c1 3c 89 13 ea 3b
       0.032889035 -0.031957284 0.023659183 0.007143442
0002c0 59 f2 5a 3c 84 5a d2 bc 2e 68 ba 3a a3 71 a8 bc
       0.013363444 -0.025677927 0.0014221722 -0.020561999
0002d0 a1 87 18 3c 57 b9 9f 3b 6d b7 13 bd 22 1e 0b bd
       0.00930968 0.004874389 -0.0360636 -0.033964284
0002e0 f9 75 2d bd 23 4e 97 bc 61 7d 08 3d a6 b7 77 bc
       -0.042348836 -0.018469876 0.033322696 -0.015119469
0002f0 f8 28 a5 3c 34 02 92 bc 0c b8 ab bc 29 77 e1 bb
       0.020161137 -0.017823316 -0.020961784 -0.00688066
000300 68 0a ba bc ae 1f 69 3c d6 1d b0 3c 63 02 6a bc
       -0.02271004 0.014228744 0.021498602 -0.014282796
000310 70 1d e3 bc 2e 11 4d 3c 08 56 2a bd 05 5a 35 3c
       -0.027723998 0.012516303 -0.041585952 0.011068826
000320 26 16 fc bc f4 a6 5f bc b9 7e 47 bc e0 40 8a 3c
       -0.03077228 -0.013650645 -0.012176209 0.016876638
000330 f9 a8 0e bd b7 9d 27 bd b7 8d 33 bd ba eb c2 3c
       -0.034829114 -0.040921893 -0.04383632 0.023794044
000340 46 47 90 3c 1c 71 5c bc 0c 71 13 3c ba b2 34 bd
       0.01761211 -0.013454702 0.00899912 -0.04411576
000350 f2 8c 17 3c 71 a7 ea 39 5a d4 b9 bc cd 01 8d bc
       0.009249913 0.00044756712 -0.022684265 -0.017212773
000360 1b e0 bf 3c 75 7b 38 3b 80 62 9c 3c 00 63 8e bc
       0.023422292 0.0028149758 0.019089937 -0.017381191
000370 f3 93 2e bd bb ef fb bc 94 5c 01 bd 55 6b 49 3c
       -0.042621564 -0.03075396 -0.03158243 0.012293656
000380 9d 13 fb 3c da 6c 65 bb 83 97 18 3c bb 62 96 bc
       0.030649 -0.0035007508 0.009313467 -0.018357625
000390 7c fc 02 3c 78 ac 16 bc f9 b6 ce bc 7b 74 a5 3c
       0.007994767 -0.009196393 -0.025233733 0.020197144
0003a0 4d 78 c0 bb 3c 98 b6 3a 08 cf 09 3c a4 f6 8c 3c
       -0.005873716 0.0013930867 0.0084111765 0.017207451
0003b0 3f 03 29 bc 4b 46 93 3b 97 20 04 3d 58 a3 f4 bc
       -0.010315715 0.0044944636 0.032257643 -0.029863045
0003c0 a8 ce 10 3c bd 32 31 bd f2 46 ab 3c b3 d1 0d 3d
       0.008838333 -0.04326128 0.020907853 0.034623813
0003d0 2b c1 0c bd 94 21 07 3d 3a 77 20 bd 90 21 0e bd
       -0.034363907 0.032991007 -0.039176203 -0.034699976
0003e0 53 b2 46 3c 9e 21 0e 3c 46 1c d4 3c 93 a7 e6 3c
       0.012127477 0.008675007 0.025892388 0.028156077
0003f0 13 02 2a bd 96 21 19 bd 4c bd bf 3c 3c 63 80 bc
       -0.041505884 -0.037385546 0.023405693 -0.015672319

bias f4 [32]
000000 6d eb f5 bc 88 ca 9b 3c 89 0e 06 bb b2 01 f6 bc
       -0.030019486 0.019017473 -0.002045544 -0.030030105
000010 b6 7f 35 3d 4c 08 9a bc 4f 91 c1 bc 71 5f 29 bc
       0.044311248 -0.018802784 -0.023628859 -0.010337696
000020 77 f8 e3 bc b0 ae a7 3c f1 39 ed 3c a9 47 83 3b
       -0.027828438 0.02046904 0.028958293 0.0040063453
000030 81 02 40 bc d8 4d 17 3d bd 24 f8 bc f7 6c de bc
       -0.011719347 0.036939472 -0.030290956 -0.027151568
000040 3f 4f 95 bc 14 82 b9 3c d6 af 89 3c 98 47 64 bc
       -0.018226264 0.022645034 0.016807478 -0.013933085
000050 f5 43 e5 3c 36 22 8e 3c 13 7c 8b 3c 09 63 4e 3c
       0.027986506 0.017350297 0.017026937 0.012596854
000060 6c aa ad bc 26 57 be bc 13 0a e2 bc 70 3b 54 bc
       -0.021199428 -0.023234915 -0.027592694 -0.012953624
000070 69 21 7b 3c 25 6b 0f 3d 4a 8e 9c bc 1c fd a2 3c
       0.01532779 0.03501429 -0.019110817 0.019896083

weight f4 [16, 32, 3, 3]
000000 bc 3c 5a bd 0e 40 20 bd ed 12 08 3c 6e 75 8f b9
       -0.053280577 -0.039123587 0.0083052935 -0.00027362577
000010 f7 d7 08 3d c0 b1 1a bd 3c 91 c4 bc 2c 19 4e 3d
       0.033409085 -0.03776717 -0.023995034 0.050316975
000020 6f 25 46 bd 2d 11 37 3d ef 71 b0 bc cb 91 28 bd
       -0.048375543 0.044694114 -0.021538703 -0.041154664
000030 f7 03 a7 bc 67 fa 3f bc a7 91 57 bd 97 49 f4 bc
       -0.020387633 -0.011717415 -0.05262914 -0.029820247
000040 b6 4e ed bc 56 a8 f2 bc 66 e1 63 bd ca f1 58 bd
       -0.028968196 -0.029621284 -0.05563488 -0.052964963
000050 e1 c5 f7 bc ca a5 3c bd 7d 78 b2 bc 71 48 74 bd
       -0.030245723 -0.046056546 -0.021785969 -0.059639398
000060 e9 9f 04 bc 7b 8f bb bc 41 83 11 3d 47 2d 4d bb
       -0.008094766 -0.022895565 0.035525564 -0.0031307505
000070 8c 23 58 3d e0 71 c9 bc 87 ed c5 3b f4 2c 0e bb
       0.052768275 -0.024590433 0.0060402784 -0.0021694275
000080 12 80 2f bd de dd 50 bb 1e e6 15 3d 37 27 1b 3d
       -0.042846747 -0.0031870524 0.03659641 0.037879195
000090 cd 09 2a bd ae 8d 8f bc 17 f6 70 bd 1d b6 6e 3c
       -0.041513253 -0.017523613 -0.05882844 0.014569786
0000a0 f5 c0 57 3d 06 71 a9 bc 78 5f 76 bd b2 76 30 bd
       0.052674253 -0.020683777 -0.06014964 -0.043081947
0000b0 74 0f 4b bd 79 da 02 bb 9a 84 5c bd e1 06 fe bc
       -0.049575284 -0.0019966646 -0.053837396 -0.03100914
0000c0 3b f7 45 3d 9b 01 5e 3d 14 20 06 bd ef 0a 3d 3d
       0.04833148 0.05420075 -0.032745436 0.046153005
0000d0 ec b9 78 bb 07 1b 7a bd e3 15 dd 3c 90 25 0d 3c
       -0.0037952615 -0.06106093 0.026987975 0.008614913
0000e0 e4 b7 6a bd 84 86 b4 bc 8a 8f 01 bd c0 b2 a1 bc
       -0.057304278 -0.022036798 -0.03163103 -0.019738555
0000f0 69 a0 1a 3d 32 44 5d bc 6f 19 94 3c 57 fc 2b 3d
       0.037750635 -0.013505029 0.018078534 0.041988697
000100 04 87 38 bb 76 e4 3b 3b b0 a1 0c bd 93 2c 7a bc
       -0.0028156647 0.002867011 -0.034333885 -0.015269416
000110 f3 a4 12 3d 77 a0 43 bc 92 0d e1 3c 71 26 72 3c
       0.03580184 -0.011940113 0.027472291 0.014779673
000120 ca d2 f5 3c 0d ae 2e 3d 33 af 3a 3d 74 3c 51 bc
       0.030007739 0.042646457 0.04557724 -0.012770761
000130 66 59 31 bd 88 1a d4 3c bb d1 23 3c 35 f7 85 3c
       -0.043298148 0.025891557 0.009998734 0.016353229
000140 f8 5e e8 bb 43 30 42 3d 79 33 af bc 58 2f b3 3c
       -0.0070913993 0.047409307 -0.021386849 0.021873161
000150 58 36 09 3d a9 01 fc bc 7c a1 5f 3c 9b 35 59 3d
       0.033499092 -0.03076251 0.013649341 0.053029638
000160 c4 af 01 3c ff c9 5f 3c ff 39 1e 3d da 0f 02 bc
       0.007915441 0.013658999 0.038629528 -0.00793835
000170 e0 e3 19 39 ab 18 43 bc 1c 21 40 bd 6a 64 24 3d
       0.00014676107 -0.011907737 -0.046906576 0.040134825
000180 c6 1b 48 3d ee a2 82 3a 3c d3 79 bd 2d bd de bc
       0.04885461 0.000996677 -0.060992464 -0.027189815
000190 50 b4 ed 3c f1 48 e3 bb 86 f7 39 3c b6 a0 26 3d
       0.029016644 -0.0069361855 0.011350518 0.04068061
0001a0 55 35 1c 3d 14 73 24 bd 63 4a 7f bc 5d 8b 93 bc
       0.0381368 -0.04014881 -0.0155817 -0.01801079
0001b0 26 21 a0 bb 0b f7 56 bd d3 56 b9 bb a4 2a de 3b
       -0.004886764 -0.052481692 -0.005656102 0.0067799855
0001c0 e6 8f 37 3d 60 ab 14 3d 0a 49 53 bd f9 99 14 3b
       0.044814967 0.03629625 -0.051583327 0.0022674783
0001d0 ae b8 27 3d c7 5e 0a bd 08 54 7d 3c 3e f4 50 3d
       0.04094761 -0.033781793 0.015461929 0.051014178
0001e0 8c 03 8d 3c ad 87 58 3d 8e fb 98 bc 34 68 1a 3d
       0.017213605 0.052863766 -0.018674638 0.037697032
0001f0 10 32 e1 3c 5a 55 bc bc 90 94 b8 bc a6 1b 73 bd
       0.027489692 -0.022989918 -0.022531778 -0.05935254
000200 e5 89 08 bd d7 11 f5 3c 5d 25 a6 bc c3 c6 bf 3b
       -0.03333463 0.029915733 -0.020281488 0.0058525517
000210 18 22 41 bd 06 fe d5 bc 52 af b3 3c e7 1a 5f 3d
       -0.047151655 -0.026122104 0.021934185 0.054469015
000220 5c 29 ac 3c 0d 81 cd 3b 75 4f 69 bd 95 53 05 3d
       0.021015815 0.0062714876 -0.05696054 0.032550413
000230 0b aa 2e 3d e2 7f 20 3d 29 51 36 bd 19 30 c5 bc
       0.042642634 0.03918446 -0.044510994 -0.024070786
000240 3a a8 0a 3d a4 38 24 bd 01 e2 5d 3d cb 94 0a bd
       0.03385184 -0.04009308 0.054170612 -0.033833306
000250 d9 24 d9 3c 88 11 06 3d 1e 31 cf 3c 4e a7 8c bc
       0.026506828 0.032731563 0.025291976 -0.01716962
000260 96 4a 35 3d 1a 5e cd 3c 9b cd 51 bd c5 93 93 ba
       0.044260584 0.025069285 -0.05122147 -0.0011259249
000270 57 db 62 bc 5b 45 4a 3c 26 32 1b bc 63 9d 05 3c
       -0.01384624 0.012345637 -0.009472406 0.0081552
000280 bf f6 08 bc e7 93 12 bd c6 65 64 ba c5 f8 d4 3b
       -0.00835961 -0.035785582 -0.0008712675 0.006499382
000290 7c c7 1f 3d 41 46 ec bb b7 b0 af 3b 81 b0 cc 3c
       0.039008602 -0.0072105234 0.005361642 0.024986507
0002a0 06 d3 2c bd fd cc f7 bc 07 6e c4 3b 95 58 0a 3d
       -0.042193435 -0.030249113 0.0059945616 0.033775885
0002b0 29 80 16 bd f2 0d 28 bd d8 88 09 3c 95 27 13 bd
       -0.036743317 -0.041028924 0.0083944425 -0.03592642
0002c0 12 76 d3 bc 03 ad 64 bd d2 8c 7f bd 56 07 49 3d
       -0.025813136 -0.05582906 -0.062390156 0.04907926
0002d0 4e 0a 1d bd 1c 89 38 3d ff 75 3c 3c 74 8c 9c 3c
       -0.038339905 0.045052633 0.011502742 0.019109942
0002e0 53 e6 e1 3b 26 3b 63 3d 73 2a 38 bd ce ec e7 bc
       0.006893912 0.05547633 -0.044962358 -0.02831116
0002f0 88 a8 57 bd ae 32 ef bc 87 1f e5 bc c0 b3 0b bd
       -0.05265096 -0.02919897 -0.027969135 -0.03410697
000300 04 58 41 3d 29 b0 d5 bc 1a 93 8a bb be 16 a2 bb
       0.04720308 -0.026084976 -0.0042289617 -0.0049465587
000310 aa 68 89 3b 3c e0 a4 bb 86 73 46 bd 76 ba e4 bb
       0.004193385 -0.0050316136 -0.048450015 -0.0069802357
000320 8c de 6b bb a4 30 e5 bb a1 9c 6b bd 5c f5 70 bd
       -0.0035990803 -0.006994324 -0.05752242 -0.058827743
000330 4e b8 a3 ba 15 7d b0 3b 8a 11 95 bc ce 9e 42 3d
       -0.001249084 0.0053860047 -0.01819684 0.04751473
000340 28 2e 53 3d 5c b7 32 3d 7c 91 d6 bc 24 d6 17 bd
       0.05155769 0.043631896 -0.02619242 -0.037069455
000350 b5 a6 f5 bc 64 15 5c bd 79 65 bc 3c 7f 20 55 bc
       -0.029986719 -0.053731337 0.022997605 -0.013008236
000360 f2 3b c1 bc 68 f8 99 bc c1 81 1b bb 4c a4 43 3d
       -0.023588154 -0.018795207 -0.0023728462 0.047764108
000370 59 11 50 3d 6c d5 6f bd 09 b9 6d bd 04 d4 3a bd
       0.050797794 -0.058553144 -0.05803779 -0.04561235
000380 01 25 e5 bc f9 f5 b7 bc 6a 5e f6 3c e5 d2 6d bd
       -0.027971746 -0.022456156 0.030074317 -0.058062453
000390 23 95 5f 3d d7 e7 f2 bc e1 de 57 3d d9 71 3f 3d
       0.054585587 -0.029651565 0.05270279 0.046739433
0003a0 69 2f 72 bc b3 19 18 3d 80 cb 2e b7 2a 37 60 3d
       -0.014781811 0.037133884 -1.0418589e-05 0.05474011
0003b0 ca e5 3a 3d ba d8 1d bd b0 4e 64 3d 90 8d 42 bd
       0.0456293 -0.038536765 0.055739105 -0.047498286
0003c0 b9 79 1f 3d ed 4c 2c 3d c3 27 63 3d 07 b8 a0 b9
       0.038934443 0.04206555 0.05545784 -0.0003065469
0003d0 d1 7c 0e bd da e8 14 bc d4 47 1b bd 2b c8 0c 3c
       -0.034787003 -0.009088719 -0.037910298 0.008592646
0003e0 f7 e3 55 bd aa 29 cf 3c c4 3e 6c bc df 76 43 3d
       -0.052219357 0.025288422 -0.014419261 0.047720786
0003f0 ac b1 3a bd 78 38 29 bd d2 62 14 3d bf cf 66 bd
       -0.045579597 -0.04131362 0.036227055 -0.056350466

bias f4 [16]
000000 83 43 28 3d b9 52 b1 3c 6a 4d 43 3d 7d f7 fc 3c
       0.04108001 0.02164589 0.04768125 0.03087973
000010 3c 18 dd 3c 38 92 0d 3d 7b f6 e7 3c 74 c3 3e 3d
       0.026989095 0.034563273 0.028315773 0.046573117
000020 46 e9 55 bd 95 f2 0e 3d e3 01 1d 3d 5e 6e ce bc
       -0.05222442 0.034899313 0.038331877 -0.025199112
000030 b2 cc 84 3c 19 6e 94 3c ba 1f 22 3d 17 36 32 bb
       0.016210888 0.018118905 0.039581038 -0.0027192885

weight f4 [16, 32, 3, 3]
000000 ed bd 50 3d b4 4e 3f bd 9d d7 3a 3c 7d 80 e6 bc
       0.050962377 -0.046705917 0.011403945 -0.02813744
000010 b2 ad 69 bd cb 8e 45 bd 02 66 ee 3c de a8 77 bd
       -0.057050414 -0.04823188 0.029101375 -0.06046378
000020 ba c4 24 bd 7d a7 6c 3d 93 ee 1d bd 9e 0b cc 3c
       -0.040226676 0.057776917 -0.0385576 0.024907883
000030 f2 78 2e bd e9 90 10 3d d2 14 46 3d 3e 8d e6 bc
       -0.04259581 0.035294447 0.0483597 -0.028143521
000040 b6 29 57 3b 0d 1e 2f 3d eb 76 69 3d c7 71 41 bd
       0.0032831258 0.042753268 0.056998175 -0.047227647
000050 1f b7 87 bc 41 63 ac 3c 63 9d 17 3d f5 8c 04 bc
       -0.016566811 0.021043422 0.03701533 -0.008090247
000060 12 31 8d bc 5f 70 be bc a5 19 f7 bb 4f c2 32 3d
       -0.017235313 -0.023246942 -0.007540899 0.04364234
000070 07 1f b1 bb 2f 49 64 3d a5 0b 43 3d a1 68 33 bd
       -0.00540531 0.055733856 0.047618527 -0.043800954
000080 32 4a 3c 3d fe 56 2a bb ab 43 ae bb f6 3a f3 ba
       0.045969196 -0.0025991793 -0.0053181252 -0.0018557
000090 99 c2 4d bc 3d 7d 65 3c 09 da 0d 3d 4b 5c 88 3c
       -0.012558603 0.01400691 0.034631763 0.016645571
0000a0 bb 67 61 bd 04 2d 27 bd 15 b6 02 bd d6 d9 13 bc
       -0.055030566 -0.040814415 -0.03191193 -0.009024104
0000b0 d7 7e 11 3d 44 2a 4c 3d a1 b2 aa 3c ba 7e b3 3c
       0.035521355 0.049844995 0.02083713 0.021911014
0000c0 3f 4e 88 bc 29 81 a2 bc 91 18 f5 3c 78 97 24 3c
       -0.016638873 -0.019836979 0.02991894 0.010045879
0000d0 a0 77 29 3d f2 b3 23 3d bb 7d 5d bd 68 7a eb 3b
       0.04137385 0.03996653 -0.054074984 0.007186223
0000e0 90 19 2e bc b0 0f 70 bd a9 78 08 3b 33 c0 34 3b
       -0.010626212 -0.05860871 0.0020823872 0.002758038
0000f0 6d 27 7a bd 87 8c ea 3b 72 a5 17 3d 4b 85 09 bd
       -0.061072756 0.0071578654 0.037023015 -0.033574384
000100 93 15 bb bc c7 92 cd bc 7a c3 3b bc 0a 7f 1f 3d
       -0.022837436 -0.025094403 -0.011460179 0.038939513
000110 72 71 4d 3d 84 25 67 bd ee 21 fc 3c 72 3c 01 bb
       0.050157018 -0.056432262 0.030777898 -0.0019719866
000120 79 a7 03 3d db 0d 67 bb 22 64 29 3d 92 3d 13 bd
       0.032142136 -0.0035256061 0.04135526 -0.03594739
000130 52 83 3b bd a7 d9 2e 3d 2a 15 2b bd ab 24 d7 3b
       -0.045779534 0.04268804 -0.04176823 0.0065656505
000140 84 d9 05 bc 00 22 c2 bc 9c d6 86 3c 28 c8 14 3c
       -0.008169536 -0.023697853 0.016459756 0.009080924
000150 d6 0c 91 bb c3 91 82 bc 26 61 2b 3c 71 6f 26 bd
       -0.004426579 -0.015938645 0.010460174 -0.040633623
000160 ee f3 ee ba 95 10 b2 bc dd 6d b8 3b 38 ad 2f bd
       -0.0018230656 -0.021736423 0.005628331 -0.042889804
000170 3c e4 41 39 65 bd c5 3c 1c 99 5d bd ba ee 62 3d
       0.00018490938 0.024138162 -0.054101095 0.05540345
000180 c2 c0 2b bd 96 7f ec 3b 00 f3 38 3a 81 ea 31 bd
       -0.041931875 0.007217358 0.0007055253 -0.04343653
000190 c7 0e 0f bd 18 6a c1 3c f0 d5 eb 3c 2a cd 06 bd
       -0.034926202 0.02361016 0.028788537 -0.032910503
0001a0 a2 b3 16 bd da 89 94 3c 1e 7b 67 bc e5 06 5a 3c
       -0.036792405 0.018132139 -0.0141284745 0.013307308
0001b0 db f1 3c bd a0 6a d9 3a 9d 35 83 3c f9 a5 08 bc
       -0.04612909 0.0016587563 0.016016776 -0.008340352
0001c0 46 10 54 3d d5 6a 2c 3d d0 f8 ba bb 89 6e f3 bb
       0.051773332 0.04209407 -0.0057059303 -0.0074289483
0001d0 a9 1f 12 bd e1 aa 54 bd 30 27 b5 bc db 92 3b bd
       -0.035674725 -0.051920775 -0.022113413 -0.04579435
0001e0 3b 1a 03 3d 41 a1 17 3d bf 2f 5c 3d 34 d8 e3 b9
       0.032007437 0.037019018 0.05375647 -0.00043457898
0001f0 3f 90 4d bd 4b 68 5a 3d 24 0c 3e bd ca ca 40 3b
       -0.050186392 0.053322118 -0.046398297 0.0029417747
000200 35 59 39 3d c9 38 d7 bc 43 74 6a 3c 1f 95 a5 bc
       0.04525109 -0.026272194 0.0143099455 -0.020212708
000210 31 52 d8 bc 0f bb 6c 3c 26 91 cf bc 75 cc 74 bd
       -0.02640638 0.014448895 -0.025337767 -0.059765298
000220 9a 96 50 bd 0f 7d f1 bc 3e 2a c5 3c 14 de 6e bd
       -0.050924875 -0.029478578 0.024067994 -0.05831726
000230 f9 84 fe bb 21 b8 c3 bb c0 2e b5 3c 18 6a 43 bd
       -0.0077673164 -0.0059728776 0.022117019 -0.0477086
000240 52 5b 2b 3d 13 7c 69 3d b5 0b 31 3c 87 bd 0a 3c
       0.041835137 0.057003092 0.010806014 0.008468038
000250 0e 88 3f 3c 80 8f 50 bd 54 2f 0b bd 92 1d 20 bd
       0.011690153 -0.050918102 -0.033980682 -0.0390907
000260 f1 92 fd bc 51 e9 4f 3d 64 c6 d5 bc 58 de 0a 3d
       -0.030953856 0.050759617 -0.026095577 0.03390345
000270 fe 62 78 bb a5 1f 87 3b d0 d6 05 3d 45 b8 d6 bc
       -0.00379008 0.0041236454 0.032675564 -0.026210913
000280 1f 7d 15 3c e0 34 ec bc 1b 7e 5c 3d bb 8d 16 3d
       0.0091240695 -0.028833807 0.0538312 0.03675626
000290 7f 04 36 3a 5d 7f f6 3c 7e 23 03 bc b3 47 7b bd
       0.0006943419 0.030090028 -0.0080040675 -0.061347675
0002a0 a5 ad 2f bd d7 24 63 3d a9 8f 57 3d 47 2c 3e 3d
       -0.04289021 0.055455055 0.05262724 0.046428945
0002b0 93 a9 64 bd 34 e7 3b bc 7e 1d 27 bc 49 53 66 bb
       -0.05582578 -0.011468697 -0.010199903 -0.0035144857
0002c0 4a f8 82 bc e9 4f 3b 3c 02 04 1f bd e3 6d 51 3c
       -0.015987534 0.011432626 -0.03882218 0.012782547
0002d0 33 a7 1c bd 5a c2 72 bd 28 36 19 bd 1d c2 1d 3d
       -0.03824539 -0.05926738 -0.037405163 0.0385152
0002e0 96 d9 6a bd ca 50 00 3c b1 e4 75 bb f7 4d e0 bb
       -0.057336412 0.007831762 -0.0037520344 -0.0068452316
0002f0 4c fc 77 bd fd c8 e6 bb 10 41 a5 bb df d5 e2 3b
       -0.060543343 -0.0070430026 -0.0050431564 0.006922468
000300 44 28 6a bd 48 57 1a bd 4f 04 48 3d 22 88 4c bd
       -0.057167307 -0.037680894 0.048832234 -0.049934514
000310 e1 b9 d5 3c c3 4c 4d 3d 3c 06 f0 3a 1b 59 32 bd
       0.02608961 0.050122034 0.0018312405 -0.04354201
000320 6c 5f 40 3d be b3 b8 bb 9a a6 a9 3a 61 a9 6e bc
       0.046966 -0.0056366613 0.0012943328 -0.01456675
000330 5a 20 d2 bc 74 17 31 3d cc e6 29 3d a3 46 13 3d
       -0.025650192 0.043235257 0.04147987 0.035956036
000340 d1 b0 4d bd 20 6d 03 3c 6f 68 2c 3d ff cd f3 3c
       -0.050217453 0.008021623 0.042091783 0.029761313
000350 06 94 e1 bc b3 d6 49 3d 2f 99 3d bc 21 50 21 bd
       -0.027536403 0.04927702 -0.011572166 -0.039383058
000360 0a 4f 42 bd 55 82 df 3c f0 17 26 bd c0 34 ca 3c
       -0.04743866 0.027283827 -0.040550172 0.024683356
000370 ea ad 20 3c e5 b0 68 3d dc b6 ec bc 2f 38 6b 3d
       0.009807089 0.056809325 -0.028895788 0.057426628
000380 cf b4 a2 bc 11 25 8f 3c 1a d9 2c bd e2 b0 5a bc
       -0.019861607 0.01747373 -0.04219923 -0.013347836
000390 a8 d0 98 bc a8 e5 16 3d 0d 68 bf bb e7 82 b2 bc
       -0.018654183 0.03684011 -0.0058412612 -0.021790935
0003a0 4c e9 3e bc 9c ff df 3c 0e 84 26 bd e1 e0 44 3c
       -0.011652302 0.027343564 -0.04065328 0.012016506
0003b0 95 e1 db bc b8 ac bd 3c da 66 c2 3c d6 10 3d bd
       -0.026840964 0.023153648 0.023730684 -0.046158634
0003c0 b2 07 01 3d 17 6e 51 3c 22 c8 e5 bc 97 e6 76 bc
       0.03150148 0.012782595 -0.028049532 -0.015069625
0003d0 f1 be 05 3d bb 72 4b bd 6b 05 04 bd 07 27 44 3d
       0.0326528 -0.049669962 -0.03223173 0.047888782
0003e0 f5 42 60 3d 7c 71 81 bc 78 a5 96 3c ed fc 54 3c
       0.054751355 -0.015801184 0.018389449 0.012999755
0003f0 01 47 d5 bc 7b f7 d9 bb 02 e1 09 bc 2f e1 22 bd
       -0.026034834 -0.0066518164 -0.008415462 -0.039765533

bias f4 [32]
000000 de a8 5d bc 66 12 6b bc 46 64 9a 3b 97 b0 ed bb
       -0.013529031 -0.014347648 0.0047116606 -0.007253717
000010 a0 10 b8 bc 5d 9a 5f 3d ce 5c b5 3c a6 6d 6d 3c
       -0.022468865 0.05459057 0.02213898 0.014491474
000020 52 3f c9 3c 7f aa 48 bc 6d ca 20 bc 9c b7 ed 3c
       0.024566326 -0.012247681 -0.009813887 0.029018216
000030 73 b8 19 bd eb 49 bf 3c 8f 69 7f 3d 9e c2 3b 3c
       -0.03752942 0.023350677 0.062356528 0.011459975
000040 35 ca 78 3a 88 2f 38 bd 10 61 d3 bc a6 16 1b 3d
       0.00094905804 -0.044967204 -0.025803119 0.037863396
000050 46 6f c4 3b 0b 1d 01 bd df 1a 87 bc fd 77 44 3d
       0.00599471 -0.03152184 -0.016492305 0.047965992
000060 32 a1 6d 3a 03 c4 2f 3d a3 3c 5d ba 58 29 64 3d
       0.00090648525 0.04291154 -0.00084395165 0.05570349
000070 5e 5f a6 3c 87 6d bc 3c fd 57 f1 3c 23 81 8d 3c
       0.020309146 0.023001445 0.029460901 0.017273491
