Baseline/bestKernel_Num_Set_6.pt (torch_old, 176997 bytes, 16 tensors)

weight f4 [16, 3, 3, 3]
000000 eb 20 33 be 10 2d cc bd e8 ea a1 bd 15 89 2c be
       -0.17493026 -0.099695325 -0.07906133 -0.16849168
000010 6d 6a 0e 3d 1c 79 a0 3d 34 17 cf bc fc 32 88 bd
       0.034769464 0.078356 -0.025279619 -0.066503495
000020 05 f4 12 3c 12 28 25 be 84 14 01 be 9b 01 73 bc
       0.008969312 -0.16128567 -0.12605482 -0.014831926
000030 34 90 26 3e 66 17 8b bd ca 46 ad 3d f9 fa ad bd
       0.16265947 -0.06791572 0.084607676 -0.08495135
000040 17 bb 7a bd 5e 0d 47 be c9 e7 2d 3e ee 7b 4a 3e
       -0.06121358 -0.19438693 0.1698295 0.19773838
000050 21 1f dc 3b 0a dd 07 3e 27 c9 2b 3e 16 56 da 3d
       0.006717578 0.13267913 0.16775952 0.10660951
000060 42 6b df 3d 0e 1f 31 be 1b 72 2e be f1 5a 06 be
       0.1090913 -0.17297003 -0.17035715 -0.13120629
000070 68 ad 9f 3d 01 01 18 be 86 fb 06 be 63 81 9d bd
       0.077967465 -0.14844133 -0.13181886 -0.07690694
000080 68 1c 24 be d6 d2 80 3c 0e ab 34 3d 63 70 c2 bd
       -0.16026461 0.015725534 0.044108443 -0.09494092
000090 9b 76 0a 3e 73 58 81 bd 1c e0 2b bd 41 cd 1b 3e
       0.13521807 -0.063156985 -0.041961774 0.15215017
0000a0 fb 91 30 3e 2c b2 83 bc 47 90 fa bd 8c 1c a4 bd
       0.17243187 -0.01607617 -0.1223455 -0.080132574
0000b0 26 f8 22 3d 36 88 d0 3d cd 45 ad 3d 49 c9 c6 bd
       0.039787434 0.1018223 0.08460579 -0.09706361
0000c0 58 9c 47 be 7a af 3a be cd 23 98 bd 90 9b 81 bc
       -0.19493234 -0.18231001 -0.074287035 -0.015821248
0000d0 89 e3 d6 bd 8e 75 2d be 1d 0e 1a 3d a1 c6 09 be
       -0.10492618 -0.16939375 0.037611116 -0.13454677
0000e0 e0 25 06 be 4d b7 0e be b9 72 11 bd b7 6f 3c 3e
       -0.13100386 -0.13937111 -0.0355098 0.18401991
0000f0 09 b0 b9 3d 52 4f 02 bc 6b d0 59 3d d7 48 78 3d
       0.09066779 -0.007953482 0.05317728 0.06061634
000100 bf 82 74 bc 44 a0 2f be a6 4b 0a be b2 d4 16 be
       -0.01492375 -0.1715098 -0.1350542 -0.14729574
000110 ec ec ac bc ba 45 45 be 8e b2 53 bd 44 84 b1 bd
       -0.021109067 -0.1926488 -0.051683955 -0.08667806
000120 e5 a9 55 3e e1 7c 34 3e 11 8a 06 3e 3b da f9 3c
       0.20865591 0.17625763 0.13138606 0.030499568
000130 b6 91 2e bd 75 4e 8c 3d e9 8d e9 bd 11 27 81 bd
       -0.04261943 0.06850902 -0.1140402 -0.063062795
000140 a1 81 a1 bc f9 10 14 bd 6c 0a 31 be 58 0d ac 3d
       -0.019715132 -0.036149 -0.17289132 0.084009826
000150 c8 6b 29 3e 21 ca c9 bd b0 f6 6e 3d d3 fe 72 bc
       0.16545022 -0.09853006 0.05834073 -0.014831263
000160 d6 45 d6 38 40 29 91 3c 82 ad 3d 3e 88 50 34 3d
       0.00010217323 0.017719865 0.18523219 0.044022113
000170 3b ce d6 bd 4f d1 52 bd 2f 6e e4 3d 3f 4b 9e 3d
       -0.10488554 -0.051469143 0.11153828 0.07729196
000180 6c d3 a6 3c 3d cf 18 bc 81 ac 6f bd 20 d7 55 bd
       0.020364486 -0.009326753 -0.058514122 -0.052207112
000190 49 b7 ae bd 48 7d 41 3d a1 9c 91 3d 54 03 28 3e
       -0.085310526 0.047238618 0.07109953 0.1640752
0001a0 13 05 e5 bc b0 e8 fb 3c 31 91 0f 3e 20 5e ca 3d
       -0.027956521 0.030750602 0.1402023 0.09881234
0001b0 13 fe e1 3c 1f bb 7e 3d 8d f0 52 3c c9 34 26 be
       0.027586972 0.06219017 0.012874735 -0.16231073
0001c0 04 4b 29 3c 77 f1 20 bd 8a e4 34 3e da 0d 35 3e
       0.0103328265 -0.03929278 0.17665306 0.17681065
0001d0 bd ba 28 3d 0c f1 34 3e 6a 4c c7 bd 5e c6 2b 3e
       0.041193713 0.17670077 -0.09731372 0.1677489
0001e0 51 60 2a 3e 03 a8 32 bc 82 e9 26 be 63 63 83 bd
       0.16638304 -0.010904315 -0.16300014 -0.06415441
0001f0 1d a2 71 bd a8 09 bb ba ef ed 17 be 3f 00 7d 3d
       -0.058992494 -0.0014269846 -0.14836858 0.061767813
000200 b1 04 5d bd 0e 02 bc bc 6f d3 95 bd df 52 6c bc
       -0.053959552 -0.022950199 -0.073157184 -0.014424055
000210 1b 22 1c be b4 16 9b bd 07 14 34 3d 66 44 04 3e
       -0.15247385 -0.0757269 0.043964412 0.12916717
000220 e5 d2 37 3e 19 93 0a be 5e 56 ae 3d ed 64 cf bd
       0.17951544 -0.13532676 0.08512567 -0.10126672
000230 2c 05 0b be 77 e3 f5 ba aa 9b cc bd 1f 6c 1a be
       -0.13576192 -0.0018759806 -0.09990628 -0.15080307
000240 d4 42 47 be 44 9d 13 be 59 9d 15 3e 55 c2 bc 3d
       -0.19459087 -0.14415461 0.14610805 0.092167534
000250 52 fb bb bd 51 3c 10 be ee 16 28 be 25 ff 04 be
       -0.09178795 -0.14085509 -0.16414997 -0.12987955
000260 01 f8 ba bd ed 33 07 3e c5 66 a2 3d a4 76 7a bd
       -0.09129334 0.13203402 0.07929758 -0.0611483
000270 05 98 18 3e aa 08 d3 bd f6 47 13 be 10 a1 71 3d
       0.14901741 -0.10304387 -0.1438292 0.05899149
000280 93 c5 b6 bd f4 aa 8b 3d f8 7d 2b 3e 93 1b ad bd
       -0.08924403 0.06819716 0.16747272 -0.08452525
000290 29 c5 02 be e4 da 9d 3d ec d0 2a be 0a 0e 35 3e
       -0.12770523 0.07707766 -0.1668126 0.17681137
0002a0 da e8 ac bd c8 d4 c9 3d 18 dc 14 be a0 f0 f6 bd
       -0.084428504 0.09855038 -0.14537084 -0.12057614
0002b0 e4 cf 18 3d df 31 ae 3d 49 fd 2b 3e ba 5a 3b 3e
       0.037307635 0.08505606 0.1679584 0.18296328
0002c0 e6 75 30 3c 84 5d af bb 08 b8 5b 3d 0f a0 b6 bc
       0.010770297 -0.005351724 0.053642303 -0.022293119
0002d0 5e ea 96 3c 0f 8e 2c be bf ca 14 be a8 a4 16 3e
       0.018422302 -0.16851066 -0.14530466 0.14711249
0002e0 8f 85 c3 bd 5f 0b 2c 3e af 7c 1a 3d f3 a8 84 3d
       -0.09546959 0.16801213 0.037716564 0.06477537
0002f0 ac 40 44 3e 21 47 c2 bd 47 fe 96 bc c3 80 3a 3d
       0.19165295 -0.09486223 -0.018431796 0.045532953
000300 65 a2 9e 3d a5 ce 33 be 63 74 a2 3d d1 2d d0 bd
       0.07745818 -0.17559297 0.07932355 -0.10164989
000310 8b 4d 17 3d a3 91 10 3e 50 8a 61 bb 3f 11 2c 3c
       0.036939185 0.14118056 -0.0034414716 0.010502159
000320 65 12 1b 3b eb 82 35 3e e4 50 01 3e fc 8a 4c 3d
       0.0023662087 0.17725722 0.12628514 0.049937233
000330 3a aa cc bd 47 68 b4 bd 17 b1 2e 3e d1 ae 25 3e
       -0.09993406 -0.08808952 0.17059742 0.16179968
000340 74 08 0a 3e 36 8a 01 be db 84 31 3e 00 5d aa 3b
       0.13479787 -0.1265038 0.17335837 0.0051990747
000350 3b 65 29 3e 7c 3b 43 3e c6 28 37 3d 89 b7 66 bd
       0.16542523 0.1906566 0.04471662 -0.056327377
000360 07 b6 40 3e 0e 1a b8 bd 8d 2e 09 3e 16 dc 30 be
       0.18819438 -0.089893445 0.13396664 -0.17271456
000370 1d b3 46 bd dd 94 1e be 67 2b 97 bd 1e 93 bf 3d
       -0.04851066 -0.15486474 -0.07381325 0.09354232
000380 d1 2d 00 be 6a 45 2d be 09 8d 14 3e 71 f8 e6 3d
       -0.12517478 -0.1692101 0.14506926 0.11277855
000390 29 9b 78 bc 56 bd 14 be 65 1b 70 bd 96 fb 95 bd
       -0.015173712 -0.14525351 -0.058619875 -0.07323377
0003a0 cc 14 e0 3d fd 5c 90 bd 42 d5 31 bd 11 7c fc bd
       0.10941467 -0.07048986 -0.04341627 -0.12328351
0003b0 cc 82 9f bd a9 f3 f0 3d 8d 12 0d 3e 94 58 2b 3d
       -0.077886194 0.117652245 0.13776608 0.04183252
0003c0 73 65 70 bd 03 05 4b 3e b4 60 53 3d 68 aa 8f bd
       -0.0586905 0.1982613 0.051605895 -0.07014924
0003d0 a5 2a 80 bd 2b f5 bb bc 76 82 c3 3d 2a f4 98 3d
       -0.06258134 -0.022944054 0.09546368 0.074684456
0003e0 37 eb 12 3e b7 11 91 bb 87 74 27 3e 54 b5 97 bd
       0.1434754 -0.0044271606 0.16353045 -0.074076325
0003f0 4f 2f cd bd f5 6d ae bd 39 f3 47 be 08 27 0d be
       -0.10018789 -0.085170664 -0.19526376 -0.1378442

bias f4 [16]
000000 f9 74 70 bc de bc 56 3d 73 63 93 bd ef bf 3b 3e
       -0.014676326 0.05242621 -0.07196703 0.18334936
000010 e4 bd 00 be 48 f6 c0 bb f5 cd 0b be 23 5b 89 3d
       -0.12572438 -0.005888734 -0.13652785 0.06706836
000020 49 62 2d 3e 6c 96 3f 3e 30 78 df 3c 12 04 ab bd
       0.16932024 0.18709725 0.02727899 -0.08350386
000030 f1 4b 4d 3e e3 55 2d 3c 13 ee 09 3e c5 61 a4 bd
       0.200485 0.010579559 0.13469724 -0.080264606

weight f4 [32, 16, 3, 3]
000000 33 3a ad bc ef 2a 60 bd a3 3d bb 3d 8c ea e9 3c
       -0.021145916 -0.054728445 0.09142616 0.028554223
000010 af 08 3b bd bd fc a8 3c c4 49 9d bc 7e 1b a1 3c
       -0.04566258 0.020628328 -0.019200213 0.01966643
000020 55 1d 3e 3d 4c 1c 6e bd ef e2 69 bb 9d 53 91 bd
       0.046414692 -0.058132455 -0.0035688241 -0.07096026
000030 6a 88 6f 3b 4b de be bd 99 88 5c bb e9 44 90 3d
       0.0036549815 -0.09319743 -0.0033650754 0.070443936
000040 d0 8a 82 3d 06 83 65 3c cf 7c a1 3d 2d 09 c6 3d
       0.06374133 0.014008289 0.078851335 0.09669719
000050 20 a5 27 3d 35 94 33 3d 71 be ea 3c 7d 61 bc 3d
       0.04092896 0.043842513 0.028655263 0.09198282
000060 b4 34 b4 3d 0b f3 9d bc 18 cc 8b 3c 05 94 cf bc
       0.08799115 -0.019280931 0.017065093 -0.025339136
000070 ee 41 52 3d 4a ea 72 bd 73 78 35 3d 58 c1 16 bc
       0.051332407 -0.059305467 0.044304322 -0.00920137
000080 31 4a 45 3d 5f 7c 3c 3d 23 00 a9 bc ce 7c 84 3d
       0.048166458 0.046017047 -0.020629948 0.06469117
000090 aa 93 f8 3c 76 f9 a3 bd 63 49 98 3d 1d cf 8a 3d
       0.03034385 -0.08006565 0.074358724 0.06777785
0000a0 02 12 36 3d 54 81 82 bc af c8 e2 3c d4 f6 45 bd
       0.044450767 -0.01593081 0.027683584 -0.048331097
0000b0 94 19 01 bd d0 f9 31 3d 0d ca 24 3d 19 e4 2a 3d
       -0.031518534 0.04345113 0.040231753 0.041721437
0000c0 25 87 98 bd 4a 22 80 3d af 68 d9 bc d4 d9 96 3d
       -0.07447652 0.0625654 -0.026539175 0.07365766
0000d0 99 34 8d 3d 98 df 02 3d f8 04 cc 3d 56 d7 82 3d
       0.06894798 0.031951517 0.09961885 0.06388728
0000e0 a0 87 8b 3d cd ed 9c bc 5f 06 a9 3d bf c3 01 3d
       0.06812978 -0.019156361 0.08253168 0.03168082
0000f0 65 50 82 3d a1 4d 96 bb 3b a9 9c 3d 19 36 bc 3d
       0.0636299 -0.004586891 0.07649466 0.09190006
000100 17 48 36 bd 25 c0 b8 3d 4d db 0c bd 6a 9a 13 bd
       -0.044502344 0.09021024 -0.03438883 -0.036035933
000110 bd 2e 42 bd b0 13 38 3d 92 89 31 bd ad 1d 11 bc
       -0.047407854 0.04494065 -0.043344088 -0.008857173
000120 fc 07 c1 bc 1b 1e 02 3d ed 44 87 bd 9c 1d 08 bd
       -0.023563378 0.031766992 -0.066049434 -0.033231363
000130 ce 81 2a ba 73 84 2c 3c 48 56 fa bc db 30 19 3d
       -0.0006504328 0.010529625 -0.03055872 0.037400108
000140 35 f7 54 bd 33 ce 6b bd a3 61 e5 3a 86 e9 ff bc
       -0.051993567 -0.057569694 0.0017500411 -0.031239282
000150 d8 60 81 3d 7f b4 3c bd d9 2b bb 3b bc 70 3a 3d
       0.063172996 -0.046070572 0.005712014 0.045517668
000160 6f 6a 7a bd 54 fe 9e 3d 7d 40 ef bc 39 06 62 bc
       -0.06113666 0.07763353 -0.029205555 -0.013795429
000170 61 7d 2a bd 10 87 bb bc 35 2a b1 bc 0d b2 81 bd
       -0.041623477 -0.022891551 -0.021626571 -0.063327886
000180 47 f5 1e 3d 8f 32 25 3c 42 a9 bc 3d 4a f9 99 3d
       0.038808133 0.010082855 0.09211971 0.07518251
000190 2d 7f bd 3d c3 3d 36 3d 03 e5 80 3d 3a 0d c9 3d
       0.092527725 0.044492494 0.062936805 0.09816976
0001a0 a3 8b b5 3d 70 fd 3b bd 1c ec 6f 3a c7 70 77 bd
       0.08864524 -0.045895994 0.00091523095 -0.060410287
0001b0 72 32 b7 3c 77 78 27 bc 44 b1 be 3d 24 21 02 3d
       0.022362921 -0.010221592 0.093111545 0.031769887
0001c0 c2 86 b3 3c cc 5e 1f bd 7a 36 37 bd 00 6d 0b 3d
       0.021914843 -0.038908765 -0.044729687 0.034039497
0001d0 28 48 a0 bc 8c b0 43 bd a8 b1 44 3d 91 a3 60 bd
       -0.019565657 -0.04777579 0.04802099 -0.05484349
0001e0 6a cf 40 bd cd a8 57 3d 43 68 b4 3c ec 61 5c bd
       -0.047072805 0.052651215 0.022022372 -0.053804323
0001f0 f9 a8 99 3c b8 a7 11 3d 69 5d 9f bd 39 00 3b 3c
       0.01875733 0.03556034 -0.077814884 0.011413627
000200 a5 d3 64 3c 7e 18 ba bb 19 f1 9c 3d ee 17 78 bd
       0.013966476 -0.005679189 0.07663173 -0.060569696
000210 1e 28 3d 3d 77 c2 35 bd e4 68 97 bd d0 f6 51 3d
       0.046180837 -0.04437491 -0.07393053 0.05126077
000220 1d cb 5a bd 07 cf 4f bc 12 e5 23 3d 42 97 92 bd
       -0.05341636 -0.0126836365 0.04001338 -0.071577564
000230 f4 6d ad bd 6e c1 c7 3c 54 ab 53 3d ee 80 ac bc
       -0.084682375 0.024384227 0.051677063 -0.021057572
000240 af 40 a2 3d 4f c2 48 3d 73 ba 35 3d 9f f4 01 bd
       0.07922494 0.049013432 0.044367265 -0.03172743
000250 3a 4b c8 3d 36 0e 73 3d 63 0f 05 3d 27 47 a3 3d
       0.09779973 0.059339724 0.032485377 0.079725556
000260 8e d0 4f bd 0c f9 2f 39 d8 77 55 bd fe 3f c3 bc
       -0.050736003 0.00016782078 -0.052116245 -0.023834225
000270 d5 5b db 3c 6c 27 2c 3d 14 1f 4d 3c cb f6 87 bd
       0.026777187 0.042029783 0.012519617 -0.06638869
000280 04 0d 65 bd c2 5c 31 bc 47 58 b9 3b 2c 05 4c bd
       -0.055920616 -0.010825338 0.0056562754 -0.04980962
000290 b1 f8 d0 3d b4 7a f9 3c f7 2c 1f bd e1 4a 67 3d
       0.10203684 0.030454017 -0.03886124 0.056467894
0002a0 76 28 69 3d 48 35 a6 bc 8c 25 7e 3d fb 30 f6 bc
       0.056923352 -0.020289078 0.062047526 -0.030052653
0002b0 00 03 50 3d b5 c3 cd 3d 87 13 9d 3d a0 b8 80 3d
       0.05078411 0.10047094 0.0766974 0.062852144
0002c0 62 6c 9b 3b 18 60 19 3d 91 b5 52 3d b7 de 2c 3d
       0.004743145 0.037445158 0.051442686 0.042204585
0002d0 08 3f c9 bb e0 2d c7 3c 30 28 ae bc 45 4e 0f bd
       -0.006141547 0.024313867 -0.021259397 -0.034986753
0002e0 b6 3c 84 bd 0d ad 63 bd 13 4b 23 bd 01 c8 bc 3d
       -0.06456892 -0.055584956 -0.03986652 0.09217835
0002f0 5f a4 ee 3c df d6 76 bd 0b 9c fb bc 01 0e 0c 3d
       0.029131113 -0.06026351 -0.030714056 0.034193043
000300 98 f5 10 bc 76 8f 2c bc cd dd 7d bc ac 6f cb bb
       -0.008847617 -0.010532251 -0.015494776 -0.0062083807
000310 fa bd c4 3c 3d cb 8d 3c be 69 97 3d e1 ff 94 3d
       0.02401637 0.017308826 0.073932156 0.072753675
000320 e7 d2 b0 3d 86 1b 9a 3c f5 31 88 bc 00 e8 b3 3c
       0.086339764 0.018811952 -0.016625384 0.021961212
000330 50 7f 0b bd 2b 7e 64 3d 79 db 36 3c a7 3e a4 bb
       -0.03405696 0.055784386 0.011160725 -0.0050123516
000340 61 8a 46 bd d3 f7 7d 3d 7e e5 8c 3d a8 78 c9 3d
       -0.048471812 0.06200392 0.0687971 0.098374665
000350 53 74 e6 bb de 35 43 3d fa c7 d4 3c d6 1e f8 bc
       -0.00703291 0.047658794 0.025974263 -0.030288141
000360 28 ec 0c bd fd 76 6a 3d 41 62 ef bc 58 e5 93 3d
       -0.034404904 0.057242382 -0.029221656 0.07221478
000370 b2 ac 1d 3d 1d 86 2f 3d 92 7f 94 3d 4d 4b 64 3d
       0.038494773 0.04285251 0.072508946 0.055735875
000380 66 55 56 3d cb ea 70 3d 03 00 a3 bc b2 d7 eb bc
       0.052327536 0.058817666 -0.019897467 -0.028789375
000390 84 8d d2 39 f5 eb 7c 3d 72 30 97 3d 52 64 9d 3d
       0.0004015976 0.061748464 0.07382287 0.0768515
0003a0 d0 a0 30 bc 10 42 a3 3b 58 7c 2d bd 61 fe 86 3d
       -0.010780528 0.0049822405 -0.04235491 0.06591488
0003b0 74 fe 25 bd f6 9b 9d bc 77 71 ab 3d 5d df 0f 3d
       -0.04052587 -0.019239407 0.08371251 0.035125125
0003c0 ef 6f a3 bc 7d 25 29 bd f8 81 2d bd 18 11 b0 3d
       -0.019950835 -0.041295517 -0.042360276 0.085970104
0003d0 6e f9 68 bd fb 69 ba 3d 28 7c b0 3d 21 02 cb 3c
       -0.0568785 0.091022454 0.08617431 0.024781289
0003e0 b1 8b 53 3c f0 9d ac 3d c9 18 69 3d 8d d5 c9 3d
       0.012911723 0.08428562 0.056908403 0.09855185
0003f0 e6 33 b5 3d fe 03 08 bd a9 d1 94 3d f9 5f 82 3d
       0.088477895 -0.033206932 0.07266552 0.063659616

bias f4 [32]
000000 23 d5 2a 3d 50 d8 27 3d 06 42 73 3d d4 86 06 bd
       0.04170717 0.040977776 0.059389137 -0.032843426
000010 48 d8 9a bc 30 b2 06 3d 6c b9 61 bd 7e 49 9f 3a
       -0.018901959 0.032884777 -0.055108473 0.001215264
000020 a2 ca f5 3c ac 94 86 bd 68 3c 96 3b f8 e1 4b 3c
       0.03000385 -0.06571326 0.0045848377 0.012444012
000030 ea b3 3d bd b1 ef 97 3d fb e6 24 3c 96 7a 8f bd
       -0.046314158 0.074187644 0.010064836 -0.07005803
000040 51 91 df bc 8f 9a dd 3c 71 fb 78 3d f3 96 95 bc
       -0.027290972 0.027051238 0.06078667 -0.018260455
000050 09 da a1 3d 37 24 da bc 80 ef 47 bd 59 89 20 bc
       0.07902915 -0.026628597 -0.04881239 -0.009798371
000060 7f ae 59 bd 6e 60 17 3d 66 b1 71 3d 3f 7f 91 bd
       -0.053144928 0.036957197 0.05900707 -0.071043484
000070 92 4d 7e bd 0f a2 33 3d 30 95 1b bc 90 a2 9c 3d
       -0.062085696 0.043855723 -0.009496018 0.07648194

weight f4 [32, 32, 3, 3]
000000 75 de 7f 3d aa d6 fd bc e2 13 2d 3d 47 86 2c bd
       0.06246801 -0.030986149 0.04225529 -0.042120244
000010 6c b9 08 3d 84 09 db bc 15 a7 7f 3c 11 09 91 3d
       0.033379957 -0.026737936 0.0156038 0.070818074
000020 85 16 a5 3c 86 f5 3f bc cb 92 42 3d 96 cc 39 3c
       0.02015234 -0.011716252 0.047503274 0.011340281
000030 fc 65 97 3d c9 46 ba bc 71 e7 3f 3c 01 a5 e3 bc
       0.07392499 -0.022738831 0.011712895 -0.02778864
000040 af 06 3a bc 8b 27 b6 3b 26 4e a9 bc 0d 25 cd bc
       -0.011354133 0.005558913 -0.020667147 -0.025042081
000050 7c 2e 16 3a dc 1d 71 bc c0 19 91 bc 28 b7 a2 3c
       0.00057289726 -0.014716592 -0.017712474 0.019862726
000060 ff a8 c9 bc 44 ae 52 3d f2 70 70 3d 55 bc 98 3d
       -0.024616716 0.051435724 0.058701463 0.074577965
000070 e6 9e 20 3d d0 0b 82 3c 77 53 36 3c 73 82 cd bb
       0.039214037 0.015874773 0.011128298 -0.0062716543
000080 10 6b 7f 3d 96 43 60 3d 59 4a 85 3d 59 61 3c 3c
       0.062357962 0.054751955 0.06508321 0.011497819
000090 61 8c 16 bd 1a 79 c0 3c 32 c9 61 3d 0f 33 9a bb
       -0.03675497 0.023495246 0.055123515 -0.0047057937
0000a0 df e2 55 3d 3e fd 3b 3d 0e 64 d4 3c 77 54 2e bc
       0.052218314 0.045895807 0.025926616 -0.010640255
0000b0 0c 9f 71 bc fa 70 4a bb 59 2b 79 3b 9f b0 ec bb
       -0.014747392 -0.0030890093 0.0038020222 -0.0072232033
0000c0 c8 4c 43 bd 97 68 0f bd 23 a7 38 bc 9f 20 55 3d
       -0.047680646 -0.035011854 -0.011270317 0.052033063
0000d0 90 89 ef 3c df f6 3b bd fc 44 00 bd ba 5a c1 bc
       0.0292404 -0.04588973 -0.03131579 -0.023602832
0000e0 61 cf 89 3d 83 86 d9 3c 11 b6 73 3d ce 56 0e bd
       0.067290075 0.026553398 0.059499804 -0.034750752
0000f0 ac 61 89 3d 90 68 77 3d ae d4 8c 3c 39 b7 f6 bc
       0.067080826 0.060402453 0.017191257 -0.030116664
000100 9f 86 a3 3c fa 8d 0f bd 3b a0 d7 bc 66 dc a0 3c
       0.019961653 -0.03504751 -0.026321521 0.019636344
000110 8f 90 44 bd 4f b2 53 3c d4 8b a3 bb 76 2e af ba
       -0.047989424 0.01292093 -0.004991034 -0.0013365287
000120 67 f1 d9 3b 01 6c 95 3c 2b 8d 01 bd ee 3b ea 3c
       0.006651092 0.018239977 -0.03162877 0.02859303
000130 47 23 50 bd bf 22 ec 3c 70 84 31 bd 9d b8 7b 3d
       -0.050814893 0.028825162 -0.043339193 0.061455358
000140 b7 d3 97 3c 29 ac 0c 3d 05 c8 ea 3c b4 2e b9 3c
       0.01853357 0.034343872 0.02865983 0.022605278
000150 bd 5d 5e bb c7 d0 20 bd ef d0 45 3d 91 96 62 3d
       -0.0033930384 -0.039261606 0.048294958 0.055319373
000160 6b 11 93 3b cb 8b 8d 3c e2 ac 72 ba 81 2b 31 bc
       0.0044881604 0.017278573 -0.0009257329 -0.010813595
000170 28 51 2d 3d d3 6b 03 bd 65 e1 55 bd 2a 09 ed bb
       0.042313725 -0.03208525 -0.052216906 -0.0072337585
000180 19 b1 fe bc 77 af 12 bd 07 c5 65 bc 49 1a 5e bb
       -0.031090306 -0.035811868 -0.014024026 -0.003389018
000190 ff 26 16 3d 42 c9 f6 3c e7 53 42 3d 30 41 30 3d
       0.036658283 0.030125264 0.047443297 0.043030918
0001a0 6c a7 83 3c 7c e3 29 ba d4 6c 3d bb 1f 6e 3e bd
       0.016071044 -0.0006480736 -0.0028903978 -0.04649174
0001b0 b8 d0 ae 3c a2 d7 0c ba 86 b3 a1 ba 33 f8 84 3d
       0.02133976 -0.0005372708 -0.0012336827 0.06492653
0001c0 b9 70 2b 3d 15 f3 57 3d ac c7 5c 3d 06 32 79 bc
       0.041855548 0.052722055 0.05390136 -0.01520968
0001d0 5d c4 01 3d c0 bd 09 bb 34 a2 d5 3c 4e ab 23 3d
       0.031681407 -0.002101764 0.026078321 0.03995829
0001e0 bc bc 11 bc f8 c1 4e 3d 39 0c 0d 3c 53 80 a2 bb
       -0.008895095 0.05047795 0.008608871 -0.004959145
0001f0 ed e1 39 3d ec ed 56 3d 3d a1 61 bc 76 70 17 3d
       0.045381475 0.052472994 -0.013771352 0.036972485
000200 b6 14 2a bc 09 08 bd 3a 5a 39 1d bd 7c 88 b3 bc
       -0.010380914 0.001442195 -0.038384773 -0.021915667
000210 77 bb 37 3c 3c cc 1f bc 9e 48 14 bb b2 5c a9 3c
       0.011214129 -0.009753283 -0.002262629 0.020674083
000220 c0 a2 8b bc 58 bf 18 3d 05 bd 84 3d c2 07 5d 3d
       -0.017045379 0.037291855 0.06481365 0.053962477
000230 a0 67 70 3d f2 ea 11 bc 20 f6 1a 3c bf 2a 4a bc
       0.058692575 -0.008906113 0.009458095 -0.012339293
000240 2b 77 8c bc d2 5f b1 ba 85 00 45 3d e3 d1 2c bd
       -0.017146667 -0.0013532585 0.0480962 -0.04219235
000250 27 ee 91 bc 4a 8d 35 3d 1b f9 35 3d 33 81 3d ba
       -0.017813755 0.044324197 0.04442702 -0.000722903
000260 a9 13 ee 3a c3 9f f5 3b 5d a6 79 3d 80 f5 7b 3d
       0.0018163818 0.0074958517 0.060949672 0.061513424
000270 47 5e 39 bc d7 46 ed 3c aa d7 17 bd 26 f9 ae bc
       -0.011313981 0.028964443 -0.037070908 -0.021359038
000280 00 3b 73 3c 71 60 ab 3a 98 30 02 bc 5a b5 8d 3d
       0.01484561 0.0013075006 -0.007946156 0.06919356
000290 9a 01 50 3d 7c b9 cc 3c 47 91 81 3b 8b cc bb 3c
       0.050782777 0.02499079 0.003954086 0.022924682
0002a0 0d 87 8e 3d c0 8a 34 3c 6b 5d df 3c a7 1e 05 3d
       0.06959353 0.011019409 0.027266225 0.032499935
0002b0 eb 22 49 3d c3 bd 4f 3d 9a b8 49 bc 97 d9 1d 3d
       0.049105566 0.05071808 -0.012312079 0.038537588
0002c0 36 ab ce 3c dd c4 cb 3c 0e 6f 0b bd f2 11 93 3d
       0.025228124 0.024874145 -0.034041457 0.07181157
0002d0 6f c8 b3 3c 78 b7 16 3b 0f c5 9a 3c 92 dc 81 bc
       0.02194616 0.002299754 0.018892793 -0.015852246
0002e0 a6 46 3d bd bf 0b 9d bc ea db 66 bd a2 e7 3f 3d
       -0.046209954 -0.01917064 -0.05636207 0.04685176
0002f0 9d 4f aa 3c 21 c4 a0 3c 7e 39 12 bd b3 33 0d bd
       0.020789916 0.019624772 -0.03569936 -0.034473132
000300 fb 46 1c 3d d9 a3 30 bd 1c aa 81 3c bb fc 47 3d
       0.03815363 -0.043125007 0.015828185 0.048825007
000310 ba 2f 3e bd 9b 37 3e 3d e9 2c e4 bc ec c2 1e 3c
       -0.046432234 0.04643975 -0.027853446 0.009690028
000320 26 06 7f 3d f1 88 85 3d 25 3a 9a 3d 01 fc 90 3d
       0.062261723 0.0652026 0.075306214 0.07079316
000330 43 ed 0d bd de a7 03 3d d7 b1 f7 bc 07 c2 4c 3d
       -0.0346501 0.032142513 -0.030236168 0.049989726
000340 2e b5 0e 3d 72 8d 7c 3d 5f 06 f1 3c 98 bb 72 3d
       0.034840755 0.06165833 0.029421983 0.059260935
000350 79 71 8b 3c dc 75 fa bc 67 48 aa bc 13 ad a1 3c
       0.017021881 -0.030573778 -0.020786477 0.019735849
000360 a0 00 57 bd 14 1b 4c 3d 32 51 0f bd 2d ff 30 bd
       -0.05249083 0.04983051 -0.034989543 -0.043212105
000370 de 65 6d 3d d1 b3 15 bd 53 9d c8 bc ba e8 88 39
       0.057958476 -0.03654844 -0.02448908 0.00026113336
000380 c0 df aa 3c b8 61 8b bc 8b 57 12 3d 85 1c 0b bd
       0.020858645 -0.01701437 0.03572802 -0.033962745
000390 4f 9a 82 3c 99 70 5a bd c3 52 47 bd 31 63 d1 3c
       0.01594272 -0.053330038 -0.048662912 0.025559993
0003a0 6a 43 08 3d 48 ad b1 bc c3 39 c5 3c e4 05 43 bc
       0.033267416 -0.021689072 0.024075394 -0.01190326
0003b0 0e 85 13 3d 83 ca 25 3c 19 80 15 bc 85 07 71 3c
       0.036015563 0.010119083 -0.009124779 0.014711265
0003c0 f6 8b 55 bd 37 14 18 3d 27 e6 6e 3d ac a8 68 3d
       -0.05213543 0.037128653 0.05832496 0.056801483
0003d0 2b 67 db bc 5c 22 88 bc 2f c1 99 bc 7a 53 89 3c
       -0.026782593 -0.016617946 -0.018768875 0.016763438
0003e0 4b 53 08 bd 89 5a 17 bd 3d f3 70 bc 5b 8a 76 3d
       -0.03328256 -0.036951575 -0.01470643 0.06019054
0003f0 a0 83 11 3d aa 85 0e bd e8 04 1f bc c4 f5 d5 bc
       0.035525918 -0.03479544 -0.00970576 -0.026118167

bias f4 [32]
000000 cb ee 04 bd 13 a7 16 bd fa b7 6a 3d d6 a0 56 3d
       -0.032454293 -0.03678043 0.05730436 0.05239948
000010 e4 26 28 3d e4 a8 6a 3d a6 a4 6c 3d 4f 21 31 3d
       0.041052714 0.057289973 0.05777421 0.043244656
000020 4b 25 57 3d 73 0b 8d bc aa 60 9a 3c 17 da 34 bd
       0.0525258 -0.017217373 0.018844921 -0.0441533
000030 42 4d f7 bc 35 72 1c 3a 06 2c fb 3b 0c da 82 3d
       -0.030188207 0.0005967946 0.00766516 0.063892454
000040 94 95 6e 3d 7b b8 bd 3c 58 f1 7f 3d 49 f0 bd bc
       0.058248118 0.023159256 0.062486023 -0.023185866
000050 65 65 b2 3c 03 e2 48 bd 21 72 25 bd fc 47 2b 3d
       0.021776864 -0.049043667 -0.040392045 0.041816697
000060 fa 03 d5 3c e6 1c cf 3b 7c b2 05 bd 1a 89 33 3d
       0.026002873 0.0063205836 -0.03264092 0.043831922
000070 44 56 b7 3b a7 75 4e 3d 1f 92 fd bc ee 15 12 3d
       0.0055950005 0.05040517 -0.030953465 0.035665445

weight f4 [16, 32, 3, 3]
000000 80 cc df bb 64 f0 b8 bc 7c fe 19 bc e5 a8 4d bd
       -0.006829798 -0.022575565 -0.009399053 -0.0502099
000010 13 92 81 bc 56 ab 0a bb a7 62 49 bd 29 85 d3 3c
       -0.015816724 -0.0021159253 -0.049166348 0.025820332
000020 3e 11 49 3d f0 b6 cd 3c 6b f8 0b bd 8d 60 2e bd
       0.04908871 0.025111645 -0.034172457 -0.042572547
000030 6c d4 5a bd 95 2e 31 bd 7c 8e e0 3c 55 a8 9f 3c
       -0.053425238 -0.043257315 0.027411692 0.019489447
000040 19 f4 f7 bc 75 4d 04 bc 5e 98 95 bc d2 c6 fa bb
       -0.030267762 -0.008075108 -0.01826113 -0.0076530958
000050 37 11 85 bd 85 c0 15 3d e8 5b 0a bd 2c 0f 84 bd
       -0.06497424 0.036560554 -0.033779055 -0.06448206
000060 e7 f1 5f bc a7 d0 9c 3b 09 56 61 3c 13 cf 09 bd
       -0.013668514 0.0047856155 0.013753423 -0.033644747
000070 45 61 05 bc d2 ad 44 bd a6 60 48 bd 1f 53 32 bd
       -0.008140867 -0.04801733 -0.048920296 -0.0435363
000080 34 2f 2b bd 44 39 03 3d b6 61 6f bd 54 f5 91 bc
       -0.041793063 0.032037035 -0.058442794 -0.017817177
000090 3b df df bc 07 d9 12 3d 80 4a d8 bb 27 f6 12 bd
       -0.027328124 0.035851505 -0.006600678 -0.03587928
0000a0 5b 22 35 3d 4e 31 46 bd 59 62 d6 bc 43 75 6d bd
       0.044222217 -0.048386864 -0.026169943 -0.057973158
0000b0 d3 7c 16 bc 8f 2b 60 3c f6 37 46 3d 92 9e 3d bd
       -0.009185034 0.01368226 0.048393212 -0.046293803
0000c0 6f fa 31 bd 13 d7 5f 3d df f5 b5 3b 87 c7 38 bd
       -0.043451723 0.05464847 0.0055529918 -0.04511216
0000d0 80 20 a3 3c 25 62 4f 3d ae 8c 6a ba a9 d4 f6 bc
       0.019912958 0.050630707 -0.00089473545 -0.030130701
0000e0 14 23 0d bd f6 a1 cb bc 60 c3 d6 3c 45 2a 3a bd
       -0.03445728 -0.024857502 0.026216209 -0.045450468
0000f0 62 df 4a 3d c8 64 27 bd 2d 9e 45 3c 45 0e 3a 3d
       0.04952944 -0.040867597 0.012061638 0.045423765
000100 34 9a 21 bd 2b 8a 5d bd 2c 4f 36 bd 19 94 20 bd
       -0.0394537 -0.054086845 -0.044509098 -0.039203737
000110 0e a1 55 bd fa 64 95 bd 70 dd 3c bd db fc 1a bd
       -0.052155547 -0.072946504 -0.046109617 -0.037838798
000120 c5 15 3c 3d 7a 9e 73 bc e8 b2 06 38 2e f0 d8 bc
       0.0459192 -0.014869327 3.211471e-05 -0.026481714
000130 04 f3 58 3b cb 8d b4 3c 29 a7 69 3b 44 f9 66 bc
       0.0033103833 0.022040268 0.0035652614 -0.0140975155
000140 6d 03 10 bb a7 57 55 3d b8 7e 29 bd 1e f1 63 3d
       -0.0021974698 0.052085545 -0.041380614 0.05564987
000150 b9 d2 8a bc c7 9c 21 3d b4 e4 30 3d 81 8f 14 bb
       -0.016946184 0.039456155 0.04318686 -0.0022668543
000160 5d 5f 0c bb d0 1c 1a 3d 5f 4a 2f bc 94 5c 63 3c
       -0.0021419146 0.037625134 -0.010698884 0.013877053
000170 d7 7f 55 3d eb 8d 6b bc f8 0c c1 bc 75 06 25 3d
       0.05212387 -0.014377098 -0.023565754 0.04028936
000180 e6 e2 60 3d b1 8e 63 3d 10 59 70 bd 1b 02 6a 3d
       0.054903887 0.055556003 -0.058678687 0.057130914
000190 06 50 40 3d 66 f8 9b bc 3e 17 64 3d 21 54 6b bc
       0.046951316 -0.019039344 0.055686228 -0.01436332
0001a0 7c f0 46 3d 13 93 98 3c 11 b9 0d 3d 0f 0e a5 bc
       0.048569188 0.018624818 0.03460032 -0.020148305
0001b0 a9 ad 88 bc 77 fb 13 bd 3d a3 cd 3c b9 65 54 bd
       -0.01668437 -0.036128487 0.025102252 -0.051854823
0001c0 34 59 a0 37 05 b7 46 3c df ba cf bb d3 91 bd bc
       1.9115025e-05 0.012128596 -0.0063394154 -0.023140823
0001d0 75 05 d1 3b 9e 28 cb bb d8 99 2d bd c2 10 d3 bc
       0.0063788244 -0.0061999103 -0.042383045 -0.025764827
0001e0 64 c4 d2 bc 5b 4a 39 bd 5b 9a 36 bc dc 0e 05 bd
       -0.025728412 -0.045236927 -0.0111452 -0.032484874
0001f0 ed a7 3a bd 98 cf 76 bd c1 9e 2b bd 2d 23 83 bc
       -0.045570303 -0.06025657 -0.041899446 -0.016007984
000200 ce 1c 34 3d 02 ec 35 bc 7e 1f 12 bd 9f da 48 bd
       0.043972783 -0.011103632 -0.035674565 -0.04903662
000210 57 ea ad 3b c8 88 39 3d 06 e2 6d bd fb ac 31 3d
       0.0053074765 0.04529646 -0.05807688 0.043377858
000220 26 ac 4d 3d 11 47 2e 3c 8c f8 d5 3c 1e b5 61 3c
       0.050213 0.010637061 0.026119493 0.013776092
000230 5b b2 62 bd 5f 41 e5 bc 2d 3c 9a bc 97 ec 24 bd
       -0.055345874 -0.027985273 -0.018827522 -0.040264692
000240 99 9e 98 bb 23 7a 1b 3c ac 93 8e ba 9e bb eb 3c
       -0.004657578 0.009489569 -0.001087775 0.028775986
000250 54 44 1d bd 1d a0 3a 3d f8 75 e4 bc 56 7e 2f 3d
       -0.03839524 0.045562852 -0.027888283 0.042845093
000260 f0 b7 46 3d 8f 8e 4b bd 21 6a 6d bd ec a1 2c 3d
       0.04851526 -0.0496965 -0.05796254 0.04214661
000270 7d 1d 2f 3d cb 25 0b bc 5b 04 21 3c d2 a9 c9 3b
       0.04275273 -0.008492897 0.009827699 0.0061542774
000280 2e 61 aa bc ce 8c e4 3c 77 17 8d 3c 13 7d 72 bd
       -0.020798292 0.027899172 0.017223103 -0.05920131
000290 c5 98 98 bc 61 92 1c bd cf 98 b6 3c d5 9b 7d bd
       -0.018627534 -0.038225535 0.022289662 -0.06191619
0002a0 7b c7 5e bd 75 e1 63 bd ec e8 c4 bc 21 9f 42 bd
       -0.05438946 -0.055634934 -0.024036847 -0.04751504
0002b0 c5 09 65 bc de f4 12 bd bb ae 12 3d 78 ea 48 3d
       -0.01397938 -0.035878055 0.035811167 0.04905173
0002c0 08 a7 a2 3c 3d c4 d0 bc 7e 71 aa 3c 90 e2 5e bd
       0.019855037 -0.025484199 0.02080607 -0.054415286
0002d0 fd 5f 03 bd 1b d0 6c bc 94 ca 69 bd aa 83 55 3d
       -0.032073963 -0.014453913 -0.05707796 0.052127518
0002e0 83 a7 12 3d 85 00 c9 3c 75 60 c5 3c 18 39 5f 3d
       0.035804283 0.02453638 0.024093846 0.05449781
0002f0 05 9a d4 bc 20 ab 8f 3c 5a ab 89 bc 9a f2 d8 bb
       -0.025952348 0.017537653 -0.01680534 -0.0066207172
000300 69 b9 2d bd bc 7b 23 3d a9 c7 1c bd 37 24 9c bc
       -0.04241315 0.039912924 -0.03827635 -0.019060237
000310 b6 5d 6f 3d 91 08 f4 bc e4 c3 84 3b db eb 6b bd
       0.05843898 -0.029789241 0.0040516723 -0.057597976
000320 db d3 1a bd c9 45 4a 3d 1a e7 df 3c 43 7d 0a bb
       -0.037799697 0.04938296 0.027331877 -0.002113179
000330 e9 3b 0b bd 92 13 23 3d 84 4a 4c 3d 01 1f 03 3c
       -0.03399268 0.039813586 0.04987575 0.008002997
000340 8e 13 2b bd 83 31 f7 ba 77 fe c5 3c fb e4 4d 3c
       -0.041766696 -0.001885936 0.02416919 0.0125668
000350 61 4c 45 3d 08 b4 44 3d 97 e5 c8 3c 57 0a 3f bd
       0.048168544 0.048023254 0.02452354 -0.04664072
000360 6c 08 84 bc d6 c4 51 3b 5d b9 ed bc 92 48 58 3b
       -0.016117297 0.0032008193 -0.029019052 0.003300224
000370 3a d9 dc 3c 03 f3 31 bd 71 d9 10 bd 89 3f 7d bd
       0.02695905 -0.043444645 -0.03536362 -0.06182817
000380 4e 9d 08 bc df 9b 07 3d 9e 69 50 3d 66 c9 f6 39
       -0.008338286 0.033107635 0.050881974 0.0004707083
000390 ec ee 0f 3d 36 b4 77 bd 49 5b a7 bb ff b7 7a bc
       0.035139963 -0.060474597 -0.0051073176 -0.015302657
0003a0 c2 43 02 bd 07 71 4b 3d 5a ff 07 3d 82 96 57 bd
       -0.0318029 0.04966834 0.033202507 -0.05263377
0003b0 39 76 69 bd dc db 03 bd e7 0b 7b 3c 05 82 be 3c
       -0.05699751 -0.032192096 0.015322662 0.023255358
0003c0 9f 66 cf 3c 18 c4 23 3d 5d 67 32 bd 66 18 ba 3a
       0.025317488 0.03998193 -0.043555606 0.0014197945
0003d0 e1 b4 f7 bc c0 fe 07 bd 40 82 72 bb 54 d9 24 bc
       -0.030237617 -0.033201933 -0.0037003905 -0.010061581
0003e0 57 b8 5a bd 1e ce bd bb 3e 99 b9 3c 0b 0a 3e 3d
       -0.053398456 -0.0057923933 0.02265608 0.046396296
0003f0 78 c7 9f bc 08 4b 14 3d 47 6f 8b bc 9b f7 42 bd
       -0.019504294 0.036204368 -0.017020835 -0.047599416

bias f4 [16]
000000 e3 c5 7b bd 21 18 06 bd 0a ec 4e bc 79 b3 25 bc
       -0.061468016 -0.032737855 -0.012629518 -0.01011359
000010 55 17 07 bc da 57 cc bc 1a b2 a0 3c 10 92 17 3d
       -0.008245309 -0.024944235 0.019616175 0.03700453
000020 d3 51 fd bc 7b bc 25 3d 10 e4 61 bc 4a 07 0f 3d
       -0.030922806 0.040462952 -0.0137872845 0.03491906
000030 9a f4 78 bc 9e 30 13 bd 23 70 ae bb 0e 8c d5 bb
       -0.015195036 -0.035935037 -0.0053234263 -0.00651694

weight f4 [16, 32, 3, 3]
000000 a6 95 39 bd 1e 2b 08 3d 3a 0f 6f bd 57 72 05 bc
       -0.04530873 0.033244245 -0.05836413 -0.0081449365
000010 db 38 80 bd 7f 89 39 bd 90 a6 8d b8 b0 ed 87 bc
       -0.06260844 -0.045297142 -6.7544286e-05 -0.01659283
000020 9b e9 9f bc e6 05 5c 3c da ec 14 bc 5c 7a 42 bd
       -0.019520571 0.013429141 -0.009089673 -0.047479972
000030 76 55 d0 3b 46 89 c5 3c c8 2b 3f 3d 5a c3 d0 bc
       0.006357844 0.024113309 0.046672612 -0.025483776
000040 65 ff 02 bd ea d3 2c bd c1 de 02 3d b0 62 3d bd
       -0.031981844 -0.042194284 0.031950716 -0.046236694
000050 2a 60 53 3d 7f 3a e0 3c 98 82 3c 3d 38 c9 80 bc
       0.05160538 0.027371643 0.04602298 -0.015720949
000060 77 fe 30 3d 57 ca a8 bc 94 43 e4 ba 56 a9 17 3d
       0.043211427 -0.020604296 -0.0017415159 0.037026726
000070 0f 71 1d bd 42 7a af bc 91 d5 e5 ba bc 68 43 3c
       -0.0384379 -0.021420602 -0.0017534961 0.011926826
000080 67 32 7e bc ec 5e 66 bd 2f c5 b6 bc 7b e0 6c 3c
       -0.015514947 -0.05624287 -0.022310821 0.014457817
000090 bc a3 17 bd 48 5e 29 bd b3 44 57 bc ab 5b a5 3c
       -0.037021384 -0.04134968 -0.013138938 0.020185312
0000a0 3d cb 7f bc f8 3d 93 3c 9e bc 43 3c e9 7b 3a 3d
       -0.015612421 0.017973885 0.011946825 0.045528326
0000b0 6f 21 30 bc 85 ee 17 bd 5e 97 c2 bc aa db 4d bd
       -0.010750159 -0.037092704 -0.023753818 -0.050258316
0000c0 34 6a dd bc 64 9d 0a bd 83 f0 58 bd ec 12 84 bd
       -0.02702818 -0.033841506 -0.052963745 -0.064489216
0000d0 67 21 6f bd dc f8 8a 3c be e2 33 bc 78 6d 82 3d
       -0.058381464 0.016964369 -0.0109793525 0.06368536
0000e0 32 2c 8d bc aa 6f 08 3d 0b b5 e2 bc fa 6a 77 3d
       -0.017232988 0.033309616 -0.027674219 0.060404755
0000f0 b5 f7 ba 3b ec fd f1 39 5b 92 16 3c 06 25 ee 3b
       0.0057057985 0.0004615629 0.009190167 0.007267597
000100 30 e0 eb bc 4d 37 f6 3b 7d 41 2a bd e6 41 b6 3c
       -0.028793424 0.0075139166 -0.04156636 0.02224822
000110 3b 7e 49 3d 00 49 41 3d 5d 0a ac bc 2b 7e b2 bc
       0.04919265 0.04718876 -0.021001035 -0.021788677
000120 41 4b 70 3d 3a 29 f5 bc ff d4 83 3c 8d 7e 9c 3c
       0.058665518 -0.029926885 0.016092775 0.019103313
000130 af 80 51 3d c7 20 09 bd 43 2d 4b 3d 21 de 54 bc
       0.051148113 -0.033478525 0.04960371 -0.012992413
000140 0d 8f 3b 3d 3c bf 85 bd 2b e7 1e bd 1a b5 8b bc
       0.04579072 -0.06530616 -0.038794678 -0.01705413
000150 b4 35 84 bd 0e f0 2a bc 46 3a 54 bd ca 11 ee 3c
       -0.064555556 -0.01043321 -0.051813386 0.029061217
000160 f0 c1 30 3d bd dc 37 bc c0 b3 08 3d 4e 8b f3 3c
       0.043153703 -0.011222062 0.033374548 0.029729512
000170 a5 0f d6 3c 0a 66 c0 3b e0 41 1e bd f6 e9 4d bd
       0.026130507 0.005871539 -0.038637042 -0.05027195
000180 ed fa a2 3c 7c b2 2d bd 89 87 38 3d 8d 15 01 3a
       0.019895041 -0.042406544 0.04505113 0.0004924171
000190 8c 76 20 bd c7 50 07 bd b7 1c 33 3b 90 4e 3c bc
       -0.039175555 -0.03303602 0.0027330348 -0.01149334
0001a0 56 d6 31 3d d2 59 13 bd c5 e5 3c bd da d9 83 bd
       0.043417297 -0.03597433 -0.046117563 -0.06438036
0001b0 c4 e9 a3 3b ce ef 44 bd 61 51 0b bc 51 1c 58 3d
       0.0050022323 -0.048080258 -0.008503289 0.05276138
0001c0 f7 de f0 bc 66 ef 4d 3d b8 a5 ed 3c 4f 3a 29 bd
       -0.029403193 0.050277136 0.029009685 -0.041315373
0001d0 a7 6f e2 3c b4 c2 ff bc 06 99 ca 3c 4e 09 2f bd
       0.02764113 -0.031220771 0.02473117 -0.042733483
0001e0 61 f0 00 3c 6c d8 d8 3c 84 a7 10 3d ef e4 00 bd
       0.007869811 0.026470385 0.035316005 -0.031468328
0001f0 61 7c e1 3c 8b ad 09 3d 42 99 91 bc 1b 4b 20 3d
       0.027525129 0.03361277 -0.017773274 0.039134126
000200 5f c1 73 bc 6a d4 18 bd 1c ab 92 3c 7b 44 53 3c
       -0.014877646 -0.03731195 0.017903857 0.012894745
000210 83 48 74 bd e1 be f2 bc d0 c1 ad bc 31 c1 19 3d
       -0.059639465 -0.029632034 -0.021210581 0.037537757
000220 eb 7b 6e bb bc 08 62 bd 88 e5 e5 3b 76 52 6f 3c
       -0.0036389779 -0.05518411 0.0070158876 0.014607063
000230 2f 25 14 3c d9 8a 2c 3d 6a 31 7f bd ea ce e1 3a
       0.009042068 0.042124603 -0.062302984 0.0017227803
000240 32 d3 f1 bc 77 1c c9 bc ad d3 1a bd 61 ae 4b bc
       -0.029519651 -0.024549706 -0.037799526 -0.012431712
000250 44 62 60 bd 2d 5c 65 bd c3 0b 1d 3d 33 6a 0a 3d
       -0.054781213 -0.05599611 0.038341295 0.033792686
000260 b3 cc d6 bc 9f f4 95 bc 00 96 b7 bc e3 d5 a3 3b
       -0.026220655 -0.018305121 -0.022410393 0.0049998625
000270 e9 1e 8f bc 58 14 e7 3c 06 61 ff bb 0b 57 b9 3c
       -0.017470794 0.028207943 -0.0077935485 0.022624513
000280 81 6b c4 bc 88 df 15 bd 2a 53 9f 3c c1 ac 30 3d
       -0.023977043 -0.03659013 0.019448835 0.0431335
000290 60 be eb bc 51 2f c9 3c 2a 83 dd bb 7b 57 6d 3d
       -0.028777301 0.024558695 -0.0067600207 0.057944756
0002a0 38 8c 19 bd fd 70 2c 3d 46 53 90 3c cb 3e 21 3d
       -0.03748724 0.04209994 0.017617833 0.039366525
0002b0 81 d1 78 3b 3e d3 40 3d 6c 0b ce bb 27 1e eb 3b
       0.003796667 0.047076456 -0.0062879827 0.0071752253
0002c0 82 d2 b1 bb 29 4a 11 3c a2 8a 61 3d b6 bb 40 3d
       -0.005426706 0.008867779 0.05506385 0.047054015
0002d0 16 5a 13 bd 06 c8 d9 bc d7 88 00 3d f6 22 d3 bc
       -0.035974585 -0.026584636 0.0313805 -0.025773507
0002e0 dc a1 a9 bc 73 18 41 3c 2d 79 1b bd a2 e6 39 bd
       -0.020707063 0.011785614 -0.03795736 -0.045385964
0002f0 a0 91 3a 3d cd 45 77 bd d4 93 28 bd 01 cd a2 3c
       0.045549035 -0.0603693 -0.041156605 0.019873144
000300 52 a2 78 bc 9f 02 c7 3c b2 1f 6d bc b7 54 0c bc
       -0.015175419 0.024293242 -0.014472889 -0.0085651195
000310 76 e5 98 bc 85 33 05 3c c3 d4 5a 3c 0a fa 12 bc
       -0.018664103 0.008129959 0.01335639 -0.008970747
000320 e6 f5 1f 3d ef e9 23 bd 84 ed 79 bc a5 05 7f 3b
       0.039052866 -0.04001802 -0.015254382 0.0038913277
000330 e0 cf c5 3c b5 a8 bc bc 64 8a 8a 38 bc bc 82 bd
       0.024146974 -0.023029665 6.60613e-05 -0.063836545
000340 c1 88 a6 3c 99 a8 e1 3c fb 04 6f bd ef 15 68 bd
       0.020328881 0.027546214 -0.05835436 -0.056661543
000350 b2 5f 98 bb 99 55 25 3d ed 5b 46 3c 28 06 10 3d
       -0.0046500796 0.040364835 0.012106878 0.03516212
000360 1c 52 2b bd 89 8c 3a 3d c5 ff 57 3d e7 6d 1f bd
       -0.041826352 0.04554418 0.052734155 -0.03892317
000370 2b 4a 98 3c d8 a5 48 bc 42 e5 86 3d 27 08 cc bc
       0.018590054 -0.0122465715 0.06586696 -0.024906231
000380 85 d5 67 bd 5e aa 48 bd 93 65 2d 3d 4f d4 84 3c
       -0.056600112 -0.0489906 0.042333197 0.016214518
000390 25 09 64 bd 64 44 41 bd 20 df fd 3c b9 54 01 bd
       -0.055672783 -0.047184363 0.030990183 -0.03157494
0003a0 54 9f 27 bd 5d 97 da bc fd 42 fe bc f6 8c 31 bd
       -0.04092343 -0.026683504 -0.031037802 -0.04334732
0003b0 fa 22 0d bd 7c be dd 39 80 56 a7 3b bc aa 28 3d
       -0.034457184 0.00042294327 0.005106747 0.04117845
0003c0 3f 62 85 bd ff a1 bb bc e2 d6 e5 bc 6b 4a 15 bd
       -0.065128796 -0.022904394 -0.028056566 -0.036447924
0003d0 16 c0 7d 3c f5 e1 0d bd 74 e3 c9 bc 37 ed 4a bd
       0.015487691 -0.034639318 -0.02464459 -0.049542632
0003e0 fd 1e ec bc 48 e2 a3 ba bf d7 16 bd 59 68 8f bc
       -0.02882337 -0.001250335 -0.036826845 -0.017505812
0003f0 0e 30 1b bd 7b ef 09 3c d4 b5 91 3c 30 11 1c bd
       -0.037887625 0.008418913 0.017786898 -0.03810233

bias f4 [32]
000000 0c 50 7a 3d c0 65 84 bc 81 b8 a5 bb 0d 1a 28 bd
       0.061111495 -0.0161618 -0.005057395 -0.04104047
000010 32 86 02 3d c4 c1 71 3d eb fb 56 bd 5a 7f 99 3d
       0.03186626 0.05902268 -0.05248634 0.074949935
000020 28 44 30 3d 6f 27 3f 3d 68 1e 0b 3c 11 dd 5e 3c
       0.04303375 0.046668466 0.008491136 0.013602511
000030 4f 9d 8c 3d e8 fc 41 3d b8 b1 9b bc 89 d5 a4 bc
       0.06865942 0.04736033 -0.019005641 -0.020121353
000040 a2 f2 80 3d 1f fe b8 bc 96 57 a9 bb e7 79 26 bd
       0.062962785 -0.022582112 -0.0051679118 -0.0406436
000050 30 30 fb 3c 11 c3 a6 3b cb 83 86 3d da 2f fd bb
       0.030662626 0.0050891717 0.06568106 -0.0077266516
000060 ce dc b0 3c 95 58 e6 bc 7d fe b1 bc 1e 3b 31 bd
       0.021589663 -0.028118411 -0.021727795 -0.04326927
000070 82 9e 81 3c 56 02 fc 3c bd e6 18 3d 61 f8 9c 3d
       0.015822653 0.030762833 0.037329424 0.07664562

weight f4 [32, 32, 3, 3]
000000 5f 89 9c 3c 09 62 de bb a9 01 ff 3c b1 4f 58 bd
       0.019108472 -0.006786589 0.031128721 -0.052810375
000010 dd 51 6c 3d 13 71 3a bd a4 c9 2e 3d e7 1f eb bc
       0.05769526 -0.045517992 0.04267277 -0.028701736
000020 e6 77 83 3d 4d e9 bc 3c b1 1c 0d 3d 38 54 ce 3c
       0.06419353 0.023060465 0.03445119 0.025186643
000030 85 9d ac bc b4 c4 07 3c 2b 22 af 3c 44 e4 f2 3c
       -0.021071205 0.008286644 0.021378597 0.029649861
000040 01 2e eb 3c 2c 1e 73 3d 8d a3 a0 3b a3 4b c4 bc
       0.02870846 0.059354946 0.0049023093 -0.023961848
000050 7c ef 19 3d 44 7b 34 3d 3e fe 19 3d db ba 47 bd
       0.037581906 0.044062868 0.03759598 -0.048762184
000060 c0 74 82 bb 54 6e cd 3b 16 a4 64 bc 50 f8 f9 3c
       -0.003981203 0.0062692557 -0.013955137 0.030513912
000070 60 0b 58 bd 1a d0 0e 3d 87 21 54 bc 87 76 60 3c
       -0.052745223 0.03486643 -0.012947447 0.013700134
000080 ac fa 0a bc 75 75 39 bd bf 9d f0 3c 27 b8 07 3c
       -0.008482616 -0.04527803 0.029372094 0.008283651
000090 c8 f8 52 bc dd 5c 19 3d cf 43 2c 3d 5b 43 0f bd
       -0.012876697 0.037442077 0.042056855 -0.034976345
0000a0 24 d2 d1 bc 8b 76 e1 bc c3 7f 4e bd f8 76 7d bd
       -0.025612898 -0.027522346 -0.05041481 -0.061881036
0000b0 26 68 12 bd ba b6 cc bc 21 da 54 ba 02 a2 7d 3b
       -0.035743855 -0.024989475 -0.0008119662 0.00387013
0000c0 9f c5 51 3d cb 4a 82 3b c5 87 26 3d ea e3 39 bd
       0.051213857 0.003976201 0.040656824 -0.04538337
0000d0 de c9 b3 3b 30 ea 1d 3b 8e 89 bc 3c 39 57 34 3d
       0.005486711 0.0024095885 0.02301481 0.044028495
0000e0 ff 68 32 3d 83 8f 8b 3c 58 42 f4 3c 20 c2 44 3d
       0.043557163 0.017036205 0.029816791 0.048036695
0000f0 6b 99 69 3d c8 40 00 3d 83 3b 06 bd 26 d3 c2 3c
       0.057031076 0.03131178 -0.0327716 0.023782324
000100 f5 2e 42 3c 48 ed 3c 3d ec a2 f8 3b 15 bf 4c 3c
       0.011852016 0.046124727 0.007587781 0.012496729
000110 17 b7 20 3c bd 90 e2 3c de 42 4a 3d 9e 32 88 3d
       0.009809277 0.027656907 0.049380176 0.066502795
000120 b6 80 6d bd 98 4b bf 3c 87 25 29 3d e3 b2 22 bd
       -0.057984076 0.023351476 0.041295554 -0.03972138
000130 48 d9 6b bd a3 6c c7 3c 8e 6e 84 bb 99 8e 29 3d
       -0.057580262 0.024343794 -0.0040414995 0.041395757
000140 7d 14 94 3c 7b 8e 5e 3d 26 a1 25 bd 47 2a 10 bc
       0.018076176 0.0543351 -0.040436886 -0.008799142
000150 11 93 3b bd 0e 81 9b 3c 2f ee 49 3d ba ce ed bc
       -0.04579455 0.018982437 0.049299415 -0.029029239
000160 cc a4 52 3d 20 f1 1d bd 63 75 2b 3d b7 2a 49 bd
       0.051426694 -0.038560033 0.041859996 -0.049113
000170 de 04 45 bd 00 10 d4 bc fa 89 98 3c 94 98 5e bd
       -0.048100345 -0.025886536 0.01862048 -0.05434473
000180 cc 0d 17 3d bb 96 45 bd 40 fa 38 ba 0e fc df bc
       0.036878392 -0.04823945 -0.0007056333 -0.027341869
000190 a1 db 95 bc 4d 8a 3c bd 1c c7 4c 3d af a5 44 3d
       -0.018293204 -0.04603033 0.049994573 0.04800957
0001a0 34 23 87 bd a3 26 b5 bb 1b 83 27 bd 6d 8e 3b bd
       -0.06598511 -0.0055282875 -0.040896516 -0.045790125
0001b0 a8 e3 60 bc 7a 76 10 3d 69 87 64 bd 31 f5 81 3d
       -0.0137261525 0.035269238 -0.0557932 0.06345595
0001c0 0b 94 43 3d 22 bb aa 3c 53 9b 4e 3d 54 75 e8 ba
       0.047748607 0.020841185 0.050441097 -0.0017735162
0001d0 0f 88 a4 3c b3 20 63 3c 1b 5e 86 bd 63 11 51 3b
       0.020084409 0.013862777 -0.06560918 0.0031901232
0001e0 da b2 97 bc 6f 2d 90 bd 40 34 09 3d ea ad 0f bd
       -0.0185179 -0.07039916 0.033497095 -0.035077967
0001f0 df 0c cc bb 94 38 2d bd f0 71 1b 3d 8e db 53 3b
       -0.0062271203 -0.042290285 0.037950456 0.003232691
000200 ae 4d bb bc 53 4c d3 bc 13 12 6e 3c 78 ff 55 bd
       -0.022864189 -0.02579323 0.014530676 -0.052245587
000210 4d f6 e2 3c 32 a9 45 bd 01 c4 13 bd d6 4f c7 b9
       0.027705336 -0.04825706 -0.036075596 -0.0003801572
000220 80 6a 21 bd 3f 41 6c 3c 55 83 1b bd 83 f3 a7 bc
       -0.039408207 0.014419853 -0.037967045 -0.020501858
000230 e2 ac b5 3c c8 b7 49 3d 3e b7 81 3b d4 d3 17 3d
       0.022177164 0.049247533 0.0039586117 0.03706725
000240 d4 f6 6e bd e3 96 98 bc 4f 82 fe 3c 8e 44 8e bc
       -0.058340862 -0.018626636 0.031067995 -0.017366674
000250 e9 16 71 bd 92 b5 38 bc 5f 15 ad bc c3 ad 4c 3c
       -0.05885974 -0.0112737585 -0.021128355 0.0124926
000260 e2 74 94 bc 37 68 c9 bc 14 ef d8 3c 40 44 6f 3d
       -0.01812214 -0.024585826 0.026481189 0.058414698
000270 4a 9c 16 3b f7 cb 03 3d 13 bb cd 3c 2e 23 df 3c
       0.002298134 0.032176938 0.025113618 0.027238455
000280 51 64 03 3c 7f ff 5f 3c d4 d5 5b bd dd 47 1a 3d
       0.008019523 0.013671755 -0.05367072 0.03766619
000290 b9 84 f1 bc db 55 3a bd 1b c7 0f bd d1 b8 a8 3c
       -0.029482232 -0.045492034 -0.03510199 0.02059594
0002a0 a5 f5 52 bc cd c5 0d bd 51 7f 0f 3d ac dc 20 bd
       -0.012875949 -0.034612466 0.035033528 -0.03927295
0002b0 fc 1e 55 bd 5a ed 94 3c fc ec 0f bd a7 3a 4a bd
       -0.052031502 0.018179584 -0.035138115 -0.04937234
0002c0 c5 d1 e6 bc 22 01 20 bd 1d f5 22 bc e4 0b 17 bd
       -0.028176198 -0.03906358 -0.009946135 -0.036876574
0002d0 a9 53 7a 3b 13 e4 16 bc 63 4c 21 3d ca 5c 1c 3d
       0.0038196838 -0.009209651 0.03937949 0.038174428
0002e0 9c 49 01 bd c1 21 c5 3c ee 33 53 bd ae 5e 43 bd
       -0.03156434 0.024063947 -0.051563196 -0.047697715
0002f0 fe dd 21 bd 35 7f a8 bc 70 09 49 bd 23 c9 e4 3c
       -0.03951835 -0.02056847 -0.049081266 0.02792794
000300 40 58 63 3d 34 9e 19 bd ae ef 4e bd a8 43 08 bc
       0.055504084 -0.03750439 -0.050521545 -0.008316912
000310 e7 64 6b 3d c7 64 ca 3c 7e dd 08 bc ae f9 25 3d
       0.057469275 0.024706258 -0.008353589 0.040521316
000320 70 4b f6 3c f7 d6 a8 3c 9d 22 1e bd f9 2d d8 bc
       0.030065268 0.020610316 -0.03860723 -0.026389109
000330 4b b5 8a bc 72 99 93 bc 77 ca a1 3b 10 a6 f8 3c
       -0.01693215 -0.018017504 0.004937466 0.030352622
000340 e9 22 33 bd 23 70 89 bd 91 e5 74 bd 03 e0 86 3b
       -0.043734465 -0.067108415 -0.059789244 0.0041160597
000350 fe 6f 4c bd 9e f8 9a 3c 7a 25 f4 3b 73 59 b4 3b
       -0.04991149 0.018917378 0.0074507566 0.0055038272
000360 93 17 b9 bc c0 2f ec 3c 9e 4f 24 3d f8 f6 9a 3c
       -0.022594249 0.028831363 0.04011499 0.018916592
000370 4b 43 43 3b e1 2c cd 3c 0b 90 03 3c 9a 14 79 3c
       0.0029794748 0.025045814 0.008029948 0.015202666
000380 86 da c9 3c a5 4f 50 3d 25 cc 42 bc 4b 32 e1 3c
       0.024640333 0.050857205 -0.011889492 0.027489802
000390 08 6a 33 3d 69 9a 4b bd 21 9f 60 bb c7 81 4e bd
       0.04380229 -0.049707804 -0.0034274536 -0.050416734
0003a0 44 46 39 bd fb ad 14 3d 19 ed fc bc 3c f2 89 3d
       -0.045233026 0.036298733 -0.030874776 0.06735656
0003b0 cd 5e 85 3d 3b 43 e2 bc df 8b 2f bd fa b4 18 3b
       0.065122224 -0.027619949 -0.042858 0.002330123
0003c0 59 33 16 bd ef d4 3b 3d 2b e1 9d bb 70 6e 9d 3c
       -0.036670063 0.045857366 -0.004818102 0.0192177
0003d0 92 07 7e 3b c3 81 9b b9 d3 14 d2 bc 52 69 b2 3c
       0.0038761836 -0.00029660584 -0.025644695 0.021778736
0003e0 44 53 ec 3c 77 83 74 3c ec 0c cc 3b 21 59 4d bc
       0.028848298 0.014923922 0.0062271263 -0.012533457
0003f0 f3 aa 5c bc 81 f6 06 3d 40 25 24 3d 14 5b 2f bc
       -0.013468492 0.03294993 0.040074587 -0.010702867

bias f4 [32]
000000 82 b3 47 bd d3 5d 15 3d f9 ae 0a bd 52 36 ac bc
       -0.048755176 0.03646643 -0.033858273 -0.021021996
000010 a4 fe 1d bd fa 8c 72 bc 78 a4 49 3c 78 a5 af 3c
       -0.038572922 -0.014804119 0.012307279 0.021441206
000020 c4 fc 05 3c 04 49 4f 3d 5b 5c 47 3d cf 18 75 3c
       0.00817794 0.050606743 0.04867206 0.014959528
000030 c4 7e 7d 3c 88 25 85 bd 4e 5e 46 3d 2d 8f d9 bc
       0.015472118 -0.06501299 0.04842978 -0.02655753
000040 e6 6d 64 bc 1b 75 b5 3c d6 66 77 3d 6c 0f 62 bd
       -0.013942217 0.022150567 0.060400806 -0.05519049
000050 71 9b 3a bb 39 80 31 3d 07 55 0c 3c 45 e6 bb b9
       -0.0028473998 0.043335173 0.008565194 -0.00035838984
000060 e3 48 49 3d 93 02 29 3d 10 da 94 3d 60 52 97 3d
       0.049141776 0.04126222 0.072681546 0.07388759
000070 09 87 8e 3c f1 66 95 3d 0d 68 87 3b c9 05 7c 3d
       0.017398374 0.07295025 0.004132277 0.061528955
