Baseline/bestKernel_Num_Set_0.pt (torch_old, 84577 bytes, 16 tensors)

weight f4 [16, 3, 3, 3]
000000 32 6e c6 3d 1c a3 dc bb ec db df 38 b6 88 0f 3e
       0.09688987 -0.0067333113 0.00010674432 0.14016995
000010 38 70 e6 3d 56 9c 9d 3d bc 8f 08 be 72 c1 e3 bd
       0.11251873 0.07695834 -0.1333608 -0.11120881
000020 b0 ed b8 bd 92 90 36 be c7 ae 49 be 00 83 74 bc
       -0.0902971 -0.17828587 -0.19695579 -0.014923811
000030 ee 08 92 bd 68 f5 ed bd 75 3a 16 3e 28 81 c2 ba
       -0.071306095 -0.11619073 0.14670737 -0.0014839517
000040 28 70 02 3c 98 20 cf bb ac 76 0a be 58 45 6f 3d
       0.00796131 -0.006321024 -0.13521832 0.05841574
000050 40 b7 2a 3e fc dd bf 3d 1d 27 2c 3e 60 44 c7 bd
       0.16671467 0.09368512 0.16811796 -0.09729838
000060 23 bd 3a 3e fe a3 d8 3d 52 8d 06 3e 90 84 df bc
       0.18236212 0.10578154 0.13139847 -0.02728489
000070 67 b0 0b 3e 05 6e a5 3c 13 39 ae bd 6e 59 91 bc
       0.13641511 0.020194063 -0.0850698 -0.017742839
000080 91 a5 10 3d 43 2b 01 be e6 16 9f bd ae 02 15 3e
       0.035314146 -0.1261416 -0.077680394 0.14551803
000090 c1 e4 b2 3d 69 b9 2a 3e ec 5d df 3b be 40 0b 3d
       0.087350376 0.16672291 0.0068166163 0.03399729
0000a0 8f 2b 09 be a3 83 de 3d f7 7c 1a 3d 5d db 47 be
       -0.13395523 0.108649515 0.037716832 -0.19517274
0000b0 a1 71 97 bd 3d 5c 5a bd cf 59 56 3d a0 e6 e1 3d
       -0.0739472 -0.05331062 0.052331742 0.11030316
0000c0 70 39 22 3e 2a 5f 12 be 95 2d d8 bd 77 78 15 3e
       0.15842223 -0.14294115 -0.10555569 0.14596735
0000d0 c8 d9 3f bd 72 22 49 3d 1f 99 06 3b c6 ea 97 bc
       -0.04683855 0.049105115 0.0020538045 -0.018544566
0000e0 39 ea a6 3d 69 45 b6 3d 70 11 23 be d6 f5 a2 3c
       0.08150143 0.08899958 -0.1592462 0.019892614
0000f0 6b 57 9d 3d 2b 6e 30 3e 68 d8 41 3e e7 4e 57 be
       0.07682689 0.17229526 0.18930209 -0.21026193
000100 94 03 76 bd 15 5c 1c 3c b3 23 2c be 85 6b 05 bd
       -0.060062006 0.009543438 -0.16810493 -0.03257324
000110 d0 2f 2c be 06 4a 1f bb df d8 19 be d2 94 7e bd
       -0.16815114 -0.0024305596 -0.15024136 -0.062153645
000120 84 a8 4c 3d 9d 15 1c 3e 26 80 a3 bd 3d 44 d4 bd
       0.049965397 0.1524262 -0.07983427 -0.10364578
000130 f8 55 21 3e 44 c2 14 bd 4a bc 0a be 59 43 40 3d
       0.1575545 -0.03631808 -0.13548389 0.046939228
000140 73 19 4a 3e 75 a9 e2 3d 26 79 7a bd 25 c1 8e 3d
       0.1973627 0.110674776 -0.061150692 0.06970433
000150 90 88 4f bc df 0b 2e 3e 65 e2 b0 bc 6a 29 27 be
       -0.012666836 0.16996716 -0.021592328 -0.16324392
000160 ce 4f 41 be cb d1 1b 3d fc cd fc 3c 6b eb d9 3d
       -0.188781 0.03804187 0.03085994 0.106406055
000170 ea 58 83 bd cd b3 dc 3d 14 39 16 3d eb 1d f2 bc
       -0.064134434 0.10776482 0.036675528 -0.029555282
000180 c6 4d 2c be ba 6c d8 3c 55 e1 9e bd 1b c5 e8 3d
       -0.16826543 0.026419032 -0.077578224 0.1136572
000190 27 70 0f be 1c 76 3c be 3c 41 52 3d d2 20 9a 3d
       -0.14007626 -0.1840443 0.051331744 0.07525791
0001a0 16 bb 19 3c d2 48 f0 3c 8d bd 41 3e be 65 d0 bd
       0.009382984 0.029331598 0.18919964 -0.10175656
0001b0 42 92 21 be 7d ad d6 bd ca 8b e8 3c 76 99 31 bd
       -0.15778449 -0.10482309 0.02838697 -0.043359242
0001c0 f6 ed c4 bd df f9 29 3e f2 85 a1 3d 64 ab e9 bd
       -0.096157 0.16599225 0.07886876 -0.11409643
0001d0 d7 8f 2c be 2b 4f a7 bd f5 94 8f bd 5f a5 57 3d
       -0.16851746 -0.08169397 -0.07010833 0.052647945
0001e0 17 82 08 3e e3 0f 56 3e 0c 61 e0 39 bf 98 88 bd
       0.13330875 0.20904498 0.00042796915 -0.06669759
0001f0 0a e8 19 3e 22 5a 24 bd cd a5 0c 3e cf 57 37 3d
       0.15029922 -0.04012502 0.13735123 0.044761475
000200 4a f2 13 3e 48 a6 c8 bd b0 55 f3 3d be 0c df 3d
       0.14447895 -0.09797341 0.11881578 0.10891102
000210 3e 0b ce bd 97 60 fc 3d 92 00 0a 3c 1c 6c 36 be
       -0.10060738 0.123231106 0.008422988 -0.17814678
000220 8a a1 1b 3e b3 b2 a3 3d 5a 17 22 3e 90 41 13 3e
       0.15198341 0.079930685 0.1582922 0.14380479
000230 4b f4 39 3e ff 37 12 3c 24 e6 05 3d 2b 61 8f bd
       0.18159597 0.008924483 0.032690182 -0.07000955
000240 b5 ff 00 3e e9 d5 24 3c 09 8f 47 be c8 06 e4 bd
       0.12597544 0.010060766 -0.19488157 -0.11134106
000250 00 69 83 bd 86 cb 8a 3d de e7 02 3e 0d bd 86 3d
       -0.064165115 0.067771 0.12783763 0.06579027
000260 79 59 8d bc 5c 87 57 3e 6f 6d 26 3c b7 04 07 3e
       -0.017254578 0.21047729 0.010157927 0.13185392
000270 72 cb 6f bc 36 b6 ce bc 87 7a 88 bc af b5 03 be
       -0.0146359075 -0.02523337 -0.016659988 -0.12862276
000280 c8 29 26 be 4c 1c a3 3d f1 7d 94 3d 7c bf 4e 3e
       -0.16226876 0.079643816 0.07250584 0.20190233
000290 e7 24 0a bd 35 a6 80 3d c0 99 fc bd c9 c3 23 3e
       -0.0337266 0.062817015 -0.12334013 0.15992655
0002a0 be 14 42 3e 56 5c 81 bd b6 8d c0 3d d2 dc 3d bd
       0.18953225 -0.0631644 0.09402029 -0.04635317
0002b0 6b b2 b6 bc 31 ae 0c bb ab 41 67 3d 26 37 4e be
       -0.022301873 -0.002146613 0.05645911 -0.20138225
0002c0 d5 fc df bd 5a 5c d8 bd 4f 9a 97 3d 0d 0e 41 3d
       -0.10936896 -0.1056449 0.07402479 0.04713254
0002d0 4c e3 34 3d 89 cf 12 be 80 7a 05 be ed f7 5d 3d
       0.04416208 -0.14336981 -0.13035011 0.05419152
0002e0 a5 bb ae bc 49 ee 83 bd e3 cf b1 bd 93 bd e2 3d
       -0.02132971 -0.06441934 -0.08682229 0.11071315
0002f0 54 48 f8 bc 91 82 bc 3d 7a 15 c6 bd 02 a3 12 3b
       -0.030307926 0.09204591 -0.09672065 0.0022374992
000300 30 39 b9 3c 2d ef 1c be c8 ea 20 3e 16 72 0b be
       0.022610277 -0.15325613 0.15714562 -0.13617739
000310 0d 5e 51 3d 36 51 6a 3d e0 90 e7 bd 6d 60 3a 3e
       0.051115084 0.057206355 -0.113069296 0.18200846
000320 24 c8 f1 3d 54 be 3d bd f6 50 10 be a0 51 c3 3c
       0.11805752 -0.04632409 -0.14093384 0.023842633
000330 47 4b e7 3b b3 50 95 bd 12 e8 06 3d 3e b2 46 be
       0.0070585343 -0.07290783 0.032936163 -0.19403931
000340 58 d3 ac bd c5 9e 5e be d7 08 0b 3e ea e5 01 be
       -0.08438748 -0.21740253 0.13577591 -0.12685362
000350 0b 17 15 be b6 04 0f be 0e b6 15 be ac 2e 16 3d
       -0.14559571 -0.13966641 -0.1462023 0.036665604
000360 ea d3 14 3e 1e e7 1a 3d 11 ce 2f 3c 7d f7 93 3d
       0.14533964 0.037818067 0.010730282 0.07224939
000370 ca 89 30 3e f6 06 43 3e 85 f9 94 3c c6 04 5f b9
       0.17240062 0.19045624 0.018185386 -0.00021268715
000380 ef cf e9 bc e5 96 dd bc 4c a7 4c be 99 3b 71 3b
       -0.028541533 -0.027049491 -0.19985694 0.0036809205
000390 fb 92 50 be b4 44 8b 3d 87 eb fd bb 6d 34 29 be
       -0.20368569 0.068002135 -0.0077490243 -0.16523905
0003a0 9a 48 29 be 7f 61 a9 bc ce e9 0f 3e c0 86 a6 3d
       -0.16531602 -0.020676373 0.14054033 0.0813117
0003b0 8c 9c e7 bd 11 e5 05 be e8 fd 19 be 87 6d 5d 3e
       -0.11309156 -0.13075663 -0.15038264 0.21623813
0003c0 47 23 08 be 42 22 aa bd 10 8c df 3d 97 df 21 bd
       -0.13294707 -0.083073154 0.10915387 -0.039519873
0003d0 f2 3b bd 3b 43 2c 5b 3d 10 2a 24 be 53 8c 36 be
       0.0057749683 0.05350901 -0.1603167 -0.17826967
0003e0 24 79 12 3e bd b2 ae 3d 00 aa 2e bd 61 38 18 3e
       0.14304024 0.08530185 -0.042642593 0.14865257
0003f0 58 4e e3 bd d8 ba 1c 3e 3b 13 97 3d 11 18 c3 3c
       -0.11098927 0.1530565 0.07376715 0.023815187

bias f4 [16]
000000 74 79 03 3e 30 19 cb bd 45 ba cb 3d 02 e5 c8 bd
       0.128393 -0.099169135 0.099476375 -0.09809305
000010 33 fc 08 3e 2b 5a d4 bd e9 8c b0 3d 02 f2 a9 3c
       0.13377456 -0.10368761 0.086206265 0.020745281
000020 a3 9c e7 bd df 8d 9d bd e4 c5 37 3e de c2 65 bd
       -0.11309173 -0.076930754 0.17946583 -0.056094043
000030 0a 1f 21 3e 2b ec 75 3c 17 44 39 3d ae a9 2c 3d
       0.15734497 0.01500992 0.04523095 0.042154007

weight f4 [16, 16, 3, 3]
000000 cc ef fd bb 4d f9 97 3d dd eb 4f 3d 57 60 95 3d
       -0.0077495333 0.07420597 0.050762046 0.07293766
000010 f2 85 39 bd d7 dc 92 3d 05 c4 e5 3b 51 dd 7f 3d
       -0.045293756 0.07171028 0.0070118927 0.062466923
000020 bc cf 16 3c 73 ea b9 bc 76 85 82 3d 48 c4 1d 3a
       0.009204801 -0.022694802 0.06373112 0.0006018323
000030 fe d9 a2 3d 6a 16 b2 3d e9 4f e6 bc 86 51 53 bd
       0.07951735 0.086956814 -0.028114276 -0.05159142
000040 55 f9 9b 3d 80 16 aa 3d f4 08 7b bd 0b 71 0a 3c
       0.07615916 0.08305073 -0.061287835 0.008449803
000050 69 de 1d 3d 24 e3 a4 3b 60 99 2f 3c f5 a3 35 3d
       0.038542185 0.00503196 0.01071772 0.044345815
000060 87 45 0a bd a6 a3 66 3d 97 9c be 3d 36 75 12 bd
       -0.033757713 0.05630841 0.09307211 -0.035756312
000070 7c 4d 5e bd 08 cc 22 3b a3 5f 7a 3c 07 12 61 bc
       -0.054273114 0.002484085 0.015281591 -0.013737208
000080 70 11 81 ba 9e ea 8a 3c f8 7f 4f 3d d7 c6 9b bd
       -0.0009847116 0.016957577 0.05065915 -0.07606285
000090 ba fa 9d bc 67 03 ad 3d ef e0 3e 3d 2e 32 07 3d
       -0.019284595 0.084479146 0.046601232 0.03300684
0000a0 22 e4 c1 3d cf 29 95 bc 4c d5 67 3d e9 c5 73 3c
       0.09467341 -0.018208412 0.0565999 0.014878728
0000b0 16 1f 17 3c 58 13 8d bd 78 63 6d 3b 88 4a 05 bd
       0.00922372 -0.06888455 0.0036222618 -0.03254178
0000c0 d6 4c a3 3b c6 ed 3c 3c 63 f3 55 bd 5e 01 56 bc
       0.004983525 0.011531299 -0.052234065 -0.013061849
0000d0 9a 6e b4 3d b4 fb 5d bd 42 6b 9b 3d 39 ac 1d 3d
       0.08810158 -0.05419512 0.07588817 0.038494322
0000e0 b7 ba 06 3d 13 28 2f bd 22 b3 b1 3d be 31 fc 3c
       0.03289291 -0.042762827 0.08676745 0.030785438
0000f0 71 0e 5a bd 56 9b 9d 3d fc 1e b5 bb 4c b7 99 bd
       -0.05323643 0.076956436 -0.0055273753 -0.07505664
000100 a3 18 76 3d dd 8a fd 3c 9b b0 c8 bd c8 5d 98 bd
       0.06008209 0.030950004 -0.0979931 -0.07439762
000110 11 23 c4 bd 2f 08 0e 3d 66 e0 06 bb 3e 18 23 3d
       -0.09577001 0.034675773 -0.002058053 0.03981804
000120 13 34 65 bd 34 d6 86 bd 94 ae 9e 3d 1f 40 69 bd
       -0.055957865 -0.06583825 0.07748142 -0.056945916
000130 a4 15 8e bd 15 c3 a5 3c 5f fb dc 3c f1 7f 9c 3d
       -0.06937721 0.020234624 0.026975332 0.076415904
000140 4e da 60 3b a2 ff b7 3c ca 54 73 3d 75 6a 89 bd
       0.0034309807 0.022460762 0.059407033 -0.06709758
000150 bd dd 70 bb 73 ac c3 3c 88 c0 8c 3d ce 02 60 bd
       -0.003675326 0.023885941 0.0687266 -0.054690175
000160 53 c6 2f bd f8 b0 49 bb c0 80 44 bd a5 c6 c2 3d
       -0.042913746 -0.0030775648 -0.047974348 0.09510545
000170 12 f9 29 3c 5e 7e cc bc e3 37 ec bb ba 2c 33 3d
       0.010374324 -0.0249626 -0.0072088107 0.043743826
000180 64 ad 20 bc 13 d7 c3 3c bf 6a 1d bc 84 b4 f4 3c
       -0.009806965 0.023906266 -0.00960797 0.029871233
000190 d0 6d 28 3d 0b e4 28 bd 44 26 23 3d 78 9b bb 39
       0.04112035 -0.041233104 0.039831415 0.00035783253
0001a0 cf c0 5f 3d 5c 34 bb 3b 84 36 06 bd ea 8c 0a 3d
       0.054627236 0.005713029 -0.032766834 0.033825792
0001b0 20 c6 29 3b a5 c9 fa bc f1 ee 14 3d 37 89 9f bb
       0.0025905445 -0.03061373 0.036360685 -0.004868652
0001c0 cc 82 f0 3c b2 82 77 bd fb bf 70 bd 4e 3b 90 bd
       0.029359244 -0.060427375 -0.058776837 -0.070425615
0001d0 31 8b bd bb 62 b6 0e bd 66 6a 75 3d 70 6d b8 3d
       -0.005784415 -0.034841903 0.059915923 0.090052485
0001e0 e0 fc 5d 3d 13 cc 95 bc 51 c3 ca 3d 07 81 2d bd
       0.05419624 -0.018285787 0.09900535 -0.04235938
0001f0 1e b8 1c 3d 0a 15 5b bd 10 8d 51 3d 6c 16 fe bc
       0.038261525 -0.05348686 0.05115992 -0.031016551
000200 7b 9c 0d bd 0f b6 41 3d c9 fc bb 3d 2c 63 67 3d
       -0.03457306 0.047292765 0.09179074 0.056491062
000210 dd 07 40 3d d7 e4 14 3d c6 51 5f bd 95 a2 08 bd
       0.0468825 0.03635105 -0.054521345 -0.033358175
000220 84 84 f9 bc 00 28 1f 3d 3c de fe bb 49 25 9f 3d
       -0.030458696 0.038856506 -0.0077779572 0.077707835
000230 a3 8e ec bc 9e 82 c5 3d d7 58 ac 3d 01 17 a3 3d
       -0.028876608 0.09644054 0.08415382 0.07963372
000240 b9 e5 ad bc 21 c3 4f 3c 3c f2 bc 3a 36 7d a9 bd
       -0.021227704 0.0126808 0.0014415453 -0.08275835
000250 b7 23 ac bd 58 da 4f 3b 6a e3 8b bd fe d0 28 3d
       -0.084052496 0.0031715836 -0.06830485 0.041214935
000260 e3 63 67 bd f4 80 51 bd 4e 65 b5 bd f5 69 bb bd
       -0.056491744 -0.05114837 -0.08857213 -0.09151069
000270 fa 63 99 bd a7 5f ad bd da 14 93 bd 1e 26 eb 3c
       -0.07489772 -0.0846551 -0.071817115 0.0287047
000280 48 d6 2f 3d d9 ca 78 bd 05 72 5b 3d de e1 63 3c
       0.042928964 -0.060740326 0.053575534 0.013908831
000290 8f e1 06 3d cb 58 db bc 36 0f b9 bd 57 a6 65 bd
       0.032929953 -0.026775738 -0.090361044 -0.056066837
0002a0 4e 1b 06 3c 24 5b 86 bd f8 90 97 bc ea 49 70 3c
       0.008185221 -0.065603524 -0.018501744 0.01466606
0002b0 67 ab 6b 3d 47 1d 77 3d e5 01 31 3d 7a 5f 3f bd
       0.05753651 0.060330655 0.043214697 -0.046721913
0002c0 b1 5a 29 bc 0c 70 b0 bd 14 43 79 3c eb bb 17 bd
       -0.010336564 -0.08615121 0.015213747 -0.037044447
0002d0 b3 72 10 bd 64 f5 77 3c 78 75 76 bc ec 49 30 3d
       -0.035265636 0.015134189 -0.015042655 0.043039247
0002e0 c5 3d bc bb 92 0b 20 3d 43 e6 0d 3d 0e 25 13 b9
       -0.005744668 0.039073534 0.034643423 -0.00014032816
0002f0 09 c7 54 bd c4 5c d1 bc 5c bc 67 3d 43 9c 8f bc
       -0.051947627 -0.02555693 0.056576118 -0.017530566
000300 86 2b ca 3c d3 74 7e bd 59 ac 94 bd 74 a4 a1 3c
       0.024678957 -0.06212313 -0.07259435 0.019731738
000310 63 d3 1d bd 04 e1 88 bd 9d 59 86 bd bc 66 81 3c
       -0.038531672 -0.06683543 -0.06560061 0.015796058
000320 07 de 1a bd 1d d2 0e bd 93 83 02 3d e5 86 ad bd
       -0.037809398 -0.03486835 0.03186376 -0.08472995
000330 f1 d7 a6 bd 20 43 70 3d bf 0d 0d 3d f5 07 4d 3d
       -0.08146656 0.058657765 0.034436937 0.050056417
000340 9c 59 07 3d a1 c0 93 bd b2 a3 bf 3c 33 5d 94 3b
       0.033044443 -0.072144754 0.023393486 0.004527712
000350 57 1f 18 bd 20 28 0a bd 90 bd 93 bd 2e a3 d4 bc
       -0.037139263 -0.033729672 -0.072138906 -0.025956716
000360 f6 8d bb bd 29 27 23 3c e9 07 19 3d c5 17 fe 3b
       -0.09157936 0.009958067 0.03736106 0.0077542984
000370 64 09 7a 3d 8b 66 ba bd b0 e2 aa 3c 76 de 0d 3c
       0.06104411 -0.0910159 0.020860046 0.008658996
000380 09 44 6b bd d7 67 69 bd 7e 6b 5a 3d f0 a7 86 bd
       -0.05743793 -0.056983795 0.05332517 -0.06575
000390 92 ed b4 3c cf c7 f6 bc 55 2d c4 bd 9f 9d 8b bc
       0.022085939 -0.030124573 -0.09578959 -0.017042933
0003a0 62 51 b6 bb 18 b2 4e 3d 8b 2f ca bd 0d 18 86 3d
       -0.005563901 0.050462812 -0.09872349 0.06547556
0003b0 eb 2e 36 3d bf e0 2d bd 5d 2e 65 3b 86 dc 16 bd
       0.04447834 -0.042450663 0.0034970262 -0.0368314
0003c0 02 b7 77 3c 8e 72 03 3d 18 f2 84 3d c8 a6 96 bd
       0.015119316 0.03209167 0.06491488 -0.0735603
0003d0 07 c7 52 3c 68 42 81 bc cc 17 2a 3a 03 37 c1 bd
       0.012864835 -0.015778735 0.00064885314 -0.09434321
0003e0 f0 ec b5 bd 11 a0 61 bd b4 20 7b bc a3 b7 aa 3c
       -0.08883083 -0.05508429 -0.015327621 0.020839518
0003f0 3b bf 20 3d 99 42 e6 bb 7d 80 34 3d 1f 6b 16 3d
       0.03924487 -0.007026982 0.04406785 0.036723252

bias f4 [16]
000000 4e 3d 1b 3d 69 ee 4b 3d 34 5c 82 3d f0 d8 8b bd
       0.03790026 0.049787913 0.063652426 -0.06828487
000010 a8 3a 88 ba a0 8f a7 3d ad 2b 82 3c 24 cc cc bc
       -0.0010393457 0.08181691 0.015889967 -0.024999686
000020 99 10 e8 3a 19 af 94 3d 98 65 65 bd 8d 37 83 3d
       0.0017705142 0.0725996 -0.05600509 0.0640708
000030 15 d1 15 bc 3d 5a 1c 3d ae 42 94 ba 0a 1a 8a 3d
       -0.009144087 0.038171995 -0.0011311376 0.06743248

weight f4 [16, 16, 3, 3]
000000 f4 59 88 3d 0b 9d 3d 3d d1 81 91 3d bd 6c 68 bc
       0.06657782 0.046292346 0.07104839 -0.0141860815
000010 f5 f3 8d 3d 81 83 a1 bd e6 b2 9f bc 19 d2 ab bd
       0.06931297 -0.078864105 -0.019494485 -0.08389682
000020 91 a4 70 3d a0 fb 2a ba 1d d2 7b bd ca 08 51 bc
       0.058750693 -0.00065224804 -0.061479677 -0.012758443
000030 28 b3 82 bb d5 26 9b bd 5f 48 35 3d 5d f8 2a bd
       -0.0039886422 -0.07575766 0.04425847 -0.041740764
000040 08 13 18 3d 3f 89 c1 3d dc 59 61 bd 9d 7d b5 bc
       0.037127525 0.09450006 -0.055017337 -0.022154624
000050 3e a3 c3 3b 8e 70 a8 bc 50 e9 71 bc 70 e1 29 bd
       0.0059703877 -0.020561483 -0.014765099 -0.04147476
000060 85 9f 9f bd 3f 7e ba bd c2 5e af bd 0e cb ef bb
       -0.07794098 -0.09106111 -0.085629955 -0.007317907
000070 3f 2c 34 3d ce 8b 8f bc f3 76 ae 3d c9 f6 87 bd
       0.04398751 -0.017522719 0.085187815 -0.066388674
000080 51 fb 65 bd d8 22 1d 3d c5 8a 94 3d ec 9c 2d 3d
       -0.056147877 0.038363308 0.07253031 0.04238598
000090 6d 94 0d 3d 37 02 0a bd 82 a2 1c bd 88 9f e1 3c
       0.034565378 -0.03369352 -0.038240917 0.02754189
0000a0 aa f9 9a 3d 90 91 5d bd 3a c0 19 bd 4a be ac bd
       0.07567151 -0.054093897 -0.037536837 -0.08434732
0000b0 bc e7 c5 3c 91 8c f1 bc d7 ca 0f bd f9 42 03 bd
       0.024158351 -0.029485973 -0.035105553 -0.032046292
0000c0 26 9a b1 bc ac 1c 7f bd b3 b7 00 bd d9 b9 84 3d
       -0.021679949 -0.062283203 -0.03142519 0.0648076
0000d0 ad 2f 79 bd d5 32 c7 bb 20 91 90 3c db d6 43 3d
       -0.060836483 -0.0060790577 0.017647326 0.047812324
0000e0 2c 10 84 3d 49 6a c7 3d 41 76 30 bd e7 6c e3 bc
       0.06448397 0.09737069 -0.043081526 -0.02776189
0000f0 2d 4e 0e bd 57 bf 1e bd de e3 b2 bd b9 52 89 3d
       -0.034742523 -0.038756695 -0.087348685 0.06705231
000100 1a d4 72 bd cd 10 70 3d 72 12 5c 3d ef 68 05 3d
       -0.059284307 0.058609772 0.05372853 0.032570776
000110 9c 77 fe bc f1 98 a3 3d 0e 0d bf 3d 7e 89 88 bd
       -0.031062894 0.07988156 0.09328662 -0.066668496
000120 01 0e 03 3d 9a ec 24 3d 5d ba 2e 3d 5a 98 74 bd
       0.031995777 0.040264703 0.0426582 -0.059715606
000130 a2 c6 90 bd 60 2b 85 bd a8 2a a8 3b 87 53 88 3d
       -0.07069136 -0.06502414 0.005132038 0.066565566
000140 14 65 68 bd be bb 96 bc ac b4 7a bd 76 64 61 bd
       -0.05673702 -0.01840007 -0.06120746 -0.055027448
000150 81 fe 9a 3c 6c 85 9d bd 8f a2 c0 bc 04 ec 00 3c
       0.018920185 -0.07691464 -0.023515014 0.0078687705
000160 9d 02 7c bd 5e c4 46 bd 6d 4f 32 3d 0c 4f 9f 3d
       -0.06152593 -0.048527114 0.043532778 0.07778749
000170 d5 fe 89 3d 4d 9b a5 bd 8f b5 9f bd 10 d8 8a 3c
       0.067380585 -0.08086262 -0.077983014 0.01694873
000180 b2 0c 89 3c e5 35 20 bd 6c 61 bf 3c 45 96 50 bc
       0.016729686 -0.039113898 0.023361884 -0.01273114
000190 40 c8 12 3d 09 ec 40 bd 9e db b6 3c 51 ea a5 3c
       0.035835505 -0.0471001 0.022321519 0.020253332
0001a0 9f 16 81 bb aa 01 70 bd fa 99 7a 3b 70 26 2b 3c
       -0.003939464 -0.058595337 0.003823875 0.010446176
0001b0 03 15 35 3c fa 16 7b 3d d8 6d 8c bd 44 f9 79 bb
       0.011052373 0.06130121 -0.068568885 -0.0038142959
0001c0 8f bc ee bc 07 7e 35 3d 19 e5 4b 3c 0c 1b 99 3c
       -0.029142646 0.044309642 0.012444758 0.018689655
0001d0 db 5b b0 3c 57 25 31 bd f0 fe be bc 26 85 a2 3d
       0.021528175 -0.0432485 -0.023314923 0.07935552
0001e0 7b 6e c4 bc 9e f1 d6 bc 4a 76 64 bd 3f b6 6b 3d
       -0.023978462 -0.026238259 -0.05577687 0.05754685
0001f0 fa a7 2c bd b1 e7 40 3d 61 9a b5 bc 6c 31 a4 3d
       -0.042152382 0.04709596 -0.02216834 0.08017239
000200 5e a0 58 bd 95 95 92 3d 24 41 4a 3d 18 83 9b 3d
       -0.052887313 0.07157437 0.04937853 0.075933635
000210 f7 9a fa bc 83 59 94 bd 26 ee 14 3d ee 8c 28 bd
       -0.030591471 -0.072436355 0.03635993 -0.041150026
000220 10 d4 ac bc 3c c1 21 bd 63 08 3b bb 4e 2c 9e bd
       -0.021097213 -0.039490923 -0.0028538934 -0.07723294
000230 62 9c 1d bd f9 60 8b 3d 82 c6 f9 3c 9d f8 a2 bb
       -0.038479216 0.068056054 0.030490164 -0.0049734847
000240 a2 c7 18 bd 30 0e 9d bd 43 75 27 3d 71 72 af 3c
       -0.03729976 -0.07668722 0.040883314 0.021416875
000250 d1 f8 99 bd d5 c1 c1 3c 96 b3 83 3d bb e3 30 bd
       -0.07518161 0.023651997 0.06430738 -0.04318593
000260 e5 65 07 bd f1 66 74 3d a6 e2 d6 bb dd 54 48 bd
       -0.03305616 0.059668485 -0.0065577803 -0.048909057
000270 88 97 6e 3d e8 4e 9b bd 08 49 e8 bc fc 23 7e 3d
       0.05824998 -0.075834095 -0.028355137 0.062046036
000280 fc 20 cc 3c 9c 4f 87 bb f3 c4 0a 3a da 6e 5e 3d
       0.024918072 -0.004129363 0.000529363 0.054304935
000290 1e 12 1b bb 8c 25 bc bc 4f 13 a9 bc a9 8f 08 bd
       -0.0023661922 -0.022967122 -0.02063909 -0.03334013
0002a0 54 6d 57 3c 0e ce 45 bd 3f c8 69 3d 35 26 6c 3c
       0.013148624 -0.048292212 0.057075735 0.014413406
0002b0 fd c6 8f bd 26 a3 4e bd 1d 82 12 3d 04 00 13 bd
       -0.07020376 -0.05044856 0.035768617 -0.035888687
0002c0 f0 c2 8a bd 5e 52 89 bc 92 0f 3c bc 53 31 f1 bc
       -0.067754626 -0.016762909 -0.011478322 -0.029442465
0002d0 80 66 54 3c 70 5b b7 bb aa 6a 36 bd 9c b9 49 3d
       0.012963891 -0.005595617 -0.044535317 0.049249277
0002e0 54 92 47 bd fc 64 73 3b db 9e 9f bc d1 1c f2 bc
       -0.048723534 0.0037139049 -0.019484928 -0.029554756
0002f0 a3 eb ac 3c 3e 80 32 bd b2 d1 12 3d dd db 23 bd
       0.021108454 -0.043579333 0.035844512 -0.0400046
000300 62 78 15 bc d6 0a aa bd 8e 09 98 bd 34 b8 56 3d
       -0.00912294 -0.08302848 -0.074236974 0.052421764
000310 90 2c 39 bb 4d 3c 83 3d 0b f2 a7 3d 0f 3a 9a bd
       -0.002825532 0.06407986 0.08200463 -0.07530605
000320 ad f0 84 3d e9 a0 2d 3d 57 3e 0f 3d 9d 23 eb 3c
       0.06491218 0.042389784 0.03497156 0.028703505
000330 52 07 8a bd 48 6d 83 3c c2 22 5f bc cf a1 5f 3d
       -0.067396775 0.01604332 -0.013619127 0.054597672
000340 a9 9e 71 3d 60 79 27 bc 65 95 31 bd 63 53 ee 3c
       0.0589892 -0.010221809 -0.043355364 0.029092496
000350 7a de 1a 3d 02 71 11 bc 6a 12 3f 3d a2 d1 1f 3d
       0.037809826 -0.008877041 0.04664842 0.03901828
000360 00 30 b7 bc ca ad 75 3d d1 4f 85 3d 3c ab 21 bd
       -0.022361755 0.05998019 0.065093644 -0.039469942
000370 ec d8 ad bd 95 fc 6a 3c a9 e5 60 3c 80 d3 59 3d
       -0.0848864 0.014342447 0.01372663 0.053180218
000380 d8 13 32 3d f8 84 30 3d cf 81 44 3d 72 d2 98 3d
       0.043475956 0.04309556 0.047975358 0.07462014
000390 64 26 ca ba 8d ac 86 3d e1 59 6d bd 3c cc 40 bd
       -0.0015422818 0.0657588 -0.057947043 -0.047069773
0003a0 64 b6 4a 3d 4f d1 8b 3d d4 74 25 bd 30 6f de bc
       0.049490348 0.06827032 -0.04039462 -0.027152628
0003b0 b0 c0 1c 3d c0 39 11 bd ed 7d e6 bb 26 7f a3 bd
       0.0382697 -0.035455465 -0.0070340545 -0.07983236
0003c0 e9 20 aa bd 20 da b5 bd 29 b2 fd bc f5 01 03 bd
       -0.08307058 -0.08879495 -0.030968742 -0.03198429
0003d0 8b 0a 1e 3d c0 98 05 3d 68 de 44 3d bd 80 08 bb
       0.038584273 0.032616377 0.048063666 -0.0020828687
0003e0 bb 7a 33 3d 9a 8d ee 3c dd 28 b1 bd f2 57 d0 bb
       0.043818217 0.029120255 -0.08650372 -0.00635814
0003f0 bb 81 19 bd ca ec f8 bc 0f 87 57 3d 90 2c c6 bd
       -0.037477236 -0.030386347 0.052619036 -0.09676468

bias f4 [16]
000000 72 e8 0d bd f8 c1 68 3d cb c5 b6 3d f7 51 d2 bb
       -0.034645505 0.056825608 0.08924445 -0.0064184624
000010 8b 92 46 bd 81 2c 00 bd 02 d8 17 bd 93 8f 8e 3d
       -0.048479598 -0.031292442 -0.037071235 0.06960978
000020 e8 75 0d bd db 04 ab 3d 0d b4 4f 3c f0 91 07 bd
       -0.034536272 0.083505355 0.012677205 -0.03309816
000030 2b cf 99 3d b2 fa 3c 3c a7 c5 44 bb 18 e5 cc bc
       0.07510217 0.01153438 -0.0030025037 -0.025011584

weight f4 [16, 16, 3, 3]
000000 dc 11 2b 3d ae 45 61 3b b0 d2 4f bd d9 86 74 3c
       0.04176508 0.0034373808 -0.050738037 0.014924728
000010 b7 ba 20 bc 82 83 85 3d 67 a0 49 3d 9b 9b bd bd
       -0.009810141 0.06519224 0.049225237 -0.09258195
000020 43 42 0a bc 35 fd 37 3d 40 d8 85 3c 95 c6 a6 bd
       -0.00843865 0.04491921 0.016338468 -0.08143345
000030 32 dd af 3c 31 1e 2b bd 3b 60 87 bd 3a 69 0c 3d
       0.021467779 -0.04177684 -0.066101514 0.03428004
000040 51 67 32 3c 43 5b bd bc cf af 6f bc 60 d0 6a bc
       0.01088889 -0.023114806 -0.014629318 -0.014331907
000050 af 34 b1 bd 02 91 2c bd 93 d3 aa bd c1 eb 2c 3d
       -0.08652627 -0.042130478 -0.08341136 0.04221702
000060 ff 62 28 bd 9b 0f 9b bd 9b 11 31 bc db 7a 81 3d
       -0.041110035 -0.07571336 -0.01080742 0.06322261
000070 8f c6 60 bd 38 6e 9b bd cb 0b 3c 3c c2 50 88 bd
       -0.05487686 -0.07589382 0.011477421 -0.06656028
000080 43 c4 63 bd 99 24 96 b8 2d 09 38 bd a4 ab 8f 3d
       -0.05560709 -7.159374e-05 -0.044930626 0.0701516
000090 a6 c1 12 bb e6 71 31 bb 66 19 9d bb 32 27 28 3d
       -0.0022393255 -0.0027075945 -0.0047942875 0.041053005
0000a0 d0 d4 ff bb 61 b5 27 bd f6 fb 27 bd 3e bf 0c 3c
       -0.0078073516 -0.04094446 -0.041011773 0.008590518
0000b0 59 0a 86 3d 8a bc e7 3c 3c c3 dd 3c 09 e5 74 3d
       0.065449424 0.028288145 0.027070634 0.059788737
0000c0 0e 0f 21 bc d1 80 a2 bc 53 46 7a 3d 6c 8e 47 bd
       -0.0098302495 -0.019836815 0.061102223 -0.04871981
0000d0 0c f4 4e bd 48 0d b7 bb 4a 61 58 bb fe 4f 93 bd
       -0.05052571 -0.0055863 -0.0033016973 -0.07192992
0000e0 b7 7e e5 bc 4e 53 40 bc f2 80 0e 3d a4 68 a0 bd
       -0.028014524 -0.011738611 0.03479094 -0.078324586
0000f0 46 7c 34 3d 7d c6 17 bd 07 cf 33 3d be f6 98 bd
       0.04406383 -0.037054528 0.04389861 -0.07468937
000100 d5 89 9e bd 82 b5 9f bd 57 e4 91 bd f3 95 bd 3c
       -0.07741133 -0.07798292 -0.071236305 0.02314279
000110 9f c1 e9 3c 50 2f be bd ec 35 4b 3d c4 39 36 bd
       0.028534709 -0.09286368 0.04961197 -0.044488683
000120 39 3b 1f 3d 83 24 db bc 67 93 2d bd f5 bc 4b bd
       0.03887484 -0.026750809 -0.042376902 -0.04974075
000130 6b 92 a1 bc 31 54 ad 3b 4c 43 34 bd bd 89 7d 3d
       -0.019723138 0.0052895774 -0.04400949 0.061898936
000140 bb 28 9f bd f7 8c 5d 3c 23 b2 e7 3c a6 99 0c bd
       -0.077714406 0.013522378 0.028283184 -0.034326218
000150 a7 04 ff bc 2e 50 f0 bc fd 5e 82 bd 56 f4 9b bd
       -0.031130148 -0.029335108 -0.06365774 -0.07614963
000160 ea 62 f4 bc cd d3 3d 3d f1 30 28 bd 58 de 1f 3d
       -0.029832322 0.046344567 -0.0410623 0.039030403
000170 c2 a1 b3 3c b7 39 5a 3d d2 48 66 bd 7a 35 0e bc
       0.021927718 0.053277697 -0.05622179 -0.008679742
000180 be 6a 2c 3b 26 68 f6 bc ef fa 8d 3d 65 4a 05 bd
       0.002630874 -0.030078959 0.069326274 -0.03254165
000190 f5 27 c6 bc eb 2f cb 3c f4 e4 b1 bd 47 0b cf ba
       -0.024188975 0.024803123 -0.086862475 -0.0015796208
0001a0 ae 0c 57 bc bc 17 be bc 1f 01 8c 3c df d2 bf bd
       -0.013125582 -0.023204677 0.017090378 -0.09366392
0001b0 8c 8d ba bc 7e f1 f8 bc b2 b5 1b bc 56 24 e4 bc
       -0.022772573 -0.03038859 -0.009503769 -0.027849358
0001c0 46 aa a4 bd 8d 5d 73 bc 3b 23 b5 bd 0f 52 fd bc
       -0.080402896 -0.014853847 -0.0884461 -0.030922918
0001d0 65 1d 89 bc b9 43 c2 3c 16 13 8d 3d 26 02 a9 bc
       -0.01673765 0.023713933 0.06888406 -0.020630907
0001e0 e2 bf 4c bc a6 ed 8c bb f3 ad 16 3d 03 cc 1d 3d
       -0.01249692 -0.004300791 0.036786985 0.03852464
0001f0 6f 38 b7 bb c0 33 b9 bc 7a d2 1d bc a0 a7 9c bd
       -0.005591444 -0.022607684 -0.009632701 -0.076491594
000200 4b 32 ba bd 33 d1 65 3d 2a b3 23 3d 6b e9 dc 3b
       -0.09091624 0.05610771 0.039965786 0.006741693
000210 e0 de d8 3a bc 7e 25 bd f6 06 9a bd 6b 4d c1 3c
       0.0016545914 -0.040404066 -0.07520859 0.023596486
000220 a0 e6 87 bb a1 1d 03 3b 40 64 47 bd 73 b2 7b bd
       -0.0041473657 0.0020006674 -0.04867959 -0.06144948
000230 18 99 11 bd 27 02 09 bd 90 47 dc bc 99 18 15 3b
       -0.035546392 -0.03344932 -0.026889592 0.0022750257
000240 93 3b 83 3d 2b da 8a 3d 10 fc 90 bd ad a1 99 3c
       0.06407847 0.067798935 -0.07079327 0.01875385
000250 aa 45 23 3d d5 e9 0f bd 65 19 24 3d 40 17 4a 3c
       0.03986136 -0.03513511 0.04006328 0.012334645
000260 48 33 6e bb 9c af af bb 80 3b 8f bd ea 28 e2 3c
       -0.0036346484 -0.0053615104 -0.069937706 0.0276074
000270 ff 8d 9c 3d ec ad 0e 3c a4 5a 6f bd cf f7 5f 3d
       0.07644271 0.008708458 -0.05843605 0.054679688
000280 f9 25 10 3d 82 28 85 bd a1 17 95 3d a0 1c 46 3c
       0.035192464 -0.06501867 0.072798975 0.012091786
000290 17 f6 a8 bc 43 9d 88 bd 54 38 52 bd 61 46 4e 3d
       -0.020625157 -0.0667062 -0.05132325 0.050360087
0002a0 7a 67 3a 3c ff ab 80 bc d0 34 7a 3b 92 05 bb 3d
       0.01137721 -0.015707014 0.0038178451 0.09131922
0002b0 77 90 09 bd a8 e9 92 bc d5 51 91 3c 35 2f 54 3d
       -0.033585038 -0.017933682 0.017739216 0.051802833
0002c0 29 a6 44 3c 01 cb 59 3d 64 e7 bb 3d 98 5c a6 3d
       0.012002506 0.053172115 0.09174994 0.081231296
0002d0 c5 f4 b3 3d ac c6 45 bd 8c 5e 70 3d 81 33 60 3d
       0.087869205 -0.04828517 0.058683917 0.054736618
0002e0 42 d5 44 bd 51 7f 82 3a da d9 9c 3d 36 ce 99 3d
       -0.04805494 0.0009956156 0.076587394 0.07510035
0002f0 18 95 89 3c 38 a9 5e bd 8d f2 8b bd 05 a5 4a 3c
       0.016794726 -0.0543606 -0.06833372 0.012368445
000300 d7 1a c3 3c 9e 58 b8 3d 52 66 ad 3d 78 01 af 3c
       0.02381651 0.090012774 0.08466782 0.021363005
000310 87 28 cb bc 9d 0f 45 bd 67 17 b9 bc 75 12 37 3d
       -0.024799598 -0.048110593 -0.022594167 0.044695336
000320 d9 a4 3b bd 1a 55 83 3d 8e 6f 5f 3c c9 88 b0 b9
       -0.045811508 0.06412716 0.013637437 -0.0003367125
000330 19 c4 ec bc ea 62 3a bd 72 87 2b 3d 8b 41 23 bd
       -0.0289021 -0.045504488 0.041877218 -0.03985743
000340 b7 7e 74 bd 15 79 ac 3d 39 67 7c 3d a0 f1 94 3d
       -0.059691157 0.08421532 0.06162188 0.07272649
000350 39 d5 d7 3c cc 40 cf bb 7a ae 91 3d 3a 28 bc 3c
       0.02634679 -0.006324863 0.07113357 0.0229684
000360 4f eb ba 3d 05 49 5e 3d 19 b9 9a 3c 64 0f 0c 3d
       0.09126913 0.054268856 0.01888709 0.034194365
000370 8e fd ea 3c 18 84 96 3d 18 64 14 bd 4c 22 b4 3b
       0.028685357 0.07349414 -0.03622827 0.0054972526
000380 c9 bd 9a 3d c0 7a d2 bc 6d c8 b4 bc 42 e8 4d 3d
       0.0755573 -0.025693297 -0.022068227 0.050270326
000390 14 39 de 3c 11 77 8c bc a6 d9 42 bd f1 0d 3b 3d
       0.027126826 -0.017146619 -0.047570847 0.045667592
0003a0 0c cd e4 3c 61 8e b2 3c 6c 55 22 3c e9 ba b4 3b
       0.027929805 0.021796407 0.0099080615 0.0055154455
0003b0 a9 26 0d 3d 09 7e 95 3b 0d 5b 46 bd e2 7f 47 3d
       0.034460697 0.0045621437 -0.048426677 0.048705943
0003c0 f1 bd 17 bc e0 07 73 3d 55 35 82 bd 24 ee 4c bd
       -0.009261594 0.059333682 -0.063578285 -0.050031796
0003d0 10 b9 de 3c 5a 89 94 3d 5f c7 f4 3c 09 03 0a bd
       0.027187854 0.0725276 0.029880224 -0.0336943
0003e0 11 78 b3 3b 0b 8f 04 3d c9 65 79 bd 73 80 ec 3c
       0.0054769595 0.03236298 -0.060888086 0.028869843
0003f0 8a 02 88 bc e6 11 60 bd 11 5d 97 3d 63 96 e8 3b
       -0.016602773 -0.05470457 0.07390798 0.0070980056

bias f4 [16]
000000 55 c4 8c bd 6a 22 c3 3d 5a 6f 0b 3c 1a c9 02 3d
       -0.06873385 0.09528048 0.008510435 0.031930067
000010 27 13 71 3c a2 83 e3 bb 27 7f 25 bd de 97 c1 3d
       0.014714039 -0.006943182 -0.040404465 0.094527945
000020 0d d8 6c bd a2 4c 00 bd a3 52 8e 3d 2d f1 69 3d
       -0.05782323 -0.031323083 0.069493555 0.05711477
000030 54 35 02 bd a4 0a 6c 3d 34 88 cc bd c6 0c 5c bc
       -0.03178914 0.057627335 -0.09986916 -0.01343078

weight f4 [16, 16, 3, 3]
000000 f8 8c 38 3d db ae ed bc 18 f4 d8 ba c9 2f 50 3c
       0.045056313 -0.029014042 -0.0016552238 0.012706705
000010 e6 0b f0 bc a0 c0 8f bc 9a 1d fe 3c 2b fc 5a bd
       -0.029302549 -0.017547905 0.031019974 -0.053463142
000020 11 9f d2 3b 16 18 02 bd b5 1d a7 bd c9 26 6b bd
       0.0064276536 -0.03176125 -0.08159963 -0.057410035
000030 bb af 1b 3d 60 c9 8d bd f5 37 c1 bd 19 21 94 bd
       0.038009387 -0.06923175 -0.09434501 -0.072328754
000040 a5 8f 8d 3c a0 82 8e bd 6d 38 37 3b 9d 91 55 bd
       0.01728041 -0.069585085 0.0027957216 -0.05214082
000050 14 aa 75 3d 27 88 aa b9 3a 0a a1 bb 4b 69 99 3d
       0.059976652 -0.00032526368 -0.004914549 0.07490786
000060 a1 63 7c bd f4 cf b4 3d 99 26 7a 3b 96 f5 5a bc
       -0.06161845 0.088287264 0.0038169979 -0.013364216
000070 b2 17 bd bb 30 3a 00 3c 25 3a 8d bd b2 dd 2f bb
       -0.005770647 0.007826373 -0.06895856 -0.0026835022
000080 40 f3 ae bd 34 0c 2b bd e5 2f e6 bc fa 19 1b 3c
       -0.0854249 -0.041759685 -0.02809901 0.0094666425
000090 15 33 91 bd 33 f7 3b 3d 39 40 d0 bc 0f 82 2b 3d
       -0.07089821 0.045890044 -0.025421249 0.04187208
0000a0 92 5f 98 bc 92 9d c1 bb 8f 43 2b 3d 17 cf b1 3d
       -0.018600259 -0.0059086764 0.041812476 0.086820774
0000b0 61 30 50 3d 65 c5 cb bc 55 8a 01 3c 93 95 88 bd
       0.050827388 -0.024874398 0.007906516 -0.06669154
0000c0 15 35 9c bc e0 d1 07 bd 06 66 6e bd a0 44 30 3d
       -0.01906828 -0.033159137 -0.058202766 0.043034196
0000d0 21 d5 6b bc d4 8b 49 bc d1 22 96 bc cf 4f 57 3d
       -0.014394076 -0.012301404 -0.018327149 0.052566346
0000e0 84 56 7b bd 9e ed 90 3d e5 bc 8d 3d 9a d4 b6 bc
       -0.061361805 0.07076572 0.069207944 -0.022318173
0000f0 e8 32 c1 bd a3 d6 86 bd 4e 04 8d bd 93 c2 8a 3c
       -0.09433538 -0.065839075 -0.06885587 0.016938483
000100 f3 67 87 3d 39 4e 77 3d ae 28 98 3d 13 6a 53 bd
       0.066116236 0.060377333 0.07429634 -0.051614832
000110 df 2e 1b bd f3 52 2d 3d 3f cf b2 bc dd 68 75 bd
       -0.037886497 0.042315435 -0.021827338 -0.05991446
000120 db 00 9a 3c c6 0d 07 bd ab 87 6c bd 59 36 13 3d
       0.018799236 -0.03297212 -0.05774657 0.0359405
000130 59 cd 1e bd fe 49 d4 3a 11 32 0b 3d d2 02 91 3d
       -0.038770054 0.0016196368 0.033983294 0.07080616
000140 05 ad 91 3d 4a c3 8b b8 29 af d7 bc f7 e6 27 bb
       0.07113079 -6.664412e-05 -0.02632864 -0.0025619844
000150 fe 57 71 bd 3a 9d 1e bd c2 b6 7a bd 0f 46 c4 bc
       -0.058921807 -0.03872416 -0.061209448 -0.023959188
000160 49 f3 79 bc 34 26 a8 bd 34 d0 86 bd a3 1e 01 3d
       -0.015255758 -0.08210412 -0.0658268 0.031523358
000170 d9 05 3b 3d bb f0 f9 bb dd aa 05 3d 48 2e 78 bd
       0.045659874 -0.0076275743 0.03263365 -0.060591012
000180 c1 21 ab 3b 37 f3 a8 3c 9e c5 96 3c 56 a3 a6 bd
       0.0052225296 0.020623786 0.018404778 -0.081366226
000190 5a b9 6d bb bf 08 13 bb ed 18 81 bd 7f 0d 6b 39
       -0.0036273808 -0.0022435633 -0.06303582 0.00022416374
0001a0 59 96 91 bd 42 c4 a2 3d c3 15 ae 3d 67 2d 21 3d
       -0.07108755 0.079475895 0.085002445 0.03934994
0001b0 d4 01 4b 3c 02 fc a3 3b 4b 5f 8e bd c5 20 68 3d
       0.012390573 0.005004407 -0.069517694 0.056671876
0001c0 aa 44 fa bc fd 42 57 bd f1 57 31 3d c4 3c e8 3c
       -0.03055032 -0.05255412 0.043296758 0.028349288
0001d0 7e cd 6f 3c 87 e9 84 bd 17 e1 64 3a 72 e1 00 bd
       0.0146363955 -0.06489854 0.0008731051 -0.031465
0001e0 93 a3 a1 bb e4 57 7d 3c 7b 61 58 3d 0f f1 49 bd
       -0.0049328296 0.015462849 0.05282734 -0.049302157
0001f0 6a f0 b5 bd 44 95 52 bd 8a 5e 3b bd 42 b0 93 bd
       -0.08883746 -0.051411882 -0.045744456 -0.07211353
000200 b9 14 12 bd 78 e6 66 3d e7 ea 47 bc 35 c9 89 3d
       -0.035664294 0.056372136 -0.012202001 0.0672783
000210 67 ec aa bd f5 9f 8d 3d ef 66 61 bd 17 f5 54 bd
       -0.083458714 0.06915275 -0.055029806 -0.05199155
000220 98 dc ae bc 2c 0b 3f 3d a0 51 7f 3d 7d 42 09 bd
       -0.021345422 0.046641514 0.062333703 -0.033510674
000230 2b 10 31 3d 6f 20 f6 bb 5c 42 86 bc 70 61 30 3c
       0.04322831 -0.0075111906 -0.016389064 0.010765418
000240 b5 f8 39 bd 8d 19 ba 3c 7f bb 1f 3d a9 13 57 3b
       -0.0454032 0.022717262 0.03899717 0.0032818115
000250 2f 92 f6 3b 13 f2 2c bc 04 d6 6f 3d 16 d8 2d 3d
       0.0075247507 -0.010555762 0.05855371 0.042442404
000260 c2 ed ad bc f4 47 51 bc 41 a7 94 bd 5f a0 9b bd
       -0.021231536 -0.012773503 -0.07258464 -0.07598948
000270 4e 87 9a bd 00 a0 9a 3d 45 37 28 3d ba 66 7a bd
       -0.075453386 0.07550049 0.041068334 -0.061133124
000280 78 ec 8e bb 17 c5 47 3d 2f 58 5f 3d 74 b4 8e bc
       -0.0043616854 0.048771944 0.054527458 -0.017420031
000290 ab e4 27 bd 36 c8 5e bd f7 53 cc bc b7 fe 68 3c
       -0.04098956 -0.054390155 -0.024942381 0.014220885
0002a0 98 9f ab 3c c3 da 21 bd 85 38 65 bd f2 aa 59 bd
       0.020950124 -0.039515268 -0.055962104 -0.05314154
0002b0 16 c3 ae 3d 89 86 23 3d f3 64 ae 3d 39 f1 9f bb
       0.085333034 0.039923225 0.08515348 -0.004881051
0002c0 b1 f3 0a bd 57 1b 0d bc 37 3f 2d bd 84 fa a8 3d
       -0.03392381 -0.008612475 -0.042296614 0.08250907
0002d0 49 18 16 bc 85 65 05 3d 86 e6 79 3c 9b 68 95 3d
       -0.0091610635 0.03256752 0.015252715 0.072953425
0002e0 7d f2 f7 3c 3e ed 16 bd 07 d0 83 bd f5 f2 56 bd
       0.030266995 -0.036847346 -0.064361624 -0.052477796
0002f0 99 0b 56 3c 2d 59 8d 3d 4d 5c 66 bc 02 32 84 bd
       0.0130642885 0.069017746 -0.014060092 -0.06454851
000300 e2 35 80 bd e9 b1 a7 3d cb ef 1a bd 4a bc 96 bb
       -0.06260277 0.081882305 -0.03782634 -0.0046000825
000310 7a cc 94 3b cb 41 a3 bd f1 42 6d 3d 0a 4d 39 bd
       0.004540977 -0.079715334 0.05792517 -0.045239486
000320 f5 31 09 3d c4 1f 7d 3d 38 6c 22 bc 74 68 32 3d
       0.03349491 0.061797872 -0.009913497 0.043556646
000330 88 e5 2c bd be 98 d0 3c c5 0e ad 3c d6 d0 8e bc
       -0.042211086 0.025463458 0.021125207 -0.017433565
000340 72 35 9a 3d a2 ff 18 3d 46 e6 0c bd d5 3a a6 3d
       0.07529725 0.037353165 -0.034399293 0.0811669
000350 4a 25 06 bd 92 fb 32 bc 31 4a 23 bd 86 77 da bc
       -0.032750405 -0.010924237 -0.039865676 -0.026668321
000360 d0 11 7e 3d 49 6a 04 bd 25 49 a0 3a 07 5b 99 bd
       0.062028706 -0.032327924 0.001222883 -0.07488065
000370 9b bb 6c bd 6c ca 7e 3d 6b f3 50 bc 93 77 b0 3d
       -0.057796102 0.062204763 -0.012753348 0.08616557
000380 52 44 b3 3d 27 61 f8 bc 3f ec b6 3d c1 f0 2c bd
       0.087532654 -0.030319763 0.08931779 -0.04222179
000390 11 f7 7f 3d 09 f2 04 3c 62 0b d8 3b fa a9 c3 3c
       0.06249148 0.008114346 0.006593154 0.023884762
0003a0 f4 d3 c8 bc 96 20 94 3d a8 7a 9e 3d 90 c5 dc 3c
       -0.02451513 0.07232778 0.077382386 0.026949674
0003b0 0a 25 40 3d 17 9a 05 3d 98 b4 a1 3d 8c 62 ae 3d
       0.046910323 0.032617655 0.07895774 0.0851489
0003c0 12 65 f4 bc 4f 6c 31 bd 65 7c 8e bd 90 36 a3 3d
       -0.02983335 -0.04331618 -0.0695732 0.07969391
0003d0 05 09 a8 3d 2b d6 6b 3c fc eb ec 3c 06 75 9d 3d
       0.08204845 0.014394323 0.02892112 0.07688336
0003e0 68 c2 62 bd ee 66 39 bd d4 29 c6 3c cb 26 3e bd
       -0.05536118 -0.045264177 0.024189867 -0.046423715
0003f0 44 1a 8e bd d0 17 79 bd e7 02 a5 3d 54 7d 6c bd
       -0.069386035 -0.060813725 0.08057194 -0.05773671

bias f4 [16]
000000 fd 97 81 3d 06 b1 a3 3d b9 4e 30 3d 98 fb 81 3d
       0.063278176 0.07992749 0.043043826 0.06346816
000010 c0 e4 1a bd c1 0a 4f bd e4 ac 3e bd cd 0d df bc
       -0.03781581 -0.050547365 -0.0465516 -0.02722826
000020 e2 31 70 bd 1e fd 0b bd a7 58 ad 3c 85 ab 01 3d
       -0.058641322 -0.03417694 0.021160437 0.031657714
000030 ab 54 26 bd 77 ab 96 3c dd 0e 44 3b 60 87 99 bb
       -0.04060809 0.018392308 0.0029916086 -0.0046853274

weight f4 [16, 16, 3, 3]
000000 05 ef 8e 3c eb 11 03 3d 1b a1 a7 3a 4e c7 f5 3b
       0.017447958 0.03199951 0.0012789102 0.0075005656
000010 b8 32 e5 3c bb 8a 8c 3d f8 d6 4d bd fc d4 1e 3b
       0.027978286 0.06862398 -0.05025384 0.0024235835
000020 2d c0 ea bc 7e b9 9e 3d 47 b9 af 3d 0e 11 97 bc
       -0.02865609 0.077502236 0.08580261 -0.01844075
000030 96 19 a4 bc 1d 1b d3 3b 85 f1 43 3c ca d8 ca 3d
       -0.020031732 0.006442441 0.011959438 0.099046305
000040 5b 2e 26 bd 65 89 6b bd 80 e1 8c bd bb 9f 63 bd
       -0.04057155 -0.057504077 -0.06878948 -0.055572253
000050 ff 9e 8b 3d 20 c3 c9 3b 7a c8 8d 3d ca 43 52 bd
       0.068174355 0.006157294 0.069230035 -0.05133418
000060 1a 96 9b 3d 39 53 2e 3d 6a d4 49 bc e5 c7 1a bd
       0.07596989 0.042559836 -0.01231871 -0.03778829
000070 f8 95 41 3c c2 c2 56 bc 40 71 32 3d 64 27 9f bd
       0.0118155405 -0.013107957 0.043565035 -0.07771185
000080 b9 f8 27 bd eb af 3b bc 01 31 49 bd 78 43 74 bd
       -0.041008685 -0.011455516 -0.049119 -0.059634656
000090 0d be 96 bb d9 d8 4d 3c 4b 5d 1c 3c 0c 14 3a 3d
       -0.0046002925 0.012563908 0.009543727 0.045429274
0000a0 d9 e9 46 3d 51 6c c1 3d cc 3a 5a bd a3 08 cb 3c
       0.04856286 0.09444488 -0.05327873 0.024784392
0000b0 6f 0d 95 3d 7a 0c a7 3d 0f ae 62 bd 7c 26 22 bd
       0.07277953 0.081566766 -0.055341776 -0.039587483
0000c0 fd 57 6a 3d 23 e7 a3 3d fc 66 14 3d bf 90 ef bc
       0.05721282 0.0800307 0.036231026 -0.029243825
0000d0 12 11 57 3d 8d 96 bb 3d b0 41 58 3d 13 8c 85 3c
       0.052506514 0.09159575 0.05279702 0.016302144
0000e0 be 5d 17 3c 90 b3 6b 3d 5c ac 72 3d 3e 81 4e 3d
       0.0092386585 0.05754429 0.059246406 0.050416224
0000f0 56 e6 88 3d 3e da 17 3d 95 7e 7d 3d e8 ef a9 3d
       0.06684558 0.037073366 0.061888296 0.082977116
000100 15 13 4b 3d a0 5c de bc e8 b6 46 bd d7 e0 3c 3d
       0.049578745 -0.027143776 -0.048514277 0.04611286
000110 5f a5 a4 3d d8 6f cf 3c 7d a1 20 bd 7d 97 80 bd
       0.080393545 0.025321886 -0.039216507 -0.06278894
000120 0c 21 d9 bc a9 a7 c4 bc 75 ee 75 bd 4e 12 b1 3d
       -0.026505016 -0.024005728 -0.060041863 0.086460695
000130 70 05 c3 3b f1 21 29 bd 13 22 b2 3d 55 17 8d 3c
       0.005951576 -0.041292135 0.086979054 0.01722304
000140 b4 40 0d 3d 70 bf 90 3d cc ab bb bd a7 1a 3d bd
       0.034485534 0.07067764 -0.09163627 -0.046167996
000150 ea 11 98 bd 49 0f b9 bd 13 8f 01 bd d6 a8 80 bd
       -0.07425292 -0.090361185 -0.031630587 -0.06282203
000160 da 3b 28 bd 99 5c 98 3c 1a 96 fe 3c 16 f6 83 bc
       -0.041072704 0.018598842 0.031077433 -0.016108554
000170 4e 42 13 3c 99 a6 40 bc 66 40 46 bd 8e d0 41 3d
       0.008987976 -0.01175847 -0.04840126 0.047318034
000180 fd 0f da 3c 73 68 a4 3c f9 ac c3 3c 19 0b 73 bd
       0.026618952 0.020069337 0.02388619 -0.059336755
000190 e6 66 d8 3c 02 c9 b0 3d 7a 13 e1 bc 5b 30 89 3c
       0.026416253 0.08632089 -0.027475107 0.01674669
0001a0 e6 66 a2 3c 53 77 5d 3d ff 38 83 3c 5f ae c0 bc
       0.019824456 0.054068875 0.016018389 -0.023520647
0001b0 75 23 7c bd 7a c3 49 bd e3 75 e2 bc d8 8f 70 bc
       -0.061557252 -0.049258687 -0.027644103 -0.0146827325
0001c0 62 29 d3 bc 8a c7 01 3c 52 b9 69 3d 68 84 a4 ba
       -0.025776569 0.007921109 0.0570615 -0.0012551667
0001d0 f2 34 9a bc b0 10 09 bc 8f 38 1e 3d cb 03 98 3d
       -0.018824074 -0.008365795 0.038628157 0.074225985
0001e0 42 76 c0 bc 38 37 c3 3c 8c bd 84 3d da 6f 05 3d
       -0.02349389 0.023830041 0.06481466 0.032577373
0001f0 df fb 97 3c 90 52 67 3d ac e1 ba ba e9 c2 86 bd
       0.018552719 0.056475222 -0.0014257929 -0.06580145
000200 6e 79 ad 3c af a0 8d bd 3b f1 8b bc bb 49 3c 3d
       0.021176066 -0.069154136 -0.017082801 0.045968752
000210 8e fb 83 bd 0c e5 ee bc 05 70 3e 3d e2 0b 6c 3d
       -0.064444646 -0.029161952 0.04649355 0.05762852
000220 d7 bd 13 bc d7 2f 60 bd 58 45 41 bd 6c e1 34 3d
       -0.009017429 -0.054733124 -0.047185272 0.04416029
000230 b6 54 08 3d 3c e0 1b 3a be 75 a5 3c e1 8e 5a 3c
       0.03328391 0.0005946194 0.020197745 0.013339729
000240 74 fe ed 3c 4b cd 04 bd 7e 1d ec bc 58 52 9d 3d
       0.029051997 -0.032422345 -0.028822657 0.076817214
000250 d2 31 d8 bb 4f 4c 11 39 44 4d 9d 3d 71 6a 51 3d
       -0.006597736 0.00013856705 0.07680753 0.0511269
000260 63 eb fe 3c 0b 96 9c 3d e0 2e 1a 3b 9b 0d a2 3d
       0.0311181 0.07645806 0.0023526475 0.07912751
000270 0d cb b7 3d 4a 84 b9 3b 79 bd ce 3d 3e 0f 08 3d
       0.08974276 0.005661522 0.10094733 0.03321766
000280 bb 42 09 bd ff 3d b7 3d 87 ba a8 3c 5d cd 32 bc
       -0.033510905 0.08947372 0.020596756 -0.01091322
000290 df af f4 ba 55 af 56 bc 9d 59 95 bd c0 02 b6 ba
       -0.0018668136 -0.013103326 -0.07292483 -0.0013886318
0002a0 d1 fc 1d 3d fa 9e 69 3c 6d aa 92 bd a1 10 ae 3c
       0.038571183 0.014259094 -0.071614124 0.021248164
0002b0 52 e4 23 bd 57 b2 72 bd 91 bc 42 3d a9 d2 8f bd
       -0.040012665 -0.05925211 0.047543112 -0.07022602
0002c0 d5 45 7d 3d e8 0a 50 3d c1 b9 38 3d 48 59 e8 bc
       0.061834175 0.05079165 0.045099024 -0.028362885
0002d0 95 bc c0 3d 23 08 f6 3b ab 48 c0 3b 4d 09 97 bc
       0.09410969 0.007508294 0.0058680377 -0.018437052
0002e0 55 d9 09 bd be cf 8e 3d 3f 3e ee 3a c1 e8 f3 3c
       -0.03365453 0.069732174 0.001817651 0.029774072
0002f0 70 47 ed bc 15 e5 70 3c 0d 74 b0 3c 07 e0 15 3d
       -0.028964728 0.014703055 0.021539712 0.036590602
000300 4b db a5 3b 55 2d 0d 3d 2d eb 65 3d 72 f2 2d bd
       0.005061542 0.03446706 0.056132484 -0.042467542
000310 a3 e0 15 3d 44 c2 0e 3d d9 0d bf bd b8 a1 35 39
       0.036591183 0.034853235 -0.09328813 0.0001732175
000320 87 39 da 3c 9d ce a0 bd 45 07 99 bd 51 26 7d 3d
       0.02663876 -0.07851908 -0.0747209 0.06180412
000330 f5 f0 35 3d 6e 82 73 bd 65 4d 74 3d b0 8b 05 bd
       0.044419248 -0.05945056 0.05964412 -0.03260392
000340 c9 a8 19 3d 56 8b 65 bd 72 d9 18 bd de 1c 44 3b
       0.03751448 -0.056041084 -0.037316747 0.0029924433
000350 4b 07 81 3d 71 2a af 3d d6 45 8e 3d 7d 77 d5 bc
       0.06300219 0.08553017 0.06946914 -0.026057953
000360 9f d6 1a bd 71 72 78 3d 13 a7 25 bd 20 ad 9d bd
       -0.037802335 0.060656015 -0.040442538 -0.076990366
000370 7e 47 62 3d ea 6b 4a bd 52 e7 32 3c e8 bf 8d bd
       0.05524396 -0.04941932 0.010919409 -0.06921369
000380 fc 79 4a 3d 1f 85 ff bc 89 68 91 bb 71 e5 47 bd
       0.04943274 -0.031191407 -0.0044375104 -0.048802797
000390 02 c8 9f 3c b7 b7 a9 bd 1a 12 fa 3a 1e 59 59 bd
       0.01950455 -0.08286994 0.0019078881 -0.053063504
0003a0 14 ac d3 3a b9 e9 93 bd 08 e5 73 3d 8c ea 95 bc
       0.0016149306 -0.072223134 0.059544593 -0.018300317
0003b0 89 07 cb bc 71 71 a3 3c f4 2f ba bc 7c d8 b8 3b
       -0.024783866 0.019951554 -0.022727944 0.0056410413
0003c0 c5 3c 8e bd 5a 77 83 bd 3e 2a 38 3d 29 54 47 bd
       -0.069451846 -0.06419249 0.04496216 -0.048664246
0003d0 45 a1 22 bd 5a 7f 5b bd 12 e9 8d 3c 71 87 97 3d
       -0.03970458 -0.05358825 0.01732305 0.0739888
0003e0 51 3d bc 3d 20 c2 bb 3d 82 ce 43 ba a0 5b c3 bc
       0.09191383 0.09167886 -0.0007469432 -0.023847401
0003f0 14 d8 3a 3d 6b a2 c3 3c 65 16 a3 bb 01 64 05 bd
       0.045616224 0.023881158 -0.004977035 -0.032566074

bias f4 [16]
000000 b0 84 d1 3d fe 40 05 bd aa 60 51 bd 50 09 89 bd
       0.10230386 -0.032532685 -0.051117577 -0.06691229
000010 31 04 b7 3c 72 38 4f bd be 3c 88 3d 18 46 40 bd
       0.022340866 -0.05059094 0.06652211 -0.046941847
000020 9e 8a 73 3d cb 26 9e 3c 1d 58 1f bd 8c b0 69 3c
       0.059458368 0.019305607 -0.03890239 0.014263283
000030 88 f0 84 bd 7e cd c9 3d c0 ea 3e 3d ef 94 c6 3d
       -0.0649119 0.09853648 0.046610594 0.096963756
