Baseline/bestKernel_Num_Set_0.pt (torch_old, 84577 bytes, 16 tensors)

weight f4 [16, 3, 3, 3]
-0.02552154 -0.16617113 0.102182 0.04313408 -0.12733917 -0.10372115 -0.026033476 -0.102338366
-0.18918335 0.18094477 -0.013392925 -0.04191582 -0.20700331 0.028900154 -0.19743694 -0.057111662
-0.10162857 0.08770217 0.11902391 -0.1027632 -0.1658862 -0.094644606 -0.15744485 0.18483166
0.2052009 -0.101094484 0.0035628316 0.11911737 -0.05921384 -0.03475384 -0.12302315 0.01572926
0.17869364 0.13794982 -0.003150863 -0.18027946 0.0022489636 -0.05531972 0.011411932 0.100777894
-0.1025942 0.11622623 0.16732809 0.08005407 0.049934633 0.072328895 0.041105475 0.13775581
0.06822076 0.17379099 0.06143889 -0.10325879 0.12117484 0.08008424 0.15078484 0.12593739
0.124190286 0.04659859 0.10392353 0.040766302 0.007294612 0.036925532 -0.0022361998 -0.010230438
-0.18064974 0.13749518 0.021533996 0.08317071 0.044571187 -0.0036096377 0.17998548 -0.12343579
0.14054893 -0.13130197 -0.0058837812 0.18195255 -0.066165924 0.16094117 0.078545235 0.01357463
0.10545638 -0.08063723 0.09919028 -0.015342004 0.054510333 -0.044330657 -0.024601027 0.19840871
0.11392914 -0.13773294 -0.102546975 0.14958613 0.071579225 -0.140151 0.055515934 0.105820015
0.1129675 -0.018374357 0.0074339705 0.07233564 -0.027446344 0.00095776794 0.19347593 -0.08881565
0.11943864 0.12446108 -0.11037136 0.06990921 0.10953435 -0.038528755 0.1969431 0.05742359
-0.084646516 -0.14455585 -0.17077824 -0.15925868 0.05619686 0.088708185 -0.10482707 0.035048433
-0.0045156563 -0.02864053 0.1681432 0.14504658 -0.010088838 -0.042272642 -0.1009336 -0.025728373
-0.20284556 -0.071522035 0.1607224 -0.0764238 0.0018578067 -0.020688592 -0.21240874 0.16371033
-0.18243435 0.08545888 0.06892468 -0.17171195 -0.089967355 -0.009009905 -0.073445536 -0.026305916
0.0655158 -0.021193903 0.14260243 -0.05773382 0.103025675 -0.08196331 0.052937686 -0.14835215
0.11752082 0.15245505 0.051146675 0.0633402 -0.08813386 -0.13987248 0.031959496 0.10019094
0.16177566 -0.094004154 -0.046382234 0.14478883 0.08931072 -0.13833964 0.18118325 -0.18508886
-0.10615292 -0.06843033 0.09880587 0.040532686 0.0887633 -0.012712619 0.06498533 -0.052773412
-0.030790025 -0.14951773 -0.08110753 -0.06727295 -0.12553659 0.12442299 0.003825948 0.09003576
-0.08654681 0.17198378 -0.085985154 0.15884256 0.008812264 -0.046529707 0.09776112 0.1243685
-0.12957336 0.035901353 0.18123409 0.19169706 -0.124606505 -0.12634273 -0.040699597 0.048790053
0.07416977 -0.027844455 -0.10913023 0.10780741 -0.016075077 0.2127854 0.13223645 0.17620666
-0.13114154 -0.072175145 0.1102862 0.08498474 -0.06447775 0.09198363 -0.11892273 -0.15531904
0.12413518 0.063055724 0.039115146 -0.042785447 -0.04122134 -0.08337027 0.16506173 -0.12501472
-0.09769539 0.13593027 0.101721264 -0.12911414 -0.073836364 -0.2077257 -0.19468018 -0.08891457
-0.123000324 0.112900704 -0.062227752 0.08393599 0.1533401 0.038890056 0.026445957 0.042657427
-0.06066209 -0.105856836 -0.08878807 -0.044841196 0.026899416 -0.16535817 -0.11826216 -0.09494424
-0.055617355 -0.050554022 -0.13510038 0.18627074 -0.13682482 0.09073435 0.17382261 -0.08177664
00000000: 8c12 d1bc c428 2abe cc44 d13d 5cad 303d
00000010: 3365 02be c16b d4bd 2844 d5bc c796 d1bd
00000020: 48b9 41be 9649 393e 006e 5bbc ecaf 2bbd
00000030: adf8 53be 04c0 ec3c e92c 4abe ebed 69bd
00000040: a422 d0bd 329d b33d cfc2 f33d 8375 d2bd
00000050: 12de 29be 08d5 c1bd 3939 21be 8344 3d3e
00000060: 2f20 523e a00a cfbd 657e 693b cff3 f33d
00000070: 368a 72bd 0b5a 0ebd 90f3 fbbd a6da 803c
00000080: 77fb 363e b842 0d3e b67e 4ebb 2e9b 38be
00000090: 5963 133b ee96 62bd 1df9 3a3c a464 ce3d
000000a0: e81c d2bd 0508 ee3d 0e58 2b3e 63f3 a33d
000000b0: 4288 4c3d 2c21 943d 375e 283d dc0f 0d3e
000000c0: 53b7 8b3d 44f6 313e 58a7 7b3d 5879 d3bd
000000d0: 842a f83d 3503 a43d 5767 1a3e bbf5 003e
000000e0: 7a57 fe3d 2ade 3e3d dcd5 d43d 91fa 263d
000000f0: a407 ef3b 3a3f 173d 358d 12bb 919d 27bc
00000100: 3ffc 38be 89cb 0c3e 1068 b03c 6855 aa3d
00000110: 4790 363d ac8f 6cbb 1d4e 383e e7cb fcbd
00000120: 0fec 0f3e 0674 06be bccc c0bb c551 3a3e
00000130: 0082 87bd c3cd 243e 53dc a03d 2068 5e3c
00000140: 84f9 d73d 2225 a5bd 4624 cb3d 075d 7bbc
00000150: 3a46 5f3d 1094 35bd 1888 c9bc a72b 4b3e
00000160: ae53 e93d dd09 0dbe 2604 d2bd 1b2d 193e
00000170: 2198 923d be83 0fbe ad64 633d 2ab8 d83d
00000180: 815b e73d d285 96bc aa98 f33b b524 943d
00000190: 28d7 e0bc b812 7b3a 8e1e 463e fbe4 b5bd
000001a0: 3f9c f43d 73e5 fe3d 610a e2bd 8f2c 8f3d
000001b0: 8c53 e03d 54d0 1dbd 74ab 493e 0035 6b3d
000001c0: 275b adbd 7306 14be 7ee0 2ebe b514 23be
000001d0: ae2e 663d a3ac b53d 93af d6bd f28e 0f3d
000001e0: 12f8 93bb 8b9f eabc bb2d 2c3e 1787 143e
000001f0: a74b 25bc 1426 2dbd 46b6 cebd 4fc4 d2bc
00000200: bfb6 4fbe 257a 92bd 6a94 243e 1584 9cbd
00000210: a681 f33a 1f7b a9bc ad81 59be aea3 273e
00000220: 12d0 3abe 1105 af3d 6228 8d3d 42d5 2fbe
00000230: ce40 b8bd 489e 13bc 9d6a 96bd 817f d7bc
00000240: 262d 863d d69e adbc 5f06 123e 4c7a 6cbd
00000250: 20ff d23d 61dc a7bd 30d5 583d a0e9 17be
00000260: c1ae f03d 2d1d 1c3e 2d7f 513d 82b8 813d
00000270: 867f b4bd bb3a 0fbe f6e7 023d e830 cd3d
00000280: 85a8 253e 4085 c0bd 4cfb 3dbd 8643 143e
00000290: 8ae8 b63d e8a8 0dbe 1a88 393e ef87 3dbe
000002a0: b466 d9bd 3325 8cbd bb5a ca3d 9a05 263d
000002b0: 88c9 b53d 9748 50bc 0717 853d ef28 58bd
000002c0: 5d3b fcbc 2d1b 19be b41b a6bd 67c6 89bd
000002d0: aa8c 00be 7bd1 fe3d c2bc 7a3b ab64 b83d
000002e0: 743f b1bd 841c 303e fc18 b0bd a0a7 223e
000002f0: 5061 103c ef95 3ebd fb36 c83d eab4 fe3d
00000300: e1ae 04be 4c0d 133d 6e95 393e 3c4c 443e
00000310: b231 ffbd fd5f 01be 9fb4 26bd 14d8 473d
00000320: 52e6 973d 0e1a e4bc ac7f dfbd 22ca dc3d
00000330: e1af 83bc 6ae4 593e fe68 073e 856f 343e
00000340: f849 06be 90d0 93bd bbdd e13d 7b0c ae3d
00000350: e90c 84bd ea61 bc3d c38d f3bd f40b 1fbe
00000360: 963a fe3d 5c23 813d 3437 203d cb3f 2fbd
00000370: b5d7 28bd 08be aabd f105 293e dc03 00be
00000380: 8514 c8bd 4e31 0b3e 3d53 d03d 7f36 04be
00000390: 8537 97bd 0cb6 54be 3e5a 47be d818 b6bd
000003a0: 98e7 fbbd 7c38 e73d 87e2 7ebd a2e6 ab3d
000003b0: 3005 1d3e 2e4b 1f3d 31a5 d83c 8eb9 2e3d
000003c0: d078 78bd 78cb d8bd 85d6 b5bd 67ab 37bd
000003d0: 2a5c dc3c a753 29be 6e33 f2bd 2072 c2bd
000003e0: 06cf 63bd bc11 4fbd c157 0abe c2bd 3e3e
000003f0: ce1b 0cbe eed2 b93d 8efe 313e 837a a7bd

bias f4 [16]
0.026637094 0.07703403 0.033456158 -0.04301108 -0.13635325 -0.15243855 -0.03721223 0.10004014
-0.05106145 0.027863136 -0.12779424 -0.08620037 0.16455218 0.10887579 -0.122173436 -0.026173944
00000000: 0936 da3c 04c4 9d3d 5309 093d 632c 30bd
00000010: 30a0 0bbe da18 1cbe da6b 18bd d8e1 cc3d
00000020: d025 51bd 3b41 e43c 7edc 02be d289 b0bd
00000030: 5e80 283e 45fa de3d 1136 fabd bd6a d6bc

weight f4 [16, 16, 3, 3]
-0.028174894 0.062029116 0.000609261 0.012948386 -0.06930783 -0.06187456 -0.044412542 0.0071809664
-0.032971684 0.024077961 0.029030675 0.07982616 0.10019789 -0.012499883 -0.022769382 0.05462934
-0.010973098 -0.012099513 -0.07383187 0.01767652 0.056302972 -0.05549636 -0.071150355 -0.021521749
0.004141677 0.08003983 -0.037367668 0.04357504 0.021169748 0.045415986 -0.02257132 0.023324074
0.053895544 -0.038207296 -0.01432713 -0.01831686 -0.07598203 -0.08769528 -0.097214505 -0.09157153
-0.009087153 0.0618998 0.0059018694 0.00062323886 -0.06787702 0.034696102 0.0011331588 0.0044068163
-0.0036953958 0.07599028 0.07425793 0.060265183 0.006597588 -0.020857228 -0.006928033 0.017542463
-0.009925536 0.05682253 -0.047674395 -0.0117022935 -0.035906438 0.04287975 0.02957752 0.061534777
-0.061791144 -0.0011166658 -0.049307164 0.053914312 0.08002829 0.040544033 0.043353856 0.062853105
0.010655692 0.0025258667 0.056670554 0.067178406 -0.039011978 -0.04732939 -0.02812618 0.02478268
-0.060444385 0.054538228 0.10710907 -0.04033069 0.070933536 0.024520699 -0.033700734 0.012576747
0.088608705 -0.012738442 -0.061241273 0.082063496 -0.057383467 0.03527805 0.05625394 -0.049666468
0.0425902 0.0900481 0.099601805 -0.012438197 0.09004836 0.06937797 -0.019082624 0.010004992
-0.0026421153 0.053433564 0.02163028 0.00088966807 -0.066929564 0.056928363 0.04752326 -0.07485669
0.05003705 -0.048205085 -0.07737701 0.083678424 0.04063704 0.01603302 -0.036942407 -0.08474992
-0.02592386 0.04740079 -0.069751576 0.008657572 0.032090984 -0.02345924 0.06754256 0.056678448
-0.044437703 0.044227 0.023718562 0.07636644 0.004291746 -0.012483807 -0.03556538 0.04493813
0.07855165 0.05211288 0.06251644 -0.005655989 0.05154324 0.07391055 0.008435836 -0.07156364
0.008664655 -0.051329926 0.028308824 -0.010015802 -0.0041749543 -0.020257382 0.044317067 -0.019486832
-0.044631705 0.035468668 0.06885311 -0.021126797 -0.035573393 0.04080614 0.08343926 0.08098173
-0.046901353 0.03370783 -0.059967883 0.05170081 0.058037143 0.056111436 0.044316363 0.044868026
0.08361231 0.037656877 -0.057139467 -0.031280216 0.011244869 0.037345514 -0.00640008 0.05719594
0.02048155 -0.031537183 0.00691022 -0.042509098 -0.0244148 0.047774743 0.02013451 -0.027255658
-0.06834215 0.057984293 -0.05152031 -0.07644035 0.022874048 0.006314742 0.0896514 0.09292499
-0.032067038 0.039710756 -0.026605433 -0.0617679 -0.05322202 0.015795024 0.051356196 0.0448905
-0.063762575 -0.05399184 0.08774834 0.03709834 0.0024337657 0.065651625 -0.03382139 0.065756924
-0.013669298 0.057921868 -0.04793158 -0.074196704 0.07718545 0.009706754 -0.037791453 0.0023887686
-0.040660374 0.022745429 0.020717602 0.012762924 0.018815141 -0.026579587 -0.03576813 -0.03614627
-0.051258016 -0.02703988 0.06665399 -0.022723498 -0.005714661 0.08398343 -0.034361955 -0.0036709292
0.043284062 -0.0397919 0.041560773 -0.0016964988 -0.029100632 0.094610736 -0.04759812 -0.0544961
-0.045698464 0.053695593 0.05324918 -0.062127072 0.07343311 0.04677389 -0.02487195 0.058535326
-0.069326855 0.04959117 0.06588895 -0.038055256 -0.057341143 -0.024197191 -0.00025127508 -0.021789733
00000000: 09cf e6bc 3e12 7e3d d0b6 1f3a 7825 543c
00000010: 43f1 8dbd 2e70 7dbd ede9 35bd 504e eb3b
00000020: 510d 07bd 253f c53c bdd1 ed3c e67b a33d
00000030: 8d34 cd3d 4fcc 4cbc db86 babc 04c3 5f3d
00000040: 82c8 33bc 093d 46bc 2a35 97bd 59ce 903c
00000050: f29d 663d 2750 63bd 47b7 91bd 614e b0bc
00000060: e8b6 873b eceb a33d d70e 19bd be7b 323d
00000070: 2e6c ad3c 1d06 3a3d 7de7 b8bc 2112 bf3c
00000080: 93c1 5c3d 417f 1cbd 57bc 6abc 3d0d 96bc
00000090: 779c 9bbd 9599 b3bd 6618 c7bd db89 bbbd
000000a0: 48e2 14bc a58a 7d3d 7864 c13b da60 233a
000000b0: 1b03 8bbd 801d 0e3d 8086 943a 0e67 903b
000000c0: 742e 72bb cba0 9b3d 8b14 983d a0d8 763d
000000d0: 9430 d83b c7dc aabc 8e04 e3bb 36b5 8f3c
000000e0: b79e 22bc bebe 683d 3a46 43bd faba 3fbc
000000f0: a112 13bd ada2 2f3d 8e4c f23c e40b 7c3d
00000100: b618 7dbd 165d 92ba 4ff6 49bd 41d5 5c3d
00000110: dfe5 a33d 8011 263d d093 313d 21b9 803d
00000120: 3695 2e3c 0389 253b 621f 683d d594 893d
00000130: 06cb 1fbd 76dc 41bd e068 e6bc 0c05 cb3c
00000140: 8894 77bd 7a63 5f3d 005c db3d cb31 25bd
00000150: 9a45 913d a2df c83c c809 0abd b30e 4e3c
00000160: 7b78 b53d e6b4 50bc 21d8 7abd e810 a83d
00000170: ed0a 6bbd b77f 103d 886a 663d 116f 4bbd
00000180: 1073 2e3d 236b b83d 08fc cb3d 94c9 4bbc
00000190: 466b b83d 0a16 8e3d 2a53 9cbc faeb 233c
000001a0: 5727 2dbb 27dd 5a3d fc31 b13c 9d38 693a
000001b0: 5e12 89bd b72d 693d c0a7 423d 774e 99bd
000001c0: a6f3 4c3d b272 45bd d677 9ebd 985f ab3d
000001d0: 0673 263d ae57 833c ec50 17bd 5e91 adbd
000001e0: 465e d4bc 5527 423d ead9 8ebd 7dd8 0d3c
000001f0: d671 033d 982d c0bc c153 8a3d a927 683d
00000200: 4f04 36bd 5f27 353d 6e4d c23c 0266 9c3d
00000210: c6a1 8c3b e288 4cbc 01ad 11bd 0b11 383d
00000220: b0df a03d 5174 553d 9f08 803d e055 b9bb
00000230: 011f 533d 6a5e 973d 7636 0a3c f58f 92bd
00000240: 32f6 0d3c 543f 52bd e8e7 e73c 5219 24bc
00000250: 0ece 88bb cff2 a5bc d085 353d d9a2 9fbc
00000260: bccf 36bd 9847 113d dc02 8d3d 1b12 adbc
00000270: 68b5 11bd 5724 273d 34e2 aa3d c0d9 a53d
00000280: a21b 40bd 3911 0a3d e2a0 75bd 3bc4 533d
00000290: 5bb8 6d3d 1bd5 653d 1385 353d 89c7 373d
000002a0: ee3c ab3d 193e 1a3d 130b 6abd af1f 00bd
000002b0: 663c 383c 9cf7 183d c3b7 d1bb 4a46 6a3d
000002c0: ecc8 a73c 222d 01bd 206f e23b 051e 2ebd
000002d0: 8c01 c8bc 73af 433d 21f1 a43c 4247 dfbc
000002e0: f8f6 8bbd f080 6d3d f606 53bd c28c 9cbd
000002f0: 5b62 bb3c e5eb ce3b 279b b73d 754f be3d
00000300: ba58 03bd bfa7 223d a3f3 d9bc 5600 7dbd
00000310: 55ff 59bd 9164 813c e05a 523d 1adf 373d
00000320: f495 82bd 8c26 5dbd 67b5 b33d 6ef4 173d
00000330: d07f 1f3b 5c74 863d 4c88 0abd 91ab 863d
00000340: 31f5 5fbc 7b3f 6d3d e853 44bd 71f4 97bd
00000350: 6813 9e3d 1409 1f3c 36cb 1abd e38c 1c3b
00000360: 7e8b 26bd 9f54 ba3c f6b7 a93c 951b 513c
00000370: 3622 9a3c 6fbd d9bc 9a81 12bd 1c0e 14bd
00000380: edf3 51bd bd82 ddbc e381 883d a126 babc
00000390: 0d42 bbbb 81ff ab3d 1fbf 0cbd f993 70bb
000003a0: a14a 313d d5fc 22bd a13b 2a3d 0e5d deba
000003b0: 7364 eebc 46c3 c13d 3ff6 42bd 4d37 5fbd
000003c0: 502e 3bbd e9ef 5b3d d01b 5a3d f578 7ebd
000003d0: 1964 963d fa95 3f3d 42c0 cbbc bdc2 6f3d
000003e0: 3dfb 8dbd 1c20 4b3d c9f0 863d d4df 1bbd
000003f0: 8cde 6abd 3039 c6bc 92bd 83b9 6280 b2bc

bias f4 [16]
0.024532152 0.091659345 -0.08041862 0.0107377665 0.0074910587 -0.03727396 0.020105422 -0.0556182
-0.056362484 0.056298815 0.0065047555 -0.058389153 -0.046011586 0.0022350857 0.06971831 -0.058102675
00000000: a7f7 c83c e5b7 bb3d 84b2 a4bd 75ed 2f3c
00000010: 8e77 f53b 94ac 18bd 20b4 a43c e9cf 63bd
00000020: 59dc 66bd 9699 663d d825 d53b 7729 6fbd
00000030: a576 3cbd 847a 123b 79c8 8e3d 12fd 6dbd

weight f4 [16, 16, 3, 3]
0.07576797 -0.026255582 -0.043597106 0.06023567 0.00037912832 -0.010856591 0.063362494 -0.0056650676
-0.016790763 -0.032917667 -0.048083436 0.008511446 0.08012721 0.017739445 0.084006086 -0.068764664
0.06625598 -0.061062526 0.030525208 -0.038174007 0.06389137 0.054375775 -0.055708036 -0.033643734
0.042568758 0.08505105 0.073355466 0.044517085 -0.040577646 0.05574435 -0.012998841 0.071045205
0.041833617 0.08711219 0.0190496 0.023165494 -0.002628608 0.034026444 0.056198362 0.098825514
-0.022105224 -0.031074306 0.06752074 0.01451489 -0.052483577 0.046671096 0.06350775 0.030284733
-0.012023797 0.07268842 0.007820196 0.00024756003 -0.06547523 0.044305388 0.07278801 -0.016887305
0.08196821 0.031190053 0.03891086 0.060244843 -0.042727984 -0.054318096 -0.06448083 0.06975472
0.05164431 -0.0028473737 -5.2814663e-05 0.0667974 0.08953456 0.083826385 -0.06567593 -0.04435574
0.0482645 0.038770203 0.048904594 0.074954 0.0015058164 0.060725383 0.044381432 -0.014315956
-0.06847484 0.058799885 0.08838939 0.055926736 0.023706924 -0.026177147 0.055955045 -0.0342916
0.047521222 -0.037147503 -0.013477752 0.036377057 0.080565184 0.013751682 -0.033799913 -0.04840302
-0.024771277 0.07399504 0.084132664 0.06239608 -0.035267383 0.0130938105 0.016523596 -0.042117648
-0.017616028 -0.05020832 0.03834763 0.006546333 0.05827409 0.03089863 -0.050231315 0.00015546122
0.05691599 -0.081393614 -0.051131662 -0.06686538 -0.037637837 -0.0026575385 0.0629418 -0.06581032
0.058081795 -0.01550545 0.036289092 0.011573359 -0.03662085 0.033992328 0.07389257 0.057274073
-0.028204253 0.049413692 0.07000439 -0.016136961 0.07466387 0.04683715 0.040079825 0.0034252338
0.013744637 0.063279495 -0.032903183 0.013379495 0.052255277 -0.016626326 -0.021197755 0.064312465
0.01692686 -0.04923673 -0.071699135 -0.0019423473 0.059854537 -0.012612981 -0.0039339913 0.04019713
-0.032080695 0.01625441 0.07578198 0.041907784 -0.06316953 -0.013611483 -0.017645417 -0.06212355
0.057238806 0.0040510893 0.0018910238 0.033094704 -0.028374575 0.023821272 0.02249969 0.09160224
-0.05144418 0.077175766 0.08609708 0.048635997 0.023946622 -0.016888827 0.04388944 -0.041818272
0.061624464 -0.02359507 -0.015002057 -0.033708323 -0.07594466 -0.0460817 -0.048018098 -0.007703586
-0.030290991 0.0066270996 0.0071487855 -0.012233058 -0.064462386 0.013968456 -0.0038944085 -0.021739226
0.049931727 0.0062182955 0.04112246 -0.013585671 0.025077859 0.060131736 0.073481284 -0.028076803
0.08142716 -0.061126225 0.0005479193 0.0020303088 0.07055708 0.037807796 -0.005656682 -0.06745477
0.027191257 0.029574491 0.053655665 0.07146306 0.006766653 -0.061004676 -0.071274646 0.049187828
-0.03487126 0.03516632 -0.044312093 -0.004509183 0.044189706 -0.048429478 0.043428507 -0.035011396
0.019178817 0.018873112 -0.010158707 0.07694694 0.03506304 0.05405679 0.08808132 -0.047869798
0.08081346 0.010512885 -0.019133532 0.070699334 0.06016821 -0.0069836844 0.066717096 0.0756293
0.064740546 -0.053872433 -0.0024343682 -0.09154368 -0.029654013 -0.026230346 0.03786985 -0.08298762
-0.011159846 -0.048495796 -0.07329337 0.035723854 -0.057570614 -0.023987217 0.027828757 -0.09139098
00000000: 3d2c 9b3d f215 d7bc e192 32bd aeb9 763d
00000010: bec5 c639 d8df 31bc 32c4 813d 08a2 b9bb
00000020: c88c 89bc add4 06bd 23f3 44bd 9873 0b3c
00000030: bc19 a43d 5052 913c 620b ac3d 7dd4 8cbd
00000040: 37b1 873d b31c 7abd 0010 fa3c 595c 1cbd
00000050: 7bd9 823d 22b9 5e3d 1c2e 64bd 03ce 09bd
00000060: 945c 2e3d 3f2f ae3d 643b 963d 8c57 363d
00000070: bf34 26bd 3054 643d 17f9 54bc 2680 913d
00000080: ba59 2b3d e067 b23d e80d 9c3c 90c5 bd3c
00000090: b944 2cbb 505f 0b3d 4130 663d 0865 ca3d
000000a0: 0416 b5bc 8b8f febc 5048 8a3d dccf 6d3c
000000b0: 05f9 56bd 312a 3f3d 5a10 823d b017 f83c
000000c0: 76ff 44bc abdd 943d 4820 003c f2ca 8139
000000d0: e117 86bd 9179 353d e111 953d 3f57 8abc
000000e0: f3de a73d 4882 ff3c fe60 1f3d 4cc3 763d
000000f0: 8a03 2fbd a77c 5ebd 870e 84bd 90db 8e3d
00000100: fc88 533d 019b 3abb 5085 5db8 13cd 883d
00000110: e55d b73d 2bad ab3d 1a81 86bd 5dae 35bd
00000120: ffb0 453d 81cd 1e3d 2f50 483d 7c81 993d
00000130: d05e c53a 2ebb 783d 4ec9 353d 798d 6abc
00000140: 893c 8cbd 26d8 703d 7f05 b53d 6f13 653d
00000150: 0635 c23c 7571 d6bc 1e31 653d 5975 0cbd
00000160: 9da5 423d fb27 18bd cad1 5cbc 1c00 153d
00000170: 5cff a43d bc4e 613c c771 0abd 3f42 46bd
00000180: 22ed cabc b68a 973d bf4d ac3d 0893 7f3d
00000190: 8874 10bd 6c87 563c 7e5c 873c 8e83 2cbd
000001a0: 7d4f 90bc 3da7 4dbd 6812 1d3d 9f82 d63b
000001b0: d0b0 6e3d 201f fd3c 5abf 4dbd 4e03 2339
000001c0: be20 693d b2b1 a6bd 6f6f 51bd b7f0 88bd
000001d0: 222a 1abd 192a 2ebb a1e7 803d 90c7 86bd
000001e0: 2de7 6d3d 920a 7ebc dfa3 143d 309e 3d3c
000001f0: bfff 15bd 8a3b 0b3d fd54 973d 3898 6a3d
00000200: 9b0c e7bc 0366 4a3d 765e 8f3d a931 84bc
00000210: 5fe9 983d 50d8 3f3d be2a 243d e379 603b
00000220: 3031 613c ae98 813d 7dc5 06bd ab35 5b3c
00000230: a109 563d ef33 88bc eaa6 adbc 41b6 833d
00000240: 33aa 8a3c 74ac 49bd ffd6 92bd 5c96 feba
00000250: 082a 753d ada6 4ebc b6e8 80bb bfa5 243d
00000260: 0c67 03bd f827 853c 9533 9b3d 7fa7 2b3d
00000270: 075f 81bd b302 5fbc 1f8d 90bc 4375 7ebd
00000280: 3d73 6a3d 00bf 843b 3bdc f73a 508e 073d
00000290: cc71 e8bc d424 c33c 4551 b83c f599 bb3d
000002a0: 22b7 52bd 540e 9e3d aa53 b03d 8a36 473d
000002b0: b52b c43c 705a 8abc 6ac5 333d a349 2bbd
000002c0: ef69 7c3d 734a c1bc 30cb 75bc bd11 0abd
000002d0: e088 9bbd 2ac0 3cbd a0ae 44bd 5d6e fcbb
000002e0: d024 f8bc 2428 d93b 5c40 ea3b 2a6d 48bc
000002f0: db04 84bd f3db 643c 5539 7fbb 7616 b2bc
00000300: 3685 4c3d d8c2 cb3b 0670 283d 6f96 5ebc
00000310: 1570 cd3c b24c 763d 5b7d 963d 5301 e6bc
00000320: 48c3 a63d 7e5f 7abd 3ea2 0f3a ee0e 053b
00000330: 3b80 903d 59dc 1a3d b05b b9bb ba25 8abd
00000340: 33c0 de3c 3446 f23c 0bc6 5b3d 3a5b 923d
00000350: cdba dd3b 0ae0 79bd 71f8 91bd 2d79 493d
00000360: 2bd5 0ebd 8f0a 103d 9980 35bd c5c1 93bb
00000370: 4400 353d fd5d 46bd 17e2 313d 1c68 0fbd
00000380: e51c 9d3c c99b 9a3c b570 26bc 5b96 9d3d
00000390: 439e 0f3d a76a 5d3d fb63 b43d 1f13 44bd
000003a0: 8781 a53d 3c3e 2c3c edbd 9cbc d0ca 903d
000003b0: f172 763d 64d7 e4bb f9a2 883d 89e3 9a3d
000003c0: b196 843d 57a9 5cbd ec89 1fbb 417b bbbd
000003d0: f9ec f2bc 06e1 d6bc 6a1d 1b3d 6af5 a9bd
000003e0: c9d7 36bc 87a3 46bd d61a 96bd 2d53 123d
000003f0: 2acf 6bbd d780 c4bc 22f9 e33c 322b bbbd

bias f4 [16]
-0.022573614 0.03714722 -0.05137249 -0.031793155 0.030726153 -0.042692475 0.06753577 -0.04844635
0.07846196 -0.058600675 0.03212994 -0.007324692 0.020028085 0.067561075 0.005711118 -0.026612245
00000000: 4dec b8bc af27 183d f66b 52bd 8a39 02bd
00000010: 6ab5 fb3c 4ede 2ebd 3250 8a3d ae6f 46bd
00000020: aab0 a03d 4307 70bd af9a 033d f803 f0bb
00000030: f011 a43c 765d 8a3d 5524 bb3b ec01 dabc

weight f4 [16, 16, 3, 3]
0.008855741 -0.042475145 -0.0005630496 0.0577383 0.050649017 -0.043274444 0.07507629 0.033794716
-0.02031364 0.019939663 0.090326 -0.0036080813 0.05895113 0.018001126 0.02104539 0.034136947
0.031669438 -0.04292821 0.0029782385 -0.04116696 -0.011853996 -0.073790334 -0.060343895 -0.031031534
-0.024858942 0.0797432 -0.015351289 -0.028959503 0.050227042 0.019603476 -0.06130197 0.052679606
0.020628799 -0.042422887 0.024531724 -0.005499295 0.076198965 0.075849086 -0.008937069 -0.060240056
0.08538905 0.06477994 0.048620924 0.013922135 0.07926448 0.024008607 0.021506673 0.034031168
0.02416522 -0.0013332865 0.060913466 0.009569681 -0.018669661 -0.0060490733 0.08520078 0.067052156
0.06004333 -0.056968242 0.04098487 -0.021893628 -0.04573627 0.05036883 0.051786866 -0.002948664
0.022298817 -0.06468582 -0.065482594 0.03983012 0.08880589 -0.05328796 0.045620024 -0.0005692707
-0.040619723 -0.034904085 -0.022053791 -0.020138327 -0.014290136 -0.011415617 0.014595961 0.037131976
-0.04942062 0.07150177 0.060575377 0.07293106 0.07205037 0.06633891 -0.019430432 0.062071152
0.053599942 0.0016154493 0.017991554 0.030704599 0.032695886 -0.04622387 -0.03228434 0.043174844
0.0016394533 -0.05328534 0.07588803 -0.07426476 0.016132787 -0.030972803 -0.04275211 -0.035007726
-0.07034892 -0.07017842 -0.08446215 -0.085351326 0.053519823 -0.025607642 -0.04470036 -0.03215188
0.0064430796 0.015372411 -0.03777461 -0.00073783076 0.05112721 -0.01899361 0.046226446 0.079870574
-0.069997124 0.04507448 -0.057502232 0.02505063 0.0043471386 0.05968931 0.0775784 0.00026857335
-0.053827167 -0.008244805 -0.008771323 0.006074813 -0.007252586 -0.07070049 -0.016393816 -0.06889252
0.069624044 0.026601372 0.01865586 -0.0688325 0.030475872 -0.03231106 -0.06974995 -0.013851042
0.05859166 0.042593952 -0.013626645 -0.089768276 -0.06980616 -0.073608026 -0.0023622473 -0.07611536
-0.037020028 -0.008455077 -0.08076824 0.032624383 -0.0688357 -0.006374345 -0.08574628 -0.01857297
-0.0027222487 -0.04871355 -0.025080508 -0.03061411 -0.031624608 -0.056816194 -0.017990505 -0.03383262
0.075640745 0.028718721 0.004508447 -0.080901876 -0.011787079 0.025268702 0.013409717 -0.0010463679
0.03880392 -0.036841866 0.036275845 0.07580798 -0.06089636 -0.06734349 -0.05667984 0.010846487
0.003879867 -0.06171979 0.03584915 -0.002027257 -0.082041375 0.057362188 0.01912475 -0.0023351223
-0.03728899 0.0414632 0.014520616 0.061282042 -0.056272622 -0.06833832 -0.063705884 0.06976405
-0.046618633 0.08315094 0.072674386 0.063556165 0.059695713 -0.054570246 0.034178317 -0.004201168
0.06499169 -0.049778275 0.021060113 0.0009857626 0.026116783 0.04129105 -0.027379291 0.0102047
-0.065558836 -0.010657034 0.01527367 -0.06549607 0.003043046 -0.07531539 -0.052466754 0.030336086
0.01701017 0.053672988 -0.058210447 -0.06120424 0.040963948 0.012852828 0.06279085 -0.034989655
0.064040005 0.01869982 -0.06979971 -0.08706088 0.06449556 -0.081483774 -0.060659233 -0.025228458
0.04931013 -0.026978575 0.061196554 -0.027906355 0.05539675 -0.022862332 0.044816777 -0.028101835
0.070382714 0.0068849875 0.06572815 -0.03779378 0.040592283 -0.059127647 0.07892329 0.0009301689
00000000: ab17 113c 6bfa 2dbd 9e99 13ba ff7e 6c3d
00000010: 5875 4f3d 8b40 31bd 99c1 993d 546c 0a3d
00000020: ca68 a6bc 8158 a33c d6fc b83d 8f75 6cbb
00000030: bd76 713d 1977 933c 6267 ac3c 2fd3 0b3d
00000040: d0b7 013d 7ed5 2fbd 8d2e 433b b09e 28bd
00000050: 4337 42bc 631f 97bd 292b 77bd d835 febc
00000060: fba4 cbbc 6750 a33d f983 7bbc 7b3c edbc
00000070: dfba 4d3d 7897 a03c c617 7bbd 92c6 573d
00000080: bafd a83c 9fc3 2dbd c1f6 c83c 6e33 b4bb
00000090: 340e 9c3d c456 9b3d c96c 12bc 47be 76bd
000000a0: 74e0 ae3d 58ab 843d bc26 473d ab19 643c
000000b0: 6a55 a23d b3ad c43c c32e b03c 4464 0b3d
000000c0: 24f6 c53c acc1 aeba 6680 793d 27ca 1c3c
000000d0: 1ef1 98bc 4e37 c6bb bf7d ae3d a452 893d
000000e0: ffef 753d 8857 69bd c0df 273d 445a b3bc
000000f0: f455 3bbd 8c4f 4e3d 771e 543d 5f3e 41bb
00000100: 02ac b63c 007a 84bd bd1b 86bd e824 233d
00000110: dddf b53d 7a44 5abd 10dc 3a3d 1c3b 15ba
00000120: de60 26bd 96f7 0ebd 27aa b4bc 22f9 a4bc
00000130: 2d21 6abc 9108 3bbc e623 6f3c b317 183d
00000140: 476d 4abd 856f 923d e31d 783d e15c 953d
00000150: 258f 933d b2dc 873d 922c 9fbc 523e 7e3d
00000160: 9d8b 5b3d 7cbd d33a 0663 933c 3688 fb3c
00000170: 1fec 053d 3e55 3dbd 963c 04bd 1bd8 303d
00000180: ede2 d63a bb41 5abd 2f6b 9b3d 1f18 98bd
00000190: e828 843c adba fdbc d61c 2fbd 4364 0fbd
000001a0: 1813 90bd b4b9 8fbd 7efa acbd adcc aebd
000001b0: 9a37 5b3d 1ec7 d1bc ba17 37bd b1b1 03bd
000001c0: 7820 d33b 91dc 7b3c 8db9 1abd fc6a 41ba
000001d0: c46a 513d 7d98 9bbc f157 3d3d 2f93 a33d
000001e0: a75a 8fbd 05a0 383d 7687 6bbd fb36 cd3c
000001f0: 7172 8e3b c77c 743d 6de1 9e3d 4ecf 8c39
00000200: e079 5cbd 3815 07bc 98b5 0fbc 3a0f c73b
00000210: 1aa7 edbb 6bcb 90bd 534c 86bc 8617 8dbd
00000220: 0d97 8e3d 1feb d93c 2dd4 983c 0ef8 8cbd
00000230: 89a8 f93c 9a58 04bd 10d9 8ebd 7bef 62bc
00000240: cffd 6f3d ff76 2e3d 4b42 5fbc 6ed8 b7bd
00000250: 88f6 8ebd cebf 96bd efcf 1abb 5fe2 9bbd
00000260: 50a2 17bd 2a87 0abc d269 a5bd 25a1 053d
00000270: bbf9 8cbd e2df d0bb bf9b afbd 5726 98bc
00000280: c167 32bb dc87 47bd a375 cdbc 71ca fabc
00000290: ce88 01bd 19b8 68bd d360 93bc 1394 0abd
000002a0: 89e9 9a3d 8643 eb3c 98bb 933b e2af a5bd
000002b0: 981e 41bc 4f00 cf3c 6eb4 5b3c 4826 89ba
000002c0: dcf0 1e3d 7fe7 16bd fb95 143d 3741 9b3d
000002d0: 766e 79bd 62eb 89bd 1f29 68bd 77b5 313c
000002e0: 5e45 7e3b e4cd 7cbd 8fd6 123d bbdb 04bb
000002f0: 4f05 a8bd 9df4 6a3d 82ab 9c3c da08 19bb
00000300: 57bc 18bd 51d5 293d e1e7 6d3c e102 7b3d
00000310: 1f7e 66bd f6f4 8bbd 3b78 82bd 74e0 8e3d
00000320: 2ef3 3ebd 0a4b aa3d 4fd6 943d bc29 823d
00000330: 7e83 743d 0d85 5fbd 90fe 0b3d f4a9 89bb
00000340: 5d1a 853d 4ee4 4bbd 4286 ac3c b434 813a
00000350: ddf2 d53c ce20 293d 894a e0bc 9d31 273c
00000360: b643 86bd d79a 2ebc 6a3e 7a3c ce22 86bd
00000370: d76d 473b f53e 9abd 61e7 56bd 6283 f83c
00000380: e958 8b3c 35d8 5b3d 146e 6ebd 4cb1 7abd
00000390: d0c9 273d ab94 523c 7d98 803d 5051 0fbd
000003a0: 6827 833d 5d30 993c 26f3 8ebd fa4c b2bd
000003b0: 4016 843d f7e0 a6bd d175 78bd e9ab cebc
000003c0: 6bf9 493d 2c02 ddbc 3da9 7a3d de9b e4bc
000003d0: b4e7 623d c949 bbbc cc91 373d d235 e6bc
000003e0: d024 903d 769b e13b 7b9c 863d a7cd 1abd
000003f0: 1844 263d d52f 72bd 89a2 a13d 94d6 733a

bias f4 [16]
-0.026060488 -0.0023045493 0.017495345 0.042510994 -0.0047963327 -0.05903252 -0.021829112 0.016010396
-0.09069773 0.006756204 0.03471503 -0.014760844 0.09107779 0.08576932 -0.09913038 -0.08965348
00000000: ce7c d5bc ec07 17bb 6652 8f3c 0220 2e3d
00000010: 8e2a 9dbb 15cc 71bd f7d2 b2bc 3c28 833c
00000020: bbbf b9bd 2663 dd3b 5931 0e3d 78d7 71bc
00000030: fe86 ba3d d3a7 af3d de04 cbbd 3e9c b7bd

weight f4 [16, 16, 3, 3]
-0.025015883 0.056821696 -0.0234718 -0.0012334569 -0.075972006 -0.0526785 0.04727949 -0.042497598
-0.035847664 -0.07498309 0.039017808 -0.039189994 -0.01344669 0.0115201045 0.061986733 0.036208928
-0.004420016 0.02496594 0.042264562 -0.052097376 -0.018127045 0.036069132 0.004468364 0.015139444
0.015375756 -0.07369218 -0.06230782 -0.023570774 -0.07039505 0.072780825 -0.018137515 0.0395472
0.031251483 0.005330526 0.012748163 -0.022680143 0.043816384 -0.02101636 -0.045206092 -0.032037057
-0.06874104 -0.059962828 -0.022058293 -0.034989707 0.04618263 -0.04221112 0.057985283 0.07264917
-0.022661556 0.023212686 0.017275354 0.07839197 -0.024771238 -0.01164284 0.05872182 -0.06185472
0.004107004 -0.0036216353 -0.08512391 -0.04981877 -0.061572433 -0.024555203 -0.0071501606 -0.013853186
0.01930023 -0.033906963 -0.023192529 0.05795584 -0.022026137 0.061856247 0.07510861 -0.010388902
0.0482306 0.021530107 -0.0120788505 0.036671545 0.083380036 -0.055816256 -0.050562266 0.03540938
0.07628637 -0.071468644 -0.022835549 -0.055500858 0.058280203 0.0005178659 -0.06772745 0.0857082
-0.035295025 0.058922365 0.0037222982 0.033591513 -0.021005657 0.0016755373 0.046756223 0.06278635
0.073105365 -0.038413256 0.0705189 0.05428244 -0.011374498 0.01752247 -0.06562833 -0.03540997
0.016732305 -0.039248303 0.030757885 -0.06810467 0.06439891 0.011696083 0.021723999 0.031387217
0.027555374 0.087425746 0.015326099 -0.052878033 0.056468885 0.0033073095 0.061428428 0.027723031
0.063277446 -0.070919976 0.05908101 0.08250589 0.06330975 0.045459855 -0.029444024 0.08560517
0.08446244 -0.026077135 0.025590656 -0.07807075 -0.027041608 -0.055632442 0.03251444 -0.06474814
-0.013048895 0.08617085 -0.03441633 0.042834174 0.0849517 0.03351305 0.010403306 0.073365256
0.023136716 0.06882645 0.05182249 0.052985236 0.051741544 -0.02320703 0.069419175 -0.039274715
0.011817415 0.015629342 0.07539239 0.022269588 -0.06441399 0.007658122 -0.035782386 0.05295042
-0.07609974 0.010247456 0.048583627 0.02622441 0.07755522 -0.0056845173 0.06135735 0.018319879
0.0856646 0.039438777 -0.009961884 0.032778345 0.033122588 -0.027127886 0.011622347 0.06500877
0.05760372 0.036768485 -0.041452907 -0.003002268 0.03295614 0.005502707 -0.07368599 0.01497624
-0.04792311 0.02201818 0.033864435 -0.049818635 -0.013403832 -0.023914572 -0.026376102 -0.045407113
-0.06489337 -0.0054835468 0.017255431 -0.06711415 -0.06188711 0.0638782 0.020873185 -0.014381087
0.08719095 -0.028446756 0.064245634 -0.01067798 -0.022679288 -0.0557323 0.031886566 -0.061102726
-0.051411264 -0.04817101 -0.06294124 0.027081452 0.011197872 0.03371095 -0.04276556 -0.004863502
0.045325536 -0.03180556 0.037156317 0.008825847 0.055809077 -0.024409074 -0.05316712 -0.06221941
-0.0885306 -0.08154851 -0.088817984 0.03232897 -0.039159354 -0.087606676 -0.007665738 0.050431676
-0.0021330297 -0.030392444 -0.0414622 -0.024805816 -0.03243713 0.012930808 0.03763594 -0.09056109
0.057709526 0.009123762 -0.015371115 0.005197211 0.09113265 -0.04376949 0.026410405 0.10266977
0.036781453 0.06447732 -0.0008030868 -0.06528284 0.057238612 0.036044657 0.01766918 0.027622249
00000000: 1cee ccbc debd 683d ef47 c0bc f2ab a1ba
00000010: 3697 9bbd 69c5 57bd 23a8 413d f611 2ebd
00000020: 00d5 12bd bc90 99bd 23d1 1f3d b085 20bd
00000030: 814f 5cbc d2be 3c3c cde5 7d3d d04f 143d
00000040: c8d5 90bb 5f85 cc3c 9b1d 2d3d 0f64 55bd
00000050: 2b7f 94bc 3abd 133d 5b6b 923b 6e0b 783c
00000060: 98ea 7b3c edeb 96bd 7c36 7fbd 7f17 c1bc
00000070: 482b 90bd 1d0e 953d 2095 94bc 3ffc 213d
00000080: 8e01 003d b1ab ae3b acdd 503c b5cb b9bc
00000090: cf78 333d 802a acbc 062a 39bd 4a39 03bd
000000a0: 1ac8 8cbd 959b 75bd 98b3 b4bc 5e51 0fbd
000000b0: ff29 3d3d 91e5 2cbd fa81 6d3d 17c9 943d
000000c0: baa4 b9bc 8828 be3c 0b85 8d3c f88b a03d
000000d0: 0ded cabc 9cc1 3ebc 4b86 703d 605b 7dbd
000000e0: 0c94 863b f558 6dbb 7255 aebd c40e 4cbd
000000f0: 6033 7cbd fe27 c9bc e54b eabb 79f8 62bc
00000100: 841b 9e3c 07e2 0abd 42fe bdbc 1a63 6d3d
00000110: 2870 b4bc fa5c 7d3d 8bd2 993d 3736 2abc
00000120: 738d 453d e85f b03c 5fe6 45bc e734 163d
00000130: 27c3 aa3d 969f 64bd 611a 4fbd 6d09 113d
00000140: 073c 9c3d 275e 92bd 9e11 bbbc de54 63bd
00000150: 39b7 6e3d 64c1 073a b0b4 8abd c887 af3d
00000160: 8491 10bd 9458 713d cdf1 733b 4197 093d
00000170: 0e14 acbc b49d db3a 7483 3f3d 2196 803d
00000180: 44b8 953d 3857 1dbd 376c 903d 4457 5e3d
00000190: 1a5c 3abc 488b 8f3c 2568 86bd 0b0a 11bd
000001a0: 3012 893c d4c2 20bd f6f7 fb3c 767a 8bbd
000001b0: 93e3 833d eda0 3f3c 87f6 b13c e28f 003d
000001c0: cfbb e13c 450c b33d 511a 7b3c a396 58bd
000001d0: eb4b 673d 72bf 583b 609c 7b3d 691b e33c
000001e0: 9b97 813d 7e3e 91bd eefe 713d d9f8 a83d
000001f0: 8ba8 813d 1d34 3a3d 9834 f1bc c351 af3d
00000200: a5fa ac3d b79f d5bc 7fa3 d13c 8fe3 9fbd
00000210: 5d86 ddbc d8de 63bd dd2d 053d ac9a 84bd
00000220: 08cb 55bc 587a b03d 23f8 0cbd e372 2f3d
00000230: 28fb ad3d fb44 093d a172 2a3c 8640 963d
00000240: 3689 bd3c e2f4 8c3d d243 543d 0c07 593d
00000250: f1ee 533d ab1c bebc a42b 8e3d 86de 20bd
00000260: d59d 413c 1b09 803c 5367 9a3d b66e b63c
00000270: 7beb 83bd fcf0 fa3b 8d90 12bd 8ae2 583d
00000280: 2eda 9bbd f2e4 273c a0ff 463d 93d4 d63c
00000290: 45d5 9e3d 3045 babb d851 7b3d 9213 963c
000002a0: ec70 af3d 8e8a 213d 2b37 23bc 9642 063d
000002b0: 8dab 073d 4d3b debc a86b 3e3c 5123 853d
000002c0: e1f1 6b3d 8d9a 163d 86ca 29bd b3c1 44bb
000002d0: 04fd 063d 0d50 b43b aee8 96bd e75e 753c
000002e0: 064b 44bd 785f b43c 6fb5 0a3d a00e 4cbd
000002f0: bf9b 5bbc 7ee8 c3bc b212 d8bc cffc 39bd
00000300: d1e6 84bd 53af b3bb 435b 8d3c 2573 89bd
00000310: 577d 7dbd 93d2 823d 3efe aa3c a79e 6bbc
00000320: 2b91 b23d 2c09 e9bc 3793 833d b2f2 2ebc
00000330: eac9 b9bc 8d47 64bd 7d9b 023d da46 7abd
00000340: 9e94 52bd f74e 45bd 56e7 80bd ecd9 dd3c
00000350: 4877 373c 7e14 0a3d f12a 2fbd 035e 9fbb
00000360: 45a7 393d 8c46 02bd 3931 183d 499a 103c
00000370: 0f98 643d 8af5 c7bc c4c5 59bd c8d9 7ebd
00000380: 884f b5bd e802 a7bd 34e6 b5bd 626b 043d
00000390: 8f65 20bd 216b b3bd df30 fbbb 7291 4e3d
000003a0: 4dca 0bbb 93f9 f8bc 45d4 29bd 9135 cbbc
000003b0: ccdc 04bd bddb 533c 2528 1a3d 1878 b9bd
000003c0: d360 6c3d d57b 153c 21d7 7bbc 5e4d aa3b
000003d0: c1a3 ba3d a347 33bd a25a d83c 8744 d23d
000003e0: 26a8 163d af0c 843d 3e86 52ba 02b3 85bd
000003f0: 0973 6a3d 90a3 133d f5be 903c 0e48 e23c

bias f4 [16]
0.05474109 -0.035255093 -0.07111824 -0.023348529 -0.02799782 0.031917937 0.03338692 0.007396489
0.10655655 -0.05010441 0.026895927 -0.0010899451 0.09840967 -0.008484612 -0.061833072 0.021553839
00000000: 3138 603d a567 10bd 71a6 91bd 6a45 bfbc
00000010: af5b e5bc 62bc 023d b9c0 083d 3f5e f23b
00000020: 523a da3d 483a 4dbd d954 dc3c 7ddc 8eba
00000030: 028b c93d 0b03 0bbc ad44 7dbd ad91 b03c

weight f4 [16, 16, 3, 3]
0.06653353 -0.039299257 0.01911003 -0.03454498 0.071185835 0.06752415 -0.044054728 0.028017167
0.025091572 0.029992364 -0.084735006 0.044002127 0.037858993 -0.07609994 0.016048059 -0.049686655
0.059001092 -0.041446157 0.000544803 0.08917306 0.0034844975 0.10123677 0.026662616 -0.024187086
-0.041371193 0.0062021483 0.0710291 0.025033977 0.006060917 -0.027761668 -0.020534243 -0.03257769
-0.036630694 -0.023420285 0.041930772 0.029319722 -0.05553556 0.042593174 -0.018261535 0.020694813
0.029418498 0.076972336 0.0033730543 -0.0069330083 0.03738866 0.019180985 0.09160408 0.100747235
-0.019803666 0.0841139 0.02514436 0.041023422 0.09573133 0.03917386 -0.025903732 -0.04062497
-0.06561171 0.018874558 -0.053909104 0.06945272 0.048389636 -0.0019872668 0.030094061 0.0388453
0.046563536 -0.04840642 0.007395952 -0.053814698 0.0011751249 0.05018572 0.016738074 0.0016402093
-0.07015917 0.004418253 0.063811846 -0.06806213 0.027621927 0.08748259 -0.029768318 -0.060205854
0.082042284 0.034387246 0.07780929 -0.0019035803 0.021434087 -0.063060395 0.03479637 0.05676409
-0.045521446 -0.009695097 -0.006991674 0.08225183 -0.0070662643 0.026326537 0.099541694 0.09887816
0.061979547 -0.019956464 -0.038341686 -0.03357228 0.08469977 0.007923649 -0.020650126 0.06892607
-0.0791405 0.053448677 -0.08361536 0.040680498 0.010104902 0.06317511 0.03795516 0.09450568
0.020750692 -0.035899162 0.060311455 0.10910568 0.024561781 0.10325708 -0.058308117 -0.021417268
0.031130726 0.011610298 -0.023832222 0.076116964 -0.026458971 0.10204605 0.042602267 -0.05919504
0.06736015 0.08579608 -0.031512484 0.017294727 0.041689247 0.0648327 0.018513499 0.02241759
-0.012570609 -0.031260777 0.10760378 0.08258492 -0.060596716 0.025702491 0.056769688 -0.047012232
-0.021009026 -0.027935958 -0.052402053 0.089015484 0.041244082 0.023940202 0.07084848 -0.011550636
0.089044735 -0.0026982992 0.00825846 0.055986095 0.049005654 -0.00018194166 -0.07204952 0.07670227
-0.0693025 -0.051455576 -0.04713958 -0.0017583681 0.06478684 0.07418589 -0.0021923152 -0.06455314
0.011696695 0.08360419 0.057145968 0.060223915 -0.019926006 -0.043325074 0.07396208 -0.0076025957
0.029070135 0.05249477 0.076285005 0.01665689 0.07935935 0.08329374 0.047633026 0.04728804
-0.048094913 -0.0423923 0.02457804 0.089718156 0.013960422 0.052621473 0.03306809 -0.0027147026
-0.010122089 -0.05844315 0.056793544 0.051685397 0.017549088 -0.0491081 -0.04063047 0.061572686
0.06846922 0.045188144 0.051275168 0.059463896 -0.005736155 -0.00037342648 -0.042498916 0.033875044
-0.0024939354 0.04003677 0.020049566 -0.06841619 -0.036826495 -0.04885981 -0.0711282 -0.013321008
0.034792367 0.08417854 -0.049229857 -0.04342324 -0.048106812 -0.062792234 0.07811263 -0.020367416
0.08657736 -0.019614693 0.048136313 -0.048964564 0.040988225 -0.022292119 0.015469493 0.07096792
-0.0152520845 0.06167323 0.08253687 0.057126507 0.023974147 -0.014736043 -0.009238132 0.059400097
-0.07151684 -0.038042415 0.073246114 -0.0011653069 -0.051990613 0.06722913 -0.022205098 -0.028260952
0.040525127 -0.014743028 -0.060617078 0.0062517165 0.004564093 -0.07490393 -0.075622216 0.0065664793
00000000: bb42 883d 42f8 20bd a38c 9c3c 097f 0dbd
00000010: e1c9 913d 1a4a 8a3d bb72 34bd 4284 e53c
00000020: d78c cd3c 8cb2 f53c 8c89 adbd 933b 343d
00000030: 0812 1b3d 49da 9bbd 3877 833c 3c84 4bbd
00000040: 21ab 713d 72c3 29bd 1cd1 0e3a 5ea0 b63d
00000050: 2b5c 643b 3955 cf3d 8f6b da3c ff23 c6bc
00000060: d774 29bd 643b cb3b b477 913d 0e14 cd3c
00000070: a89a c63b 706c e3bc 6e37 a8bc 2f70 05bd
00000080: 110a 16bd e6db bfbc 9abf 2b3d ea2f f03c
00000090: 4179 63bd 2e76 2e3d 3799 95bc 2b88 a93c
000000a0: 10ff f03c aca3 9d3d 760e 5d3b 4a2e e3bb
000000b0: da24 193d 7121 9d3c eb9a bb3d 9154 ce3d
000000c0: 4c3b a2bc e943 ac3d 8bfb cd3c 2d08 283d
000000d0: ca0e c43d c574 203d 1034 d4bc 5e66 26bd
000000e0: 6f5f 86bd d19e 9a3c cbcf 5cbd 3a3d 8e3d
000000f0: 3634 463d ce3c 02bb d287 f63c 401c 1f3d
00000100: 68b9 3e3d cf45 46bd be59 f23b cd6c 5cbd
00000110: a606 9a3a 8b8f 4d3d 491e 893c 4bfc d63a
00000120: 9caf 8fbd fec6 903b c9af 823d 2864 8bbd
00000130: 6147 e23c 122a b33d b0dc f3bc 6a9a 76bd
00000140: c905 a83d a4d9 0c3d 7a5a 9f3d 8e81 f9ba
00000150: 8a96 af3c cf25 81bd a386 0e3d 7681 683d
00000160: b274 3abd 2fd8 1ebc 6a1a e5bb a673 a83d
00000170: 1f8c e7bb c0aa d73c 84dc cb3d a280 ca3d
00000180: 44de 7d3d bd7b a3bc 2c0c 1dbd 1683 09bd
00000190: 1377 ad3d 31d2 013c 742a a9bc 1d29 8d3d
000001a0: 6a14 a2bd 00ed 5a3d 883e abbd 98a0 263d
000001b0: 088f 253c f461 813d df76 1b3d 328c c13d
000001c0: 5bfd a93c 000b 13bd 2509 773d cc72 df3d
000001d0: ca35 c93c 7378 d33d 7ed4 6ebd 4473 afbc
000001e0: dd05 ff3c 1f39 3e3c cb3b c3bc 36e3 9b3d
000001f0: 7cc0 d8bc 85fd d03d b77f 2e3d 8076 72bd
00000200: 1ef4 893d dbb5 af3d 3c13 01bd acad 8d3c
00000210: 58c2 2a3d 02c7 843d 9fa9 973c 18a5 b73c
00000220: f5f4 4dbc 4d0b 00bd 5f5f dc3d 4822 a93d
00000230: 4334 78bd 088e d23c 5587 683d e68f 40bd
00000240: 1f1b acbc f3d9 e4bc 89a3 56bd c04d b63d
00000250: 8eef 283d 3e1e c43c 0219 913d e13e 3dbc
00000260: 165d b63d f3d5 30bb 7e4e 073c ad51 653d
00000270: 27ba 483d 98c7 3eb9 b38e 93bd 1416 9d3d
00000280: 78ee 8dbd 15c3 52bd 6f15 41bd 0b79 e6ba
00000290: f6ae 843d c6ee 973d f2ac 0fbb 7034 84bd
000002a0: 7fa3 3f3c ac38 ab3d e411 6a3d 5aad 763d
000002b0: dd3b a3bc a275 31bd 6e79 973d 321f f9bb
000002c0: 7e24 ee3c c204 573d 503b 9c3d 0874 883c
000002d0: 2887 a23d e995 aa3d d91a 433d 1bb1 413d
000002e0: 2cff 44bd 8ca3 2dbd e357 c93c 27be b73d
000002f0: 41ba 643c 9d89 573d 6872 073d 27e9 31bb
00000300: 1ed7 25bc 1662 6fbd 59a0 683d 11b4 533d
00000310: 1bc3 8f3c 9325 49bd 236c 26bd a433 7c3d
00000320: 9739 8c3d 3417 393d e905 523d 6a90 733d
00000330: 5bf6 bbbb 74c8 c3b9 5813 2ebd 8fc0 0a3d
00000340: 4b71 23bb 99fd 233d fd3e a43c ca1d 8cbd
00000350: 61d7 16bd 3921 48bd a9ab 91bd 5b40 5abc
00000360: 7182 0e3d cc65 ac3d 3fa5 49bd 91dc 31bd
00000370: a60b 45bd 3799 80bd 84f9 9f3d 91d9 a6bc
00000380: 794f b13d feae a0bc 952a 453d 118f 48bd
00000390: 45e3 273d f69d b6bc c273 7d3c a157 913d
000003a0: e1e3 79bc 129d 7c3d 1709 a93d 7cfd 693d
000003b0: 6e65 c43c 726f 71bc 895b 17bc 844d 733d
000003c0: 6c77 92bd 5dd2 1bbd 0f02 963d 36bd 98ba
000003d0: 1cf4 54bd 6daf 893d 77e7 b5bc 8383 e7bc
000003e0: adfd 253d be8c 71bc 9d49 78bd 33db cc3b
000003f0: 638e 953b 3b67 99bd d2df 9abd 9f2b d73b

bias f4 [16]
-0.022245169 0.046128 0.024123047 0.034872986 0.10007027 0.011165412 -0.018286016 -0.01593601
-0.023432538 -0.036910176 0.09993211 -0.07189945 0.038936272 0.024912324 0.043937027 0.07462616
00000000: 803b b6bc b7f0 3c3d b29d c53c fad6 0e3d
00000010: a4f1 cc3d 22ef 363c 8ecc 95bc 3c8c 82bc
00000020: 98f5 bfbc 202f 17bd 35a9 cc3d 0540 93bd
00000030: a47b 1f3d ee14 cc3c 50f7 333d 9ad5 983d

weight f4 [16, 16, 3, 3]
0.025568418 0.09800422 -0.0015376154 0.0028047455 -0.04536583 -0.031209368 0.08836898 0.024645125
0.00086266536 0.07162998 0.034385428 -0.010442651 0.05509155 0.006769132 -0.060208198 -0.026355473
0.0782223 -0.050914668 -0.07695369 0.033888638 0.07103274 -0.0036649455 0.061325602 -0.015790652
-0.0055908845 0.049762573 0.001191216 0.057714786 -0.0015232709 0.019771716 -0.019124813 0.04212742
-0.0008687215 0.045710284 -0.032328747 0.051872972 0.006408325 -0.0696317 -0.043697443 0.065191865
-0.0032476536 -0.08530222 -0.078675605 -0.080923 -0.051749058 -0.053806882 -0.010766366 -0.012433045
0.006398537 0.070069 0.021353215 0.099155694 -0.0077771777 0.012569778 0.02626158 -0.07199385
0.05696356 0.02843333 -0.03580394 0.008995817 -0.040641475 0.041322436 -0.037729066 -0.007034764
-0.07219904 0.05935126 -0.058052484 0.042784765 -0.02927915 -0.05506348 0.035634793 -0.017608607
-0.037004657 -0.014995962 0.0718399 -0.009144654 -0.03259547 -0.08647968 0.038140822 0.041753218
0.01821515 -0.01642803 -0.036847793 0.014289087 -0.06949053 -0.022431608 0.05711601 0.015039599
0.030469608 0.09278079 -0.029787615 -0.05205013 0.07117085 0.024843642 0.06642426 0.052925576
0.047901742 0.04773094 0.046024572 -0.0059836833 0.06909444 -0.0775101 0.03548779 -0.055706024
-0.08258564 0.06169973 -0.045407847 0.025884874 0.044055186 0.025709065 0.052105334 -0.028761264
-0.004874883 -0.07111528 -0.007848065 -0.082632564 0.0566516 0.042246614 -0.021830339 0.07751434
0.05222748 0.020749576 -0.0677321 0.03624224 0.09455213 0.062932335 -0.04166993 0.016708655
-0.027107123 0.00028237782 0.056396835 0.061003078 -0.013993056 -0.009966656 0.03486646 -0.033650994
-0.016158862 -0.068234 0.09342155 -0.02710635 0.03179861 0.062169734 0.08296336 0.09097414
0.040606234 0.05281533 -0.010403511 0.020055877 -0.054219432 -0.04410468 -0.043257806 -0.03674901
0.05519883 -0.044267543 0.023965713 -0.02173148 0.031144515 0.0064766686 0.07228172 -0.058191806
0.031090733 0.07024383 0.07539302 0.0692819 -0.054623842 -0.03806661 -0.026486145 -0.05801674
-0.05033611 -0.012055348 0.009488898 0.013814644 0.008082887 -0.033852994 -0.04235708 0.039642077
-0.05245072 -0.01384596 -0.007890766 0.03650013 0.04526724 -0.05420092 0.05293008 0.064133994
-0.057513688 -0.063392505 -0.011823645 -0.00400643 0.00729484 -0.019158643 0.020464927 -0.036622595
-0.016242921 0.038823895 0.053949505 0.022332665 0.018879354 -0.05697703 -0.019825118 0.06966981
-0.08001387 0.029691337 -0.06350456 -0.039505713 -0.0439895 0.07211154 -0.07773235 0.0023642732
-0.0075033833 0.06542828 0.046661157 -0.056884263 -0.05576109 0.043415003 -0.058589455 0.059759255
-0.07084867 0.0137714725 0.036373906 0.051948436 0.041304596 -0.026079254 0.049936395 -0.063026674
0.02020411 0.020872017 -0.014015811 0.05177589 0.042188387 -0.02353426 -0.037592564 0.068419404
-0.053354196 0.015308885 0.01268561 0.06415258 -0.039333165 0.079790145 -0.018189607 -0.06421604
0.021543246 0.06071453 -0.012429736 0.08373269 -0.0008752644 0.027753104 0.057534467 0.04400945
-0.0040304204 0.024208305 0.045585223 -0.015147897 0.08472892 -0.0488287 0.084837705 0.03438102
00000000: dc74 d13c 70b6 c83d d089 c9ba d2cf 373b
00000010: 85d1 39bd caaa ffbc ccfa b43d 93e4 c93c
00000020: 7e24 623a bdb2 923d bcd7 0c3d a717 2bbc
00000030: ada7 613d 98cf dd3b df9c 76bd 6fe7 d7bc
00000040: 0333 a03d e68b 50bd e599 9dbd d0ce 0a3d
00000050: 9d79 913d 952f 70bb 8e30 7b3d 665b 81bc
00000060: bd33 b7bb d7d3 4b3d 9422 9c3a 5766 6c3d
00000070: 7da8 c7ba 4bf8 a13c a4ab 9cbc cd8d 2c3d
00000080: eaba 63ba b53a 3b3d 266b 04bd c178 543d
00000090: edfc d13b 119b 8ebd 17fc 32bd 5083 853d
000000a0: 96d6 54bb eeb2 aebd ad20 a1bd f5ba a5bd
000000b0: d2f6 53bd 9b64 5cbd 6965 30bc f8b3 4bbc
000000c0: d2aa d13b 5680 8f3d f0ec ae3c 2412 cb3d
000000d0: b2d7 febb 78f1 4d3c 8622 d73c 8371 93bd
000000e0: 9f52 693d 04ed e83c 27a7 12bd 3163 133c
000000f0: ad77 26bd b741 293d cb89 1abd e183 e6bb
00000100: 17dd 93bd 4f1a 733d 71c8 6dbd 143f 2f3d
00000110: d4da efbc 3e8a 61bd caf5 113d ed3f 90bc
00000120: 3292 17bd a0b1 75bc cc20 933d 75d3 15bc
00000130: d482 05bd 421c b1bd 8d39 1c3d 6c05 2b3d
00000140: f037 953c 1394 86bc b6ed 16bd c61c 6a3c
00000150: 0d51 8ebd 7ec2 b7bc 7af2 693d a668 763c
00000160: 669b f93c db03 be3d 2805 f4bc 8432 55bd
00000170: 06c2 913d e584 cb3c 7109 883d 7dc8 583d
00000180: 9e34 443d 8581 433d 4384 3c3d c612 c4bb
00000190: 6381 8d3d 9ebd 9ebd a55b 113d 002c 64bd
000001a0: a922 a9bd dbb8 7c3d 94fd 39bd 840c d43c
000001b0: 3673 343d d19b d23c 676c 553d be9c ebbc
000001c0: 7cbd 9fbb e3a4 91bd 2c95 00bc 433b a9bd
000001d0: 820b 683d c90a 2d3d 8ad5 b2bc d7bf 9e3d
000001e0: 7bec 553d 04fb a93c 21b7 8abd be72 143d
000001f0: 8ca4 c13d abe2 803d 17ae 2abd 97e0 883c
00000200: c20f debc 1c0c 9439 5e00 673d 5dde 793d
00000210: 2143 65bc 2f4b 23bc 22d0 0e3d a0d5 09bd
00000220: 975f 84bc 44be 8bbd cc53 bf3d 230e debc
00000230: 423f 023d b1a5 7e3d b2e8 a93d a650 ba3d
00000240: b952 263d e354 583d 7d73 2abc 394c a43c
00000250: 3215 5ebd 1ca7 34bd 192f 31bd 2186 16bd
00000260: 2b18 623d e251 35bd be53 c43c 3706 b2bc
00000270: c822 ff3c 3c3a d43b 7008 943d 885a 6ebd
00000280: feb1 fe3c ffdb 8f3d a867 9a3d abe3 8d3d
00000290: 40bd 5fbd bceb 1bbd 79f9 d8bc f6a2 6dbd
000002a0: 3d2d 4ebd cb83 45bc 5377 1b3c d156 623c
000002b0: 166e 043c 70a9 0abd 9e7e 2dbd bb5f 223d
000002c0: 91d6 56bd 2ada 62bc 4548 01bc 2981 153d
000002d0: 246a 393d c901 5ebd 36cd 583d af58 833d
000002e0: 7993 6bbd eed3 81bd f6b7 41bc 5f48 83bb
000002f0: 8e09 ef3b 96f2 9cbc 10a6 a73c 9301 16bd
00000300: e00f 85bc ce05 1f3d 28fa 5c3d fef2 b63c
00000310: e0a8 9a3c bf60 69bd 4968 a2bc 0caf 8e3d
00000320: 50de a3bd 3f3b f33c ae0e 82bd bed0 21bd
00000330: 552e 34bd 37af 933d 2332 9fbd ecf1 1a3b
00000340: f1de f5bb 43ff 853d c51f 3f3d 79ff 68bd
00000350: be65 64bd eed3 313d 7ffb 6fbd 1fc6 743d
00000360: 1c19 91bd bea1 613c cefc 143d e2c7 543d
00000370: 022f 293d 29a4 d5bc 1b8a 4c3d 2114 81bd
00000380: 1783 a53c cbfb aa3c 92a2 65bc f512 543d
00000390: bbcd 2c3d ecca c0bc a9fa 19bd 791f 8c3d
000003a0: ee89 5abd 1ed2 7a3c 4ed7 4f3c 6e62 833d
000003b0: d01b 21bd 0469 a33d 5f02 95bc b383 83bd
000003c0: 767b b03c cdaf 783d 17a6 4bbc 0b7c ab3d
000003d0: 0072 65ba 7a5a e33c 43a9 6b3d 4143 343d
000003e0: 9e11 84bb 7f50 c63c 92b7 3a3d e32e 78bc
000003f0: 5b86 ad3d 9a00 48bd 64bf ad3d 1dd3 0c3d

bias f4 [16]
0.03971667 0.02381852 0.0069071217 -0.074575275 0.038298387 0.028782612 -0.023664791 -0.0829746
0.01598891 0.008225076 0.077521496 -0.05154404 0.021237493 0.08280581 0.035742566 0.09313425
00000000: f2ad 223d 0f1f c33c 2355 e23b ecba 98bd
00000010: c5de 1c3d 83c9 eb3c aadc c1bc 96ee a9bd
00000020: 2dfb 823c 78c2 063c 97c3 9e3d d81f 53bd
00000030: 40fa ad3c 1896 a93d cc66 123d 2bbd be3d
