Baseline/bestKernel_Num_Set_1.pt (torch_old, 254375 bytes, 16 tensors)

weight f4 [32, 3, 3, 3]
00000000: 1112 37be 469c d4bd abc6 a9bd 798e 30be
00000010: d385 fc3c a9ee 983d fec5 eebc 8f16 90bd
00000020: 4264 a43b bc69 22be b4e6 fbbd 309c 20bc
00000030: cb30 293e 5e15 85bd 5247 b83d b849 a6bd
00000040: be5a 68bd 9fab 40be 4294 293e 883b 463e
00000050: 74a9 fb3a a283 033e 0784 273e 33f2 cf3d
00000060: 172d d73d 4d80 35be 1a81 33be 78ec 15be
00000070: 0073 7b3d 8c18 29be e527 15be db71 bcbd
00000080: 3762 34be 8adc bc3a 891e ed3c 6334 e4bd
00000090: 3eee 043e 0caf 92bd 832a 59bd 53d2 173e
000000a0: 759c 2a3e 1cac abbc 3bb6 0bbe 41c8 c2bd
000000b0: 981e d23c d746 e33d 523d c13d e084 b0bd
000000c0: f3fa 3bbe 83e8 2dbe d1a6 7fbd ed1c 413a
000000d0: 18fb b3bd 460f 1dbe 8803 e13c 6f12 15be
000000e0: fafc 0fbe 37ec 18be 2d7d 38bd 5a62 353e
000000f0: 63b4 a83d 82a9 80bc 295d 3f3d b00d 953d
00000100: 4186 42bb 5022 23be 04e5 fabd 8cf0 09be
00000110: b13c 11bc 8160 38be a9f8 1ebd cfa8 97bd
00000120: f0ba 483e ea83 273e 18b5 f33d 9436 913c
00000130: 5e01 63bd 8aac 653d 0424 01be d22a 9abd
00000140: c704 02bd 86fa 52bd 364e 41be 5f88 8f3d
00000150: 3b97 1b3e a641 e7bd 8631 393d aa1b ecbc
00000160: a947 61bc 2c24 943b 3d08 2b3e 8bb3 cd3c
00000170: 1213 fabd dbb9 8dbd 79d1 bf3d ecc1 753d
00000180: 96f9 6d3b 0f75 d4bc 7ba4 9abd 1e7e 98bd
00000190: 19a6 dcbd 0d85 ce3c b646 443d 0397 103e
000001a0: cf2b 4bbd 5ec4 f93b 2b03 f23d b6d5 9e3d
000001b0: f4c7 bb3c 13fb 6b3d b126 083c c9c9 2abe
000001c0: e9ea c43b 2281 32bd 477b 303e 1acf 303e
000001d0: c55f 173d 5082 2e3e 9e78 cbbd 9177 2a3e
000001e0: b63b 263e 3718 16bc 4d54 20be 6921 86bd
000001f0: cd03 5fbd 0480 d93a 20cd 34be 3d76 0b3d
00000200: 62bc a6bd f3e6 59bd d6cd d2bd fab5 2cbd
00000210: 1bca 3abe 0901 d8bd b570 863c 987a 023e
00000220: 8062 343e a21f 14be dcd4 a63d 097c debd
00000230: 5ec8 17be 1a05 09bc 0f06 e1bd 7990 28be
00000240: cedc 37be 308b 02be 1054 223e 3d9d dc3d
00000250: 019a 9abd cc57 04be 8849 1abe 9fab edbd
00000260: 9c21 a9bd 30c0 ec3d e714 803d b8d6 99bd
00000270: 6b2d 073e 3643 f5bd 71cb 20be a384 2c3d
00000280: 57f5 d8bd 8c42 603d b95e 2d3e 3d99 adbd
00000290: ce27 03be 1738 a13d c59a 2bbe ab16 363e
000002a0: dd53 adbd f954 cb3d 9251 16be 6c60 01be
000002b0: 4b7e cd3c dc2a 943d 30e3 1c3e 3b00 2b3e
000002c0: ae0e 9fbb c4c8 a8bc 73e5 193d eeec 1dbd
000002d0: ab17 533c 371a 34be ca48 1bbe ee92 0d3e
000002e0: 2f33 d9bd 4ea5 213e b19b e13c 174b 5a3d
000002f0: 6ca0 393e 8283 d4bd 29b2 debc 42e1 183d
00000300: 8b57 8d3d 007f 3cbe 31c4 923d bfab e1bd
00000310: 78ec e93c 92ad 083e 8bac 57bc 60ec 1939
00000320: b1fe 04bc 1887 2a3e 2290 ec3d d53a 1e3d
00000330: 4396 e1bd 82d3 c9bd b144 233e 8d18 113e
00000340: 81c2 ea3d 9d55 16be 5ecc 1c3e 72d7 78bc
00000350: e591 143e 8667 2e3e 3862 c63c c779 9dbd
00000360: 6aaa 3b3e 0f17 c9bd ad18 033e 6186 3abe
00000370: 7d92 6cbd 8f79 29be c19c abbd 53b2 ac3d
00000380: 70b7 0abe 85cd 2bbe 2de8 0b3e 9efc cf3d
00000390: 6c65 8dbb 8ed5 0bbe f612 53bd 4f83 83bd
000003a0: e5a1 f13d b9c0 81bd ea18 59bd b59c 05be
000003b0: 556b b4bd ca4f da3d ca6c 013e 7752 fa3c
000003c0: 36a4 8ebd 67cf 3f3e 7b75 263d 3d46 90bd
000003d0: 98bb 80bd 1230 bdbc 9eab c23d 66fa 973d
000003e0: 34c2 123e bff3 9fbb bfe2 263e 2c5d 98bd
000003f0: 6932 afbd 5cf9 8dbd b507 37be 93bd febd
-0.17877986 -0.10381369 -0.08289846 -0.17241849 0.030825531 0.07467396 -0.029147144 -0.07035553
0.0050168345 -0.15860647 -0.122998625 -0.009802863 0.1652252 -0.06498216 0.08997978 -0.081195295
-0.056727163 -0.18815468 0.16560462 0.19358647 0.0019200281 0.12843183 0.16358958 0.10153618
0.10506647 -0.17724724 -0.17529717 -0.14640987 0.06138897 -0.1651327 -0.14566 -0.09201404
-0.17615591 0.0014408987 0.028945224 -0.111428045 0.12981507 -0.07162294 -0.053019058 0.14826326
0.16661246 -0.020956092 -0.13643734 -0.09510852 0.025649354 0.11097496 0.09435524 -0.08619094
-0.18357448 -0.16983227 -0.062414948 0.0007366676 -0.08788127 -0.15337858 0.027467504 -0.14557813
-0.14061347 -0.14933859 -0.045041252 0.177133 0.08237531 -0.015705828 0.046719704 0.07278001
-0.0029682072 -0.15931058 -0.122507125 -0.13470668 -0.008864568 -0.18005563 -0.03881136 -0.074052446
0.19602561 0.16358915 0.11899775 0.01772622 -0.055421226 0.05607275 -0.12611395 -0.075276986
-0.031742837 -0.05150845 -0.18877491 0.070084326 0.15194409 -0.11291818 0.045213245 -0.028821785
-0.013749995 0.0045209136 0.16702361 0.025110027 -0.122106686 -0.06920215 0.093661256 0.05999939
0.0036312095 -0.025934724 -0.075509034 -0.0744593 -0.10773868 0.025209928 0.047918998 0.14120106
-0.049602326 0.0076222857 0.118170105 0.07755606 0.022922494 0.05761249 0.008310006 -0.16678537
0.006009449 -0.043580182 0.17234527 0.17266503 0.036956567 0.17041898 -0.09935115 0.16647173
0.16233715 -0.009161047 -0.15657158 -0.06549341 -0.054446984 0.0016593938 -0.17656374 0.034048308
-0.081414 -0.053198766 -0.10293166 -0.042165734 -0.1824116 -0.105470724 0.016411165 0.12742078
0.176157 -0.14465192 0.081460685 -0.108635016 -0.14822528 -0.008363033 -0.10987484 -0.16461362
-0.17955324 -0.12748408 0.1585238 0.10772178 -0.07548905 -0.12924117 -0.15067112 -0.11605
-0.082583636 0.11560094 0.06253987 -0.075116575 0.1320092 -0.1197571 -0.15702607 0.04211868
-0.1059367 0.054750964 0.16930665 -0.084764935 -0.12808153 0.078720264 -0.16758259 0.17782085
-0.08463261 0.099283166 -0.14679554 -0.12634438 0.025084635 0.07234737 0.1532104 0.16699307
-0.004854045 -0.020603545 0.037572335 -0.038556032 0.012884061 -0.17588125 -0.15164486 0.1382558
-0.106054656 0.15785715 0.02754006 0.053294268 0.18127602 -0.103766456 -0.027184563 0.037324198
0.06901463 -0.18407822 0.07166327 -0.11019086 0.02855514 0.13347462 -0.013163696 0.00014679274
-0.008117364 0.16653097 0.11550929 0.038630325 -0.11014988 -0.09854795 0.15944172 0.14169522
0.1146288 -0.14681096 0.15312335 -0.015188085 0.1450878 0.17031679 0.024216756 -0.07689243
0.18326727 -0.09818851 0.12802382 -0.18215324 -0.05775689 -0.16550277 -0.08379508 0.0843245
-0.13546538 -0.16777618 0.13662787 0.10155605 -0.004315069 -0.13655683 -0.051531754 -0.064215295
0.11798457 -0.06335587 -0.053002276 -0.1304806 -0.088095345 0.1065975 0.12639156 0.0305569
-0.069649145 0.18731461 0.04063938 -0.07044647 -0.06285781 -0.02309421 0.0950539 0.074208066
0.14331895 -0.0048813517 0.16297434 -0.07439646 -0.08554537 -0.06932327 -0.17874034 -0.12438502

bias f4 [32]
00000000: 1350 cdbd cc50 58bd c20a 3cbe 6426 1a3e
00000010: 2918 1abd c559 19be 71a7 58bb 0a62 473b
00000020: 0d2c 653d b960 8dbc 723f fd3d 2332 83bd
00000030: bef0 51bd 2e8a 32bd 397b 1e3d 6e81 193e
00000040: 88f5 1cbc 00a3 1e3e 9ec9 1e3e 5b64 cabd
00000050: 653b 4bbc 5176 acbd 4222 a83d 2bd2 92bd
00000060: 2c58 813d 3720 943c e49d 08be 5f51 fbbd
00000070: 9762 39be 5247 d6bd e58b 6f3d cde7 743c
-0.100250386 -0.05281143 -0.18363479 0.15053707 -0.037620697 -0.1497565 -0.0033058787 0.0030423426
0.055950213 -0.017258035 0.12365617 -0.06406047 -0.05125498 -0.04358881 0.038691733 0.1499078
-0.009580024 0.15491867 0.15506598 -0.098824225 -0.0124042975 -0.084210046 0.08209659 -0.071689926
0.063156456 0.018081767 -0.1334148 -0.1227138 -0.18104015 -0.10462822 0.058483023 0.014947844

weight f4 [32, 32, 3, 3]
00000000: 93e3 263d b628 60bd aff5 b1bb edb2 65bd
00000010: c901 80bb 6308 953c 9da1 61bd fd2d 473d
00000020: 9450 b2bc c441 3d3d afbe e4bb 65ae e63c
00000030: 82a9 423d 5a66 8abc 264e 2fbc 8131 d33c
00000040: 914d 36bd 70f1 f13c 0f9f 25bd f599 503d
00000050: 268e 2cbd b332 e5bc 4861 233d ac0c ecbc
00000060: 16a7 423d 2939 193d 69b7 523d d540 7fbd
00000070: 6172 a5bb d17f c4bc deac 2a3c c088 44bd
00000080: 47cb ad3c 3a3d c0bb 5234 09bd fef9 53bd
00000090: 1dbe ec3c 416e b3bc 5483 333d 8ff6 2c3c
000000a0: b6f0 c23c 4a0e 4cbb 2e15 7abc 0f2d 84bc
000000b0: 7dc0 48bd 7ca1 073d 55ff 24bd e8ac f23c
000000c0: c9ef babc c727 083d f4f3 3c3d bafa 20bd
000000d0: 6511 383d 16bf 09bb 2fcc 3fbd 39ad 9f3c
000000e0: b92d 003d e361 463d 8902 7abd ace3 413d
000000f0: d3b7 3b3d aee8 6e3d 2faf f53c fedc 0cbd
00000100: 5bbf 1f3d 370a 463d 0770 dfbc 9262 85bc
00000110: 07e9 273d d652 373d 40c5 063d ea0e 263d
00000120: b578 0dbd 1aca 6abc 173e eebc cc79 df3c
00000130: b3f1 3d3c 0817 3ebd 5a10 24bc 8888 33bd
00000140: 5f50 49bd ef4b 4d3d b297 06bd b19e bc3c
00000150: 0da0 86bc 8a25 76bc 1cbb 41bb a071 303d
00000160: b471 36bc 0bfb 3c3d d9de fe3c 28b9 143d
00000170: 1443 64bd 6b23 02bd 4b0d 5abd 2576 85bc
00000180: 012d 80bc a8fa bf3b be1e 4a3d bb29 aa3c
00000190: 8fca 3ebd c733 2ebd 68bb 223d 2c03 ff39
000001a0: 931a 313c 4796 0ebd 62c3 4fbc d4a9 323c
000001b0: 9364 30bd db8d 093d 610c cd3c 1f1f 1dbd
000001c0: 6e1e ebbc d9b1 8dbc 9c72 cf3b 8c07 ccbc
000001d0: d105 5b3d 6175 72bd fb60 04bd 67de 1ebd
000001e0: 75bb 843c d193 5a3c d4c3 83bc 0d9c 443d
000001f0: b293 3fbd 9c1b be3c c99d 0dbd 7328 52bc
00000200: 84a4 6bbd 16c0 2dbd bd42 3bbd f7f1 d43c
00000210: f6d7 c1bc d9ab 013d 8460 e1bc a433 33bc
00000220: d73b 9d3b 90fd 313d 1374 45bc 9eec ec3c
00000230: 2ed5 4a3c 8468 f93c 751b 023d 99f9 9c3c
00000240: 24f4 62bc 9fb3 4bbc 9785 ce3c 5c5c fc3c
00000250: 1611 b4bb ce2e ce3c 78cd 12bd bdf7 013d
00000260: 6ff3 06bc 64cc 30bd e6ba f6bc 62c9 40bd
00000270: 2342 0a3c 496b 18bd 2bbb a0bc 9b48 17bc
00000280: 74ba 25bd 0b57 85b9 fd50 43bc 8296 673c
00000290: 0661 1a3d bb58 27bd 738d df3c fa56 c8bb
000002a0: f9f3 1cbd 4365 00bd b3d0 2e3c 679c 0e3c
000002b0: 8260 e239 5fda 05bd d4c5 ce3c fd50 3c3c
000002c0: 6a2b 75bd 995d 54bc bc14 93bc eb57 e7bc
000002d0: 03b6 0bbd 1499 33bd f190 803d 75a1 66bd
000002e0: 4258 603d 6690 49bd 4c93 abbc d99a bdbc
000002f0: b868 f3bc cd72 7c3c 54e5 f13c 72b9 2dbd
00000300: ff69 01bd 97af da3c 5fd8 12bc 0e1c 113c
00000310: 8b09 dc3c a215 c6bc ed8a 14bd 2bf0 973c
00000320: 020a cdbc 4673 2dbd 9627 05bd 07c1 f6bc
00000330: 5cc8 643d 0fba 093c 0aa1 bb3c 3c17 943b
00000340: 8a5e 2fbd f482 213d 163d 45bc e158 93bc
00000350: 6327 3c3d d043 07bd 1f7e 173c 1a54 56bd
00000360: 2d83 ca3c ccc9 933c 87d8 58bd ccf8 e13c
00000370: f2b3 863a 203f 0fbd cc68 343d 87d3 9a3c
00000380: 66b9 7a3c bdb7 d3bc d51e 14bd b018 11bd
00000390: 9fa6 973c 7a75 4b3c 7d41 1dbd f91d 4f3d
000003a0: caf8 fe3c c7a7 cfbc 70a8 d83c b8cc e9bc
000003b0: baf3 823c 3ce7 413d 5415 60bd 94b6 07bd
000003c0: da8b e5bb 3266 a23b d668 53bd df6d 2cbd
000003d0: 1f46 10bc 0e96 41bc 62f1 183c e7d0 953b
000003e0: 62f6 1d3c c8a2 593a 350f 823b d574 bfbb
000003f0: 7fdc 9a3c 20a9 1a3d 9cdc 04bd f4e5 06bd
0.040744375 -0.054726325 -0.005430899 -0.05607884 -0.003906463 0.018192476 -0.055085767 0.048627842
-0.021766938 0.046205297 -0.006980739 0.02815933 0.047524936 -0.016894508 -0.010699784 0.025780441
-0.044507567 0.029534072 -0.040434893 0.050928075 -0.04212775 -0.027978277 0.039887697 -0.028814636
0.047522627 0.037408028 0.051444445 -0.062317688 -0.0050490354 -0.023986729 0.010417191 -0.047981977
0.021215094 -0.005866674 -0.033497162 -0.051752083 0.028899247 -0.02190316 0.043826416 0.010556831
0.02379642 -0.0031136447 -0.015263839 -0.016134767 -0.049011696 0.033112988 -0.040282566 0.029623464
-0.022819417 0.03324106 0.04613109 -0.03930161 0.044938464 -0.0021018437 -0.046825584 0.019491779
0.031293605 0.048433196 -0.061037574 0.047336265 0.045829605 0.05832737 0.02999076 -0.034390442
0.03900085 0.048349585 -0.027275098 -0.016282354 0.040993717 0.044756733 0.032902956 0.040541567
-0.034538943 -0.014330411 -0.029082341 0.027279757 0.01159327 -0.046408683 -0.010013664 -0.04383138
-0.049148913 0.050121244 -0.03285951 0.023024889 -0.01643374 -0.015023598 -0.0029560989 0.04307711
-0.011135507 0.04613785 0.031112121 0.03630939 -0.055728033 -0.03177206 -0.053235333 -0.016291687
-0.01564646 0.005858738 0.049345724 0.020771852 -0.046579894 -0.042529847 0.039729506 0.00048639753
0.010809558 -0.034811284 -0.01268086 0.010904748 -0.043064665 0.03358255 0.025030317 -0.038359758
-0.028701033 -0.017296718 0.006330801 -0.024905942 0.053472344 -0.059193972 -0.03231905 -0.03878632
0.016202668 0.013340906 -0.016084589 0.048000384 -0.046771713 0.023206525 -0.034574304 -0.012827027
-0.05752994 -0.042419516 -0.045717943 0.025994284 -0.023662549 0.031658027 -0.027511843 -0.010937605
0.004798393 0.043454707 -0.0120516 0.028921422 0.012379928 0.030445345 0.031764466 0.019161986
-0.013852153 -0.012432962 0.025210185 0.03080576 -0.005495201 0.025168803 -0.03584048 0.031730402
-0.00823675 -0.043163672 -0.030118417 -0.047067054 0.00843862 -0.03721169 -0.019620499 -0.009233619
-0.04046102 -0.0002543259 -0.011921165 0.014135005 0.037690185 -0.040856104 0.027289128 -0.006113884
-0.038318608 -0.03134657 0.010669875 0.008704281 0.00043177983 -0.032678958 0.025240816 0.0114939185
-0.059855856 -0.012961769 -0.017954223 -0.028240165 -0.034109127 -0.04384716 0.062776454 -0.05630632
0.05477167 -0.049209975 -0.02094426 -0.023145126 -0.02971302 0.01540823 0.029528297 -0.042413183
-0.031595226 0.026695056 -0.00896272 0.008856786 0.02686002 -0.024180237 -0.036265302 0.018547138
-0.025029186 -0.04234626 -0.032508455 -0.03012134 0.05585514 0.008406176 0.022903938 0.0045193713
-0.04281477 0.039431527 -0.01203849 -0.017986717 0.045936 -0.033023655 0.009246378 -0.0523263
0.024720753 0.01804056 -0.05294087 0.027584456 0.0010277017 -0.03497231 0.044045255 0.018899692
0.0153029915 -0.02584445 -0.036162216 -0.035423934 0.018512068 0.012418145 -0.038392533 0.050565694
0.031124491 -0.025348557 0.026447505 -0.02854 0.015985359 0.047339663 -0.05470784 -0.033133104
-0.007005197 0.0049560303 -0.05161365 -0.04209697 -0.008805781 -0.011815561 0.009334894 0.0045720222
0.009641262 0.00083021494 0.003969098 -0.005842785 0.018903969 0.037758946 -0.032436952 -0.032934144

bias f4 [32]
00000000: fbca f53c 0c34 0b3d 5c58 243d 42aa eebc
00000010: 9ee6 9dbc fff4 d33c 51e8 8f3c 0a03 903c
00000020: 3f95 2c3b 1fe3 61bd 9643 d73c 877e f8bc
00000030: 8bb7 36bd 7d43 6f3d 3f6b 063d d781 113d
00000040: 3076 a0bc 28a7 b03c 9e39 383c 8b77 2e3d
00000050: 5898 a03b d817 3a3d ed82 a8bc f086 433d
00000060: cd19 843d d302 133c 877e 21bd e521 ae3a
00000070: 9451 5c3d c016 39bd caab abbc c2f7 ad3c
0.030004015 0.033985183 0.04012333 -0.02913392 -0.019275006 0.02587366 0.017566832 0.017579574
0.0026334075 -0.05514824 0.026277345 -0.03033377 -0.044608634 0.05841397 0.03281712 0.035524216
-0.019587606 0.021564081 0.011244206 0.042594474 0.0049009733 0.045432895 -0.020570243 0.04773611
0.064502336 0.008972841 -0.039427307 0.0013285248 0.053788736 -0.04518771 -0.020955939 0.021236304

weight f4 [32, 32, 3, 3]
00000000: 576d 3c3c fd4e 693d 4199 313c 9aaa b93b
00000010: 5027 003c 165c d1bb c8a6 45bd 6bbb 99bc
00000020: 6c42 56bd 204d 3e3d 23e6 8c3b ab53 463c
00000030: fa89 c4ba 398e f3bc c64c 14bd 9184 12bc
00000040: df1b bb3c 18ce 01bd a8f0 0abd 6852 283d
00000050: 0c33 8bbc 3f36 123d 0072 723d d61f 703d
00000060: 82f5 2dbd 9f55 f23b 4276 2fbd 88fc a43b
00000070: a2f9 3b3c c04b b4bc 8dd7 ad3c 750a 4dbc
00000080: bd90 1f3d bc57 773b e051 363d 98c7 303d
00000090: 8e49 883c d079 503c 56d7 a9bc 80bc 03bd
000000a0: 3bcd 3d3d 0843 2b3d 58d7 503c 58b5 4d3d
000000b0: 4d38 063d 8ee1 243d 9811 1abc 3f58 2f3c
000000c0: 782c 52bd 70e7 55bd aee1 f53c 6b43 09bd
000000d0: 3dca 403d dbbe 39bd f8c1 43bd c68e 43bd
000000e0: 96c9 1e3d f77e 13bd a4c8 38bd c514 f03c
000000f0: 17d0 bcbb b225 57bd dee2 333d b871 303d
00000100: c03d 443d 3e9b 1e3d 156e 35bd ea96 c5bc
00000110: de31 a5bc 3f61 5dbd 5ec7 2f3d e98b 92bc
00000120: ac7b b53c 5024 e4bc a5b8 633d ba71 343d
00000130: 6a68 323d 7453 023d e40c 573d 5513 b83c
00000140: f597 583c b834 55bc 1971 5d3d c398 54bd
00000150: dbb9 3b3d 1a6b e339 8e7e ecb9 5d48 05bd
00000160: 70d1 a5bc d516 853c b230 99bc 0729 ac3c
00000170: f1e2 673c 12c3 45bd 4e41 0d3d 39d9 c0bc
00000180: 1ee4 9cbc be78 97bc bc34 a43c 00a0 66bd
00000190: be93 25bd 137d d73c 32e0 83bc 6586 15bc
000001a0: 6f12 4ebd 9dae 053c 875e f73c 5589 95bc
000001b0: 78c0 083c 0dde a83b 548b e3bb 8d48 533d
000001c0: f0d5 ae3c e0f1 8b3c 91a7 8b3b f424 a13b
000001d0: f991 1a3d 457d 583a ffcd 343c 04bf 3c3d
000001e0: 5597 293d f935 babc b57c 4abd e2f6 773c
000001f0: f9ec 27bd 6d88 75bd 891c 323d b99e 3bbd
00000200: 21ed 7b3d 1a65 51bd 0182 37bd 0c0e 173d
00000210: d738 063c c1fa b5bc 9892 d33c d839 0ebd
00000220: c350 dabc c695 4fbd 954a c8bc 3555 37bd
00000230: cc9a 5b3d c00a a0bc 9630 833c 8034 c1bc
00000240: 5817 25bc e8b5 3f3d 3a47 803c 2db4 0a3d
00000250: 0a26 b63c 2994 38bd 2cef 273d a4ef 5b3d
00000260: 4fa8 c03c 129c 4a3d 6eb3 d2bc 0afe 12bd
00000270: 8848 3abd 3243 e8bb 7b9d 4cbb efae febc
00000280: c404 90bc 1484 82bc 9d22 753d 4db8 cf3a
00000290: b595 5c3d 8ff9 1b3c edf7 da3c 4c77 173d
000002a0: 30c8 45bd e4a3 babc 1cd6 2cbd 80ce 723d
000002b0: b715 b43c f654 a8bc b508 30bd 0e93 003d
000002c0: 30e1 883c d89d d1bc dcb1 22bd ee2c ddbc
000002d0: ea38 803c 632f 46bd 43f5 9dbb 7468 153d
000002e0: 8e2e 083d 3cd2 113c 3469 003c 9022 833c
000002f0: 7e9a d23c 4063 583d 747a 983c fe4a 203d
00000300: c0fa 363d 4728 21bd 7e5e cfbc c106 123d
00000310: 2533 813c 481d 02bd 0feb 953c c19f 55bd
00000320: 3905 9cbc e131 163d e74f 983b 21d2 21bd
00000330: 114d 093d cbf4 b03b 9fd9 eabb ed54 57bd
00000340: d424 83bc 53c7 d03b 4b33 00bd e3a0 6d3c
00000350: c734 1cbd 30f4 243d f247 393d a5e3 f03c
00000360: 75b4 6cba 0c57 58bd 215e acbc 4e36 cdba
00000370: b7d4 47bd bffc 553d 42ca aa3c 1c90 4e3d
00000380: 7abc 4abd e125 edbc d62d 653c 208c d837
00000390: 2178 01bd 3554 3a3d 7637 db3c ba75 a1ba
000003a0: fda0 6d3d 3264 64bd f1cd 50bd 0fbc 6a3c
000003b0: b520 673d b7e3 103d 22a1 f8bc ee31 363d
000003c0: de88 063d a8c0 b33b b368 223d 9995 e23b
000003d0: f2e7 c7bb 5302 97bc 91f3 fcbc 8e94 1cbd
000003e0: e036 18bc dec3 29bd 8946 c13c 26c8 783c
000003f0: e259 61bd 4888 25bd e1b0 393d 9b1b e8bc
0.011500678 0.056960095 0.010839761 0.0056660892 0.007821873 -0.0063891513 -0.048254758 -0.018766126
-0.05230944 0.04646027 0.0042998954 0.012104909 -0.0014994734 -0.029730903 -0.03620603 -0.008942739
0.022840438 -0.031690687 -0.033920914 0.041094214 -0.016992114 0.035696264 0.05919075 0.05862411
-0.042470463 0.0073954607 -0.04283739 0.005034987 0.011473091 -0.022008777 0.021220947 -0.0125147
0.038956393 0.0037741503 0.044511676 0.043159097 0.016636636 0.012724355 -0.020732563 -0.03216219
0.0463383 0.041811973 0.012746654 0.05022177 0.032768536 0.04025417 -0.009403609 0.010702192
-0.05131194 -0.05222267 0.030014839 -0.03351156 0.04706787 -0.04534803 -0.047792405 -0.04774358
0.038766466 -0.036009755 -0.04511322 0.029306779 -0.005762111 -0.052526183 0.04391753 0.0430772
0.047910452 0.03872227 -0.044294436 -0.024119813 -0.02016538 -0.05404782 0.04291474 -0.01788898
0.022153698 -0.027849346 0.055596013 0.04405377 0.04355661 0.03181787 0.052502528 0.022470156
0.013219823 -0.013013057 0.054062936 -0.051903497 0.045831542 0.0004337661 -0.00045107718 -0.032539714
-0.02024147 0.016246239 -0.018699978 0.021015657 0.014153228 -0.048281737 0.034486108 -0.02354108
-0.019151744 -0.018490192 0.020044677 -0.05630493 -0.0404241 0.026304757 -0.016098116 -0.00912628
-0.05031055 0.008159307 0.030196441 -0.018253962 0.008346669 0.0051534236 -0.0069440994 0.05158286
0.021342248 0.017083108 0.004261919 0.0049177352 0.037736867 0.00082584127 0.011035441 0.046080604
0.041404087 -0.022730814 -0.049435336 0.015134545 -0.04099748 -0.05994456 0.043484244 -0.045805667
0.06150544 -0.05112181 -0.044801716 0.03687863 0.008192263 -0.022214295 0.025826737 -0.034723133
-0.026649838 -0.050679944 -0.024449626 -0.044758994 0.053614423 -0.019536376 0.016014379 -0.023584604
-0.010076366 0.04680434 0.015658963 0.033863235 0.022234935 -0.04506317 0.040999576 0.053695336
0.023517756 0.049465246 -0.025720324 -0.0358868 -0.045479327 -0.0070880884 -0.0031221795 -0.031089274
-0.017580397 -0.01593212 0.059847463 0.0015847773 0.05385371 0.009519949 0.026729548 0.036979005
-0.048286617 -0.022783227 -0.042196378 0.059278965 0.02198301 -0.020548325 -0.042977054 0.031390242
0.01670894 -0.025587961 -0.0397204 -0.026998963 0.015652139 -0.048385035 -0.0048204972 0.036476567
0.033247523 0.008900221 0.007837582 0.016007692 0.025708433 0.052829027 0.018613078 0.039134018
0.044672728 -0.039345052 -0.025313612 0.035650972 0.015771458 -0.031766206 0.018300561 -0.052154306
-0.01904546 0.036668662 0.004648197 -0.039507035 0.033520762 0.0054002753 -0.0071670557 -0.052571226
-0.016008772 0.0063714175 -0.031298917 0.01450369 -0.03813627 0.040271938 0.045234628 0.029405424
-0.0009029576 -0.05281739 -0.021040978 -0.0015656443 -0.048786845 0.05224299 0.020848397 0.050430402
-0.04949615 -0.028948726 0.013987979 2.5814457e-05 -0.031608704 0.045490462 0.026759844 -0.001231841
0.05801486 -0.055759616 -0.05097765 0.014327063 0.056427676 0.035373416 -0.030350272 0.04448121
0.03284537 0.005485613 0.03965063 0.006914806 -0.006100648 -0.018433725 -0.03087786 -0.03822761
-0.009290427 -0.04144656 0.023593204 0.015184438 -0.05501736 -0.04041317 0.0453347 -0.028333476

bias f4 [32]
00000000: 7b63 c33c 635f 47bc caad 473c 92df 91bb
00000010: 7d3c 4dbc 697d 4ebd f08b 183d 8c2d 30bd
00000020: f6e0 fc3b 0c6f 263d ea31 783d d229 03bd
00000030: 3342 5d3d bc75 05bd e412 e7bc 4dbf 843b
00000040: c615 a6bc f658 2abd eaa7 8c3c 54cc 583d
00000050: 8c25 2e3d 0e49 b03c 596b e23c 3471 353d
00000060: b69a f6bc 7968 2e3d 314b 8b3c 16f8 3e3d
00000070: 27c4 62bd 2664 693c d288 ddba 3309 e8bb
0.023851147 -0.012168738 0.012187431 -0.0044517005 -0.012526629 -0.05041257 0.03724283 -0.043012187
0.007717247 0.040633246 0.060594477 -0.032022305 0.05401821 -0.032582983 -0.02820725 0.004051125
-0.020274054 -0.041588746 0.017169911 0.052929237 0.042516276 0.02151921 0.027639078 0.044297412
-0.030103069 0.0425801 0.017003627 0.046623312 -0.055362847 0.014245069 -0.0016901738 -0.0070811748

weight f4 [32, 32, 3, 3]
00000000: 8a4a 16bd e08b 87b8 f8b6 e7bb ba1b 64bc
00000010: 57ec 613d b158 3ebd bed2 453c 53a1 053d
00000020: 1ab3 8b3c bdcd 403d e671 623c ecb4 303d
00000030: f05a 0c3d 07c4 05bd fd84 35bd ccf9 bbbc
00000040: ed42 e3bc c206 1bbd 7db4 9b3c 71fb 22bd
00000050: 0776 16bd bcf8 68bc 2045 4abd 6785 fcbc
00000060: 0b37 e2bb 163b 213c ee35 ff3c 7a6c 663d
00000070: 3117 00bc d3b0 01bd c4e7 06bd 563f 1fbd
00000080: 4425 293d 437b 643d 6e8e 973c 1d77 913c
00000090: fd19 d43c 24eb 3d3d 4e3d 223d 00f4 3b3d
000000a0: 68cf da3c 9d4a 663c c407 10bc da23 313d
000000b0: 0231 c13c d817 2f3d fe06 7e3d f011 4d3d
000000c0: 10ac 773d 20fc 4e3d 509b 0bbc 7e8d 85bc
000000d0: 2405 9b3c 6a1b 2f3d 1170 2ebd 9033 c63c
000000e0: fcf4 083d 1209 b3bc 0179 bebc e4f7 a8bc
000000f0: fca2 833d 1c92 6a3b 8ffe d9bc 1518 0f3d
00000100: add9 0bbd cc0e 4fbd 18fe 383d ec7a c83b
00000110: c8d9 2d3c d279 153d f819 dfba b077 4f3a
00000120: fed7 cfbb 328f 0c3d 15de 1cbc 7620 e13b
00000130: de46 19bd b5f5 9fbc 5127 34bd f94f 403d
00000140: f430 653d 1d9b f43c a85c e73c 5562 acbc
00000150: 4f69 d33c 5777 fc3c 3450 7c3d 733f 2abd
00000160: 0243 eebc 43b9 bcbc 064b 5d3d 6964 bd3b
00000170: 7c23 5a3d fd4e 7cbc 565f 12bb ca02 7e3c
00000180: c8e7 16bc 3914 533d 0cd5 453d 8803 2dbd
00000190: c2e0 b6bc fb07 0b3d 9e51 033d c43c 05bb
000001a0: 8da5 2b3d 1e72 2e3b e44d 56bd 0cab 7fbc
000001b0: 8a90 453d 5dca cabb bd32 17bd c7f8 dabb
000001c0: 6a82 e7bc a1fb fd3c 9b08 d13c 20a4 a6bc
000001d0: abd4 b73c 7936 3a3d 79a3 483d 334b 493c
000001e0: 1190 d73c 341e a8bc 4c3d 20bd 6b0d f63c
000001f0: 158c a93c 4393 523d 2034 c63b 9574 2e3d
00000200: b44d 2d3d 37b0 093c 4a8c e7bc c133 30bd
00000210: e178 403d 0518 4dbd f5ca 063d f1fc bcbc
00000220: 8f80 88bb f539 0b3d 2499 68bd cbdc 2c3d
00000230: 79c1 a23b 5a5a 213d 7e00 793c 26c4 033d
00000240: 8874 1bbc aa7d a2bc 6bad 083d 1809 44bd
00000250: e36f 12bd 2c32 eb3b 92c7 6f3d b361 ad3c
00000260: b7d8 9cbc 60c5 1a3d 2734 fb3c 700f d73c
00000270: 4d8f 753d ea0f 4c3d 444a cd3c b6fd 60bd
00000280: ff4c f53c ec3a 153d 0525 ebbc a045 263d
00000290: 55ac 843d 8f3d ca3c d869 3d3d 6e79 273d
000002a0: 64a6 80bb 83f8 3dbd 0715 94bc cbfb 233d
000002b0: 20fc 1cbd 67e2 6c3d c3fc 923c 295b 60bc
000002c0: 134f 533d e8ad 2cbd 0436 2a3b 0608 54bd
000002d0: a5e5 0d3d 1220 6c3c 1b80 3a3d 9ed6 c0bc
000002e0: e361 4d3d 9c87 55bd b6c1 633d 5404 013d
000002f0: c64e bf3c 98e3 22bd b21a d0bc 382f 78bb
00000300: df37 153d 8e7e 493d 8eb9 763d 2466 943c
00000310: 6430 11bc 78eb 33bd 4b03 d23b ac71 763c
00000320: c398 8bbc 9c94 d93c eedb 13bd 6e11 7f3c
00000330: e456 8a3b 47c3 1bbd f631 44bd 989c 2fbd
00000340: 75e7 763d 351f 8fbc ea18 9d3c 63d7 6ebc
00000350: d806 793c 4ef4 36bd 0614 023d c144 533d
00000360: 2531 cdbb 27e6 8b3a 80e7 4bbd c235 1dbd
00000370: ce67 3abd 3cb2 573d b781 dbbb 22cb 773c
00000380: 48d9 fcbb 3ca7 033d 8945 433d 0ac6 21bd
00000390: 5ca7 11bd 2447 52bc ee58 013c 52ec e5bb
000003a0: c9b5 ef3c 32d7 fb3c 9374 9c3c 9d65 34bd
000003b0: d83a f2bc bc9c 163d cfe1 7dbc 20a6 0cbd
000003c0: bdf3 f2bb a6d3 513d 4779 a83c a5b5 93bc
000003d0: d190 653d dde0 7bbb 8b9e 5f3d 3f8f 823d
000003e0: 5809 1dbd a0eb ccbb 9c4d 523d 43d4 4cbd
000003f0: ab60 473d b1d5 5f3d cc3c 7d3d 6334 7abc
-0.03669218 -6.4633554e-05 -0.007071372 -0.013922626 0.055157032 -0.0464713 0.012074171 0.032624554
0.017053176 0.047071207 0.013821101 0.04314129 0.034266412 -0.03265765 -0.04431628 -0.02294626
-0.027741874 -0.03784824 0.019006962 -0.039790574 -0.036733653 -0.014219459 -0.04938233 -0.03082533
-0.0069035343 0.009840747 0.031153645 0.056255795 -0.007818029 -0.031662773 -0.032935873 -0.03887876
0.041295305 0.055781614 0.018500533 0.017756993 0.025891298 0.046366826 0.039609246 0.045886993
0.026710227 0.014055875 -0.008790914 0.04324708 0.023582939 0.04274735 0.062018387 0.050065935
0.060466826 0.050533414 -0.008520916 -0.01630282 0.01892335 0.042750753 -0.042587344 0.024194509
0.03343676 -0.021854911 -0.023251059 -0.020626016 0.06427571 0.0035792654 -0.02661064 0.034935076
-0.03414314 -0.05055122 0.045164198 0.006118169 0.010611005 0.03649313 -0.0017021289 0.0007914258
-0.006342887 0.03431625 -0.009574433 0.0068703247 -0.0374211 -0.019526342 -0.043982808 0.046951268
0.05595489 0.02985912 0.028242424 -0.021042982 0.025807051 0.030818624 0.061599925 -0.041564416
-0.029084686 -0.023037558 0.054026626 0.005779792 0.053256497 -0.015399692 -0.0022334657 0.015503595
-0.009210534 0.051532958 0.04829888 -0.042239696 -0.02232397 0.033943158 0.032060258 -0.0020330409
0.04190593 0.0026618312 -0.052320376 -0.015604746 0.048233546 -0.0061886744 -0.036913622 -0.0066824886
-0.028260428 0.031003775 0.025516799 -0.020341933 0.022440275 0.045462105 0.048984025 0.012285995
0.026313813 -0.020522214 -0.039120957 0.030035695 0.02069668 0.05140997 0.0060486943 0.04259165
0.04231043 0.008403829 -0.028265137 -0.043018106 0.04699028 -0.050071735 0.0329084 -0.02306983
-0.004165716 0.03399082 -0.05678667 0.042202752 0.0049669114 0.039392807 0.015197871 0.032169484
-0.009488232 -0.019835312 0.03336851 -0.047860235 -0.035751235 0.007177612 0.058539934 0.02116475
-0.019146306 0.037785888 0.030664517 0.026252478 0.059951115 0.049819864 0.025059827 -0.054929458
0.029943941 0.036433145 -0.028704176 0.040593743 0.06478182 0.024687557 0.04624352 0.04088729
-0.0039260853 -0.046379577 -0.018076433 0.04003505 -0.038326383 0.0578331 0.017942792 -0.013693609
0.051589083 -0.042158037 0.0025972137 -0.051765464 0.034642834 0.014411943 0.045532327 -0.023539837
0.05014218 -0.05213128 0.05560466 0.03149827 0.023352992 -0.03976783 -0.025403354 -0.0037869941
0.036430236 0.049192958 0.060235552 0.01811511 -0.008861635 -0.043925732 0.006409084 0.01504175
-0.017040616 0.02656012 -0.036098413 0.01556812 0.004221784 -0.038028028 -0.04789921 -0.04287395
0.06027933 -0.017470935 0.019176919 -0.014577719 0.015199386 -0.04466658 0.031757377 0.05157924
-0.006261962 0.0010673449 -0.049781322 -0.038381346 -0.045509152 0.052660212 -0.006698813 0.015124114
-0.0077163316 0.03214191 0.047673736 -0.039495505 -0.035559997 -0.012834344 0.007894738 -0.007016697
0.029261487 0.030742262 0.019098556 -0.04404222 -0.029569075 0.036770567 -0.0154957315 -0.034338117
-0.00741431 0.051227234 0.020565642 -0.01803095 0.05604631 -0.003843359 0.054594558 0.06374978
-0.03833899 -0.0062536746 0.051343545 -0.050007116 0.048676174 0.05464715 0.06182556 -0.015271279

bias f4 [32]
00000000: 9f58 30bd 7db8 643d ce02 e9ba 573c abbb
00000010: 1756 b53c f115 18bc 2a6d 953a 3436 1ebd
00000020: 0cb2 b43b fc28 36bd 6f33 6abd f041 e1bc
00000030: ebef 54bc b700 443c 25af f3bc ac1d 5c3d
00000040: 5ab9 7d3d 3e79 79bd f5d9 07bc 6bc0 2ebd
00000050: 79d2 223d 385b 95bc e5b9 173d 4066 47bd
00000060: cc8f a3bc 8781 813c 041a 553c 4a18 263c
00000070: 061e 163d a4a9 b2bc 2d1a 2dbd 88de 2c3d
-0.043053266 0.055840004 -0.0017777325 -0.005225699 0.022135777 -0.009282575 0.0011400331 -0.03862591
0.005514389 -0.04447268 -0.057177957 -0.027497262 -0.012996654 0.011963061 -0.029746601 0.053739235
0.061944343 -0.06090664 -0.008291711 -0.042663973 0.039751504 -0.018231973 0.037042517 -0.048681498
-0.019966029 0.015808834 0.013006691 0.010137627 0.036649726 -0.021809407 -0.04226129 0.04220441

weight f4 [32, 32, 3, 3]
00000000: d3a3 1dbd 33c8 83bc 9cb4 ef3c e121 533b
00000010: 15cb ae3c 62c4 73bd 5f7c 3ebd 2d2b 203d
00000020: 0e58 283d 6555 723c dad4 733d 7efb 93bb
00000030: 7ba1 603d 5e33 07bd 27af 27bd a654 cb3c
00000040: e9c8 d4bc 7dd0 9a3c 66c1 9f3c 3246 493d
00000050: bea7 42bd 4ee6 1ebd 5635 023d fa34 083b
00000060: bbeb bf3b daa7 80bc c061 513d c8c1 b0bb
00000070: 0ef5 b5bc e8d4 5e3d fcf8 efbb c8ec 0c3d
00000080: f75d babc 2c1a ce3b 7e65 82bb 7337 083d
00000090: 7cbe f7bc 4bba 2dbd f304 58bd 32fb 0dbd
000000a0: acfb 24b9 9318 5c3c 48b5 6c3d 2672 083d
000000b0: 927f bdbc aad7 78bc dec4 543c 4e34 403d
000000c0: b093 47bd 479a 13bc 8394 81bd cbe0 03bd
000000d0: 9e95 a63c dcd4 d33a 868a 20bd 963a 26bd
000000e0: 1d23 2a3d ab2a 2c3d 1641 edbc a0ab 0cbd
000000f0: 1e63 20bd 0e6a 483d 45f4 96bb 703b 493d
00000100: 5e17 583d d89f 02bd cf88 24bd 2e9d 1bbd
00000110: 92cf 4a3d 3e14 1dbd c54e 18bd 01a2 3a3d
00000120: 18bc 0fbd 7126 06bd 809d ecbc 5ece 06bd
00000130: 5f4d 813d 2a7a 3a3d 5d5a 583d 6bff 3c3d
00000140: 3636 be3c 16f7 4fbb d367 fe3b 8a3b 923c
00000150: 7c7f 233d e5be 243d 4c62 513d 94e5 50bc
00000160: d04a 5e3d c516 66bc af9e a33c 5e70 9e3c
00000170: 0047 253d 5284 3e3c d2d6 423b 1728 c4bb
00000180: aab7 9bbc 9885 343d e0b9 393d ed8f 9c3c
00000190: b279 f2bc c105 9c3b 4e24 c8bc 3926 933c
000001a0: 4504 ca3c acf0 443d c5a0 153d c9aa 6abd
000001b0: d891 edbc c6fa e63c 8e0d 633d b0dd 1cbd
000001c0: cee4 cbbc b49e fd3c 7d5d a0bc b913 4f3d
000001d0: cbc0 9cbc 3aa0 2a3d 526f c23c fab6 47bc
000001e0: 4814 15bd b33d 233d 6c07 4abd da51 d1bc
000001f0: 71e3 48bd 222c 6d3d b79d 163c 4177 cbbb
00000200: 3651 ac3c 3db8 6c3d ca76 093d 5766 543d
00000210: d440 02bd 3b9f e6bc 56b6 3b3d 69a3 083d
00000220: f64f c4b9 0bc1 4d3d 30db 2fbd e287 203d
00000230: f6bc 19bd 5c10 0cbd 6013 5b3c a3ea 443d
00000240: 6d87 393d 0042 503c 1d28 0e3d 51a5 b7bc
00000250: b80c 6d3d 2ebf 2c3d 9f95 d13c 76d2 833d
00000260: 611f 13bc 40c7 d9bc 14b4 16bd 7940 fa3c
00000270: 868d 42bd ecec 8b3b 1f95 743d a0fc c4bc
00000280: c347 cbbb f8dd b33c 91db 17bd 7852 1cbc
00000290: 1b23 ce3c 5069 0a3d 7a20 5dbd a55e 64bd
000002a0: c2ac f03c cd1e c03c a62e 1abc 850c 42bd
000002b0: 77d1 293d 3129 3e3d 72a1 fdbc 8aee 083d
000002c0: aca7 233d 4094 ce3b 2d27 1abc d582 0bbd
000002d0: 3887 833d 21c1 393d 3c8e 263d 818c 6f3d
000002e0: 21e6 8cbb d2e7 f93b d4e0 613d 0a84 5b3d
000002f0: 5d6f ce3c ba90 793b 4db3 16bc df10 01bb
00000300: 64a1 053d 3e41 223d 72a5 48bc 8a2c 30bd
00000310: 71c3 4a3a e96d 34bc df8e 593d c6b0 63bd
00000320: c920 a23c d1b9 e53c d964 d63c 24d0 bc3b
00000330: 5ab5 a0bc 6f3c 64bd e101 a63c a582 63bd
00000340: 63cc 71bd 90a0 35bd 2ad1 c03c 8e47 4a3d
00000350: 7957 0e3b 5481 febc 9e30 53bd 8f1a bebc
00000360: 80ee 65bd 5030 90bc 37f1 ebbc f84a 28bd
00000370: 8dc7 7bbd 51a6 6bbc 8ee3 23bd 6237 a83b
00000380: 4526 0f3b eabd bbbc 5cd9 0d3c 0384 52bc
00000390: a19c 04bc 8003 683d 25a0 7b3d 6641 24bd
000003a0: 027c 0dbd 796a ce3c e67e a7bc 0393 c93c
000003b0: 77fa d03c 0435 153d 39ce 53bc 512c 85bc
000003c0: 78ca f53c a730 64bd f787 153d 6c39 4abd
000003d0: 76a8 8abc fafe cfbc dbb8 e9bb 8cb8 523d
000003e0: 7017 74bd 6978 79bd 92a4 b23c 8b21 a03b
000003f0: 8364 44bd 432e 0bbd 49b8 333d f113 7a3c
-0.038486313 -0.016086673 0.029260926 0.0032216238 0.021337071 -0.059513457 -0.04650533 0.039103676
0.0410996 0.014790867 0.059529163 -0.004516064 0.0548415 -0.033007972 -0.040938523 0.024820637
-0.025974708 0.018898243 0.0195014 0.04913921 -0.047523253 -0.038793854 0.031789146 0.002078353
0.0058569587 -0.015705038 0.051118612 -0.0053941943 -0.022211578 0.054402262 -0.0073233824 0.0344055
-0.022749884 0.006289741 -0.003979384 0.033256005 -0.030242197 -0.04241399 -0.052739095 -0.034663387
-0.00015734014 0.013433593 0.05779007 0.033311985 -0.02313212 -0.015188137 0.01298639 0.04692488
-0.04872483 -0.009008951 -0.063271545 -0.0321968 0.020335015 0.001616146 -0.039194606 -0.040583216
0.041537393 0.04203288 -0.0289617 -0.03434336 -0.039157026 0.048929267 -0.004606756 0.04912895
0.05275666 -0.03189072 -0.040169533 -0.037991695 0.04951436 -0.038349383 -0.037184495 0.045564655
-0.03509149 -0.032751504 -0.028883696 -0.03291165 0.063135855 0.04552666 0.052820552 0.046142023
0.02321921 -0.0031732968 0.0077638417 0.017850656 0.0399165 0.040221114 0.051119134 -0.012750048
0.054270566 -0.014043515 0.019973127 0.01934069 0.040350914 0.011628227 0.0029730094 -0.0059862244
-0.019008476 0.044072717 0.04534328 0.019111598 -0.029599044 0.004761428 -0.024431374 0.017962562
0.024660239 0.048081085 0.036530275 -0.05729178 -0.029000208 0.02819575 0.05543285 -0.038297355
-0.024889376 0.030959465 -0.019575829 0.05055592 -0.0191349 0.04165671 0.023734722 -0.012189621
-0.036396295 0.039853763 -0.049323484 -0.025551725 -0.04904503 0.057903416 0.009192876 -0.0062092845
0.021034818 0.05779289 0.03356055 0.05185541 -0.031800106 -0.028152099 0.045828186 0.033358965
-0.0003744361 0.05023293 -0.042933643 0.039192088 -0.037533723 -0.03419529 0.013371319 0.04807533
0.045295168 0.012711048 0.034706224 -0.022417696 0.057873458 0.04217451 0.02558404 0.064366266
-0.008979649 -0.026584268 -0.03679283 0.030548321 -0.04749825 0.0042701866 0.059712525 -0.024046242
-0.006203623 0.021956429 -0.03707463 -0.009541146 0.025163224 0.03379184 -0.05398605 -0.055754323
0.029379252 0.023452187 -0.009410536 -0.04737522 0.041459527 0.046426002 -0.030960772 0.033430614
0.039954826 0.006304294 -0.009408754 -0.034060318 0.06422275 0.045350198 0.04066299 0.058483604
-0.0042998944 0.007626512 0.055146053 0.05359272 0.025199587 0.0038080649 -0.009198022 -0.0019693894
0.032624617 0.039613 -0.0122464765 -0.043011226 0.00077348115 -0.011012533 0.053114768 -0.055588506
0.019791024 0.028042706 0.026171135 0.005762117 -0.019617725 -0.055721696 0.020264568 -0.055544514
-0.05903281 -0.044342577 0.023537237 0.049384646 0.0021719618 -0.031067528 -0.051560037 -0.023206023
-0.056135654 -0.017601162 -0.028801544 -0.04108712 -0.061469603 -0.014382915 -0.040011935 0.0051335553
0.0021842879 -0.022917707 0.00865778 -0.012848857 -0.008093984 0.056643963 0.061432023 -0.04010143
-0.03454209 0.025197254 -0.020446252 0.024606233 0.025510056 0.036427513 -0.012927585 -0.016256483
0.030003771 -0.05571046 0.03650662 -0.049371168 -0.016926032 -0.025390137 -0.007132632 0.05144553
-0.059592664 -0.060905848 0.021806989 0.004886811 -0.047947418 -0.033979665 0.04387692 0.015263543

bias f4 [32]
00000000: 77f3 343d 2376 ac3c 02a5 b9bb 0e10 09bd
00000010: 87ca ccbc 1f22 0abd e877 ea3c 2ebd 493d
00000020: ad05 183d daf1 13bd de61 e13c d08e df3c
00000030: 2852 b4bc 1c16 4d3d 20c4 2ebd 10d3 ea3c
00000040: b309 173d bd3d c4bc 3520 3d3d b39d 80bc
00000050: 62cd 5b3d ecdf 5e3c a876 f0bb ae43 27bd
00000060: 257f febc 25f5 073d aa6c 1fbd c0f6 c73b
00000070: 7125 063d 8855 c8bc 9494 c2ba 56d3 2b3c
0.0441775 0.021052426 -0.0056654224 -0.033462577 -0.024998916 -0.033723947 0.028621629 0.04925268
0.037114788 -0.03611932 0.027512487 0.027289778 -0.022011831 0.050069913 -0.042667508 0.028665096
0.036874484 -0.02395522 0.046173293 -0.015700197 0.053662665 0.013603192 -0.0073383637 -0.04083603
-0.031066487 0.033192772 -0.03892199 0.006102413 0.03275055 -0.024454847 -0.0014845305 0.010487398

weight f4 [32, 32, 3, 3]
00000000: 2afe 17bd c548 aa3c 4416 bdba 69c3 15bd
00000010: b011 2ebd 1356 843c c66b 2dbd 749f 473d
00000020: 5af5 253d 45e0 9e3c 0711 2f3c 530e 08bd
00000030: 90f0 d6bc 30a9 003d ba57 d0bc 7d5a 37bd
00000040: 4c03 2bbd 79a5 603d b0b2 abbc 10a0 66bc
00000050: 139a d83c b3b3 f6bc 1e48 90bc 4142 993b
00000060: b006 3c3d 59a3 1cbd 7cfa 143d 15dc 3fbd
00000070: 2991 063d 4e9b 16bd 080c 3d3c e564 413d
00000080: 3741 a0bc 5515 32bc 4348 debb 73da 76bd
00000090: 026f 11bd 64bf 0fbd 18ba 0b3d 816a 413c
000000a0: a6c2 4c3d a664 e23a a7b7 703d 6f67 d33c
000000b0: 051d ba3c 3be6 733c 7458 d5bc 47a3 5b3d
000000c0: 9492 173d e943 bfbc 8151 ea3c 2841 1b3d
000000d0: 0435 993c f2c6 2c3d 4cb6 373d b824 43bd
000000e0: 0ce2 293d 6288 fabc c870 8cbb 3bbf fbbc
000000f0: 9ba9 98bc 31c1 b33c 7560 293d c17d e5bc
00000100: 7dcf d53c dcc4 1e3d 3684 693d 2b7f 2c3d
00000110: c8f9 143d e69c b3bc a021 4ebc 8ccc a93c
00000120: 0895 013c 65d1 24bc 5005 2e3d 666a 21bc
00000130: 8971 40bd f524 d2bc 4d3a 463d 1f2a 44bd
00000140: cd00 94bc 69f8 8c3c 9eed 313d 4882 453d
00000150: da60 d83c 8add 63bc bbf4 3b3d ae61 c0bc
00000160: 1dc5 eb3c 2fd1 203c 8813 2fbd 8c6c 263d
00000170: 6f97 4d3b 6845 9538 ce6b be3c 0e1d 403d
00000180: ac26 d2bc a532 fb3c beaf 593d 3038 223d
00000190: e841 cbbb a602 c93c 0fa5 40bd 3b40 133d
000001a0: 647c 76bd 2951 95bc 381a b13a 4dc7 3abd
000001b0: 3d14 02bd c7d2 0bbd e3bb e4bc 7508 8fbc
000001c0: 202c 203a 4c1d 1dbd 6e77 603d 7ef5 0cbd
000001d0: 3559 56bd 0a20 da3c 13e1 273d a5fd 26bd
000001e0: ab49 30bd 1b3a a8bb 8c6b 2ebc b649 153d
000001f0: 0696 dc3c 6d92 6fbd 32f4 4b3d ede0 90bc
00000200: a218 27bc cb17 273d 2181 34bd 03bb 023d
00000210: 9b55 3dbd ce16 b5bc f740 16bc 4095 15bd
00000220: 078f 963b 3566 1f3d cc93 16bd 8278 0ebd
00000230: 8665 afbc d2f5 583c a4bb 7fbd 2a89 013d
00000240: 668b 45bb 52e2 7f39 207e 22bd 0f9c 2fbd
00000250: d772 3abd d120 97bc 1fed 363d 01f9 2fbd
00000260: dd23 383d 1084 0abb 1485 d63c faf7 45bc
00000270: 36de 66bb 01cf ad3c 9d4a 87bc c197 a33b
00000280: 4fa4 debc 07b5 d03c e373 653d 9713 62bc
00000290: efef 91bc e415 57bd 772a fe3c 4284 0fbd
000002a0: 65b4 44bd fc68 fb3c 484b 093c 696e 593d
000002b0: c842 9d3c 54e6 0c3d 91d3 41bc a54f c1bc
000002c0: e549 5ebd 4a52 7cbd 9382 293c 92b5 39bc
000002d0: 4e1b 7f3d 763f ebbb 7a91 36bd 97c7 753c
000002e0: 1d73 24bd 6a18 19bd 2322 0a3d adf4 0d3d
000002f0: bd1c 06bb a050 f73c c3ca 363d 3077 753a
00000300: 9b62 9e3c 489d 643d b829 e6bc 0b1b 07bc
00000310: c333 513c 7f16 da3c f55d 2e3d bf15 5fbc
00000320: b5dc 163d 4aeb 553c bc74 1abd af65 95bc
00000330: c34f 0eba 7b37 50bd 2c36 aa3c c324 edbc
00000340: fbd7 e4bc 465a 633c 55a7 83bc aece 0c3d
00000350: 28a4 e53a 45d4 7dbc 8866 2c3d 98b0 e7bc
00000360: 8bc7 3d3d 5c76 f5ba a6c2 183d 242a 0b3d
00000370: 965f a2bc fa62 53bc 9051 ddbb 2ac5 043d
00000380: 6411 5fbc d7b8 37bc 4996 1a3b 61ab 32bc
00000390: fb1a 5c3d 86fe 723d e248 c3bc 1c6d 6a3d
000003a0: 9ebb 7e3d ee22 14bd 5903 823c 0ffc 3cbd
000003b0: 65b6 3bbd 37c4 2c3d c8af e0bb 1b81 f1bc
000003c0: 30aa 48bc b3fa b3bb 05f1 14bd 95c5 a93c
000003d0: 8edc 903c 09ad 343c 4013 9dbc c2ac 1fbd
000003e0: 89d0 dcbc 8f2d 653c 9ca1 21bd c62a 0b3d
000003f0: a50e 80bc 4eee c3bc ad23 833c a8b0 50bd
-0.037107624 0.020786652 -0.0014426191 -0.03656331 -0.042497337 0.016154325 -0.04233911 0.04873605
0.04051719 0.01939405 0.010685212 -0.033216786 -0.026237756 0.03141135 -0.025432456 -0.04476403
-0.04175119 0.054845307 -0.020959228 -0.014076248 0.026440656 -0.030114984 -0.017612513 0.0046770875
0.045904815 -0.038241718 0.036371693 -0.046840746 0.03285328 -0.036769204 0.011538513 0.04721536
-0.019562347 -0.010869344 -0.0067835166 -0.060266923 -0.035506256 -0.035094634 0.03411302 0.011805178
0.04999032 0.0017272427 0.058768895 0.025806157 0.022718916 0.014886434 -0.026043154 0.05362251
0.037005022 -0.023347812 0.028603317 0.037903935 0.018702038 0.042181917 0.044851586 -0.04764244
0.04147534 -0.03058261 -0.0042859055 -0.030730834 -0.018635562 0.021942707 0.041351754 -0.028014066
0.026099915 0.03876196 0.05701085 0.042113464 0.036371022 -0.021925401 -0.012581259 0.020727418
0.007909067 -0.010059689 0.042485535 -0.0098520275 -0.046983276 -0.025652388 0.048395444 -0.047891732
-0.018066788 0.017208295 0.0434395 0.04821995 0.02641337 -0.0139077995 0.04588769 -0.023484077
0.028780514 0.009815498 -0.042743236 0.040630862 0.003137078 7.1178016e-05 0.023244765 0.04690271
-0.025653206 0.030663798 0.053146116 0.039604366 -0.006202925 0.024537396 -0.047032412 0.035949927
-0.060177222 -0.018227177 0.0013511842 -0.045600224 -0.031757582 -0.03413656 -0.027921623 -0.017460087
0.0006110091 -0.038358018 0.054801397 -0.034413807 -0.05233117 0.026626606 0.040986132 -0.040769238
-0.043039005 -0.00513388 -0.010645758 0.03644725 0.026927005 -0.058489252 0.04979343 -0.017685378
-0.010198744 0.040794175 -0.04406846 0.03191663 -0.046224218 -0.0221056 -0.009170762 -0.03651929
0.004594687 0.03891583 -0.036762044 -0.034782894 -0.021410715 0.013242202 -0.062434807 0.03162495
-0.0030142902 0.00024403006 -0.039671063 -0.04287344 -0.045519676 -0.018448265 0.04465973 -0.042962078
0.044956077 -0.0021135844 0.026186503 -0.012083048 -0.0035227663 0.021216871 -0.01651507 0.0049924557
-0.027177958 0.025476946 0.05601872 -0.013798616 -0.017814605 -0.05251111 0.031026108 -0.03503824
-0.0480236 0.030689709 0.008379765 0.05308381 0.019196883 0.034399346 -0.0118302265 -0.023597548
-0.05426969 -0.061601914 0.010346073 -0.011334794 0.0622819 -0.007179196 -0.04457233 0.015001199
-0.040148843 -0.0373768 0.03372396 0.03465717 -0.0020463907 0.030189812 0.044626962 0.00093637686
0.019334128 0.055814058 -0.028096065 -0.008246194 0.012768689 0.026622055 0.042570073 -0.0136160245
0.036831576 0.013056586 -0.037708983 -0.018236963 -0.00054287555 -0.05083416 0.020777784 -0.028948193
-0.027935019 0.013876503 -0.016071001 0.034376793 0.0017520236 -0.0154925035 0.04208997 -0.028282449
0.046332877 -0.001872729 0.037295006 0.033975735 -0.01982097 -0.012902016 -0.006754108 0.032414593
-0.013614986 -0.011213503 0.0023588112 -0.010905118 0.053736668 0.059324764 -0.023838464 0.05723296
0.062190644 -0.036166124 0.015870737 -0.04613882 -0.04582824 0.042179313 -0.0068568923 -0.029480508
-0.012247607 -0.005492532 -0.036362667 0.020724097 0.017683294 0.011027583 -0.019174218 -0.038983114
-0.026954906 0.013987913 -0.039460763 0.03397634 -0.015631983 -0.023917343 0.016008222 -0.050949723

bias f4 [32]
00000000: 7cc1 1d3d b902 5e3d be36 45bd 8e0b d73b
00000010: 5d6a 543d acaf d5bc 188b ecbb 23f8 ac3c
00000020: f88e 3d3d d2f3 1c3d cfe7 f9bc 6b0f 7cbd
00000030: 8b8c 1b3b 9cc9 3a3d 9769 553d eab5 6a3d
00000040: 74dd 30bc def4 72bd a960 2f3d 2a9e 37bd
00000050: da29 313d ca0c c13c 32a4 aabc a9ad 5ebb
00000060: 320c 5d3d 34fc c539 aec0 b43c 9463 743c
00000070: e30d 5e3d e2e4 723d c1b2 0f3c 24fc 3f3d
0.0385146 0.054201815 -0.04814791 0.0065626567 0.05185925 -0.026084743 -0.0072187297 0.021114415
0.046278924 0.038318463 -0.030506043 -0.06153814 0.0023734893 0.045602426 0.05210265 0.057302393
-0.010794986 -0.059315555 0.04281679 -0.04482857 0.043252803 0.023565669 -0.020830248 -0.0033978021
0.05396671 0.00037762674 0.022064533 0.014916319 0.054212462 0.05930031 0.008770646 0.04687132

weight f4 [32, 32, 3, 3]
00000000: 9d70 343d 3190 9bbc 9a31 38bd ad5e df3c
00000010: bb84 093c 40aa bbbc 2665 3e3d c384 42bd
00000020: d24d 253d cce4 50bc 17e6 97bb 028d 523b
00000030: c5d6 fd3c b855 3c3d 6789 503c c85f aabc
00000040: 08e8 293d 5613 223d 1986 213d aeab ebbb
00000050: db0c 04bc d3f3 aeba 53bc 20bb 4bcd 7c3c
00000060: 9626 563d 8e1d 0abd 5a1d 7dbd 7487 ceb9
00000070: 37c6 89bc d8e3 f5bc f9b9 7d3c 9776 563d
00000080: a917 183d 48e9 7dbc 8299 293d fa68 aebc
00000090: 8ce6 44bd 88d5 f7bc 6f2e 28bd 1a83 593c
000000a0: 6788 123d 8a58 673c 740e 54bc b755 7b3c
000000b0: 4274 91bb 9e18 25bd 71b7 823d 1f6a 713c
000000c0: ff58 44bd dca3 463c 84d7 653d 6327 03ba
000000d0: 8c0c e73b ba4c 8cbc 5ba9 afbc f0ce c1bc
000000e0: 0bad 903c c3e0 54bd 9fa0 cbbc aa16 5a3d
000000f0: 20b1 863c c14b 1bbc a09d 713c 6006 d6bb
00000100: 889b 1c3c ec58 3cbd 92f8 813d db26 16bd
00000110: c085 423d e09b 1bbd 0671 4a3c 38d9 36bd
00000120: ad8a 773a 9ae1 043d 116c 5abd b7bc edbc
00000130: 45f7 15bd 0900 05bd 4da1 1c3d 5e7b 4e3d
00000140: dca8 28bd ca41 ea3c 2199 edba dd85 62bd
00000150: 531e 38bd 9339 92ba e6a1 7bbc 37b3 17bd
00000160: 5468 41bc ae84 29bd db18 cb3c b388 63bd
00000170: 7ff7 893c a5b4 ffbc 3dec 8f3c 0b6f 2b3d
00000180: efb3 533c 5e32 7f3c 59cc 0e3d cc06 25bd
00000190: f096 863c 2e47 1d3d c049 2c3d 916b 20bc
000001a0: 1ed3 26bd c804 3e3d 7a15 4fbb bac8 f13b
000001b0: ff41 efbc f03c 213d 4bec c9bc ea8e 9cbb
000001c0: 7238 d83c 631d 4ebd cd27 c9bc bdaa a13c
000001d0: 94b1 063d 5a99 92bc 38ad 873c e394 03bd
000001e0: f6c9 6fbd c40e 0cbd cda7 58bd 383a 5b3d
000001f0: fd8d 2bbd 57d6 c43c eb21 a2bc 3ede b4bc
00000200: 9572 963b 0ca1 7c3c 4275 ad3c 4ece 233d
00000210: 6c0b 05bc baea 1f3d a6c9 7d3c a1b8 dbbc
00000220: 10b9 24bd 31f9 57bd 383f 0f3d a60d 593d
00000230: eb0f 3b3d 2ff3 bbbc a302 273d 5d83 e53c
00000240: f79a 483d dc3c 14bd 79d6 0f3d 133d 21bd
00000250: cef7 c03c 8252 a53b a886 c2bc 9637 583d
00000260: 28a2 50bd e653 74bc 78ca d1ba 0e02 2bbd
00000270: 8977 133d 4d28 d5ba 6d27 80bd 3518 80bc
00000280: 66d8 c13b d474 523c 65de 78bc 1faa 8ebc
00000290: 112c cb3c 6800 13bd f9cb 4dbb a3bf 0e3b
000002a0: 53e2 433d e305 33bd 4339 edbc 2ec5 123d
000002b0: 6a41 ed3c 0ce5 4ebd 7230 17bd 24f8 23bd
000002c0: c295 ce3c d93e 263d 3f96 33bc 1a09 79bc
000002d0: 6b06 2abd 02bd 803c 6059 203d 83f7 e0bc
000002e0: 361b b03c 406e c63c 290c f1bc e241 d2bc
000002f0: 6a22 c9bc 73c9 d8bc 1cd3 3dbd 0ff7 03bd
00000300: 0534 593c acb3 bd3c 55ff 28bc 8e22 083c
00000310: 6c41 7d3d 333e 163d b9b6 ddbc 2e7e 4f3d
00000320: 40c6 78bc 72d6 643c 9a89 6dbc fbaf 073d
00000330: 4796 0e3b 3525 2abc ac37 e53c c29f 0b3d
00000340: 4fca 1e3d 5ea6 7f3d 6c79 a6bb 1356 193d
00000350: fb60 1bbd c4f8 b73c 2972 4cbd da27 e1b9
00000360: 94f2 03bd 7c73 113d c275 283d e0bf 5abd
00000370: 4541 2c3d a561 213d 8181 3bbb 1cc0 f43b
00000380: 9324 e9bb 3d2d f8bc bb1e 763d a6ab 783d
00000390: 7c61 7abc 0453 b83c 187f 2a3d 97ba fa3c
000003a0: 3bad 413d 5cde 093d 1a86 82bc b2fb 58bc
000003b0: b32f 8fbb ea01 6cba ed47 4cbc 416d 2dbd
000003c0: af5e 813d c595 fd3c 3c47 11ba 2a64 babc
000003d0: 024b 683c 0491 08bd f7d9 9abc f80a 79bc
000003e0: c9a0 403d c1be 043c 7c6b f93c 9264 383c
000003f0: d419 d9ba fb4f 583d 648f b5ba 17ce 0d3c
0.04405271 -0.018989654 -0.04496918 0.027266825 0.008393462 -0.02290833 0.04648318 -0.047489893
0.04035742 -0.012749862 -0.004635583 0.0032127504 0.0309862 0.045980185 0.012728072 -0.020797625
0.041481048 0.03956922 0.039434526 -0.0071920967 -0.008059706 -0.0013347812 -0.0024526312 0.015429805
0.052282892 -0.03371959 -0.06179557 -0.00039392302 -0.016818149 -0.03001587 0.015486234 0.05235919
0.03713194 -0.015497513 0.041406162 -0.021290291 -0.04807143 -0.030253187 -0.041059908 0.013275886
0.035774615 0.01412023 -0.012942899 0.01534026 -0.004438908 -0.04030668 0.06382645 0.014734774
-0.047936436 0.012124028 0.056113735 -0.00050031225 0.0070510563 -0.01712643 -0.02144306 -0.023658246
0.017660638 -0.051972162 -0.024856864 0.05324427 0.016441882 -0.00947851 0.014747053 -0.0065315217
0.009558566 -0.04598324 0.06346239 -0.03665815 0.047490835 -0.03799045 0.012356048 -0.04464075
0.00094429665 0.032441713 -0.053325716 -0.02902065 -0.036612768 -0.032470737 0.038239766 0.05041062
-0.04117666 0.028595824 -0.0018127301 -0.055303443 -0.044950794 -0.0011156074 -0.015358424 -0.037036147
-0.011804659 -0.0413863 0.024792125 -0.05555029 0.016841648 -0.031214068 0.017568702 0.041853946
0.0129213175 0.015575973 0.03486285 -0.040289685 0.016429394 0.03839796 0.04206252 -0.009791271
-0.04072868 0.04639128 -0.0031598494 0.007378665 -0.029206274 0.039364755 -0.024648806 -0.004777779
0.026394103 -0.050320994 -0.024555111 0.019734735 0.032884195 -0.01789539 0.01656209 -0.03212441
-0.058542214 -0.03419377 -0.052894402 0.05352232 -0.041883457 0.024027986 -0.019791564 -0.02207863
0.004591296 0.015419256 0.021174077 0.03999167 -0.008120399 0.039042212 0.015489971 -0.026821436
-0.04021555 -0.05272788 0.0349724 0.05299153 0.045669477 -0.022943107 0.040774 0.02801674
0.04897591 -0.036190853 0.035116646 -0.039364886 0.023555662 0.005045236 -0.02374585 0.052787386
-0.050935894 -0.014912581 -0.0016005775 -0.041750006 0.03600267 -0.0016262621 -0.0625752 -0.015636543
0.0059156893 0.012845237 -0.015189742 -0.017415104 0.024801286 -0.03588906 -0.0031402095 0.0021781705
0.04782326 -0.043706786 -0.028957969 0.035832576 0.028961856 -0.050511405 -0.036911435 -0.040031567
0.025217894 0.04058728 -0.010961114 -0.015199924 -0.041510027 0.015715126 0.039147735 -0.027461773
0.02149735 0.024222493 -0.029424744 -0.025666181 -0.024552543 -0.026463246 -0.046343908 -0.032218035
0.013257031 0.023156963 -0.010314782 0.00830902 0.06182997 0.03668041 -0.027064668 0.050657444
-0.015183985 0.013967143 -0.014498139 0.033126812 0.0021757053 -0.010384847 0.027980648 0.034087904
0.038767155 0.06241452 -0.0050803926 0.037435602 -0.037934285 0.022457488 -0.04991356 -0.00042945036
-0.032213762 0.035510525 0.041127928 -0.053405643 0.042054433 0.03939976 -0.0028611126 0.0074691903
-0.0071149557 -0.030295009 0.0600879 0.06071057 -0.015282031 0.022500522 0.041625112 0.030606551
0.047284346 0.033659324 -0.015933085 -0.013243603 -0.0043697 -0.0009002971 -0.01246832 -0.04234052
0.063168876 0.030955205 -0.0005541926 -0.02275284 0.0141780395 -0.033341423 -0.018902762 -0.015200369
0.047028337 0.00810212 0.03044676 0.011254447 -0.0016563484 0.05281065 -0.0013851938 0.008655093

bias f4 [32]
00000000: 6931 293d 2802 643d 1086 4bbc 9f96 4dbd
00000010: 6462 50bd 81f9 893a e23b 7b3d 0c40 bf3c
00000020: bbee ca3b 156f 56bd b8c8 62bd c29c 78bd
00000030: d2a1 4f3c 0533 353d fe16 783a 7654 52bd
00000040: 5f11 19bc d9da 223d 2571 80bd 0ea3 1a3d
00000050: a834 34bd 0983 26bd 685d dbb8 bd9d cebc
00000060: c7b0 a93b 101e 813c 45b7 69bb fe44 2bbd
00000070: 3112 21bd 4696 abbc 1839 8c3c b8bd 2abd
0.041306887 0.05566612 -0.0124221 -0.05019247 -0.050875083 0.0010526628 0.061336406 0.02334597
0.0061930097 -0.05235203 -0.0553672 -0.06069637 0.012672858 0.04423811 0.00094638753 -0.05135008
-0.0093425205 0.03975949 -0.062715806 0.037753157 -0.04399553 -0.04065231 -0.00010460132 -0.0252217
0.005178544 0.015761405 -0.0035662216 -0.041813843 -0.03932399 -0.02094568 0.017117068 -0.041684836
