Baseline/bestKernel_Num_Set_4.pt (torch_old, 804393 bytes, 16 tensors)

weight f4 [16, 3, 3, 3]
-0.16618782 -0.09072313 -0.07040046 -0.15972914 0.043642897 0.086112015 -0.015973728 -0.057862703
0.016819322 -0.1659932 -0.13019373 -0.012238748 0.16035195 -0.06973009 0.08740727 -0.09613192
-0.06969661 -0.20141721 0.17899448 0.20759045 0.015608564 0.14194763 0.17789322 0.11587807
0.117247485 -0.16507639 -0.1638922 -0.14989167 0.046587504 -0.17137238 -0.155914 -0.103280745
-0.18560635 -0.0068567754 0.022511637 -0.12139712 0.1201941 -0.07729309 -0.059288792 0.13831192
0.15840994 -0.028706674 -0.14601465 -0.10301861 0.018600702 0.12247096 0.10099342 -0.07967674
-0.17009126 -0.16007689 -0.051036607 0.011175264 -0.08052008 -0.14632209 0.036637686 -0.13325046
-0.13235486 -0.14069349 -0.03770064 0.17863664 0.08634448 -0.012076229 0.047633577 0.056583792
-0.020458633 -0.17731981 -0.14026886 -0.15347621 -0.027442954 -0.19904302 -0.058926817 -0.094314195
0.2127642 0.18118809 0.13615192 0.034659714 -0.037591092 0.07360537 -0.109303996 -0.05756196
-0.014459563 -0.03713411 -0.17354977 0.084000446 0.16596444 -0.098242044 0.059055515 -0.0146394465
0.0006319201 0.01842992 0.18142252 0.040638514 -0.10811537 -0.05488272 0.10874566 0.07365169
0.018162666 -0.010664406 -0.06142648 -0.044920906 -0.07758057 0.055816133 0.077742845 0.17170382
-0.018860014 0.037789963 0.14881562 0.10827709 0.021209786 0.05560555 0.0063801715 -0.1686876
0.0038219874 -0.045722138 0.17013781 0.17017947 0.034618195 0.18193416 -0.09362094 0.1750696
0.17448863 -0.0062565254 -0.14919607 -0.06023262 -0.05710006 0.004824345 -0.1541713 0.05598444
-0.0601449 -0.029215697 -0.07972657 -0.020954477 -0.15858093 -0.08185599 0.037996396 0.122371495
0.17235555 -0.14318153 0.07756111 -0.10951208 -0.14259468 -0.011316104 -0.109287366 -0.15777916
-0.2038782 -0.15353718 0.13508637 0.08413923 -0.100008264 -0.15079165 -0.17179215 -0.13772605
-0.1016009 0.14015377 0.0886652 -0.049146444 0.15660706 -0.09418646 -0.13225996 0.065852836
-0.080909595 0.07921393 0.16357282 -0.08409579 -0.12523255 0.07719017 -0.16688035 0.17388727
-0.084543325 0.09816795 -0.14433654 -0.11796879 0.03213486 0.07707275 0.16545935 0.17742877
0.0030840647 -0.008127399 0.049484007 -0.028559588 0.01520081 -0.17564602 -0.14949965 0.1453159
-0.097158365 0.1664428 0.033369653 0.05994249 0.18898566 -0.09023079 -0.014490375 0.04796788
0.08084357 -0.17166105 0.08111476 -0.09799183 0.039573137 0.14261545 -0.0056932666 0.0083073145
0.0008680759 0.17442566 0.12414126 0.047754195 -0.10171422 -0.08946877 0.16912499 0.16203827
0.13522038 -0.12629811 0.17366554 0.0056857844 0.16592617 0.19108915 0.04520076 -0.055974364
0.18879184 -0.087854184 0.13552833 -0.16866304 -0.04437052 -0.15131107 -0.06750916 0.09705666
-0.119702674 -0.1907918 0.12564246 0.09379142 -0.02455407 -0.1487859 -0.06305879 -0.08363497
0.11068437 -0.07261941 -0.033932503 -0.11422954 -0.06897174 0.12733276 0.1477756 0.05102792
-0.049241945 0.20859797 0.06117867 -0.07399452 -0.06632122 -0.02651387 0.09153265 0.070813715
0.13982531 -0.008388224 0.15955676 -0.07790293 -0.083561055 -0.071382016 -0.17901751 -0.12680425
00000000: 242d 2abe 0ccd b9bd 1e2e 90bd 0990 23be
00000010: e5c2 323d 7f5b b03d 56db 82bc 7101 6dbd
00000020: adc8 893c 1ffa 29be 8151 05be 0885 48bc
00000030: 4d33 243e a6ce 8ebd 9502 b33d d0e0 c4bd
00000040: 19bd 8ebd 5040 4ebe 544a 373e 9792 543e
00000050: 10bb 7f3c b85a 113e a429 363e 7b51 ed3d
00000060: 731f f03d c909 29be 5bd3 27be 347d 19be
00000070: 8ad2 3e3d 3e7c 2fbe eba7 1fbe db84 d3bd
00000080: 970f 3ebe cdae e0bb 536a b83c 0e9f f8bd
00000090: 5328 f63d d74b 9ebd ced8 72bd a4a1 0d3e
000000a0: 3736 223e 422a ebbc dd84 15be 6cfb d2bd
000000b0: 8060 983c 0ed2 fa3d a3d5 ce3d 8f2d a3bd
000000c0: 672c 2ebe 32eb 23be c30b 51bd 7418 373c
000000d0: b6e7 a4bd 75d5 15be 6611 163d cf72 08be
000000e0: 0888 07be f411 10be fc6b 1abd 86ec 363e
000000f0: 60d5 b03d 60db 45bc 6d1b 433d 68c4 673d
00000100: dd98 a7bc 5393 35be a4a2 0fbe de28 1dbe
00000110: 0cd0 e0bc efd1 4bbe 3f5d 71bd cd27 c1bd
00000120: dcde 593e 5f89 393e 696b 0b3e 58f7 0d3d
00000130: 1ef9 19bd 6abe 963d c6da dfbd 17c6 6bbd
00000140: cee7 6cbc f019 18bd 08b7 31be 6d08 ac3d
00000150: 95f2 293e 2033 c9bd 32e4 713d 4ada 6fbc
00000160: 71a7 253a 58fa 963c d3c6 393e 9274 263d
00000170: 976b ddbd b4cc 60bd 0bb6 de3d b2d6 963d
00000180: dfc9 943c c3b9 2ebc 559a 7bbd fcfe 37bd
00000190: 90e2 9ebd 759f 643d a437 9f3d 20d3 2f3e
000001a0: 5180 9abc a6c9 1a3d 1f63 183e 61c0 dd3d
000001b0: 25c0 ad3c a5c2 633d c210 d13b 71bc 2cbe
000001c0: 4f7a 7a3b 2347 3bbd 9b38 2e3e 8743 2e3e
000001d0: cfcb 0d3d f34c 3a3e 56bc bfbd 7245 333e
000001e0: 26ad 323e 8a03 cdbb dbc6 18be 7bb6 76bd
000001f0: c1e1 69bd 8a15 9e3b 15df 1dbe f14f 653d
00000200: 805a 76bd c255 efbc af47 a3bd b9a8 abbc
00000210: 0a63 22be 1da4 a7bd 1ca2 1b3d e89d fa3d
00000220: f97d 303e 2e9e 12be 5cd8 9e3d df47 e0bd
00000230: 5704 12be 2e67 39bc 0ed2 dfbd dc90 21be
00000240: 72c5 50be da38 1dbe 1554 0a3e 3051 ac3d
00000250: 22d1 ccbd 2069 1abe 48ea 2fbe 0f08 0dbe
00000260: 2214 d0bd 7884 0f3e 1a96 b53d c84d 49bd
00000270: 9a5d 203e d5e4 c0bd 286f 07be dadd 863d
00000280: eeb3 a5bd ea3a a23d a27f 273e 6a3a acbd
00000290: f63c 00be e115 9e3d afe2 2abe 810f 323e
000002a0: 0d25 adbd 470c c93d f5cc 13be 9f99 f1bd
000002b0: d89f 033d 51d8 9d3d 2d6e 293e e3af 353e
000002c0: 051e 4a3b c828 05bc beaf 4a3d ccf5 e9bc
000002d0: d10c 793c 8ddc 33be 7016 19be b1cd 143e
000002e0: f7fa c6bd fb6f 2a3e 9eae 083d 4286 753d
000002f0: 7585 413e ecca b8bd 0a69 6dbc f879 443d
00000300: 5091 a53d eac7 2fbe 7f1f a63d f1af c8bd
00000310: 7117 223d c909 123e 958e babb 671b 083c
00000320: 968f 633a a49c 323e c63d fe3d e799 433d
00000330: 8c4f d0bd 673b b7bd 1a2f 2d3e 5ced 253e
00000340: 3677 0a3e 4b54 01be 61d5 313e d14f ba3b
00000350: 8de8 293e e0ac 433e 6f24 393d 6045 65bd
00000360: a652 413e e5ec b3bd f0c7 0a3e 01b6 2cbe
00000370: ddbd 35bd 4af1 1abe 3e42 8abd a4c5 c63d
00000380: ad26 f5bd ed5e 43be 6ba8 003e b715 c03d
00000390: 9e25 c9bc 555b 18be f824 81bd d048 abbd
000003a0: 7dae e23d 7cb9 94bd cffc 0abd 2df1 e9bd
000003b0: 0e41 8dbd 8563 023e 7d52 173e a702 513d
000003c0: ecb1 49bd b59a 553e 7c96 7a3d 708a 97bd
000003d0: 6bd3 87bd 9e33 d9bc 7875 bb3d c806 913d
000003e0: 5e2e 0f3e c36e 09bc d962 233e 928b 9fbd
000003f0: 0f22 abbd bc30 92bd 5e50 37be f9d8 01be

bias f4 [16]
-0.008318142 0.03167472 -0.07910568 0.18413465 -0.13551784 -0.013708044 -0.14080647 0.06481471
0.16881485 0.18010885 0.023635944 -0.09349493 0.1891503 0.014109246 0.12887241 -0.08637436
00000000: d148 08bc 5abd 013d 2902 a2bd cb8d 3c3e
00000010: 30c5 0abe b497 60bc 922f 10be 93bd 843d
00000020: cddd 2c3e 746e 383e 2ba0 c13c 457a bfbd
00000030: 9eb0 413e 782a 673c 21f7 033e 0ae5 b0bd

weight f4 [32, 16, 3, 3]
-0.013570232 -0.04538891 0.10235171 0.034033507 -0.0373021 0.029132608 -0.012002494 0.026677543
0.05254106 -0.0523778 0.0022745805 -0.06433812 0.0021093253 -0.09474169 -0.000874143 0.07090535
0.06436278 0.017380698 0.075876445 0.097343154 0.03995041 0.036079336 0.027587226 0.090218484
0.08055951 -0.027272252 0.010623774 -0.02870572 0.044109 -0.06514527 0.037316464 -0.01618481
0.041727282 0.032018676 -0.034489043 0.055035196 0.033615142 -0.07278755 0.081476495 0.0702465
0.050292984 -0.009945416 0.028241405 -0.046397585 -0.029571667 0.03813389 0.031446498 0.03647996
-0.08276982 0.0659041 -0.034448642 0.069990195 0.06292764 0.028883759 0.08994844 0.05742926
0.05850291 -0.02525371 0.08098933 0.026595445 0.04974639 -0.014995917 0.062932126 0.093042985
-0.046173364 0.08834631 -0.038975988 -0.044957127 -0.051062375 0.039422568 -0.051282033 -0.012269664
-0.036931034 0.027563902 -0.07557696 -0.037569545 0.0019238513 0.010949757 -0.03866414 0.03114916
-0.053581383 -0.067570314 -0.00801915 -0.04173058 0.054418355 -0.054723185 -0.0043730256 0.035546966
-0.071665354 0.06605591 -0.036479343 -0.020862866 -0.04946915 -0.03008134 -0.031036943 -0.07292489
0.028923621 0.00028009305 0.08213174 0.073987216 0.09107143 0.04337102 0.057784256 0.09172271
0.083960235 -0.05252561 -0.005744638 -0.06339128 0.022129416 -0.013182771 0.09138587 0.026452685
0.014144231 -0.041285157 -0.052001003 0.02394099 -0.022614555 -0.039865103 0.057166655 -0.044890173
-0.038528256 0.06280493 0.031367887 -0.048610255 0.0242039 0.04094071 -0.075390734 0.0143068405
0.017464671 -0.004227323 0.078868516 -0.05611368 0.04434227 -0.04509366 -0.07235558 0.052039593
-0.028522529 -0.00018468409 0.029836118 -0.08415063 -0.08587282 0.025813017 0.056853585 -0.021402435
0.07608493 0.046958636 0.043874905 -0.0362755 0.098487794 0.0571089 0.032825965 0.07955873
-0.050493218 0.00061526365 -0.036326014 -0.023646006 0.007415223 0.020012809 0.0006659239 -0.065894894
-0.04387385 -0.010930891 -0.00045591017 -0.055269755 0.09617603 0.024457304 -0.042321872 0.05273954
0.050111502 -0.024735304 0.058170013 -0.034063607 0.046969466 0.09500056 0.072515756 0.05881904
-0.0005159973 0.035935905 0.05010534 0.03802341 -0.004548527 0.025569396 -0.020535452 -0.034997012
-0.06283583 -0.0536158 -0.040646035 0.09226706 0.030835593 -0.064477324 -0.03315165 0.03200866
-0.016559757 -0.010930876 -0.020002354 -0.012880563 0.01973326 0.018452132 0.07097929 0.069836475
0.08234525 0.01090268 -0.023373399 0.011014786 -0.04075779 0.04845914 0.0037030308 -0.01004404
-0.052428637 0.0568001 0.06389924 0.09468358 -0.012394707 0.04519972 0.024581028 -0.03547451
-0.034363694 0.06122945 -0.03224216 0.06867427 0.04659565 0.037807427 0.07323787 0.053477027
0.04617841 0.060891014 -0.017287616 -0.026364034 0.001722617 0.06376675 0.07560956 0.07820192
-0.008645367 0.007068478 -0.039346825 0.06812517 -0.038885508 -0.016236816 0.08655156 0.03628961
-0.017223714 -0.038194712 -0.04049912 0.084681794 -0.05853467 0.08806099 0.08518243 0.02309256
0.010140835 0.08349507 0.05516619 0.09544094 0.084057145 -0.03683943 0.06752741 0.058610275
00000000: ae55 5ebc b9e9 39bd c69d d13d b866 0b3d
00000010: 16ca 18bd 82a7 ee3c 1ca6 44bc dd8a da3c
00000020: 4b35 573d 1b8a 56bd 2111 153b b4c3 83bd
00000030: 9b3c 0a3b ee07 c2bd be26 65ba d336 913d
00000040: a2d0 833d f761 8e3c 1c65 9b3d d95b c73d
00000050: 0ba3 233d edc7 133d 9bfe e13c 78c4 b83d
00000060: 62fc a43d 0f6a dfbc 560f 2e3c 4228 ebbc
00000070: a4ab 343d e26a 85bd 26d9 183d 0296 84bc
00000080: 3aea 2a3d 0426 033d 6244 0dbd 966c 613d
00000090: 08b0 093d a411 95bd 26dd a63d 66dd 8f3d
000000a0: 0400 4e3d 19f2 22bc 855a e73c 650b 3ebd
000000b0: 4840 f2bc 4832 1c3d 0bce 003d 036c 153d
000000c0: 3983 a9bd bbf8 863d 051a 0dbd 0557 8f3d
000000d0: 35e0 803d a29d ec3c e336 b83d f23a 6b3d
000000e0: bfa0 6f3d dee0 cebc bcdd a53d b1de d93c
000000f0: dfc2 4b3d 6fb1 75bc 8fe2 803d 528d be3d
00000100: 4820 3dbd e9ee b43d 49a5 1fbd f724 38bd
00000110: c826 51bd 8f79 213d 1c0d 52bd b306 49bc
00000120: ff44 17bd b1cd e13c 18c8 9abd 86e2 19bd
00000130: bd29 fc3a 9c66 333c 4a5e 1ebd 862c ff3c
00000140: 2778 5bbd 4e62 8abd c162 03bc afed 2abd
00000150: c8e5 5e3d 6b25 60bd 994b 8fbb b299 113d
00000160: 49c5 92bd 5248 873d 5d6b 15bd 9ae8 aabc
00000170: 2aa0 4abd 246d f6bc 3041 febc a559 95bd
00000180: 3bf1 ec3c 74d9 9239 b034 a83d 9c86 973d
00000190: a883 ba3d d0a5 313d 2faf 6c3d 1ed9 bb3d
000001a0: 58f3 ab3d 1825 57bd 843d bcbb 4ad3 81bd
000001b0: c048 b53c 8dfc 57bc 8428 bb3d 4db3 d83c
000001c0: 34bd 673c a01a 29bd 01ff 54bd e51f c43c
000001d0: 2942 b9bc 9749 23bd 9527 6a3d c2de 37bd
000001e0: cecf 1dbd df9f 803d 9d7b 003d 8c1b 47bd
000001f0: 4247 c63c 72b1 273d 7566 9abd 3d67 6a3c
00000200: 1212 8f3c 5b85 8abb d185 a13d 75d7 65bd
00000210: 3da0 353d 21b4 38bd 2a2f 94bd 7827 553d
00000220: 14a8 e9bc c2a7 41b9 e06a f43c 2a57 acbd
00000230: 17de afbd d275 d33c 4edf 683d 2954 afbc
00000240: 6ad2 9b3d b357 403d 2cb6 333d 9e95 14bd
00000250: f8b3 c93d 06eb 693d 8574 063d b0ef a23d
00000260: fad1 4ebd a549 213a 96ca 14bd 45b5 c1bc
00000270: 66fb f23b e7f1 a33c 6591 2e3a e7f3 86bd
00000280: 11b5 33bd 7b17 33bc 3a07 efb9 8a62 62bd
00000290: f0f7 c43d af5a c83c b359 2dbd 6a05 583d
000002a0: b841 4d3d b1a1 cabc ae43 6e3d 4886 0bbd
000002b0: 0e63 403d a78f c23d 2483 943d 3cec 703d
000002c0: fe43 07ba 8731 133d 423b 4d3d 6fbe 1b3d
000002d0: cf0b 95bb e976 d13c f739 a8bc 0759 0fbd
000002e0: 12b0 80bd 3e9c 5bbd 757c 26bd 83f6 bc3d
000002f0: ed9a fc3c b00c 84bd 06ca 07bd 831b 033d
00000300: 54a8 87bc 6b17 33bc fadb a3bc ff08 53bc
00000310: a5a7 a13c ed28 973c 975d 913d 6d06 8f3d
00000320: a0a4 a83d 28a1 323c 9279 bfbc 5c77 343c
00000330: a4f1 26bd 177d 463d 8cae 723b c28f 24bc
00000340: 69bf 56bd 39a7 683d 9bdd 823d 77e9 c13d
00000350: 2b13 4bbc 5723 393d 275e c93c b84d 11bd
00000360: f2c0 0cbd bbcb 7a3d 5b10 04bd 18a5 8c3d
00000370: 15db 3e3d f6db 1a3d bdfd 953d ba0a 5b3d
00000380: 9325 3d3d db68 793d c29e 8dbc 63f9 d7bc
00000390: 6fc9 e13a 2498 823d 2fd9 9a3d 5428 a03d
000003a0: 4ca5 0dbc b19e e73b 232a 21bd 3685 8b3d
000003b0: 6946 1fbd 1203 85bc f241 b13d 6aa4 143d
000003c0: bf18 8dbc 0f72 1cbd 68e2 25bd a66d ad3d
000003d0: 0dc2 6fbd 5259 b43d 2074 ae3d 9c2c bd3c
000003e0: bf25 263c 77ff aa3d f1f5 613d 8a76 c33d
000003f0: 2726 ac3d f1e4 16bd d04b 8a3d 5411 703d

bias f4 [32]
0.03342154 0.037539348 0.054330353 -0.03187199 -0.02642847 0.024127273 -0.060169473 0.0013333309
0.03531849 -0.07552874 -0.0071182633 0.005125561 -0.056753866 0.06570818 0.0014462827 -0.076750435
-0.027737528 0.023632912 0.06289419 -0.02432079 0.0707158 -0.033799913 -0.052723244 -0.010105611
-0.053849168 0.026238058 0.056717455 -0.0690557 -0.06876791 0.046261035 -0.015829934 0.070752025
00000000: 06e5 083d dcc2 193d 8189 5e3d 348c 02bd
00000010: 8580 d8bc 8fa6 c53c 4474 76bd 29c3 ae3a
00000020: 1faa 103d d0ae 9abd 5240 e9bb 52f4 a73b
00000030: be76 68bd 0392 863d 3291 bd3a 552f 9dbd
00000040: d039 e3bc cf99 c13c abce 803d 653c c7bc
00000050: 72d3 903d c771 0abd 54f4 57bd 0192 25bc
00000060: f290 5cbd 32f1 d63c 9050 683d 136d 8dbd
00000070: 31d6 8cbd 367c 3d3d c7ad 81bc 70e6 903d

weight f4 [64, 32, 3, 3]
0.053100973 -0.039366934 0.03584637 -0.057571325 0.023229353 -0.032818705 -0.00018017887 0.05739218
0.0074821566 -0.01322002 0.047757216 0.013108353 0.0709285 -0.025904184 0.010731178 -0.0287748
-0.012933336 0.0054032477 -0.02283836 -0.024219375 0.003185172 -0.02005799 -0.01977827 0.021064946
-0.026498869 0.051872227 0.05858114 0.05744134 0.024134295 0.0015453617 -0.006878523 -0.023834107
0.04574053 0.037096743 0.04792632 -0.004530416 -0.040187333 0.02019015 0.05234169 -0.008722375
0.048261754 0.04244089 0.021523096 -0.015021066 -0.018725058 -0.0076447017 -0.00171517 -0.007922606
-0.05590428 -0.040366694 -0.014529428 0.047886424 0.027505508 -0.047899093 -0.035219833 -0.026466705
0.06638456 0.022635387 0.05681053 -0.035697795 0.06165409 0.05825597 0.016349299 -0.028146736
0.022518791 -0.03229683 -0.024848929 0.021622527 -0.045841765 0.013987506 -0.0034869665 0.00014346579
0.0033414382 0.015023488 -0.03444373 0.025045892 -0.054299198 0.025726719 -0.047036238 0.057770893
0.015204966 0.017219491 0.016761456 0.013686627 -0.021094909 -0.055683713 0.037847552 0.03823429
-0.007982026 0.0065352693 -0.004053925 -0.013709845 0.03970966 -0.035698883 -0.05572056 -0.01043903
-0.03493306 -0.03970121 -0.017729543 -0.005493126 0.035156514 0.029441528 0.04170662 0.03711245
0.010265861 -0.008682819 -0.010304871 -0.052878574 -0.0012798517 -0.0208869 -0.02444524 0.038919233
0.018843532 0.027104275 0.026823422 -0.04318404 0.009057471 -0.0061162086 0.022001756 0.036249187
-0.0133163305 0.04587096 0.0043261372 -0.009470386 0.040610153 0.047855772 -0.01684033 0.033878434
-0.013124837 -0.0019029353 -0.041760124 -0.025023242 0.0078233965 -0.013312158 -0.0056434497 0.015920365
-0.021627966 0.033053033 0.059688006 0.048948284 0.05399515 -0.014270485 0.0041438094 -0.017406527
-0.026176514 -0.010472999 0.03903927 -0.052729208 -0.028606651 0.033502117 0.033449933 -0.012031117
-0.0097224675 0.008574032 0.059705988 0.061357148 -0.013004155 0.026995886 -0.037863243 -0.02034059
0.013749209 0.0012469051 -0.025061581 0.05171024 0.033322595 0.00722665 -0.013968638 0.0051330514
0.05162418 -0.0070402515 0.009365612 0.032731976 0.049218792 0.05165587 -0.016090427 0.03723463
0.024883904 0.023425438 -0.035383478 0.07150322 0.025265163 0.0063772076 0.020390319 -0.016766978
-0.043872442 -0.016480584 -0.055741433 0.048239775 0.023163265 0.016205406 -0.039045986 -0.037470624
0.034442477 -0.046779536 0.0124862 0.045032676 -0.050220627 0.042858664 -0.031292103 0.008242025
0.063094854 0.061164644 0.07376815 0.07143 -0.0346471 0.032642387 -0.027800413 0.048737608
0.034295917 0.065452114 0.028992582 0.057367433 0.017826175 -0.029842269 -0.020348335 0.02027068
-0.055036575 0.04982405 -0.03737997 -0.045050405 0.056845795 -0.040210772 -0.02698866 -0.0016303321
0.016232433 -0.020801624 0.0320601 -0.037192855 0.011812014 -0.05737837 -0.05230458 0.021220291
0.028916506 -0.02566786 0.021122111 -0.014818923 0.03351336 0.006818548 -0.012431933 0.011798079
-0.05560983 0.033555795 0.05506861 0.051304314 -0.032642856 -0.022228874 -0.024820294 0.010341728
-0.039665412 -0.043128032 -0.021443184 0.053369287 0.021504855 -0.049602125 -0.020196818 -0.042205192
00000000: 6880 593d 393f 21bd a5d3 123d e9cf 6bbd
00000010: 7c4b be3c e86c 06bd 66ee 3cb9 1014 6b3d
00000020: e12c f53b c898 58bc 129d 433d 6bc4 563c
00000030: f642 913d 0335 d4bc d3d1 2f3c 21b9 ebbc
00000040: 58e6 53bc ba0d b13b 8317 bbbc b667 c6bc
00000050: 52be 503b a750 a4bc 0a06 a2bc 6590 ac3c
00000060: 2814 d9bc f977 543d c7f2 6f3d 9c47 6b3d
00000070: 49b5 c53c bc8d ca3a 3c65 e1bb bf3f c3bc
00000080: 6c5a 3b3d c1f2 173d 644e 443d e273 94bb
00000090: 799b 24bd d065 a53c 3d64 563d 4be8 0ebc
000000a0: 1eae 453d 80d6 2d3d 3451 b03c eb1a 76bc
000000b0: 4b65 99bc 6880 fabb 8ecf e0ba d1cd 01bc
000000c0: e3fb 64bd 8c57 25bd d70c 6ebc 8e24 443d
000000d0: 3b53 e13c d731 44bd ac42 10bd b4d0 d8bc
000000e0: a1f4 873d d96d b93c 29b2 683d da37 12bd
000000f0: 0089 7c3d d09d 6e3d f7ee 853c fc93 e6bc
00000100: 5479 b83c ae49 04bd fb8f cbbc ba21 b13c
00000110: 93c4 3bbd da2b 653c 9785 64bb 4e6f 1639
00000120: 08fc 5a3b 1325 763c de14 0dbd 0b2d cd3c
00000130: d668 5ebd d7c0 d23c 12a9 40bd 2ca1 6c3d
00000140: 401e 793c e40f 8d3c 524f 893c e03d 603c
00000150: 3bcf acbc 9b14 64bd 0906 1b3d 8f9b 1c3d
00000160: 0bc7 02bc d025 d63b cad6 84bb 429f 60bc
00000170: 99a6 223d fe38 12bd 3e3b 64bd 7708 2bbc
00000180: f815 0fbd bc9d 22bd 8c3d 91bc aeff b3bb
00000190: 4700 103d 5c2f f13c 90d4 2a3d 3903 183d
000001a0: 2432 283c 6242 0ebc c3d5 28bc 3497 58bd
000001b0: b2c0 a7ba 011b abbc 6241 c8bc c669 1f3d
000001c0: c05d 9a3c c909 de3c cbbc db3c bfe1 30bd
000001d0: c965 143c 7a6a c8bb 073d b43c 077a 143d
000001e0: bd2c 5abc 30e3 3b3d 45c2 8d3b ae29 1bbc
000001f0: d556 263d 6a04 443d bbf4 89bc 1dc4 0a3d
00000200: 8e09 57bc ea6b f9ba aa0c 2bbd 8bfd ccbc
00000210: b42d 003c 3d1b 5abc b0ec b8bb 6d6b 823c
00000220: 222d b1bc 9e62 073d 697b 743d ff7d 483d
00000230: 052a 5d3d c1ce 69bc cbc8 873b 2298 8ebc
00000240: 2170 d6bc f196 2bbc a4e7 1f3d 95fa 57bd
00000250: 7f58 eabc 8439 093d cc02 093d 2a1e 45bc
00000260: fc4a 1fbc 197a 0c3c 448e 743d a251 7b3d
00000270: 610f 55bc 7a26 dd3c 7d16 1bbd 4fa1 a6bc
00000280: 5d44 613c 316f a33a f24d cdbc 1ece 533d
00000290: 467d 083d 89cd ec3b b7dc 64bc 2833 a83b
000002a0: e073 533d e9b1 e6bb 3972 193c f711 063d
000002b0: a599 493d 1b95 533d 12d0 83bc 5783 183d
000002c0: 54d9 cb3c b4e6 bf3c 44ee 10bd 4870 923d
000002d0: e3f8 ce3c e5f7 d03b 9909 a73c e75a 89bc
000002e0: 97b3 33bd 4a02 87bc 2151 64bd 1297 453d
000002f0: e3c0 bd3c 33c1 843c afee 1fbd cc7a 19bd
00000300: 8e13 0d3d e69b 3fbd eb92 4c3c 2f74 383d
00000310: 25b4 4dbd 918c 2f3d 262c 00bd 8f09 073c
00000320: e037 813d c787 7a3d c113 973d e449 923d
00000330: 1eea 0dbd 06b4 053d b1bd e3bc 16a1 473d
00000340: e079 0c3d c20b 863d da81 ed3c 1dfa 6a3d
00000350: 3308 923c c677 f4bc 8db1 a6bc b20e a63c
00000360: 086e 61bd 4e14 4c3d bd1b 19bd c686 38bd
00000370: 23d7 683d 0db4 24bd 5317 ddbc deb0 d5ba
00000380: e1f9 843c 2b68 aabc 7451 033d 8957 18bd
00000390: 2d87 413c 9505 6bbd 543d 56bd 2dd6 ad3c
000003a0: 4fe2 ec3c 6745 d2bc 4708 ad3c 11cb 72bc
000003b0: 4e45 093d 206e df3b 4eaf 4bbc bb4c 413c
000003c0: 22c7 63bd cd71 093d 9f8f 613d 7924 523d
000003d0: 84b4 05bd 5419 b6bc ee53 cbbc 5a70 293c
000003e0: 3378 22bd 05a7 30bd 9ea9 afbc c199 5a3d
000003f0: f32a b03c 992b 4bbd cc73 a5bc 5adf 2cbd

bias f4 [64]
0.0013873929 0.024896832 0.040337075 0.0037791075 0.0043332963 -0.024431113 -0.04082292 -0.047376454
0.014242893 -0.0016524629 0.04553725 0.036287438 0.0033715856 -0.019615758 0.040890373 -0.050578143
-0.00037622964 0.020984547 -0.05635952 0.045170974 -0.014110146 0.04714673 -0.007442842 -0.034268875
0.033404425 -0.03660287 -0.04107364 -0.018175352 0.036300115 0.0188463 0.048155647 -0.017546004
-0.00422145 -0.016221892 0.05535073 0.004647293 -0.055001922 0.014214726 -0.03514834 0.012621247
0.020641973 -0.029591206 -0.049628995 -0.0031731585 -0.037943356 0.057021122 -0.023340087 -0.0103598805
0.042140517 -0.0069690915 -9.916921e-06 -0.055977777 0.028554656 0.042175066 -0.054504663 0.05840993
0.04500052 0.019956594 -0.0022070832 -0.0034829562 0.05640796 0.028960822 -0.0296377 -0.029882727
00000000: 2ed9 b53a 71f4 cb3c 7d38 253d e7aa 773b
00000010: 53fe 8d3b c223 c8bc ef35 27bd d00d 42bd
00000020: 065b 693c 7497 d8ba 4485 3a3d 23a2 143d
00000030: d2f5 5c3b 3ab1 a0bc aa7c 273d 072b 4fbd
00000040: b040 c5b9 c9e7 ab3c 3dd9 66bd 3305 393d
00000050: 3e2e 67bc ee1c 413d 15e3 f3bb 855d 0cbd
00000060: 14d3 083d e4ec 15bd d53c 28bd 7ae4 94bc
00000070: 6eaf 143d 8e63 9a3c db3e 453d a3bc 8fbc
00000080: 1754 8abb c6e3 84bc 72b7 623d 5248 983b
00000090: b249 61bd e2e4 683c b5f7 0fbd 59c9 4e3c
000000a0: 5b19 a93c 4269 f2bc c647 4bbd c4f4 4fbb
000000b0: 7e6a 1bbd fb8e 693d b633 bfbc 7dbc 29bc
000000c0: 899b 2c3d fa5c e4bb da60 26b7 f448 65bd
000000d0: 74eb e93c c3bf 2c3d 4840 5fbd 403f 6f3d
000000e0: 7752 383d 037c a33c b6a4 10bb 4f42 64bb
000000f0: 080c 673d 3f3f ed3c c3ca f2bc 9fcc f4bc

weight f4 [128, 64, 3, 3]
0.03327075 -0.026141634 -0.019095946 -0.033810474 0.008683245 -0.013040152 0.03309697 -0.0233413
0.006864473 -0.030694263 -0.033154316 -0.045851417 -0.0048844847 0.0027692516 0.0070721367 0.033236887
0.010311688 -0.012262094 0.016346311 -0.04462977 0.03120884 -0.03804775 0.01645977 -0.03211011
0.033743393 0.0075754 0.014400028 0.009740279 -0.022094108 -0.001610328 0.0077646193 0.009504842
0.0088344645 0.030533088 -0.009258151 -0.030152824 0.017712083 0.029904593 0.029720137 -0.030283688
-0.0019197688 0.009594127 -0.002505609 0.01759179 -0.040028382 0.020095542 -0.015030588 0.004316763
-0.011208156 -0.03986378 0.013249655 -0.0019939041 -0.0066754143 0.028564477 0.03369552 -0.020113576
-0.013377918 -0.014472789 -0.031685915 -0.039761543 -0.020712148 -0.026019147 -0.008757109 -0.016020542
0.017191185 -0.017450774 0.00985466 -0.052197956 -0.017617851 -0.01852419 0.00034056875 0.014229867
0.018022433 -8.345212e-05 0.00948883 0.020841658 0.026673157 0.0088752 -0.03868833 0.018671544
0.0025766417 0.021653261 0.00659818 0.0049163704 -0.004155531 0.020084064 0.02660691 0.034194726
-0.041954484 0.014502746 0.031622615 -0.022780878 -0.03782486 0.021775626 0.00814902 0.034692116
0.01958606 0.035747595 -0.026862372 -0.022042941 -0.048682917 -0.0045982096 0.019107599 -0.03766234
0.018698817 -0.046078898 0.017939376 -0.046978652 -0.034768824 -0.023300624 0.009068372 -0.03991585
0.017646847 -0.041887738 -0.005914034 -0.015892882 -0.01104138 -0.033448696 0.028173892 0.026537316
-0.04947569 -0.014214483 -0.037804626 -0.043000486 -0.021970678 0.015066215 -0.041561473 0.03616243
0.033869285 0.014474166 0.02872365 0.0038614941 0.017190726 0.018422741 -0.040761486 0.008630879
-0.0036721595 -0.042773973 0.030414708 -0.015099491 0.0033856698 -0.02315615 0.02435723 4.6501762e-05
-0.017482203 -0.020511368 0.008033165 -0.03810641 0.016062886 -0.037504837 -0.027933788 0.0038006827
-0.025032638 0.011133179 -0.029033313 -0.01590653 0.014212259 0.01933982 -0.012073347 0.011593653
-0.0352131 -0.0113013415 0.020027554 -0.007665962 -0.041118886 -0.013504926 -0.014227473 0.0055468897
-0.02127358 -0.041432444 -0.004554131 0.028464818 -0.011930657 0.008882289 0.0053347726 0.004857028
-0.009534221 -0.0049522165 -0.042635452 0.020416213 -0.026440646 -0.033611424 -0.026376083 0.010488221
-0.009558778 -0.025815811 0.021710452 -0.021786299 -0.030681195 0.020085065 -0.017961316 -0.027777895
-0.012486326 -0.021081788 -0.000109934044 -0.015277583 0.0037790863 -0.00014685738 0.02552782 0.022911323
-0.0238407 0.012862752 -0.040158328 -0.036243655 -0.031664602 -0.021261673 -0.0438329 0.015775751
0.02694061 -0.041442573 -0.04408818 -0.01892707 0.024443697 0.0044097677 -0.0053366264 0.030174477
0.02260584 0.009969056 -0.032758497 -0.020761803 -0.016717512 -0.018210886 -0.0021967923 0.017237768
-0.03394609 -0.041520018 -0.037400782 0.009080082 -0.02850459 0.018859327 0.010198812 0.00898854
-0.019866435 0.01577338 0.025076441 0.009731744 -0.0012776855 0.014152716 0.0009816068 0.006273844
0.012757618 0.033079363 -0.011487365 0.019424504 0.03060664 -0.03593323 -0.0025831156 -0.03651649
-0.033520687 0.024097877 -0.034529157 0.035855465 0.032942813 -0.031954978 -0.04260669 -0.010173016
00000000: e946 083d fb26 d6bc 1a6f 9cbc da7c 0abd
00000010: 2b44 0e3c 5da6 55bc b090 073d 4136 bfbc
00000020: 60ef e03b 8972 fbbc d2cc 07bd b2ce 3bbd
00000030: 070e a0bb 557c 353b 62bd e73b 6723 083d
00000040: 5bf2 283c f3e6 48bc b3e8 853c b5cd 36bd
00000050: aea9 ff3c f5d7 1bbd a4d6 863c e485 03bd
00000060: 8336 0a3d 103b f83b 18ee 6b3c b195 1f3c
00000070: b4fe b4bc a411 d3ba 596e fe3b 32ba 1b3c
00000080: 6ebe 103c 8720 fa3c 80af 17bc 0e03 f7bc
00000090: ee18 913c 7afa f43c a577 f33c 7f15 f8bc
000000a0: c0a0 fbba af30 1d3c 2535 24bb a81c 903c
000000b0: cdf4 23bd 689f a43c db42 76bc a273 8d3b
000000c0: 6aa2 37bc 3448 23bd 1515 593c 29ac 02bb
000000d0: 6fbd dabb 0d00 ea3c 5004 0a3d 3ac5 a4bc
000000e0: 0e2f 5bbc 471f 6dbc 17c9 01bd 00dd 22bd
000000f0: 86ac a9bc 1b26 d5bc fa79 0fbc 833d 83bc
00000100: 87d4 8c3c edf4 8ebc 7175 213c 86cd 55bd
00000110: 5053 90bc 0bc0 97bc 5d8e b239 6324 693c
00000120: c8a3 933c 0403 afb8 0a77 1b3c 20bc aa3c
00000130: aa81 da3c 4969 113c a877 1ebd 11f5 983c
00000140: e0dc 283b 2e62 b13c 8c35 d83b 8119 a13b
00000150: 1f2b 88bb 5687 a43c bcf6 d93c c50f 0c3d
00000160: 77d8 2bbd ed9c 6d3c b786 013d f79e babc
00000170: 3eee 1abd cc62 b23c 7883 053c 5219 0e3d
00000180: f272 a03c 126c 123d 7a0e dcbc 6693 b4bc
00000190: bd67 47bd 94ac 96bb 8a87 9c3c d343 1abd
000001a0: 432e 993c 3abd 3cbd 99f5 923c b06c 40bd
000001b0: c169 0ebd f3e0 bebc 8293 143c cd7e 23bd
000001c0: 1f90 903c 7a92 2bbd 83ca c1bb ca31 82bc
000001d0: e8e6 34bc 8001 09bd efcc e63c c964 d93c
000001e0: 05a7 4abd dde3 68bc 06d9 1abd 4721 30bd
000001f0: dafb b3bc 49d8 763c 5d3c 2abd 0e1f 143d
00000200: 85ba 0a3d 0d25 6d3c dc4d eb3c 1f11 7d3b
00000210: 91d3 8c3c 4aeb 963c 84f5 26bd 8868 0d3c
00000220: 9da8 70bb c333 2fbd 4428 f93c db63 77bc
00000230: 1de2 5d3b f7b1 bdbc d088 c73c e30a 4338
00000240: d636 8fbc 7507 a8bc 899d 033c 7815 1cbd
00000250: 5096 833c ac9e 19bd 66d5 e4bc e014 793b
00000260: 3f11 cdbc f067 363c 45d7 edbc 694e 82bc
00000270: 89da 683c 8b6e 9e3c 4acf 45bc 4ef3 3d3c
00000280: 9d3b 10bd 4329 39bc d310 a43c c032 fbbb
00000290: 476c 28bd c443 5dbc 591a 69bc afc2 b53b
000002a0: ee45 aebc 11b5 29bd d23a 95bb 0d2f e93c
000002b0: cd78 43bc 0587 113c 51cf ae3b b427 9f3b
000002c0: 6c35 1cbc 3446 a2bb 83a2 2ebd e73f a73c
000002d0: 0e9a d8bc 22ac 09bd a812 d8bc cad6 2b3c
000002e0: 6c9c 1cbc ae7b d3bc 1eda b13c 2e79 b2bc
000002f0: 2157 fbbc 6f89 a43c 9c23 93bc 788e e3bc
00000300: 7293 4cbc b7b3 acbc 648c e6b8 d44e 7abc
00000310: 8caa 773b bafd 19b9 b81f d13c 87b0 bb3c
00000320: 924d c3bc 4bbe 523c 0f7d 24bd 3a74 14bd
00000330: beb2 01bd f62c aebc 208a 33bd 263c 813c
00000340: 8eb2 dc3c b0bf 29bd cf95 34bd f10c 9bbc
00000350: 263e c83c d07f 903b dede aebb 7730 f73c
00000360: e22f b93c 4055 233c c62d 06bd a814 aabc
00000370: 2af3 88bc ff2e 95bc 0ff8 0fbb 3836 8d3c
00000380: 0e0b 0bbd e510 2abd 9031 19bd a0c4 143c
00000390: 7582 e9bc e07e 9a3c eb18 273c ab44 133c
000003a0: efbe a2bc 2d37 813c 1c6d cd3c e571 1f3c
000003b0: 0378 a7ba cbe0 673c 42a9 803a d194 cd3b
000003c0: 5405 513c 3a7e 073d 8035 3cbc 2320 9f3c
000003d0: c7ba fa3c b92e 13bd 7d49 29bb 5192 15bd
000003e0: fd4c 09bd e968 c53c 726e 0dbd 2edd 123d
000003f0: 0bef 063d 39e3 02bd 5a84 2ebd b9ac 26bc

bias f4 [128]
-0.02378621 0.025630148 -0.043147277 -0.009627805 0.002720931 0.032021347 -0.006724629 0.041399285
0.03301035 -0.03974147 -0.030993192 -0.043857116 -0.006232691 -0.028816007 -0.030386586 -0.024036322
0.030812126 0.033250805 0.013644224 0.017424872 0.01725118 -0.021856254 0.03282405 0.036917813
-0.010022402 0.012778548 -0.03916731 -0.03242593 -0.012840861 -0.031325843 0.030883353 -0.031023398
0.0055836597 0.0060700984 0.004353892 -0.0064488836 0.037739187 0.027888725 0.0039323433 0.010822094
-0.013523742 -0.0006045232 -0.0044567552 -0.018777505 0.027614508 -0.028984118 0.034014933 0.03125673
0.0088114515 -0.0127271265 0.016558912 0.00839957 -0.020410143 -0.03552681 -0.021090508 0.047904715
0.035039417 -0.027722923 0.044175327 -0.010925202 -0.0024213947 0.002005634 -0.038314383 -0.01243078
-0.02308149 -0.037464432 0.03196221 0.0057242354 0.034536924 -0.000575092 0.010080384 0.010856801
-0.009016805 -0.007851512 0.017342776 -0.018145341 0.00038574598 0.0083047 -0.0023328417 0.017060459
0.0010873104 0.020482715 -0.012684013 -0.028912418 0.0033892964 0.032947563 0.015077059 0.037587054
-0.011289239 0.0011971542 0.040516544 -0.035711784 0.025379848 0.023408506 -0.03150908 0.010332189
-0.029394263 -0.017373743 0.016898915 0.03169044 -0.027240513 0.03723311 -0.039895125 0.014887879
0.0051666945 -0.00019779964 -0.006012047 -0.01929707 -0.022829022 -0.0014391957 0.0038856838 -0.004852129
0.016428716 0.03613742 -0.026452566 -0.015386203 -0.036573973 -0.0040976736 0.031970046 -0.017457627
-0.038050365 -0.015592716 0.0072702034 -0.03773962 0.001717901 -0.038145225 -0.016953614 -0.013085673
00000000: 4cdb c2bc 51f6 d13c 33bb 30bd f1bd 1dbc
00000010: a651 323b d128 033d 475a dcbb 4c92 293d
00000020: dc35 073d f4c7 22bd 6fe5 fdbc 85a3 33bd
00000030: 9a3b ccbb 8c0f ecbc 4aed f8bc d2e7 c4bc
00000040: b669 fc3c ff31 083d 068c 5f3c 9bbe 8e3c
00000050: 5952 8d3c e30b b3bc 8372 063d 2237 173d
00000060: 0035 24bc 1d5d 513c e76d 20bd 0dd1 04bd
00000070: 7a62 52bc 874f 00bd 16ff fc3c c824 febc
00000080: 22f7 b63b ade7 c63b 18ab 8e3b 2851 d3bb
00000090: 6894 1a3d e576 e43c e3da 803b 274f 313c
000000a0: af92 5dbc dd78 1eba f909 92bb 48d3 99bc
000000b0: d237 e23c 1a70 edbc 3e53 0b3d 0f07 003d
000000c0: e85d 103c 7085 50bc 8ea6 873c 5a9e 093c
000000d0: 2c33 a7bc 8f84 11bd 00c6 acbc bc37 443d
000000e0: 7e85 0f3d 2f1b e3bc 30f1 343d 9eff 32bc
000000f0: 43b0 1ebb f470 033b 8bef 1cbd 78aa 4bbc
00000100: 6515 bdbc 4e74 19bd ceea 023d 5e92 bb3b
00000110: 9776 0d3d c5c1 16ba 3228 253c b9e0 313c
00000120: 39bb 13bc a1a3 00bc 7012 8e3c 8aa5 94bc
00000130: f33d ca39 7010 083c 97e2 18bb 60c2 8b3c
00000140: 1584 8e3a 5ecb a73c 9bd0 4fbc bcd9 ecbc
00000150: f51e 5e3b 06f4 063d c505 773c e2f4 193d
00000160: 80f6 38bc d4e9 9c3a adf4 253d 8546 12bd
00000170: 66e9 cf3c 32c3 bf3c aa0f 01bd 5748 293c
00000180: 3dcc f0bc 6153 8ebc 986f 8a3c d6cd 013d
00000190: 7f27 dfbc bf81 183d 1269 23bd 4aec 733c
000001a0: 604d a93b 7068 4fb9 b500 c5bb e414 9ebc
000001b0: ee03 bbbc 65a3 bcba f5a6 7e3b 9cfe 9ebb
000001c0: 8495 863c d504 143d 0db3 d8bc 6a16 7cbc
000001d0: 97ce 15bd c745 86bb 06f3 023d 4c03 8fbc
000001e0: b3da 1bbd 9778 7fbc e33a ee3b dc94 1abd
000001f0: 312b e13a 2b3e 1cbd 4ee2 8abc 4a65 56bc

weight f4 [128, 64, 3, 3]
0.005507705 0.002307577 -0.00044306793 0.012600823 0.036808338 -0.010220905 0.03278186 0.03377026
-0.029621402 -0.026431799 -0.008227357 0.010058123 0.025467185 -0.029297486 0.03389131 0.01473327
-0.010849239 0.03432358 0.021722548 0.0061765155 0.006988122 0.026466737 0.030450819 0.005520504
-0.011530945 0.01117746 -0.019720078 -0.0038815036 -0.022270558 -0.005757729 1.841997e-05 0.00892279
0.0021808222 -0.034551874 0.017805817 -0.012470722 -0.019751113 0.009296175 0.03972018 -0.024239818
0.018622264 0.032438934 0.035901815 0.021876372 -0.022044076 -0.0033053218 -0.007651323 0.02140874
-0.034938358 -0.012587399 -0.034027297 -0.04222878 0.017500212 -0.025048183 0.0047215186 0.03852769
0.01838154 0.03730988 0.0045365607 -0.023525989 -0.03788083 -0.030796306 0.030913027 0.0328281
-0.010788927 0.035181038 0.009665393 -0.02887114 0.029221214 0.024291541 -0.026795525 0.021202506
0.011088913 -0.033971857 0.03372377 -0.026615594 0.00955142 0.007639915 -0.036274556 0.018078748
-0.0033589127 -0.022562461 -0.0012566758 -0.014717903 -0.037371688 0.019291222 -0.005161705 0.0015097595
-0.030621674 0.0009884961 0.006406458 0.012657488 0.03731639 0.017924301 -0.025785672 -0.033582225
0.044163328 -0.036198158 -0.029606638 -0.03335878 0.012224488 -0.035434853 -0.034819018 0.010345953
-0.033936944 0.0030707181 -0.026138728 -0.027195422 0.014188375 -0.008497607 0.025818022 0.014468222
-0.01484182 0.0022808646 0.0121909 -0.01878472 -0.033964567 -0.013133502 -0.008968295 -0.0008015572
-0.038650822 0.009500529 -0.007249139 -0.031966645 0.025700852 -0.00433142 0.0131099885 -0.02072945
0.009718493 -0.029394249 -0.015669513 -0.03327553 -0.023922095 -0.02069142 0.011658347 0.004877731
0.0321739 0.040899504 0.023841318 -0.022802714 0.017372588 0.021434152 0.03122955 0.016897101
0.035938736 0.00606578 0.030640995 -0.00017788037 -0.040998053 -0.015160121 0.008553452 0.025665158
0.029614571 0.04673693 0.042594083 -0.0034154698 -0.0021342498 0.033918396 0.020750329 0.03416131
-0.028041119 0.010683338 -0.015644664 -0.036471136 0.017292574 0.006878549 -0.032762747 -0.042100478
-0.0014586328 0.015337788 0.03248561 -0.01934614 0.0041426932 0.016768482 -0.017502412 0.021159016
0.03965004 0.01975458 0.032865398 -0.032636948 -0.028760865 0.03584447 0.027597314 0.020823177
0.016898442 0.014068311 0.025938027 -0.024274226 0.03124058 -0.03648653 -0.027650172 0.010297322
0.021417193 0.00036620355 0.0129861105 -0.02658544 -0.028125737 0.024721714 -0.020243665 0.0045611393
-0.005378565 0.02562239 0.0043555144 -0.022562673 -0.015623855 0.035787415 0.0011358476 -0.0033401533
0.0006308946 -0.0069112414 -0.018184012 0.019146476 -0.015951172 0.040082257 -0.02575268 0.036391627
0.01344941 0.012255804 -0.022394136 -0.035232704 -0.0044092853 -0.013980036 0.026316449 -0.0069677527
0.02903953 -0.0064857975 -0.025233746 -0.017358975 0.023733664 -0.007287029 0.012939497 -0.042983998
0.027315104 -0.031424135 0.0018950837 0.010890655 0.030558143 0.048554413 -0.0076491917 0.044878595
0.013320424 0.046284948 0.033113208 0.047527086 -0.0014406841 -0.028870787 -0.027849134 -0.0041376133
0.014956325 -0.012187038 0.0126051055 0.01793308 -0.010251999 -0.02685571 0.023103157 -0.023100866
00000000: fa79 b43b b83a 173b 924b e8b9 af73 4e3c
00000010: 57c4 163d 9575 27bc 4646 063d af52 0a3d
00000020: 95a8 f2bc 8087 d8bc 09cc 06bc d3ca 243c
00000030: 8fa0 d03c 4801 f0bc 9dd1 0a3d d063 713c
00000040: 02c1 31bc e296 0c3d 7cf3 b13c 5e64 ca3b
00000050: 9efc e43b c5d0 d83c ff73 f93c 58e5 b43b
00000060: 4aec 3cbc aa21 373c 008c a1bc d360 7ebb
00000070: bf70 b6bc 55ab bcbb 9684 9a37 e530 123c
00000080: 20ec 0e3b 4486 0dbd 81dd 913c 0052 4cbc
00000090: 16cd a1bc fc4e 183c a1b1 223d 9592 c6bc
000000a0: b88d 983c b0de 043d c80d 133d 1436 b33c
000000b0: c795 b4bc 199e 58bb f3b7 fabb 6261 af3c
000000c0: 861b 0fbd 613b 4ebc 3560 0bbd 16f8 2cbd
000000d0: 9b5c 8f3c d931 cdbc f8b6 9a3b 36cf 1d3d
000000e0: e294 963c 3fd2 183d 6ea7 943b 93b9 c0bc
000000f0: ee28 1bbd 8948 fcbc 513d fd3c c276 063d
00000100: 0ac4 30bc fe19 103d 995b 1e3c 2b83 ecbc
00000110: 5461 ef3c 0eff c63c 4a82 dbbc e1b0 ad3c
00000120: 46ae 353c 1326 0bbd f021 0a3d f208 dabc
00000130: 8f7d 1c3c 4158 fa3b a194 14bd e219 943c
00000140: 3421 5cbb e9d4 b8bc 0bb7 a4ba 5c23 71bc
00000150: 0e13 19bd a008 9e3c 8523 a9bb 1fe3 c53a
00000160: 4eda fabc 6d90 813a 44ed d13b 5a61 4f3c
00000170: 12d9 183d fcd5 923c 793c d3bc 848d 09bd
00000180: 9be4 343d 8544 14bd 9f89 f2bc 37a3 08bd
00000190: 3849 483c 2324 11bd 639e 0ebd 1282 293c
000001a0: 7701 0bbd 1a3e 493b e320 d6bc efc8 debc
000001b0: 5c76 683c 8c39 0bbc 5180 d33c 1f0c 6d3c
000001c0: 1b2b 73bc 8f7a 153b 57bc 473c 6ae2 99bc
000001d0: 6e1e 0bbd e62d 57bc c1ef 12bc 981f 52ba
000001e0: 5350 1ebd 1ba8 1b3c 2f8a edbb 75ef 02bd
000001f0: 988a d23c 96ee 8dbb 47cb 563c cfd0 a9bc
00000200: 503a 1f3c 35cc f0bc 5a5d 80bc ec4b 08bd
00000210: 45f8 c3bc 0e81 a9bc a702 3f3c 60d5 9f3b
00000220: c8c8 033d 3d86 273d de4e c33c c2cc babc
00000230: f550 8e3c ad96 af3c 1dd5 ff3c ca6b 8a3c
00000240: 7f34 133d 73c3 c63b d302 fb3c 6685 3ab9
00000250: 93ed 27bd 2862 78bc c723 0c3c bd3f d23c
00000260: 429a f23c 396f 3f3d 2277 2e3d 13d6 5fbb
00000270: c5de 0bbb 04ee 0a3d 98fc a93c bbec 0b3d
00000280: 7db6 e5bc 2b09 2f3c 3d29 80bc c262 15bd
00000290: 28a9 8d3c 7365 e13b 3b32 06bd 8d71 2cbd
000002a0: 982f bfba 584b 7b3c a20f 053d cc7b 9ebc
000002b0: 6ebf 873b 0e5e 893c 3861 8fbc ac55 ad3c
000002c0: 1568 223d 5bd4 a13c de9d 063d 52ae 05bd
000002d0: e89b ebbc a7d1 123d c313 e23c 5e95 aa3c
000002e0: 9a6e 8a3c c67e 663c fc7b d43c beda c6bc
000002f0: 3fec ff3c e672 15bd 9d82 e2bc 19b6 283c
00000300: 1c73 af3c 02ff bf39 b2c3 543c b5c9 d9bc
00000310: f267 e6bc 3185 ca3c 0bd6 a5bc 9c75 953b
00000320: ac3e b0bb 0ce6 d13c b4b8 8e3b 5bd5 b8bc
00000330: 33fb 7fbc d395 123d b9e0 943a 79e6 5abb
00000340: 9f62 253a b277 e2bb a3f6 94bc 12d9 9c3c
00000350: 08ac 82bc 4b2d 243d 49f7 d2bc 630f 153d
00000360: ea5a 5c3c 91cc 483c e873 b7bc 2b50 10bd
00000370: c47b 90bb 850c 65bc 9895 d73c bf51 e4bb
00000380: 4fe4 ed3c d086 d4bb 00b7 cebc 6934 8ebc
00000390: 1a6d c23c 08c8 eebb 2f00 543c fd0f 30bd
000003a0: edc3 df3c 98b6 00bd 7564 f83a b86e 323c
000003b0: 1255 fa3c fee0 463d 12a6 fabb 9ed2 373d
000003c0: e83d 5a3c 4995 3d3d b7a1 073d c3ab 423d
000003d0: 56d5 bcba 6e82 ecbc de23 e4bc d194 87bb
000003e0: 600b 753c 24ac 47bc a585 4e3c 65e8 923c
000003f0: 00f8 27bc 8200 dcbc d542 bd3c 073e bdbc

bias f4 [64]
-0.01985636 0.04845951 0.014743094 -0.040721647 0.016057825 0.005037812 0.035830446 0.00222929
-0.0392944 -0.026444744 0.0051363283 -0.013000633 0.00846779 0.009988276 0.048869822 0.006281156
0.056379143 -0.025500422 -0.0017378889 -0.015766805 0.0145890545 0.019938221 0.0014215386 -0.0008340083
0.014818324 -0.0075454637 0.018556623 0.019680088 0.044270653 -0.005303885 -0.01080434 0.04146422
0.022283683 -0.024653606 0.023467146 0.016835805 0.04521539 -0.026571741 0.018956417 0.04469722
0.033936687 0.01318408 -0.0049040215 0.007986589 -0.01750344 -0.023610648 0.021062065 0.023213927
-0.014209422 0.016423605 0.046575308 0.01445345 -0.015078848 -0.005823466 -0.0032673525 0.013597501
0.030307494 -0.017240683 -0.0041085375 0.006556058 -0.0033060126 -0.026401613 -0.010458655 0.05989896
00000000: cea9 a2bc 7b7d 463d 058d 713c becb 26bd
00000010: b38b 833c 3b14 a53b f2c2 123d 4819 123b
00000020: 2af3 20bd a6a2 d8bc a54e a83b 9b00 55bc
00000030: 7cbc 0a3c dea5 233c b92b 483d 28d2 cd3b
00000040: d1ed 663d 43e6 d0bc e0c9 e3ba 6329 81bc
00000050: ee06 6f3c 7b55 a33c ec52 ba3a 59a1 5aba
00000060: 8ec8 723c f03f f7bb 0f04 983c 2338 a13c
00000070: 2555 353d 36cc adbb b004 31bc 63d6 293d
00000080: 458c b63c 5cf6 c9bc 2c3e c03c 3eeb 893c
00000090: c633 393d fbac d9bc 7d4a 9b3c 6f14 373d
000000a0: 3201 0b3d 0a02 583c eab1 a0bb 2fda 023c
000000b0: 6063 8fbc 1e6b c1bc 5a8a ac3c 222b be3c
000000c0: a3ce 68bc cc8a 863c c0c5 3e3d 2ace 6c3c
000000d0: 460d 77bc c6d2 bebb 1421 56bb 0ec8 5e3c
000000e0: 6c47 f83c 553c 8dbc e9a0 86bb 33d4 d63b
000000f0: b0a9 58bb 3248 d8bc c75a 2bbc 9d58 753d

weight f4 [64, 32, 3, 3]
-0.02273707 -0.044888917 0.0450251 0.043326035 -0.0261494 -0.0029503165 -0.036600087 0.0076468727
-0.024136456 -0.034195162 -0.05621518 -0.05815956 -0.053901177 0.021901745 0.029659957 -0.046581503
0.051043652 0.00067591754 0.027464747 0.042603903 -0.014087778 0.033928845 0.02049167 -0.037016913
0.024092777 -0.05008874 -0.05132729 -0.03646591 0.0486448 0.020301942 0.0045781834 0.04803323
-0.024701072 -0.0033051271 0.051396042 -0.03203868 -0.047341477 -0.04179154 0.038586188 -0.011636571
0.0020248024 -0.032486204 0.050084703 -0.008038261 0.043644607 0.016770711 -0.024863856 0.040570688
-0.016317692 0.038827755 0.03209449 -0.00068428146 0.002607018 0.05855868 -0.0047600777 0.04672057
-0.04107473 -0.029851701 -0.029658014 -0.051428095 -0.00494847 -0.0029517403 0.043957155 0.0065599317
0.04482652 0.04912397 0.0042702467 -0.025537582 -0.046686903 -0.011146133 -0.01555476 0.014212265
0.005306024 -0.019252077 0.0103824185 0.038126003 -0.01310992 -0.010129027 0.0495055 0.0198613
0.049996965 0.060838282 0.05059096 -0.036851205 0.055384353 -0.018939136 0.04230989 0.060854807
-0.040351853 0.051421676 -0.018046152 0.0118858395 0.034558672 -0.0063786064 -0.02290357 -0.00933804
0.0049452935 -0.0013349755 0.04336433 -0.020428699 0.06019465 -0.029365202 -0.061109688 -0.03236239
-0.043344647 -0.05225482 -0.039159965 0.044147775 -0.028577726 0.033532873 0.059946656 -0.034238584
-0.048734706 0.012297042 -0.040560775 -0.04111475 -0.04151466 0.028706234 -0.01630438 -0.009282843
0.02848849 0.047710694 -0.015559265 -0.005233666 -0.04540378 0.04829644 -0.00034244003 0.0031447073
-0.013703731 0.011933112 0.019715304 0.0050997087 -0.019293768 -0.034291737 -0.009434162 0.044673428
-0.039386164 -0.01494989 -0.04716691 0.037422203 -0.046052303 -0.031437356 0.03674014 -0.064634554
-0.024672959 0.036969207 0.049654484 -0.03731642 0.057487093 -0.0297418 -0.052840162 0.047734246
-0.0411375 0.0001525266 0.013471225 -0.061015245 0.05329553 0.03210288 0.010261653 0.027092459
0.04125678 0.009182397 -0.028686244 0.004961953 0.059085727 -0.024724977 0.047078203 0.05309814
-0.03748236 -0.015131391 0.007188632 0.03225722 -0.011295824 0.03259793 -0.026321664 0.036343317
0.0029032652 0.009884605 0.06175995 0.020293046 0.06617852 0.04151697 0.0667918 0.056285057
-0.028119627 0.0010545071 0.018479582 -0.020787304 0.04206143 -0.03543282 0.04943552 0.033120513
-0.045552544 -0.048402593 -0.024617443 0.022373749 -0.044922613 -0.04867723 0.021001026 0.049263094
-0.03924513 0.059635893 -0.0056196083 0.019128459 -0.041242443 -0.0071998956 0.06484899 -0.024396721
0.040905334 -0.03405686 -0.043867268 0.00088797905 0.022476202 0.026072567 -0.061298825 -0.0012439957
0.025331367 0.03688235 -0.055221003 -0.0514175 -0.040874373 0.016750712 -0.012413276 0.02370751
-0.010332842 -0.049809698 -0.01985705 0.039549105 -0.046581846 0.026498072 0.057767674 -0.026756689
-0.053593997 -0.041853588 0.05837066 0.038451184 -0.02390566 0.0096302 0.060810115 -0.03636403
0.037020102 -0.053391747 0.051763386 0.009954924 0.03555483 0.03141013 0.0032038118 0.05324319
0.0072241733 -0.014338045 0.023031164 0.021677487 0.043211088 -0.050971977 -0.0017745737 -0.0042754575
00000000: 1843 babc 71dd 37bd 3d6c 383d a476 313d
00000010: 4437 d6bc 195a 41bb f9e9 15bd 9e92 fa3b
00000020: d1b9 c5bc 3a10 0cbd e341 66bd b838 6ebd
00000030: 7bc7 5cbd 4a6b b33c 70f9 f23c 3fcc 3ebd
00000040: 2613 513d 0f30 313a c0fd e03c 6e81 2e3d
00000050: 6cd0 66bc f9f8 0a3d 26de a73c 0c9f 17bd
00000060: 375e c53c da29 4dbd 903c 52bd 475d 15bd
00000070: c53f 473d 4250 a63c 9604 963b 7ebe 443d
00000080: e759 cabc d59a 58bb a884 523d fe3a 03bd
00000090: 23e9 41bd 9b2d 2bbd 8d0c 1e3d 51a7 3ebc
000000a0: 8cb2 043b 4110 05bd 9e25 4d3d e9b2 03bc
000000b0: b0c4 323d bb62 893c 49af cbbc 732d 263d
000000c0: aeac 85bc da09 1f3d 8375 033d 5a61 33ba
000000d0: 81da 2a3b 3adb 6f3d 6dfa 9bbb 125e 3f3d
000000e0: fa3d 28bd 8e8b f4bc 5df5 f2bc 44a6 52bd
000000f0: c626 a2bb fc71 41bb 6b0c 343d b2f4 d63b
00000100: 039c 373d 3736 493d 6ded 8b3b 3134 d1bc
00000110: c43a 3fbd 459e 36bc 64d9 7ebc 8fda 683c
00000120: 28de ad3b 88b6 9dbc 051b 2a3c 032a 1c3d
00000130: fdca 56bc 38f4 25bc 47c6 4a3d 2ab4 a23c
00000140: 9ec9 4c3d 9031 793d 7738 4f3d 4af1 16bd
00000150: b4da 623d 3f26 9bbc 234d 2d3d e442 793d
00000160: fc47 25bd 899f 523d 86d5 93bc d3bc 423c
00000170: 658d 0d3d a103 d1bb 45a0 bbbc 94fe 18bc
00000180: 210c a23b 58fa aeba cc9e 313d 165a a7bc
00000190: aa8e 763d 4b8f f0bc 274e 7abd 6d8e 04bd
000001a0: 288a 31bd 2609 56bd 3366 20bd 4cd4 343d
000001b0: d61b eabc c459 093d a08a 753d c23d 0cbd
000001c0: 0b9e 47bd 8879 493c 0e23 26bd f167 28bd
000001d0: 470b 2abd 5629 eb3c c390 85bc 1117 18bc
000001e0: b260 e93c 4a6c 433d 4aec 7ebc 2c7f abbb
000001f0: 50f9 39bd 7dd2 453d 8689 b3b9 6f17 4e3b
00000200: 9d85 60bc 1983 433c fd81 a13c 751b a73b
00000210: f70d 9ebc 7e75 0cbd be91 1abc 7cfb 363d
00000220: 6353 21bd 62f0 74bc 1732 41bd 0648 193d
00000230: 57a1 3cbd 75c4 00bd d47c 163d 1f5f 84bd
00000240: f21e cabc 066d 173d 8062 4b3d 1ad9 18bd
00000250: 9677 6b3d 13a5 f3bc ed6e 58bd fc84 433d
00000260: cc7f 28bd 8cef 1f39 6ab6 5c3c 1feb 79bd
00000270: 6a4c 5a3d 4f7e 033d 7e20 283c 01f1 dd3c
00000280: dffc 283d c471 163c 6aff eabc e197 a23b
00000290: e003 723d 098c cabc 13d5 403d 6f7d 593d
000002a0: 1a87 19bd a7e9 77bc 9e8e eb3b 2620 043d
000002b0: 1f12 39bc 6885 053d 88a0 d7bc bbdc 143d
000002c0: b544 3e3b 0af3 213c 00f8 7c3d 9a3d a63c
000002d0: 9b88 873d b30d 2a3d 24ca 883d 298b 663d
000002e0: 225b e6bc 6337 8a3a 7e62 973c 234a aabc
000002f0: 9b48 2c3d 0122 11bd e67c 4a3d 60a9 073d
00000300: 4e95 3abd cc41 46bd 85aa c9bc 2749 b73c
00000310: c600 38bd c661 47bd 580a ac3c 19c8 493d
00000320: 80bf 20bd c444 743d b124 b8bb 49b3 9c3c
00000330: d6ed 28bd 1aed ebbb 8ccf 843d a2db c7bc
00000340: 5a8c 273d 357f 0bbd 2aae 33bd 44c7 683a
00000350: 0320 b83c 2396 d53c 7a14 7bbd 920d a3ba
00000360: ba83 cf3c f211 173d 6b2f 62bd 289b 52bd
00000370: e36b 27bd ca38 893c 0e61 4bbc 4136 c23c
00000380: 154b 29bc 4105 4cbd 41ab a2bc 3efe 213d
00000390: 9bcc 3ebd 7c12 d93c cc9d 6c3d d830 dbbc
000003a0: 6185 5bbd ab6e 2bbd 1316 6f3d fd7e 1d3d
000003b0: cdd5 c3bc fdc7 1d3c 0714 793d 73f2 14bd
000003c0: 64a2 173d 4eb1 5abd d805 543d fa19 233c
000003d0: f1a1 113d e9a7 003d 0bf7 513b 8815 5a3d
000003e0: c2b8 ec3b 1fea 6abc daab bc3c fc94 b13c
000003f0: 1cfe 303d fec7 50bd d098 e8ba 2319 8cbb

bias f4 [32]
-0.023064563 -0.0014642556 -0.038066655 0.07062132 0.017861005 0.04671137 0.04297658 0.027761893
0.013606034 -0.0002387017 0.02502422 0.032719556 0.07584671 0.008208557 -0.032804586 -0.035313856
0.03986343 0.04999181 0.018040499 0.047916736 -0.0151503375 -0.018506745 0.032152526 -0.010711904
0.060494583 0.03551646 0.046971112 0.019141655 0.007524303 -0.040475186 -0.012484504 -0.029086672
00000000: e5f1 bcbc 44ec bfba c8eb 1bbd e9a1 903d
00000010: 3e51 923c 6c54 3f3d 3608 303d e96c e33c
00000020: d8eb 5e3c 004c 7ab9 98ff cc3c f104 063d
00000030: 8555 9b3d 2f7d 063c 1a5e 06bd 43a5 10bd
00000040: d647 233d 36c4 4c3d abc9 933c 5744 443d
00000050: 1f39 78bc 759b 97bc 5eb2 033d fb80 2fbc
00000060: 2bc9 773d b579 113d c864 403d f6ce 9c3c
00000070: 6e8e f63b 4fc9 25bd ce8b 4cbc 2c47 eebc
