Baseline/bestKernel_Size_Set_2.pt (torch_old, 132707 bytes, 16 tensors)

weight f4 [16, 3, 7, 7]
-0.06946758 -0.039492067 -0.033503044 -0.071373634 0.011667768 0.032696445 -0.0119157415 -0.022722326
0.0099320905 -0.05843857 -0.04237175 0.0044843154 0.07479808 -0.019314637 0.05302192 -0.017242935
-0.011735773 -0.0732085 0.070831776 0.08627162 0.006995685 0.06529417 0.08107389 0.044678275
0.04876549 -0.07098536 -0.06895593 -0.060490645 0.040603556 -0.06441408 -0.057181463 -0.03122325
-0.06822446 0.0061022877 0.020057911 -0.041418564 0.06221926 -0.026207836 -0.02195402 0.07120251
0.07478568 -0.0029333024 -0.054559633 -0.03254754 0.019597322 0.05313777 0.04794181 -0.026881004
-0.06983931 -0.056926228 -0.018185107 0.008436263 -0.02832449 -0.060682826 0.011886436 -0.058656115
-0.052022055 -0.06895519 -0.022470972 0.077419505 0.035165034 0.002846503 0.028199919 0.043804254
-0.0013470466 -0.0660998 -0.045654114 -0.052491587 0.010454991 -0.0636844 -0.0071415366 -0.03258969
0.08923071 0.07553851 0.056798548 0.016898662 -0.014420205 0.028844414 -0.05932806 -0.026839277
-0.00810027 -0.010645444 -0.06678725 0.043884832 0.07535665 -0.047951818 0.030206714 -0.0014145704
0.005336535 0.014923706 0.081481986 0.010309355 -0.05248409 -0.020628924 0.04942528 0.035085943
0.01172547 -0.0007759734 -0.048122004 -0.03578236 -0.049199037 0.007707998 0.020498328 0.059207726
-0.024122613 -0.010993344 0.036448374 0.0221369 -0.007394457 0.007386957 -0.00901928 -0.079249315
-0.013745691 -0.03412479 0.06070502 0.056710802 -0.0012747096 0.06012914 -0.050965805 0.060059797
0.06840856 -0.014112148 -0.07786817 -0.039013077 -0.035267975 -0.011530535 -0.085613064 0.01357045
-0.044793975 -0.03219693 -0.053945366 -0.029086439 -0.08807419 -0.05421665 0.0063052806 0.043950543
0.06436293 -0.07301004 0.0239781 -0.057000898 -0.06294149 -0.0033688303 -0.056482375 -0.0805357
-0.0867482 -0.0656633 0.057206415 0.05203829 -0.026471235 -0.048531737 -0.056784004 -0.04284989
-0.028538879 0.05425941 0.032497328 -0.026048617 0.063011974 -0.045051057 -0.061720427 0.022918992
-0.040609997 0.02835316 0.07522459 -0.03369426 -0.052079484 0.0360533 -0.06954427 0.078047246
-0.034166314 0.044545487 -0.060026884 -0.050033465 0.013763838 0.03382666 0.06833946 0.07506925
0.0015859324 -0.00498909 0.018499335 -0.013819805 0.007626503 -0.073385164 -0.059094705 0.06253881
-0.042702038 0.07020383 0.014727999 0.024941871 0.079708025 -0.040561784 -0.0076221614 0.01990028
0.03338725 -0.07518623 0.034142356 -0.043553174 0.021696601 0.06702306 0.0029089989 0.007986129
0.0017207176 0.078677855 0.049150914 0.02473615 -0.038916852 -0.03372683 0.07592953 0.066751085
0.05687618 -0.0610288 0.07796647 0.00592768 0.075687855 0.08561525 0.023168785 -0.02177706
0.08809523 -0.028942874 0.067977674 -0.06413411 -0.011655168 -0.057054315 -0.02360189 0.046253346
-0.043065686 -0.055355642 0.07585061 0.060100127 0.015781946 -0.04262836 -0.0068937545 -0.010640034
0.067050956 -0.0099715665 -0.0072936267 -0.041403927 -0.023194462 0.059804037 0.06972124 0.028159974
-0.015825499 0.09302172 0.0337028 -0.019583605 -0.015052628 0.017794626 0.068580545 0.059621274
0.08922399 0.025591372 0.0973691 -0.0055054156 -0.008998661 -0.0014403817 -0.048538294 -0.025385711
00000000: 0545 8ebd 6fc2 21bd 7d3a 09bd 572c 92bd
00000010: 2a2a 3f3c b5ec 053d 3e3a 43bc 2c24 babc
00000020: 35ba 223c 485d 6fbd 008e 2dbd 2af1 923b
00000030: bc2f 993d bb39 9ebc 832d 593d 0e41 8dbc
00000040: 6647 40bc 57ee 95bd 4010 913d 2daf b03d
00000050: 0f3c e53b f3b8 853d 110a a63d 9100 373d
00000060: 53be 473d c660 91bd c438 8dbd 0ac5 77bd
00000070: ea4f 263d 87eb 83bd 1c37 6abd e7c7 ffbc
00000080: 44b9 8bbd b3f5 c73b 7d50 a43c 83a6 29bd
00000090: 9fd9 7e3d d1b1 d6bc ebd8 b3bc 9fd2 913d
000000a0: 3c29 993d a63c 40bb ec79 5fbd 9250 05bd
000000b0: 908a a03c fea6 593d a25e 443d 8d35 dcbc
000000c0: ea07 8fbd 7a2b 69bd eff8 94bc 4038 0a3c
000000d0: c308 e8bc 8e8e 78bd 53bf 423c 6541 70bd
000000e0: 1415 55bd 6138 8dbd 0b15 b8bc 1e8e 9e3d
000000f0: 3609 103d 658c 3a3b 8403 e73c 176c 333d
00000100: 628f b0ba 555f 87bd cfff 3abd 6b01 57bd
00000110: 694b 2b3c f76c 82bd 8d03 eabb c47c 05bd
00000120: 97be b63d efb3 9a3d 98a5 683d 106f 8a3c
00000130: b942 6cbc 1f4b ec3c fb01 73bd 0bde dbbc
00000140: ffb6 04bc 3a6a 2ebc c1c7 88bd 95c0 333d
00000150: 9654 9a3d 2069 44bd 1274 f73c 1b69 b9ba
00000160: 1ade ae3b 8f82 743c 07e0 a63d 92e8 283c
00000170: 8ff9 56bd fdfd a8bc 2a72 4a3d 47b6 0f3d
00000180: 301c 403c b26a 4bba 941b 45bd 8690 12bd
00000190: ee84 49bd 6093 fc3b 1cec a73c cd83 723d
000001a0: c99c c5bc 6d1d 34bc e44a 153d 7258 b53c
000001b0: 334d f2bb 490e f23b 9ac5 13bc 774d a2bd
000001c0: 9b35 61bc 70c6 0bbd d4a5 783d 9649 683d
000001d0: 2814 a7ba f949 763d 85c1 50bd 4301 763d
000001e0: c919 8c3d a436 67bc 5979 9fbd 2dcc 1fbd
000001f0: 2775 10bd 92ea 3cbc e755 afbd 9856 5e3c
00000200: e379 37bd eee0 03bd d1f5 5cbd af46 eebc
00000210: 3e60 b4bd 4712 5ebd 879c ce3b 7c05 343d
00000220: b6d0 833d 4a86 95bd b86d c43c c679 69bd
00000230: 78e7 80bd 98c7 5cbb 105a 67bd e7ef a4bd
00000240: 0aa9 b1bd 7b7a 86bd 4651 6a3d 1a26 553d
00000250: 34da d8bc 37c9 46bd 5896 68bd 5e83 2fbd
00000260: 5eca e9bc 1d3f 5e3d eb1b 053d e963 d5bc
00000270: 6c0c 813d 7587 38bd 8fce 7cbd 9cc0 bb3c
00000280: ab56 26bd e344 e83c 5a0f 9a3d fe02 0abd
00000290: 4c51 55bd a0ac 133d 3a6d 8ebd 3cd7 9f3d
000002a0: faf1 0bbd 5475 363d c0de 75bd e4ef 4cbd
000002b0: b981 613c d38d 0a3d 8ff5 8b3d e8bd 993d
000002c0: 10df cf3a 857b a3bb eb8b 973c 776c 62bc
000002d0: bee7 f93b f64a 96bd 4a0d 72bd 5914 803d
000002e0: 55e8 2ebd 07c7 8f3d b54d 713c e552 cc3c
000002f0: f63d a33d 1d24 26bd 53c3 f9bb e905 a33c
00000300: 12c1 083d 3dfb 99bd dbd8 0b3d d064 32bd
00000310: 12bd b13c 6343 893d e7a4 3e3b 41d8 023c
00000320: b489 e13a db21 a13d 7852 493d 77a3 ca3c
00000330: 4767 1fbd 2525 0abd f180 9b3d cbb4 883d
00000340: fff6 683d 56f9 79bd e2ac 9f3d fc3c c23b
00000350: 3c02 9b3d 0c57 af3d 77cc bd3c ce65 b2bc
00000360: 466b b43d 9b19 edbc e137 8b3d bf58 83bd
00000370: 51f5 3ebc c9b1 69bd c058 c1bc 2674 3d3d
00000380: a565 30bd 99bc 62bd 9157 9b3d 8d2b 763d
00000390: 2449 813c 139b 2ebd 01e5 e1bb 8a53 2ebc
000003a0: 0352 893d c85f 23bc 60ff eebb 2a97 29bd
000003b0: 5002 bebc 14f5 743d 02ca 8e3d bfaf e63c
000003c0: 7aa4 81bc 2c82 be3d f20b 0a3d cc6d a0bc
000003d0: 4c9f 76bc 09c6 913c f573 8c3d 7035 743d
000003e0: 11bb b63d ffa4 d13c 7369 c73d c666 b4bb
000003f0: 1f6f 13bc 31cb bcba 17d0 46bd b2f5 cfbc

bias f4 [16]
-0.0031380844 0.07970235 -0.036557782 0.01975839 -0.054313507 -0.020495176 0.009978942 -0.057427
0.027949812 -0.06440541 -0.026966948 0.0641768 0.08372084 8.030867e-05 -0.0532238 -0.058871623
00000000: 52a8 4dbb fc3a a33d 9dbd 15bd 59dc a13c
00000010: d777 5ebd 80e5 a7bc b77e 233c 9338 6bbd
00000020: 01f7 e43c fce6 83bd cae9 dcbc 206f 833d
00000030: d575 ab3d 646b a838 3301 5abd 5f23 71bd

weight f4 [16, 16, 5, 5]
-0.03507351 -0.047093906 0.015947986 -0.056785874 0.0069675585 0.010996232 -0.037546597 0.02574875
0.0032501214 -0.02176736 -0.052765038 -0.025497178 -0.0073399716 0.023442736 -0.039868366 -0.022127295
-0.064858645 0.01709506 0.025668373 0.015663497 -0.043337844 0.028499579 -0.03377291 0.013211742
0.0076618106 -0.019068297 0.034377392 0.040189285 -0.010252911 0.06607761 0.060856875 0.062240377
0.020128649 -0.0063575516 -0.0075006066 0.040135756 0.012812787 0.060702737 0.06271885 0.024365373
-0.020866178 0.043044657 0.068156876 0.008831363 -0.0055519366 0.008731796 0.030071612 -0.015845494
0.0478579 0.042715337 -0.016907062 -0.016352724 -0.021650825 0.0410058 0.03139821 0.016563486
8.353454e-05 0.01469692 0.050309215 0.017737929 -0.022470355 0.021797769 -0.017499361 0.00045322167
-0.030135429 0.0011385557 0.005182484 -0.02782123 0.034514308 0.04846607 -0.039184805 0.01714964
-0.031987716 -0.007451008 0.026336392 0.003136071 0.019239621 -0.012166118 0.051740013 -0.019589568
0.0134388795 0.009187088 0.03818183 0.009116502 0.034142107 0.019171288 0.036249667 0.004955305
0.020969722 0.053452525 -0.009966379 -0.016032226 0.04069459 0.023402762 -0.04292687 0.024311036
-0.044445403 -0.022548452 0.024117073 0.030782023 -0.0072575714 0.046477124 0.053746596 0.043131925
-0.041928306 -0.0140427295 0.007301623 0.044783317 -0.004190412 0.014471802 0.030747011 -0.021616424
-0.025820559 0.05395302 0.0032160438 0.039885562 -0.044124335 -0.014564482 0.03964501 -0.0004814399
0.021599656 -0.037021417 0.053503983 -0.020115409 0.0021514683 -0.022038063 -0.01227208 -0.03177269
-0.03438295 0.0008378461 -0.011948431 0.046833344 0.011190235 0.049026683 0.003190513 0.021407677
0.058016542 -0.02694251 -0.011395487 0.054617774 -0.0011751803 -0.003031808 0.017781302 -0.015568368
0.01542236 -0.010250553 0.025751641 0.0028980537 -0.00639122 -0.006766824 0.015742537 0.02734625
-0.0433395 -0.03301782 -0.046235703 0.026142314 0.03997129 -0.04547741 0.015040155 0.0122290235
-0.023547528 0.013682241 0.04154696 0.05150568 0.023977183 -0.0064966246 -0.025541296 -0.01582596
0.0030608883 -0.0009370077 0.040196486 -0.041931957 0.007741483 -0.0129894335 0.007014301 0.05526075
0.010252558 -4.7175155e-05 -0.0069786943 -0.040428195 -0.03657917 0.030394064 -0.02049604 0.038623247
-0.004207408 0.026800808 0.046501055 0.019133514 0.030163141 0.052047662 -0.005689688 0.048804916
-0.03123893 0.05647404 -0.00571323 0.009508093 0.040710267 0.013880528 0.05483905 -0.011610984
-0.022972355 0.049526326 -0.023339698 0.039406944 0.05303134 0.040336594 -0.014110581 0.005481424
-0.04011458 -0.022685692 -0.003737947 -0.027988123 0.03388247 0.033507507 -0.009340885 -0.0012213428
0.053336944 0.0018743309 0.047634333 0.0532739 -0.01097725 -0.04260781 0.051604327 -0.01943093
0.055003718 -0.050533023 -0.010436531 -0.004659278 -0.03218422 0.019079339 -0.06360385 -0.038857106
-0.026816059 0.0187638 0.0032376018 0.014079512 0.0025801966 0.025590759 -0.032552794 -0.03524154
-0.024890484 0.0021295354 -0.03426966 -0.001080834 -0.0063276724 -0.0059638517 0.022278594 -0.011029496
0.013190538 -0.033528328 -0.037127372 0.038664095 0.028740468 0.04818293 0.02503213 0.008967272
00000000: 3ea9 0fbd 8ae5 40bd 5aa5 823c 4e98 68bd
00000010: 1e50 e43b 8a29 343c 76ca 19bd 0bef d23c
00000020: fdff 543b 7651 b2bc 2720 58bd 75df d0bc
00000030: 2584 f0bb fb0a c03c 034d 23bd 4d44 b5bc
00000040: 9cd4 84bd f00a 8c3c 7b46 d23c bc50 803c
00000050: 0683 31bd f377 e93c 7655 0abd 1076 583c
00000060: ed0f fb3b 1e35 9cbc 4fcf 0c3d 859d 243d
00000070: d3fb 27bc b353 873d 0f45 793d c4ef 7e3d
00000080: d6e4 a43c 0253 d0bb a6c7 f5bb 6465 243d
00000090: b9ec 513c 6fa3 783d be72 803d e499 c73c
000000a0: 8cef aabc 984f 303d d595 8b3d 6cb1 103c
000000b0: 05ed b5bb cf0f 0f3c be58 f63c 69ce 81bc
000000c0: a506 443d 47f6 2e3d ae80 8abc 26f6 85bc
000000d0: 125d b1bc b3f5 273d 699b 003d 26b0 873c
000000e0: 442f af38 5acb 703c 0911 4e3d 224f 913c
000000f0: c013 b8bc 3c91 b23c d25a 8fbc 629e ed39
00000100: 93de f6bc 973b 953a d4d1 a93b 59e9 e3bc
00000110: e05e 0d3d 5c84 463d 3f80 20bd 677d 8c3c
00000120: 8d05 03bd 9627 f4bb 6bbf d73c 8a86 4d3b
00000130: 699c 9d3c 6654 47bc 56ed 533d 4d7a a0bc
00000140: bf2e 5c3c 7185 163c 8d64 1c3d 615d 153c
00000150: 98d8 0b3d 1b0d 9d3c 887a 143d 1c60 a23b
00000160: b2c8 ab3c 09f1 5a3d 064a 23bc 0456 83bc
00000170: 5faf 263d 26b7 bf3c 16d4 2fbd f027 c73c
00000180: 620c 36bd 88b7 b8bc 2b91 c53c 952a fc3c
00000190: ecd0 edbb cc5e 3e3d 6425 5c3d 1aab 303d
000001a0: 04bd 2bbd 7a13 66bc 7442 ef3b b66e 373d
000001b0: b94f 89bb 231b 6d3c 28e1 fb3c ed14 b1bc
000001c0: a385 d3bc d8fd 5c3d 43c4 523b 0b5f 233d
000001d0: b8bb 34bd dd9f 6ebc ce62 223d c569 fcb9
000001e0: c3f1 b03c c5a3 17bd fe26 5b3d 12c9 a4bc
000001f0: a6ff 0c3b 2b89 b4bc d610 49bc 1524 02bd
00000200: 23d5 0cbd e6a2 5b3a 5ac3 43bc 52d4 3f3d
00000210: 3f57 373c 34d0 483d ed17 513b 275f af3c
00000220: c1a2 6d3d 8ab6 dcbc 23b4 3abc e3b6 5f3d
00000230: 8208 9aba 4cb1 46bb 18aa 913c 7812 7fbc
00000240: 11ae 7c3c eff1 27bc 1bf5 d23c 46ed 3d3b
00000250: 706d d1bb 3cbc ddbb 7ef6 803c 3e05 e03c
00000260: c284 31bd b23d 07bd a661 3dbd 6828 d63c
00000270: efb8 233d 8546 3abd fb6a 763c 3e5c 483c
00000280: bfe6 c0bc 7a2b 603c 252d 2a3d 9ff7 523d
00000290: cc6b c43c a3e1 d4bb fb3b d1bc 72a5 81bc
000002a0: 2f99 483b 86a1 75ba 12a5 243d d8c0 2bbd
000002b0: 44ac fd3b a2d1 54bc 39d8 e53b 1959 623d
000002c0: 58fa 273c f0dd 45b8 88ad e4bb 0998 25bd
000002d0: 0ad4 15bd f9fc f83c 50e7 a7bc 6933 1e3d
000002e0: 4cde 89bb 5e8d db3c e477 3e3d e3bd 9c3c
000002f0: b118 f73c ee2f 553d 9070 babb aae7 473d
00000300: c9e8 ffbc 5351 673d 0c36 bbbb d5c7 1b3c
00000310: cfbf 263d 276b 633c e99e 603d ff3b 3ebc
00000320: 8530 bcbc 1edc 4a3d e532 bfbc 2d69 213d
00000330: 6437 593d fc37 253d 1130 67bc 849d b33b
00000340: 304f 24bd 58d7 b9bc 58f8 74bb 5947 e5bc
00000350: 58c8 0a3d 2b3f 093d 830a 19bc 7715 a0ba
00000360: d777 5a3d 1cac f53a 381c 433d bc35 5a3d
00000370: ecd9 33bc 8785 2ebd 0f5f 533d 9d2d 9fbc
00000380: 944b 613d b7fb 4ebd fcfd 2abc dbac 98bb
00000390: 9ad3 03bd 464c 9c3c bc42 82bd a128 1fbd
000003a0: 5aad dbbc 8ab6 993c f22d 543b c1ad 663c
000003b0: 8418 293b b6a3 d13c 1456 05bd 6f59 10bd
000003c0: 21e7 cbbc ad8f 0b3b 585e 0cbd c5aa 8dba
000003d0: 5d58 cfbb 6a6c c3bb 9981 b63c 0fb5 34bc
000003e0: 201d 583c 0055 09bd df12 18bd 3e5e 1e3d
000003f0: 2171 eb3c 775b 453d 2e10 cd3c 77eb 123c

bias f4 [16]
0.03364764 0.039732054 -0.032577015 -0.02176519 0.009231367 -0.008129099 -0.036900178 0.03591292
-0.0269548 0.034891006 -0.022760026 -0.051778365 0.013181651 -0.028478246 0.026063932 -0.009106158
00000000: 1cd2 093d 14be 223d 7a6f 05bd e94c b2bc
00000010: 293f 173c ea2f 05bc a424 17bd 6d19 133d
00000020: 50d0 dcbc dfe9 0e3d 3c73 babc 8d15 54bd
00000030: daf7 573c 364b e9bc 0784 d53c ff31 15bc

weight f4 [16, 16, 3, 3]
0.0062496294 0.06024531 -0.056061625 -0.035715733 0.05522256 0.068458006 0.013403937 0.062900186
0.048880715 0.045302708 -0.0050639203 0.078522556 -0.028016098 0.004210169 -0.026809234 -0.0075461413
0.048879106 0.061786216 0.010775283 0.053280406 0.05679668 0.038887665 -0.024203748 0.04696655
0.06867203 0.067824356 0.020259956 0.049326632 -0.069172055 0.006522721 -0.082913585 0.03252425
-0.0053390195 -0.025614502 0.041199308 -0.022012636 0.03207443 0.042873822 -0.043398324 -0.07390358
0.0057255803 -0.05283469 -0.04878127 0.037750833 0.018114544 -0.02806125 -0.040360287 -0.074066944
-0.044907756 -0.0034365484 -0.06036677 -0.085615285 -0.09083115 -0.0893792 -0.04754647 0.009091861
-0.051735397 0.043839507 0.035429984 -0.07977237 0.0071245693 -0.047031455 0.054849777 0.04602294
0.019780202 -0.06226936 -0.0040572286 -0.07088834 -0.008303684 0.06553242 -0.035314515 -0.06918876
-0.042578913 -0.053555682 0.040308427 -0.05097141 0.056647822 0.046861324 0.04849732 -0.0054400885
-0.018951148 0.026597545 -0.017391954 0.028275294 0.015411157 0.025109716 -0.039631374 0.048198268
-0.019522302 0.043812238 -0.006549908 -0.08312653 -0.008484692 -0.027519805 -0.04226684 -0.0044160383
-0.03263195 0.0058718394 -0.025443172 -0.049561154 0.031267557 -0.06951858 -0.057378326 -0.008398311
-0.0047616456 -0.06982136 0.048974905 0.0120439585 0.031284936 -0.00476343 -0.022397025 -0.03285112
-0.011019319 -0.06929197 0.033219755 0.02026038 0.05599493 -0.08328337 -0.0145181 -0.03803034
-0.0034112995 0.00666787 -0.018804392 -0.014518725 -0.02076806 0.011966977 -0.051871564 -0.015883347
0.028797148 0.04967598 0.0031321577 -0.018889995 0.00752721 0.031962816 0.009672678 -0.050278913
-0.0674748 0.036804974 -0.037344474 0.02966699 -0.07327364 0.04417612 0.033737328 -0.017889712
-0.05761975 -0.0031986167 0.05335183 0.069463134 0.0036188196 -0.00024876322 0.075249955 0.021667657
0.08667825 0.081407554 -0.04785467 -0.052493934 -0.02125964 -0.0060479455 0.08215881 -0.055986784
0.044228517 0.07105502 0.0108529655 -0.063892476 -0.05686213 0.018434882 0.030584486 0.025928117
0.058249548 0.0604487 -0.06557593 0.028883308 0.040009905 -0.05453513 -0.062417597 -0.086490735
-0.09466144 0.033491667 0.012117839 -0.05784696 -0.06842003 -0.071241096 0.08181942 0.033841617
0.020228866 -0.0002968946 0.04070148 0.015955117 0.042894896 0.03043362 -0.03423409 -0.03200267
0.03134043 0.03059539 0.06737111 -0.05230488 0.049883142 -0.067043446 0.0014843968 -0.068270005
-0.052219894 -0.05114249 0.06792429 0.06454701 -0.03646319 -0.003439235 -0.080850616 -0.07498644
-0.050634988 -0.004113661 -0.07891343 -0.024658613 -0.00012676441 -0.0030522186 -0.01021005 0.0028894066
0.08832786 -0.06497682 -0.053844742 0.049769353 0.032109283 0.077490315 0.0727907 -0.054982256
-0.011881293 -0.07015301 0.038869016 0.05491042 -0.06072489 -0.03954909 0.050200626 0.02596201
-0.045899563 0.0057887067 -0.052527286 0.035521638 0.018625282 0.028068146 0.0017986905 0.00834147
-0.05610497 0.08396578 0.00288238 0.017742952 0.023095 -0.064270176 0.039935023 0.0899109
0.062164765 0.03188076 0.04377225 0.03005282 0.005414017 0.041759152 0.032706108 0.032546546
00000000: b1c9 cc3b c9c3 763d e0a0 65bd a94a 12bd
00000010: 0d31 623d b633 8c3d 309c 5b3c d0d1 803d
00000020: 2537 483d 558f 393d 3eef a5bb 6fd0 a03d
00000030: 0482 e5bc 75f5 893b 0a9f dbbc 9f45 f7bb
00000040: 7535 483d 8b13 7d3d d08a 303c 8e3c 5a3d
00000050: a3a3 683d ac48 1f3d f046 c6bc ff5f 403d
00000060: eca3 8c3d 7fe7 8a3d 35f8 a53c b90a 4a3d
00000070: 14aa 8dbd 8dbc d53b 99ce a9bd 2638 053d
00000080: f1f2 aebb 81d5 d1bc 9bc0 283d d853 b4bc
00000090: 7a60 033d 769c 2f3d 71c2 31bd c35a 97bd
000000a0: a69d bb3b 3069 58bd dece 47bd 9ea0 1a3d
000000b0: f464 943c b5e0 e5bc d450 25bd 69b0 97bd
000000c0: 32f1 37bd b737 61bb 2543 77bd 1157 afbd
000000d0: af05 babd 710c b7bd 16c0 42bd 07f6 143c
000000e0: 7fe8 53bd 0e91 333d 081f 113d b25f a3bd
000000f0: 3875 e93b 0ea4 40bd 29aa 603d 8d82 3c3d
00000100: 170a a23c 280e 7fbd 80f2 84bb e82d 91bd
00000110: 2d0c 08bc dd35 863d f4a5 10bd d6b2 8dbd
00000120: 3a67 2ebd 345d 5bbd 731a 253d 66c7 50bd
00000130: 8c07 683d a9f1 3f3d 20a5 463d c542 b2bb
00000140: 703f 9bbc 18e3 d93c 9279 8ebc 97a1 e73c
00000150: 147f 7c3c e4b2 cd3c 8254 22bd 8c6b 453d
00000160: 3ced 9fbc 7674 333d 9ca0 d6bb 3e3e aabd
00000170: 6103 0bbc 3771 e1bc fe1f 2dbd 6ab4 90bb
00000180: 14a9 05bd 8f68 c03b 336e d0bc a300 4bbd
00000190: 6912 003d c25f 8ebd 8905 6bbd 1299 09bc
000001a0: 9407 9cbb 80fe 8ebd e999 483d 0654 453c
000001b0: a224 003d 8c16 9cbb f779 b7bc e58e 06bd
000001c0: 608a 34bc f3e8 8dbd 7011 083d 19f9 a53c
000001d0: f15a 653d 7990 aabd 53dd 6dbc b4c5 1bbd
000001e0: 1c90 5fbb 267e da3b ab0b 9abc f2df 6dbc
000001f0: c721 aabc 2411 443c 4777 54bd cb1d 82bc
00000200: ffe7 eb3c 0a79 4b3d e344 4d3b 31bf 9abc
00000210: d0a6 f63b 71eb 023d 277a 1e3c 43f1 4dbd
00000220: 3a30 8abd d0c0 163d 85f6 18bd 3008 f33c
00000230: 7d10 96bd 05f2 343d 2730 0a3d 728d 92bc
00000240: b002 6cbd e29f 51bb 7387 5a3d b042 8e3d
00000250: b829 6d3b 6f6c 82b9 a61c 9a3d 5f80 b13c
00000260: 5e84 b13d 01b9 a63d 4203 44bd e103 57bd
00000270: b228 aebc d82d c6bb e142 a83d 6652 65bd
00000280: f628 353d 4b85 913d a3d0 313c 0fda 82bd
00000290: 44e8 68bd c004 973c 518c fa3c 3467 d43c
000002a0: 1497 6e3d 0e99 773d ac4c 86bd b09c ec3c
000002b0: 6de1 233d 3a60 5fbd 98a9 7fbd 0e22 b1bd
000002c0: dbdd c1bd 8f2e 093d e789 463c eff0 6cbd
000002d0: cd1f 8cbd dae6 91bd f190 a73d 829d 0a3d
000002e0: 02b7 a53c 85a8 9bb9 98b6 263d 4eb4 823c
000002f0: 8fb2 2f3d ed4f f93c 0c39 0cbd 3b15 03bd
00000300: d35e 003d 2fa3 fa3c ddf9 893d a43d 56bd
00000310: 4452 4c3d 134e 89bd 1790 c23a 25d1 8bbd
00000320: 87e4 55bd ca7a 51bd e41b 8b3d 3931 843d
00000330: 6d5a 15bd ca64 61bb 0295 a5bd 7e92 99bd
00000340: a266 4fbd e4cb 86bb 5d9d a1bd dc00 cabc
00000350: 10ec 04b9 bb07 48bb 0e48 27bc 335c 3d3b
00000360: 3de5 b43d 9112 85bd 4e8c 5cbd f3da 4b3d
00000370: 0685 033d 3eb3 9e3d 4a13 953d 1335 61bd
00000380: c1a9 42bc 62ac 8fbd 1e35 1f3d c0e9 603d
00000390: aaba 78bd 3afe 21bd 2c9f 4d3d 48ae d43c
000003a0: 2e01 3cbd 31af bd3b da26 57bd 237f 113d
000003b0: 0c94 983c 2bef e53c 0ac2 eb3a a9aa 083c
000003c0: 53ce 65bd 40f6 ab3d 50e6 3c3b ab59 913c
000003d0: ba31 bd3c 15a0 83bd e892 233d 3523 b83d
000003e0: 7ba0 7e3d 6695 023d 884a 333d 5531 f63c
000003f0: 1168 b13b a50b 2b3d d7f6 053d 874f 053d

bias f4 [16]
-0.023596197 0.0025402165 -0.0065407306 -0.020548295 0.04438192 0.020283133 -0.07659862 0.036335308
-0.06302597 0.025139336 0.025700247 -0.0311591 0.043526307 0.01122057 -0.03253279 0.06658079
00000000: d04c c1bc c379 263b a053 d6bb e654 a8bc
00000010: d1c9 353d d028 a63c bddf 9cbd 55d4 143d
00000020: c213 81bd 02f1 cd3c 5389 d23c 5e41 ffbc
00000030: a448 323d 7bd6 373c 1a41 05bd 825b 883d

weight f4 [16, 16, 3, 3]
0.053645253 0.061121527 -0.057136144 -0.063308075 -0.07321962 0.053885072 0.04882079 -0.05076748
0.03277829 0.016706795 -0.035922255 0.0023859404 -0.050599884 -0.025197612 0.032132182 0.011332471
-0.06290357 0.019993931 -0.005056434 -0.04849351 -0.0669457 0.014833921 -0.04816912 -0.038624573
0.023564318 0.015877482 -0.024335125 0.015866462 0.04182328 -0.03267072 -0.026768722 0.011945015
0.02061163 0.032028083 0.055410907 -0.0051860763 0.03141427 -0.04539002 -0.008202606 0.06545342
-0.07793411 -0.05262354 -0.06869278 0.07188011 -0.0072623296 0.07600748 -0.045419887 -0.02330378
0.053093866 -0.08362525 -0.08200568 -0.056511007 0.00056109356 -0.07767062 0.018460575 0.07210339
-0.010944479 -0.00884855 -0.057395622 -0.007521266 0.00039822204 0.02141717 -0.021234415 -0.051154237
-0.04395107 0.05704899 -0.045544297 0.00608474 -0.0153929535 -0.033844333 -0.0041982247 0.062052596
0.05665045 -0.02260082 -0.013966904 -0.05347512 -0.04265745 -0.011911979 0.05426493 0.006067588
-0.07087746 -0.019393055 -0.066240035 0.08268118 0.009294163 -0.015983224 0.039295692 -0.07738275
-0.023378776 0.013280518 0.06787603 0.08700332 0.016464647 -0.06640067 0.033986796 -0.030225731
0.09067066 -0.005273532 -0.011782046 -0.013137242 0.07626862 0.035600923 -0.058238596 0.013499874
0.025198089 -0.02275924 0.026545633 -0.076298356 -0.032884803 0.03297845 0.054724663 0.017213358
-0.026809141 0.015348879 -0.0340173 -0.04236085 -0.040681988 -0.007891349 0.0174157 0.0058326935
0.079948716 -0.006382375 0.07603218 -0.062260542 -0.04359389 0.010561163 0.049680702 0.025164494
0.081717424 -0.043890186 0.07826858 0.02648207 0.022263473 -0.002066639 -0.060170405 0.04718942
0.02064404 0.061006542 0.064326964 -0.06808129 0.08109447 -0.01617698 -0.053246528 0.0760453
-0.008826806 0.018704545 0.017230539 -0.040245987 0.057835583 0.036639154 0.071636006 -0.018324198
-0.056282643 0.021927882 -0.016022054 0.0064855153 -0.06270258 0.080579594 -0.037718974 -0.0030104667
0.0071734493 -0.03086576 0.056380536 -0.060791075 -0.009722464 -0.04284098 0.05835271 -0.053044133
0.07472248 -0.058925353 -0.06965721 0.002935748 -0.07902144 0.08265635 0.08143922 -0.034749474
0.06261818 -0.026049117 0.024117354 -0.05288438 -0.00061487296 -0.020777933 0.022909597 0.032562118
-0.07174881 0.0112571 0.07037832 0.074180245 0.04476012 0.0076917666 0.06320572 0.05039162
-0.049267426 0.0010783157 -0.07105399 0.010985401 0.011628563 -0.049291752 0.023938153 0.061276212
-0.060840663 -0.06620417 -0.034097835 0.016025688 -0.07248347 -0.010608706 0.06714204 -0.06335531
-0.016763192 -0.012017746 0.05617349 -0.024810044 0.0697239 -0.03610235 0.037245255 -0.00871096
0.068964876 -0.043442585 -0.028416714 0.07050563 -0.07424353 0.012411438 0.036985997 -0.011979837
0.06833279 -0.06833263 -0.004182059 -0.035734285 0.0421438 0.089055605 -0.07348368 -0.027766252
-0.05396866 -0.038514815 0.034034993 0.010576389 -0.055789255 -0.044861972 -0.047740433 0.012693401
-0.062791154 -0.060141876 -0.05918107 0.07260059 0.0665277 -0.033491105 0.024657419 -0.0062321573
-0.027875306 0.043411776 -0.05125023 0.004270886 0.042676702 -0.048624277 0.04987994 0.036227193
00000000: 20bb 5b3d 915a 7a3d 9707 6abd aaa7 81bd
00000010: 2bf4 95bd 98b6 5c3d 4ff8 473d 90f1 4fbd
00000020: 8742 063d b0dc 883c 3723 13bd 705d 1c3b
00000030: d341 4fbd 396b cebc 099d 033d d4ab 393c
00000040: 96d3 80bd 50ca a33c 71b0 a5bb 21a1 46bd
00000050: d41a 89bd f909 733c fc4c 45bd cd34 1ebd
00000060: f509 c13c 7e11 823c 755a c7bc 62fa 813c
00000070: e34e 2b3d bcd1 05bd 144a dbbc 06b5 433c
00000080: b9d9 a83c e12f 033d 8cf6 623d f6ef a9bb
00000090: 40ac 003d e3ea 39bd 3964 06bc 710c 863d
000000a0: eb9b 9fbd c88b 57bd cdae 8cbd e135 933d
000000b0: d6f8 edbb cfa9 9b3d 340a 3abd 92e7 bebc
000000c0: f478 593d b743 abbd 98f2 a7bd 1678 67bd
000000d0: 5a16 133a c611 9fbd a23a 973c f1aa 933d
000000e0: 7950 33bc 82f9 10bc ac17 6bbd f474 f6bb
000000f0: 75c8 d039 1073 af3c ccf3 adbc 1b87 51bd
00000100: 0a06 34bd 34ac 693d a88c 3abd 8062 c73b
00000110: ba32 7cbc 5ba0 0abd 4391 89bb dd2a 7e3d
00000120: 4d0a 683d 5b25 b9bc 71d5 64bc ba08 5bbd
00000130: 94b9 2ebd 762a 43bc e744 5e3d 9ed2 c63b
00000140: 3428 91bd 2fde 9ebc dba8 87bd c054 a93d
00000150: 8c46 183c 40ef 82bc 85f4 203d d97a 9ebd
00000160: d984 bfbc 8896 593c 9702 8b3d cc2e b23d
00000170: dee0 863c 13fd 87bd bd35 0b3d f49b f7bc
00000180: 8ab1 b93d 98cd acbb 7c09 41bc 963d 57bc
00000190: b932 9c3d 46d2 113d 988b 6ebd 932e 5d3c
000001a0: 396c ce3c 9671 babc 3a76 d93c 5042 9cbd
000001b0: 37b2 06bd 6914 073d f826 603d 0703 8d3c
000001c0: d89e dbbc dd79 7b3c b955 0bbd 9282 2dbd
000001d0: 28a2 26bd b74a 01bc 5fab 8e3c 2e20 bf3b
000001e0: 27bc a33d 3e23 d1bb c2b6 9b3d e904 7fbd
000001f0: 828f 32bd ba08 2d3c fe7d 4b3d c525 ce3c
00000200: 775b a73d 32c6 33bd 474b a03d edf0 d83c
00000210: e361 b63c 7370 07bb 3e75 76bd b149 413d
00000220: b11d a93c ffe1 793d dbbd 833d 346e 8bbd
00000230: dc14 a63d 9685 84bc 0819 5abd a3bd 9b3d
00000240: 4f9e 10bc 463a 993c 0f27 8d3c fad8 24bd
00000250: 01e5 6c3d f012 163d e6b5 923d a11c 96bc
00000260: a188 66bd 1aa2 b33c af40 83bc 7284 d43b
00000270: 366a 80bd ea06 a53d 367f 1abd 404b 45bb
00000280: 410f eb3b 31da fcbc 47ef 663d 1000 79bd
00000290: f84a 1fbc 067a 2fbd 4003 6f3d ce44 59bd
000002a0: 1908 993d b65b 71bd 70a8 8ebd ae65 403b
000002b0: fed5 a1bd bc47 a93d 9bc9 a63d 7755 0ebd
000002c0: f63d 803d f564 d5bc c291 c53c 4b9d 58bd
000002d0: 6d2f 21ba 7c36 aabc e8ac bb3c db5f 053d
000002e0: 0af1 92bd b36f 383c 8222 903d d0eb 973d
000002f0: 6356 373d 370b fc3b 0072 813d 7167 4e3d
00000300: a4cc 49bd 4556 8d3a c184 91bd 1dfc 333c
00000310: ba85 3e3c 26e6 49bd f219 c43c c4fc 7a3d
00000320: 0f34 79bd 0d96 87bd 2caa 0bbd 4e48 833c
00000330: 3772 94bd 23d0 2dbc c481 893d 6ec0 81bd
00000340: f652 89bc 15e6 44bc 2c16 663d 6f3e cbbc
00000350: 67cb 8e3d 0fe0 13bd 7b8e 183d 6ab8 0ebc
00000360: 753d 8d3d daf0 31bd 2bca e8bc 4165 903d
00000370: fe0c 98bd 5859 4b3c a17e 173d 1447 44bc
00000380: 10f2 8b3d faf1 8bbd a709 89bb 1d5e 12bd
00000390: fa9e 2c3d c962 b63d 9d7e 96bd 0d76 e3bc
000003a0: 3e0e 5dbd b6c1 1dbd 4768 0b3d 9748 2d3c
000003b0: 4683 64bd 30c1 37bd 798b 43bd fcf7 4f3c
000003c0: a698 80bd 5457 76bd da67 72bd 9eaf 943d
000003d0: ad3f 883d f82d 09bd 5bfe c93c 2037 ccbb
000003e0: c15a e4bc 8cd0 313d c3eb 51bd caf2 8b3b
000003f0: c4cd 2e3d 402a 47bd e84e 4c3d f762 143d

bias f4 [16]
-0.029592639 0.043609716 -0.017165191 -0.06997846 0.046951488 -0.02591015 0.059158184 -0.07230157
-0.027019309 -0.055349622 0.01265699 -0.0006680197 0.0135692945 -0.07051887 -0.062681794 0.076563165
00000000: 436c f2bc 1aa0 323d 049e 8cbc de50 8fbd
00000010: 3450 403d 8641 d4bc da4f 723d d812 94bd
00000020: 9957 ddbc 49b6 62bd 445f 4f3c 0b1e 2fba
00000030: bf51 5e3c 336c 90bd 505f 80bd 26cd 9c3d

weight f4 [16, 16, 3, 3]
-0.06792195 0.02497387 -0.075550206 0.012430653 -0.002063833 -0.043899644 -0.0063254265 0.0068018935
-0.0012639171 0.046329655 -0.04507932 0.037435822 0.07560595 -0.05266744 -0.058292054 0.019977199
-0.02541566 -0.0042520873 -0.08361674 0.045820788 -0.010164674 -0.0004631564 -0.033900935 0.024477437
-0.0070786495 -0.03830218 0.016190086 -0.029570388 0.031140259 -0.08035828 -0.0313056 -0.05714265
0.034170184 -0.057488326 0.06491039 0.01913278 0.049168143 -0.054955617 -0.06992457 -0.015705088
-0.046639528 -0.030752398 0.06546737 0.04018776 -0.030839492 0.043746516 -0.062667154 -0.057459682
0.034716304 0.032854877 -0.029837785 -0.052907985 0.018440418 0.08100182 0.07460224 0.062459107
-0.06673201 0.048761547 0.009774871 -0.071846776 0.0021906525 -0.08321795 0.016759498 -0.047417365
-0.058423404 0.0060879095 0.053151086 0.042978726 -0.048463937 0.03792659 0.022225823 -0.061975155
-0.027536718 -0.009773674 -0.06073973 -0.06960297 -0.045829616 0.08181436 -0.013170654 0.023785684
-0.054328617 -0.0095605375 0.027845554 -0.016911125 0.005032894 -0.009075659 0.042886455 -0.054375898
-0.08256809 -0.08691059 0.039282586 -0.03431067 -0.020815238 7.505719e-05 0.059417885 0.011934784
0.019625008 -0.023845177 0.04305101 -0.034377284 0.06454961 0.06693575 -0.06897493 -0.01677931
-0.007918636 -0.0367704 0.013997848 -0.02362529 0.054327194 -0.012561341 -0.047527142 -0.056178603
-0.0745179 -0.04328971 0.002272847 0.015789006 -0.026612384 -0.0059328023 0.02649521 -0.0062631136
-0.0055694757 -0.07180335 0.058131322 -0.04549899 -0.018250061 -0.03390004 0.023716675 -0.07694933
0.017238956 -0.07367176 0.064229235 -0.027272768 0.007023767 0.0020086977 -0.029195907 -0.0153473085
0.07536258 -0.046482172 -0.026205055 0.05065069 0.04422827 0.019962141 -0.07783025 -0.018795319
-0.086064726 -0.044176064 -0.012077619 -0.035089906 0.03153898 -0.0020313791 0.01226273 0.021258444
0.016686149 -0.093509294 0.02239316 0.07170379 0.031618588 0.07162807 -0.03874284 -0.026252668
-0.07110509 -0.06788904 -0.07065265 0.035434857 -0.055966284 0.020740513 0.051041752 0.023296176
-0.042398643 0.04637588 0.023988012 0.016829694 -0.023588702 0.062419914 0.038002588 -0.017528653
0.03419412 -0.05775158 -0.009953953 -0.07334877 -0.07617334 0.065052725 0.039232258 -0.029966898
-0.049345426 -0.03700219 -0.022700613 -0.018344635 0.06512727 0.07126329 0.034839764 -0.057390265
-0.031839415 0.0065867016 -0.05556257 0.08160871 -0.04103005 0.08116156 -0.006704652 0.070306376
0.05065956 0.0026229809 0.07757682 0.0040715896 0.02834725 -0.024887484 -0.076142356 -0.05029159
-0.06590968 0.064673826 0.03725595 0.024101557 0.08364845 -0.06371971 0.019107632 0.0010215875
-0.07386763 -0.066291034 0.090764746 0.08181584 0.031010369 -0.040846415 0.023944374 0.07611075
-0.0024112544 0.010350708 -0.039106824 0.055228986 -0.03570341 -0.048393942 -0.028486 0.008224536
0.019388018 0.061622877 0.05858149 0.0280826 0.03979596 0.07950426 -0.009134686 -0.023549234
0.07187487 0.07765369 -0.00027589084 0.0068806703 0.06819323 -0.012304489 0.092680044 -0.046124518
0.02817152 0.077309944 -0.064261116 -0.012603052 0.05786511 0.056464482 -0.049428873 0.053929288
00000000: aa1a 8bbd 0096 cc3c 11ba 9abd f0a9 4b3c
00000010: 5f41 07bb 1dd0 33bd 8645 cfbb 6be2 de3b
00000020: 05aa a5ba 2ac4 3d3d 18a5 38bd 4e56 193d
00000030: 4bd7 9a3d d0b9 57bd a6c3 6ebd 39a7 a33c
00000040: 8134 d0bc 1855 8bbb 413f abbd 94ae 3b3d
00000050: bc89 26bc cdd3 f2b9 b5db 0abd e884 c83c
00000060: 04f4 e7bb bfe2 1cbd 12a1 843c 993d f2bc
00000070: db19 ff3c e292 a4bd 4d3a 00bd 690e 6abd
00000080: 09f6 0b3d e178 6bbd bdef 843d 59bc 9c3c
00000090: 8964 493d 2419 61bd 9d34 8fbd f5a7 80bc
000000a0: 1709 3fbd 74ec fbbc c213 863d ec9b 243d
000000b0: 1aa3 fcbc 8c2f 333d a357 80bd d85a 6bbd
000000c0: af32 0e3d d692 063d 5f6e f4bc 0bb6 58bd
000000d0: 5c10 973c 48e4 a53d 0fc9 983d 1fd5 7f3d
000000e0: cbaa 88bd 30ba 473d c826 203c 6724 93bd
000000f0: 0d91 0f3b 2c6e aabd 374b 893c b638 42bd
00000100: 614d 6fbd 167d c73b f4b4 593d 760a 303d
00000110: 1f82 46bd e958 1b3d ee12 b63c a9d9 7dbd
00000120: af94 e1bc c321 20bc 39ca 78bd 008c 8ebd
00000130: d6b7 3bbd 4a8e a73d bac9 57bc 32da c23c
00000140: af87 5ebd cda3 1cbc 5c1c e43c 3389 8abc
00000150: faea a43b 13b2 14bc b5a9 2f3d 43b9 5ebd
00000160: 7519 a9bd 2efe b1bd c7e6 203d 5889 0cbd
00000170: b884 aabc 0668 9d38 2b60 733d 1d8a 433c
00000180: a0c4 a03c f656 c3bc 4256 303d 32cf 0cbd
00000190: 9632 843d 9c15 893d ba42 8dbd c374 89bc
000001a0: 2bbd 01bc 8f9c 16bd 3b57 653c d389 c1bc
000001b0: 3186 5e3d 15ce 4dbc d2ab 42bd 891b 66bd
000001c0: d79c 98bd 8d50 31bd 0cf4 143b f257 813c
000001d0: 3702 dabc f467 c2bb 7c0c d93c ce3a cdbb
000001e0: 2680 b6bb a20d 93bd 1c1b 6e3d 265d 3abd
000001f0: 2781 95bc c5da 0abd 7949 c23c 9c97 9dbd
00000200: b638 8d3c 38e1 96bd 9e8a 833d 246b dfbc
00000210: a127 e63b 5ba4 033b 412c efbc 4773 7bbc
00000220: b257 9a3d 1764 3ebd fcab d6bc 1977 4f3d
00000230: b428 353d a587 a33c 7765 9fbd a4f8 99bc
00000240: b442 b0bd f6f1 34bd 35e1 45bc 6fba 0fbd
00000250: 042f 013d e320 05bb 9ee9 483c 3026 ae3c
00000260: 64b1 883c cd81 bfbd dc71 b73c 70d9 923d
00000270: 7e82 013d bdb1 923d d0b0 1ebd d60f d7bc
00000280: 8c9f 91bd 6909 8bbd 56b2 90bd 2424 113d
00000290: e73c 65bd 02e8 a93c 2811 513d 9fd7 be3c
000002a0: 33aa 2dbd a2f4 3d3d 8282 c43c 6dde 893c
000002b0: 183d c1bc 06ac 7f3d 9aa8 1b3d 4098 8fbc
000002c0: 220f 0c3d ec8c 6cbd e815 23bc e137 96bd
000002d0: c500 9cbd 5d3a 853d 01b2 203d 247d f5bc
000002e0: 6e1e 4abd 9c8f 17bd a3f6 b9bc 7d47 96bc
000002f0: 7261 853d 7df2 913d 24b4 0e3d 0e12 6bbd
00000300: 0c6a 02bd 42d5 d73b 9495 63bd 7822 a73d
00000310: 200f 28bd 0838 a63d b3b2 dbbb cafc 8f3d
00000320: 6680 4f3d 51e6 2b3b 99e0 9e3d f86a 853b
00000330: 7e38 e83c d6e0 cbbc 86f0 9bbd 8efe 4dbd
00000340: a8fb 86bd b673 843d b299 183d a170 c53c
00000350: e14f ab3d 7b7f 82bd 9c87 9c3c cae6 853a
00000360: e947 97bd 98c3 87bd dee2 b93d 108f a73d
00000370: 7509 fe3c 924e 27bd fe26 c43c f4df 9b3d
00000380: 2306 1ebb 0496 293c 7a2e 20bd ca37 623d
00000390: bd3d 12bd ba38 46bd 795b e9bc 34c0 063c
000003a0: 9fd3 9e3c 4568 7c3d 25f3 6f3d 7b0d e63c
000003b0: 1701 233d 21d3 a23d a6a9 15bc 53ea c0bc
000003c0: 2233 933d e608 9f3d 71a5 90b9 3f77 e13b
000003d0: e4a8 8b3d c498 49bc 09cf bd3d 10ed 3cbd
000003e0: f6c7 e63c ad54 9e3d 559b 83bd 087d 4ebc
000003f0: f703 6d3d 4d47 673d ee75 4abd f5e4 5c3d

bias f4 [16]
0.002332054 -0.009466003 0.02860282 -0.002602768 -0.04526909 -0.07282817 -0.047770184 -0.07028129
-0.0993498 0.07914447 0.045613494 0.030343978 0.062891595 0.043939058 -0.012143352 -0.0009956819
00000000: 60d5 183b 4b17 1bbc 7650 ea3c 3393 2abb
00000010: 156c 39bd f026 95bd abaa 43bd a3ef 8fbd
00000020: e877 cbbd 7f16 a23d 37d5 3a3d ef93 f83c
00000030: 4fcd 803d 71f9 333d e9f4 46bc 8a81 82ba

weight f4 [16, 16, 3, 3]
-0.02776589 0.043082535 0.023865541 -0.063186936 0.018482152 -0.060377326 0.07249696 0.01787325
0.007803706 -0.042649664 0.021654492 0.019817254 0.027324174 -0.049826097 -0.024267746 -0.052320726
-0.042041812 -0.033548508 -0.050428644 0.098395325 -0.06054925 -0.0046751215 0.020329958 -0.01499471
-0.003383292 0.059426446 0.0026298438 -0.004628214 0.07840507 -0.02492106 0.0014257692 0.057845052
-0.014575768 -0.060905326 0.069461256 -0.066474766 -0.077928714 -0.038952738 0.014836982 0.07172877
-0.06121065 -0.037666872 0.07978565 0.06924471 0.0357763 -0.06377994 0.048009597 -0.011107672
-0.042325187 0.08382257 -0.048734393 0.03591335 -0.026206717 0.09084888 0.004759354 -0.01964906
0.04565683 0.08187447 -0.0024260671 0.056003705 -0.022090647 -0.03898526 -0.04518515 -0.06346506
0.09160369 0.03657311 -0.042670526 -0.05737315 0.0692214 0.024092374 -0.036933195 0.011909695
-0.016020672 0.010981085 -0.02596614 -0.028153384 -0.045166545 -0.025301352 0.014688874 0.05191157
0.033156876 0.053042255 -0.019186448 -0.017095562 -0.048833616 -0.062081378 -0.038713157 -0.0052111475
0.09172891 -0.06622739 0.06570278 0.045869313 0.045091927 0.04784601 0.048031136 0.07584942
0.034942273 -0.013526479 0.03607349 -0.006546136 -0.040184394 0.031756196 0.08344193 0.062978536
-0.034436595 -0.0075261802 0.032163106 0.047599886 -0.058659658 0.021645678 -0.0095632505 0.09417789
0.033790685 -0.03474012 -0.012693893 0.07828497 -0.023757905 0.017507467 0.07474493 -0.07251513
-0.005189213 -0.07347076 -0.023882022 0.033717524 0.0033020198 0.0443911 -0.045758247 0.045766313
-0.030868687 0.06369236 -0.013304896 0.074872546 0.018231697 0.03949184 -0.052507084 0.01758541
0.0663477 -0.05882211 0.06698501 0.035884652 -0.030635323 -0.04826492 0.05678411 -0.019695302
0.054492176 0.02173123 0.08378742 -0.030843407 0.012997472 0.053278316 -0.01897188 0.004603294
0.0040090154 0.08566458 0.034142997 -0.08135856 0.031409636 0.073066056 0.04430747 0.08192089
-0.0108745815 0.016705351 0.10065546 0.091593385 -0.02012075 0.04330638 0.026313847 0.08469779
-0.010414196 0.01567303 0.05400137 0.008587088 -0.02372425 0.07887603 -0.005750384 0.07408589
-0.0010012827 -0.0537488 -0.02973159 0.049177714 0.07842099 0.001390327 0.058681194 0.039179068
0.054608744 0.094167955 0.076813705 0.08520639 -0.035993725 -0.049832232 0.070504546 0.0685835
0.063146874 0.05018623 -0.006496273 0.048038185 -0.026551701 -0.0013228885 0.08662505 -0.04883749
-0.073262095 0.008891633 0.055056985 -0.074756004 0.07030387 0.021448977 0.017042166 0.06716513
0.05594533 0.0028387173 -0.052564662 0.09355579 -0.010990091 -0.019495444 0.054390404 0.08133764
0.026252646 -0.03690343 -0.07778158 0.053477727 0.039061643 0.052842576 0.11131368 -0.027635196
0.04465579 0.08456296 -0.011866051 -0.035988133 -0.06950037 0.002803525 -0.03766352 -0.042289905
-0.060920544 0.05219914 0.0024736368 0.042200014 0.043637216 -0.059828 -0.016884666 0.080469035
0.013598918 0.08337033 -0.047635213 0.0700735 0.037486486 -0.06372163 0.033493377 0.06502814
0.050592363 0.0163233 -0.032875154 -0.027962966 -0.041891932 0.09083506 0.0110754715 0.038568456
00000000: 4b75 e3bc 5077 303d ab81 c33c 2768 81bd
00000010: e267 973c 374e 77bd 4979 943d ec6a 923c
00000020: 3bb6 ff3b 6ab1 2ebd c364 b13c cb57 a23c
00000030: f2d6 df3c 7316 4cbd 27cd c6bc 424e 56bd
00000040: 0934 2cbd 296a 09bd 448e 4ebd 7d83 c93d
00000050: 7e02 78bd c331 99bb 038b a63c 5fac 75bc
00000060: 38ba 5dbb 2569 733d 7559 2c3b 46a8 97bb
00000070: d692 a03d 4027 ccbc e0e0 ba3a efee 6c3d
00000080: 34cf 6ebc dd77 79bd b441 8e3d ec23 88bd
00000090: 1799 9fbd e88c 1fbd d016 733c 89e6 923d
000000a0: 05b8 7abd 9448 1abd a966 a33d 2cd0 8d3d
000000b0: 2b8a 123d 0f9f 82bd b6a5 443d f4fc 35bc
000000c0: 2d5d 2dbd 2bab ab3d b79d 47bd e019 133d
000000d0: 78af d6bc fa0e ba3d 5bf4 9b3b 11f7 a0bc
000000e0: a802 3b3d cdad a73d a7fe 1ebb 2464 653d
000000f0: 72f7 b4bc 02af 1fbd 1014 39bd f8f9 81bd
00000100: b79a bb3d afcd 153d 4ac7 2ebd 1c00 6bbd
00000110: f3c3 8d3d 5f5d c53c 4347 17bd e220 433c
00000120: c93d 83bc 02ea 333c f1b6 d4bc eda1 e6bc
00000130: 8e00 39bd c844 cfbc 9aa9 703c 3aa1 543d
00000140: 81cf 073d d642 593d e62c 9dbc fe0b 8cbc
00000150: c205 48bd 0b49 7ebd b091 1ebd 46c2 aabb
00000160: 5edc bb3d 3aa2 87bd 2e8f 863d 76e1 3b3d
00000170: 50b2 383d 2efa 433d 4cbc 443d f156 9b3d
00000180: a11f 0f3d 2a9e 5dbc ccc1 133d f880 d6bb
00000190: 6498 24bd c912 023d 9ae3 aa3d e4fa 803d
000001a0: 630d 0dbd 2d9e f6bb 76bd 033d 19f8 423d
000001b0: 1c45 70bd 4752 b13c 2eaf 1cbc 56e0 c03d
000001c0: 1a68 0a3d a84b 0ebd 0cfa 4fbc df53 a03d
000001d0: f09f c2bc d26b 8f3c df13 993d d082 94bd
000001e0: 460a aabb d677 96bd 3ba4 c3bc 631b 0a3d
000001f0: b366 583b 71d3 353d 006d 3bbd 7575 3b3d
00000200: 54e0 fcbc 2471 823d c7fc 59bc c756 993d
00000210: a45a 953c 32c2 213d ab11 57bd 470f 903c
00000220: 4ee1 873d 74ef 70bd 702f 893d c9fb 123d
00000230: eef6 fabc 70b1 45bd 7496 683d 0b58 a1bc
00000240: 3033 5f3d b105 b23c bd98 ab3d 50ab fcbc
00000250: 59f3 543c 5d3a 5a3d eb6a 9bbc 3bd7 963b
00000260: 0f5e 833b e970 af3d 87d9 0b3d 519f a6bd
00000270: 64a7 003d a8a3 953d c07b 353d 24c6 a73d
00000280: 4d2b 32bc a9d9 883c 7324 ce3d 5095 bb3d
00000290: 45d4 a4bc 0862 313d 2390 d73c 0976 ad3d
000002a0: 4ea0 2abc ba64 803c 8a30 5d3d dcb0 0c3c
000002b0: 5c59 c2bc c289 a13d b86d bcbb 58ba 973d
000002c0: 793d 83ba b427 5cbd aa8f f3bc 926e 493d
000002d0: 2f9b a03d a23b b63a b15b 703d 3b7a 203d
000002e0: 6bad 5f3d 21db c03d 8150 9d3d b080 ae3d
000002f0: 286e 13bd e21c 4cbd b064 903d 8275 8c3d
00000300: 2653 813d 1490 4d3d b0de d4bb b0c3 443d
00000310: f482 d9bc c664 adba 7968 b13d d209 48bd
00000320: 700a 96bd 36ae 113c 6f83 613d ad19 99bd
00000330: 7afb 8f3d c4b5 af3c 039c 8b3c df8d 893d
00000340: ee26 653d c609 3a3b 0b4e 57bd 2e9a bf3d
00000350: c80f 34bc e9b4 9fbc 79c8 5e3d 5994 a63d
00000360: ca0f d73c 0d28 17bd f34b 9fbd 760b 5b3d
00000370: 1aff 1f3d 7571 583d 6df8 e33d 3563 e2bc
00000380: fde8 363d 582f ad3d d369 42bc 4b68 13bd
00000390: 3656 8ebd 58bb 373b 1045 1abd 2e38 2dbd
000003a0: d287 79bd c4ce 553d bd1c 223b ecd9 2c3d
000003b0: f0bc 323d 340e 75bd b651 8abc f3cc a43d
000003c0: ffcd 5e3c 10be aa3d 241d 43bd b282 8f3d
000003d0: 6e8b 193d 7c80 82bd 5a30 093d 792d 853d
000003e0: f039 4f3d 71b8 853c 19a8 06bd 9712 e5bc
000003f0: e096 2bbd bb07 ba3d e575 353c f5f9 1d3d

bias f4 [16]
-0.027440712 0.08023908 0.025534192 0.0071119517 0.017130585 -0.022163294 0.040474698 0.04484579
0.039159276 0.0010052199 0.043539308 0.0831975 0.06324865 0.09197383 0.04205198 0.063314445
00000000: 58cb e0bc 6354 a43d 152d d13c 600b e93b
00000010: 7155 8c3c cc8f b5bc ccc8 253d 38b0 373d
00000020: 7a65 203d 95c1 833a 4656 323d 7363 aa3d
00000030: 8288 813d c65c bc3d b23e 2c3d 01ab 813d

weight f4 [16, 16, 5, 5]
-0.022375807 -0.05209802 0.018769994 -0.010963606 -0.002601504 0.015104571 0.02407968 0.00589782
0.029485868 0.05773062 -0.020844642 -0.03273679 -0.029172683 0.012864021 -0.012061115 0.018473977
-0.031728234 0.019596461 -0.017123703 -0.000103135215 -0.044522557 -0.06362691 -0.012064643 -0.0021418547
-0.042785123 -0.010974772 0.048801508 0.0035254522 0.041166104 -0.01910485 0.0013101113 0.049336355
-0.031735376 0.037101004 -0.021672376 -0.0022115116 0.030821612 0.045021683 -0.011988281 0.015263249
0.018002057 -0.009575785 0.015352927 0.026599834 -0.010237323 0.0008181616 0.06546605 -0.008858461
0.014429337 0.052806225 -0.004039439 -0.01927458 -0.014928861 -0.02741556 0.0414051 -0.008330267
0.03173243 0.041004285 -0.0042456263 0.030940942 0.06446084 0.01708537 0.03290557 -0.0073748124
0.04811579 -0.025748732 0.008513521 0.022214279 -0.026768506 -0.024899594 0.05106058 -0.017303206
0.021555305 0.06687237 -0.02496916 0.039300866 0.027281657 -0.017652808 0.0036818641 -0.025029287
-0.020134162 0.024573842 0.009458036 0.008935912 0.04597351 -0.015195942 -0.016511755 -0.0513384
-0.055722255 -0.03585319 -0.036724135 0.03399037 -0.035182633 -0.018005054 0.020957254 -0.036327105
-0.0070889625 -0.05670133 0.027713513 -0.058947552 0.044501416 0.011894392 -0.010380221 -0.00079424394
-0.03184968 0.006104228 0.059123967 0.05856324 0.04812481 -0.006377132 0.0075549656 0.037998717
-0.032279193 -0.032708064 -0.03680108 0.07295261 0.046995405 -0.003087467 0.008492864 0.024671149
0.03917137 0.030735655 0.04330981 0.025906367 0.0009552823 0.0007066374 0.016912943 -0.01878059
-0.0013283251 -0.062038053 -0.064554885 -0.060141347 -0.0036661532 -0.04543727 0.0036432794 -0.010855276
0.0020544804 -0.054978292 0.028454829 -0.056940593 -0.025747735 -0.02010128 -0.00038419658 -0.020160742
-0.059428442 -0.04447502 -0.04201268 0.036024723 -0.00034936733 0.018425522 -0.015901282 0.037259247
-0.017545091 0.01850196 0.021449452 0.060377162 0.021922758 0.007212461 0.04506637 0.043534007
-0.02459109 -0.012511272 0.041342605 -0.011220569 -0.016420674 0.004236266 0.0337206 -0.03292072
0.028993813 0.0129227135 0.03636991 -0.025529465 0.0063197506 0.04884344 -0.014225746 0.016639756
0.021113427 -0.02734622 0.045811594 -0.049661875 0.0037362846 -0.006820196 0.048876822 0.02804482
-0.028032828 -0.003817474 0.05881973 0.00034614088 0.019236788 -0.045673877 -0.016635722 -0.044660583
-0.038443074 -0.03697975 -0.00210392 0.006530084 -0.032233484 -0.01976364 -0.0028045974 0.036858425
-0.0009306963 -0.01684557 0.018450966 0.015704153 0.0068870974 0.008446914 0.018656911 0.052845884
-0.022784892 0.029950857 -0.0010604953 0.0364445 -0.010810272 -0.022433478 0.031326987 0.03721022
0.048602827 0.00053520326 0.03068445 0.04907595 0.06279547 0.05768863 0.0111902505 -0.0051425085
0.0197911 -0.048187137 -0.023811433 -0.008744035 0.0041668634 -0.019022109 0.0054149292 -0.053996313
0.0056073256 -0.04701971 -0.053488508 -0.0093568405 0.034386627 -0.007668097 0.004338795 -0.018718524
-0.010788055 -0.0085682385 -0.034954622 0.02615557 -0.042163853 0.011405137 0.024313832 -0.04075835
0.029041067 0.006259872 0.038239803 0.032163635 -0.042567898 0.032131843 0.029239887 0.036325548
00000000: 784d b7bc bc64 55bd 88c3 993c b2a0 33bc
00000010: ff7d 2abb 2a79 773c c042 c53c 8042 c13b
00000020: 598c f13c f176 6c3d 62c2 aabc 0317 06bd
00000030: 8dfb eebc 9dc3 523c fc9b 45bc bd56 973c
00000040: 77f5 01bd c288 a03c 0247 8cbc 4c4a d8b8
00000050: 495d 36bd d34e 82bd c8aa 45bc 5c5e 0cbb
00000060: 743f 2fbd 88cf 33bc 17e4 473d 460b 673b
00000070: ca9d 283d c681 9cbc 0ab8 ab3a eb14 4a3d
00000080: f4fc 01bd 39f7 173d 448a b1bc 02ef 10bb
00000090: 9b7d fc3c a868 383d 7f6a 44bc b512 7a3c
000000a0: 0d79 933c c1e3 1cbc d88a 7b3c e5e7 d93c
000000b0: 72ba 27bc e579 563a 1013 863d 1423 11bc
000000c0: 0769 6c3c 574b 583d 455d 84bb b9e5 9dbc
000000d0: 2e98 74bc 9996 e0bc 6598 293d ac7b 08bc
000000e0: ddf9 013d 1cf4 273d e51e 8bbb dc77 fd3c
000000f0: 0b04 843d 9ef6 8b3c fec7 063d 69a8 f1bb
00000100: 1015 453d 01ef d2bc 4c7c 0b3c b8fa b53c
00000110: a049 dbbc 3cfa cbbc e624 513d 74bf 8dbc
00000120: c094 b03c 62f4 883d 208c ccbc f2f9 203d
00000130: c87d df3c 9f9c 90bc 6e4b 713b 380a cdbc
00000140: 66f0 a4bc 154f c93c e1f5 1a3c ee67 123c
00000150: b84e 3c3d 66f8 78bc a943 87bc 3748 52bd
00000160: 053d 64bd cbda 12bd 0c6c 16bd 7c39 0b3d
00000170: aa1b 10bd 567f 93bc 8cae ab3c bbcb 14bd
00000180: 874a e8bb a73f 68bd 7307 e33c fd72 71bd
00000190: 1e47 363d b2e0 423c cd11 2abc cf34 50ba
000001a0: cf74 02bd fa05 c83b f92b 723d 02e0 6f3d
000001b0: 851e 453d 43f7 d0bb a58f f73b 8ba4 1b3d
000001c0: 3037 04bd e4f8 05bd bbbc 16bd 2e68 953d
000001d0: 417e 403d 1a57 4abb a725 0b3c 261b ca3c
000001e0: 2972 203d 57c9 fb3c a165 313d 9739 d43c
000001f0: e96b 7a3a a23d 393a 038d 8a3c c0d9 99bc
00000200: 321b aeba 9d1b 7ebd 5a35 84bd c656 76bd
00000210: d843 70bb 6e1c 3abd 16c4 6e3b 54da 31bc
00000220: 76a4 063b eb30 61bd 1a1a e93c 8a3a 69bd
00000230: eaec d2bc 71ab a4bc fe6d c9b9 2428 a5bc
00000240: 3d6b 73bd 702b 36bd 7d15 2cbd a98e 133d
00000250: 4a2b b7b9 1ff1 963c 6843 82bc 279d 183d
00000260: b9ba 8fbc 6c91 973c c3b6 af3c 0b4e 773d
00000270: 5b97 b33c 8256 ec3b 8497 383d b750 323d
00000280: 4173 c9bc 14fc 4cbc dd56 293d 7ad6 37bc
00000290: a684 86bc 60d0 8a3b 9d1e 0a3d e0d7 06bd
000002a0: 6f84 ed3c cab9 533c 9df8 143d 2b23 d1bc
000002b0: e915 cf3b 0f10 483d 1a13 69bc 1950 883c
000002c0: 11f6 ac3c 2e05 e0bc f0a4 3b3d 406a 4bbd
000002d0: 74dc 743b f37b dfbb 1033 483d 40be e53c
000002e0: 1aa5 e5bc 962e 7abb f5ec 703d 3e7a b539
000002f0: 7896 9d3c 8814 3bbd a347 88bc 04ee 36bd
00000300: 7c76 1dbd 1478 17bd ece1 09bb 51fa d53b
00000310: 4207 04bd 5be7 a1bc 56cd 37bb dcf8 163d
00000320: f9f9 73ba b9ff 89bc 7b26 973c ffa5 803c
00000330: 29ad e13b ed64 0a3c 61d6 983c ed74 583d
00000340: 62a7 babc 805b f53c 5100 8bba d446 153d
00000350: 911d 31bc 6ac6 b7bc ba50 003d be69 183d
00000360: c213 473d e24c 0c3a f55d fb3c dd03 493d
00000370: e99a 803d ea4a 6c3d 5057 373c 7d82 a8bb
00000380: f220 a23c e05f 45bd 3210 c3bc 2443 0fbc
00000390: 2f8a 883b 41d4 9bbc b86f b13b 3d2b 5dbd
000003a0: a8bd b73b bd97 40bd c416 5bbd 6f4d 19bc
000003b0: fed8 0c3d a944 fbbb 732c 8e3b 9757 99bc
000003c0: 62c0 30bc cc61 0cbc 942c 0fbd 3544 d63c
000003d0: 01b4 2cbd 9ddc 3a3c cd2d c73c 3af2 26bd
000003e0: 88e7 ed3c 9d1f cd3b 57a1 1c3d 04be 033d
000003f0: ad5b 2ebd ae9c 033d 7d88 ef3c 19ca 143d

bias f4 [16]
-0.027741875 0.024968784 0.011806597 -0.014334884 -0.0132033285 0.02386918 0.041657906 0.0014911251
0.03879043 0.033429235 -0.034100845 0.019651681 0.0043530646 -0.039913144 0.022146503 0.0073839356
00000000: ee42 e3bc 568b cc3c 7570 413c dcdc 6abc
00000010: c652 58bc 4c89 c33c 7ba1 2a3d db71 c33a
00000020: b7e2 1e3d 18ed 083d 54ad 0bbd 90fc a03c
00000030: 27a4 8e3b f77b 23bd 956c b53c f1f4 f13b
