Baseline/bestKernel_Num_Set_4.pt (torch_old, 804393 bytes, 16 tensors)

weight f4 [16, 3, 3, 3]
0	0xbe31b7b3	-0.17355232
1	0xbdc921d8	-0.09820908
2	0xbda0aca2	-0.07845427
3	0xbe2ae3ce	-0.16688463
4	0x3d134bf3	0.035961103
5	0x3da167a5	0.07881097
6	0xbcc4df30	-0.024032205
7	0xbd85b45f	-0.06528544
8	0x3c259d6d	0.010108334
9	0xbe255f12	-0.16149548
10	0xbe011428	-0.12605345
11	0xbc85bed9	-0.016326355
12	0x3e26cf1c	0.16289943
13	0xbd8b14b4	-0.06791058
14	0x3dab78d5	0.08372656
15	0xbdb1b7b8	-0.0867762
16	0xbd81d1a7	-0.06338816
17	0xbe4b06ec	-0.19826859
18	0x3e2faa61	0.17154838
19	0x3e4cfda7	0.20018636
20	0x3c2e544f	0.010640218
21	0x3e095c36	0.13414082
22	0x3e2e5243	0.17023568
23	0x3de0f344	0.10983899
24	0x3de0cbdb	0.10976382
25	0xbe2f8d8c	-0.1714384
26	0xbe2a9c1d	-0.16661115
27	0xbe063902	-0.13107684
28	0x3d9893fa	0.07450099
29	0xbe190795	-0.14944299
30	0xbe039451	-0.12849547
31	0xbd96fec6	-0.07372813
32	0xbe235910	-0.15951943
33	0x3c9d069d	0.019168193
34	0x3d431e52	0.047636338
35	0xbdbbe802	-0.09175111
36	0x3e08752e	0.1332595
37	0xbd86db4b	-0.065847956
38	0xbd3c033c	-0.045901522
39	0x3e1f0360	0.15528631
40	0x3e30f6bf	0.17281626
41	0xbc470be1	-0.012148828
42	0xbe04eb31	-0.12980343
43	0xbdb5c4d0	-0.0887543
44	0x3d131d8d	0.035916854
45	0x3dda0aa2	0.10646559
46	0x3db7cf61	0.08975101
47	0xbdbce023	-0.09222438
48	0xbe454414	-0.19264251
49	0xbe359790	-0.17733598
50	0xbd93b43b	-0.072121106
51	0xbbe2872b	-0.006913086
52	0xbdc23701	-0.094831474
53	0xbe28f923	-0.16501288
54	0x3d0c88a1	0.034309987
55	0xbe0be710	-0.13662362
56	0xbe0998eb	-0.1343724
57	0xbe128452	-0.14308289
58	0xbd2249d7	-0.0396212
59	0x3e35e9e1	0.17764999
60	0x3daf1670	0.085492015
61	0xbc5c738d	-0.013455284
62	0x3d4203c0	0.047366858
63	0x3d77d5aa	0.0605065
64	0xbc790866	-0.015199756
65	0xbe30dd78	-0.17271984
66	0xbe0b2131	-0.1358688
67	0xbe173bb4	-0.14768869
68	0xbcba57bd	-0.022746915
69	0xbe4761d2	-0.19470909
70	0xbd59d830	-0.053184688
71	0xbdb64405	-0.088996924
72	0x3e585e66	0.2112976
73	0x3e378326	0.17921123
74	0x3e08ff65	0.13378675
75	0x3d02eacd	0.031962205
76	0xbd2757e7	-0.040855315
77	0x3d8ec53e	0.06971215
78	0xbde45cd8	-0.11150521
79	0xbd77c1a8	-0.06048742
80	0xbc915598	-0.01774101
81	0xbd1ac2b4	-0.03778334
82	0xbe329835	-0.17440875
83	0x3daaa803	0.08332827
84	0x3e296689	0.1654302
85	0xbdca954b	-0.098917566
86	0x3d6efa55	0.058344204
87	0xbc791ab4	-0.01520412
88	0xb90c36d8	-0.00013371871
89	0x3c92798c	0.017880224
90	0x3e2b82d9	0.16749133
91	0x3cd665d2	0.026171599
92	0xbdffdc56	-0.124931976
93	0xbd8d1ff0	-0.06890857
94	0x3dc2060a	0.09473808
95	0x3d6e0049	0.05810574
96	0x3b0f5fc8	0.0021877158
97	0xbcd61146	-0.026131283
98	0xbd9f093f	-0.077654354
99	0xbd337ecd	-0.0438221
100	0xbd9e0ed7	-0.07717674
101	0x3d655889	0.055992637
102	0x3da044b8	0.07825607
103	0x3e3014c8	0.17195427
104	0xbc9b5459	-0.018961119
105	0x3d1edae9	0.038782988
106	0x3e194137	0.14966284
107	0x3ddf5f6f	0.109068744
108	0x3cb41f4a	0.021987576
109	0x3d67035c	0.056399688
110	0x3bea410b	0.007148867
111	0xbe2bf19f	-0.1679139
112	0x3b9682ba	0.0045932205
113	0xbd37dfde	-0.04489123
114	0x3e2f047f	0.17091559
115	0x3e2f10b0	0.1709621
116	0x3d111d8c	0.03542857
117	0x3e1d36d0	0.1535294
118	0xbdf2749c	-0.11838648
119	0x3e17b2d6	0.14814314
120	0x3e1637f7	0.14669786
121	0xbcd0e005	-0.025497446
122	0xbe30e230	-0.17273784
123	0xbda8874b	-0.0822893
124	0xbd8ec3fa	-0.06970973
125	0xbc68bc58	-0.014205061
126	0xbe1a278c	-0.15054148
127	0x3d6d97e0	0.058006167
128	0xbd705c34	-0.05868168
129	0xbcd4d76f	-0.025981633
130	0xbd9e9b84	-0.07744506
131	0xbca75465	-0.020425985
132	0xbe1fb4b2	-0.15596274
133	0xbda4f213	-0.080539845
134	0x3d193c6c	0.03741114
135	0x3dfe42da	0.12415095
136	0x3e32c19d	0.1745667
137	0xbe101589	-0.14070715
138	0x3da31b43	0.07964184
139	0xbddbcc42	-0.107323185
140	0xbe107eed	-0.14110918
141	0xbc0aaadc	-0.008463588
142	0xbdda92e4	-0.106725484
143	0xbe1f631e	-0.15565154
144	0xbe4b0787	-0.1982709
145	0xbe16bbf5	-0.14720137
146	0x3e0e6e64	0.13909298
147	0x3db64e68	0.089016736
148	0xbdc195bb	-0.09452387
149	0xbe17ae58	-0.148126
150	0xbe2a8362	-0.16651681
151	0xbe072b19	-0.13200034
152	0xbdc83921	-0.097765215
153	0x3e0a5659	0.13509502
154	0x3da9a04d	0.08282528
155	0xbd5e8eca	-0.054335393
156	0x3e1b4c06	0.1516572
157	0xbdccabb1	-0.09993685
158	0xbe0c4632	-0.13698652
159	0x3d7cd28a	0.061724223
160	0xbdb0d8db	-0.08635112
161	0x3d986613	0.07441344
162	0x3e2b944b	0.16755788
163	0xbdad971c	-0.084760875
164	0xbe01a07f	-0.1265888
165	0x3da0845e	0.07837747
166	0xbe2aa6f7	-0.16665255
167	0x3e34ba74	0.17649251
168	0xbdb02c2d	-0.08602176
169	0x3dc81b44	0.097708255
170	0xbe1435b2	-0.14473608
171	0xbddd2ef1	-0.10799969
172	0x3d2b79ab	0.04186408
173	0x3da6cd7f	0.08144664
174	0x3e2dce39	0.16973199
175	0x3e38abd0	0.18034291
176	0x3b01d76b	0.0019812237
177	0xbb46e664	-0.0030349726
178	0x3d57e079	0.05270431
179	0xbcfc1780	-0.030772924
180	0xbc91cd3f	-0.017798064
181	0xbe537d1a	-0.20653191
182	0xbe362893	-0.17788915
183	0x3ddf3833	0.10899391
184	0xbe083ece	-0.13305208
185	0x3e07a981	0.13248254
186	0x38c1cb80	9.240862e-05
187	0x3cedddec	0.029036485
188	0x3e23b804	0.15988165
189	0xbdbb7ce7	-0.091546826
190	0xbc860702	-0.016360763
191	0x3d3d8d8c	0.046277568
192	0x3da231c3	0.079196475
193	0xbe31930c	-0.1734125
194	0x3da258a0	0.0792706
195	0xbdcbb68b	-0.09946927
196	0x3d1af0fc	0.037827477
197	0x3e108229	0.14112152
198	0xbc89c8d3	-0.016819393
199	0xbb5ec289	-0.0033990464
200	0xbc82165c	-0.015879802
201	0x3e28fa86	0.16501817
202	0x3deac640	0.114635944
203	0x3d0f0bd3	0.034923386
204	0xbde9d1a7	-0.11416941
205	0xbdd044e1	-0.101693876
206	0x3e1cf085	0.15326126
207	0x3e266650	0.16249967
208	0x3e0ae8b9	0.13565339
209	0xbe0018a6	-0.12509403
210	0x3e31ccee	0.1736333
211	0x3bb4d9f2	0.005519145
212	0x3e2a58cb	0.16635434
213	0x3e446f22	0.19183019
214	0x3d3bbda7	0.045835163
215	0xbd5ef76d	-0.054435182
216	0x3e4095cd	0.18807144
217	0xbdb6798e	-0.089099035
218	0x3e0a7703	0.13521962
219	0xbe2ed844	-0.17074686
220	0xbd3bd1f2	-0.045854516
221	0xbe1c6b97	-0.15275417
222	0xbd8f9173	-0.07010164
223	0x3dc41e05	0.09576038
224	0xbdf86531	-0.12128676
225	0xbe384202	-0.1799393
226	0x3e0240de	0.12720057
227	0x3dbc1803	0.09184267
228	0xbc9b5dca	-0.01896562
229	0xbe1a2ba8	-0.15055716
230	0xbd86f527	-0.06589728
231	0xbda01908	-0.07817274
232	0x3dd7ef0f	0.10543644
233	0xbd9d857c	-0.07691476
234	0xbd110503	-0.03540517
235	0xbdec7b8c	-0.11547002
236	0xbd924a2c	-0.071430534
237	0x3e00510c	0.12530917
238	0x3e160abb	0.14652531
239	0x3d4d3001	0.05009461
240	0xbd4f8539	-0.05066416
241	0x3e54a616	0.20766482
242	0x3d78b713	0.06072147
243	0xbd9441e1	-0.07239128
244	0xbd84d752	-0.064863816
245	0xbccdbb65	-0.02511377
246	0x3dbe9c55	0.09307162
247	0x3d9401b8	0.0722689
248	0x3e107a86	0.14109239
249	0xbbdebc46	-0.0067973463
250	0x3e24e5a3	0.16103224
251	0xbd9c9d76	-0.07647221
252	0xbdc9b74b	-0.098494135
253	0xbda845a1	-0.08216406
254	0xbe451e29	-0.19249786
255	0xbe0a7c0f	-0.13523887

bias f4 [16]
0	0xbc86294e	-0.016377117
1	0x3d51cf25	0.05122294
2	0xbda1b494	-0.07895771
3	0x3e3c8828	0.18411314
4	0xbe09c6e3	-0.13454776
5	0xbc4e257d	-0.01258218
6	0xbe0eb3d7	-0.13935791
7	0x3d821756	0.06352107
8	0x3e2d2fa7	0.16912709
9	0x3e3a52fd	0.1819572
10	0x3cd015d9	0.025401043
11	0xbdbfddd0	-0.09368479
12	0x3e3fe622	0.18740132
13	0x3c79d4e4	0.015248511
14	0x3e05c820	0.13064623
15	0xbdbe791b	-0.09300443

weight f4 [32, 16, 3, 3]
0	0xbd2743ee	-0.040836267
1	0xbd95d742	-0.07316448
2	0x3d9756d7	0.0738961
3	0x3c744511	0.014909045
4	0xbd73542d	-0.05940645
5	0x3bac8fa8	0.0052661486
6	0xbcf7cee3	-0.030250018
7	0x3bae747d	0.005323945
8	0x3cb90726	0.022586416
9	0xbd0d2a37	-0.034464087
10	0x3ca95e39	0.020674812
11	0xbd3fa8f1	-0.046791974
12	0x3cbe939d	0.023263747
13	0xbd996c1e	-0.07491325
14	0x3c9904a0	0.018678963
15	0x3dbb34bf	0.0914092
16	0x3dab0269	0.08350069
17	0x3d1a6365	0.037692446
18	0x3d7f1cb8	0.062283248
19	0x3da74826	0.08168058
20	0x3cd32da3	0.025778597
21	0x3d08b019	0.033371065
22	0x3c64f793	0.013975042
23	0x3d957220	0.07297158
24	0x3d9e7ec5	0.07739023
25	0xbd076b65	-0.033061404
26	0x3a024123	0.00049688126
27	0xbd2b6a55	-0.041849453
28	0x3d06b471	0.032886926
29	0xbda5cbdb	-0.08095523
30	0x3d063148	0.032761842
31	0xbc9713ff	-0.018442152
32	0x3d05fd43	0.032712232
33	0x3d0cf9ce	0.03441792
34	0xbd0c082e	-0.03418749
35	0x3d3de2ca	0.04635886
36	0x3d2997c6	0.041404508
37	0xbd8589b4	-0.065204054
38	0x3db5d703	0.08878901
39	0x3d9fbc84	0.077996284
40	0x3d6af4a9	0.057362232
41	0xbb4d7337	-0.003134919
42	0x3d13071e	0.03589546
43	0xbd211402	-0.03932572
44	0xbcbb098e	-0.022831704
45	0x3d3e8bbb	0.046519976
46	0x3d249512	0.040181227
47	0x3d15207f	0.036407944
48	0xbd9336e3	-0.07188203
49	0x3d9885cf	0.07447397
50	0xbce7ad61	-0.028280916
51	0x3da82a7f	0.082112305
52	0x3d9e9a9c	0.07744333
53	0x3d21575b	0.03938995
54	0x3dbd4ffd	0.09243772
55	0x3d6d9aa3	0.0580088
56	0x3d6a2f2a	0.057173885
57	0xbc966a8c	-0.018361352
58	0x3daf6119	0.08563442
59	0x3ce7278a	0.028217096
60	0x3d6b496b	0.057443064
61	0xbc2a36d4	-0.010389049
62	0x3d8e8631	0.06959189
63	0x3d9dc1b4	0.077029616
64	0xbd89d4bc	-0.06730029
65	0x3d8978b8	0.067124784
66	0xbd462a4e	-0.04838019
67	0xbd6244b8	-0.055241317
68	0xbd8e90b9	-0.069611974
69	0x3d05ac37	0.03263494
70	0xbd68ec8c	-0.056866214
71	0xbce56f31	-0.028007122
72	0xbd200839	-0.03907034
73	0x3cf04d62	0.029333774
74	0xbda205e8	-0.07911283
75	0xbd168a32	-0.036752887
76	0x3bddf3e6	0.0067734597
77	0x3c2f00d5	0.010681351
78	0xbcfc96d9	-0.030833649
79	0x3d1d04e3	0.03833474
80	0xbd41f66c	-0.047354147
81	0xbd8e1bbd	-0.069388844
82	0xbc41044f	-0.011780812
83	0xbd375a6e	-0.044763975
84	0x3d604f95	0.054763395
85	0xbd623c1a	-0.0552331
86	0xbba90324	-0.005157845
87	0x3d1963cc	0.03744869
88	0xbd8f9ab0	-0.07011926
89	0x3d8891ca	0.06668432
90	0xbd0fd87e	-0.035118572
91	0xbca73683	-0.020411735
92	0xbd47e3cc	-0.04880123
93	0xbceaad7f	-0.028647183
94	0xbcedccc2	-0.0290283
95	0xbd92e100	-0.071718216
96	0x3d01d452	0.031696625
97	0x3b2acab4	0.0026060762
98	0x3dadbe0b	0.084835134
99	0x3d58c94a	0.05292634
100	0x3d8e2239	0.06940121
101	0x3cae31ff	0.021264074
102	0x3d3ca266	0.046053313
103	0x3da137c2	0.07871963
104	0x3d8e78b6	0.069566175
105	0xbd6f806b	-0.05847208
106	0xbc6c0673	-0.0144058345
107	0xbda53476	-0.08066647
108	0x3ba7c571	0.0051199724
109	0xbcebdb95	-0.028791228
110	0x3d9633c0	0.07334089
111	0x3c954794	0.018222608
112	0x3b5c4b80	0.0033614337
113	0xbd71653e	-0.058934443
114	0xbd6b6033	-0.05746479
115	0x3c9a68c1	0.018848779
116	0xbd11c811	-0.03559119
117	0xbd062c50	-0.032757103
118	0x3d8282cf	0.06372606
119	0xbd1b3fb4	-0.03790255
120	0xbd009416	-0.031391226
121	0x3d8d28c9	0.06892545
122	0x3d1c0ce8	0.038098246
123	0xbd2953e2	-0.041339763
124	0x3cfc5433	0.030801868
125	0x3d41a9e2	0.047281154
126	0xbd8ccab0	-0.06874597
127	0x3cac1d06	0.021009933
128	0x3cccaab8	0.024983749
129	0x3b331026	0.0027322858
130	0x3dafc209	0.08581931
131	0xbd48de5d	-0.049040187
132	0x3d5105a6	0.051030777
133	0xbd1f8281	-0.038942818
134	0xbd864127	-0.065553956
135	0x3d8794c1	0.066201694
136	0xbd0bc3d5	-0.034122307
137	0x3b8249f2	0.0039761
138	0x3d3cb675	0.046072442
139	0xbd8b89cc	-0.06813392
140	0xbd969c37	-0.07354014
141	0x3d20ef12	0.039290495
142	0x3d9b1788	0.075728476
143	0xbc18335e	-0.009289591
144	0x3d881880	0.06645298
145	0x3d1198f4	0.035546258
146	0x3d020ec2	0.031752355
147	0xbd2afc51	-0.041744534
148	0x3db4ab1d	0.088217
149	0x3d45fa5f	0.048334476
150	0x3cbfb511	0.023401769
151	0x3d8bc10d	0.06823931
152	0xbd707c0b	-0.058712047
153	0xb9e318ba	-0.00043315237
154	0xbd381a98	-0.044947237
155	0xbc600731	-0.01367359
156	0x3c1c1987	0.009527571
157	0x3c98a1be	0.018631812
158	0x3c3a5fde	0.011375396
159	0xbd6be325	-0.05758967
160	0xbd475e51	-0.04867393
161	0xbbe92d99	-0.0071160314
162	0xbbbe07f9	-0.0057992903
163	0xbd7cf97b	-0.06176136
164	0x3dba1ed4	0.09087911
165	0x3cb0023d	0.021485442
166	0xbd43bf11	-0.047789637
167	0x3d3ef84f	0.046623524
168	0x3d45304d	0.048141766
169	0xbcefc925	-0.029270718
170	0x3d5b0f01	0.053481106
171	0xbd1e9274	-0.038713887
172	0x3d2a2f5b	0.041549068
173	0x3dbab481	0.0911646
174	0x3d8d13c1	0.068885334
175	0x3d6108d3	0.054940056
176	0xbb543b04	-0.003238381
177	0x3ced0bfe	0.028936382
178	0x3d2c2435	0.042026717
179	0x3d07dcdb	0.03316961
180	0xbbf1e6b4	-0.0073822383
181	0x3cb527b2	0.022113655
182	0xbcbde5b9	-0.02318083
183	0xbd274b76	-0.04084345
184	0xbd8a20f1	-0.06744564
185	0xbd724eae	-0.059157066
186	0xbd373ebb	-0.04473756
187	0x3db6f713	0.089338444
188	0x3cd915e1	0.02649969
189	0xbd9716ec	-0.07377419
190	0xbd10f852	-0.035393067
191	0x3cc6e7b8	0.024280414
192	0xbc992bac	-0.018697582
193	0xbc6e5868	-0.014547445
194	0xbcd31dce	-0.025771048
195	0xbc87d19b	-0.01657944
196	0x3c97efaa	0.018546898
197	0x3c3f2141	0.011665643
198	0x3d759313	0.059954714
199	0x3d78524d	0.060625363
200	0x3d981c92	0.07427324
201	0x3ba7035f	0.0050968374
202	0xbccf6fc1	-0.025321843
203	0x3bdaf61d	0.006682171
204	0xbd467f8e	-0.04846149
205	0x3d333287	0.04374936
206	0xbb73de7f	-0.0037211475
207	0xbc739416	-0.014866849
208	0xbd6b3a5f	-0.057428714
209	0x3d53e567	0.051732447
210	0x3d758533	0.05994148
211	0x3db92311	0.090398915
212	0xbc851847	-0.016246928
213	0x3d1d187e	0.038353436
214	0x3c8de2ae	0.017320003
215	0xbd229507	-0.039692905
216	0xbd110ece	-0.03541451
217	0x3d6581c4	0.056031957
218	0xbd09a0b5	-0.033600528
219	0x3d91d805	0.071212806
220	0x3d217b50	0.03942424
221	0x3d21fbc5	0.039546747
222	0x3d817c54	0.06322542
223	0x3d4292e3	0.047503363
224	0x3d3cca2b	0.04609124
225	0x3d6072a0	0.054796815
226	0xbcbe426a	-0.023225028
227	0xbd053372	-0.032519765
228	0xbb3eae0c	-0.002909544
229	0x3d72744c	0.05919294
230	0x3d90d96e	0.070727214
231	0x3d961f4d	0.07330189
232	0xbc638a00	-0.013887882
233	0x3ae046f0	0.0017110985
234	0xbd3896b1	-0.045065586
235	0x3d809b61	0.06279636
236	0xbd3152d7	-0.043291893
237	0xbcb00145	-0.02148498
238	0x3da63640	0.08115816
239	0x3d063c6b	0.032772463
240	0xbcb7b370	-0.02242443
241	0xbd33fc59	-0.04394183
242	0xbd37a7a4	-0.04483761
243	0x3da3aab2	0.07991542
244	0xbd81c054	-0.06335512
245	0x3dad0488	0.0844813
246	0x3da6a095	0.08136097
247	0x3ca2f6f1	0.019893141
248	0x3bfa8407	0.0076451334
249	0x3da23b75	0.07921497
250	0x3d5083b9	0.05090687
251	0x3dbd68e8	0.09248525
252	0x3d9fa310	0.077947736
253	0xbd33f682	-0.04393626
254	0x3d7c8855	0.061653454
255	0x3d5ea1aa	0.054353394

bias f4 [32]
0	0x3d1f8724	0.03894724
1	0x3d0cbcd3	0.034359764
2	0x3d572324	0.052523747
3	0xbcf7808e	-0.030212667
4	0xbcce19c7	-0.025158776
5	0x3cbed540	0.023295045
6	0xbd68d783	-0.056846153
7	0x3a94af44	0.0011343737
8	0x3d183c0c	0.03716664
9	0xbd9a2533	-0.075266264
10	0xbbc12e70	-0.0058954284
11	0x3b5fe17a	0.0034161494
12	0xbd5656e3	-0.052328955
13	0x3d89b43f	0.06723832
14	0x3b0e5254	0.0021716552
15	0xbd9ab914	-0.07554832
16	0xbcdd8af1	-0.027043791
17	0x3cc161ab	0.023606142
18	0x3d850fb6	0.06497137
19	0xbcc0c576	-0.023531657
20	0x3d97e895	0.074174084
21	0xbd03783c	-0.032097086
22	0xbd617737	-0.055045333
23	0xbc3ca7ea	-0.011514643
24	0xbd59690a	-0.05307869
25	0x3ce6644d	0.028123999
26	0x3d6f8cef	0.058484014
27	0xbd898532	-0.06714858
28	0xbd8e58cb	-0.0695053
29	0x3d3a402c	0.045471355
30	0xbc6ebd99	-0.014571571
31	0x3d94ca47	0.07265144

weight f4 [64, 32, 3, 3]
0	0x3d3777d6	0.04479202
1	0xbd45de71	-0.04830784
2	0x3ccb6079	0.024826275
3	0xbd86f0cf	-0.06588899
4	0x3c67eea3	0.0141560165
5	0xbd3ac535	-0.045598228
6	0xbc11b458	-0.008893095
7	0x3d431642	0.04762865
8	0xbb701d1a	-0.003663844
9	0xbc3c1c41	-0.011481346
10	0x3d3debd3	0.046367478
11	0x3c2445d3	0.010026413
12	0x3d92a2c5	0.07159952
13	0xbcc65ae1	-0.024213256
14	0x3c2a1f5e	0.010383455
15	0xbcd92acc	-0.026509665
16	0xbc375ada	-0.011191094
17	0x3bd162d7	0.0063899565
18	0xbcd6e14f	-0.026230482
19	0xbce0693e	-0.027393933
20	0xbb14fa58	-0.0022732224
21	0xbca3a229	-0.019974785
22	0xbcb68fc0	-0.022285342
23	0x3c87dc2b	0.016584476
24	0xbce134e2	-0.027491037
25	0x3d4af5ff	0.049551006
26	0x3d5f4a06	0.054513954
27	0x3d724928	0.0591518
28	0x3cc3c93a	0.023899663
29	0x3a396720	0.0007072557
30	0xbbd57c5f	-0.0065150703
31	0xbcaf2e70	-0.021384448
32	0x3d4292bf	0.04750323
33	0x3d197711	0.037467066
34	0x3d4e68c6	0.05039289
35	0xbb2d6e43	-0.0026463426
36	0xbd221b43	-0.03957678
37	0x3ca919ac	0.020642124
38	0x3d573137	0.05253717
39	0xbc0498ec	-0.0080931
40	0x3d47bedd	0.048766006
41	0x3d2ed686	0.042685054
42	0x3cb604c6	0.022219073
43	0xbc6cc88f	-0.014452114
44	0xbc968598	-0.01837425
45	0xbbee770f	-0.0072773765
46	0xbaf39996	-0.0018585201
47	0xbc1fa846	-0.009744709
48	0xbd6bc72a	-0.057562985
49	0xbd266fa1	-0.0406338
50	0xbc894806	-0.016757976
51	0x3d3d6334	0.046237186
52	0x3cd94687	0.026522888
53	0xbd5109f3	-0.05103488
54	0xbd156b62	-0.03647936
55	0xbcecba51	-0.028897436
56	0x3d806aa3	0.06270339
57	0x3cab7b5b	0.020932844
58	0x3d5be40c	0.05368428
59	0xbd227e71	-0.039671365
60	0x3d7564c3	0.059910547
61	0x3d618ac8	0.055063993
62	0x3c4f0151	0.012634591
63	0xbce27466	-0.027643394
64	0x3cbb733e	0.0228821
65	0xbd0458c1	-0.032311205
66	0xbcc8d4dd	-0.024515564
67	0x3cb2b5bd	0.021815175
68	0xbd3c298c	-0.04593806
69	0x3c62ccfd	0.013842818
70	0xbb6c75b9	-0.003608091
71	0xb90f1880	-0.0001364667
72	0x3b8c9df1	0.004291289
73	0x3c821718	0.015880153
74	0xbd0a2fa1	-0.03373683
75	0x3cd4efbc	0.02599322
76	0xbd5acc71	-0.053417627
77	0x3cd8ea71	0.026478978
78	0xbd3cf898	-0.046135515
79	0x3d7031ad	0.058641125
80	0x3c8300ef	0.015991656
81	0x3c7703a6	0.015076553
82	0x3c5e8038	0.013580374
83	0x3c24d3ec	0.010060292
84	0xbcb80edc	-0.022468023
85	0xbd6e8b10	-0.05823809
86	0x3d0dc568	0.03461209
87	0x3d12adb1	0.035810176
88	0xbc3ab37e	-0.011395333
89	0x3b4a281f	0.0030846668
90	0xbb87546f	-0.0041299383
91	0xbc63b556	-0.013898214
92	0x3d2129f0	0.039346635
93	0xbd1249de	-0.035714976
94	0xbd648a38	-0.05579588
95	0xbc2fec20	-0.010737449
96	0xbd0fb448	-0.03508404
97	0xbd23221f	-0.039827462
98	0xbc93a2b1	-0.018021913
99	0xbc8aa263	-0.016923135
100	0x3cbf4fa3	0.023353403
101	0x3c84fb36	0.016233068
102	0x3cfc0ebc	0.030768745
103	0x3cd5923a	0.026070703
104	0xbb0eb69c	-0.0021776324
105	0xbc9e7971	-0.019345017
106	0xbcb19643	-0.021678096
107	0xbd84cfba	-0.06484933
108	0xbc655899	-0.013998174
109	0xbcefafae	-0.029258575
110	0xbcfc5cdf	-0.030806003
111	0x3d00d70a	0.031455077
112	0x3c74a9f3	0.014933097
113	0x3cabc0e2	0.020965997
114	0x3cb04d79	0.021521317
115	0xbd4cd705	-0.050009746
116	0x3b0c0906	0.0021367683
117	0xbbb555c4	-0.0055339057
118	0x3cb820bc	0.022476546
119	0x3d158822	0.03650678
120	0xbc50b8d3	-0.012739378
121	0x3d3dfd9d	0.046384443
122	0x3b99ba40	0.004691392
123	0xbc159159	-0.009128892
124	0x3d27c5f9	0.040960286
125	0x3d45237a	0.048129536
126	0xbc84b60c	-0.016200088
127	0x3d0cf427	0.03441253
128	0xbc50e66b	-0.012750248
129	0xbaacdf4a	-0.0013189104
130	0xbd28e8d9	-0.041237686
131	0xbcca3c0c	-0.024686836
132	0x3c056f0b	0.0081441505
133	0xbc54fb07	-0.012999303
134	0xbbb1bdbe	-0.0054242304
135	0x3c8bd51b	0.01706939
136	0xbca876d5	-0.020564476
137	0x3d0b11a3	0.033952367
138	0x3d79cbdc	0.06098543
139	0x3d4d74be	0.050160162
140	0x3d617f34	0.05505295
141	0xbc528260	-0.012848467
142	0x3bb2561d	0.0054423944
143	0xbc855efe	-0.016280647
144	0xbcd5e40e	-0.026109722
145	0xbc2da699	-0.010598802
146	0x3d1d3cb4	0.03838797
147	0xbd577c95	-0.052609045
148	0xbcea6c22	-0.028616015
149	0x3d07a8b1	0.03311986
150	0x3d0864b4	0.033299163
151	0xbc46e7ee	-0.012140257
152	0xbc23fe25	-0.010009323
153	0x3be4f56a	0.0069872634
154	0x3d6d4b9c	0.057933435
155	0x3d700e8f	0.058607634
156	0xbc4063fc	-0.011742588
157	0x3cd46e0a	0.025931377
158	0xbd2321a9	-0.039827023
159	0xbcad853c	-0.021181695
160	0x3c52a627	0.012856997
161	0xb99ba936	-0.00029689976
162	0xbcca371c	-0.024684481
163	0x3d556bb7	0.052104678
164	0x3d0896c9	0.033346925
165	0x3bfd5c48	0.007731948
166	0xbc5c5930	-0.013448998
167	0x3bad7fbb	0.0052947677
168	0x3d558e96	0.052137934
169	0xbbd4425c	-0.006477637
170	0x3c1de217	0.009636424
171	0x3d0137e9	0.03154746
172	0x3d429945	0.04750945
173	0x3d47a49b	0.048740964
174	0xbc653b14	-0.013991136
175	0x3d15de72	0.036589094
176	0x3cbd2046	0.023086678
177	0x3cc350e0	0.023842275
178	0xbd11595c	-0.03548561
179	0x3d8fc5a6	0.0702012
180	0x3cad2fe8	0.021141008
181	0x3ae40d35	0.0017398956
182	0x3c8bdf9d	0.0170744
183	0xbcb15d24	-0.021650858
184	0xbd46dafc	-0.048548684
185	0xbcb58e00	-0.022162437
186	0xbd7ae925	-0.0612575
187	0x3d2e5143	0.042557966
188	0x3c8d9aa0	0.017285645
189	0x3c8c5db5	0.017134527
190	0xbd1c5a03	-0.03817178
191	0xbd166976	-0.03672167
192	0x3d11184e	0.03542357
193	0xbd3beef8	-0.045882195
194	0x3c59ef1b	0.013301636
195	0x3d3c7c01	0.046016697
196	0xbd4a3058	-0.04936251
197	0x3d32b9d4	0.04363425
198	0xbd0330e6	-0.032029055
199	0x3b931729	0.004488845
200	0x3d6c2521	0.057652596
201	0x3d8292b9	0.063756414
202	0x3d916e62	0.07101132
203	0x3d8e5401	0.06949616
204	0xbd161581	-0.0366416
205	0x3d01f1fd	0.03172492
206	0xbd021c54	-0.031765297
207	0x3d42970f	0.047507342
208	0x3d053e9f	0.032530423
209	0x3d80da99	0.06291694
210	0x3cf4c7ce	0.02988043
211	0x3d6a424a	0.057192124
212	0x3c86d7a8	0.016460255
213	0xbcf35adf	-0.029706417
214	0xbca6f2e0	-0.020379484
215	0x3ca06842	0.019580964
216	0xbd5c86f6	-0.053839646
217	0x3d484b91	0.04890019
218	0xbd167a78	-0.03673789
219	0xbd3b81c5	-0.045778055
220	0x3d65faf9	0.05614755
221	0xbd20af99	-0.039229963
222	0xbce1b571	-0.027552338
223	0xb92130f5	-0.00015372394
224	0x3c8f6fe1	0.017509403
225	0xbca1085a	-0.019657303
226	0x3d0778f3	0.03307433
227	0xbd14e59b	-0.03635178
228	0x3c55ea82	0.013056399
229	0xbd665bf3	-0.056240033
230	0xbd524c7f	-0.051342484
231	0x3cb81f26	0.02247579
232	0x3cf694bf	0.030100225
233	0xbcc98c9d	-0.024603182
234	0x3cb4f4b4	0.02208934
235	0xbc64b5c1	-0.013959349
236	0x3d0c0786	0.034186862
237	0x3bfe21a7	0.0077554765
238	0xbc3d76a4	-0.011563931
239	0x3c4d2617	0.012521288
240	0xbd60328e	-0.054735713
241	0x3d0cca55	0.034372646
242	0x3d6480bb	0.05578683
243	0x3d566f0e	0.052352004
244	0xbd01b34d	-0.031665135
245	0xbcaf5a6e	-0.021405425
246	0xbcc218fc	-0.023693554
247	0x3c3a907c	0.011386987
248	0xbd1e9657	-0.038717594
249	0xbd2c1842	-0.04201532
250	0xbca6ea77	-0.020375473
251	0x3d5eb161	0.05436838
252	0x3cd4e58d	0.025988365
253	0xbd416a84	-0.04722072
254	0xbca80308	-0.020509258
255	0xbd0f5697	-0.034994688

bias f4 [64]
0	0x3b45c049	0.0030174425
1	0x3cc3ff91	0.023925574
2	0x3d24a717	0.04019841
3	0x3b6d0c99	0.003617084
4	0x3b69f28d	0.003569755
5	0xbcd74c63	-0.026281541
6	0xbd20e960	-0.039285064
7	0xbd482488	-0.048862964
8	0x3c6f81b3	0.014618325
9	0xbaf888ad	-0.0018961631
10	0x3d44cd17	0.04804715
11	0x3d1afa71	0.037836496
12	0x3baacb83	0.005212249
13	0xbc8c7b4f	-0.017148642
14	0x3d2d8200	0.042360306
15	0xbd46e01a	-0.048553564
16	0x3a9e5bf0	0.0012081843
17	0x3cb8ae05	0.022543916
18	0xbd66454c	-0.05621843
19	0x3d37c8ec	0.04486935
20	0xbc4cf789	-0.012510189
21	0x3d435cf8	0.047696084
22	0xbbd22fc1	-0.006414384
23	0xbd299c97	-0.0414091
24	0x3cf9ac37	0.030477626
25	0xbd1a7749	-0.037711415
26	0xbd1f4bb2	-0.038890548
27	0xbc8dc20d	-0.017304445
28	0x3d17e7de	0.03708636
29	0x3cac0d33	0.021002388
30	0x3d4c4995	0.04987486
31	0xbc82bcb8	-0.015959129
32	0xbb947f6c	-0.0045317914
33	0xbc71d2bd	-0.014759717
34	0x3d681aa2	0.056666024
35	0x3b0b3323	0.0021240197
36	0xbd5b2891	-0.053505484
37	0x3c808b25	0.01569135
38	0xbd0c6a95	-0.034281332
39	0x3c2693a9	0.010167041
40	0x3c7764ff	0.015099763
41	0xbce05104	-0.027382381
42	0xbd431e2f	-0.047636207
43	0xbade9d2d	-0.0016984098
44	0xbd130a56	-0.03589853
45	0x3d7183bc	0.058963522
46	0xbcb7eb49	-0.02245106
47	0xbc0ced2a	-0.008601466
48	0x3d14b853	0.036308598
49	0xbbb25bb8	-0.0054430626
50	0x3ae036fd	0.0017106232
51	0xbd5ece1d	-0.054395784
52	0x3cf965b0	0.030443996
53	0x3d349815	0.04409035
54	0xbd57d2be	-0.052691214
55	0x3d6f7626	0.058462285
56	0x3d3d21e6	0.046174906
57	0x3ca073b3	0.01958642
58	0xba0f80fb	-0.00054742367
59	0xbaec0573	-0.0018006995
60	0x3d6e51a2	0.05818332
61	0x3cf77cab	0.030210814
62	0xbce795aa	-0.028269608
63	0xbceb9fe9	-0.028762775

weight f4 [128, 64, 3, 3]
0	0x3d070e21	0.03297246
1	0xbcd78dc1	-0.02631271
2	0xbc9ba692	-0.019000325
3	0xbd0cb1d6	-0.034349285
4	0x3c0751ed	0.008259279
5	0xbc58ca29	-0.0132317925
6	0x3d03b1fc	0.03215216
7	0xbcc5b532	-0.024134252
8	0x3bcc64a6	0.006237584
9	0xbd0eea48	-0.034891397
10	0xbd0b7e50	-0.034056008
11	0xbd37fcc0	-0.044918776
12	0xbbeb6ce8	-0.0071846135
13	0x3b83bbda	0.0040201964
14	0x3c1c68c7	0.009546465
15	0x3d049ad4	0.032374218
16	0x3c6bbd74	0.014388431
17	0xbc2656c8	-0.010152526
18	0x3c8b6b70	0.017019004
19	0xbd37e89c	-0.044899568
20	0x3cfe198d	0.031018043
21	0xbd13aa3a	-0.036051013
22	0x3c889144	0.01667083
23	0xbcfe0be8	-0.031011537
24	0x3d1cbc72	0.038265653
25	0x3c21d5aa	0.009877602
26	0x3caa33c7	0.020776642
27	0x3c2e7fdd	0.010650602
28	0xbcad354c	-0.021143578
29	0xb9d785cc	-0.00041107682
30	0x3c05e7e8	0.008172967
31	0x3c2159a2	0.00984803
32	0x3c1a7a67	0.009428597
33	0x3cfc9472	0.030832503
34	0xbc150829	-0.009096184
35	0xbcf46159	-0.029831575
36	0x3c8b1982	0.016979937
37	0x3ce0c706	0.027438652
38	0x3ce2899a	0.027653504
39	0xbcf40960	-0.029789627
40	0xbb492f04	-0.003069819
41	0x3c077b98	0.008269213
42	0xbab5e2ac	-0.0013876758
43	0x3c8fd37e	0.017556902
44	0xbd250119	-0.04028425
45	0x3ca14872	0.019687865
46	0xbc77693a	-0.015100772
47	0x3b8bc70f	0.004265673
48	0xbc413482	-0.011792304
49	0xbd24f73c	-0.040274844
50	0x3c51060c	0.012757789
51	0xbb569f86	-0.0032748892
52	0xbc0052b6	-0.00783222
53	0x3cdfbf3d	0.02731287
54	0x3d07e1df	0.03317439
55	0xbca95b9a	-0.020673562
56	0xbc61ea9d	-0.013788846
57	0xbc7858f1	-0.015157924
58	0xbd04e8b0	-0.03244847
59	0xbd257467	-0.040394213
60	0xbcb00924	-0.021488734
61	0xbcdc46a1	-0.026889147
62	0xbc1c00ab	-0.009521644
63	0xbc57f192	-0.013180153
64	0x3ca4f3c8	0.020135775
65	0xbc75bab6	-0.014998129
66	0x3c308554	0.010773975
67	0xbd4faef0	-0.050703943
68	0xbc88d28a	-0.016701955
69	0xbc97811d	-0.018494183
70	0x3aba4912	0.001421245
71	0x3c6ea45a	0.014565552
72	0x3c96cab8	0.01840721
73	0x38b256b6	8.5038526e-05
74	0x3c2d782c	0.010587733
75	0x3ca09048	0.019600049
76	0x3cca2b66	0.024678897
77	0x3c000ca4	0.007815514
78	0xbd28cb2e	-0.041209392
79	0x3c7b2ecd	0.015330982
80	0x3966fd71	0.00022028924
81	0x3cb4c509	0.02206661
82	0x3be56201	0.0070002084
83	0x3ba9f3c9	0.005186532
84	0xbb728ae9	-0.0037009066
85	0x3ca795a8	0.020457104
86	0x3cdc6c1c	0.02690702
87	0x3d0d4686	0.034491085
88	0xbd2b3289	-0.04179624
89	0x3c704284	0.014664296
90	0x3d080e75	0.033216912
91	0xbca9f354	-0.02074591
92	0xbd14e801	-0.03635407
93	0x3cc54561	0.024080934
94	0x3c2ee209	0.010674008
95	0x3d1c4a9b	0.038157087
96	0x3cc786c8	0.02435626
97	0x3d2a49ee	0.04157441
98	0xbcbf53f2	-0.023355458
99	0xbcb3a55d	-0.021929437
100	0xbd4544b3	-0.04816122
101	0xbb754ac8	-0.0037428606
102	0x3c8ad7fe	0.016948696
103	0xbd1f0e66	-0.03883209
104	0x3c847b14	0.01617197
105	0xbd4677fc	-0.04845427
106	0x3c8861d3	0.016648209
107	0xbd45e8b7	-0.048317637
108	0xbd0f8216	-0.03503617
109	0xbcbe0524	-0.02319581
110	0x3c17f40d	0.009274495
111	0xbd2670dd	-0.04063498
112	0x3c8d81e5	0.017273853
113	0xbd2cd4c1	-0.042195085
114	0xbbe49b90	-0.0069765523
115	0xbc87ca81	-0.016576054
116	0xbc3ff17b	-0.011715288
117	0xbd0a9a7a	-0.033838727
118	0x3d067ed6	0.032835804
119	0x3cfbd988	0.030743375
120	0xbd5505fd	-0.052007664
121	0xbc2f52af	-0.010700866
122	0xbd0cfef1	-0.03442282
123	0xbd425e9f	-0.04745352
124	0xbca0a61b	-0.019610455
125	0x3c8e7ba4	0.01739294
126	0xbd2a0c4d	-0.041515637
127	0x3d156c0c	0.036479995
128	0x3d0d52b1	0.03450269
129	0x3c665a09	0.014059552
130	0x3ce9c59c	0.02853661
131	0x3b817166	0.0039502857
132	0x3c88c70e	0.01669648
133	0x3c950300	0.018189907
134	0xbd26eaa8	-0.04075113
135	0x3c0ec749	0.0087145055
136	0xbb69025a	-0.003555438
137	0xbd2d5603	-0.042318355
138	0x3cf6a005	0.0301056
139	0xbc7d776f	-0.01547037
140	0x3b57a20f	0.003290299
141	0xbcc453d9	-0.023965763
142	0x3cc08480	0.02350068
143	0xba1e8034	-0.00060463254
144	0xbc9397c6	-0.018016707
145	0xbcab183c	-0.02088558
146	0x3bfd6f10	0.007734187
147	0xbd1f0af2	-0.038828798
148	0x3c7d3f3b	0.01545697
149	0xbd1c196b	-0.038110178
150	0xbcec5913	-0.028851068
151	0x3b488f8f	0.0030603146
152	0xbcd35f16	-0.025802176
153	0x3c2850fe	0.010273216
154	0xbcf422ca	-0.029801745
155	0xbc876b5e	-0.016530689
156	0x3c5809f0	0.013185963
157	0x3c966b55	0.018361727
158	0xbc539fa7	-0.012916482
159	0x3c2b1242	0.010441365
160	0xbd149607	-0.03627589
161	0xbc487522	-0.012234958
162	0x3c89b1fa	0.016808499
163	0xbc19e7b2	-0.009393619
164	0xbd2f6b42	-0.0428269
165	0xbc911b32	-0.017713163
166	0xbc878ad5	-0.016545692
167	0x3b7a978e	0.0038237306
168	0xbcd7d8f3	-0.026348567
169	0xbd345821	-0.04402936
170	0xbbcf9269	-0.006334592
171	0x3ced9969	0.029003816
172	0xbc3a6483	-0.011376503
173	0x3c26afdf	0.010173767
174	0x3bb793e0	0.005602345
175	0x3baeb8e2	0.0053320983
176	0xbc061171	-0.008182869
177	0xbb898ad1	-0.0041974564
178	0xbd2aff89	-0.041747604
179	0x3cb7f397	0.02245502
180	0xbcdf58d5	-0.027264038
181	0xbd0c7e86	-0.03430035
182	0xbcdbaad4	-0.026814856
183	0x3c1c861f	0.009553461
184	0xbc297da5	-0.010344897
185	0xbcd7b957	-0.026333494
186	0x3ca8f3a7	0.020623995
187	0xbcb96e8d	-0.022635723
188	0xbd003809	-0.03130344
189	0x3ca5dbd3	0.020246422
190	0xbc9266b1	-0.017871233
191	0xbce07807	-0.027400983
192	0xbc4e42d3	-0.012589174
193	0xbcaad9f3	-0.02085588
194	0x379d0c46	1.8721574e-05
195	0xbc718216	-0.014740488
196	0x3b8edbb6	0.0043596877
197	0x3ab38f68	0.0013699355
198	0x3cd3825a	0.025818992
199	0x3cbf0935	0.02331982
200	0xbcbea009	-0.02326967
201	0x3c507d47	0.012725181
202	0xbd24dbc0	-0.040248632
203	0xbd1452cc	-0.036211774
204	0xbd02ce67	-0.031935122
205	0xbcb01329	-0.021493511
206	0xbd34bebd	-0.044127215
207	0x3cb31681	0.021861317
208	0x3d0717a3	0.032981526
209	0xbd0ad5fa	-0.03389547
210	0xbd2c9515	-0.042134363
211	0xbc8c24e1	-0.017107429
212	0x3ce75410	0.028238326
213	0x3bb1adc8	0.0054223277
214	0xbb969b0b	-0.0045961193
215	0x3d08afe4	0.033370867
216	0x3cb7d3d2	0.022439871
217	0x3c2f6a8b	0.010706554
218	0xbcb0b546	-0.021570813
219	0xbc3398f1	-0.010961757
220	0xbbda6ff5	-0.0066661783
221	0xbc078f77	-0.008273951
222	0x3bf7589b	0.0075484044
223	0x3cc58991	0.024113448
224	0xbcda9099	-0.026680278
225	0xbd25669d	-0.040381063
226	0xbd103f19	-0.035216425
227	0x3c49c3ce	0.01231475
228	0xbcdf04e0	-0.027224004
229	0x3cae3c1a	0.021268893
230	0x3c5f2ce9	0.013621547
231	0x3c346caa	0.011012236
232	0xbc8d2409	-0.017229097
233	0x3ca213ec	0.01978489
234	0x3ccd34a0	0.025049508
235	0x3c1a5e6b	0.009421925
236	0xbaab6297	-0.0013075647
237	0x3c618029	0.013763466
238	0x39305432	0.00016816033
239	0x3bbb6331	0.0057186116
240	0x3c450f5c	0.012027588
241	0x3d027f22	0.031859525
242	0xbc4c5af7	-0.01247286
243	0x3c9c768e	0.0190995
244	0x3cf80b86	0.030278932
245	0xbd13d435	-0.03609105
246	0xbb58a510	-0.003305737
247	0xbd18e56b	-0.037328165
248	0xbd0c763e	-0.034292452
249	0x3cbe787c	0.02325081
250	0xbd1178f3	-0.035515737
251	0x3d0ef61c	0.034902677
252	0x3d0c06ad	0.034186054
253	0xbcf92ea4	-0.030417748
254	0xbd27d7cf	-0.040977295
255	0xbc26166e	-0.010137184

bias f4 [128]
0	0xbcd32c5b	-0.025777986
1	0x3ccf979b	0.025340846
2	0xbd34e8e9	-0.044167433
3	0xbc0a820b	-0.008453856
4	0x3a57599a	0.0008214951
5	0x3cefc3bc	0.029268138
6	0xbb99a4e1	-0.0046888446
7	0x3d29a212	0.041414328
8	0x3d07c868	0.033150107
9	0xbd206526	-0.039158963
10	0xbceacd65	-0.028662393
11	0xbd3c0651	-0.04590446
12	0xbb861c0c	-0.004092699
13	0xbcdadae7	-0.026715709
14	0xbd030e14	-0.031995848
15	0xbcf4b019	-0.029869126
16	0x3cf8b632	0.030360315
17	0x3d0e7574	0.03477998
18	0x3c5ab55e	0.013348905
19	0x3c86dd9e	0.016463097
20	0x3c9eed74	0.019400336
21	0xbcc26080	-0.023727655
22	0x3d00f852	0.031486817
23	0x3d213aa3	0.03936256
24	0xbbfd8b46	-0.00773755
25	0x3c64737a	0.013943547
26	0xbd1bc678	-0.03803107
27	0xbd0d6aab	-0.034525555
28	0xbc734a4e	-0.014849259
29	0xbd05f35a	-0.03270278
30	0x3ce6708f	0.028129844
31	0xbcd9f178	-0.0266044
32	0x3beef86e	0.0072927987
33	0x3c07be64	0.008285139
34	0x3b432a8d	0.002978
35	0xbc1aad51	-0.009440736
36	0x3d29481a	0.041328527
37	0x3cd669c2	0.026173476
38	0x3b3087c9	0.0026936403
39	0x3c51523f	0.012775957
40	0xbc405cfb	-0.011740918
41	0x3a4a7909	0.0007723724
42	0xbb53703e	-0.0032262946
43	0xbca2400a	-0.019805927
44	0x3ce6a995	0.028157035
45	0xbcf5ade6	-0.029990148
46	0x3d1106eb	0.035406988
47	0x3cf7db94	0.03025607
48	0x3c7c2f29	0.015392103
49	0xbc239b8a	-0.009985814
50	0x3c6f211d	0.014595297
51	0x3bb39450	0.0054803267
52	0xbc98e1a4	-0.018662281
53	0xbd07c113	-0.033143114
54	0xbc9c4843	-0.019077426
55	0x3d2d29cb	0.042276185
56	0x3d051415	0.032489855
57	0xbceeaae9	-0.02913423
58	0x3d3ac465	0.045597453
59	0xbbd898b0	-0.0066099986
60	0xbacab023	-0.001546387
61	0x3b87d26e	0.004144958
62	0xbd15aba5	-0.036540646
63	0xbc115bee	-0.008872015
64	0xbcc8406c	-0.024444781
65	0xbd22a22d	-0.039705444
66	0x3d0fc024	0.03509535
67	0x3b8ed28d	0.0043585957
68	0x3d186d74	0.037213758
69	0x3a60ffe4	0.00085830525
70	0x3c834034	0.016021825
71	0x3c470ee7	0.012149549
72	0xbbd856fe	-0.006602167
73	0xbc16a0d2	-0.009193616
74	0x3c97736a	0.01848765
75	0xbc9cb3ba	-0.019128669
76	0xbab46b64	-0.0013764915
77	0x3c0c08e5	0.0085470425
78	0x3a42276b	0.00074063864
79	0x3ca9a335	0.020707706
80	0x3a918e66	0.001110506
81	0x3ca0f43d	0.019647712
82	0xbc39efba	-0.011348659
83	0xbcf9397c	-0.030422918
84	0x3b560a85	0.0032660079
85	0x3d16cc49	0.036815915
86	0x3c54a18f	0.012977972
87	0x3d12cace	0.03583794
88	0xbc1b615d	-0.009483662
89	0xb903f930	-0.00012585963
90	0x3d2ac7f8	0.04169461
91	0xbd197f47	-0.037474897
92	0x3cc09a16	0.023510974
93	0x3cb11e96	0.02162103
94	0xbd022207	-0.031770732
95	0x3c67dae1	0.014151306
96	0xbcd9574f	-0.02653089
97	0xbc9b0acb	-0.018926045
98	0x3c714d87	0.014727957
99	0x3cf5ef23	0.030021256
100	0xbce2b3ae	-0.027673569
101	0x3d1bad08	0.038006812
102	0xbd2f36d0	-0.042776883
103	0x3c6b3d95	0.014357944
104	0x3c3f4890	0.011675015
105	0xbb68c7c7	-0.0035519467
106	0xbb650699	-0.003494656
107	0xbcd86674	-0.026416041
108	0xbcc60de0	-0.024176538
109	0xbaf5d986	-0.0018756844
110	0x3b177be4	0.0023114616
111	0xbbc0321c	-0.0058653485
112	0x3c57e352	0.013176756
113	0x3d13396c	0.035943434
114	0xbd02b8ca	-0.03191451
115	0xbc888242	-0.016663674
116	0xbd1919fb	-0.037378293
117	0xbbbbdb03	-0.0057328953
118	0x3d07649f	0.033054944
119	0xbc80dad3	-0.015729344
120	0xbd293647	-0.04131153
121	0xbc7e5d1f	-0.0155251315
122	0x3bddfc13	0.0067744344
123	0xbd1e2b46	-0.038615488
124	0x3b636d1b	0.0034702483
125	0xbd21b6b3	-0.039480876
126	0xbc92fb08	-0.017941967
127	0xbc3add67	-0.0114053255

weight f4 [128, 64, 3, 3]
0	0x3bdce0df	0.006740674
1	0x3b5c32cd	0.0033599616
2	0x39ffd56d	0.00048796405
3	0x3c58bd20	0.013228685
4	0x3d17d736	0.037070476
5	0xbc25c114	-0.010116834
6	0x3d090257	0.033449497
7	0x3d0b0c05	0.03394701
8	0xbcf2fdaa	-0.029661972
9	0xbcd33d72	-0.025786135
10	0xbc03b514	-0.008038778
11	0x3c23aabe	0.009989439
12	0x3cd7c025	0.026336739
13	0xbcee443d	-0.029085273
14	0x3d0a0eae	0.033705406
15	0x3c8785a5	0.016543219
16	0xbc22caae	-0.009936018
17	0x3d0da60b	0.03458218
18	0x3cbede1e	0.023299273
19	0x3c03c7f5	0.008043279
20	0x3c060e6c	0.008182149
21	0x3ce293df	0.027658401
22	0x3d022db4	0.031781867
23	0x3bf3ef16	0.0074442727
24	0xbc38d85b	-0.011282052
25	0x3c3db7ae	0.011579437
26	0xbc9ea40a	-0.01936533
27	0xbb90f7b1	-0.0044240584
28	0xbcb94e5e	-0.022620376
29	0xbbb7d8f6	-0.0056105806
30	0xba48409a	-0.0007639021
31	0x3c05b6b3	0.008161235
32	0x3aea7c03	0.0017889742
33	0xbd15b8ef	-0.03655332
34	0x3c818fbb	0.015815606
35	0xbc632ffe	-0.013866423
36	0xbca5073b	-0.02014505
37	0x3c072f65	0.008251046
38	0x3d1ff963	0.039056193
39	0xbcc41344	-0.023934968
40	0x3c8f1dba	0.01747023
41	0x3d024152	0.031800576
42	0x3d1359a9	0.03597418
43	0x3ca45e39	0.02006446
44	0xbcb4c0a6	-0.022064518
45	0xbb416160	-0.0029507503
46	0xbbfb48b5	-0.0076685795
47	0x3cae4a73	0.021275735
48	0xbd0dccec	-0.034619257
49	0xbc50138b	-0.012699972
50	0xbd0c5310	-0.034258902
51	0xbd29f9b4	-0.0414979
52	0x3c91c9f4	0.017796494
53	0xbccb88b0	-0.024845451
54	0x3b90316c	0.004400423
55	0x3d1c0ed9	0.038100097
56	0x3c9313b0	0.017953724
57	0x3d172172	0.03689713
58	0x3b82499c	0.00397606
59	0xbcc54c0f	-0.02408412
60	0xbd1c7525	-0.038197655
61	0xbd0058d1	-0.031334702
62	0x3cf86dc2	0.030325774
63	0x3d0ab1a6	0.033860825
64	0xbc1ca4d6	-0.009560784
65	0x3d21ee8d	0.03953414
66	0x3c2ea600	0.010659695
67	0xbce4b011	-0.027915986
68	0x3cfd9f4a	0.030959744
69	0x3ccfafe4	0.025352426
70	0xbcd3ab78	-0.025838599
71	0x3cb7f377	0.02245496
72	0x3c383ad9	0.011244499
73	0xbd0debbc	-0.034648642
74	0x3d0af27a	0.03392265
75	0xbcdc417f	-0.0268867
76	0x3c1671c7	0.0091824
77	0x3c0b0714	0.008485574
78	0xbd1c29bd	-0.038125742
79	0x3c909083	0.017647034
80	0xbb6b57e0	-0.0035910532
81	0xbcaad72c	-0.020854555
82	0xbad6dc67	-0.0016392589
83	0xbc86d7e0	-0.01646036
84	0xbd169163	-0.036759745
85	0x3c8fd5f4	0.017558075
86	0xbc0a4294	-0.008438725
87	0x3a815aed	0.0009869017
88	0xbd0915df	-0.033468124
89	0xbb642587	-0.0034812407
90	0x3bd3318f	0.006445117
91	0x3c507335	0.01272278
92	0x3d18d221	0.03730977
93	0x3c933471	0.017969342
94	0xbcd2a829	-0.02571495
95	0xbd0996a0	-0.033590913
96	0x3d350795	0.044196684
97	0xbd13fdc6	-0.03613069
98	0xbcf2b466	-0.029627036
99	0xbd0d4245	-0.034487028
100	0x3c33cc41	0.010973991
101	0xbd168e12	-0.036756583
102	0xbd140169	-0.036134157
103	0x3c104b17	0.008806965
104	0xbd115d72	-0.035489507
105	0x3ac0b795	0.0014703149
106	0xbce65342	-0.028115872
107	0xbcef9081	-0.02924371
108	0x3c69964b	0.014257024
109	0xbc0b112e	-0.008487983
110	0x3cd3a0cc	0.02583351
111	0x3c6de3ac	0.014519613
112	0xbc76acde	-0.015055863
113	0x3b03afb2	0.0020093736
114	0x3c54fe32	0.013000058
115	0xbc9801de	-0.018555578
116	0xbd0a7616	-0.03380402
117	0xbc45441b	-0.012040163
118	0xbc0193b9	-0.007908755
119	0xb8130bf0	-3.505865e-05
120	0xbd1bba7b	-0.03801964
121	0x3c2121e4	0.00983474
122	0xbbe4db9a	-0.0069841864
123	0xbd08a061	-0.033356074
124	0x3cc3f1f1	0.023919078
125	0xbb8b9835	-0.004260088
126	0x3c4ee946	0.012628859
127	0xbcb0b939	-0.021572696
128	0x3c115145	0.008869474
129	0xbcf11c10	-0.029432327
130	0xbc8444fb	-0.016146174
131	0xbd0a623f	-0.0337851
132	0xbcc091b4	-0.023506977
133	0xbca99772	-0.020702098
134	0x3c1cca5e	0.0095697325
135	0x3bbb4705	0.0057152533
136	0x3d04027e	0.03222894
137	0x3d27bac4	0.040949598
138	0x3ccebec5	0.02523745
139	0xbcba1436	-0.022714715
140	0x3c8d9174	0.017281272
141	0x3cbdd77a	0.023174036
142	0x3d096a7a	0.03354881
143	0x3c700c20	0.014651328
144	0x3d0b998c	0.03408198
145	0x3b92e296	0.0044825776
146	0x3cf006e8	0.029300168
147	0xbb1736b2	-0.0023073372
148	0xbd301c49	-0.042995725
149	0xbc8b0b77	-0.01697324
150	0x3bcb9f89	0.0062140864
151	0x3cbe6c71	0.023245068
152	0x3cdf6693	0.02727059
153	0x3d2c48d3	0.042061638
154	0x3d1e7764	0.03868808
155	0xbbe930b7	-0.007116403
156	0xbbc6cba2	-0.0060667554
157	0x3cf8018e	0.030274179
158	0x3c8aacbf	0.016928075
159	0x3cfae30d	0.030625844
160	0xbcffc0b6	-0.031219821
161	0x3bf9e41f	0.007626071
162	0xbc707292	-0.014675753
163	0xbd09e265	-0.033663172
164	0x3c9d6533	0.019213295
165	0x3be9b605	0.007132294
166	0xbcffb9d9	-0.031216549
167	0xbd2997f0	-0.041404665
168	0xbb39f84f	-0.0028376763
169	0x3c7aedf8	0.015315525
170	0x3cff499e	0.031163033
171	0xbc980b70	-0.018560141
172	0x3b84473b	0.0040368116
173	0x3c890825	0.016727516
174	0xbc94daf0	-0.018170804
175	0x3c9c6ab4	0.019093849
176	0x3d2088e6	0.039193057
177	0x3caa0a55	0.02075688
178	0x3d043d74	0.03228517
179	0xbd092261	-0.033480052
180	0xbcec7d59	-0.028868364
181	0x3d12e496	0.035862528
182	0x3ce0631b	0.027391007
183	0x3cab0ebe	0.020881053
184	0x3c8ae8c9	0.016956704
185	0x3c667d4f	0.014067962
186	0x3cd48e26	0.025946688
187	0xbcc6f8d9	-0.024288582
188	0x3cffdf56	0.031234425
189	0xbd2611b4	-0.040544227
190	0xbcfc5c98	-0.03080587
191	0x3c11b132	0.008892344
192	0x3c973b9f	0.018461047
193	0xbafdba17	-0.0019357827
194	0x3c3d9c94	0.011572976
195	0xbcea6a64	-0.028615184
196	0xbce92273	-0.02845881
197	0x3cd16f7f	0.02556586
198	0xbc8fc8ed	-0.017551864
199	0x3bff73fc	0.007795809
200	0xbad1d68f	-0.0016009378
201	0x3ce3da46	0.027814042
202	0x3be31ae9	0.006930698
203	0xbcaa2e14	-0.020773925
204	0xbc59cbd8	-0.013293229
205	0x3d1a7344	0.037707582
206	0x3b0f07fe	0.0021824832
207	0xbbf9dee8	-0.0076254494
208	0xbbfca576	-0.007710154
209	0xbc87c151	-0.016571673
210	0xbc998367	-0.018739415
211	0x3c7cd754	0.015432198
212	0xbca900b5	-0.02063022
213	0x3d25a45d	0.040439952
214	0xbced762a	-0.02898701
215	0x3d02d71c	0.031943426
216	0x3c3c38ca	0.011488149
217	0x3c2cf48d	0.010556352
218	0xbcc09e43	-0.023512965
219	0xbd19339b	-0.03740273
220	0xbbd0521f	-0.006357446
221	0xbc7cbb2f	-0.015425487
222	0x3cc031c0	0.023461223
223	0xbc1d8c6f	-0.0096160015
224	0x3cdc4c96	0.026891988
225	0xbbf30fbe	-0.007417648
226	0xbcc57742	-0.024104718
227	0xbc95c078	-0.018280253
228	0x3cc34a43	0.023839122
229	0xbbe7286d	-0.0070543797
230	0x3c2ec2a6	0.010666525
231	0xbd302899	-0.043007467
232	0x3cdcd59d	0.026957327
233	0xbd0a4183	-0.033753883
234	0x3b3d65ff	0.0028899906
235	0x3c4f31fb	0.012646194
236	0x3d0d44d1	0.034489457
237	0x3d42d6fb	0.047568303
238	0xbbfe2bfe	-0.007756709
239	0x3d37412a	0.04473988
240	0x3c43414e	0.011917425
241	0x3d3c449e	0.045963876
242	0x3d07fff8	0.033203095
243	0x3d3d7f09	0.04626373
244	0x3b4f53cb	0.0031635638
245	0xbca4e11e	-0.020126875
246	0xbd01bd70	-0.031674802
247	0xbba8102f	-0.0051288824
248	0x3c803399	0.015649604
249	0xbcd5282b	-0.02602013
250	0x3b9c7e87	0.0047758254
251	0x3c7a9f7d	0.015296814
252	0xbc26a808	-0.010171898
253	0xbcddd4d8	-0.02707903
254	0x3cb938a4	0.022610016
255	0xbcbb4217	-0.022858663

bias f4 [64]
0	0xbc9cc93d	-0.019138927
1	0x3d46056b	0.04834501
2	0x3c5e2178	0.013557784
3	0xbd1a26aa	-0.03763453
4	0x3c942711	0.018085035
5	0x3ba510c6	0.0050374
6	0x3d17779d	0.036979306
7	0xba16731e	-0.00057391997
8	0xbd23d5b5	-0.03999873
9	0xbccf25cd	-0.02528658
10	0x3ba6dfde	0.005092605
11	0xbc283063	-0.010265443
12	0x3c064d38	0.008197121
13	0x3c18eb9c	0.009333517
14	0x3d5405c5	0.051763315
15	0x3bb9aedf	0.005666598
16	0x3d73a38e	0.05948215
17	0xbcbbe901	-0.022938253
18	0x3ace3664	0.0015732762
19	0xbc8e99ec	-0.01740738
20	0x3c703470	0.01466094
21	0x3cb4f77f	0.022090672
22	0xbb405803	-0.0029349334
23	0x3ab3fb66	0.0013731539
24	0x3c9570fa	0.018242348
25	0xbc0c1ffc	-0.008552548
26	0x3c975092	0.018471036
27	0x3ca5c222	0.020234171
28	0x3d38db58	0.045131058
29	0xbb9b1deb	-0.004733791
30	0xbb0dadd7	-0.002161851
31	0x3d3544f5	0.044255216
32	0x3cc289e1	0.023747386
33	0xbcceb0eb	-0.025230845
34	0x3cc92ade	0.024556573
35	0x3c8eb816	0.017421763
36	0x3d46e7be	0.04856085
37	0xbcb8791d	-0.022518689
38	0x3ca9ee16	0.020743411
39	0x3d3d931c	0.046282873
40	0x3d0dbc85	0.034603614
41	0x3c82d27c	0.015969507
42	0xbba91b94	-0.0051607583
43	0x3c265565	0.010152196
44	0xbcaea823	-0.021320408
45	0xbcb84b20	-0.02249676
46	0x3cd910ab	0.026497206
47	0x3cbec657	0.023287935
48	0xbc7967d7	-0.015222511
49	0x3cec3048	0.028831616
50	0x3d4301c9	0.047609124
51	0x3c77e7de	0.015130965
52	0xbc753b91	-0.014967815
53	0xbbb1159e	-0.0054041883
54	0xbbbc34d0	-0.0057436004
55	0x3c81fc77	0.015867455
56	0x3d060006	0.032714866
57	0xbc803a82	-0.015652899
58	0xbb1f9119	-0.002434796
59	0x3b92bd01	0.0044780974
60	0xbb6e3c41	-0.0036351832
61	0xbcd877c4	-0.026424296
62	0xbc36fd46	-0.0111687835
63	0x3d839fb9	0.06426949

weight f4 [64, 32, 3, 3]
0	0xbce6ea0d	-0.028187776
1	0xbd491611	-0.04909331
2	0x3d1c68d9	0.038185928
3	0x3d233a2e	0.039850406
4	0xbcea7730	-0.028621286
5	0xbc0f3abe	-0.008742033
6	0xbd14d90a	-0.036339797
7	0x3c0f0d34	0.008731175
8	0xbcd75ea8	-0.026290253
9	0xbd147378	-0.036242932
10	0xbd74a2d6	-0.059725605
11	0xbd7307ee	-0.059333734
12	0xbd61e56d	-0.055150438
13	0x3c9a3fab	0.018829187
14	0x3cebb119	0.02877097
15	0xbd4269a4	-0.047464028
16	0x3d453baa	0.048152603
17	0xb8d6ebe3	-0.000102482525
18	0x3cd02c60	0.025411785
19	0x3d261857	0.040550556
20	0xbc6956e2	-0.014241906
21	0x3d0c2124	0.034211293
22	0x3caaaede	0.020835336
23	0xbd16ac56	-0.036785446
24	0x3cc7ecaf	0.024404852
25	0xbd4b5ed7	-0.049650993
26	0xbd50f34c	-0.051013276
27	0xbd10200f	-0.035186823
28	0x3d4d0245	0.050050993
29	0x3cb02b03	0.021504885
30	0x3bdaeb0d	0.0066808523
31	0x3d4de864	0.050270453
32	0xbcb9d68a	-0.022685308
33	0xba434f30	-0.00074504595
34	0x3d5dc4ed	0.05414288
35	0xbcf15ec0	-0.029464126
36	0xbd518318	-0.05115041
37	0xbd3bcd22	-0.045849927
38	0x3d03a3e2	0.032138713
39	0xbc40cd70	-0.01176773
40	0x3b20a7fc	0.002451419
41	0xbd00c690	-0.031439364
42	0x3d557e90	0.052122653
43	0xbbe3c127	-0.006950516
44	0x3d353d99	0.044248197
45	0x3c8a2c5e	0.016866859
46	0xbccccdbd	-0.025000447
47	0x3d2857bf	0.041099306
48	0xbc8a8b25	-0.016912052
49	0x3d1ccf17	0.038283434
50	0x3d04cba9	0.032420788
51	0xbaa126bc	-0.0012294869
52	0x3b17cdec	0.002316351
53	0x3d735276	0.059404813
54	0xbb99f5e5	-0.0046985024
55	0x3d3ff959	0.046868656
56	0xbd27bb0f	-0.040949877
57	0xbcf022cc	-0.029313467
58	0xbced7994	-0.028988637
59	0xbd4ffe5f	-0.050779697
60	0xbb8c6493	-0.0042844503
61	0xbb088fe2	-0.0020837714
62	0x3d37aa0e	0.04483991
63	0x3b5a06a0	0.003326811
64	0x3d2f3650	0.042776406
65	0x3d370e72	0.04469151
66	0x3b8c3100	0.004278302
67	0xbcd65753	-0.026164686
68	0xbd4d87e6	-0.05017843
69	0xbbcef917	-0.006316315
70	0xbc35ca6f	-0.011095627
71	0x3c7a9643	0.015294614
72	0x3b92270e	0.004460222
73	0xbca4501a	-0.020057727
74	0x3c167590	0.0091833025
75	0x3d1a498b	0.037667792
76	0xbc5c0689	-0.0134292925
77	0xbc31b238	-0.010845713
78	0x3d48dbb7	0.04903766
79	0x3ca0d3a3	0.019632166
80	0x3d4a3b95	0.049373228
81	0x3d7a4e10	0.061109602
82	0x3d514a7f	0.051096436
83	0xbd142980	-0.03617239
84	0x3d64bc17	0.05584344
85	0xbc946604	-0.018115051
86	0x3d31a500	0.043370247
87	0x3d7a01f5	0.061037023
88	0xbd228442	-0.039676912
89	0x3d56bd74	0.05242677
90	0xbc9d4981	-0.019200088
91	0x3c31c38a	0.010849843
92	0x3d09d40c	0.03364949
93	0xbbda6221	-0.00666453
94	0xbcbcd604	-0.02305127
95	0xbc1a1b28	-0.009405889
96	0x3b9bfa00	0.004760027
97	0xbad16629	-0.0015975881
98	0x3d2f2de2	0.042768367
99	0xbcafe923	-0.021473473
100	0x3d72781e	0.059196584
101	0xbcfa492c	-0.03055247
102	0xbd6ef13f	-0.05833554
103	0xbd024ab2	-0.031809516
104	0xbd38ae6a	-0.04508821
105	0xbd51f599	-0.05125961
106	0xbd1e98d8	-0.038719982
107	0x3d34cee9	0.044142637
108	0xbcecba84	-0.028897531
109	0x3d0765f6	0.033056222
110	0x3d73439f	0.05939066
111	0xbd0a1568	-0.03371182
112	0xbd458087	-0.048218276
113	0x3c5118ef	0.012762292
114	0xbd22d6ac	-0.03975551
115	0xbd247737	-0.040152755
116	0xbd25e3bb	-0.040500384
117	0x3ccb83ed	0.02484318
118	0xbc9fd15a	-0.019509006
119	0xbc3ad8d7	-0.011404238
120	0x3ccfc9eb	0.025364837
121	0x3d39e21b	0.045381647
122	0xbc890225	-0.016724655
123	0xbc034a74	-0.0080133565
124	0xbd418b99	-0.04725227
125	0x3d438a82	0.047739513
126	0xba1dfe0a	-0.00060269295
127	0x3b3d3ac8	0.0028874148
128	0xbc66594b	-0.014059375
129	0x3c47570e	0.012166752
130	0x3ca3f611	0.020014795
131	0x3bac57cc	0.0052594896
132	0xbc9bc701	-0.01901579
133	0xbd0a934b	-0.033831876
134	0xbc1508fd	-0.009096381
135	0x3d3720f1	0.04470915
136	0xbd224a9a	-0.039621927
137	0xbc7b4101	-0.015335322
138	0xbd3fcd2e	-0.046826534
139	0x3d1a0fc2	0.037612684
140	0xbd3c8964	-0.046029463
141	0xbcfed27a	-0.031106222
142	0x3d1704af	0.0368697
143	0xbd846179	-0.06463904
144	0xbcd166ff	-0.025561808
145	0x3d144e84	0.03620769
146	0x3d47b2b5	0.048754413
147	0xbd1b614c	-0.037934586
148	0x3d699ee6	0.057036303
149	0xbcf89dfc	-0.03034877
150	0xbd5bb05a	-0.05363498
151	0x3d412d83	0.047162544
152	0xbd2b71fa	-0.041856743
153	0xb9abb398	-0.0003274947
154	0x3c55effb	0.013057704
155	0xbd6d23e6	-0.057895564
156	0x3d590f2a	0.052992977
157	0x3cfefd10	0.031126529
158	0x3c34331a	0.010998512
159	0x3cdf0ef7	0.027228815
160	0x3d2882fb	0.041140538
161	0x3c1ab2a1	0.0094420025
162	0xbcf06598	-0.029345319
163	0x3b8db87e	0.0043249717
164	0x3d6ef9b2	0.058343597
165	0xbcca2e71	-0.024680348
166	0x3d41558d	0.04720073
167	0x3d597803	0.053092968
168	0xbd1864f7	-0.037205663
169	0xbc71ab48	-0.014750309
170	0x3bf2f5d8	0.0074145608
171	0x3cf6d22d	0.030129516
172	0xbc50446d	-0.0127116265
173	0x3d01c900	0.03168583
174	0xbce5220c	-0.027970336
175	0x3d118356	0.035525642
176	0x3b2533a7	0.002520779
177	0x3c0560b1	0.008140729
178	0x3d798263	0.060915362
179	0x3ca2b105	0.0198598
180	0x3d8c8b0d	0.06862459
181	0x3d348355	0.04407056
182	0x3d8e5ec4	0.06951669
183	0x3d71819c	0.058961496
184	0xbccee831	-0.025257202
185	0x3b83eb5f	0.004025861
186	0x3cab5133	0.020912742
187	0xbc943ff9	-0.01809691
188	0x3d378ed0	0.04481393
189	0xbd1429cc	-0.036172673
190	0x3d48712f	0.048936065
191	0x3d05ca5e	0.032663696
192	0xbd3ccdc5	-0.046094675
193	0xbd476b51	-0.04868633
194	0xbccb8111	-0.024841817
195	0x3cb4110b	0.021980783
196	0xbd385fe5	-0.045013327
197	0xbd476689	-0.04868177
198	0x3c934a3f	0.01797974
199	0x3d3ae2e5	0.04562654
200	0xbd285d3c	-0.04110454
201	0x3d56d6e7	0.05245104
202	0xbbceb031	-0.0063076247
203	0x3ca1c896	0.019748967
204	0xbd45b86a	-0.048271574
205	0xbc262ca6	-0.010142481
206	0x3d84d651	0.0648619
207	0xbcce01d3	-0.025147354
208	0x3d24a229	0.04019371
209	0xbd0a0c89	-0.03370336
210	0xbd381a50	-0.04494697
211	0xb98105a3	-0.00024608997
212	0x3cb4d30b	0.02207329
213	0x3ccf3ec1	0.025298478
214	0xbd7eec2c	-0.06223695
215	0xbabec71e	-0.0014555191
216	0x3cdb615d	0.026779825
217	0x3d1d6f2d	0.038436104
218	0xbd5a8a1d	-0.05335437
219	0xbd4d091c	-0.050057516
220	0xbd218efb	-0.039442997
221	0x3c974c9b	0.018469146
222	0xbc34ef5e	-0.011043398
223	0x3cce424e	0.0251781
224	0xbc0c8e42	-0.008578839
225	0xbd4b9315	-0.049700815
226	0xbca21dbf	-0.019789575
227	0x3d21e146	0.039521478
228	0xbd3ea5ab	-0.046544712
229	0x3cd979d1	0.026547344
230	0x3d6c94e1	0.05775917
231	0xbcdc1d50	-0.026869446
232	0xbd5b9496	-0.0536085
233	0xbd2b70db	-0.041855674
234	0x3d6da34b	0.058017056
235	0x3d1ec21b	0.038759332
236	0xbcbeab89	-0.023275154
237	0x3c1b11ca	0.00946469
238	0x3d7b9390	0.061420023
239	0xbd1100ae	-0.03540104
240	0x3d15b1c9	0.036546502
241	0xbd58f7d7	-0.052970733
242	0x3d577fbe	0.05261206
243	0x3c1ee7c5	0.009698813
244	0x3d101f5f	0.035186168
245	0x3cfac798	0.030612752
246	0x3b510bf2	0.003189799
247	0x3d5980fd	0.05310153
248	0x3bd9d010	0.0066471174
249	0xbc69ae25	-0.014262711
250	0x3cbc465a	0.022982765
251	0x3cad37f5	0.021144846
252	0x3d3651d4	0.04451163
253	0xbd4b278e	-0.04959827
254	0xb9738278	-0.0002322289
255	0xbb2e8229	-0.0026627874
