Baseline/bestKernel_Size_Set_1.pt (torch_old, 199269 bytes, 16 tensors)

weight f4 [16, 3, 3, 3]
0	0xbe2678f4	-0.16257077
1	0xbdb24b85	-0.087058105
2	0xbd87601c	-0.06610128
3	0xbe1f93c0	-0.15583706
4	0x3d43310b	0.047654193
5	0x3dbc914f	0.09207403
6	0xbc4e834a	-0.012604544
7	0xbd5c2aec	-0.05375187
8	0x3cb4d8a6	0.022075962
9	0xbe2ae408	-0.1668855
10	0xbe06c1f8	-0.1315993
11	0xbc90bdbd	-0.0176686
12	0x3e211229	0.15729584
13	0xbd960fe1	-0.073272474
14	0x3da9060f	0.08253109
15	0xbdc1de34	-0.0946621
16	0xbd91857c	-0.07105538
17	0xbe4ea66f	-0.20180677
18	0x3e3b317a	0.18280593
19	0x3e57e390	0.21082902
20	0x3c95410c	0.018219493
21	0x3e1450d7	0.14483963
22	0x3e385cf5	0.1800421
23	0x3deff880	0.117173195
24	0x3dfb26d9	0.12263269
25	0xbe238ba5	-0.15971239
26	0xbe227f43	-0.15868859
27	0xbe13c876	-0.14431939
28	0x3d80ff02	0.06298639
29	0xbe27657f	-0.16347311
30	0xbe144c4d	-0.14482231
31	0xbdbb06ac	-0.09132132
32	0xbe33c67d	-0.17556186
33	0x3ab3e610	0.001372518
34	0x3ceee80f	0.029163389
35	0xbde44c03	-0.111473106
36	0x3dfaf5cb	0.122539125
37	0xbd9ed91a	-0.077562526
38	0xbd690cf3	-0.056897115
39	0x3e16c7db	0.14724676
40	0x3e298a72	0.16556719
41	0xbcabc26b	-0.02096673
42	0xbe0cf85f	-0.13766621
43	0xbdc29b68	-0.09502298
44	0x3cda0a78	0.02661632
45	0x3dea6da8	0.114466965
46	0x3dc93ac1	0.098256595
47	0xbdab80d3	-0.08374181
48	0xbe3b551c	-0.18294185
49	0xbe2d4e78	-0.16924465
50	0xbd80738f	-0.06272041
51	0x3af14f0e	0.0018410401
52	0xbdb3ffab	-0.08788999
53	0xbe1de68a	-0.15419975
54	0x3cf39841	0.029735686
55	0xbe133611	-0.14376093
56	0xbe10c845	-0.14138897
57	0xbe19e939	-0.15030374
58	0xbd354b0f	-0.044261035
59	0x3e331392	0.17487934
60	0x3da9e453	0.082955025
61	0xbca1808d	-0.019714618
62	0x3d2961bd	0.041352976
63	0x3d9b1704	0.07572749
64	0x3959642f	0.00020732054
65	0xbe22302f	-0.15838693
66	0xbdf83df8	-0.121211946
67	0xbe08310c	-0.1329996
68	0xbc0a29fa	-0.00843286
69	0xbe3b11ee	-0.18268558
70	0xbd2a0830	-0.041511714
71	0xbd9c4b53	-0.076315545
72	0x3e4ae5c5	0.19814213
73	0x3e2977cc	0.16549605
74	0x3df365f1	0.11884678
75	0x3c8fdcbe	0.017561313
76	0xbd646573	-0.055760812
77	0x3d5ae8af	0.05344456
78	0xbe01e248	-0.12683976
79	0xbd9b822f	-0.0759319
80	0xbd00279b	-0.03128777
81	0xbd198eea	-0.03748981
82	0xbe329de8	-0.17443049
83	0x3dacbbce	0.084342584
84	0x3e29ed74	0.16594487
85	0xbdca7247	-0.09885078
86	0x3d72b494	0.059254244
87	0xbc6c3d7b	-0.014418955
88	0x3a50cf69	0.0007965477
89	0x3c9aa752	0.018878613
90	0x3e32df71	0.17468049
91	0x3d09bc6e	0.033626966
92	0xbdea93c9	-0.11453969
93	0xbd7b2bb3	-0.06132097
94	0x3dd290ed	0.10281549
95	0x3d85859e	0.06519626
96	0x3c4d84a1	0.012543828
97	0xbc820e62	-0.015875999
98	0xbd8595d6	-0.065227196
99	0xbd33d3cc	-0.043903157
100	0xbd9e3ca6	-0.077264115
101	0x3d6714eb	0.056416433
102	0x3da0cc04	0.07851413
103	0x3e2fdc4c	0.1717388
104	0xbc996f27	-0.01872976
105	0x3d1c7ee6	0.038206957
106	0x3e181b71	0.14854218
107	0x3ddde51e	0.10834716
108	0x3caed5eb	0.021342238
109	0x3d6426dc	0.05570112
110	0x3becb3ff	0.0072236056
111	0xbe2c210c	-0.16809481
112	0x3b7d8fee	0.0038690525
113	0xbd38dfda	-0.045135356
114	0x3e2f5c10	0.17124963
115	0x3e2eec31	0.17082287
116	0x3d108511	0.035283152
117	0x3e337468	0.17524874
118	0xbdc186c4	-0.09449533
119	0x3e2d9860	0.16952658
120	0x3e2a34f6	0.16621765
121	0xbc2ce189	-0.010551819
122	0xbe1f4aa3	-0.15555815
123	0xbd7529ed	-0.059854437
124	0xbd57189d	-0.052513707
125	0x3b9ce372	0.004787856
126	0xbe1873c9	-0.14887919
127	0x3d79ad4d	0.060956288
128	0xbd649e78	-0.05581519
129	0xbcc52d39	-0.024069415
130	0xbd990f1b	-0.07473584
131	0xbc8b70a4	-0.017021485
132	0xbe1d3031	-0.15350415
133	0xbd9f5b59	-0.07781095
134	0x3d2841dd	0.041078437
135	0x3e07fd83	0.13280301
136	0x3e36e138	0.17859352
137	0xbe135bf5	-0.14390548
138	0x3db3263f	0.08747529
139	0xbdd06de7	-0.10177212
140	0xbe17720b	-0.14789598
141	0xba3f3720	-0.0007294286
142	0xbddacf80	-0.10684109
143	0xbe28dd0c	-0.16490573
144	0xbe2314ae	-0.15925857
145	0xbde44dd5	-0.11147658
146	0x3e303d83	0.17210965
147	0x3dfa7e03	0.12231066
148	0xbd7aa5f8	-0.061193436
149	0xbdecb01e	-0.11557029
150	0xbe088ed4	-0.13335735
151	0xbdcd0821	-0.10011316
152	0xbd895698	-0.067059696
153	0x3db57c5a	0.08861609
154	0x3d112c87	0.035442855
155	0xbdcb0181	-0.09912396
156	0x3ddac904	0.10682872
157	0xbe157d91	-0.14598681
158	0xbe398d07	-0.18120204
159	0x3c92890c	0.017887615
160	0xbe06a8b1	-0.13150288
161	0x3cfbb082	0.030723814
162	0x3e354023	0.17700247
163	0xbd9b1c94	-0.0757381
164	0xbdf2c894	-0.118546635
165	0x3db12445	0.08649496
166	0xbe2296b0	-0.15877795
167	0x3e3ea485	0.18617447
168	0xbd9ac691	-0.07557405
169	0x3dde0fa5	0.10842828
170	0xbe0c7a37	-0.13718496
171	0xbdf8f57a	-0.12156196
172	0x3ceaeb26	0.02867658
173	0x3d9a9b89	0.07549197
174	0x3e22b6b3	0.15890007
175	0x3e2d66ef	0.16933797
176	0xbb93af0c	-0.004506951
177	0xbc40b6ce	-0.011762334
178	0x3d37d489	0.044880424
179	0xbd038ff7	-0.032119717
180	0x3cdbdbe8	0.026838258
181	0xbe2599c4	-0.16171938
182	0xbe0c0f9a	-0.13677827
183	0x3e1ef043	0.1552134
184	0xbdb4773d	-0.088118054
185	0x3e347628	0.17623198
186	0x3d314abf	0.043284174
187	0x3d8f9e85	0.07012657
188	0x3e4bb2c7	0.19892417
189	0xbdbdf227	-0.092747025
190	0xbc87beee	-0.016570535
191	0x3d420070	0.0473637
192	0x3da2c775	0.079482
193	0xbe31eef3	-0.17376308
194	0x3da5bf1f	0.08093094
195	0xbdcc5371	-0.09976853
196	0x3d1d4a2a	0.038400806
197	0x3e12245d	0.14271684
198	0xbc060ed1	-0.008182243
199	0x3baafd7d	0.0052182064
200	0xbb9d4d90	-0.004800506
201	0x3e2ff4d6	0.17183241
202	0x3df75f17	0.12078684
203	0x3d2da0ce	0.042389683
204	0xbdd6c872	-0.10487451
205	0xbdbede0a	-0.09319694
206	0x3e2730a2	0.16327146
207	0x3e27b5d3	0.16377954
208	0x3e0bab39	0.13639535
209	0xbdfff039	-0.12496991
210	0x3e330bf2	0.17485026
211	0x3bcffe9e	0.0063474914
212	0x3e2ab91e	0.16672179
213	0x3e44eebe	0.19231698
214	0x3d3bd91c	0.04586135
215	0xbd61fee1	-0.055174712
216	0x3e48ab1d	0.19596525
217	0xbdab7160	-0.08371234
218	0x3e101fed	0.14074679
219	0xbe2a8aee	-0.1665456
220	0xbd2e2ce0	-0.042523265
221	0xbe185659	-0.14876689
222	0xbd8b10ba	-0.067903
223	0x3dcb7977	0.09935277
224	0xbdf35c12	-0.118827954
225	0xbe1482bd	-0.14502998
226	0x3e243fa5	0.16039903
227	0x3e002bdd	0.12516733
228	0x3c6095e5	0.013707613
229	0xbded16b5	-0.11576597
230	0xbd00b2c9	-0.031420503
231	0xbd34c7c9	-0.044135842
232	0x3e0ed46f	0.13948224
233	0xbd2de39a	-0.042453386
234	0xbd0a4a1b	-0.03376208
235	0xbded8445	-0.11597494
236	0xbd90aa2b	-0.07063707
237	0x3e0013c5	0.12507541
238	0x3e156360	0.1458869
239	0x3d49a4ca	0.04922942
240	0xbd50b7fe	-0.05095672
241	0x3e53fde3	0.20702319
242	0x3d74009c	0.059570894
243	0xbd906228	-0.07049972
244	0xbd812519	-0.06305904
245	0xbcbe1c33	-0.023206806
246	0x3dc25fa1	0.09490896
247	0x3d981e0e	0.074276075
248	0x3e128355	0.14307912
249	0xbba50f76	-0.0050372435
250	0x3e26c158	0.16284692
251	0xbd9873db	-0.07443973
252	0xbdb4684e	-0.08808957
253	0xbd9a441b	-0.07532521
254	0xbe3c0eb5	-0.18364985
255	0xbe03bc55	-0.12864812

bias f4 [16]
0	0xbb2fe067	-0.0026836635
1	0x3d15076f	0.036384042
2	0xbda881e1	-0.082278974
3	0x3e401892	0.18759373
4	0xbe08ac24	-0.13346916
5	0xbbe67ade	-0.00703369
6	0xbe023896	-0.12716898
7	0x3d8a7a3d	0.06761596
8	0x3e358cf8	0.17729557
9	0x3e3e1dfa	0.18566123
10	0x3cad25bd	0.02113616
11	0xbdb3b8f7	-0.087755136
12	0x3e363fa8	0.1779772
13	0x3c8b6eb5	0.017020563
14	0x3e043f9d	0.12914892
15	0xbdb4c172	-0.08825959

weight f4 [16, 16, 3, 3]
0	0xbcf3eec2	-0.029776935
1	0xbd774349	-0.060366903
2	0x3db292b2	0.08719386
3	0x3cb128fe	0.021625992
4	0xbd4e3cb1	-0.05035085
5	0x3ca73f48	0.020415917
6	0xbcefa07d	-0.029251331
7	0x3c55d469	0.013051131
8	0x3d244fcb	0.04011516
9	0xbd5ece50	-0.054395974
10	0xbb655c95	-0.003499781
11	0xbd9488b2	-0.07252635
12	0x3a888724	0.0010416252
13	0xbdcc4766	-0.09974556
14	0xbbdaba5b	-0.0066750473
15	0x3d854f6a	0.06509288
16	0x3d6f91b6	0.05848857
17	0x3cbefeb7	0.023314817
18	0x3d917d5c	0.071039885
19	0x3db77bab	0.08959135
20	0x3d0a137c	0.033709988
21	0x3d1079b5	0.03527232
22	0x3c94660c	0.018115066
23	0x3dac2b98	0.08406752
24	0x3d968daa	0.07351239
25	0xbcf7691f	-0.030201493
26	0x3c144399	0.00904932
27	0xbd0db78e	-0.03459888
28	0x3d1f5422	0.038898595
29	0xbd8d2afe	-0.06892966
30	0x3d2a3e72	0.04156346
31	0xbc5aa7e0	-0.013345689
32	0x3d29c3f6	0.04144665
33	0x3d0ed9ea	0.034875788
34	0xbd056e0f	-0.032575663
35	0x3d56899e	0.052377336
36	0x3ca339ab	0.01992496
37	0xbdb7ffa9	-0.0898431
38	0x3d80c10f	0.06286823
39	0x3d71f498	0.059071153
40	0x3d0ec746	0.03485801
41	0xbccdf93c	-0.025143258
42	0x3c9154aa	0.017740566
43	0xbd604586	-0.054753803
44	0xbd258d03	-0.040417682
45	0x3cbf280b	0.023334524
46	0x3c9dae94	0.019248284
47	0x3ca5ab87	0.020223392
48	0xbdca9a33	-0.098926924
49	0x3d4775a4	0.048696175
50	0xbd0923b3	-0.03348131
51	0x3d67f566	0.056630515
52	0x3d4d5ab2	0.050135322
53	0x3ccaf1c8	0.024773493
54	0x3db37dab	0.08764204
55	0x3d5d0a5c	0.053964958
56	0x3d652d80	0.055951595
57	0xbcbeadc6	-0.023276221
58	0x3d9edd36	0.077570364
59	0x3cd2c4e3	0.025728649
60	0x3d6c5307	0.05769637
61	0xbca53ffe	-0.020172115
62	0x3d895744	0.06706098
63	0x3da7b959	0.08189649
64	0xbd58baf6	-0.052912675
65	0x3da568bc	0.08076617
66	0xbd3f63d8	-0.046726078
67	0xbd429846	-0.0475085
68	0xbd6db3a9	-0.058032665
69	0x3d050fe0	0.032485843
70	0xbd5b3118	-0.053513616
71	0xbca96c9c	-0.020681672
72	0xbd13f355	-0.03612073
73	0x3cf2f12f	0.02965602
74	0xbd920915	-0.071306385
75	0xbcd84ed1	-0.02640477
76	0x3c5f957a	0.013646478
77	0x3c74204a	0.014900276
78	0xbcdb1e23	-0.026747769
79	0x3cacce23	0.021094387
80	0xbd74724b	-0.05967931
81	0xbd8f8dc3	-0.07009461
82	0xbb7c37e9	-0.0038485473
83	0xbd13ee94	-0.036116198
84	0x3d5a91c1	0.053361658
85	0xbd592428	-0.053012997
86	0x3aecec7d	0.001807585
87	0x3d07d46b	0.033161562
88	0xbd929110	-0.07156575
89	0x3d9095a3	0.07059791
90	0xbd092354	-0.033480957
91	0xbc9555c4	-0.018229373
92	0xbd38d71f	-0.04512703
93	0xbcd56bbd	-0.02605235
94	0xbcdf6bf5	-0.027273158
95	0xbd8c50eb	-0.068513714
96	0x3cfac207	0.030610098
97	0x3b549a13	0.0032440468
98	0x3db13888	0.086533606
99	0x3d86ef3a	0.065885976
100	0x3dacd2db	0.08438655
101	0x3d178015	0.036987383
102	0x3d5e801b	0.05432139
103	0x3db670ff	0.08908271
104	0x3da3901d	0.07986472
105	0xbd5a4cb3	-0.053295802
106	0xbc0a18e7	-0.008428789
107	0xbd8e97af	-0.06962525
108	0x3c588421	0.013215096
109	0xbc970e6c	-0.018439494
110	0x3dac76db	0.084211074
111	0x3cb64d78	0.022253737
112	0x3c1de405	0.009636884
113	0xbd436184	-0.04770042
114	0xbd814094	-0.063111454
115	0x3cc2cbbb	0.023778787
116	0xbcfbeac5	-0.030751595
117	0xbd524cb2	-0.051342674
118	0x3d327122	0.043564923
119	0xbd7170e9	-0.05894557
120	0xbd4b5bd5	-0.049648125
121	0x3d496cbd	0.049175967
122	0x3c95dc04	0.018293388
123	0xbd68f957	-0.056878414
124	0x3c96e20a	0.01841833
125	0x3d02da5f	0.031946536
126	0xbdb17ae4	-0.08666018
127	0x3a4e3c84	0.0007867294
128	0x3aa066fd	0.0012237724
129	0xbc2679b8	-0.010160856
130	0x3d8baa69	0.068196125
131	0xbd94f27c	-0.07272813
132	0x3d1fe353	0.039035153
133	0xbd4621e5	-0.048372168
134	0xbda236b9	-0.07920594
135	0x3d06006f	0.032715257
136	0xbd00cfc0	-0.031448126
137	0x3b6d0c83	0.0036170788
138	0x3cd64c8b	0.026159545
139	0xbdab9918	-0.0837881
140	0xbd8d3b81	-0.06896115
141	0x3c371d28	0.011176385
142	0x3d67b503	0.05656911
143	0xbc1fa79e	-0.009744553
144	0x3d9f93c2	0.077918544
145	0x3d490ecf	0.04908639
146	0x3d3051c3	0.043046724
147	0xbd0db25e	-0.034593932
148	0x3dd0dcf7	0.10198396
149	0x3d68c0f7	0.05682465
150	0x3d0389df	0.032113906
151	0x3da37509	0.07981307
152	0xbd523fc3	-0.05133034
153	0x3c7d0a34	0.015444327
154	0xbd140929	-0.03614155
155	0xbc399796	-0.011327645
156	0x3d163d96	0.036679827
157	0x3cc44585	0.02395893
158	0x3c2fb501	0.010724307
159	0xbd7ddf82	-0.06198073
160	0xbd5a20cd	-0.053253938
161	0xbbb218c3	-0.0054350807
162	0x3bb6e11e	0.0055810353
163	0xbd5054c7	-0.0508621
164	0x3dd1dfc8	0.10247761
165	0x3cf084da	0.029360224
166	0xbd1d3138	-0.038377017
167	0x3d64b008	0.05583194
168	0x3d6ba474	0.05752988
169	0xbca65959	-0.020306276
170	0x3d82be03	0.06383898
171	0xbd033570	-0.032033384
172	0x3d4ace4c	0.049513146
173	0x3dcc8b54	0.09987512
174	0x3d9a98a2	0.07548644
175	0x3d7cd023	0.061721932
176	0x3b930b2c	0.004487416
177	0x3d10fe42	0.03539873
178	0x3d491df8	0.049100846
179	0x3d295b67	0.041346934
180	0xbb1f09c7	-0.0024267302
181	0x3cd7cd1e	0.026342925
182	0xbca11510	-0.019663364
183	0xbd072cbf	-0.033001658
184	0xbd7fc974	-0.06244798
185	0xbd5ceaad	-0.05393474
186	0xbd1b7908	-0.03795722
187	0x3dc105f4	0.094249636
188	0x3cfdc2a9	0.03097661
189	0xbd9d42c8	-0.07678753
190	0xbd475a5f	-0.04867017
191	0x3c95af8b	0.018272182
192	0xbca753e1	-0.020425739
193	0xbcd6260d	-0.02614119
194	0xbce7d57e	-0.028300043
195	0xbcd6c4ca	-0.026216883
196	0x3afc0a50	0.0019229148
197	0x3b8808f4	0.004151458
198	0x3d900cec	0.07033715
199	0x3d8c5821	0.06852747
200	0x3daeb261	0.08530117
201	0x3c8d51cb	0.017250916
202	0xbc942d1f	-0.018087922
203	0x3c9df5e3	0.019282287
204	0xbd18b85c	-0.037285194
205	0x3d538275	0.051638085
206	0x3be993b1	0.007128202
207	0xbbaf115d	-0.005342646
208	0xbd47716d	-0.048692156
209	0x3d80a098	0.06280631
210	0x3d8a4283	0.06750967
211	0x3dc756e1	0.09733368
212	0xbbe7f6f5	-0.007079
213	0x3d3c62ee	0.045992784
214	0x3cc905f9	0.02453898
215	0xbcfa416c	-0.030548774
216	0xbcff53b0	-0.031167835
217	0x3d84f1dd	0.06491444
218	0xbcdc15b7	-0.026865823
219	0x3da4df91	0.080504544
220	0x3d528810	0.05139929
221	0x3d4fdd60	0.05074823
222	0x3d938ea9	0.07204945
223	0x3d5f0cea	0.054455675
224	0x3d4b85ea	0.049688257
225	0x3d7c58fe	0.061608307
226	0xbc871579	-0.016489731
227	0xbcd04ddd	-0.025427753
228	0x3b3e69e2	0.002905481
229	0x3d84744f	0.064674966
230	0x3d9d37b3	0.076766394
231	0x3da2d7df	0.079513304
232	0xbbfcc710	-0.00771416
233	0x3c070dd7	0.008243046
234	0xbd24ece1	-0.040264968
235	0x3d8b459e	0.06800388
236	0xbd1bea17	-0.038065042
237	0xbc8ede95	-0.01744012
238	0x3dae7dc4	0.08520082
239	0x3d189531	0.037251655
240	0xbc95ad11	-0.018271001
241	0xbd21cbff	-0.039501186
242	0xbd253e46	-0.04034259
243	0x3db44fc1	0.08804274
244	0xbd5f38cc	-0.054497525
245	0x3dbf9563	0.09354665
246	0x3db3ee7b	0.08785721
247	0x3cdbaa9c	0.026814751
248	0x3c753cb7	0.014968089
249	0x3daed5fe	0.085369095
250	0x3d6c3b20	0.057673573
251	0x3dcd7b1d	0.100332476
252	0x3db6e574	0.089304835
253	0xbd03e975	-0.032205064
254	0x3d980588	0.0742293
255	0x3d82d3c3	0.063880466

bias f4 [16]
0	0x3d1a04da	0.037602283
1	0x3973aff8	0.0002323984
2	0x3d81e69d	0.06342814
3	0x3b0f8569	0.0021899587
4	0x3d3ac746	0.0456002
5	0x3da96dc0	0.08272886
6	0xbcc27c19	-0.023740815
7	0xbda34698	-0.07972449
8	0x3da138a6	0.07872133
9	0xbd31e80d	-0.04343419
10	0x3c9353eb	0.017984351
11	0x3d607410	0.054798186
12	0x3ab96c52	0.0014146662
13	0x3d898b2b	0.06715997
14	0x3d60c10d	0.054871608
15	0xbc54623e	-0.012962876

weight f4 [16, 16, 5, 5]
0	0x3cb05c80	0.021528482
1	0x3c3f128c	0.011662137
2	0x3d662457	0.056187
3	0x3d2c9f0c	0.042143866
4	0xbcb14451	-0.021639021
5	0x3c7027d3	0.014657932
6	0x3d2975d6	0.041372143
7	0x3d5b3eb3	0.05352659
8	0x3d053995	0.032525618
9	0x3d125cdb	0.035733085
10	0x3b7adda6	0.0038279085
11	0x3c856470	0.016283244
12	0xbcaa53dc	-0.02079194
13	0x3d699e5b	0.057035785
14	0x3d63372d	0.05547254
15	0xbc8e2432	-0.017351244
16	0xbcfcc150	-0.030853897
17	0x3d53ca00	0.051706314
18	0xbd05596d	-0.032555986
19	0x3d37dd9b	0.044889074
20	0xbd21a9fc	-0.03946875
21	0xbc478e52	-0.012179928
22	0xbc29990b	-0.01035143
23	0x3d78547e	0.060627453
24	0x3bb9560a	0.0056560086
25	0x3d76f0a6	0.060288094
26	0x3d0983ac	0.033572838
27	0x3d8c1bd3	0.068412445
28	0x3d5cf315	0.05394276
29	0x3d6e26f9	0.058142636
30	0x3d7a4a4f	0.061106022
31	0x3b876e5b	0.0041330284
32	0x3bcf70b0	0.006330572
33	0x3d18c16d	0.03729384
34	0x3d8683d7	0.06568115
35	0xbabdcc9f	-0.0014480538
36	0xbcaaffef	-0.020873992
37	0xbc9d014e	-0.019165661
38	0xbb1336d1	-0.0022463093
39	0x3cf47bb0	0.029844135
40	0x3c3993d0	0.011326745
41	0x3b979286	0.0046256213
42	0xbb8a10ff	-0.004213452
43	0x3d0a7e3e	0.0338118
44	0xbc9e25a5	-0.01930506
45	0x3d892020	0.066955805
46	0x3c27c936	0.0102408435
47	0x3ce7e3c5	0.028306851
48	0x3d16a40d	0.036777545
49	0x3aaa78a3	0.0013005923
50	0x3d5c71fe	0.05381965
51	0x3c7e5fe2	0.01552579
52	0x3cb22ad6	0.021748941
53	0xbceba492	-0.028764997
54	0x3cd37b2d	0.02581557
55	0x3d070a9d	0.032969106
56	0x3cb5c733	0.022189712
57	0x3c4558f5	0.012045135
58	0x3d65b304	0.056078926
59	0x3d7243a7	0.05914655
60	0x3d4b36b2	0.04961271
61	0x3bccc3e0	0.006248936
62	0x3cd283ac	0.025697552
63	0xbc8749cd	-0.016514683
64	0xbc8dea1a	-0.017323542
65	0x3bc1ff43	0.005920322
66	0x3ca12a4f	0.019673495
67	0xbc607a90	-0.013701096
68	0xbcc0759f	-0.023493586
69	0x3d2c94e2	0.042134173
70	0x3cfd7b69	0.030942636
71	0xbc9e58f4	-0.019329526
72	0x3d54e5d5	0.051976997
73	0xbc9193b4	-0.017770626
74	0x3d6fcec1	0.058546785
75	0x3d115f44	0.035491243
76	0xbb9cb72a	-0.004782577
77	0x3d7f5adc	0.06234251
78	0xbc3abc2c	-0.011397403
79	0xbb990bf4	-0.0046706144
80	0x3d4abba3	0.04949535
81	0xb9398ab2	-0.00017694643
82	0xbba1a18e	-0.004932589
83	0x3ccd3f49	0.02505459
84	0x3c2bb1e8	0.010479428
85	0x3d28d90a	0.04122261
86	0x3d5b426e	0.05353015
87	0x3d1a4283	0.037661087
88	0x3ce72a26	0.02821834
89	0x3d024b4f	0.0318101
90	0x3c3bd21b	0.011463667
91	0x3c96c2da	0.01840346
92	0x3c8180c7	0.015808476
93	0x3d50b1b5	0.050950725
94	0x3d3e9796	0.046531282
95	0x3bb68b0e	0.005570776
96	0x3d018537	0.031621184
97	0x3c8c79d0	0.017147928
98	0x3d0927fe	0.033485405
99	0x3d6fb7de	0.05852496
100	0xbd114031	-0.03546161
101	0x3bc39b82	0.0059694657
102	0xbc3910c3	-0.0112955
103	0xbd4b1d18	-0.049588293
104	0xbd47ec6e	-0.04880946
105	0xbbfb0c53	-0.0076613813
106	0x3d0fa07c	0.03506516
107	0xbd08c623	-0.033392083
108	0x3c84e414	0.016222037
109	0x3ceee430	0.029161543
110	0xbd1860a3	-0.037201535
111	0x3cad0d35	0.021124462
112	0x3c1802b2	0.009277986
113	0xbd3a019d	-0.045411695
114	0xb9c57643	-0.0003766288
115	0xbd432379	-0.04764125
116	0x3d323892	0.04351098
117	0x3cc09642	0.023509149
118	0x3c9ff32f	0.019525139
119	0x3d1fce22	0.039014943
120	0x3d1a23d0	0.03763181
121	0x3d4ac776	0.049506627
122	0x3ca8d0d4	0.02060739
123	0xbd13bd58	-0.036069244
124	0x3d3fd948	0.046838075
125	0x3af4b652	0.0018670058
126	0xbd0ce688	-0.03439954
127	0xbd0b81bb	-0.034059267
128	0x3d053a97	0.03252658
129	0xbac219ca	-0.0014808711
130	0x3d394077	0.045227494
131	0x3c13da0a	0.0090241525
132	0x3d4223be	0.047397368
133	0xbd323317	-0.043505754
134	0x3a5c112c	0.0008394893
135	0x3c918a08	0.017766014
136	0x3bfd0232	0.007721209
137	0x3d3b04fb	0.045659047
138	0x39b1222c	0.0003378553
139	0xbb9d1f41	-0.0047949855
140	0x3d260a25	0.04053702
141	0x3b81c71c	0.0039605033
142	0xbb8a7acb	-0.004226064
143	0xbd4957ed	-0.04915612
144	0xbbfb227a	-0.007664022
145	0xbc8361c9	-0.016037839
146	0x3d0e9d7d	0.03481816
147	0x3d31c827	0.04340377
148	0xbd579edc	-0.052641734
149	0xbd16c04c	-0.036804482
150	0x3d513b5c	0.051082
151	0xbc90f287	-0.017693771
152	0x3d47c01f	0.048767205
153	0x3d5e2082	0.05423022
154	0xbbf15147	-0.0073644253
155	0xbd183822	-0.037162907
156	0x3cee84f7	0.029116137
157	0x3cdfe4e3	0.027330821
158	0x3d47ee34	0.048811153
159	0x3c53ad98	0.012919806
160	0x3cfad8be	0.030620929
161	0xbd1e8edd	-0.038710464
162	0x3c41759d	0.011807826
163	0x3c8ff75f	0.01757401
164	0x3d1a0144	0.037598863
165	0xbcbe8874	-0.023258425
166	0xbaeec047	-0.0018215262
167	0xbccbdd66	-0.024885844
168	0xbce5d08a	-0.02805354
169	0x3cdc1d52	0.02686945
170	0x3c36bb29	0.011153021
171	0x3cc3fac1	0.02392328
172	0x3b63facb	0.0034786935
173	0x3b7aa5cf	0.0038245802
174	0x3b5fc47b	0.003414421
175	0x3cb891f7	0.022530539
176	0xbd1f7028	-0.03892532
177	0x3bd44f3b	0.0064791716
178	0x3cbe216a	0.023209292
179	0x3ccd281a	0.025043536
180	0xbce8fdfb	-0.02844142
181	0x3d0d1b33	0.034449767
182	0xbd1a06a3	-0.037603986
183	0x3cb36a8c	0.021901391
184	0x3d17c603	0.037054073
185	0xbb2dcaab	-0.0026518505
186	0x3c37db59	0.01122173
187	0xbd53124e	-0.05153113
188	0xbcc4850d	-0.023989225
189	0xbcc00a4b	-0.023442408
190	0xbd50dbe1	-0.050990943
191	0xbc72234a	-0.014778921
192	0x3cfb8694	0.03070382
193	0xbc132f99	-0.008983516
194	0x3d3b93f2	0.04579539
195	0xbd4aa450	-0.049473107
196	0x3c80f85e	0.01574343
197	0x3d204de6	0.03913679
198	0x3d35de54	0.04440148
199	0xbcbd10ea	-0.023079354
200	0xbd417721	-0.04723275
201	0xbca50bbc	-0.020147197
202	0x3d10ede6	0.035383128
203	0x3b38e9d3	0.0028215542
204	0x3d3e46e1	0.046454314
205	0xbd1cf6df	-0.038321372
206	0xbd068061	-0.032837275
207	0x3cc55ff6	0.02409361
208	0x3c82c549	0.015963214
209	0xbd08dc38	-0.033413142
210	0x3d387bbf	0.04503989
211	0xbca81cd9	-0.020521568
212	0xbd2ea739	-0.042639945
213	0x3c563e3d	0.013076362
214	0xbce9be92	-0.028533254
215	0xbccd499c	-0.025059514
216	0xbcecdb3e	-0.028913137
217	0x3c52bf42	0.012862982
218	0x3cbc16b7	0.02296005
219	0x3d0911cd	0.03346424
220	0xbcefd1ee	-0.029274907
221	0xbc4bb0bc	-0.0124322735
222	0x3d3d152c	0.04616277
223	0xbcd52c42	-0.02602208
224	0xbc9493f2	-0.018136952
225	0xbbfabc9a	-0.0076518776
226	0xbd28d47a	-0.04121826
227	0xbd00c12e	-0.03143423
228	0x3d52c102	0.051453598
229	0x3c90cca8	0.017675713
230	0x3c3fc663	0.011705014
231	0x3cc7c085	0.024383793
232	0x3d13cabb	0.03608201
233	0x3d26be9c	0.040709123
234	0x3d364941	0.044503454
235	0x3cbb045f	0.022829233
236	0x3d2cdcf3	0.0422029
237	0x3d1dab13	0.038493227
238	0xbace512a	-0.0015740742
239	0x3c505a86	0.012716895
240	0xbcc05263	-0.023476785
241	0xbd1859b6	-0.03719493
242	0x3d567579	0.052358124
243	0xbcfdb6c5	-0.03097094
244	0xbcc4b4d4	-0.024012007
245	0xbd434593	-0.047673773
246	0xbd193277	-0.037401643
247	0x3c83a9b9	0.016072141
248	0x3cf075f1	0.029353114
249	0xbd10f9bb	-0.03539441
250	0x3a270735	0.00063716184
251	0xbd282c9b	-0.041058164
252	0x3bd591d1	0.006517627
253	0x3ceaa111	0.028641256
254	0xbc9bcfb7	-0.019019945
255	0xbcd6d3ed	-0.026224101

bias f4 [16]
0	0xbce71e23	-0.028212612
1	0xbd0caf38	-0.03434679
2	0xbcb319b2	-0.021862838
3	0xbd082b92	-0.033244677
4	0x3d36809e	0.044556253
5	0x3cd60bb6	0.026128631
6	0x3d472163	0.048615824
7	0xbd0fd5c7	-0.035115983
8	0xbd1d744b	-0.038440984
9	0x3ce5fb94	0.028074063
10	0xbc936b3e	-0.017995473
11	0xbc26f20c	-0.010189544
12	0xbcc7cb6f	-0.024388997
13	0xbd18f185	-0.037339706
14	0xbcc4e795	-0.024036208
15	0xbce7d541	-0.02829993

weight f4 [16, 16, 7, 7]
0	0x3c846f9f	0.016166506
1	0xbb43d0c5	-0.0029879075
2	0x3cbebe94	0.023284234
3	0x3d005d58	0.03133902
4	0x3cd25dac	0.025679432
5	0xbcd0c09c	-0.025482468
6	0x3cd244e8	0.025667623
7	0x3c97e3d1	0.018541249
8	0xbc935b0c	-0.01798775
9	0xbc0d654b	-0.008630107
10	0x3c50691f	0.012720375
11	0xba2d71d0	-0.00066163857
12	0xbc8a564a	-0.016886849
13	0xb78161b0	-1.5423488e-05
14	0xbc40f863	-0.01177797
15	0x3ca3c93e	0.01999342
16	0x3c6e5369	0.014546254
17	0x3cbe816b	0.02325507
18	0x3af0135c	0.0018316316
19	0xbcdc8f78	-0.02692388
20	0x3d2b55a4	0.04182972
21	0xba058ecf	-0.00050948275
22	0x3c5c69d4	0.013452966
23	0xbcad74be	-0.021173831
24	0xba2df273	-0.0006635554
25	0x3c56b3ed	0.013104421
26	0xbc157e3b	-0.009124334
27	0xbc52cf80	-0.012866855
28	0x3c114ccb	0.0088684065
29	0x3ce02d09	0.027365224
30	0x3ce186c4	0.027530082
31	0x3c5f0864	0.01361284
32	0x3bd149f0	0.006386988
33	0x3cab0bde	0.020879682
34	0xbba5961b	-0.0050532944
35	0x3cdfc798	0.027316853
36	0x3c965769	0.018352227
37	0xbd113ea2	-0.035460122
38	0x3d0c7e15	0.03429993
39	0x3b9ab807	0.004721645
40	0xbcbd0239	-0.023072349
41	0xbc12e5d2	-0.008965926
42	0x3d0e2d40	0.034711123
43	0xbcf7bdf7	-0.03024195
44	0x3c145aa7	0.009054816
45	0xbc3261c9	-0.010887572
46	0xbcde4ad0	-0.027135283
47	0x3c8741ef	0.016510932
48	0x3cc66381	0.024217369
49	0x3d0878a4	0.033318177
50	0xbcfcb42b	-0.03084763
51	0x3c852fe2	0.016258184
52	0x3cce9a1e	0.025219973
53	0xb91b2a10	-0.00014797621
54	0x3ced82b3	0.028992986
55	0x3d0f0688	0.034918338
56	0xbcfa3d32	-0.030546758
57	0x3c86cc2a	0.016454775
58	0x3bfa4f92	0.00763888
59	0x3b8cfc58	0.0043025427
60	0x3ce2d450	0.02768913
61	0x3b845a38	0.004039075
62	0xbc254933	-0.010088253
63	0x3ced405d	0.028961355
64	0x3c9f2593	0.019427096
65	0x3c8a8b89	0.016912239
66	0xbc1208de	-0.008913247
67	0xbce58415	-0.028017083
68	0xbb115136	-0.002217365
69	0xbb3667bc	-0.0027832827
70	0xbc0c4ed6	-0.008563718
71	0xbc9db363	-0.019250577
72	0x3cd1099b	0.025517276
73	0xbba5312c	-0.005041262
74	0xbd073fcf	-0.033019837
75	0xbca2ceae	-0.019873943
76	0xbcffb1b6	-0.031212669
77	0x3c99baf4	0.018765904
78	0xbb9655f2	-0.004587882
79	0xbc9234fc	-0.01784753
80	0xbcd6049e	-0.026125249
81	0x3ca14a7b	0.019688835
82	0xbce3842a	-0.027772982
83	0xbce92505	-0.028460035
84	0xbb76c1d4	-0.0037652152
85	0x3caed581	0.021342041
86	0xbce0c71a	-0.027438689
87	0xbcb1c1e2	-0.021698896
88	0x3c6043e2	0.0136880595
89	0xbd028163	-0.031861674
90	0x3cdf300a	0.027244586
91	0x3c9cc109	0.019135015
92	0x3c940a26	0.018071245
93	0x3d01ea65	0.031717677
94	0x3d061ccb	0.032742303
95	0xbc6a2e89	-0.014293321
96	0x3cbc4f3f	0.022987006
97	0x3cb9afe0	0.022666872
98	0x3cb0bb87	0.021573795
99	0x3a959d74	0.0011414723
100	0xbbc2ca52	-0.0059445286
101	0xbbf5f16c	-0.0075055864
102	0x3cb131f7	0.02163027
103	0x3c77b634	0.015119124
104	0x3c76cd64	0.015063617
105	0x3d071761	0.03298128
106	0xbc95cf10	-0.018287212
107	0x3c8ecf23	0.017432755
108	0x3c999654	0.01874844
109	0x3c72e08f	0.014824047
110	0x3d16556d	0.036702562
111	0x3d139d7c	0.03603886
112	0xbc998c8a	-0.018743772
113	0x3c82b099	0.015953349
114	0xbc305f70	-0.010764942
115	0xbbb6dc41	-0.0055804555
116	0xbc5378bb	-0.012907202
117	0x3cdc4481	0.026888134
118	0x3c3d19a9	0.011541762
119	0xbc92c289	-0.017915027
120	0x3a837f20	0.0010032393
121	0x3c118dbf	0.008883893
122	0x3cb7c9c2	0.022435073
123	0x3d25c283	0.040468704
124	0xbbf01bae	-0.0073275184
125	0x3c61eb89	0.013789066
126	0x3d0da019	0.03457651
127	0x3cd7de5c	0.026351146
128	0x3ccef23c	0.02526199
129	0x3a4f1bde	0.0007900576
130	0x3c8b81c0	0.017029643
131	0x3c7b4d5c	0.015338268
132	0x3c799c11	0.015234963
133	0x3ce1b8dc	0.027553968
134	0xbb1b4024	-0.0023689354
135	0x3b78bdfc	0.0037955036
136	0x3d0915e0	0.033468127
137	0x3cadf1da	0.021233488
138	0xbc93c917	-0.018040223
139	0x3c050bf1	0.008120523
140	0x3cf198ab	0.029491743
141	0x3cf41ab0	0.029797882
142	0x3d15797d	0.036492813
143	0xbbc9f64a	-0.006163393
144	0xbc34a498	-0.01102557
145	0x3cc9197f	0.02454829
146	0x3d1e5e31	0.038664047
147	0x3ce372cb	0.027764698
148	0x3c48ccc6	0.012255853
149	0x3ca334cd	0.019922638
150	0xbcc999d0	-0.024609476
151	0x3c22ce22	0.009936841
152	0xba7ea553	-0.0009713966
153	0x3b4a8ab1	0.003090542
154	0x3c810b6a	0.015752513
155	0xbce53480	-0.027979136
156	0x3b2d2691	0.0026420692
157	0xbc4510fe	-0.012027977
158	0x3ca202d8	0.019776747
159	0xbcea2c12	-0.028585467
160	0xbc80402f	-0.015655605
161	0xbcda6f31	-0.026664348
162	0x3cd198c5	0.025585542
163	0x3cb0c600	0.021578789
164	0x3cf87dac	0.030333363
165	0x3d18fa83	0.03734828
166	0x3c6c120c	0.0144086
167	0x3c0f72c1	0.008755387
168	0x3c195f96	0.009361168
169	0x3ba9178e	0.0051602786
170	0x3b89eb69	0.0042089713
171	0xbcd2b96b	-0.02572318
172	0x3cf590d1	0.02997628
173	0xbca703eb	-0.02038761
174	0x3ceeb9e3	0.029141372
175	0x3c84f08b	0.016227981
176	0x3c15b7fd	0.0091381045
177	0x3c61a696	0.013772627
178	0x3c186766	0.009301996
179	0xbc75e0ba	-0.015007192
180	0xbc7ca360	-0.015419811
181	0xbc6bc817	-0.014390967
182	0xbcaf729c	-0.021416955
183	0x3c858b76	0.016301852
184	0x3b4d6612	0.0031341356
185	0x3a625316	0.00086335966
186	0x3c3e1f15	0.01160409
187	0x3d131f33	0.035918426
188	0x3974b3a8	0.0002333658
189	0xbc8bfaef	-0.017087428
190	0xbcd5a589	-0.02607991
191	0x3cf23759	0.029567407
192	0xbcff95d0	-0.031199366
193	0x3c959581	0.018259766
194	0x3d05dfb8	0.032684058
195	0x3ca8a1bc	0.020584933
196	0xb9bae1cd	-0.0003564492
197	0xbb996e76	-0.0046823574
198	0x3cbd8da9	0.023138838
199	0xbc8ddb21	-0.017316403
200	0x3c8330b3	0.016014433
201	0xbbc205f7	-0.005921121
202	0x3cced92a	0.025250036
203	0xbbfeab88	-0.007771913
204	0xbcc19055	-0.023628393
205	0xbc53a92e	-0.012918754
206	0x3cbb8c04	0.022893913
207	0x3c87c850	0.016575009
208	0xbca2e53e	-0.019884702
209	0xbc872001	-0.016494753
210	0xbbe79c40	-0.007068187
211	0xbb492cfb	-0.0030696976
212	0xbc19dbd7	-0.009390793
213	0x3cd30259	0.025757955
214	0x3bbc283a	0.0057421
215	0xbb8aa3c4	-0.004230948
216	0x3b9d4608	0.004799608
217	0x3c8ab021	0.016929688
218	0xbcc6d4b3	-0.024271345
219	0xbd0bcb18	-0.034129232
220	0xbcdba4a0	-0.026811898
221	0x3c9c9331	0.019113155
222	0x3c15b7a5	0.009138023
223	0xbccf5ed2	-0.025313769
224	0x3cf9e00f	0.030502347
225	0x3ca8b45a	0.02059381
226	0xbd028079	-0.031860802
227	0x3cc4e0d5	0.02403299
228	0x3b07f7ce	0.0020747068
229	0x3c0008c2	0.007814588
230	0x3d1021e8	0.035188586
231	0x3cf074b4	0.029352523
232	0x3c1e41e3	0.009659263
233	0xbc7c2d7d	-0.015391705
234	0x3ced0aaf	0.028935758
235	0x3d0565b9	0.032567713
236	0xbabd1458	-0.0014425619
237	0xbcc3d726	-0.023906302
238	0x3d1134ea	0.035450853
239	0xbc5d4ffc	-0.013507839
240	0xbca15a42	-0.019696359
241	0xbd03cfb6	-0.03218051
242	0x3c8593a0	0.016305745
243	0x3c849283	0.016183143
244	0xbc4dd771	-0.012563572
245	0xbcf326e4	-0.02968163
246	0x3cf5b3e0	0.029992998
247	0x3bffcea8	0.0078066178
248	0x3d115541	0.035481695
249	0x3b4cfb86	0.003127785
250	0x3d2f780e	0.042839102
251	0x3bd9ce16	0.006646882
252	0xbc54038a	-0.012940297
253	0x3cc755aa	0.02433284
254	0x3c538ac1	0.0129114995
255	0x3d1b2810	0.037880003

bias f4 [16]
0	0xbbc53ad0	-0.006018974
1	0x3cb809a2	0.02246553
2	0x3cae64ad	0.02128824
3	0xbbcbc85b	-0.0062189526
4	0x3c596c80	0.013270497
5	0x3bc7230d	0.0060771764
6	0x3c12dc5c	0.008963671
7	0xbc841f74	-0.01612828
8	0x3befeb52	0.0073217535
9	0x3d0f35e2	0.034963496
10	0xbcd4286f	-0.025898186
11	0x3d1d5a90	0.038416445
12	0xbc5e729c	-0.01357713
13	0x3c91560d	0.017741228
14	0x3c823601	0.015894892
15	0xbbb58ef7	-0.0055407244

weight f4 [16, 16, 7, 7]
0	0x3d04eaf2	0.032450624
1	0x3cac5ab9	0.021039354
2	0xbc2b0ab2	-0.010439562
3	0xbccc81cb	-0.024964234
4	0xbc9a899c	-0.018864445
5	0x3c566e11	0.013087765
6	0x3cb4afa5	0.02205641
7	0x3c039650	0.008031443
8	0x3b21e697	0.0024704093
9	0xbd014e8a	-0.03156904
10	0xbd109e6c	-0.035307333
11	0xbc5ab2e2	-0.013348313
12	0xbcd4ef0b	-0.02599289
13	0x3d092b80	0.03348875
14	0xbb99cfb6	-0.0046939505
15	0xbc9262ca	-0.017869372
16	0xba04cf54	-0.00050662947
17	0x3ae19d0e	0.0017212944
18	0x3c6a7f17	0.014312527
19	0x3a9c13f2	0.00119078
20	0x3caa4058	0.020782635
21	0x3c4f5405	0.012654309
22	0x3ce65467	0.028116418
23	0x3b88075c	0.004151268
24	0x3bd9f9ed	0.006652108
25	0xbb9caa3e	-0.0047810366
26	0x3c52d7ca	0.012868831
27	0x3b4265a8	0.0029662643
28	0xbc563c5e	-0.013075916
29	0xbcc08aad	-0.023503626
30	0x3c72eab1	0.014826463
31	0xbb8a6824	-0.0042238403
32	0x3cea3b8b	0.028592845
33	0x3c8ea642	0.017413262
34	0x3d0d0bbb	0.034435015
35	0x3b0da668	0.0021614078
36	0x3cad1bcb	0.021131417
37	0xba644efd	-0.000870928
38	0x3a92710a	0.0011172604
39	0x3b98cb88	0.0046629347
40	0xbcc4e02e	-0.024032678
41	0x3d17045e	0.0368694
42	0x3cd07fc8	0.025451556
43	0xbb9dcd31	-0.0048157205
44	0xbceeec60	-0.029165447
45	0xbcc285ae	-0.023745384
46	0xbbc973e4	-0.0061478484
47	0x3c042cd2	0.008067327
48	0x3cc1e73c	0.023669831
49	0x3d44c220	0.048036695
50	0x3ce01ec3	0.027358418
51	0xbbb1032b	-0.005401989
52	0xbc1b80ea	-0.009491185
53	0x3cdea331	0.027177425
54	0x3b0a9708	0.002114715
55	0x3c7e794c	0.015531849
56	0x3b877137	0.0041333693
57	0x3cd5a9ce	0.026081946
58	0x3c419eb1	0.01181762
59	0x3c11e7e9	0.008905389
60	0x3bf118cb	0.007357692
61	0xbbd26c44	-0.0064215977
62	0x3c87dd44	0.016585
63	0xbcb467ae	-0.022022095
64	0xbce947ae	-0.028476562
65	0x3b8a292b	0.0042163334
66	0x3a680025	0.0008850119
67	0xbcf53e59	-0.029936956
68	0x3c2d1aec	0.010565501
69	0x3c9d70bd	0.019218797
70	0x3cac0c05	0.021001825
71	0xbcbb4af9	-0.022862898
72	0xbcd87ca9	-0.02642663
73	0xbc05d2af	-0.008167907
74	0xbc188155	-0.009308179
75	0xbbaa240d	-0.005192286
76	0xbcbd72d1	-0.023126038
77	0x3cd7d443	0.026346331
78	0x3cee57ea	0.029094655
79	0xbcb885ce	-0.02252474
80	0x3c9d6f98	0.019218251
81	0x3a90d15e	0.0011048724
82	0x3b801ecf	0.0039099227
83	0xbad42c72	-0.0016187562
84	0x3d07db2a	0.033167996
85	0xbc695c3e	-0.014243184
86	0x3a19a51f	0.0005861092
87	0xbbfad149	-0.0076543433
88	0xbb0f9f4b	-0.0021915014
89	0xbcbc12d0	-0.02295819
90	0xbcb4f6d1	-0.022090347
91	0x3ce2676d	0.027637208
92	0xbd1663c2	-0.03671623
93	0xbcf70cca	-0.030157465
94	0x3cf164ca	0.029467005
95	0xbca871ac	-0.020562015
96	0xbbc1136b	-0.0058922074
97	0xbcddf7bf	-0.027095674
98	0xbc1ff3bc	-0.009762701
99	0xbc8f45ef	-0.017489402
100	0x3c36c502	0.011155369
101	0x3c8e21b9	0.017350065
102	0x3d155ebc	0.0364673
103	0x3aaf3c58	0.0013369424
104	0x3d6087e4	0.054817095
105	0x3c30ed60	0.010798782
106	0xbd0882a7	-0.033327725
107	0xbd13aaa3	-0.036051404
108	0xbc19da7b	-0.009390469
109	0x3cf2a747	0.02962078
110	0x3b98be04	0.0046613235
111	0xbba75b42	-0.0051073143
112	0x3c881745	0.016612658
113	0xbd286d6e	-0.041119985
114	0x3ca575de	0.020197805
115	0xbbd9ab0a	-0.006642704
116	0xbb0418b0	-0.0020156316
117	0xbc46a73d	-0.012124834
118	0x3c9233fd	0.017847056
119	0xbb18a68f	-0.0023292636
120	0x3cb2cb1e	0.02182537
121	0x3cc498c9	0.023998635
122	0x3c0ca695	0.008584638
123	0xbc1a5681	-0.009420038
124	0xba57f0b8	-0.0008237469
125	0xbc4521ef	-0.012032016
126	0x3c95a86d	0.018268788
127	0xbc678fe0	-0.014133424
128	0xbd2a7334	-0.041613773
129	0xbc938828	-0.01800926
130	0xbcee6b2f	-0.029103843
131	0xbce4446c	-0.027864657
132	0x3c999cfe	0.018751618
133	0x3b213a06	0.0024601235
134	0xbcd26648	-0.025683537
135	0xbcf9be26	-0.030486178
136	0x3beae069	0.007167865
137	0x3bd07614	0.0063617323
138	0x3cf03269	0.029320912
139	0x3d134ddb	0.03596292
140	0xbc604f08	-0.0136907175
141	0x3ca18eb8	0.019721374
142	0xbd057ae7	-0.032587912
143	0xbce48f56	-0.02790038
144	0x3cb56b49	0.022145884
145	0x3d436f66	0.04771366
146	0x3d272aaa	0.040812172
147	0x3bc2ff9f	0.0059508826
148	0xbc8315c8	-0.016001597
149	0x3d05038e	0.032474093
150	0xbcdaf91e	-0.026730116
151	0x3cfc1335	0.030770877
152	0xbc8e801f	-0.017395077
153	0xbc993f93	-0.018707072
154	0x3b51c968	0.0032010917
155	0x3bfebf4f	0.0077742706
156	0xbd0e13c0	-0.034686804
157	0xbc8c4023	-0.017120427
158	0xbbce76bf	-0.0063007767
159	0xbb7649ea	-0.0037580677
160	0xbc4842c9	-0.012222954
161	0x3cf0c47d	0.029390568
162	0xbd0bdc5b	-0.034145694
163	0x3c41d80e	0.011831297
164	0xba61f103	-0.00086189824
165	0xbcafe30e	-0.021470573
166	0x3c37accb	0.011210631
167	0xbcec767b	-0.02886509
168	0xbcee7271	-0.029107304
169	0x3c2ce0fd	0.010551688
170	0xbcedc28f	-0.029023437
171	0x3c1ba32d	0.009499353
172	0xbd25fb24	-0.04052271
173	0x3b3af96c	0.0028530015
174	0xbcedd9eb	-0.029034575
175	0x3c79a388	0.015236743
176	0x3cd622bc	0.02613961
177	0x3c2f9cea	0.010718564
178	0xbaceaf9f	-0.0015768892
179	0x3c9f6916	0.019459289
180	0x3d001a84	0.031275287
181	0x3ced4fdd	0.028968746
182	0x3cbfb633	0.023402309
183	0x3c3a17df	0.01135823
184	0x3b37783c	0.002799525
185	0x3c927554	0.017878212
186	0x3cedf769	0.029048638
187	0xbb863b28	-0.0040964074
188	0x3cc00f82	0.023444895
189	0x3d189257	0.037248936
190	0xbc90afe6	-0.017662
191	0xbcb28f55	-0.021796862
192	0xbbabf94d	-0.005248225
193	0x3c6b645f	0.014367192
194	0x3d27cc26	0.040966175
195	0x3d2ca1fe	0.042146675
196	0x3d117d78	0.035520047
197	0x3abdbe38	0.0014476245
198	0xbc023e79	-0.007949465
199	0xbd058d06	-0.032605194
200	0x3baee647	0.00533751
201	0x3b43c244	0.002987043
202	0xbba4bca0	-0.0050273687
203	0x3cdc4ea2	0.026892964
204	0x3cb00c76	0.021490317
205	0x3b67c43a	0.0035364763
206	0xbcfa43bd	-0.030549878
207	0xbc26f49e	-0.010190157
208	0xbcd67a45	-0.02618135
209	0x3c20708d	0.009792459
210	0x3ca30c3a	0.019903291
211	0x3cb99b2d	0.022657001
212	0xbd2742f8	-0.04083535
213	0xbc951e3f	-0.018202899
214	0xbcc85672	-0.024455283
215	0x3cd3a2ad	0.025834406
216	0x3d34e318	0.044161886
217	0xbd0054e9	-0.031330977
218	0xbcc84364	-0.024446197
219	0xbc733740	-0.014844716
220	0xbd3c2b10	-0.045939505
221	0xbd31d22c	-0.043413326
222	0xbcc30aa3	-0.023808783
223	0x3d0de3a1	0.034640912
224	0x3c04d3ac	0.008107107
225	0xbccca70f	-0.024982003
226	0xbc9b72dc	-0.018975668
227	0x3ca1b63e	0.01974022
228	0xbd31943c	-0.043354258
229	0x3c3e1ad6	0.011603078
230	0x3be95e2a	0.007121821
231	0xbcf4c50a	-0.029879112
232	0x3cb641e5	0.022248218
233	0xbd01bb29	-0.03167263
234	0x3c7b6c15	0.015345593
235	0xbbb498de	-0.0055113873
236	0x3bf82a57	0.0075734067
237	0x3b9de5bc	0.0048186462
238	0xbc7cc907	-0.015428788
239	0x3ca65ef1	0.020308943
240	0xbc701aad	-0.0146547975
241	0x3bec0a9f	0.0072034146
242	0x3cf258bd	0.02958333
243	0xbc0010cb	-0.007816504
244	0x3c86e6e5	0.016467521
245	0x3cbb6af2	0.022878144
246	0xbb971a99	-0.004611325
247	0x3c9f63af	0.019456713
248	0xbca6f0b6	-0.020378452
249	0x3cd3dfb4	0.025863506
250	0xbb8129e8	-0.003941763
251	0x3c72a2a4	0.014809284
252	0xbbf24ad2	-0.007394173
253	0x3b997394	0.0046829674
254	0x3cb9c605	0.02267743
255	0x3b61134e	0.0034343782

bias f4 [16]
0	0x3c987f55	0.018615404
1	0x3d071f07	0.032988574
2	0x3d0f5b3e	0.034999125
3	0xbc4d3e76	-0.012527099
4	0xbc50830e	-0.012726558
5	0xbc6c6f48	-0.014430828
6	0xbc53a543	-0.012917819
7	0x3d0b2bcd	0.03397732
8	0xbb17379d	-0.002307392
9	0xbc3f771b	-0.011686112
10	0xbb79d7b3	-0.0038122952
11	0x3cd09318	0.025460765
12	0x3d454a47	0.04816654
13	0x3cea3e1d	0.028594071
14	0xbc8cd0a7	-0.017189337
15	0xbc83a4ae	-0.016069736

weight f4 [16, 16, 5, 5]
0	0x3cdcd254	0.026955761
1	0x3c984c9c	0.018591218
2	0x3d75bd47	0.059994962
3	0x3adc5c9f	0.0016812271
4	0xbc43244f	-0.011910512
5	0xbb51c03e	-0.0032005454
6	0x3d2fd293	0.04292543
7	0xbd12bbf4	-0.035823777
8	0x3c946789	0.018115776
9	0x3d3a7757	0.045523968
10	0x3b004485	0.001957209
11	0x3c0bfbc2	0.00854391
12	0x3cd6f615	0.026240388
13	0x3d323e71	0.04351658
14	0xbc21d319	-0.00987699
15	0x3d64eddb	0.0558909
16	0xbc879eca	-0.016555209
17	0xbbd07e32	-0.0063627
18	0x3d4bc82e	0.049751453
19	0xbcede317	-0.029038949
20	0x3855e3f6	5.0995463e-05
21	0x3cf0925d	0.029366666
22	0xbd0a7c06	-0.033809684
23	0x3d558bc9	0.052135263
24	0x3ce8cef5	0.028418997
25	0xbc77c5ba	-0.015122825
26	0x3d5d101f	0.053970452
27	0x3ccd4270	0.025056094
28	0x3b010f44	0.0019692937
29	0x3d900090	0.07031357
30	0xbcca4bc0	-0.024694324
31	0x3cd5cd32	0.026098821
32	0xbd305c88	-0.043056995
33	0x3cb0d917	0.021587892
34	0x3d0a0ee8	0.033705622
35	0xbc594006	-0.013259893
36	0x3cfba96d	0.030720437
37	0x3d3334b7	0.043751445
38	0xbce624da	-0.028093744
39	0xbc9bd46f	-0.019022195
40	0xbd0b57c1	-0.034019236
41	0x3c0307da	0.007997477
42	0x3cfff930	0.031246752
43	0xbcac8dd1	-0.021063717
44	0x3d483cea	0.048886217
45	0xbcd872a1	-0.026421847
46	0x3d0edf9f	0.03488123
47	0x3d0a9e89	0.033842597
48	0xbd3470f4	-0.044053033
49	0xbcdab0ae	-0.026695576
50	0x3d05920a	0.032609977
51	0xbc8e9225	-0.017403672
52	0x3cffac4e	0.031210091
53	0xbd27c0cb	-0.040955346
54	0xbc55f24c	-0.013058256
55	0x3d1f61eb	0.03891174
56	0x3bacaf68	0.0052699335
57	0x3ce45722	0.02787358
58	0xbd740ae8	-0.059580714
59	0xbcc2a526	-0.02376039
60	0xbcdb4dbe	-0.026770469
61	0x3ca6f362	0.020379726
62	0x3bf994a4	0.0076165963
63	0xbd2f0b30	-0.04273528
64	0xbbfa39e1	-0.0076362942
65	0xbc0f2d2b	-0.008738796
66	0xbd568112	-0.052369185
67	0x3c7eed6f	0.015559538
68	0x3d12f838	0.03588125
69	0xbd35e20d	-0.044405032
70	0x3d118d09	0.035534892
71	0x3d437f8a	0.047729053
72	0x3c71dccf	0.0147621175
73	0x3cdcda28	0.026959494
74	0xbc8840fe	-0.016632553
75	0x3d0fdb21	0.035121087
76	0x3d7024c9	0.05862883
77	0xbcc6fc93	-0.024290359
78	0xbc0ac4e0	-0.00846979
79	0x3c884de5	0.016638706
80	0x3d17fd79	0.037106965
81	0xbc9fef6f	-0.01952335
82	0x3d47257b	0.04861973
83	0x3cb957de	0.022624906
84	0xbcf60477	-0.030031426
85	0xbcc0b8bb	-0.023525586
86	0x3cdecda6	0.02719767
87	0x3cfc057f	0.03076434
88	0xbc8d596a	-0.01725455
89	0x3c9bb365	0.01900644
90	0x3caf0d4d	0.021368647
91	0x3d4ad59a	0.049520113
92	0xbce00d52	-0.027350102
93	0xbce0d395	-0.02744464
94	0x3d2290df	0.03968894
95	0x3d03f263	0.03221358
96	0x3c9f25f9	0.019427286
97	0xbcc9473e	-0.024570104
98	0xbd0b75b7	-0.03404781
99	0xbd068bd0	-0.03284818
100	0x3d321772	0.04347939
101	0x3cd81ee2	0.026381914
102	0x3c6e1603	0.014531615
103	0xbc8bb251	-0.017052801
104	0x3d141a20	0.036157727
105	0xbc89350c	-0.016748928
106	0xbc5dfcb1	-0.013549016
107	0xbcbbab8d	-0.02290895
108	0xbcf00b04	-0.029302128
109	0x3c3dcbeb	0.011584262
110	0xbd31ed1e	-0.043439023
111	0xbb85b792	-0.004080721
112	0x3b53a387	0.0032293515
113	0x3b5dbd9e	0.0033834944
114	0xbba7165b	-0.0050991005
115	0x3d15d192	0.036576815
116	0x3c9b3571	0.018946381
117	0xbce6b8f2	-0.02816436
118	0x3c36ac01	0.011149407
119	0xbb40eed1	-0.002943922
120	0xbccc5925	-0.024944851
121	0x3d349ae2	0.04409302
122	0xbc89f55a	-0.016840626
123	0xbbf25315	-0.007395158
124	0xbc5c984e	-0.013464047
125	0xbcbe1eeb	-0.023208102
126	0x3d3e9491	0.046528403
127	0x3d0980b2	0.03357
128	0x3d2ea727	0.042639878
129	0x3ce6a491	0.028154643
130	0xbc0a4dbc	-0.008441385
131	0x3d40ed26	0.047101162
132	0x3b19ff53	0.0023498132
133	0xbc8cb3b3	-0.017175531
134	0xbc10b1d2	-0.008831458
135	0x3c15c526	0.009141242
136	0x3cbb8617	0.022891087
137	0x3ccd550f	0.025064973
138	0xbca2de05	-0.019881258
139	0x3d51ffa8	0.051269203
140	0xbc96dcba	-0.018415798
141	0xbd213b58	-0.039363235
142	0x3d0963c8	0.033542424
143	0xbca1f34c	-0.019769333
144	0xbcb5057b	-0.02209734
145	0x3c8bc43d	0.017061347
146	0x3aab1a29	0.0013054061
147	0x3c2920a5	0.0103227245
148	0x3c1ffef6	0.009765377
149	0xbccfdcbf	-0.025373815
150	0x3ce2e3af	0.027696459
151	0xbaf58120	-0.0018730499
152	0xbd06fc8c	-0.03295569
153	0x3cad20ea	0.021133859
154	0xbd1bac59	-0.03800616
155	0x3d36da92	0.04464204
156	0x3cd99a47	0.026562823
157	0xbc8b52e4	-0.017007299
158	0xbd5b9427	-0.053608086
159	0xbb20095e	-0.0024419646
160	0x3d4fae5f	0.050703403
161	0x3c9d228c	0.019181512
162	0x3ced77df	0.028987823
163	0xbd439dbd	-0.047757853
164	0x3ccc07bd	0.024906034
165	0xbcf21ad5	-0.02955381
166	0xbd4298b9	-0.04750893
167	0x3c228484	0.0099192895
168	0xbccdb8c9	-0.025112526
169	0x3ce68768	0.028140739
170	0x3ce6475f	0.028110204
171	0x3b5fdf7c	0.0034160307
172	0x3cf83fd7	0.030303879
173	0x3ca7cbcd	0.020482922
174	0x3bb7f546	0.0056139557
175	0xbd16f00d	-0.036850024
176	0xbcea6825	-0.028614113
177	0xbd352e06	-0.044233344
178	0xbd3fa9b2	-0.046792693
179	0x3d0e3f67	0.034728434
180	0x3d22b5d2	0.03972418
181	0xbcf019cd	-0.029309178
182	0xbb92dc3d	-0.004481821
183	0xbcc8457c	-0.024447195
184	0xbd5ca3e7	-0.053867247
185	0xbd35ff06	-0.044432662
186	0x3ceeda2a	0.029156763
187	0xbd1d75e0	-0.038442492
188	0x3cd9492b	0.026524147
189	0x3caa90cb	0.020820996
190	0x3cef7358	0.029229805
191	0x3c2aa3b6	0.010415008
192	0xbcfd2811	-0.030902894
193	0xbcee7c21	-0.029111924
194	0x3d393ba7	0.045222905
195	0xbcbb286e	-0.022846427
196	0xbd09b09f	-0.033615705
197	0xbc43320f	-0.01191379
198	0x3c9af827	0.018917156
199	0xbd2d28b5	-0.04227515
200	0x3cf695fe	0.030100819
201	0x3caf9350	0.021432549
202	0x3bce3105	0.0062924647
203	0x3c867104	0.016411312
204	0xbd041efd	-0.032256115
205	0x3d3137bb	0.04326604
206	0x3d29c870	0.041450918
207	0xbc9733f0	-0.018457383
208	0x3cf5494c	0.029942177
209	0x39d5beba	0.00040768628
210	0xbd28621e	-0.041109197
211	0x3c83bc95	0.016081134
212	0x3cc43168	0.02394934
213	0x3cc30a3e	0.023808595
214	0x3d17d52d	0.037068535
215	0x3c311ac6	0.010809606
216	0xbd47a6dc	-0.048743114
217	0xbc85aa8e	-0.016316678
218	0xbcd81948	-0.026379243
219	0x3cb7089d	0.022342974
220	0xbc9ec024	-0.01937873
221	0x3b38d04c	0.0028200326
222	0xbc09365b	-0.008374776
223	0x3cead6b1	0.028666826
224	0xbb0f9b37	-0.0021912584
225	0x3d00ff11	0.03149325
226	0xbcea9d10	-0.028639346
227	0x3d0dd4d8	0.03462681
228	0x3d0a709a	0.03379879
229	0xbca759db	-0.020428589
230	0xbcc68237	-0.024232013
231	0xbd0fcdb9	-0.0351083
232	0xbd1f1e69	-0.03884736
233	0xbca894ba	-0.02057873
234	0xbca7e19e	-0.020493325
235	0xbcbee7f2	-0.02330396
236	0xbc59251f	-0.013253479
237	0xbcaf4eb2	-0.02139983
238	0xbd3f92d9	-0.046770904
239	0xbd36dfe1	-0.0446471
240	0xbc631d05	-0.013861899
241	0xbd5704de	-0.052494876
242	0x3c512862	0.012765976
243	0x3c385364	0.011250351
244	0xbc66bb37	-0.014082721
245	0x3d1342be	0.035952322
246	0xbcecaacb	-0.028890034
247	0xbc4746fd	-0.012162921
248	0xbcf182de	-0.029481348
249	0x3ce6e669	0.02818604
250	0xbb736df5	-0.0037144397
251	0xbcbba3d8	-0.022905275
252	0x3d292bc7	0.041301515
253	0x3cede08c	0.029037736
254	0xbcbbc80f	-0.022922544
255	0xbc6b36b7	-0.014356307

bias f4 [16]
0	0x3d3d7126	0.046250485
1	0x3ce0bc9f	0.027433692
2	0xbb169aa9	-0.0022980368
3	0x3d5d2ee7	0.053999808
4	0x3d7a0e91	0.061049048
5	0x3c293549	0.010327646
6	0x3d1ba75a	0.038001396
7	0x3b39fa61	0.0028377997
8	0x3d133f0f	0.03594881
9	0x3c44a4fa	0.012002224
10	0x3bec930e	0.0072196787
11	0xbd29d6d4	-0.04146464
12	0x3d4eaa8a	0.050455607
13	0x3b6eb18b	0.0036421742
14	0xbd09c15e	-0.033631675
15	0x3d7a39a0	0.06109011
