Baseline/bestKernel_Num_Set_1.pt (torch_old, 254375 bytes, 16 tensors)

weight f4 [32, 3, 3, 3]
-0.15564014 -0.08068375 -0.060057253 -0.14935395 0.053819995 0.097124964 -0.006253745 -0.047676317
0.02743219 -0.15874386 -0.1241798 -0.009544855 0.16722277 -0.063727304 0.09284133 -0.09568415
-0.0740121 -0.20449392 0.18868133 0.21669903 0.025456542 0.15140711 0.18668231 0.1250679
0.12767914 -0.15461335 -0.1524598 -0.123619884 0.08027687 -0.14223927 -0.123023175 -0.07290819
-0.1535367 0.019059272 0.048183575 -0.09195208 0.14622426 -0.050484374 -0.034016594 0.16546698
0.1846829 -0.0031456805 -0.11526286 -0.07477697 0.043898072 0.08834571 0.07145818 -0.10576592
-0.20212068 -0.18875742 -0.08078365 -0.018437283 -0.106884405 -0.17122394 0.04273776 -0.12898281
-0.12582506 -0.13459639 -0.03122248 0.18805926 0.09460489 -0.0036704184 0.05709035 0.080548316
0.0024605023 -0.15566348 -0.12753405 -0.13961646 -0.012166382 -0.19675341 -0.054361057 -0.087897256
0.21827024 0.18570213 0.14099099 0.04024763 -0.033081148 0.078237034 -0.106860444 -0.05628226
-0.013796671 -0.04062566 -0.17652003 0.077805206 0.15948807 -0.103131585 0.052100144 -0.020650541
-0.0050817896 0.011915594 0.17893243 0.038292814 -0.10832777 -0.05624863 0.10737 0.07393119
0.016408872 -0.012440998 -0.061570592 -0.05505453 -0.08751668 0.04542149 0.066994585 0.16089226
-0.029748427 0.02657528 0.13771333 0.097075716 0.025109729 0.060184 0.011008124 -0.16478202
0.008279335 -0.04099997 0.17411889 0.17476542 0.03938027 0.17837861 -0.089962244 0.15804823
0.1689195 -0.009037307 -0.16367686 -0.054550335 -0.04835449 -0.0062328265 -0.18002892 0.03335113
-0.08035657 -0.054401945 -0.100660555 -0.04066915 -0.18184897 -0.1019306 0.019251559 0.1282663
0.17661412 -0.14450884 0.080705546 -0.11043309 -0.14871027 -0.010506939 -0.11097719 -0.16717783
-0.15775648 -0.10632674 0.17110884 0.12683983 -0.059515454 -0.120143026 -0.13022968 -0.10001235
-0.071830876 0.09628416 0.04645516 -0.07839043 0.11258225 -0.13786325 -0.16646922 0.027194096
-0.120743215 0.045189556 0.17747873 -0.07491535 -0.117690824 0.08742676 -0.15747622 0.18691675
-0.07462275 0.10893992 -0.13639228 -0.105413154 0.04584872 0.093490474 0.1746041 0.18641321
0.014440508 0.0003839725 0.05701689 -0.019329323 0.035322268 -0.15339015 -0.12933289 0.1606227
-0.083711326 0.18016037 0.049848475 0.07544182 0.20333454 -0.09333229 -0.017074661 0.046525314
0.0788998 -0.17403552 0.08035252 -0.10015094 0.03803057 0.14207326 0.0054798154 0.0165594
0.010300805 0.18583277 0.13277726 0.05770417 -0.09065436 -0.08140312 0.17844622 0.16426264
0.13730799 -0.12422415 0.17595257 0.0076228045 0.16781287 0.19328785 0.04732051 -0.05394295
0.19687094 -0.08168952 0.14434798 -0.16334927 -0.039041158 -0.14606163 -0.06477115 0.102862805
-0.11594342 -0.15748341 0.15545975 0.12161607 0.0147228455 -0.112873495 -0.0274869 -0.044232696
0.14207803 -0.03938799 -0.029247679 -0.10963519 -0.06378469 0.12895365 0.14874204 0.05224254
-0.04738664 0.20944685 0.06201471 -0.07375514 -0.066104114 -0.026506728 0.09157797 0.070722915
0.13982469 -0.008164187 0.15970363 -0.077694744 -0.06319541 -0.046877656 -0.15666786 -0.10088328
00000000: 2160 1fbe 863d a5bd 98fe 75bd 3ef0 18be
00000010: 5b72 5c3d 74e9 c63d 37ec ccbb 3e48 43bd
00000020: 79b9 e03c c08d 22be fb51 febd 0662 1cbc
00000030: 723c 2b3e 7683 82bd 9823 be3d 0df6 c3bd
00000040: a893 97bd db66 51be ae35 413e 5ae6 5d3e
00000050: 3d8a d03c 770a 1b3e a629 3f3e cd11 003e
00000060: 52be 023e f652 1ebe 6c1e 1cbe 6c2c fdbd
00000070: 3368 a43d 2ca7 11be 93f3 fbbd e450 95bd
00000080: ba38 1dbe 3122 9c3c 245c 453d 5f51 bcbd
00000090: d0bb 153e b4c8 4ebd fc54 0bbd 2d70 293e
000000a0: 841d 3d3e c327 4ebb ef0e ecbd ab24 99bd
000000b0: 77ce 333d 98ee b43d ab58 923d cd9b d8bd
000000c0: b9f8 4ebe a049 41be e671 a5bd c909 97bc
000000d0: 36e6 dabd 5455 2fbe ca0d 2f3d 1214 04be
000000e0: 49d8 00be a3d3 09be 49c6 ffbc 9b92 403e
000000f0: 35c0 c13d 678b 70bb 92d7 693d 84f6 a43d
00000100: 6140 213b 3f66 1fbe 4998 02be 9ef7 0ebe
00000110: 8155 47bc ba79 49be b3a9 5ebd 7a03 b4bd
00000120: 3c82 5f3e b328 3e3e f15f 103e b3da 243d
00000130: 1980 07bd bd3a a03d a6d9 dabd 3a88 66bd
00000140: 6f0b 62bc 1867 26bd abc1 34be 5658 9f3d
00000150: d750 233e a736 d3bd f666 553d 532b a9bc
00000160: 2485 a6bb a039 433c 103a 373e edd8 1c3d
00000170: f3da ddbd f764 66bd cde4 db3d 3c69 973d
00000180: e66b 863c 54d5 4bbc 7231 7cbd dc80 61bd
00000190: f23b b3bd e20b 3a3d 7534 893d f1c0 243e
000001a0: f9b2 f3bc 67b4 d93c b904 0d3e a2cf c63d
000001b0: ebb2 cd3c 7f83 763d 6b5b 343c 9ebc 28be
000001c0: 0ca6 073c 96ef 27bd 394c 323e b5f5 323e
000001d0: 354d 213d e2a8 363e 203e b8bd 65d7 213e
000001e0: 3cf9 2c3e 3711 14bc e89a 27be 2c70 5fbd
000001f0: 5c0f 46bd bd3c ccbb 8059 38be 329b 083d
00000200: fc91 a4bd 93d4 5ebd 1f27 cebd b294 26bd
00000210: 9e36 3abe fec0 d0bd 72b5 9d3c 3e58 033e
00000220: 55da 343e 20fa 13be f348 a53d be2a e2bd
00000230: 8147 18be 4c25 2cbc 0248 e3bd aa30 2bbe
00000240: ea8a 21be d5c1 d9bd 2837 2f3e 4de2 013e
00000250: 7ac6 73bd 8c0d f6bd ee5a 05be 46d3 ccbd
00000260: 111c 93bd a130 c53d c447 3e3d 298b a0bd
00000270: 8691 e63d 062c 0dbe e876 2abe 27c6 de3c
00000280: 3848 f7bd af18 393d fcbc 353e 386d 99bd
00000290: e307 f1bd cd0c b33d 7241 21be 1b67 3f3e
000002a0: d0d3 98bd e51b df3d 6baa 0bbe dae2 d7bd
000002b0: decb 3b3d ef77 bf3d 6bcb 323e 1be3 3e3e
000002c0: e197 6c3c eb4f c939 8b8a 693d 8758 9ebc
000002d0: 15ae 103d 4f12 1dbe d76f 04be 477a 243e
000002e0: d870 abbd f67b 383e ea2d 4c3d 3e81 9a3d
000002f0: ee36 503e 0025 bfbd 29e0 8bbc 5491 3e3d
00000300: 3896 a13d 5e36 32be dd8f a43d f01b cdbd
00000310: f1c5 1b3d a77b 113e 0690 b33b 94a7 873c
00000320: b5c4 283c f24a 3e3e c3f6 073e 355b 6c3d
00000330: fea8 b9bd aeb6 a6bd 9bba 363e 7734 283e
00000340: 779a 0c3e 3b69 febd e92c 343e b8c8 f93b
00000350: 23d7 2b3e 40ed 453e 27d3 413d 48f3 5cbd
00000360: 8998 493e d64c a7bd f5cf 133e 0845 27be
00000370: 9fe9 1fbd 2e91 15be bda6 84bd bca9 d23d
00000380: be73 edbd 5543 21be d730 1f3e d911 f93d
00000390: 1738 713c 382a e7bd 352c e1bc 582d 35bd
000003a0: e77c 113e 4d55 21bd d498 efbc 6a88 e0bd
000003b0: 8ca1 82bd 6d0c 043e d54f 183e 46fc 553d
000003c0: 7e18 42bd 3c79 563e 2303 7e3d ef0c 97bd
000003d0: 9861 87bd a324 d9bc 3b8d bb3d 2dd7 903d
000003e0: 342e 0f3e 15c3 05bc 5989 233e 6c1e 9fbd
000003f0: 986c 81bd c902 40bd 8a6d 20be e59b cebd

bias f4 [32]
-0.07853424 -0.030183958 -0.17243253 0.15624395 -0.035453353 -0.15000895 0.0057707387 0.014155671
0.06706424 -0.016693326 0.12223539 -0.06041583 -0.043736897 -0.044244207 0.038740344 0.15574321
-0.010225661 0.15498976 0.15454108 -0.08846833 -0.012344816 -0.081317656 0.08134666 -0.08003566
0.080018535 0.01897442 -0.12978782 -0.12347652 -0.18100756 -0.088175185 0.057901222 0.013753239
00000000: 8fd6 a0bd 5944 f7bc 2792 30be 6afe 1f3e
00000010: 8937 11bd f29b 19be 7718 bd3b 30ed 673c
00000020: fa58 893d 71c0 88bc 8c56 fa3d 9776 77bd
00000030: 7625 33bd 6a39 35bd 32ae 1e3d 267b 1f3e
00000040: 8889 27bc a3b5 1e3e 0440 1e3e e22e b5bd
00000050: e941 4abc df89 a6bd 1499 a63d bce9 a3bd
00000060: c2e0 a33d 3e70 9b3c 19e7 04be 42e1 fcbd
00000070: 0c5a 39be 3195 b4bd d529 6d3d 4455 613c

weight f4 [32, 32, 3, 3]
0.046713315 -0.044699486 0.010076224 -0.047290135 0.0071876165 0.023990352 -0.042496096 0.062873386
-0.009412717 0.031642426 -0.011324185 0.014473714 0.030580573 -0.016231162 -0.009876305 0.014561715
-0.04598105 0.017419202 -0.041445967 0.051703557 -0.042571962 -0.027353577 0.045957144 -0.027410569
0.051106006 0.043511126 0.058345772 -0.0552506 0.0073918556 -0.014865087 0.014417539 -0.03919837
0.032679558 0.0049968516 -0.014817846 -0.039631106 0.028838383 -0.0065508895 0.053198636 0.012469894
0.031244468 -0.0022594421 -0.0091395285 -0.017692847 -0.04785371 0.02020499 -0.04313439 0.025560632
-0.03115006 0.031387232 0.047873847 -0.04932185 0.034889217 -0.0047946074 -0.047928736 0.025735315
0.040941734 0.05469669 -0.047397695 0.064442515 0.055620518 0.06980879 0.045222756 -0.030832633
0.049227428 0.05857415 -0.020251649 -0.0009482215 0.048357766 0.053426616 0.052189227 0.0571575
-0.027569138 0.004334609 -0.008840315 0.03153195 0.028575515 -0.035638772 0.010074525 -0.025394497
-0.03533348 0.053866856 -0.023861926 0.029874036 -0.012957759 -0.005794511 0.007495622 0.045855954
-0.008008875 0.052343372 0.034740355 0.040871266 -0.046064716 -0.02931169 -0.045442946 -0.0069233095
-0.014652829 0.0120369205 0.06150448 0.027820142 -0.032456975 -0.030867819 0.04681442 0.013681779
0.028523771 -0.026118122 0.0064741634 0.031150503 -0.040816415 0.03748871 0.028773485 -0.031808555
-0.01923035 -0.011543703 0.01411435 -0.013369239 0.06675 -0.057161294 -0.021198578 -0.029626455
0.016643045 0.02167633 -0.0045159576 0.049638044 -0.039795227 0.02377162 -0.03245899 0.0012781189
-0.045488223 -0.042519685 -0.041978788 0.032589793 -0.022892553 0.035555802 -0.020848427 -0.010455206
-0.007412615 0.026687637 -0.013225741 0.012811475 -0.00083559484 0.014820998 0.015578411 0.02784583
-0.02168537 -0.020528227 0.036589094 0.036580876 0.009409335 0.03985899 -0.03171962 0.034787208
0.0059685386 -0.041610226 -0.019537162 -0.039826408 0.013147626 -0.023841076 -0.0101972995 -0.004090681
-0.029419824 0.008642257 -0.00905653 0.025080161 0.048920024 -0.03614858 0.039124466 0.004420506
-0.03147196 -0.01746586 0.023392232 -0.004047702 -0.008337866 -0.02031706 0.013809118 -0.00036069535
-0.037269376 -0.0076676966 -0.01629783 -0.017740097 -0.035499405 -0.043482993 0.05644874 -0.049301505
0.06868986 -0.03801774 -0.015518643 -0.022387354 -0.0224471 0.02178958 0.03819812 -0.033102002
-0.022232095 0.037407476 0.0026220474 0.022639278 0.042531352 -0.012167813 -0.032583404 0.030060997
-0.011679792 -0.04008156 -0.031369384 -0.026634935 0.057118736 0.014805824 0.03299686 0.0067835716
-0.034214564 0.04947737 -0.010023263 -0.009826278 0.05469438 -0.030997492 0.01423641 -0.047572583
0.031745758 0.030110246 -0.04172705 0.03769602 0.013702994 -0.023534954 0.060106266 0.040040705
0.035556357 -0.022860385 -0.028784731 -0.027220925 0.021775473 0.018489897 -0.031176986 0.054316293
0.041791856 -0.01641749 0.016397754 -0.030248646 0.007004336 0.04275165 -0.054409068 -0.034417108
-0.014366787 -0.0032786513 -0.055295292 -0.03948444 0.001975595 0.001607739 0.011667183 0.0072352714
0.012576864 0.0029717183 0.010154243 -1.5279104e-05 0.02028807 0.046965025 -0.030154346 -0.0300859
00000000: 7656 3f3d cf16 37bd bf16 253c 4db3 41bd
00000010: 1986 eb3b 6a87 c43c 6310 2ebd c3c3 803d
00000020: cc37 1abc 7d9b 013d 1389 39bc 2823 6d3c
00000030: 1c84 fa3c 37f7 84bc 3ad0 21bc 4294 6e3c
00000040: a056 3cbd b7b2 8e3c 3fc3 29bd 1cc7 533d
00000050: f05f 2ebd 9c14 e0bc 8f3d 3c3d 218c e0bc
00000060: 8854 513d b938 323d fafb 6e3d 744e 62bd
00000070: 6137 f23b b28c 73bc 8b37 6c3c 788e 20bd
00000080: 00db 053d a1bc a33b 8dc6 72bc 3a54 22bd
00000090: 793e ec3c d8a8 d6bb d0e6 593d 874e 4c3c
000000a0: 66f4 ff3c 2613 14bb f6bd 15bc 97f0 90bc
000000b0: 4002 44bd ef84 a53c b0ad 30bd 8864 d13c
000000c0: 692e ffbc e68f 003d 5e17 443d b505 4abd
000000d0: ffe7 0e3d 151c 9dbb ec50 44bd ded2 d23c
000000e0: 85b2 273d a309 603d 1624 42bd 70fa 833d
000000f0: 57d2 633d e9f7 8e3d 7f3b 393d b894 fcbc
00000100: b3a2 493d 73eb 6f3d c9e6 a5bc 1192 78ba
00000110: cb12 463d ded5 5a3d 5fc4 553d fc1d 6a3d
00000120: acd8 e1bc 5609 8e3b f8d6 10bc a527 013d
00000130: 3317 ea3c f6f9 11bd 9f0f 253c 1f08 d0bc
00000140: d7b9 10bd 7ea3 5c3d 167a c3bc 65ba f43c
00000150: c84c 54bc e2df bdbb d69d f53b 74d3 3b3d
00000160: a837 03bc 0166 563d e74b 0e3d a168 273d
00000170: 5bae 3cbd 121f f0bc 6222 3abd eedc e2bb
00000180: 6b12 70bc 8136 453c 1fec 7b3d 11e7 e33c
00000190: 9bf1 04bd 82de fcbc 7ac0 3f3d 8a29 603c
000001a0: afaa e93c acf5 d5bc 3825 d43b 572f ff3c
000001b0: 1d2f 27bd c38d 193d 5fb6 eb3c b049 02bd
000001c0: f888 9dbc cd21 3dbc e03f 673c a70a 5bbc
000001d0: 39b4 883d f621 6abd a4a8 adbc 2eb3 f2bc
000001e0: ff56 883c 8f92 b13c 99fa 93bb 4351 4b3d
000001f0: 5200 23bd b3bc c23c b8f3 04bd 8e86 a73a
00000200: dc51 3abd 1f29 2ebd f3f1 2bbd e07c 053d
00000210: 2a89 bbbc f6a2 113d 52ca aabc 504c 2bbc
00000220: 86e5 f2bb 08a0 da3c c7b0 58bc 39e7 513c
00000230: d20b 5bba c5d3 723c 973c 7f3c f01c e43c
00000240: 84a5 b1bc d02a a8bc 72de 153d d4d5 153d
00000250: 9d29 1a3c 2e43 233d 6fec 01bd 087d 0e3d
00000260: bb93 c33b 7c6f 2abd 660c a0bc 0421 23bd
00000270: 2469 573c 5c4e c3bc 9312 27bc 1f0b 86bb
00000280: d801 f1bc 4198 0d3c d761 14bc e974 cd3c
00000290: 5d60 483d 8910 14bd fa40 203d e4d9 903b
000002a0: bee8 00bd 9014 8fbc 11a1 bf3c 96a2 84bb
000002b0: 8b9b 08bc f76f a6bc a43f 623c b61b bdb9
000002c0: c6a7 18bd 4d41 fbbb 0783 85bc ae53 91bc
000002d0: d367 11bd 391b 32bd cb36 673d 60f0 49bd
000002e0: 45ad 8c3d 7db8 1bbd e841 7ebc af65 b7bc
000002f0: fbe2 b7bc 1080 b23c a275 1c3d f795 07bd
00000300: 1520 b6bc 9538 193d a8d6 2b3b 0276 b93c
00000310: 5b35 2e3d 825b 47bc 2d76 05bd 7b42 f63c
00000320: 995c 3fbc 902c 24bd 2f7d 00bd 8231 dabc
00000330: 56f5 693d 2094 723c b727 073d b948 de3b
00000340: 9224 0cbd c8a8 4a3d 9d38 24bc 66fe 20bc
00000350: 3707 603d 74ee fdbc d53f 693c 78db 42bd
00000360: d707 023d c3a9 f63c fce9 2abd 2467 1a3d
00000370: 8682 603c 60cc c0bc fd31 763d b901 243d
00000380: 8ba3 113d b445 bbbc f5cd ebbc 6bfe debc
00000390: 7a62 b23c 2078 973c e166 ffbc c37a 5e3d
000003a0: f02d 2b3d f97d 86bc 9554 863c 02cc f7bc
000003b0: a184 e53b 5b1c 2f3d 0bdc 5ebd f4f8 0cbd
000003c0: ac62 6bbc a4de 56bb 517d 62bd 70ba 21bd
000003d0: fc78 013b c5ba d23a b627 3f3c db15 ed3b
000003e0: 310f 4e3c 29c1 423b fb5d 263c a02b 80b7
000003f0: 2b33 a63c 665e 403d 3f06 f7bc b576 f6bc

bias f4 [32]
0.041163795 0.034204863 0.041207876 -0.028755277 -0.017899195 0.026020903 0.018059911 0.010644229
0.002971753 -0.05288454 0.028771678 -0.029519899 -0.045198083 0.06302607 0.033861183 0.03680045
-0.020590242 0.027620897 0.011775363 0.05009966 0.0020666432 0.03950665 -0.027800761 0.05044772
0.06455742 0.0104576005 -0.039399963 0.0021848772 0.054314114 -0.042056315 -0.020042978 0.027856939
00000000: 5e9b 283d 661a 0c3d 97c9 283d 3090 ebbc
00000010: 55a1 92bc ca29 d53c 61f2 933c 2265 2e3c
00000020: bec1 423b 769d 58bd 95b2 eb3c b7d3 f1bc
00000030: a021 39bd d013 813d 06b2 0a3d 12bc 163d
00000040: deac a8bc 3845 e23c 74ed 403c 4d35 4d3d
00000050: 8570 073b bad1 213d 6cbe e3bc 45a2 4e3d
00000060: ae36 843d 5b56 2b3c db61 21bd 2830 0f3b
00000070: 7a78 5e3d 3e43 2cbd 2c31 a4bc 3c34 e43c

weight f4 [32, 32, 3, 3]
0.011170041 0.06542545 0.022594586 0.003965083 0.019874688 0.0019815918 -0.049994905 -0.0109622525
-0.041387454 0.03744415 0.017644612 0.01612067 -0.011925368 -0.013652683 -0.021411829 -0.0063397433
0.039703887 -0.017201768 -0.035324607 0.039971735 -0.01775324 0.03400232 0.058070574 0.058068983
-0.044549048 0.0059017986 -0.043980926 0.0036311662 0.011144018 -0.021309156 0.022204204 -0.014621942
0.040007953 0.0018024798 0.043584954 0.042963367 0.009899663 0.0012050732 -0.033889886 -0.0465526
0.030760804 0.029274447 -0.0041418434 0.032459345 0.014691548 0.037736446 -0.010851396 0.011146711
-0.05370283 -0.052351624 0.03205361 -0.036000643 0.04619954 -0.04509277 -0.0502027 -0.048339017
0.040995162 -0.039574884 -0.048703175 0.028858908 -0.012503823 -0.056000672 0.043382794 0.04649554
0.0469882 0.036882445 -0.042110506 -0.026566258 -0.021189895 -0.052513044 0.04106545 -0.021980422
0.019956917 -0.029678313 0.05372451 0.041719016 0.04148845 0.0310271 0.049620494 0.020254638
0.011809297 -0.011778979 0.05315981 -0.04665592 0.043616407 0.0014484781 0.008103438 -0.035428938
-0.022568969 0.017780384 -0.030696442 0.014646254 0.00808565 -0.056258995 0.025102401 -0.019594835
-0.03440998 -0.019380195 0.012048707 -0.05813243 -0.04192161 0.025403509 -0.017915173 -0.010127429
-0.050668556 0.0058808993 0.02889176 -0.019433746 0.008828349 0.007447074 -0.0052257366 0.051620346
0.022447146 0.019018387 0.00019305057 0.0016310001 0.038354993 0.001262526 0.006670639 0.03485703
0.039287627 -0.027299883 -0.059315003 0.014887481 -0.042460144 -0.06667029 0.04188258 -0.046470482
0.06201104 -0.052941132 -0.04522135 0.038202208 0.0060544475 -0.02287281 0.02571932 -0.03570016
-0.026595335 -0.05145212 -0.027386501 -0.044160638 0.057377253 -0.02317614 0.0147465635 -0.020526232
-0.013830089 0.046101775 0.017836634 0.029074108 0.022636177 -0.04332937 0.0350088 0.05016301
0.020365143 0.04763494 -0.026482001 -0.03637706 -0.047205932 -0.0074003865 -0.0029771633 -0.033406533
-0.018366922 -0.016283203 0.061215684 0.0036803544 0.060879104 0.008359336 0.029568195 0.048741657
-0.051163357 -0.016341642 -0.0332513 0.0702186 0.017340593 -0.038544625 -0.03149529 0.02790059
0.00035046 -0.01558409 -0.04533466 -0.041738488 0.010784233 -0.05264621 -0.0094773965 0.03178211
0.028382996 0.0031676304 0.003157689 0.0111459745 0.020329686 0.051630516 0.02052136 0.031272545
0.047575776 -0.046078447 -0.027462438 0.03887793 0.010723668 -0.03265192 0.012826867 -0.061624568
-0.02808513 0.032829933 0.0007354837 -0.038352728 0.02544203 0.0032268509 -0.013553975 -0.05678254
-0.022168955 0.005853564 -0.013092127 -0.000973292 -0.02394866 0.028665373 0.025675675 0.01951891
-0.008098031 -0.05463262 -0.015547085 -0.007848393 -0.048724674 0.058641046 0.016960967 0.053194094
-0.046171162 -0.031138938 0.013859137 0.0023400418 -0.0320283 0.04626611 0.03052032 -0.00398368
0.057935916 -0.05306875 -0.053439613 0.0126381 0.056136895 0.033546485 -0.03127247 0.04551011
0.030596266 0.004422266 0.0395235 0.01570272 0.0014134836 -0.023886386 -0.028288454 -0.038259327
-0.021900678 -0.036245443 0.022506164 0.010040571 -0.056787856 -0.04189223 0.044438455 -0.029940363
00000000: 8c02 373c c7fd 853d 4818 b93c 87ed 813b
00000010: 3ed0 a23c 98dd 013b 75c7 4cbd 059b 33bc
00000020: e485 29bd 095f 193d 6f8b 903c 7f0f 843c
00000030: 9e62 43bc 81af 5fbc dc67 afbc 9fbd cfbb
00000040: 8ba0 223d b9ea 8cbc 89b0 10bd 67b9 233d
00000050: 3e6f 91bc 0446 0b3d 69db 6d3d bed9 6d3d
00000060: 1079 36bd e063 c13b 5825 34bd dcf8 6d3b
00000070: 6695 363c 8a90 aebc 97e5 b53c df90 6fbc
00000080: 61df 233d 3041 ec3a 2386 323d 5bfa 2f3d
00000090: 3232 223c 8cf3 9d3a 1fd0 0abd f0ad 3ebd
000000a0: 15fe fb3c f7d0 ef3c 4db8 87bb 17f4 043d
000000b0: d2b4 703c 8891 1a3d 0eca 31bc b2a0 363c
000000c0: 80f7 5bbd a86e 56bd a54a 033d 6975 13bd
000000d0: bb3b 3d3d 32b3 38bd 59a1 4dbd 22ff 45bd
000000e0: 8bea 273d 4619 22bd fb7c 47bd 8469 ec3c
000000f0: d6dc 4cbc f660 65bd 28b2 313d 1b72 3e3d
00000100: b376 403d 0c12 173d 117c 2cbd 7ba1 d9bc
00000110: 6e96 adbc eb17 57bd 3f34 283d 4910 b4bc
00000120: b07c a33c ef1f f3bc 3b0e 5c3d 8fe1 2a3d
00000130: cbef 293d 8b2c fe3c dc3e 4b3d 0eed a53c
00000140: c87b 413c 9efc 40bc 1abe 593d 471a 3fbd
00000150: 1ea7 323d dcda bd3a 48c4 043c ef1d 11bd
00000160: 8fe2 b8bc 2ba8 913c 1b77 fbbc d7f6 6f3c
00000170: ad79 043c d56f 66bd 8da3 cd3c 5985 a0bc
00000180: 7bf1 0cbd 37c3 9ebc f167 453c 451c 6ebd
00000190: feb5 2bbd 051b d03c d7c2 92bc 84ed 25bc
000001a0: d589 4fbd 8fb4 c03b 6aae ec3c 8533 9fbc
000001b0: c8a4 103c 9606 f43b a83c abbb db6f 533d
000001c0: 14e3 b73c 73cc 9b3c 9e6d 4a39 48c7 d53a
000001d0: 201a 1d3d 587b a53a 6095 da3b 3fc6 0e3d
000001e0: 10ec 203d 01a4 dfbc 4af4 72bd 9fea 733c
000001f0: b0ea 2dbd 6f8a 88bd 118d 2b3d d557 3ebd
00000200: 4aff 7d3d cdd8 58bd 063a 39bd eb79 1c3d
00000210: 6364 c63b c25f bbbc 53b1 d23c 553a 12bd
00000220: 76de d9bc 75bf 52bd a859 e0bc c9e1 34bd
00000230: 6904 6b3d e3db bdbc 929b 713c a126 a8bc
00000240: 9997 62bc 37d5 3c3d 221e 923c d32c ee3c
00000250: 816f b93c 237a 31bd 6365 0f3d ba77 4d3d
00000260: cdd4 a63c db1c 433d c8f0 d8bc 1d00 15bd
00000270: 025b 41bd f17e f2bb 831c 43bb 4ad5 08bd
00000280: 3a76 96bc 5a64 85bc 4cbd 7a3d 1a32 713b
00000290: 5e5c 793d 99f5 083c 0039 f23c 55a5 473d
000002a0: ab90 51bd e8de 85bc 8432 08bd c5ce 8f3d
000002b0: dc0d 8e3c f8e0 1dbd 3501 01bd c78f e43c
000002c0: f2bd b739 6954 7fbc d6b0 39bd faf5 2abd
000002d0: 5ab0 303c 8da3 57bd 1547 1bbc f52d 023d
000002e0: 7583 e83c 0598 4f3b 3bf1 4e3b 9b9d 363c
000002f0: 718a a63c 857a 533d 691c a83c a417 003d
00000300: d1de 423d c1bc 3cbd e8f8 e0bc 773e 1f3d
00000310: 53b2 2f3c 05be 05bd c827 523c 0b6a 7cbd
00000320: c912 e6bc ae78 063d 7acd 403a c017 1dbd
00000330: ce6b d03c 9379 533b 7e11 5ebc cf94 68bd
00000340: ab9b b5bc 41cf bf3b 5c80 56bc 8524 7fba
00000350: fb2f c4bc a5d3 ea3c cb55 d23c 1fe6 9f3c
00000360: 9bad 04bc 74c6 5fbd 33b9 7ebc 8c96 00bc
00000370: 8693 47bd 9831 703d baf1 8a3c 0de2 593d
00000380: f91d 3dbd 1617 ffbc 6f11 633c 635b 193b
00000390: 1b30 03bd 8881 3d3d c005 fa3c 8889 82bb
000003a0: 364e 6d3d 9e5e 59bd 7fe3 5abd 0910 4f3c
000003b0: cdef 653d 0a68 093d 9017 00bd cf68 3a3d
000003c0: 05a5 fa3c a8e8 903b 65e3 213d fea2 803c
000003d0: a444 b93a 62ad c3bc 30bd e7bc d0b5 1cbd
000003e0: 0d69 b3bc 1a76 14bd d95e b83c 3581 243c
000003f0: 629a 68bd 3097 2bbd 1905 363d 7e45 f5bc

bias f4 [32]
0.022549616 -0.0113291005 0.012595102 -0.006399665 -0.0104627 -0.049124777 0.03838333 -0.04232002
0.012445285 0.042403087 0.062267844 -0.025276573 0.055201173 -0.029644469 -0.026523108 -5.136896e-05
-0.01905949 -0.04348055 0.017497001 0.054291405 0.044480857 0.02827116 0.022155616 0.045727797
-0.028020004 0.04019906 0.015244219 0.048535656 -0.05612976 0.015999762 -0.0023325172 -0.010448059
00000000: f9b9 b83c b19d 39bc b05b 4e3c 48b4 d1bb
00000010: bf6b 2bbc 1037 49bd d737 1d3d c257 2dbd
00000020: 4fe7 4b3c dcae 2d3d 910c 7f3d d110 cfbc
00000030: a01a 623d f5d8 f2bc fd46 d9bc 0075 57b8
00000040: a622 9cbc a918 32bd df55 8f3c aa60 5e3d
00000050: 8f31 363d eb98 e73c b27f b53c 124d 3b3d
00000060: 358a e5bc c5a7 243d e4c2 793c 53cd 463d
00000070: 52e8 65bd ef11 833c 25dd 18bb 562e 2bbc

weight f4 [32, 32, 3, 3]
-0.03589438 -0.00016399319 -0.008083461 -0.011863852 0.056561925 -0.046138488 0.015234638 0.034367137
0.017531252 0.0467156 0.01354322 0.04250578 0.034301147 -0.0324178 -0.04445566 -0.022735363
-0.027215192 -0.03755268 0.021807322 -0.03641341 -0.033647023 -0.011161463 -0.04559112 -0.026924709
-0.0035744172 0.014046339 0.0356705 0.057442814 -0.0067091263 -0.029923195 -0.031200057 -0.03761977
0.042922813 0.057371072 0.019588716 0.019354893 0.026615255 0.04731959 0.04020792 0.047159586
0.028271005 0.015279924 -0.0072148056 0.045198116 0.02527164 0.043859646 0.06368006 0.0515638
0.06196219 0.052512262 -0.006147873 -0.01414289 0.021373983 0.045454245 -0.040888526 0.025925424
0.034600366 -0.019582845 -0.020827597 -0.018822597 0.06703881 0.0065385834 -0.024170754 0.035475913
-0.03284518 -0.049049415 0.04533625 0.0071640685 0.010966625 0.038600694 -0.00065660913 0.0028889172
-0.006336364 0.03092812 -0.005161339 0.005710636 -0.038292635 -0.023544585 -0.04259605 0.045979068
0.05906616 0.029571509 0.02797441 -0.021561323 0.026433297 0.03135717 0.06184932 -0.04024695
-0.027717695 -0.022038244 0.054560717 0.0069777053 0.054376524 -0.014461151 -0.00048329466 0.017258776
-0.008072526 0.053558487 0.05045081 -0.026496539 -0.00907451 0.01840211 0.016899768 -0.0026938478
0.025726223 -0.0008866098 -0.03475355 -0.0036793435 0.04860592 -0.0057335426 -0.036737204 -0.005773032
-0.027124094 0.031880904 0.026780445 -0.01872466 0.023874763 0.0578743 0.060757536 0.025369186
0.039579764 -0.008747748 -0.025487974 0.045729976 0.035704933 0.066586845 0.006033659 0.042819366
0.04231799 0.008901803 -0.027403312 -0.04236231 0.04785946 -0.0487306 0.034103036 -0.022773532
-0.0012692206 0.034763753 -0.056217656 0.034883082 0.0039331797 0.04403551 0.020816322 0.036583267
-0.009412027 -0.01955442 0.033393137 -0.047181197 -0.034756638 0.007910947 0.059693936 0.022732636
-0.017790798 0.039541878 0.032827858 0.028334735 0.061564025 0.05185847 0.027027683 -0.052822907
0.032024883 0.038216617 -0.018823447 0.050524127 0.074400894 0.0370276 0.059030943 0.05392948
0.010996274 -0.03103267 -0.0028519006 0.039253324 -0.038810637 0.057324786 0.017704515 -0.013468223
0.051894795 -0.04194371 0.0033853087 -0.050822172 0.035919633 0.015912488 0.046773046 -0.021808986
0.052210804 -0.050281152 0.057563335 0.033897404 0.02561471 -0.031609055 -0.01653945 0.0052017258
0.042016238 0.058247685 0.06981031 0.027880745 0.0014911998 -0.033972923 0.012116379 0.017431302
-0.018678924 0.02400726 -0.034984257 0.0070512947 -0.004893995 -0.045874007 -0.053142644 -0.050393406
0.054849572 -0.026244136 0.012930002 -0.020043 0.011211316 -0.049767308 0.027490169 0.050043665
-0.01865661 -0.008674518 -0.056039855 -0.03692953 -0.048048373 0.053189836 -0.0017529062 0.012086737
-0.0055375947 0.03440901 0.05012491 -0.036932368 -0.03347499 -0.010409384 0.010407984 -0.005132273
0.031511854 0.033134583 0.016137911 -0.046702232 -0.032111783 0.032964643 -0.01895962 -0.03689026
-0.011521286 0.047643088 0.017502803 -0.018198015 0.056460112 -0.0034928839 0.054765504 0.064881384
-0.03713229 -0.005914005 0.05285834 -0.04813172 0.04492435 0.05136787 0.05857328 -0.019141376
00000000: fc05 13bd 96f5 2bb9 7e70 04bc 9a60 42bc
00000010: 7aad 673d b6fb 3cbd b49a 793c 8ec4 0c3d
00000020: b39d 8f3c db58 3f3d 62e4 5d3c 8a1a 2e3d
00000030: 5c7f 0c3d 87c8 04bd 2317 36bd 833f babc
00000040: 65f2 debc d7d0 19bd 45a5 b23c 3a26 15bd
00000050: 76d1 09bd 92de 36bc c1bd 3abd 3591 dcbc
00000060: c540 6abb 9e22 663c 3b1b 123d 2849 6b3d
00000070: 3bd8 dbbb 7d21 f5bc 4397 ffbc 3017 1abd
00000080: d5cf 2f3d eefd 6a3d 8478 a03c 278e 9e3c
00000090: 3c08 da3c 30d2 413d 0fb1 243d 692a 413d
000000a0: 9898 e73c a558 7a3c 2d6a ecbb a921 393d
000000b0: 7806 cf3c 2ca6 333d b16a 823d 9034 533d
000000c0: 11cc 7d3d 1917 573d 1974 c9bb 95b7 67bc
000000d0: 7e18 af3c 3b2e 3a3d ba7a 27bd 8e61 d43c
000000e0: 1db9 0d3d 346c a0bc a39e aabc d931 9abc
000000f0: a54b 893d 9d41 d63b bf01 c6bc 314f 113d
00000100: ab88 06bd 0ae8 48bd 81b2 393d 90c0 ea3b
00000110: 5cad 333c c31b 1e3d 4b20 2cba fd53 3d3b
00000120: 46a1 cfbb f85c fd3c 7320 a9bb 4920 bb3b
00000130: bdd8 1cbd 93e0 c0bc 3279 2ebd 8c54 3c3d
00000140: 5cef 713d f33f f23c 972a e53c 5fa1 b0bc
00000150: a48a d83c 6070 003d b655 7d3d fcd9 24bd
00000160: 3810 e3bc 8c89 b4bc 0f7b 5f3d 3ca5 e43b
00000170: ebb9 5e3d 77ee 6cbc b662 fdb9 4762 8d3c
00000180: a142 04bc 2560 5b3d 82a5 4e3d 450f d9bc
00000190: 41ad 14bc 06c0 963c 6271 8a3c 448b 30bb
000001a0: cdbf d23c 606b 68ba bd59 0ebd 2421 71bb
000001b0: 0017 473d 71e0 bbbb c079 16bd b42b bdbb
000001c0: 5933 debc 8d95 023d aa62 db3c 7564 99bc
000001d0: 0295 c33c 9a0d 6d3d e5dc 783d 0ad3 cf3c
000001e0: 641e 223d b752 0fbc 28cc d0bc 5b4f 3b3d
000001f0: 563f 123d af5e 883d 00b6 c53b 5c63 2f3d
00000200: a155 2d3d ded8 113c e97c e0bc 1a84 2dbd
00000210: 4808 443d bd99 47bd a0af 0b3d 8f8f babc
00000220: fa5b a6ba 7064 0e3d 7c44 66bd 90e1 0e3d
00000230: e7e1 803b 945e 343d fe86 aa3c 56d8 153d
00000240: e734 1abc 9730 a0bc 3ec7 083d 1241 41bd
00000250: fa5c 0ebd eb9c 013c a181 743d cb39 ba3c
00000260: 02be 91bc aaf6 213d 8176 063d 3f1e e83c
00000270: 8f2a 7c3d 8c69 543d 2969 dd3c d55c 58bd
00000280: 862c 033d 0789 1c3d a133 9abc 63f2 4e3d
00000290: 7f5f 983d 41aa 173d 6eca 713d 29e5 5c3d
000002a0: b729 343c 3a38 febc f4e6 3abb 18c8 203d
000002b0: e7f7 1ebd 65cd 6a3d 0f09 913c d2a9 5cbc
000002c0: a38f 543d 2bcd 2bbd 0edc 5d3b e92a 50bd
000002d0: 7720 133d e85a 823c 1895 3f3d c2a8 b2bc
000002e0: ffda 553d 9cf3 4dbd 88c7 6b3d 01d8 0a3d
000002f0: f1d5 d13c 7f78 01bd be7d 87bc 3d73 aa3b
00000300: 3819 2c3d 2095 6e3d b5f8 8e3d 2966 e43c
00000310: 5d74 c33a 3127 0bbd c783 463c 17cc 8e3c
00000320: 8b04 99bc e0aa c43c a74b 0fbd 8c0e e73b
00000330: ce5d a0bb 62e6 3bbd 1aac 59bd 5169 4ebd
00000340: f2a9 603d f1fd d6bc 5cd8 533c 3831 a4bc
00000350: abaf 373c ced8 4bbd 1033 e13c 96fa 4c3d
00000360: bfd5 98bc 911f 0ebc 0c8a 65bd 6b43 17bd
00000370: 5fce 44bd 96dd 593d c6c1 e5ba 7307 463c
00000380: b674 b5bb 76f0 0c3d c74f 4d3d 6546 17bd
00000390: 121d 09bd 1f8c 2abc 4086 2a3c a02c a8bb
000003a0: 9312 013d 21b8 073d a733 843c d74a 3fbd
000003b0: a587 03bd ef05 073d 3451 9bbc 3e1a 17bd
000003c0: c7c3 3cbc 6625 433d 0a62 8f3c 0114 95bc
000003d0: b842 673d dee8 64bb cb51 603d 88e0 843d
000003e0: 0718 18bd 45ca c1bb fd81 583d c425 45bd
000003f0: 9802 383d 1e67 523d 89ea 6f3d 60ce 9cbc

bias f4 [32]
-0.040110372 0.058796015 0.0029902237 -0.009510378 0.024482463 -0.0071815895 0.0043445295 -0.032191105
0.007548153 -0.044284973 -0.05913235 -0.030778995 -0.013707865 0.0142262075 -0.02581028 0.05388326
0.063665904 -0.061739586 -0.004769203 -0.040169757 0.035462487 -0.020021478 0.04113435 -0.044997726
-0.019111216 0.015483139 0.010699607 0.012973823 0.033431195 -0.019190751 -0.039888922 0.04009198
00000000: c64a 24bd 17d4 703d a1f7 433b 6bd1 1bbc
00000010: 728f c83c 8a53 ebbb 8e5c 8e3b d2da 03bd
00000020: 7f56 f73b 2964 35bd c334 72bd 3b24 fcbc
00000030: f496 60bc 0a15 693c 1570 d3bc b1b4 5c3d
00000040: 4563 823d a6e2 7cbd f946 9cbb 0b89 24bd
00000050: 1d41 113d 1504 a4bc 7e7c 283d 894f 38bd
00000060: 208f 9cbc feac 7d3c 684d 2f3c 2890 543c
00000070: 26ef 083d ec35 9dbc 9162 23bd 7d37 243d

weight f4 [32, 32, 3, 3]
-0.026373228 -0.011948659 0.029739184 0.014132302 0.025476867 -0.058621533 -0.04379566 0.040004566
0.040251072 0.016116822 0.058852978 -0.0055159703 0.055973858 -0.03388677 -0.04202621 0.027522467
-0.02519593 0.019653337 0.013360693 0.047042374 -0.04951124 -0.041035097 0.029792476 9.309534e-05
0.0036484848 -0.017645994 0.04915781 -0.0045629097 -0.02230842 0.055298626 -0.006902821 0.03391223
-0.02228258 0.0076517775 -0.003495088 0.03476396 -0.027389523 -0.04166388 -0.0534039 -0.035569474
0.0015595489 0.011629447 0.059003003 0.03509721 -0.023059038 -0.022116665 0.005720376 0.04821468
-0.051603727 -0.010427314 -0.054143693 -0.02121537 0.031079594 0.014184988 -0.040369455 -0.042272262
0.041516747 0.04019882 -0.031222384 -0.034738295 -0.040021103 0.048010692 -0.0032865296 0.055876836
0.055447284 -0.032898374 -0.034841966 -0.03675001 0.04673504 -0.034702808 -0.037881605 0.0383197
-0.034772452 -0.034129072 -0.03200807 -0.032487083 0.06181466 0.042410564 0.05434691 0.04402575
0.023388114 -0.0010984675 0.008015372 0.01753253 0.042791102 0.041212976 0.051573895 -0.0063464306
0.058841962 -0.009914192 0.017125301 0.01598154 0.039359353 0.009039547 7.892956e-05 -0.0065470696
-0.019392563 0.043414894 0.04728853 0.015875332 -0.033149518 -0.0028872883 -0.028305173 0.013910244
0.017233578 0.044241324 0.032629155 -0.061555956 -0.030214662 0.026834445 0.0552401 -0.04121367
-0.027878933 0.029137017 -0.02351789 0.046688307 -0.021699108 0.043554634 0.022873351 -0.0147216115
-0.034880947 0.040821876 -0.05173973 -0.02338517 -0.04929243 0.05654377 0.0074866586 -0.008161951
0.019734304 0.05615607 0.031766497 0.050896388 -0.032735437 -0.028996782 0.04581886 0.029444605
-0.0033188045 0.04798851 -0.048598155 0.036641177 -0.038901813 -0.036052108 0.012765352 0.04885388
0.046738155 0.011147051 0.030802974 -0.021694914 0.055595852 0.037554715 0.027357435 0.06299758
-0.012683707 -0.03260293 -0.03551227 0.036392756 -0.048318688 0.003687506 0.064102285 -0.02440655
-0.0053889253 0.028810414 -0.037375465 -0.012134182 0.022977535 0.03448514 -0.055489454 -0.05732045
0.032041803 0.024105595 -0.008745501 -0.048604548 0.04468194 0.06342975 -0.03261971 0.04013139
0.055319473 0.0046928725 -0.008136775 -0.025783716 0.06611681 0.046423342 0.040406454 0.059608147
-0.0039549996 0.008462037 0.05742564 0.055099998 0.027393898 0.012547598 -0.0031234073 -0.0010847821
0.03958064 0.04443349 -0.012366732 -0.040284168 0.0021027988 -0.014930503 0.05116001 -0.056290098
0.024920307 0.026191887 0.025321754 0.010506976 -0.019324673 -0.053940073 0.038811143 -0.05736935
-0.059911005 -0.042344745 0.022605643 0.048738237 0.0044962517 -0.025730958 -0.043242726 -0.0002179835
-0.05831772 -0.02664654 -0.03803446 -0.043118544 -0.06366287 -0.017838418 -0.041942727 0.0026113838
-0.008327674 -0.023947433 0.0057633515 -0.017286628 -0.009358659 0.053774856 0.057009168 -0.041862078
-0.037581384 0.020667812 -0.012556678 0.027857468 0.027109403 0.041747466 -0.0144241 -0.02162731
0.03570722 -0.055398993 0.02959072 -0.05228039 -0.024268376 -0.020157548 -0.00091375655 0.05120984
-0.048517305 -0.05371368 0.02216592 0.016722217 -0.05195123 -0.03775941 0.043614816 0.011980849
00000000: ab0c d8bc 4fc4 43bc 979f f33c 2c8b 673c
00000010: ddb4 d03c 221d 70bd 1463 33bd d4db 233d
00000020: 4fde 243d 6d07 843c d20f 713d 50bf b4bb
00000030: d844 653d dbcc 0abd ad23 2cbd cc76 e13c
00000040: b267 cebc 0900 a13c cfe6 5a3c 81af 403d
00000050: 4ccc 4abd 6b14 28bd 5a0f f43c 2e3c c338
00000060: 6b1b 6f3b 558e 90bc b359 493d 7684 95bb
00000070: 26c0 b6bc d080 623d 0f31 e2bb 8de7 0a3d
00000080: f589 b6bc c3bb fa3b d90d 65bb a764 0e3d
00000090: fe5f e0bc bfa7 2abd 0cbe 5abd 4cb1 11bd
000000a0: c769 cc3a 7089 3e3c 22ad 713d 18c2 0f3d
000000b0: 4fe6 bcbc 022e b5bc fe71 bb3b c27c 453d
000000c0: 6e5e 53bd 53d7 2abc c7c5 5dbd dbcb adbc
000000d0: a29a fe3c 2768 683c 715a 25bd ae25 2dbd
000000e0: 770d 2a3d 85a7 243d 16c6 ffbc be49 0ebd
000000f0: 2bed 23bd dca6 443d d162 57bb 1cdf 643d
00000100: b11c 633d 72c0 06bd 73b6 0ebd 2e87 16bd
00000110: 3e6d 3f3d 8824 0ebd be29 1bbd 1ef5 1c3d
00000120: 8f6d 0ebd edca 0bbd e51a 03bd 2d11 05bd
00000130: 5e31 7d3d b3b6 2d3d de9a 5e3d 5854 343d
00000140: 6e98 bf3c 74fa 8fba e852 033c 61a0 8f3c
00000150: b945 2f3d f0ce 283d 263f 533d b8f5 cfbb
00000160: 4504 713d 236f 22bc 5c4a 8c3c b8eb 823c
00000170: 4637 213d 9c1a 143c fc86 a538 cd88 d6bb
00000180: 27dd 9ebc d1d3 313d 9eb1 413d fc0c 823c
00000190: cac7 07bd a938 3dbb 40e0 e7bc cbe7 633c
000001a0: 6f2d 8d3c 6436 353d 26a6 053d 1922 7cbd
000001b0: bd84 f7bc e9d3 db3c 7143 623d aacf 28bd
000001c0: 5c62 e4bc c1b0 ee3c 97a8 c0bc 3d3c 3f3d
000001d0: 54c2 b1bc 5866 323d e560 bb3c ea32 71bc
000001e0: 53df 0ebd d734 273d 0aed 53bd 4292 bfbc
000001f0: dce6 49bd 719a 673d a552 f53b b4b9 05bc
00000200: d6a9 a13c e803 663d 961d 023d bb78 503d
00000210: 9815 06bd a98a edbc 8fac 3b3d d035 f13c
00000220: 4d80 59bb 9a8f 443d dc0e 47bd 0f15 163d
00000230: 8257 1fbd 60ab 13bd c425 513c 021b 483d
00000240: 8270 3f3d 1fa2 363c 8556 fc3c 88b9 b1bc
00000250: 7ab8 633d f9d2 193d b31c e03c e004 813d
00000260: 53cf 4fbc a68a 05bd 5075 11bd 9210 153d
00000270: d1e9 45bd 16aa 713b 0f48 833d 3ff0 c7bc
00000280: 9595 b0bb d103 ec3c 0417 19bd 73ce 46bc
00000290: 623b bc3c 4a40 0d3d e948 63bd d9c8 6abd
000002a0: 443e 033d 1979 c53c 4a49 0fbc 9015 47bd
000002b0: 6904 373d 75e7 813d 3f9c 05bd d060 243d
000002c0: ac96 623d abc6 993b 1c50 05bc 5f38 d3bc
000002d0: 4068 873d 6726 3e3d 3d81 253d ac27 743d
000002e0: f198 81bb 5ba4 0a3c 2637 6b3d 89b0 613d
000002f0: 2b69 e03c 7194 4d3c 14b2 4cbb 3f2f 8eba
00000300: 4f1f 223d e4ff 353d d59d 4abc 0301 25bd
00000310: 1ccf 093b 129f 74bc 298d 513d 7290 66bd
00000320: ac25 cc3c 5e90 d63c 916f cf3c 7425 2c3c
00000330: c74e 9ebc 44f0 5cbd 6ff8 1e3d 20fc 6abd
00000340: 3e65 75bd af71 2dbd 782f b93c bfa1 473d
00000350: 4b55 933b bbc9 d2bc 491f 31bd 8092 64b9
00000360: 90de 6ebd d849 dabc 06ca 1bbd 129d 30bd
00000370: ae61 82bd e021 92bc 23cc 2bbd c023 2b3b
00000380: cc70 08bc 682d c4bc 7fda bc3b b09c 8dbc
00000390: 1055 19bc 0643 5c3d 7282 693d 9277 2bbd
000003a0: f0ee 19bd 8b4f a93c 86ba 4dbc 5835 e43c
000003b0: 8a14 de3c 64ff 2a3d 0f53 6cbc c22b b1bc
000003c0: bc41 123d 0eea 62bd 3d68 f23c f623 56bd
000003d0: 79ce c6bc 7121 a5bc 2a89 6fba 69c1 513d
000003e0: 15ba 46bd e002 5cbd 4e95 b53c 08fd 883c
000003f0: d0ca 54bd 9ca9 1abd 73a5 323d 534b 443c

bias f4 [32]
0.04653848 0.030205604 -0.0077744075 -0.024828294 -0.016857658 -0.02224302 0.037271082 0.055559404
0.04498266 -0.024883524 0.034425188 0.024481326 -0.017394388 0.057556123 -0.037913516 0.03363719
0.042174667 -0.015621078 0.053787816 -0.006399859 0.06299866 0.015788333 -0.000532224 -0.033780903
-0.03390926 0.03580305 -0.0317238 0.010071315 0.039923612 -0.016040256 0.009338116 0.022352705
00000000: 229f 3e3d be71 f73c 75c0 febb b564 cbbc
00000010: 1219 8abc fe36 b6bc 90a9 183d 4292 633d
00000020: bd3f 383d 88d8 cbbc 6d01 0d3d 108d c83c
00000030: ad7e 8ebc f8bf 6b3d 344b 1bbd 26c7 093d
00000040: 58bf 2c3d 8def 7fbc 9d50 5c3d e9b5 d1bb
00000050: 7105 813d 8956 813c f384 0bba d85d 0abd
00000060: 70e4 0abd 38a6 123d d1f0 01bd 2802 253c
00000070: f186 233d db66 83bc e6fe 183c 051d b73c

weight f4 [32, 32, 3, 3]
-0.030557157 0.0321724 0.0085614445 -0.026836427 -0.032093212 0.02147739 -0.033050343 0.05704162
0.043068178 0.030477008 0.021944452 -0.023131033 -0.014540523 0.04411272 -0.015922777 -0.031365238
-0.028275928 0.06153136 -0.012988284 -0.006292433 0.034759656 -0.017948834 -0.0059463177 0.011327769
0.06470656 -0.020875039 0.044780996 -0.04480682 0.030718723 -0.038952652 0.013032641 0.044881377
-0.022411259 -0.008975349 -0.008933171 -0.06265243 -0.024233365 -0.02428239 0.04523846 0.023360835
0.061671995 0.0124414675 0.072221175 0.038210854 0.030272001 0.008878667 -0.026886092 0.0449616
0.030407285 -0.023792766 0.018880634 0.029940913 0.016268516 0.041433454 0.051055122 -0.035198916
0.055897374 -0.02502366 0.007912404 -0.020814663 -0.011838831 0.032599065 0.04438392 -0.019709041
0.033443734 0.04804262 0.06365091 0.058406595 0.044079714 -0.016101347 -4.0400337e-05 0.024612341
0.016424023 0.008856386 0.054660775 -0.0019732441 -0.031755056 -0.016348884 0.064478435 -0.034368634
-0.013933876 0.030548431 0.06313148 0.06428369 0.041892577 0.0059688287 0.059938427 -0.0043930667
0.046751015 0.017808093 -0.023635745 0.053750906 0.021675665 0.016711231 0.033984832 0.05511048
-0.007894719 0.038887426 0.056148484 0.047874637 -0.00016041487 0.029837204 -0.037845973 0.04167728
-0.0572631 -0.00789293 0.0058228136 -0.045694087 -0.030878989 -0.032900788 -0.026365759 -0.016336327
0.0017317072 -0.03734157 0.054117948 -0.03537781 -0.052892353 0.040516604 0.051724274 -0.027967582
-0.031959213 0.005181436 -0.0015373958 0.045678474 0.03434069 -0.052286733 0.056988806 -0.005654249
-0.0009908392 0.04894601 -0.030988893 0.04099158 -0.03727049 -0.0099980105 -0.002768707 -0.032544058
0.014706378 0.049546786 -0.026582703 -0.024721237 -0.016028108 0.026857208 -0.0548333 0.032511085
0.0064193597 0.016941935 -0.02141752 -0.03629205 -0.029134065 -0.006249137 0.054943923 -0.027725551
0.04872289 -0.0015188439 0.025490107 -0.013584665 -0.0028628856 0.020739991 -0.017876303 0.006252377
-0.027204571 0.024586279 0.06762079 -0.00013046674 -0.0022543285 -0.038733147 0.046565026 -0.02138157
-0.034614164 0.0449655 0.01580555 0.055994395 0.01733101 0.030962797 -0.013011388 -0.02560071
-0.05828345 -0.0611697 0.008636126 -0.015947087 0.08203966 0.0019486096 -0.028201932 0.03403463
-0.021841893 -0.025772972 0.05201675 0.050308503 0.0023837956 0.037820097 0.055351187 0.008620504
0.026822723 0.06659268 -0.023920944 -0.0009748365 0.022656847 0.025868742 0.059958562 0.0037931162
0.05125893 0.031405527 -0.021322634 -0.010649331 0.018039871 -0.03734986 0.023590423 -0.030766357
-0.029808495 0.01186985 -0.017769221 0.032371033 -0.0001933984 -0.017305374 0.0400227 -0.029994821
0.043951087 -0.00078897283 0.035742663 0.03277868 -0.014572917 -0.013859273 -0.006857845 0.0337488
-0.0154085485 0.0020284588 0.016462531 0.0013081892 0.06701193 0.073367864 -0.014807488 0.070661366
0.07455601 -0.029601084 0.029759502 -0.030527743 -0.032746106 0.054941904 0.0064701824 -0.021604216
0.0014509801 0.0071494947 -0.03124638 0.035479546 0.025450898 0.008396048 -0.0066797677 -0.036719527
-0.028882952 0.022589289 -0.041557476 0.032936934 0.0050303815 -0.0025915427 0.035354327 -0.03039132
00000000: 0153 fabc 35c7 033d 4d45 0c3c 11d8 dbbc
00000010: 2c74 03bd 5af1 af3c cc5f 07bd 79a4 693d
00000020: 4268 303d ebaa f93c dac4 b33c 4b7d bdbc
00000030: 603b 6ebc 8aaf 343d 7c70 82bc d678 00bd
00000040: eba2 e7bc 4f08 7c3d d0cc 54bc c130 cebb
00000050: 2460 0e3d 6f09 93bc 54d9 c2bb 1b98 393c
00000060: df84 843d 2102 abbc 476c 373d 5b87 37bd
00000070: d5a5 fb3c d18c 1fbd dc86 553c 89d5 373d
00000080: d197 b7bc 580d 13bc 6f5c 12bc eb4f 80bd
00000090: 0d85 c6bc ddeb c6bc f74b 393d 395f bf3c
000000a0: c69b 7c3d 4cd7 4b3c b2e8 933d fc82 1c3d
000000b0: fdfc f73c d477 113c 3940 dcbc a829 383d
000000c0: b318 f93c 0ce9 c2bc 8fab 9a3c a546 f53c
000000d0: 8d45 853c 20b6 293d 2d1f 513d bd2c 10bd
000000e0: a5f4 643d 6bfe ccbc 07a3 013c 8383 aabc
000000f0: a8f7 41bc 9986 053d eacb 353d db74 a1bc
00000100: 4cfc 083d 57c8 443d 695b 823d c13b 6f3d
00000110: ee8c 343d f9e6 83bc 8873 29b8 d29f c93c
00000120: ac8b 863c 601a 113c fae3 5f3d 8b51 01bb
00000130: 9711 02bd 18ee 85bc 450d 843d 20c6 0cbd
00000140: e94a 64bc b440 fa3c 144b 813d 2ba7 833d
00000150: 8d97 2b3d 2a96 c33b ff81 753d b7f3 8fbb
00000160: fe7d 3f3d 47e2 913c c09f c1bc e929 5c3d
00000170: 2a91 b13c fee5 883c ae33 0b3d 87bb 613d
00000180: da58 01bc 6c48 1f3d f4fb 653d 3218 443d
00000190: 0a35 28b9 276d f43c 6104 1bbd ccb5 2a3d
000001a0: b68c 6abd 5951 01bc 4dcd be3b b929 3bbd
000001b0: eff5 fcbc fac2 06bd 01fd d7bc c3d3 85bc
000001c0: 74fa e23a 79f3 18bd c8aa 5d3d 53e8 10bd
000001d0: a7a5 58bd bdf4 253d d5dc 533d 451c e5bc
000001e0: aae7 02bd 09c9 a93b 7182 c9ba 5a19 3b3d
000001f0: d3a8 0c3d 9d2a 56bd 186d 693d 4747 b9bb
00000200: 0cdf 81ba 9d7b 483d 6bdc fdbc c9e6 273d
00000210: f1a8 18bd b2ce 23bc 3273 35bb eb4c 05bd
00000220: 05f3 703c 92f1 4a3d f8c3 d9bc 3184 cabc
00000230: 614d 83bc a603 dc3c e298 60bd 582a 053d
00000240: 7e59 d23b d0c9 8a3c cb73 afbc f9a6 14bd
00000250: 90aa eebc 90c5 ccbb e10c 613d b220 e3bc
00000260: a791 473d f213 c7ba a1d0 d03c 3792 5ebc
00000270: 409f 3bbb eae6 a93c 5371 92bc bde0 cc3b
00000280: 1fdc debc 2a69 c93c c57c 8a3d e6cd 08b9
00000290: 5bbd 13bb a6a6 1ebd f8ba 3e3d 6728 afbc
000002a0: 95c7 0dbd be2d 383d a47a 813c 615a 653d
000002b0: c3f9 8d3c b1a5 fd3c b72d 55bc 95b8 d1bc
000002c0: a0ba 6ebd 148d 7abd 8a7e 0d3c 77a3 82bc
000002d0: 6904 a83d 7d68 ff3a bd07 e7bc e567 0b3d
000002e0: c5ed b2bc d721 d3bc 840f 553d 4a10 4e3d
000002f0: 7439 1c3b 3fe9 1a3d edb7 623d 043d 0d3c
00000300: 54bb db3c be61 883d dbf5 c3bc 2c8c 7fba
00000310: da9a b93c afea d33c 1c97 753d ee95 783b
00000320: e2f4 513d 15a3 003d ceac aebc 887a 2ebc
00000330: 5ac8 933c 2bfc 18bd b440 c13c ba09 fcbc
00000340: f230 f4bc c279 423c c290 91bc 7d97 043d
00000350: fdca 4ab9 00c4 8dbc d8ee 233d b3b7 f5bc
00000360: 0e06 343d 12d3 4eba e666 123d f042 063d
00000370: 3ec3 6ebc 0112 63bc c6b7 e0bb 2f3c 0a3d
00000380: 2374 7cbc e4ef 043b 6edc 863c 8c77 ab3a
00000390: 8d3d 893d e441 963d 1b9b 72bc e8b6 903d
000003a0: d2b0 983d f97d f2bc 33ca f33c 5115 fabc
000003b0: c820 06bd c30a 613d d303 d43b 53fb b0bc
000003c0: d02e be3a 4f46 ea3b 69f8 ffbc 0053 113d
000003d0: 677e d03c 948f 093c f4e1 dabb 3767 16bd
000003e0: f19b ecbc 2c0d b93c 2c38 2abd e1e8 063d
000003f0: e6d5 a43b dfd6 29bb b3cf 103d 38f7 f8bc

bias f4 [32]
0.051767588 0.06740555 -0.030546648 0.0017468635 0.065492295 -0.034490183 -0.00091858197 0.03454351
0.059210643 0.052424792 -0.016041964 -0.05376967 0.0036255673 0.062808424 0.06805178 0.073360145
-0.0001231409 -0.054433923 0.056187913 -0.04922656 0.05587313 0.03489446 -0.008468909 -0.005356431
0.06546917 0.013988942 0.03658242 0.026809538 0.07079917 0.071631625 0.024033913 0.0601327
00000000: 400a 543d ec0b 8a3d f73c fabc 03f7 e43a
00000010: d320 863d 9445 0dbd fecc 70ba 7f7d 0d3d
00000020: dc86 723d 61bb 563d 706a 83bc 963d 5cbd
00000030: ed9a 6d3b b4a1 803d bb5e 8b3d d83d 963d
00000040: 621f 01b9 1bf6 5ebd 4c25 663d caa1 49bd
00000050: 39db 643d 7eed 0e3d 2ec1 0abc 0085 afbb
00000060: b314 863d e031 653c 73d7 153d ad9f db3c
00000070: 28ff 903d 9ab3 923d c5e2 c43c b54d 763d

weight f4 [32, 32, 3, 3]
0.039704278 -0.021296065 -0.048564874 0.024528403 -0.003686022 -0.025126627 0.03971491 -0.04989858
0.034069184 0.0057353526 0.012346503 0.01571868 0.049518894 0.060027566 0.023886848 -0.0030009958
0.05758886 0.051221754 0.037457712 -0.00963598 -0.010017207 -0.0034744092 -0.005734739 0.013235059
0.050249096 -0.041707765 -0.06393592 -0.003318059 -0.019075517 -0.032011595 0.01352072 0.050253406
0.03512962 -0.018754851 0.039138176 -0.023276368 -0.030306604 -0.034591038 -0.023578094 0.009000556
0.025173346 0.0060501494 -0.018330675 0.010883424 -0.014019159 -0.023668034 0.082700126 0.028522179
-0.028846206 0.031336773 0.07051002 0.014542793 0.025565268 -0.005297433 -0.004853619 -0.008977469
0.027267266 -0.035816617 -0.009236973 0.06714621 0.031396437 0.0045424188 0.022670886 0.010717081
0.021777216 -0.032374147 0.08245414 -0.019294048 0.065200925 -0.021807138 0.023084087 -0.03238771
0.013153253 0.041185267 -0.04706124 -0.014856054 -0.032326415 -0.024901997 0.050522577 0.059473474
-0.034732316 0.023504172 -0.01078438 -0.059804283 -0.046895098 0.00038868128 -0.017364994 -0.04090021
-0.022198716 -0.045818903 0.022808937 -0.0628805 0.014873559 -0.03313923 0.0104201725 0.03989214
0.0029373644 -0.0015046652 0.025789537 -0.023477413 0.012477934 0.020702688 0.0342986 -0.01570096
-0.04353561 0.037135683 -0.0029513023 0.0038523301 -0.028156057 0.04329307 -0.025552906 -0.0020856145
0.046475895 -0.04694632 -0.023948176 0.023721615 0.03180637 -0.005818003 0.03446727 -0.02382688
-0.039806258 -0.042727876 -0.041725654 0.06481133 -0.023623444 0.031490084 -0.022235762 -0.025218373
0.002193506 0.013286967 0.019035282 0.03789288 -0.010628512 0.03393607 0.01312643 -0.012189961
-0.026993724 -0.04307362 0.051085647 0.07067045 0.059427246 -0.0089899395 0.04979236 0.03678487
0.062259767 -0.03319202 0.040973227 -0.026665231 0.04039001 0.014215454 -0.0115233585 0.054534867
-0.04524213 -0.017812088 -0.00661798 -0.04452076 0.033418108 -0.0038164014 -0.064868934 -0.018331029
0.001634092 0.010203128 -0.007947441 -0.0045313374 0.03374977 -0.02550851 0.00080391124 -0.002554797
0.05911968 -0.026295176 -0.013903266 0.03238654 0.015159247 -0.053155176 -0.039484255 -0.03954486
0.020873029 0.037315678 -0.02450705 -0.017911805 -0.02099025 0.035438046 0.053691745 -0.012316655
0.04177047 0.0355639 -0.009692572 -0.00549611 -0.010929212 -0.0190731 -0.0431921 -0.01654444
0.019763542 0.03473766 -0.0052400706 0.015880506 0.06332185 0.045339137 -0.029215263 0.048600283
-0.017435491 0.005034628 -0.016489057 0.03011513 6.350641e-05 -0.012387075 0.025529815 0.054404754
0.055014376 0.0711056 0.0037503715 0.043093663 -0.036653902 0.042857926 -0.034631524 0.007470658
-0.035191294 0.04613278 0.03779114 -0.056086652 0.033963487 0.036998637 -0.005703901 0.017846597
-0.010457028 -0.010339739 0.077621266 0.074776985 0.0020492878 0.041115463 0.053630903 0.050122246
0.064438 0.046959274 0.0036619066 0.00012774949 0.0070369793 0.015152442 0.0030199941 -0.03290091
0.08152235 0.04405967 0.009010826 -0.00504085 0.031043734 -0.022526806 -0.0067997873 0.0028631466
0.05786232 0.024959257 0.04620273 0.020879932 -0.019598259 0.050862562 -0.018530257 0.0066953264
00000000: f4a0 223d 1675 aebc f6eb 46bd caef c83c
00000010: 3091 71bb 5bd6 cdbc 1aac 223d 7462 4cbd
00000020: 218c 0b3d a0ef bb3b fd48 4a3c 76c4 803c
00000030: 53d4 4a3d 77df 753d 5aae c33c 5bac 44bb
00000040: 4ce2 6b3d e7cd 513d 426d 193d 3be0 1dbc
00000050: 361f 24bc eab2 63bb 7aea bbbb dcd7 583c
00000060: ffd1 4d3d c3d5 2abd d6f0 82bd cb73 59bb
00000070: 4244 9cbc 971e 03bd 0386 5d3c 84d6 4d3d
00000080: 14e4 0f3d c6a3 99bc 5a4f 203d 15ae bebc
00000090: 8e45 f8bc 55af 0dbd d926 c1bc 1177 133c
000000a0: 5538 ce3c 5540 c63b 362a 96bc 6450 323c
000000b0: 9db0 65bc 77e3 c1bc af5e a93d 58a7 e93c
000000c0: e14e ecbc fd5a 003d 8f67 903d e544 6e3c
000000d0: 416e d13c 1796 adbb 1b0b 9fbb 3c16 13bc
000000e0: 9a5f df3c 72b4 12bd ac56 17bc f483 893d
000000f0: 8d99 003d 92d8 943b 4bb8 b93c b296 2f3c
00000100: 2266 b23c c19a 04bd b7dd a83d 8d0e 9ebc
00000110: 1088 853d e2a4 b2bc d71a bd3c faa8 04bd
00000120: be80 573c e2b1 283d 49c3 40bd cf66 73bc
00000130: b468 04bd 46ff cbbc c3f0 4e3d 759a 733d
00000140: 7943 0ebd d28b c03c f8b0 30bc 56f5 74bd
00000150: 1315 40bd ebc7 cb39 0841 8ebc fb86 27bd
00000160: 15da b5bc 9aac 3bbd cfd9 ba3c 7ec7 80bd
00000170: 3ab0 733c 00bd 07bd 5fb9 2a3c f165 233d
00000180: cc80 403b 3038 c5ba 9444 d33c b453 c0bc
00000190: 4070 4c3c af98 a93c b07c 0c3d 4d9f 80bc
000001a0: 6552 32bd 961b 183d a36a 41bb 6077 7c3b
000001b0: 88a7 e6bc 1354 313d 5454 d1bc ceae 08bb
000001c0: 825d 3e3d c94a 40bd f72e c4bc d553 c23c
000001d0: 6547 023d f2a4 bebb 8d2d 0d3d 9730 c3bc
000001e0: e30b 23bd 6d03 2fbd 85e8 2abd cdbb 843d
000001f0: f485 c1bc bffb 003d c627 b6bc c396 cebc
00000200: edc0 0f3b 94b1 593c e1ef 9b3c 9135 1b3d
00000210: 3623 2ebc 8c00 0b3d 3d10 573c 67b8 47bc
00000220: f121 ddbc f76d 30bd 2f3f 513d abbb 903d
00000230: fc69 733d 8a4a 13bc 13f3 4b3d bbab 163d
00000240: 1904 7f3d 5bf4 07bd 8bd3 273d 0b71 dabc
00000250: ff6f 253d f0e7 683c 78cc 3cbc f45f 5f3d
00000260: d04f 39bd a8ea 91bc a4db d8bb 675b 36bd
00000270: 6de1 083d 971c 7abb 01da 84bd f42a 96bc
00000280: 072f d63a 052b 273c fc35 02bc 9d7b 94bb
00000290: 333d 0a3d 39f7 d0bc 92bd 523a 626e 27bb
000002a0: 7a27 723d fb68 d7bc 86ca 63bc c0a7 043d
000002b0: 7e5e 783c 3eb9 59bd 3eba 21bd cbf9 21bd
000002c0: eafd aa3c 53d8 183d 02c3 c8bc c7bb 92bc
000002d0: bff3 abbc 7c27 113d e0eb 5b3d cccb 49bc
000002e0: 8317 2b3d 74ab 113d 98cd 1ebc b618 b4bb
000002f0: 7010 33bc 313f 9cbc 33ea 30bd 3588 87bc
00000300: 27e7 a13c 1449 0e3d e6b4 abbb d617 823c
00000310: e3ae 813d 88b5 393d d954 efbc 1711 473d
00000320: e0d4 8ebc 85f9 a43b 0f14 87bc 01b4 f63c
00000330: bf2e 8538 29f3 4abc e723 d13c 85d7 5e3d
00000340: c156 613d d09f 913d cbc8 753b fb82 303d
00000350: 6722 16bd cb8b 2f3d c9d9 0dbd 6ccc f43b
00000360: bf24 10bd baf5 3c3d e2ca 1a3d 1ebb 65bd
00000370: 4c1d 0b3d e28b 173d cae7 babb 0733 923c
00000380: f453 2bbc 0268 29bc e6f7 9e3d ad24 993d
00000390: 584d 063b b068 283d 14ac 5b3d fc4c 4d3d
000003a0: 12f8 833d 5e58 403d 99fc 6f3b 7ef4 0539
000003b0: 7696 e63b f341 783c 18eb 453b 1bc3 06bd
000003c0: 31f5 a63d ea77 343d 25a2 133c b72d a5bb
000003d0: 6e4f fe3c 238a b8bc c0d0 debb a1a3 3b3b
000003e0: 0a01 6d3d 5b77 cc3c 133f 3d3d 640c ab3c
000003f0: 878c a0bc 4355 503d c4cc 97bc 7864 db3b

bias f4 [32]
0.036861353 0.06445868 -0.02112591 -0.05805838 -0.05943466 0.016053064 0.07932026 0.04035568
0.013566824 -0.06263608 -0.064927675 -0.066725776 0.023471106 0.05637137 -0.0043144706 -0.03232872
0.007425272 0.03584444 -0.044580504 0.034654126 -0.029667037 -0.03305519 -0.0036778417 -0.019398218
-0.0011102837 0.028167713 0.009478236 -0.025762428 -0.049417716 -0.0043242173 0.013280213 -0.026645532
00000000: eefb 163d ea02 843d 3f10 adbc a0ce 6dbd
00000010: c271 73bd b781 833c a972 a23d ff4b 253d
00000020: 6247 5e3c 5847 80bd cdf8 84bd 86a7 88bd
00000030: 7a46 c03c aae5 663d 6760 8dbb 1f6b 04bd
00000040: b24f f33b 9fd1 123d 0c9a 36bd 7cf1 0d3d
00000050: 4908 f3bc e164 07bd f207 71bb 03e9 9ebc
00000060: f086 91ba fabf e63c 9a4a 1b3c ba0b d3bc
00000070: 3b6a 4abd 2ab2 8dbb 4095 593c bb47 dabc
