Baseline/bestKernel_Num_Set_2.pt (torch_old, 925735 bytes, 16 tensors)

weight f4 [64, 3, 3, 3]
000000 ba 14 26 be ea 52 b3 bd a6 8a 89 bd 6a aa 1f be
       -0.16218844 -0.08756049 -0.06715898 -0.15592352
000010 c7 7b 3f 3d 42 1a b6 3d be be 54 bc 6f be 61 bd
       0.046748903 0.08891727 -0.01298493 -0.055113252
000020 04 43 9e 3c 7a e4 26 be d6 87 02 be 32 28 35 bc
       0.019319065 -0.16298094 -0.1274713 -0.011056947
000030 66 75 25 3e e3 de 8c bd f5 e2 b7 3d 4a 2c bf bd
       0.16158065 -0.0687845 0.089788355 -0.09334619
000040 68 ee 8d bd 18 57 4d be 00 7c 3a 3e d3 6b 57 3e
       -0.06930238 -0.20052755 0.18211365 0.21037225
000050 e2 c7 95 3c b7 ad 14 3e fc 01 39 3e 4a 0b f2 3d
       0.018283788 0.14519392 0.18067163 0.118185595
000060 02 11 f6 3d b1 d5 25 be 32 fc 24 be b2 1a 01 be
       0.12014963 -0.16194798 -0.1611183 -0.1260784
000070 44 f1 a8 3d 05 ad 14 be f4 d1 ff bd de cd 91 bd
       0.08249143 -0.14519127 -0.12491217 -0.07119344
000080 44 9f 1f be b8 0c d1 3c d2 81 52 3d 39 e3 b8 bd
       -0.15588099 0.02551876 0.051393338 -0.09027714
000090 f8 ca 18 3e 59 64 4a bd 44 6e 03 bd 4c 26 2e 3e
       0.14921176 -0.049412105 -0.03208758 0.17006797
0000a0 f2 a7 41 3e 45 75 03 3b aa 88 f1 bd f1 fc 9b bd
       0.18911722 0.0020058912 -0.11793645 -0.07616604
0000b0 a7 06 33 3d 1e 81 c0 3d f9 6c 9d 3d 97 89 d3 bd
       0.043707516 0.09399627 0.076868005 -0.103289776
0000c0 e4 30 4f be 98 79 41 be 9d 13 a6 bd ec f0 96 bc
       -0.20233494 -0.1889404 -0.0810921 -0.018425427
0000d0 70 0f dc bd 03 8b 30 be 94 19 1b 3d e7 14 06 be
       -0.10745132 -0.17240529 0.03786619 -0.13093911
0000e0 c1 fd 05 be ea 6a 10 be 5e 4a 1c bd a1 24 35 3e
       -0.1308508 -0.14103284 -0.03815686 0.17689754
0000f0 27 d7 ae 3d 6d d7 5f bc 55 a0 39 3d a1 ca 6c 3d
       0.08537131 -0.013662201 0.04531892 0.05781043
000100 25 6f a4 bc 7c 43 33 be 81 98 0d be 77 7d 19 be
       -0.02007253 -0.17506212 -0.13827707 -0.14989267
000110 63 1d c0 bc 1f 16 4b be 5a f0 66 bd d5 5e bb bd
       -0.023451513 -0.19832657 -0.05638156 -0.09148947
000120 08 2d 5d 3e ec 28 3d 3e d7 d4 0e 3e 31 c5 1d 3d
       0.2159921 0.18472642 0.1394838 0.038518135
000130 24 2f 0a bd 58 0b 97 3d 84 2d d6 bd fc b3 5b bd
       -0.033736363 0.073752105 -0.104579 -0.053638443
000140 61 26 3c bc 12 09 13 bd 11 48 2f be 28 73 ac 3d
       -0.01148376 -0.035897322 -0.17117335 0.08420402
000150 50 d9 29 3e 0a 95 c6 bd a6 22 6f 3d 4f bf 6d bc
       0.16586804 -0.09696396 0.058382653 -0.014510944
000160 49 11 8a 3a ee 98 94 3c 47 15 35 3e b3 6f 12 3d
       0.0010533716 0.018139329 0.17683898 0.035751056
000170 cf c7 e4 bd 52 fe 6d bd aa 9c d7 3d 17 12 97 3d
       -0.11170923 -0.058103867 0.10527928 0.07376497
000180 e3 ce 62 3c 3d 1f 72 bc 20 f6 81 bd 1c bd 46 bd
       0.013843271 -0.014777956 -0.06345773 -0.048520193
000190 21 f0 a5 bd bf a3 54 3d 4e 77 97 3d 67 bc 2b 3e
       -0.081024416 0.051913973 0.073958024 0.16771089
0001a0 af 94 bc bc db 72 09 3d da f3 13 3e 24 aa d4 3d
       -0.023020117 0.0335568 0.1444849 0.10384014
0001b0 a8 e1 a6 3c f5 1e 60 3d b1 ed b8 3b 3c 7a 2d be
       0.020371273 0.054717023 0.0056435694 -0.1694116
0001c0 60 82 4a 3b 5d 52 3e bd 56 99 2d 3e ba 7b 2d 3e
       0.0030900463 -0.046465266 0.16953024 0.16941729
0001d0 f5 3b 0a 3d 17 b1 32 3e 99 54 c1 bd dd 51 32 3e
       0.033748586 0.17450367 -0.09439964 0.17414041
0001e0 42 7c 2c 3e 83 5e d5 bb 4b 40 18 be 2a ca 70 bd
       0.16844276 -0.006511511 -0.14868276 -0.05878655
0001f0 ec dd 5a bd e2 5e d3 3b 98 d2 22 be 44 7d 4c 3d
       -0.053434297 0.00645052 -0.15900648 0.04992415
000200 69 a8 85 bd 5d a5 08 bd 09 25 ac bd 48 f1 d2 bc
       -0.06526262 -0.033360828 -0.084055014 -0.025749817
000210 84 ce 28 be 02 9c b5 bd 1c 77 00 3d bd e2 fd 3d
       -0.1648503 -0.08867647 0.03136359 0.123967625
000220 0a c4 31 3e 2f a9 14 be 52 0d a2 3d 20 40 df bd
       0.17359939 -0.14517663 0.07912697 -0.10900903
000230 38 7b 13 be f0 88 1c bc 46 97 dd bd 75 3a 23 be
       -0.14402473 -0.009554133 -0.10819869 -0.15940268
000240 03 8f 4b be 51 2c 17 be d1 5b 10 3e 42 8e b6 3d
       -0.19878773 -0.14762999 0.14097525 0.08913852
000250 19 7e c1 bd 1a 4a 15 be df 1b 2a be 76 61 07 be
       -0.09447879 -0.14579049 -0.16612194 -0.13220772
000260 fc f2 c5 bd dc e0 0a 3e c3 d2 a8 3d 4d 3e 66 bd
       -0.09665486 0.1356234 0.082433246 -0.05621176
000270 de 8d 1c 3e 16 30 cd bd af e5 0d be e2 21 7d 3d
       0.15288493 -0.10018937 -0.13857149 0.06179989
000280 2b 39 b2 bd a7 73 95 3d 23 31 2d 3e 79 f4 a5 bd
       -0.0870231 0.072974496 0.16913275 -0.0810327
000290 b8 b4 fc bd 56 4d a4 3d 04 c7 26 be d5 7a 38 3e
       -0.12339157 0.08022563 -0.16286856 0.18015607
0002a0 c1 f7 a6 bd 2c 24 d1 3d 79 16 11 be 54 ff ef bd
       -0.08152724 0.10211977 -0.14168729 -0.11718622
0002b0 97 a5 09 3d 6d 99 a7 3d b4 a1 27 3e 0e 45 35 3e
       0.033605184 0.081835605 0.16370279 0.17702124
0002c0 13 99 b1 3b 01 51 2e bc e1 65 3c 3d 49 c7 e8 bc
       0.005419859 -0.01063943 0.045995597 -0.028415339
0002d0 13 5d e0 3c d8 08 26 be 79 0f 0d be 47 51 1d 3e
       0.027388131 -0.16214311 -0.13775434 0.15363036
0002e0 75 d3 ba bd f5 0f 31 3e 90 b4 2e 3d c8 ac 8c 3d
       -0.091223635 0.17291243 0.042652667 0.06868893
0002f0 37 2e 49 3e 12 6f bc bd bc 22 82 bc 31 bc 3f 3d
       0.19646536 -0.092008725 -0.015885703 0.046810333
000300 ec 9c a3 3d a8 f2 30 be db 78 a5 3d d0 7e ca bd
       0.07988915 -0.17280066 0.08079692 -0.09887469
000310 0a 71 1f 3d 95 01 12 3e 69 6c 00 bc b0 af 95 3b
       0.03892616 0.14258416 -0.007838347 0.0045680627
000320 c6 f0 4f bb 1b 9c 31 3e 50 13 fa 3d 19 1b 38 3d
       -0.0031729206 0.17344706 0.12210715 0.044947717
000330 26 05 d5 bd fc 4d bd bd 7b 4a 29 3e a1 5a 26 3e
       -0.104013726 -0.0924339 0.16532318 0.1624551
000340 60 df 0a 3e ed 1a 01 be 9b c1 32 3e 93 48 d0 3b
       0.13561773 -0.12607928 0.17456667 0.006356308
000350 d5 81 2a 3e 12 39 44 3e ca 8b 3b 3d 58 c9 63 bd
       0.1665109 0.19162396 0.04578761 -0.05561194
000360 af 6d 3e 3e 72 79 b8 bd fd f2 07 3e 25 df 2f be
       0.18596528 -0.09007539 0.13276286 -0.17174967
000370 21 52 3f bd 3d 57 1d be d8 b8 92 bd dd d7 c1 3d
       -0.046709184 -0.1536531 -0.071641624 0.09465001
000380 b9 97 fa bd 0e d3 30 be a5 b1 13 3e 64 a0 de 3d
       -0.1223597 -0.17268011 0.14423235 0.10870436
000390 b7 af 50 3a 02 eb 00 be f6 0b 25 bd 91 52 6b bd
       0.0007960754 -0.12589648 -0.04029461 -0.05745179
0003a0 58 36 05 3e 87 56 51 bd 3d fd 19 bd ec 37 eb bd
       0.13009012 -0.05110791 -0.037595022 -0.114852756
0003b0 c7 7e 92 bd 45 0f 02 3e e8 a0 18 3e fc f3 53 3d
       -0.07153087 0.12701137 0.14905131 0.051746354
0003c0 99 f0 4b bd 86 be 56 3e dc c4 7c 3d dd 22 a2 bd
       -0.04979 0.20971116 0.061711177 -0.07916806
0003d0 62 cc 92 bd a9 22 03 bd 6c e4 b0 3d 37 5b 86 3d
       -0.07167889 -0.032015476 0.08637318 0.065603666
0003e0 72 d3 09 3e b5 b7 5e bc cd 02 1e 3e 5e 04 aa bd
       0.13459566 -0.013593604 0.15430756 -0.08301614
0003f0 da af 92 bd ba e1 5f bd 1d 82 25 be 1f a4 dc bd
       -0.07162447 -0.05465863 -0.16162916 -0.10773491

bias f4 [64]
000000 87 18 ee 3d 69 42 0b 3e f6 26 3c 3e ec 19 8b 3d
       0.11625772 0.13599552 0.18374237 0.067920536
000010 b6 d6 87 3d c0 36 76 3d 1c 3d d4 bd e6 41 78 3d
       0.0663275 0.060110807 -0.10363218 0.06060972
000020 44 f7 70 3d 3b 89 1e be 92 74 62 bd e0 de e8 bd
       0.05882956 -0.15482037 -0.05528695 -0.11370635
000030 20 73 ef bd ab 44 06 3e 72 9a 15 3e 40 73 5f bc
       -0.1169188 0.13112132 0.14609697 -0.013638318
000040 22 aa 76 3d 32 31 34 bd 65 e2 2e 3d 30 44 5c bc
       0.060220845 -0.04399223 0.042696375 -0.013443992
000050 3b 86 ca bd 97 80 97 bd c8 c0 3d 3e 75 e7 01 3d
       -0.09888884 -0.073975734 0.18530571 0.031714875
000060 7b 94 bf bd ff b2 bd 3c c9 86 42 be 8b 51 21 3b
       -0.09354492 0.023156641 -0.18996729 0.0024615254
000070 c7 4f 19 3e 84 23 16 3d 63 67 32 3d a2 c4 44 be
       0.14971839 0.036654964 0.04355563 -0.19215634
000080 b7 e8 27 bd 72 9b fa 3d 88 e0 10 be 77 2b b5 bd
       -0.04099342 0.1223668 -0.14148152 -0.08846181
000090 36 56 05 3e 1f 8c 55 3d aa 64 b7 3d e7 53 26 be
       0.13021168 0.052135583 0.08954747 -0.16242944
0000a0 ed ce 02 3e 8b 82 23 bd 5d 8c 50 3d 76 5b 24 3e
       0.12774248 -0.039919417 0.05091511 0.16050515
0000b0 7b 17 2d be 1e a5 40 3d d0 9a 27 be 94 c2 10 3e
       -0.16903488 0.047032468 -0.1636765 0.14136726
0000c0 85 4b 78 3d 5c 67 24 3d 1b fe a4 bd a3 72 a6 3d
       0.060618896 0.040137634 -0.08056279 0.08127334
0000d0 c2 a6 cc bd 3d a3 13 3d 8c bc 26 3e a2 ff 11 be
       -0.09992744 0.036044348 0.16282862 -0.14257672
0000e0 30 a7 72 bd 56 7a 5e 3d d6 10 37 3d 96 a1 00 3b
       -0.059241474 0.054315887 0.04469379 0.0019627563
0000f0 3e 5f 2c 3e ce 77 28 bd a2 0c 6e 3d 1b 3d db 3d
       0.16833207 -0.04112988 0.058117516 0.10705014

weight f4 [64, 64, 3, 3]
000000 35 90 84 bc f5 7d c0 3c 92 93 d1 3c 85 dd 49 3c
       -0.016182045 0.023497561 0.025583062 0.012320881
000010 ce 83 ea bb 55 ee 17 3d 53 b2 c5 bc d6 99 9f 3c
       -0.0071568256 0.037092526 -0.024132883 0.019482534
000020 5a 64 8e 3c c2 c8 a9 3c d2 6a 26 bd c8 af 6d b7
       0.017381836 0.020725612 -0.040629216 -1.4167228e-05
000030 8d 73 a7 bb 1c 41 20 3d 06 05 01 3d 6c 0b 65 bc
       -0.0051102103 0.039124593 0.03149893 -0.013979774
000040 60 9f 7a 3c 87 2b d8 3c b2 80 97 3c b5 b6 24 3d
       0.015296787 0.026387943 0.018493984 0.040213306
000050 36 17 c2 3c 12 1d e0 3b d2 8c de 3c 2a a4 18 bd
       0.023692708 0.006839403 0.027166758 -0.037265934
000060 cb 93 13 3d e6 e7 26 3b 4b 0d 1d 3d ea 65 59 3c
       0.03602962 0.0025467812 0.038342755 0.013268927
000070 42 25 5f 3b db 5a 02 3d 0b 77 c0 bc de 2f 69 3c
       0.0034049307 0.031824928 -0.023494264 0.014232604
000080 c4 bc b8 3c 68 ea 6c bc 11 72 8c 3c d3 6d 1a bd
       0.022550948 -0.014460184 0.017144235 -0.037702393
000090 a4 c2 cb bc ed 02 98 3c 25 09 9e 3c 0b 7b 24 bd
       -0.024873085 0.018556083 0.01929147 -0.040156405
0000a0 35 5d 4f 3c cc 91 08 3b 6b 29 1f 3d 30 51 2d bd
       0.0126565 0.0020838855 0.03885786 -0.042313755
0000b0 bf d2 3f bc f0 2b be bc f9 72 a9 bc 35 d2 e4 bb
       -0.011707961 -0.02321431 -0.020684706 -0.0069830664
0000c0 30 1c 2b bd 58 ef 0b 3d 45 88 95 bc 51 e1 4b 3c
       -0.04177493 0.034163803 -0.018253455 0.012443856
0000d0 8d f9 bc bc c7 e4 50 3a 3e 02 fc bc 6a c1 11 3d
       -0.023068214 0.0007968661 -0.030762788 0.035584845
0000e0 41 aa 1e 3d eb 9b ff 3c 61 01 16 bc 11 5f e4 3c
       0.038736586 0.031202277 -0.009155602 0.027877362
0000f0 61 02 12 bd 5e 51 92 3c 9a 7e 7a bb 56 59 03 bd
       -0.0356468 0.017861065 -0.0038222433 -0.03206762
000100 54 b6 e7 bc a2 95 10 bd 55 8a 13 3c 6a 52 4b bc
       -0.028285183 -0.03529895 0.009005149 -0.012409786
000110 1c 82 7d bc 2f 21 37 3d 32 6c 3d bc bf e9 a9 3c
       -0.015472915 0.04470938 -0.01156144 0.020741342
000120 f5 8b ba bb 0b 3b 10 3d c0 57 bc 3c 27 07 e6 3c
       -0.0056929537 0.035212558 0.022991061 0.028079582
000130 c8 34 83 3c 73 7d 26 bc 02 7a 19 3d 5e 29 37 3b
       0.016016379 -0.010161745 0.03746987 0.002794824
000140 74 b1 b5 bc b5 5f 3e 3c d2 7a 03 bc b7 42 08 bd
       -0.022179343 0.011619498 -0.008024888 -0.03326675
000150 d2 2f 95 3b 59 a6 2e bc 66 f9 8e bc d1 30 a9 bc
       0.0045528198 -0.010659778 -0.017452907 -0.02065316
000160 89 c7 97 bc 26 09 91 bc 6c ab 44 3b 37 cd 1f 3d
       -0.018527763 -0.017704558 0.0030009402 0.039014068
000170 46 fb d2 bc 39 05 aa bc b2 01 ee bc ee 12 39 bb
       -0.025754582 -0.020754443 -0.029053543 -0.0028240043
000180 dc 44 d6 3a 24 66 f5 bc 17 26 93 3c c1 cc 05 bd
       0.0016347426 -0.029955931 0.017962499 -0.03266597
000190 e9 6c 35 3d 3f 95 5d 3c f9 c2 e5 b8 2a da 38 bc
       0.044293318 0.013524353 -0.000109558874 -0.011282483
0001a0 50 de c8 3c a8 82 04 3d d1 68 cf bc 19 ec b3 bb
       0.02452007 0.032351166 -0.025318535 -0.0054907915
0001b0 52 2f fb 3c 51 32 27 bb 88 d8 cc bc 99 cf 42 bc
       0.030662213 -0.0025512169 -0.025005594 -0.011890315
0001c0 b6 f0 97 3b 5f 8f 53 bb f2 ab b9 bc e8 2a b9 bc
       0.0046368493 -0.00322815 -0.022664998 -0.022603467
0001d0 f5 c6 a4 3c bb 7b db 3c f3 70 0a 3d d4 f1 e1 bb
       0.020114401 0.026792398 0.033799123 -0.0068952832
0001e0 52 21 6b 3c 3a 73 15 bd 6f e8 9d 3c 9e b5 1b 3d
       0.014351206 -0.03648684 0.019275872 0.038015
0001f0 bb e6 a3 3c 48 80 96 bc 98 db 04 3d 3e bf 30 bd
       0.020007482 -0.018371716 0.032435983 -0.043151133
000200 c2 49 dd bb 02 c4 44 bc ad 65 30 bd 18 c7 d0 bc
       -0.0067531774 -0.0120096225 -0.043065716 -0.02548556
000210 ed 88 03 bd b9 9a 1c 3c 5a b0 a3 bb e4 39 22 3c
       -0.032113004 0.009558373 -0.004995388 0.0099014975
000220 c0 f2 85 b6 a3 c4 d5 3c 08 d5 99 3b ba 53 12 3d
       -3.9919687e-06 0.02609474 0.0046945848 0.03572438
000230 aa 82 51 3d 61 27 4e bc 25 d3 b4 bc 43 cc 30 3d
       0.05115 -0.012582631 -0.022073338 0.04316355
000240 b1 23 1e 3d 19 fe 14 bd 6a 59 1d bb 18 6c 95 bc
       0.038608257 -0.03637514 -0.0024009594 -0.01824002
000250 a9 f9 14 3d 1f 91 08 3d a1 ad e7 3c 5a 74 ad 3c
       0.036370907 0.033341523 0.028281035 0.021173645
000260 1a 05 96 bb b1 30 18 3d 6d e2 bc bc c0 ea f9 b9
       -0.004578245 0.03715581 -0.023057187 -0.00047667883
000270 8d f5 4a bc 26 97 02 bd 8e ae ad bc b9 5a 0f 3c
       -0.012387645 -0.031882428 -0.021201398 0.008749657
000280 60 05 a9 bb 03 23 ed bc 0d ea c5 bb e1 2c cb 3b
       -0.0051581115 -0.028947359 -0.006039864 0.0062004183
000290 73 84 f7 bc 72 df c6 3c 07 7b 15 bd 2a 81 32 ba
       -0.030214524 0.024276469 -0.03649428 -0.0006809408
0002a0 97 cb 0f bd 06 9c 1e bd 8f c4 cb bb d0 0a 02 3d
       -0.035106268 -0.038723014 -0.0062185 0.031748593
0002b0 79 2c 1f 3d 55 bc bd 3c 95 b3 d4 3c ef 10 55 bc
       0.03886077 0.023161093 0.025964538 -0.013004526
0002c0 91 0c a3 3c 62 36 b8 3c b2 b1 28 bd 9a 2d b6 bc
       0.019903453 0.02248687 -0.04118509 -0.022238541
0002d0 cf ff 88 3c 7e 68 29 3b d8 fd f6 bc 66 55 0d bd
       0.016723542 0.0025849636 -0.030150339 -0.03450527
0002e0 ab cd dd 3c c1 c1 46 3b b0 80 c6 ba 9d 21 2a bd
       0.02707561 0.0030327889 -0.0015144553 -0.041535962
0002f0 3e 87 11 3d dc 93 d9 bc df 3c b4 3c 13 76 3e bb
       0.035529368 -0.026559763 0.022001682 -0.0029062077
000300 78 3b 77 3b c2 c9 ba 3c c7 7d f9 bb 85 20 36 bc
       0.0037724655 0.022801284 -0.007613871 -0.011116152
000310 0f 3d 09 3d 5c f8 e9 bc f4 d6 90 3c 9b 68 4a bc
       0.033505496 -0.02856081 0.017680623 -0.012354041
000320 90 5a 8c bc 97 72 dd 3c 0f 52 83 3b f6 41 24 bd
       -0.017133027 0.02703218 0.004007585 -0.040101968
000330 6d 8a 14 3d e8 5f b2 bc 66 5b 0c 3d 29 e9 67 bc
       0.036264826 -0.021774247 0.03426685 -0.014154711
000340 b9 b4 21 3d 36 7a 35 3c 24 26 52 bb ac 14 72 3c
       0.03947899 0.011076501 -0.003206619 0.014775436
000350 d1 67 22 bb 3e c6 b3 bc 2d ac b0 3c 2f 1d d3 3c
       -0.0024781118 -0.021945115 0.021566475 0.025770752
000360 8f 39 3a bb 74 a9 51 3d 70 ab 69 3c 7d fa 9f bc
       -0.0028415655 0.051186994 0.014262065 -0.019528622
000370 87 75 0e bc 25 aa 0f 3d fe e4 48 bc 4f a1 0b 3d
       -0.008695013 0.03507437 -0.012261627 0.034089383
000380 74 21 05 bd 4a e9 91 3a 57 a6 f0 bc 0a 56 38 3c
       -0.032502607 0.0011132148 -0.029376192 0.011250982
000390 4d 10 0a 3d 72 1f 5f 3c e9 d1 71 bc a0 80 27 bd
       0.033706952 0.013618337 -0.014759519 -0.04089415
0003a0 06 d5 a7 bc b0 10 d2 bc 66 2e 12 3d 2d b3 b2 bc
       -0.02048732 -0.025642723 0.03568878 -0.021813953
0003b0 21 a3 5e 3c 06 2d eb 3c 33 dc 75 3c d6 2d 26 bd
       0.013588698 0.028707992 0.015006113 -0.040571056
0003c0 f2 42 1e bc 44 5d 6f bc db fb c9 3c f6 41 a7 bb
       -0.009659516 -0.014609639 0.024656227 -0.0051042987
0003d0 3e 7d 53 bb 16 a4 12 3d 7e 67 0f 3c f6 8c 94 3c
       -0.0032270695 0.035801016 0.008752702 0.018133622
0003e0 f1 5a 70 bc cc e8 d4 3c 05 4d 9c 3b ae 78 1f bc
       -0.01467012 0.025989912 0.0047699236 -0.009733362
0003f0 b0 34 f0 3b 94 a8 0c bd 76 46 e7 39 4a 62 94 3c
       0.0073304996 -0.034340456 0.0004411225 0.018113274

bias f4 [64]
000000 8a 74 28 bd c7 1b 94 bc 10 bf 1c bd f9 be e6 bc
       -0.041126765 -0.018079652 -0.03826815 -0.028167235
000010 27 5a ba bb 61 40 0e bd 81 d8 47 3c 9c 6a e5 bc
       -0.0056870165 -0.034729365 0.012197615 -0.028004937
000020 d6 77 c1 bc a4 62 dd bc aa dd de 3c 9f bc 57 3c
       -0.023616713 -0.027024575 0.027205307 0.013167529
000030 e3 78 67 bc 17 c8 09 bd c1 c4 0c bd 55 4b 66 3c
       -0.014127943 -0.033638086 -0.034367327 0.0140560465
000040 2c f5 dc 3c cf 5e 50 3a 7e 00 1b bd 6f e1 71 3c
       0.026972376 0.0007948698 -0.037842266 0.01476322
000050 38 2d f7 bc 93 2e 97 bc 96 87 04 3d 0d 9c da 3c
       -0.03017293 -0.018454826 0.032355867 0.026685739
000060 99 84 b2 bc d1 9c 9d ba ec c7 f7 bc b5 d6 0d bd
       -0.021791743 -0.0012024884 -0.030246697 -0.03462859
000070 29 62 dc bc 87 8e c3 3c 8e 86 1a 3c 90 b7 2f bc
       -0.026902275 0.023871673 0.009431494 -0.010724917
000080 9f 90 8f 3c 3f ce b8 bc 03 bc 0b bc 59 f4 13 bd
       0.017525015 -0.022559283 -0.008528712 -0.0361217
000090 8b f9 8d 3b 33 ce 81 3c 15 9c 8a bc 84 85 16 3d
       0.0043327264 0.015845394 -0.016920129 0.036748424
0000a0 19 89 3e bc 68 32 87 3b 2f 68 c4 bc 6b 89 1f bc
       -0.011629366 0.004125882 -0.02397546 -0.009737353
0000b0 57 1f 33 3b cd f7 88 3c 86 3f 2d bd e0 2b 04 3d
       0.0027331912 0.016719723 -0.04229691 0.032268405
0000c0 76 95 b9 bc 20 18 ca bc 11 b6 48 bc a8 02 cf b9
       -0.022654276 -0.024669707 -0.012250439 -0.00039484096
0000d0 cc ba 39 bd dd e9 8c 3b 75 2b f1 bb 1f 27 f4 3b
       -0.04534416 0.0043003396 -0.007359917 0.0074509527
0000e0 dd 3a 1f 3b 51 9d 31 bc 32 dc 4a 3c f3 37 dd 3c
       0.002429656 -0.01084073 0.0123816 0.027004218
0000f0 d2 c3 bf 3c 32 02 63 3b 06 ff 88 bc db 67 b7 3c
       0.023408804 0.003463876 -0.016723167 0.02238839

weight f4 [64, 64, 3, 3]
000000 fd 24 39 bc c2 93 92 3c 3a cd 97 3c 34 97 c6 bc
       -0.011300323 0.017892722 0.018530477 -0.024242021
000010 16 0a 17 bc 52 bd 72 3c c5 46 0d 3d a5 fc 1f 3c
       -0.009218713 0.014815645 0.03449132 0.009764825
000020 28 0d b8 3c 43 d7 f3 ba 65 0b d5 bc e2 99 ab 3c
       0.02246721 -0.0018603582 -0.02600641 0.0209474
000030 e5 07 b8 3c 1c 57 79 3c 7d 08 84 3c 16 f7 bd 3c
       0.022464702 0.015218522 0.016117329 0.023189109
000040 84 c6 1e 3c 19 5f 81 bb 06 b9 1e bd 43 8a 4f 3b
       0.0096908845 -0.003948104 -0.03875067 0.0031668104
000050 b8 4b 2d 3d de e9 52 3c 01 ea 94 3c 12 07 33 3b
       0.04230854 0.012873141 0.018177988 0.0027317447
000060 77 a3 05 3b 33 42 0a 3d a6 e2 e8 bb 42 49 a8 bb
       0.0020391622 0.03375454 -0.0071070967 -0.005135686
000070 12 d9 d0 bc 97 c9 18 bd 8d 13 db 3c e4 dd e8 ba
       -0.025494132 -0.037301626 0.026742721 -0.0017766324
000080 8e 98 0c bd 1e 5b 0c 3d 8f 4d 7e 3b 8b 3a 96 bb
       -0.034325175 0.034266584 0.0038803553 -0.0045846156
000090 31 3d ce bb 05 a9 a9 bc ca a1 eb bc 4a 1c 84 3b
       -0.0062939157 -0.020710478 -0.02876367 0.0040316926
0000a0 ee 15 b2 bb e3 87 06 3d b1 f4 75 bc 0c e2 c1 bb
       -0.005434743 0.032844435 -0.015011952 -0.0059168395
0000b0 a9 63 62 bb fa 71 87 bc 1c 8c c1 3c 42 66 d8 bc
       -0.0034544265 -0.01653384 0.02362638 -0.026415948
0000c0 b2 41 9f bc 46 d0 7a bb ec fd de 3c 79 c5 61 bb
       -0.019440506 -0.0038271113 0.027220689 -0.0034449978
0000d0 2d 97 a1 bc c5 98 27 3c d1 9a 1d 3c e4 6a cc 3b
       -0.019725407 0.010229294 0.009619431 0.0062383283
0000e0 b8 09 23 3d 15 cb b4 3c 0c 6c 46 bc 52 50 02 3d
       0.03980419 0.022069493 -0.012110721 0.03181488
0000f0 86 f1 2e 3d c5 44 ad 3c b8 68 04 bd df ed b0 bb
       0.042710803 0.021150956 -0.03232643 -0.00539945
000100 d6 bb a8 bc 7f ba 99 bc 38 8d 0f bd eb 2f 4a 3c
       -0.02059738 -0.018765686 -0.035046786 0.012340526
000110 29 0e cf bc 1b df 62 3c 02 1c 7b bc 73 de 06 3d
       -0.025275307 0.013847138 -0.015326502 0.032926988
000120 91 11 c4 bc 9b 9d 26 3d c2 15 24 3d 3f ee 75 bc
       -0.023934158 0.040677648 0.040059812 -0.015010416
000130 3d 62 42 3d 50 a7 f5 bc 40 c0 9a 3c 43 cf 6c bc
       0.04745697 -0.029987007 0.0188905 -0.014453712
000140 42 06 44 3d 04 09 30 3b b1 4a 0a bd 7d 6c 6e 3c
       0.04785753 0.0026860842 -0.033762638 0.014552233
000150 e1 56 96 bc 3a ef ca bc f4 f4 d9 3c 90 b5 04 3d
       -0.018351974 -0.024772275 0.02660606 0.032399714
000160 52 57 1f 3d b7 8c 3e 3c 70 cc 36 3d 4c da bf 3c
       0.038901635 0.011630229 0.04462856 0.023419522
000170 eb 16 35 3d e5 8d 02 3d b8 12 29 3b af ae c7 3c
       0.04421131 0.031873602 0.002579851 0.024375288
000180 24 a5 cf 3c 8b 1d ce 3c 07 2a 80 3b 21 18 09 bd
       0.0253473 0.025160572 0.00391126 -0.033470277
000190 8e 63 09 3d ce 05 24 bd db c6 05 bd 80 e8 30 bc
       0.03354221 -0.0400446 -0.032660346 -0.01079762
0001a0 c8 c6 97 bc 2e 2a ba 3c 13 ae f2 ba a1 7a 16 bd
       -0.018527403 0.022725191 -0.0018515013 -0.03673804
0001b0 17 7b 02 3d 17 cc 87 3c 17 46 1d bd b4 cd 2e 3d
       0.03185567 0.01657681 -0.03839692 0.042676643
0001c0 74 19 0a bd c7 d0 25 bc 93 09 30 3d 63 58 b3 3c
       -0.03371568 -0.010120577 0.04297788 0.021892732
0001d0 72 ee f0 3c a7 55 cc bb 38 fb f5 bc 56 88 8e bb
       0.029410575 -0.0062357965 -0.030027017 -0.0043497486
0001e0 7c 44 e5 3c b8 f7 19 3d 9d 8c d2 3c 47 1e 27 bc
       0.027986757 0.03758976 0.025701815 -0.01020009
0001f0 76 a4 01 3d f2 15 27 3d bb 78 19 bd 6c 6a 5d bc
       0.031650983 0.040792413 -0.037468653 -0.0135141425
000200 d9 59 f5 bc 62 ef 0f bd 72 e6 a0 3c 54 18 0f 3d
       -0.02995007 -0.035140403 0.019641135 0.03493531
000210 3b bb ca bb 93 43 10 bc c2 3a 82 3a 4a 44 ee bc
       -0.0061868704 -0.008805173 0.0009935724 -0.029085297
000220 e8 30 18 3d 86 c2 c2 3b fc 68 04 3d 0f 66 3c 3d
       0.037156016 0.005943599 0.032326683 0.04599577
000230 ff 3c 1f 3d f9 62 be 3c 32 32 68 3a b5 4e 16 bb
       0.03887653 0.023240553 0.00088575773 -0.0022935097
000240 ba 77 2e 3d 57 c6 c3 bb 9c 19 22 3d 37 6b 02 bd
       0.04259465 -0.0059745717 0.039575204 -0.03184053
000250 67 f1 1b bd a7 bf 1d 3d c7 65 bc 3c 4b 34 18 bd
       -0.038072016 0.038512852 0.02299775 -0.037159245
000260 6f e6 5e 3c e1 65 cd bc 0d a7 f3 3b 62 01 bb 3b
       0.013604744 -0.025072994 0.0074356855 0.005706952
000270 03 f5 a1 bc 88 ee ea 39 c7 94 98 bc ed b5 d7 3c
       -0.019770151 0.00044809678 -0.01862563 0.026331866
000280 06 5e ce bc 14 76 2e 3d db 53 7e bc 73 98 27 3d
       -0.025191318 0.042593077 -0.015522922 0.04091687
000290 c3 b2 34 3d 67 72 a6 3c 70 82 a3 3c ad 7f ea bc
       0.044115793 0.020318223 0.019959658 -0.028625334
0002a0 18 f1 84 3b 61 b5 f6 3c b6 9b de bb ca bf 0c bc
       0.004057061 0.030115785 -0.0067934645 -0.008590648
0002b0 1b 5e e1 bb 91 0f 06 bc aa 6d 30 bc 58 2c b5 3c
       -0.0068776733 -0.008182422 -0.010768333 0.022115871
0002c0 1f 1a 6a 3c c6 89 44 bc e4 27 89 bc d4 bb cd bc
       0.014288454 -0.011995738 -0.016742654 -0.025113977
0002d0 7b cd 05 bd c5 3f d8 ba 52 a1 12 3b 89 69 c6 3c
       -0.032666665 -0.0016498497 0.0022373986 0.024220245
0002e0 b0 1d 63 bc 98 57 ba 3c 2c 33 99 bb d5 ba cf 3c
       -0.0138620585 0.022746846 -0.0046752896 0.025357643
0002f0 9d 84 2d 3d 29 56 f4 3c 71 0a 24 3d 00 ba 62 3c
       0.042362798 0.02982624 0.04004902 0.013838291
000300 78 99 4c 3b 26 12 b2 3c 7a 74 15 bd 4e 9a 0e 3d
       0.0031219404 0.02173717 -0.036488034 0.034815125
000310 17 71 92 bc e2 18 25 bd 10 8e 2c 3b 77 bf 3c bd
       -0.017876191 -0.040306933 0.0026329793 -0.046081033
000320 2f 07 32 bc 7a 14 14 bd 62 ca f3 bc 6d de 8b bc
       -0.0108659705 -0.03615234 -0.02975959 -0.017073834
000330 6a 3a 65 3c 5d 5f 6a bd 3c 06 06 bd ca a1 dd 3c
       0.013990978 -0.05721985 -0.03272079 0.027054686
000340 61 16 39 3d 86 d4 48 3d 46 ec ec bc 77 2e 01 bc
       0.045187358 0.049030803 -0.028921258 -0.007884613
000350 a0 3a 21 ba e3 16 81 bb ab 8b 90 3c 0d 88 f7 3c
       -0.00061503984 -0.003939496 0.017644724 0.030216241
000360 6e c1 f9 3b db d6 91 3c f8 e5 36 3d 86 fb e6 bc
       0.0076219356 0.017802646 0.04465291 -0.028196108
000370 09 51 e9 3c 75 b6 29 bc 9a 9a 35 3c 40 58 1e 3d
       0.028481023 -0.010358443 0.011084223 0.03865838
000380 7a 16 c7 3c b5 30 53 3b 00 63 bc bc bf 92 49 3c
       0.02430271 0.0032225077 -0.022996426 0.012303053
000390 22 50 8f 3b 58 0a 49 3d 44 9a 2c 3d 27 52 4d bb
       0.0043735662 0.04908213 0.042139307 -0.0031329484
0003a0 f3 90 0b 3d 79 e0 be 3c db 3c e8 3c 70 2c 14 bc
       0.03407378 0.023300396 0.02834933 -0.009043798
0003b0 c6 35 73 b9 6c cf 99 3c d0 63 61 3c 91 96 f2 bc
       -0.00023194318 0.018775664 0.013756707 -0.029612811
0003c0 2b 8f a6 3c eb 85 4c 3d 6e d2 4b bc 1c 03 c3 3b
       0.02033194 0.0499324 -0.012440307 0.0059512984
0003d0 23 c1 11 bc 94 23 cd bc f9 42 23 bc 69 f5 99 3c
       -0.008896145 -0.025041379 -0.009964698 0.018793778
0003e0 0f bd 9e bc ac 10 c0 bc af 23 b5 bc 6a e7 07 bc
       -0.01937726 -0.02344545 -0.022111742 -0.0082949195
0003f0 f3 17 f5 bc 71 d9 0d 3c 64 c4 9c 3c 7e 12 8b 3c
       -0.029918646 0.008657799 0.019136615 0.016976591

bias f4 [64]
000000 97 6d 05 39 59 7f cf ba e6 95 f9 bc 8d 9f 4d bc
       0.00012724694 -0.0015830799 -0.030466985 -0.012550247
000010 40 d8 a7 bc d5 39 72 bc b1 73 26 3c 68 f7 be bc
       -0.020488858 -0.014784296 0.010159419 -0.023311332
000020 31 2e a7 bc e2 cc 1b bd 1f 3c 2a 3d b0 8d 85 3c
       -0.020407768 -0.03803719 0.041561242 0.016302913
000030 07 96 e9 bc 3b 51 46 3c 60 e6 01 bd 84 de 9f 3c
       -0.028513921 0.012104328 -0.031713843 0.019515283
000040 a9 ec c0 3c e6 d6 f4 3b 9d 32 d1 3c 1d 5b 38 3d
       0.023550348 0.007471907 0.02553683 0.045008767
000050 d5 75 44 bb fa 7a be 3c b5 92 2d 3d e2 f3 10 bd
       -0.002997746 0.023252 0.04237624 -0.035388835
000060 53 54 c0 bc 3b 20 24 bd 9f af 36 bd 6a 20 06 bd
       -0.023477709 -0.0400698 -0.04460108 -0.032745756
000070 90 00 e9 3c 5a c9 2f bd ff ef b3 3c f2 fd 05 bd
       0.028442651 -0.042916633 0.021965025 -0.032712884
000080 8b 34 ef 3c 67 78 07 3d 4c 5e 0c 3d fd 4e c0 bc
       0.02919986 0.03307381 0.034269616 -0.023475165
000090 e6 fb 9c bc 01 56 f0 bc ed 3c db 3c 6b 84 10 bd
       -0.019163083 -0.029337885 0.02676245 -0.035282534
0000a0 50 82 c5 3c 23 62 ff 3b 7b 28 5e bb 4a 4c b3 3c
       0.02410999 0.007793681 -0.003389864 0.021886963
0000b0 a6 f3 6d ba 2a 0e 16 bd 26 d4 c2 3c d0 3d 0b bd
       -0.0009077139 -0.0366346 0.0237828 -0.033994496
0000c0 ec aa 08 bc 44 a2 50 3c 4a 6f 0e 3d d2 02 21 bd
       -0.008341532 0.012734 0.034774102 -0.03930933
0000d0 21 22 00 bd 40 29 f7 3c fb 86 80 bc b2 3a 79 3c
       -0.031282548 0.030171037 -0.015689364 0.015211748
0000e0 72 f7 0f 3d 9e 20 10 3d 2b 7a 1e bb 1f f9 c0 3c
       0.03514809 0.035187356 -0.0024181705 0.02355629
0000f0 f2 cc ae bc b8 ac c9 bc 3c f8 cd 3c 56 70 96 bc
       -0.02133796 -0.024618492 0.025142781 -0.018364113

weight f4 [64, 64, 3, 3]
000000 f9 7f bd ba 56 f3 9e bc e9 41 8a bc dd 1e 0e 3d
       -0.0014457694 -0.019403141 -0.016877132 0.034697402
000010 13 ed 1e bd 2c 11 46 3c 2f f7 fe b9 bf 83 c4 3c
       -0.03880031 0.012089055 -0.0004863082 0.023988603
000020 1b 83 01 bd 92 5c 11 bd 9a 73 07 bc 7b 68 c7 bc
       -0.031619173 -0.035488673 -0.008267308 -0.024341812
000030 36 8e de 3c 4d fd b2 3c 9d e6 6a bc a1 d0 cc 3c
       0.02716742 0.021849299 -0.014337209 0.025001826
000040 e2 d4 18 bd 0a d5 58 3c 47 66 24 bd c9 67 e8 bb
       -0.037312396 0.013234386 -0.0401366 -0.0070924503
000050 4b c5 af bc cf 0a 16 bd 22 43 0f bd 30 a0 d4 3c
       -0.021456381 -0.0366314 -0.034976132 0.02595529
000060 0e 4a 17 bd a3 39 2d 3b 66 18 12 bc 79 23 25 bd
       -0.03693586 0.002643206 -0.00891695 -0.040317032
000070 fc 7c 90 bc 09 c5 97 bb 73 50 62 bc 2a cf f3 bc
       -0.017637722 -0.0046316427 -0.013813126 -0.02976187
000080 d4 1d 5d bb bf 8d 20 3c 9e f3 37 3c 49 25 33 3a
       -0.0033739703 0.00979942 0.011227516 0.0006833864
000090 d5 88 ca 3b f4 cc 04 3c 57 d5 20 3c 14 8d c2 3a
       0.0061808624 0.008105505 0.009816489 0.001484307
0000a0 82 bf 5d 3c f5 ff 93 3b 73 40 7b bb f2 0c d7 3b
       0.013534429 0.0045165964 -0.0038337975 0.0065628225
0000b0 85 8b 41 3b c7 74 de 3c 3f b0 24 3d 0c df f4 bb
       0.0029532623 0.027155293 0.040207144 -0.0074728783
0000c0 26 78 30 bd ba ee f3 bc 7b e9 74 ba 47 b2 c7 bc
       -0.043083332 -0.02977692 -0.00093426526 -0.024377001
0000d0 f7 dc 47 ba f4 91 06 3c 81 12 e4 bc c4 7d 6d 3c
       -0.0007624174 0.008213509 -0.027840855 0.014495317
0000e0 fe 62 2a bc 94 86 6d 3c ff 90 f2 bc 9d 06 b7 bc
       -0.010399578 0.014497418 -0.029610155 -0.02234202
0000f0 fa 49 27 3c 34 a6 87 3b f0 0d 10 3d e3 f7 a1 3b
       0.0102105085 0.004139686 0.03516954 0.0049428805
000100 e3 b4 37 3b a8 d4 1d bc 09 ff 12 3d 38 2d 7b ba
       0.00280314 -0.009633221 0.03588775 -0.0009581628
000110 27 b5 e9 bc fe e1 68 3c ae 7a 13 bd df 30 d8 bc
       -0.028528763 0.014214037 -0.03600567 -0.026390491
000120 18 de 60 3c 3f 31 a1 3b 56 8d d6 3c a3 ef 86 3c
       0.013724826 0.0049192007 0.026190441 0.01647169
000130 f2 1f b7 3c 92 e0 40 bc ec 09 eb bc 5d 00 02 3c
       0.0223541 -0.011772292 -0.028691255 0.007934657
000140 6d ab ee bb 3b 80 ca bc d1 2f 7d 3b cc 40 4d 3c
       -0.007283619 -0.024719348 0.0038633237 0.012527656
000150 bd bc e2 3c 24 0c 49 bc fb 9e 83 3c 79 c0 07 3d
       0.027677888 -0.012270961 0.016067019 0.03314254
000160 a0 5a cd 3c ce 64 e1 3c f2 aa 67 bc 16 93 19 3a
       0.025067627 0.027513888 -0.014139878 0.00058584043
000170 07 56 c6 3c 70 2d 05 bc 66 a4 98 3c 76 51 11 3c
       0.024210943 -0.008128509 0.018633079 0.008869519
000180 a3 39 38 bc 7a ec c3 bc 00 5d f8 bc 44 bb e4 3b
       -0.01124421 -0.023916472 -0.030317783 0.0069803316
000190 8e 2e 2e ba 08 fe 81 3a 73 58 ff bc 8d e9 61 3b
       -0.00066445104 0.0009917626 -0.031170106 0.0034471483
0001a0 d7 d9 a2 bb fe 02 14 3d 4b 69 23 bd 99 9b df bc
       -0.004969816 0.036135666 -0.039895337 -0.027295874
0001b0 13 3b b7 bc 48 b6 0e 3d f1 0f 28 bd 84 15 1c 3d
       -0.022367036 0.034841806 -0.041030828 0.038106456
0001c0 f8 0a 8f 3b 39 5c 2e bd fe d2 8e 3b a2 0e 8d 3c
       0.0043653212 -0.04256842 0.0043586483 0.017218892
0001d0 8d b5 04 3d 48 08 0b 3d 0e a3 c6 bc 14 c9 a8 3c
       0.032399703 0.033943444 -0.024247672 0.020603694
0001e0 ea 32 65 b8 1e e1 05 bd d9 f9 0c 3d ac 1a a9 bc
       -5.4645272e-05 -0.03268539 0.03441796 -0.020642601
0001f0 34 df 24 3d 10 fc f4 3c 18 52 00 3d 1e 5e 05 3d
       0.040251926 0.029905349 0.03132829 0.03256046
000200 c0 66 b5 bc 99 da 1e 3d d5 c0 d7 3c 45 5b 10 3d
       -0.022143722 0.03878269 0.026337067 0.03524329
000210 66 46 af bc fb d0 08 3d d4 33 2c 3b 01 92 fd bc
       -0.021395873 0.033402424 0.002627601 -0.03095341
000220 51 02 07 bd c0 c2 37 bc 23 15 dc bc 86 c9 3b 3a
       -0.032961193 -0.011215866 -0.026865548 0.0007163513
000230 e5 68 14 bd c6 5e 98 bc d9 03 d5 3c 0d 00 ff bc
       -0.036232848 -0.018599879 0.026002811 -0.031127954
000240 1d bb 78 bc e2 e5 e3 bb 19 f4 55 bc 16 e4 41 bd
       -0.01518133 -0.0069548944 -0.013058686 -0.04733666
000250 14 df e4 3b ca 91 83 3c 85 76 f1 3c 9b 5c d4 bc
       0.006984601 0.016060729 0.02947546 -0.025923064
000260 df 87 3d 3c 6f 28 fd 3c 26 99 03 3c 93 1e 22 bc
       0.011568039 0.03090307 0.008032119 -0.009894985
000270 68 aa 33 bb df 11 cb ba 29 9d 2e bd 7c 4c 82 bb
       -0.0027414802 -0.0015492997 -0.04263035 -0.003976403
000280 1e 55 0c bb 65 94 31 bd 02 c9 ca bb bd 00 2e 3b
       -0.0021413038 -0.04335441 -0.006188513 0.0026550733
000290 e8 6a 0d 3d c4 5e c9 bc a6 88 84 3c 5a 26 d9 bc
       0.034525782 -0.02458132 0.01617844 -0.026507545
0002a0 3c 7a e5 3a d9 73 dd bb 53 d9 24 3c 4a f5 e1 3c
       0.0017507742 -0.006758195 0.01006158 0.027582783
0002b0 37 0c 2c 3d 3f 8f 84 bc 63 c3 b4 bc ca 7b 19 3d
       0.042003836 -0.016181586 -0.022065824 0.03747157
0002c0 4c d1 a3 3c d8 36 2e 3d 55 17 99 3c 54 ac 20 bd
       0.019997261 0.04253277 0.018687883 -0.039226845
0002d0 1c 9d 09 3c ae 26 21 bc 24 93 b6 bc ce f1 c9 3c
       0.008399274 -0.009835882 -0.022286959 0.024651434
0002e0 aa b9 4c 3b 19 0f 21 3a b0 3c d3 bc 09 a5 e0 bc
       0.0031238594 0.00061439123 -0.025785774 -0.027422445
0002f0 b4 56 f6 3c 09 5e 99 3c ba 72 2c 3c 72 f2 e4 3c
       0.03007064 0.018721597 0.0105254 0.027947638
000300 6b f9 d8 3b ec e9 cd 3c 36 14 8b 3a dc d7 0d 3d
       0.00662153 0.025135957 0.0010610882 0.034629688
000310 a1 ae 6c bc 7f af ce 3c 24 76 df bb b3 07 6b 3c
       -0.014445932 0.025230167 -0.0068195034 0.014345097
000320 f6 6f 33 bd 1d a1 b2 3c 3a d8 4f bc 81 00 07 bd
       -0.043807946 0.02180534 -0.01268583 -0.032959465
000330 0f 69 1b 3d 17 8f 23 bd 1b 49 04 3d 22 74 5e 3c
       0.03794199 -0.039931383 0.03229628 0.013577493
000340 81 1e 27 bb c0 34 e1 3c b5 6c e1 bc 3b eb 5c 3b
       -0.002550036 0.027490973 -0.027517656 0.0033709544
000350 28 41 05 bd 0f 69 0e bd 67 0e 06 3d 26 cc 3a 3c
       -0.03253284 -0.03476816 0.03272858 0.011401212
000360 a4 43 41 3b 05 f8 02 3d a1 be 95 bc 9b 1b a6 3b
       0.002948978 0.03197481 -0.018279376 0.005069209
000370 86 34 17 3d d1 7b 2e bd 12 ca 8c bc bb 41 86 3b
       0.036915325 -0.04259855 -0.017186198 0.004097191
000380 c4 aa 05 3d 89 de 30 3c eb 74 17 3d 41 50 6c 3c
       0.032633558 0.010795244 0.036976736 0.014423431
000390 be 99 cd 3c e6 23 93 3b d4 f9 0d bc c7 6c 16 3d
       0.025097724 0.0044903634 -0.008665521 0.036724832
0003a0 91 64 8b 3c 45 38 06 bc 9b f8 ed 3c a2 d2 3f bd
       0.017015727 -0.008192127 0.029049208 -0.046831734
0003b0 19 6c 22 3b e9 f0 47 3c 39 7e e5 3c ed 41 82 3c
       0.002478367 0.012203434 0.02801429 0.015900576
0003c0 13 67 01 3d 39 e3 79 3c 2b 3e 5d bc fe 9e 81 3c
       0.03159244 0.015251928 -0.0135035915 0.015822884
0003d0 50 5a 9d ba c6 01 14 3c ce 9b da 3c a9 88 6f 3b
       -0.0012005065 0.009033626 0.026685622 0.0036549962
0003e0 5e fa 05 3d 4c 38 f3 bb 7e 2e 87 3c 37 e3 b3 3c
       0.032709472 -0.0074224826 0.016501661 0.02195893
0003f0 8b 88 2d bd 35 61 e3 3c 9c e4 96 bc 8f c5 cc 3b
       -0.042366546 0.027756313 -0.018419556 0.0062491368

bias f4 [64]
000000 82 0c d2 3c 18 d6 cd 3c 77 ca 18 bd ec 73 23 3c
       0.02564073 0.025126502 -0.03730246 0.009976368
000010 8e 33 06 bd a5 ac d0 3c 4c d9 a3 bc 5b 1b da bc
       -0.03276401 0.025472948 -0.020001076 -0.026624372
000020 1d 14 34 3c b4 fc 49 bc 78 6c e3 bb 06 b2 86 3b
       0.0109911235 -0.0123283155 -0.0069404207 0.0041105775
000030 56 9e 85 3b 23 61 13 bd 8d a4 9e 3c 13 3d 5b bc
       0.004077713 -0.03598131 0.019365573 -0.01338126
000040 c2 7b 0b 3c 17 9d 58 bc 29 f5 30 3d 03 e4 2e bc
       0.008513393 -0.013221047 0.043202553 -0.010674479
000050 ce bf 39 3c 1c 66 5a bc 54 6a e3 bc 83 e7 9f 3c
       0.011337234 -0.013330009 -0.027760662 0.019519573
000060 d3 fa 3d 3d 13 96 f6 3c 3b f7 c5 3c 20 ef c9 3c
       0.046381783 0.030100858 0.02416574 0.024650156
000070 c7 2e b9 bc f6 d6 f2 3c e8 72 6b bc b1 bd a5 3c
       -0.022605313 0.029643517 -0.0143706575 0.020232053
000080 63 0b 00 bc 8d c1 94 bc fe f6 f2 bc a9 33 0f bd
       -0.007815215 -0.018158698 -0.02965879 -0.034961376
000090 c1 cd e4 3c 97 e1 3a 3d 74 6e 03 3d a4 02 b7 bc
       0.027930142 0.045625295 0.03208776 -0.022340126
0000a0 80 d9 45 bc b2 9c a0 bc ea 64 40 3c fb 4e 22 bd
       -0.012075782 -0.019605968 0.01174281 -0.039626103
0000b0 85 7e c3 b9 b0 bd ce 3a a3 20 4e bc bd 70 ec bc
       -0.00037287563 0.0015773084 -0.012581023 -0.028862352
0000c0 0c 39 b0 bc d1 0e e7 bc 4c f0 ad bc 40 8a a5 3c
       -0.021511577 -0.028205307 -0.021232747 0.020207524
0000d0 41 96 c4 3c fe 9b bb bc 1d f7 e2 bc 5d 11 17 3d
       0.023997428 -0.022901531 -0.027705723 0.036881793
0000e0 ac 69 64 3b 3a 1a 59 bc 51 45 3b bc 7d 2d d4 ba
       0.0034853024 -0.013250882 -0.011430101 -0.0016187873
0000f0 80 4d c8 3c 1e d6 1d bd ee d9 99 bc 43 63 82 3c
       0.024451017 -0.038534276 -0.018780675 0.015916472

weight f4 [64, 64, 3, 3]
000000 06 db 81 3c 5e 87 f0 ba 96 7b 2e bc da fc 14 bd
       0.015851509 -0.001835089 -0.010649582 -0.03637395
000010 9d 65 c6 bc 83 43 e6 3b 63 85 cc 3c 63 a7 13 3c
       -0.024218375 0.007027091 0.024965947 0.009012076
000020 88 95 1c bd 5f 89 bb 3c ed 26 02 ba dd e3 a5 3b
       -0.03822854 0.022892652 -0.0004964907 0.005062564
000030 b9 4a 61 bc f0 93 d7 bc 98 94 0b bd 5b 7d 13 3c
       -0.013750725 -0.02631566 -0.034077257 0.009002055
000040 d1 25 d8 3c d2 e5 12 bc a7 89 f2 3c 6a b8 b1 bc
       0.02638522 -0.008965926 0.029606653 -0.02169438
000050 09 db 85 bb f1 2d cd 3c 77 55 60 bc fa f3 42 bd
       -0.004084949 0.02504632 -0.013692251 -0.047595955
000060 1c 8e 3e 3b f8 2d f3 ba 42 08 c7 bb 3c ff 47 3b
       0.0029076403 -0.0018553128 -0.0060739825 0.0030517122
000070 b5 84 e0 bc a3 e2 26 3c b9 f8 6a 3c 16 18 b5 3c
       -0.02740703 0.01018587 0.014341527 0.022106212
000080 01 a0 83 bc 4d d8 02 3d 87 91 b7 bc ab c5 ca 3c
       -0.016067507 0.03194456 -0.02240826 0.024752459
000090 ab 27 c0 ba 45 76 ed 3c b1 e7 25 bd 34 27 06 3b
       -0.001466026 0.02898706 -0.04050416 0.0020470144
0000a0 70 92 1d 3a 53 2f 1d 3d d3 17 2e 3d 03 ac 22 3d
       0.00060108956 0.03837521 0.04250319 0.039714824
0000b0 42 30 24 bc 86 6f f5 bb 37 1d cf 3c 1c 06 e3 3c
       -0.010021271 -0.0074901013 0.025282485 0.027712874
0000c0 5c ee 0b 3d 60 02 62 bc b2 3e d9 3c 47 0a fc bc
       0.034162864 -0.013794512 0.026519153 -0.03076662
0000d0 90 24 02 3d 27 75 ac 3b 07 23 07 3c 72 04 e6 bc
       0.03177315 0.005262989 0.008248097 -0.028078292
0000e0 67 18 df 3c 0a 79 d5 3b b6 1d dd 3b 36 1e a9 bc
       0.027233316 0.006514673 0.0067479266 -0.020644289
0000f0 e6 db 93 bc b8 78 97 bb 83 52 03 3b c7 40 cf 3c
       -0.018049192 -0.004622545 0.0020038194 0.025299443
000100 59 e4 81 bb 13 6b 44 3b 28 b2 e0 3c 10 32 34 3d
       -0.0039639887 0.0029971048 0.027428702 0.043993056
000110 c7 4c e5 3c 14 ca 91 bb 0d 71 9f 3c 23 45 05 bd
       0.027990712 -0.0044491384 0.019463087 -0.032536637
000120 b9 9e fd 3c b0 3f c3 bc d9 69 22 3d 96 42 61 3c
       0.030959474 -0.02383408 0.039651725 0.0137487855
000130 a1 2c 03 bd 79 d1 00 3d 33 98 0b 3c e7 0d 34 3c
       -0.032024983 0.03144977 0.008520174 0.010989643
000140 25 50 1b 3c fb fd 9d bc 2c e4 1d 3d f2 ad c1 3b
       0.009479557 -0.019286146 0.03854768 0.0059106285
000150 d0 12 4f bc 7f a8 98 3b da 74 06 bd f4 07 23 bd
       -0.012638763 0.004658758 -0.032826282 -0.039802507
000160 3b a7 35 bd 88 a1 71 3c d3 05 ab bc f9 62 41 bb
       -0.044348937 0.014747985 -0.0208768 -0.0029508455
000170 d1 8b 7c 3b fe 2c bb 3c ba 7f 7f bc 86 0c cb 3c
       0.0038535486 0.022848602 -0.015594417 0.024786245
000180 b0 b7 7c 3c 43 e9 05 bd dc 8e 03 bc 6c ca dc 3c
       0.015424654 -0.03269316 -0.008029666 0.026951991
000190 44 e6 c5 3c d9 2b f5 3c db fe e9 3c 02 33 9d 3a
       0.02415765 0.029928135 0.028563907 0.0011993351
0001a0 33 82 0b 3c 5b 49 8c bb 2a b6 b8 3c eb 81 87 bc
       0.008514929 -0.0042812056 0.0225478 -0.016541442
0001b0 41 73 2f 3d 5f f3 48 bc 8a 47 16 3d db 97 d8 bc
       0.042834524 -0.012265055 0.03668932 -0.026439598
0001c0 14 30 09 bc 97 7e f4 3c 2b e9 13 3d d3 00 99 3c
       -0.008373279 0.029845519 0.03611104 0.01867715
0001d0 26 a0 18 bd ea e2 25 bd d2 7f 05 bd 07 c4 85 3a
       -0.037262104 -0.040499605 -0.032592602 0.0010205515
0001e0 44 b5 06 bd e0 1d b8 bc fa 90 b3 bb 37 da fa bb
       -0.032887712 -0.022475183 -0.005479929 -0.007655408
0001f0 60 2f 06 bb 3b b4 6f 3b 77 27 78 bc 78 d7 d6 bc
       -0.0020475015 0.0036575932 -0.015146128 -0.02622579
000200 a6 e7 c3 3c e5 f9 a0 3a 35 28 ae bc c4 ad 25 bd
       0.02391417 0.0012281506 -0.021259407 -0.04044892
000210 d0 89 20 3d 8d da ab 3c 9e 4b e3 bc 7a b1 8a bc
       0.03919393 0.020978237 -0.027746018 -0.01693033
000220 5e cd ed 3c 3b d9 23 3b c3 a1 37 bd 97 e7 c2 bc
       0.02902859 0.0025001306 -0.044832002 -0.023792071
000230 93 ef f8 bc a2 b2 9e bc 01 94 98 bb a8 47 49 3a
       -0.030387675 -0.019372288 -0.0046563153 0.0007678219
000240 3c ef c1 3c d1 31 84 3c d7 03 37 bd 4c 8d e6 bc
       0.023673646 0.016137036 -0.044681396 -0.028143547
000250 ab 98 e0 3c d7 f6 a1 3c 9e 3d aa 3c d5 db b9 bc
       0.027416548 0.019771023 0.020781334 -0.022687832
000260 ad ce 7f bc 59 6a d5 bc 0f 8b d2 bc 8c 11 c9 3c
       -0.01561324 -0.026051687 -0.025701074 0.0245445
000270 2a 37 31 bd 84 6c be bc 00 bf 08 3d 62 4d 50 3c
       -0.0432655 -0.023245104 0.033385277 0.012713762
000280 2c 1f 11 3d 91 8a 2b 3c 22 f9 87 ba 74 23 87 3b
       0.03543012 0.0104700485 -0.001037393 0.0041240994
000290 92 cd e0 3c 96 cb 10 bd 34 ff 19 3d c3 af 28 3c
       0.027441774 -0.035350405 0.037596896 0.010295811
0002a0 a7 a9 c2 bc 28 32 ef 3c 47 f0 9d 3b 6d d2 11 bd
       -0.023762537 0.029198721 0.004819903 -0.03560107
0002b0 0d cb 8c bc 9f bd 07 3c b5 f1 c4 3c 77 60 c4 3c
       -0.017186666 0.008284955 0.024041036 0.02397178
0002c0 87 a2 0e bd af c3 6f bc c3 57 19 bc ac 6a 7f 3c
       -0.034822967 -0.014634057 -0.009359303 0.015589397
0002d0 ab 10 c6 bc 8e 94 1c 3d 63 94 2d 3d aa 99 05 bd
       -0.02417787 0.03822761 0.04237784 -0.03261725
0002e0 10 a9 9c 3b 6e 9f 3b 3a 2b 88 f9 3a 3a e5 05 3d
       0.004780896 0.0007157241 0.0019037774 0.03268931
0002f0 d2 f6 ea 3b 9c 70 03 3d e8 65 6c bc f8 d1 a3 3c
       0.0071705366 0.032089815 -0.014428593 0.019997582
000300 93 68 45 bb de 8e ad 3c 08 12 94 3c bf d3 11 bd
       -0.0030122146 0.021186288 0.018075004 -0.035602327
000310 c6 bc 08 3b e9 4c 97 3b ee a9 93 3c 6e 7d b4 bc
       0.002086447 0.0046173227 0.018025365 -0.022032466
000320 9f b9 01 3d ad 0a c2 3b 3f 7c 0b bd d7 42 44 3b
       0.031671163 0.005921683 -0.034054037 0.0029947066
000330 57 56 d3 bc 9f 20 21 bc 83 2f 17 3d 09 89 10 3d
       -0.025798006 -0.009834438 0.036910545 0.035286937
000340 32 f8 0b 3d af 86 82 3a d1 a1 88 bc 80 30 6f 3c
       0.034172244 0.0009958352 -0.016678723 0.014598966
000350 e4 68 91 3c 51 9e a1 bc 2c ed d0 bc 70 c2 a6 bc
       0.017750211 -0.019728811 -0.025503717 -0.020356387
000360 25 eb c3 ba dc 9c 11 bd c7 59 93 3b 93 61 dc 3c
       -0.0014947398 -0.035549983 0.0044967863 0.026901996
000370 2d 14 0b bd 5f 9a 3a bc 3c 9d 61 3c 16 3b 17 3c
       -0.033954788 -0.011389344 0.013770398 0.009230396
000380 c6 c3 be bc 8e ba ad 3c 5c 55 52 bc 7f d2 18 3d
       -0.023286711 0.02120712 -0.012837734 0.03731012
000390 4c 32 1a bd 6a 1e 0b 3d 97 55 0f bd 6d b1 22 3d
       -0.037645623 0.033964552 -0.034993734 0.039719988
0003a0 80 f6 1b 3d df ae 48 3b 5b d2 ef ba 95 98 49 bc
       0.038076878 0.003062181 -0.0018296944 -0.012304445
0003b0 a0 61 38 3c fb a9 a7 bc 78 66 ed 3c 43 86 a1 bc
       0.011253744 -0.020466795 0.028979525 -0.019717341
0003c0 26 d8 dc 3c ce d9 d1 3c 9d 2f 10 3c a3 97 66 3c
       0.026958536 0.025616553 0.008800414 0.014074239
0003d0 f1 a8 92 3c f3 a3 23 3d 76 37 fa bc 4e 83 a6 3a
       0.017902823 0.039951276 -0.030544024 0.0012703927
0003e0 85 04 f1 bb 83 a1 1e 3c b9 8f ba 3c ad 4d 06 3c
       -0.007355275 0.009682062 0.02277361 0.00819723
0003f0 f6 3e f0 3c 40 74 09 3d 2c f3 ed bc 85 6b a2 3c
       0.029326897 0.03355813 -0.029046617 0.01982666

bias f4 [64]
000000 74 7b b4 bc 6d 76 1b 3c b6 ff 8e bc 5a a9 3c 3d
       -0.022031523 0.009488684 -0.017455917 0.046059944
000010 07 9a ce bc c0 a2 b3 3c a8 01 ee bc e0 fb f6 bc
       -0.02521993 0.021928191 -0.029053524 -0.0301494
000020 ea f2 8d bc 64 ce b8 3c 1b 52 cd 3c d5 b4 31 3c
       -0.017327745 0.022559352 0.025063565 0.010846336
000030 f8 63 2e 3b 25 17 2e bc c2 85 bb bc a0 e2 22 bc
       0.002660988 -0.010625635 -0.02289093 -0.009941727
000040 35 d1 88 bc 87 c0 08 3d 40 54 f5 3c e7 a1 93 3c
       -0.01670132 0.033386733 0.0299474 0.018021537
000050 ef e3 2a bd 0c a3 46 3c 9f 78 db bc 21 a7 da bc
       -0.04172128 0.012123834 -0.026790915 -0.026691021
000060 29 32 52 3d 6c 74 22 bd b0 3c 0b bc c4 95 06 bd
       0.051317368 -0.03966181 -0.008498356 -0.03285767
000070 e2 96 23 bd 61 d8 73 3c 5f 5c bc bc 8f b1 fe 3c
       -0.039938815 0.014883132 -0.022993265 0.031090526
000080 e4 0e 17 3d ea fe 57 3d 4f 91 a1 3c 5f 69 37 3d
       0.036879435 0.05273334 0.019722609 0.044778224
000090 32 5d ad 3c 95 55 37 3c 35 77 a8 b9 a4 c8 07 bc
       0.021162603 0.011189838 -0.00032132273 -0.008287583
0000a0 00 ec 0c bc 9c 83 1a 3c 0f 57 0b 3d 80 6a b0 3c
       -0.008601189 0.009430792 0.034018572 0.021535158
0000b0 72 7f c0 bc 3c f4 b9 3c 0d e3 2a bc a7 91 c6 3b
       -0.02349827 0.022699468 -0.01043011 0.0060598436
0000c0 4d 5b ed 3b c5 aa 0f bd 0b cf ac bc db 59 34 3b
       0.00724355 -0.035074968 -0.02109482 0.0027519378
0000d0 b4 00 9b 3b 39 18 c4 bc 00 d4 ac bc 6e 3b 24 3d
       0.0047303084 -0.023937332 -0.021097183 0.04009574
0000e0 14 e3 a9 bc 7d 61 15 bc a4 eb 48 3d ea 20 85 3c
       -0.020738162 -0.009117481 0.04905285 0.016251046
0000f0 d3 2f 6d bb 2a 79 ff 3b 42 d7 ea 39 da cf f1 3c
       -0.0036191836 0.0077964263 0.00044792338 0.029518057
