Baseline/bestKernel_Num_Set_6.pt (torch_old, 176997 bytes, 16 tensors)

weight f4 [16, 3, 3, 3]
-0.16798289 -0.093097374 -0.073467515 -0.16124918 0.041027132 0.083782904 -0.01856906 -0.0607323
0.014809453 -0.16355252 -0.12842554 -0.016987454 0.16082846 -0.07017224 0.08342616 -0.090343006
-0.066786334 -0.19933203 0.17736182 0.20540357 0.0143245375 0.14011627 0.17543697 0.1133139
0.11576745 -0.16587569 -0.16365235 -0.13684838 0.07025402 -0.15607639 -0.13567024 -0.08153504
-0.16615367 0.011688043 0.03889137 -0.10076616 0.13205692 -0.06673575 -0.048498023 0.15646566
0.17496511 -0.0126921665 -0.12719603 -0.085698694 0.034750342 0.10862019 0.09047644 -0.09065852
-0.190755 -0.17810248 -0.07071311 -0.0071173147 -0.09675952 -0.1621864 0.03742643 -0.1342762
-0.13099757 -0.13909484 -0.03515084 0.18282992 0.09043239 -0.008358561 0.05230912 0.062077694
-0.014426261 -0.17196764 -0.1352701 -0.1477316 -0.022653744 -0.19436283 -0.05342855 -0.0891852
0.21294966 0.18073103 0.13605912 0.034326743 -0.038501922 0.07269608 -0.1090471 -0.057931963
-0.014764931 -0.036433216 -0.17312363 0.0838291 0.16556706 -0.09820827 0.05845127 -0.01463137
0.0005593633 0.018011276 0.18155314 0.04449818 -0.11407152 -0.055926275 0.10925998 0.067871206
0.01417206 -0.013338568 -0.067354925 -0.048453234 -0.08191377 0.053233102 0.07388577 0.16707511
-0.023667457 0.033935532 0.14412747 0.10352133 0.027084736 0.061642908 0.012335237 -0.16286497
0.009776285 -0.039869677 0.17607303 0.17620912 0.040621076 0.16839385 -0.102656856 0.16175714
0.16025408 -0.012006847 -0.16178095 -0.07004997 -0.05905299 -0.0062022386 -0.14709339 0.06292485
-0.05256913 -0.022182563 -0.07235238 -0.0135717215 -0.15125012 -0.074642636 0.045135584 0.1244032
0.17469573 -0.1389528 0.07946856 -0.1078177 -0.1411341 -0.0065576886 -0.10473539 -0.152113
-0.19763763 -0.14383025 0.14541359 0.08948615 -0.091103174 -0.14201413 -0.16630381 -0.12891608
-0.09279204 0.1357857 0.07993422 -0.05904871 0.15422517 -0.10278285 -0.1418318 0.06356172
-0.08921572 0.070290305 0.15730579 -0.0956029 -0.13941608 0.06642116 -0.17661019 0.16240829
-0.09719618 0.08308731 -0.1567439 -0.1308166 0.0018996274 0.046503924 0.1575012 0.14731024
-0.032903366 -0.01603007 0.031569384 -0.059541516 0.0044545885 -0.17198917 -0.14680134 0.13489437
-0.10175353 0.16340828 0.031092037 0.059965666 0.1885998 -0.09460586 -0.01836158 0.045356728
0.0774326 -0.17552425 0.079013765 -0.10150993 0.036801133 0.14082628 -0.0028263212 0.010782304
-0.004869529 0.17986584 0.12976557 0.048815474 -0.097884595 -0.08513163 0.16807349 0.16615896
0.13923034 -0.12183595 0.1774999 0.009318106 0.16984083 0.19507304 0.049120784 -0.05182149
0.1926168 -0.08566674 0.13923606 -0.1680844 -0.045010366 -0.14998704 -0.06832891 0.09857441
-0.119493134 -0.18030034 0.12789848 0.09030515 -0.018344449 -0.15118107 -0.06671748 -0.07602721
0.104940414 -0.07547089 -0.030074764 -0.11078025 -0.06436311 0.1272665 0.14728715 0.051322944
-0.048843034 0.20831558 0.06154125 -0.07031248 -0.06281732 -0.023180643 0.09526817 0.07444781
0.14311385 -0.0045748 0.16326632 -0.07437192 -0.091252245 -0.07621214 -0.1877104 -0.12899947
00000000: b503 2cbe d6a9 bebd 2376 96bd 811e 25be
00000010: 110c 283d 5f96 ab3d 241e 98bc 6fc2 78bd
00000020: 59a3 723c 507a 27be fc81 03be 4629 8bbc
00000030: 37b0 243e 77b6 8fbd 56db aa3d c105 b9bd
00000040: 46c7 88bd b21d 4cbe 569e 353e 5055 523e
00000050: 77b1 6a3c a47a 0f3e c0a5 333e 1e11 e83d
00000060: 7c17 ed3d 51db 29be 7b94 27be fb21 0cbe
00000070: 57e1 8f3d 7dd2 1fbe 24ed 0abe d8fb a6bd
00000080: 3024 2abe 357f 3f3c 8f4c 1f3d 7d5e cebd
00000090: ee39 073e c1ac 88bd dda5 46bd 8938 203e
000000a0: 0e2a 333e cef2 4fbc ad3f 02be cc82 afbd
000000b0: 6056 0e3d 4374 de3d b64b b93d 2dab b9bd
000000c0: 4755 43be 7f60 36be 09d2 90bd 5d38 e9bb
000000d0: db29 c6bd 3114 26be 754c 193d b37f 09be
000000e0: 3a24 06be e16e 0ebe 54fa 0fbd c437 3b3e
000000f0: 9e34 b93d 59f2 08bc 1642 563d 2e45 7e3d
00000100: 205c 6cbc 4918 30be 3f84 0abe f446 17be
00000110: 5894 b9bc 0d07 47be e5d7 5abd bba6 b6bd
00000120: 7a0f 5a3e 8e11 393e 1553 0b3e 339a 0c3d
00000130: 31b4 1dbd afe1 943d 1654 dfbd 114a 6dbd
00000140: 9ce8 71bc ff3a 15bd 5247 31be 97ae ab3d
00000150: 698a 293e 6b21 c9bd 996a 6f3d 6ab8 6fbc
00000160: 3ca2 123a 628c 933c 11e9 393e b943 363d
00000170: 549e e9bd f312 65bd b2c3 df3d 0f00 8b3d
00000180: ee31 683c 028a 5abc 61f1 89bd e676 46bd
00000190: 68c2 a7bd f40a 5a3d 6c51 973d bd15 2b3e
000001a0: 41e2 c1bc fcff 0a3d 2796 133e fe02 d43d
000001b0: cfe0 dd3c 467d 7c3d bc19 4a3c 13c6 26be
000001c0: b62c 203c 634e 23bd 7d4c 343e 2a70 343e
000001d0: 4962 263d 706f 2c3e c23d d2bd aaa3 253e
000001e0: a519 243e 5eb8 44bc e8a9 25be 5c76 8fbd
000001f0: 8ce1 71bd 263c cbbb a69f 16be bede 803d
00000200: ba52 57bd 35b8 b5bc 7c2d 94bd ed5b 5ebc
00000210: 50e1 1abe 3dde 98bd 17e0 383d 1bc7 fe3d
00000220: 70e3 323e a549 0ebe 6ac0 a23d 87cf dcbd
00000230: 7585 10be e1e1 d6bb 827f d6bd 83c3 1bbe
00000240: 8561 4abe 3d48 13be 4de7 143e 8444 b73d
00000250: 4d94 babd 276c 11be 8c4b 2abe 9402 04be
00000260: c109 bebd 680b 0b3e 8db4 a33d 0fdd 71bd
00000270: 34ed 1d3e d17f d2bd 5b3c 11be a62c 823d
00000280: bbb6 b6bd 5df4 8f3d c514 213e 74cb c3bd
00000290: 17c3 0ebe d107 883d 4dd9 34be 5c4e 263e
000002a0: ca0e c7bd ae29 aa3d 7981 20be c9f4 05be
000002b0: ebfc f83a e67a 3e3d ff47 213e 7fd8 163e
000002c0: aec5 06bd 7e51 83bc e64e 013d cee1 73bd
000002d0: ccf7 913b ee1d 30be 1753 16be c021 0a3e
000002e0: 2864 d0bd 8054 273e bab4 fe3c 8f9e 753d
000002f0: 4e20 413e b8c0 c1bd 066b 96bc fac7 393d
00000300: fc94 9e3d a1bc 33be f8d1 a13d 70e4 cfbd
00000310: c9bc 163d c434 103e cd39 39bb 43a8 303c
00000320: 9290 9fbb c02e 383e 44e1 043e bcf2 473d
00000330: b877 c8bd 7e59 aebd 751b 2c3e 9325 2a3e
00000340: 6692 0e3e 2085 f9bd 89c2 353e f8aa 183c
00000350: c1ea 2d3e 3ac1 473e e032 493d c542 54bd
00000360: 573d 453e 0b72 afbd e693 0e3e 511e 2cbe
00000370: ca5c 38bd 3496 19be 07f0 8bbd 61e1 c93d
00000380: d1b8 f4bd a7a0 38be d2f7 023e e8f1 b83d
00000390: 1947 96bc 36cf 1abe 2da3 88bd 27b4 9bbd
000003a0: 00eb d63d 7b90 9abd 5a5f f6bc c1e0 e2bd
000003b0: ced0 83bd 2652 023e 71d2 163e 0238 523d
000003c0: a20f 48bd ae50 553e ae12 7c3d fdff 8fbd
000003d0: 5ea6 80bd 55e5 bdbc f51b c33d 1878 983d
000003e0: 708c 123e 34e8 95bb 492f 273e 4e50 98bd
000003f0: 75e2 babd 1c15 9cbd 2837 40be 7018 04be

bias f4 [16]
-0.010649306 0.0464072 -0.07266008 0.1831072 -0.12596357 -0.009935555 -0.15276548 0.066580884
0.17376503 0.18729156 0.027495509 -0.08359349 0.20039982 0.010854938 0.13492331 -0.07863407
00000000: 6d7a 2ebc 7a15 3e3d cfce 94bd 7480 3b3e
00000010: 98fc 00be bdc8 22bc 8e6e 1cbe 8f5b 883d
00000020: 76ef 313e 5cc9 3f3e 433e e13c 1033 abbd
00000030: 9c35 4d3e e9d8 313c 5629 0a3e e60a a1bd

weight f4 [32, 16, 3, 3]
-0.01632127 -0.04774747 0.09613073 0.03821125 -0.03886538 0.027566388 -0.017134957 0.02463815
0.0503971 -0.052311424 0.0007683829 -0.06613601 0.008161338 -0.09180397 -0.00027760712 0.06791169
0.061756667 0.01764532 0.0818508 0.101285085 0.04366844 0.04382124 0.026966019 0.09282986
0.09298703 -0.017963367 0.019347394 -0.02467797 0.05217174 -0.05743917 0.045700796 -0.0068998053
0.047805667 0.0358473 -0.027183767 0.06196498 0.028158996 -0.081722036 0.07274343 0.065983444
0.043370947 -0.017659878 0.025840798 -0.050382804 -0.031219464 0.033408776 0.043663677 0.03372299
-0.085471265 0.05993432 -0.03865417 0.0658779 0.061112303 0.01830518 0.069819 0.030453568
0.033571694 -0.033824574 0.06856199 0.0071882163 0.030835196 -0.04193848 0.039898314 0.093525566
-0.04296447 0.09277473 -0.03305141 -0.033303503 -0.04770365 0.041548178 -0.039567914 -0.010534509
-0.021756241 0.032538015 -0.06450025 -0.033327177 0.008059036 0.016344812 -0.037174087 0.022728425
-0.054318555 -0.05243583 0.007136766 -0.025058882 0.0668623 -0.04170456 0.008996531 0.047782224
-0.058177784 0.08034585 -0.026161682 -0.010456707 -0.036265824 -0.019814417 -0.02094076 -0.06181778
0.0390114 0.0098830415 0.09173285 0.07642096 0.09599083 0.04965397 0.06348936 0.09752309
0.090302296 -0.04316727 0.0037468448 -0.056126393 0.025195906 -0.0057201004 0.09666241 0.035164274
0.025680292 -0.035685692 -0.043592293 0.03663195 -0.016664546 -0.051155277 0.044102993 -0.057810023
-0.050393727 0.0513212 0.021681393 -0.059112627 0.014173973 0.031944834 -0.07811989 0.009604648
0.012785121 -0.0077503882 0.07449264 -0.06206608 0.045224983 -0.044391252 -0.072141886 0.05738297
-0.04298174 -0.014995817 0.031480405 -0.07078345 -0.0861606 0.027921539 0.07806834 -0.025775854
0.08153572 0.050204284 0.047049966 -0.027394323 0.104635134 0.06347348 0.037101734 0.08260674
-0.047776263 -0.0026143943 -0.053307768 -0.017866313 0.016679395 0.025604192 0.0032181847 -0.06115229
-0.05634482 -0.012441484 0.00742619 -0.048855647 0.10366036 0.032579266 -0.036295097 0.058037672
0.059415795 -0.018154908 0.064545006 -0.028161258 0.052393336 0.1021998 0.079611905 0.06514708
0.007283324 0.039205674 0.053732555 0.044363163 -0.0050496846 0.023282 -0.022068296 -0.035780385
-0.06593721 -0.05635212 -0.04062863 0.09103869 0.028275538 -0.06833714 -0.02951487 0.029488688
-0.013620002 -0.008126947 -0.019604666 -0.01670008 0.021980423 0.013896262 0.064321265 0.061257023
0.07657297 0.01623546 -0.020351639 0.019545706 -0.0446644 0.051469397 0.0001858843 -0.0018589881
-0.04468725 0.06499342 0.07177049 0.102224365 -0.0040112296 0.050656777 0.029674625 -0.027362524
-0.027605535 0.062190287 -0.024766523 0.080612086 0.04894383 0.049252197 0.076311484 0.058555454
0.057684213 0.059250306 -0.019187307 -0.02837217 0.0009707981 0.06261016 0.07440145 0.07746312
-0.009878595 0.005640364 -0.042283505 0.06579614 -0.040499825 -0.019426141 0.08364421 0.0349835
-0.020029182 -0.041598823 -0.042485908 0.088504545 -0.05457917 0.0932885 0.088932775 0.027141292
0.015501998 0.08661905 0.05932434 0.10105339 0.09177759 -0.03011565 0.07579111 0.066473715
00000000: 2fb4 85bc da92 43bd 30e0 c43d 6683 1c3d
00000010: 4e31 1fbd e8d2 e13c 9c5e 8cbc f2d5 c93c
00000020: 316d 4e3d 8144 56bd 4e6d 493a 5172 87bd
00000030: 22b7 053c b803 bcbd cc8b 91b9 4915 8b3d
00000040: 8ff4 7c3d eb8c 903c 64a1 a73d 8e6e cf3d
00000050: aedd 323d e77d 333d d7e7 dc3c 951d be3d
00000060: fc6f be3d e927 93bc 6d7e 9e3c 7429 cabc
00000070: 09b2 553d 5645 6bbd c230 3b3d c317 e2bb
00000080: e0cf 433d 9ed4 123d 7eb0 debc fece 7d3d
00000090: b2ad e63c e25d a7bd 82fa 943d 5422 873d
000000a0: bca5 313d 73ab 90bc 15b0 d33c 335e 4ebd
000000b0: f6bf ffbc a4d7 083d afd8 323d 1e21 0a3d
000000c0: 8f0b afbd b17d 753d d653 1ebd feea 863d
000000d0: e550 7a3d bff4 953c 44fd 8e3d c379 f93c
000000e0: 7982 093d a38b 0abd 3b6a 8c3d 218b eb3b
000000f0: 189a fc3c afc7 2bbd 6a6c 233d 558a bf3d
00000100: 83fb 2fbd ad00 be3d ea60 07bd 4169 08bd
00000110: e764 43bd 6c2e 2a3d f711 22bd ef98 2cbc
00000120: 253a b2bc 9546 053d b518 84bd 1482 08bd
00000130: 0c0a 043c 8ee5 853c db43 18bd f630 ba3c
00000140: 227d 5ebd f4c6 56bd 88db e93b 4948 cdbc
00000150: 1aef 883d 67d2 2abd 3066 133c 4bb7 433d
00000160: d44b 6ebd 5d8c a43d 0651 d6bc 9c52 2bbc
00000170: 798b 14bd d851 a2bc f58b abbc a434 7dbd
00000180: 6bca 1f3d 7bec 213c 6fde bb3d 9882 9c3d
00000190: d796 c43d f661 4b3d b606 823d 30ba c73d
000001a0: 69f0 b83d 2ad0 30bd a08d 753b cae4 65bd
000001b0: a567 ce3c ae6f bbbb f1f6 c53d 6a08 103d
000001c0: 7a5f d23c 292b 12bd d58d 32bd 620b 163d
000001d0: 1684 88bc 3288 51bd 57a5 343d 34ca 6cbd
000001e0: a769 4ebd 2e36 523d 2d9d b13c 1520 72bd
000001f0: f439 683c 96d8 023d 52fd 9fbd d05c 1d3c
00000200: af78 513c f8f6 fdbb 998f 983d 0039 7ebd
00000210: d53d 393d 9ad3 35bd 20bf 93bd 680a 6b3d
00000220: 9f0d 30bd 04b1 75bc 99f1 003d eaf6 90bd
00000230: f874 b0bd b6bb e43c 4be2 9f3d e227 d3bc
00000240: 33fc a63d 02a3 4d3d 77b7 403d 0f6a e0bc
00000250: f24a d63d 62fe 813d fdf7 173d b92d a93d
00000260: 0bb1 43bd 4256 2bbb 3f59 5abd 605c 92bc
00000270: 3aa3 883c e2bf d13c 2ee8 523b d37a 7abd
00000280: d3c9 66bd 5ed7 4bbc 6657 f33b dc1c 48bd
00000290: e24b d43d d671 053d 2baa 14bd e9b8 6d3d
000002a0: fa5d 733d 9ab9 94bc 2c30 843d 70b2 e6bc
000002b0: 659a 563d 214e d13d 910b a33d d56b 853d
000002c0: f3a8 ee3b 2196 203d ab16 5c3d 26b6 353d
000002d0: d377 a5bb e5b9 be3c 92c8 b4bc 748e 12bd
000002e0: 170a 87bd 7bd1 66bd 356a 26bd 7e72 ba3d
000002f0: 1aa2 e73c 58f4 8bbd 2bc9 f1bc 4392 f13c
00000300: 6e26 5fbc e326 05bc f799 a0bc 9bce 88bc
00000310: 4a10 b43c 26ad 633c deba 833d a5e8 7a3d
00000320: 4ad2 9c3d 3a00 853c 7bb8 a6bc 511e a03c
00000330: 05f2 36bd 93d1 523d f0e9 4239 4aa9 f3ba
00000340: fa09 37bd 451b 853d 68fc 923d 025b d13d
00000350: a270 83bb 7b7d 4f3d 3318 f33c 5f27 e0bc
00000360: 0125 e2bc 3ebb 7e3d 2ae3 cabc f317 a53d
00000370: 5379 483d acbc 493d 3249 9c3d d8d7 6f3d
00000380: 4846 6c3d 73b0 723d b32e 9dbc c16c e8bc
00000390: 287d 7e3a c139 803d ca5f 983d fca4 9e3d
000003a0: d5d9 21bc cdd2 b83b 7831 2dbd 20c0 863d
000003b0: 25e3 25bd 9223 9fbc a84d ab3d dc4a 0f3d
000003c0: 3d14 a4bc 8763 2abd b405 2ebd df41 b53d
000003d0: 688e 5fbd 0b0e bf3d 6322 b63d 6a57 de3c
000003e0: 18fc 7d3c 5465 b13d 14fe 723d 14f5 ce3d
000003f0: e4f5 bb3d 18b5 f6bc 5f38 9b3d 5f23 883d

bias f4 [32]
0.04028227 0.040952325 0.05885495 -0.033933714 -0.01910787 0.032918554 -0.054850552 0.003539451
0.026054729 -0.08059872 0.0044184234 0.01267737 -0.04600301 0.07403108 0.0098530175 -0.07016541
-0.028928204 0.02617228 0.061583117 -0.018406618 0.07889264 -0.028521774 -0.050199848 -0.008685241
-0.052472327 0.03676826 0.059306353 -0.07113245 -0.05953487 0.043671947 -0.009329726 0.0759829
00000000: 06ff 243d a0bd 273d e311 713d 14fe 0abd
00000010: 1c88 9cbc 9bd5 063d f9aa 60bd 22f6 673b
00000020: ba70 d53c f110 a5bd 6cc8 903b beb4 4f3c
00000030: a76d 3cbd 9b9d 973d 8d6e 213c e2b2 8fbd
00000040: d7fa ecbc 4067 d63c 943e 7c3d 7ac9 96bc
00000050: 7792 a13d 7fa6 e9bc 5b9e 4dbd 8b4c 0ebc
00000060: 39ed 56bd 519a 163d 38eb 723d e4ad 91bd
00000070: d6da 73bd 5be1 323d b5db 18bc ec9c 9b3d

weight f4 [32, 32, 3, 3]
0.0634685 -0.03282628 0.04160214 -0.043631613 0.031522058 -0.02704568 0.012502116 0.069021106
0.019201538 -0.009026182 0.050432354 0.014406725 0.07722019 -0.019980263 0.014825729 -0.024167731
-0.008056377 0.008933558 -0.017104754 -0.024189286 0.0018791673 -0.01128952 -0.014739116 0.02186386
-0.020917838 0.056728926 0.061410856 0.07739018 0.042045344 0.01868659 0.014182199 -0.0032843396
0.06542079 0.0582473 0.06849604 0.014884129 -0.036895204 0.023263542 0.054784473 -0.0048003
0.052026525 0.04556258 0.025816431 -0.010770371 -0.015041803 -0.00021102672 0.005392912 -0.002371721
-0.044424277 -0.028237706 -0.004134482 0.05580385 0.035360426 -0.039136134 -0.02873192 -0.021407874
0.06925287 0.029419206 0.06209619 -0.032242008 0.070170455 0.0632608 0.02005652 -0.02849884
0.021866774 -0.0333059 -0.025380017 0.020894717 -0.04674586 0.012682885 -0.004629177 -0.0009473157
0.0065873945 0.018183857 -0.031711724 0.028656956 -0.050760414 0.02881709 -0.043149244 0.061647348
0.018638745 0.018122708 0.009417029 0.008940133 -0.01772315 -0.05992856 0.03510382 0.043518014
-0.013812593 0.009928257 -0.0008206193 -0.010640651 0.042479813 -0.03216146 -0.052140914 -0.0070850225
-0.031406973 -0.035943292 -0.014059951 -0.005118013 0.034922052 0.029081265 0.045674045 0.04225434
0.015770128 8.115769e-05 -0.00414642 -0.047406673 0.02590049 0.004331716 0.0023744272 0.068413824
0.04564759 0.054846108 0.0596709 -0.011564702 0.035569806 -0.0022407144 0.025812525 0.03953662
-0.009051439 0.050221566 0.008213835 -0.005297597 0.045008883 0.051974192 -0.0138164405 0.03683777
-0.010551924 0.0013591691 -0.038583122 -0.02214132 0.010922482 -0.010082263 -0.0025698468 0.020760944
-0.017096784 0.037041724 0.06498419 0.054005716 0.058543026 -0.008718706 0.009537329 -0.012424703
-0.0111329155 0.004855345 0.054092154 -0.0356306 -0.011193865 0.051048137 0.05023819 0.0055274046
0.008288727 0.011386525 0.060403273 0.0643412 -0.0063238996 0.0284198 -0.036594998 -0.016637543
0.01830037 0.0045158137 -0.0063150567 0.071198314 0.052569345 0.026944565 0.006104877 0.025055394
0.07169882 0.013348995 0.029770186 0.034668982 0.050782774 0.052042738 -0.009709019 0.04086094
0.02711952 0.027741862 -0.031271584 0.074331604 0.021683596 0.006164802 0.020023793 -0.016225236
-0.047577266 -0.018157914 -0.05796024 0.044948924 0.019392213 0.019680873 -0.03568461 -0.03453169
0.038252912 -0.043107647 0.015768424 0.048991542 -0.04634685 0.046442956 -0.027747525 0.009415332
0.06455315 0.06786859 0.07755114 0.073497035 -0.030973546 0.0350228 -0.027024632 0.049824227
0.032213006 0.062422544 0.032112353 0.058426525 0.016777735 -0.024942163 -0.019597217 0.020504065
-0.054591678 0.04694034 -0.038770527 -0.042685103 0.058917005 -0.035900444 -0.023888886 0.0014913382
0.021767111 -0.01721842 0.03549446 -0.034239672 0.01577741 -0.053508643 -0.048892487 0.025363976
0.033085555 -0.021893939 0.023800444 -0.012228528 0.0356433 0.009799078 -0.009506738 0.014299505
-0.052626085 0.03662133 0.057779707 0.057040595 -0.02682235 -0.016847316 -0.018392945 0.01694481
-0.033296656 -0.03656537 -0.014397021 0.060358163 0.03620795 -0.036394753 -0.014642745 -0.02504565
00000000: c6fb 813d d974 06bd 0167 2a3d 10b7 32bd
00000010: 461d 013d e78e ddbc add5 4c3c f05a 8d3d
00000020: 8b4c 9d3c 8de2 13bc 2892 4e3d 2f0a 6c3c
00000030: 9e25 9e3d a6ad a3bc 9de7 723c 68fb c5bc
00000040: e5fe 03bc 0f5e 123c 451f 8cbc 9c28 c6bc
00000050: 644e f63a aef7 38bc 557c 71bc d61b b33c
00000060: e35b abbc 975c 683d f389 7b3d be7e 9e3d
00000070: bd37 2c3d 9f14 993c 745c 683c 133e 57bb
00000080: 56fb 853d b994 6e3d a747 8c3d 90dc 733c
00000090: 6d1f 17bd 2f93 be3c af65 603d d64b 9dbb
000000a0: c419 553d d49f 3a3d fb7c d33c 3676 30bc
000000b0: e571 76bc 0e47 5db9 06b7 b03b e06e 1bbb
000000c0: 3bf6 35bd c352 e7bc 8c7a 87bb 9492 643d
000000d0: 18d6 103d 364d 20bd 345f ebbc 915f afbc
000000e0: 73d4 8d3d 8c00 f13c 9358 7e3d 3210 04bd
000000f0: 87b5 8f3d e18e 813d 924d a43c 6676 e9bc
00000100: f321 b33c c46b 08bd c1e9 cfbc 662b ab3c
00000110: 9678 3fbd e0cb 4f3c 5ab0 97bb 4855 78ba
00000120: 12db d73b 50f6 943c 27e4 01bd fec1 ea3c
00000130: 27ea 4fbd d111 ec3c 43bd 30bd ee81 7c3d
00000140: 48b0 983c 1376 943c e249 1a3c a379 123c
00000150: 2430 91bc a677 75bd 06c9 0f3d f23f 323d
00000160: 374e 62bc 21aa 223c d41e 57ba 2056 2ebc
00000170: 50ff 2d3d bcbb 03bd b691 55bd 7a29 e8bb
00000180: 99a4 00bd 4639 13bd b55b 66bc 01b5 a7bb
00000190: 6d0a 0f3d d53b ee3c b514 3b3d e312 2d3d
000001a0: 5b30 813c 3433 aa38 b1de 87bb 802d 42bd
000001b0: 442d d43c 11f1 8d3b 479c 1b3b 8c1c 8c3d
000001c0: f8f8 3a3d 50a6 603d 7969 743d e079 3dbc
000001d0: a5b1 113d f3d8 12bb ca74 d33c 27f1 213d
000001e0: 7d4c 14bc 21b5 4d3d 5293 063c 7797 adbb
000001f0: 3c5b 383d e4e2 543d 5a5e 62bc 34e3 163d
00000200: fae1 2cbc 2626 b23a 5609 1ebd b761 b5bc
00000210: 36f4 323c 1330 25bc e06a 28bb db12 aa3c
00000220: 8e0e 8cbc 10b9 173d 6e16 853d 1935 5d3d
00000230: d0ca 6f3d e7d8 0ebc 7542 1c3c fb90 4bbc
00000240: d566 36bc 9619 9f3b bc8f 5d3d 64f1 11bd
00000250: 7966 37bc da17 513d 8fc6 4d3d 3b1f b53b
00000260: 71cd 073c 8c8e 3a3c 6c69 773d 52c5 833d
00000270: b738 cfbb a4d0 e83c a3e4 15bd 754b 88bc
00000280: a8ea 953c 64f9 933b 89ee cebb 6cd0 913d
00000290: f452 573d d9ba dc3c 6c0b c83b f840 cd3c
000002a0: d5d6 923d beb5 5a3c 9be0 f33c 1001 0e3d
000002b0: 9901 503d c42a 553d 9412 1fbc cd5d 273d
000002c0: c129 de3c e742 e33c a216 00bd 2b3b 983d
000002d0: cca1 b13c 1b02 ca3b f008 a43c c9ea 84bc
000002e0: 61e0 42bd e8bf 94bc b767 6dbd 5d1c 383d
000002f0: 6bdc 9e3c c839 a13c 072a 12bd 1a71 0dbd
00000300: 16af 1c3d a591 30bd c82c 813c 5bab 483d
00000310: 32d6 3dbd f83a 3e3d c74e e3bc c442 1a3c
00000320: 7134 843d b0fe 8a3d 22d3 9e3d 9d85 963d
00000330: 3cbc fdbc 1174 0f3d c362 ddbc 7d14 4c3d
00000340: c9f1 033d c8ae 7f3d 3e88 033d a750 6f3d
00000350: 7671 893c 8253 ccbc 588a a0bc 24f8 a73c
00000360: 869b 5fbd 8444 403d d8cd 1ebd 93d6 2ebd
00000370: f552 713d 580c 13bd a0b2 c3bc 0279 c33a
00000380: f150 b23c a50d 8dbc a462 113d e63e 0cbd
00000390: a03f 813c e12b 5bbd 7d43 48bd 1dc8 cf3c
000003a0: b884 073d eb5a b3bc 26f9 c23c 2a5a 48bc
000003b0: b5fe 113d 508c 203c 26c2 1bbc 7948 6a3c
000003c0: 738e 57bd 3f00 163d 6aaa 6c3d 66a3 693d
000003d0: 8cba dbbc 6203 8abc cdac 96bc d8cf 8a3c
000003e0: 1362 08bd 92c5 15bd 7ce1 6bbc 1f3a 773d
000003f0: ca4e 143d aa12 15bd 20e8 6fbc 892c cdbc

bias f4 [32]
-0.032524683 -0.03719034 0.049802177 0.052165993 0.040824108 0.057140414 0.057362616 0.040233217
0.052439224 -0.016540086 0.021277415 -0.041586865 -0.030058103 0.00021090594 0.0073571266 0.06375127
0.05859397 0.022120846 0.06192681 -0.023831131 0.021820594 -0.04669937 -0.0408397 0.041859623
0.025769034 0.0061467728 -0.032956317 0.046408452 0.005353736 0.050174586 -0.031196523 0.03483404
00000000: 9a38 05bd e654 18bd 5efd 4b3d 02ac 553d
00000010: 2e37 273d 110c 6a3d 10f5 6a3d 96cb 243d
00000020: 83ca 563d 137f 87bc f94d ae3c fd56 2abd
00000030: 693c f6bc a226 5d39 0d14 f13b 0790 823d
00000040: 3b00 703d c736 b53c f7a6 7d3d 8139 c3bc
00000050: 1ac1 b23c d747 3fbd 8747 27bd ff74 2b3d
00000060: 9519 d33c de6a c93b 34fd 06bd ca16 3e3d
00000070: 656e af3b de83 4d3d da8f ffbc 23ae 0e3d

weight f4 [16, 32, 3, 3]
-0.006382368 -0.022039654 -0.008664725 -0.049816985 -0.015348939 -0.0014532574 -0.048934978 0.026083939
0.04941472 0.027896915 -0.03142857 -0.04140591 -0.050621107 -0.040755346 0.028362246 0.021794934
-0.02799978 -0.0059802867 -0.011303415 0.001700558 -0.055052392 0.044887416 -0.021585375 -0.048223782
0.001148976 0.022856545 0.032557905 -0.033230394 -0.0077738003 -0.047572426 -0.048653513 -0.043374546
-0.041575316 0.032310057 -0.058360234 -0.017741797 -0.02700023 0.035984345 -0.006386338 -0.035585098
0.044271026 -0.0483113 -0.025950734 -0.0580677 -0.009297542 0.013883203 0.048658084 -0.045900114
-0.043560266 0.054511674 0.0055181817 -0.04548939 0.019484472 0.050261598 -0.00054387486 -0.029839762
-0.03417012 -0.024526212 0.026414953 -0.045299925 0.049843065 -0.04076928 0.012035363 0.04676594
-0.038207065 -0.05433494 -0.04297885 -0.03769424 -0.052991666 -0.071860425 -0.045228288 -0.039013382
0.04576951 -0.01515057 0.0018935162 -0.024793103 0.0027850154 0.021613728 0.0029780725 -0.015026377
-0.0031042632 0.052184686 -0.041544385 0.055321477 -0.016879769 0.039146874 0.04284662 -0.0017575985
-0.0019934634 0.037728097 -0.011760002 0.009702565 0.04703963 -0.018369835 -0.029659882 0.03469464
0.049939387 0.05108183 -0.06142734 0.042176865 0.03688454 -0.019327452 0.046175778 -0.019227877
0.054037746 0.014021281 0.030936357 -0.017328218 -0.011385428 -0.030540325 0.031850103 -0.047464214
0.0049245264 0.020376066 -0.0024071475 -0.018418154 0.009723411 -0.007406619 -0.040705964 -0.024030956
-0.027336314 -0.04636639 -0.011444905 -0.034668107 -0.047699846 -0.06278414 -0.04147596 -0.01559256
0.04446987 -0.010795369 -0.035426565 -0.04873475 0.005578755 0.045467384 -0.05792803 0.04359495
0.05057456 0.011122736 0.026172018 0.013958282 -0.055160485 -0.028104087 -0.01891755 -0.04046249
-0.0044765305 0.009759877 -0.0008574618 0.028938152 -0.038217094 0.045663577 -0.027779147 0.042901088
0.048433386 -0.049399607 -0.05792311 0.042285416 0.043141115 -0.00843344 0.009960224 0.0066098915
-0.020725036 0.02792031 0.017547494 -0.058871664 -0.018176707 -0.037966635 0.022532132 -0.061598375
-0.05426652 -0.055522803 -0.023897855 -0.047133245 -0.013420114 -0.03538092 0.03663137 0.049859285
0.02041134 -0.02471689 0.02149837 -0.053982995 -0.0316399 -0.01406748 -0.05661588 0.052544795
0.036158457 0.024938127 0.024411943 0.054711543 -0.025781812 0.015944278 -0.020029642 -0.010118801
-0.043144435 0.03806893 -0.040574513 -0.018728472 0.058157105 -0.03153269 0.0043993955 -0.057278063
-0.037451074 0.049699966 0.027565828 -0.0019037785 -0.033709932 0.03993904 0.049876004 0.008179519
-0.041619364 -0.0016155526 0.024240142 0.012529374 0.0482265 0.047961317 0.024273474 -0.046880428
-0.006705391 0.008114369 -0.02295959 0.012760894 0.03369808 -0.039450686 -0.023636926 -0.050677355
0.0022003562 0.03344513 0.051032905 0.00065245375 0.035265185 -0.06057283 -0.0053296345 -0.015419536
-0.03218438 0.0491532 0.03267275 -0.053258948 -0.057384253 -0.032986768 0.014251405 0.02229563
0.024119059 0.038316417 -0.045228746 0.0020126246 -0.029517485 -0.032158326 -0.0031902073 -0.009396693
-0.052473262 -0.0053994954 0.023155417 0.04703157 -0.019188896 0.036528382 -0.016649771 -0.047452584
00000000: 2f23 d1bb 818c b4bc 7ef6 0dbc e50c 4cbd
00000010: 1e7a 7bbc 3a7b beba 0b70 48bd fcad d53c
00000020: 1767 4a3d 1288 e43c 3fbb 00bd 3e99 29bd
00000030: 1458 4fbd 14ef 26bd f157 e83c 4a8b b23c
00000040: cb5f e5bc 48f6 c3bb f531 39bc 42e5 de3a
00000050: 9e7e 61bd dedb 373d d0d3 b0bc 4d86 45bd
00000060: 3d99 963a a63d bb3c 705b 053d 981c 08bd
00000070: 5dbb febb 4edb 42bd e848 47bd 82a9 31bd
00000080: e14a 2abd 8d57 043d 240b 6fbd 3f57 91bc
00000090: 962f ddbc 5264 133d 7c44 d1bb aec1 11bd
000000a0: 8955 353d 12e2 45bd a296 d4bc 66d8 6dbd
000000b0: b854 18bc 6076 633c b34d 473d c201 3cbd
000000c0: 406c 32bd a247 5f3d ddd1 b43b 1553 3abd
000000d0: e69d 9f3c 1bdf 4d3d d392 0eba 8472 f4bc
000000e0: f8f5 0bbd 32eb c8bc 2c64 d83c 6a8c 39bd
000000f0: 3e28 4c3d b0fd 26bd f92f 453c a48d 3f3d
00000100: 037f 1cbd 508e 5ebd 970a 30bd 4765 1abd
00000110: ca0d 59bd 8f2b 93bd 4c41 39bd 7fcc 1fbd
00000120: cf78 3b3d 193a 78bc dc2f f83a e81a cbbc
00000130: ce84 363b 460f b13c c42b 433b 3131 76bc
00000140: e570 4bbb 9cbf 553d 722a 2abd c698 623d
00000150: 7147 8abc 7958 203d f07f 2f3d 385f e6ba
00000160: c4a4 02bb c788 1a3d 06ad 40bc 82f7 1e3c
00000170: a1ac 403d 567c 96bc 48f9 f2bc f81b 0e3d
00000180: 3e8d 4c3d 2e3b 513d 3c9b 7bbd a6c1 2c3d
00000190: 3e14 173d 9b54 9ebc d022 3d3d c883 9dbc
000001a0: af56 5d3d 84b9 653c 3e6e fd3c e8f3 8dbc
000001b0: f289 3abc b42f fabc 4175 023d d669 42bd
000001c0: ec5d a13b b5eb a63c 3cc1 1dbb abe1 96bc
000001d0: f14e 1f3c 39b3 f2bb 4cbb 26bd 91dc c4bc
000001e0: 68f0 dfbc afea 3dbd 6983 3bbc 2500 0ebd
000001f0: ea60 43bd f994 80bd b2e2 29bd f077 7fbc
00000200: 0a26 363d 0fdf 30bc 721b 11bd 179e 47bd
00000210: fdcd b63b 023c 3a3d f145 6dbd 9e90 323d
00000220: 4527 4f3d 233c 363c b366 d63c 47b1 643c
00000230: f6ef 61bd 8b3a e6bc faf8 9abc ffbb 25bd
00000240: dcaf 92bb e4e7 1f3c 4ac7 60ba b40f ed3c
00000250: 8789 1cbd bb09 3b3d 1891 e3bc 0db9 2f3d
00000260: 1662 463d 3e57 4abd c840 6dbd 7933 2d3d
00000270: bdb4 303d 692c 0abc 3530 233c ca97 d83b
00000280: 8dc7 a9bc 22b9 e43c c3bf 8f3c 6a23 71bd
00000290: 51e7 94bc e782 1bbd 4e95 b83c 944e 7cbd
000002a0: 9246 5ebd e16b 63bd 6fc5 c3bc ca0e 41bd
000002b0: 0ae0 5bbc 95eb 10bd c70a 163d 4039 4c3d
000002c0: af35 a73c 137b cabc 5a1d b03c 461d 5dbd
000002d0: d798 01bd 4a7b 66bc 0ee6 67bd 3639 573d
000002e0: e41a 143d 0b4b cc3c 8efb c73c 3619 603d
000002f0: 6134 d3bc 939d 823c 3415 a4bc 54c9 25bc
00000300: 38b8 30bd 2bee 1b3d 7631 26bd 746c 99bc
00000310: 2536 6e3d 6c28 01bd ce28 903b 679c 6abd
00000320: 4c66 19bd 3192 4b3d bbd1 e13c 3588 f9ba
00000330: 6d13 0abd 1e97 233d c84a 4c3d 6403 063c
00000340: 1179 2abd f3c0 d3ba 4393 c63c 0148 4d3c
00000350: 2789 453d 1673 443d 2ad9 c63c b105 40bd
00000360: e6b8 dbbb 21f2 043c c015 bcbc 1213 513c
00000370: ff06 0a3d 0b97 21bd 3aa2 c1bc 0f93 4fbd
00000380: da33 103b c3fd 083d e107 513d 6e09 2b3a
00000390: 3a72 103d 371b 78bd 37a4 aebb 39a2 7cbc
000003a0: c5d3 03bd de54 493d ddd3 053d 0e26 5abd
000003b0: c00b 6bbd 221d 07bd ba7e 693c 53a5 b63c
000003c0: 5595 c53c adf1 1c3d c741 39bd 3de6 033b
000003d0: a7ce f1bc 73b8 03bd cc12 51bb 96f4 19bc
000003e0: 34ee 56bd 40ee b0bb 6eb0 bd3c 2da4 403d
000003f0: 0832 9dbc c99e 153d 1a65 88bc a45d 42bd

bias f4 [16]
-0.06078626 -0.032908127 -0.011517755 -0.010342469 -0.0077997968 -0.028247716 0.005643537 0.037368562
-0.030843139 0.055556975 -0.014827536 0.035153255 -0.015376963 -0.036226477 -0.0053964388 -0.007572018
00000000: 03fb 78bd acca 06bd f7b4 3cbc 7673 29bc
00000010: 7095 ffbb c167 e7bc 6bed b83b c70f 193d
00000020: c0aa fcbc b68f 633d 32ef 72bc dcfc 0f3d
00000030: a8ef 7bbc 3762 14bd 9cd4 b0bb b11e f8bb

weight f4 [16, 32, 3, 3]
-0.045948457 0.0330883 -0.05853762 -0.008585117 -0.06276652 -0.04565964 -0.00080407405 -0.017063154
-0.020317981 0.010322115 -0.01151631 -0.053142473 0.008213553 0.0251488 0.04311593 -0.021733772
-0.029644417 -0.045537777 0.03199531 -0.04618407 0.051644623 0.027430266 0.04606041 -0.015644845
0.043233734 -0.020495836 -0.0015573425 0.037234906 -0.03804422 -0.020949211 -0.0014319369 0.0124000255
-0.0152720865 -0.053467795 -0.019650958 0.016636852 -0.033298317 -0.039532837 -0.01566284 0.02259674
-0.016144795 0.014158395 0.010856107 0.039949436 -0.0150598455 -0.036247257 -0.02269072 -0.049290936
-0.02596226 -0.032666586 -0.051987257 -0.06415118 -0.057970293 0.017049832 -0.0123122055 0.061955687
-0.0130774155 0.030278249 -0.029305708 0.062254433 0.0036267529 -0.0017453191 0.007830598 0.0067985905
-0.028781595 0.0076245815 -0.04187613 0.022349635 0.04931644 0.046329267 -0.021486443 -0.022341557
0.056178067 -0.03351718 0.013568235 0.014281992 0.04795393 -0.037575375 0.04823155 -0.011425859
0.04241565 -0.06395796 -0.037295446 -0.015764333 -0.06319903 -0.009004912 -0.050655838 0.030063653
0.04412621 -0.010576987 0.03311377 0.030438313 0.02784439 0.0048111794 -0.03861796 -0.048730668
0.017601844 -0.044131633 0.04509719 -0.001184372 -0.03980736 -0.03318413 0.0012962285 -0.011942335
0.043516833 -0.03741373 -0.046656247 -0.06450496 0.005159677 -0.0473078 -0.0081670005 0.05279345
-0.028750628 0.050579373 0.028011858 -0.041739244 0.027028041 -0.0317678 0.024690839 -0.042252403
0.0072444743 0.026391694 0.037631005 -0.032265328 0.026647763 0.033106063 -0.01885581 0.03875896
-0.016100029 -0.03872676 0.016886335 0.01126818 -0.06206292 -0.03168963 -0.023956422 0.039594024
-0.00045305127 -0.049918108 0.009084203 0.017564602 0.013967437 0.04334698 -0.060376156 0.005844158
-0.027220162 -0.022457093 -0.03588755 -0.010040302 -0.052675284 -0.054109283 0.039922513 0.03496866
-0.02528362 -0.017389327 -0.022454448 0.0058401073 -0.015080605 0.028907496 -0.005080022 0.023000535
-0.024385294 -0.03294842 0.022188213 0.0452265 -0.02854212 0.027978491 -0.003225975 0.060870245
-0.034586824 0.04378141 0.01949326 0.03814534 0.0049559297 0.04905225 -0.009275587 0.007268937
-0.007224598 0.006076641 0.0521909 0.04207468 -0.035363108 -0.025641778 0.032491032 -0.02476266
-0.019386163 0.013256517 -0.036890924 -0.043984003 0.04731953 -0.059752647 -0.040121872 0.020648701
-0.014018558 0.025824627 -0.013361468 -0.007659467 -0.017431654 0.0087872585 0.0135981 -0.00876084
0.03878882 -0.039258234 -0.014552649 0.0044318764 0.025396232 -0.021787072 0.0008130337 -0.06509547
0.020006496 0.02737901 -0.05898316 -0.05649679 -0.004432598 0.03932742 0.011848439 0.03494298
-0.0394343 0.0444383 0.049424298 -0.03572261 0.018653465 -0.015340973 0.06733343 -0.027143696
-0.06113399 -0.049043115 0.043320272 0.018526562 -0.05535173 -0.046133634 0.03311861 -0.029234113
-0.03813635 -0.023476815 -0.030124094 -0.04205094 -0.033408873 0.0014008589 0.006393337 0.04215119
-0.064692214 -0.022291368 -0.02786191 -0.03607496 0.016372273 -0.03397995 -0.024264663 -0.048772696
-0.028374873 -0.0017121371 -0.037091825 -0.01829181 -0.037138082 0.009474765 0.019072471 -0.036556885
00000000: 7334 3cbd 9987 073d 25c5 6fbd 97a8 0cbc
00000010: bc8b 80bd 9a05 3bbd 7fc8 52ba 07c8 8bbc
00000020: e571 a6bc 171e 293c e8ae 3cbc ecab 59bd
00000030: 2392 063c db04 ce3c 549a 303d 060b b2bc
00000040: d9d8 f2bc d285 3abd 840d 033d 822b 3dbd
00000050: 5089 533d 70b5 e03c d7a9 3c3d 9e29 80bc
00000060: db15 313d e2e6 a7bc be1f ccba a183 183d
00000070: 42d4 1bbd ae9d abbc d4af bbba 7a29 4b3c
00000080: c637 7abc 0c01 5bbd 0cfb a0bc 024a 883c
00000090: d163 08bd 2fed 21bd 5b4f 80bc cc1c b93c
000000a0: 1742 84bc 9df8 673c d0dd 313c 05a2 233d
000000b0: 92bd 76bc 0178 14bd e4e1 b9bc 4be5 49bd
000000c0: ceae d4bc 66cd 05bd 97f0 54bd b261 83bd
000000d0: 4272 6dbd 17ac 8b3c 22b9 49bc 3fc5 7d3d
000000e0: a842 56bc 170a f83c 8612 f0bc 81fe 7e3d
000000f0: d1ae 6d3b 31c3 e4ba e94b 003c b6c6 de3b
00000100: 61c7 ebbc a0d7 f93b 4e86 2bbd 9516 b73c
00000110: 0900 4a3d c2c3 3d3d 5604 b0bc a405 b7bc
00000120: f91a 663d 4f49 09bd 4d4d 5e3c 04ff 693c
00000130: 576b 443d a3e8 19bd 728e 453d 8733 3bbc
00000140: 08bc 2d3d 64fc 82bd 1cc3 18bd 3424 81bc
00000150: 7e6e 81bd 5789 13bc 7f7c 4fbd 0d48 f63c
00000160: afbd 343d 194b 2dbc 4ea2 073d c559 f93c
00000170: eb19 e43c 19a7 9d3b de2d 1ebd cf99 47bd
00000180: be31 903c 5fc3 34bd d5b7 383d ee3c 9bba
00000190: 0b0d 23bd 15ec 07bd 36e6 a93a c9a9 43bc
000001a0: b53e 323d 243f 19bd 9f1a 3fbd 2d1b 84bd
000001b0: 8212 a93b d3c5 41bd e2ce 05bc f23d 583d
000001c0: 7086 ebbc 512c 4f3d 2079 e53c c5f6 2abd
000001d0: e969 dd3c f41e 02bd 7144 ca3c db10 2dbd
000001e0: 0e63 ed3b 6533 d83c f822 1a3d a628 04bd
000001f0: 694c da3c 399a 073d 8077 9abc b7c1 1e3d
00000200: 35e4 83bc f39f 1ebd 3655 8a3c 2c9e 383c
00000210: b035 7ebd fccc 01bd 4240 c4bc 582d 223d
00000220: 8387 edb9 ee76 4cbd e9d5 143c a4e3 8f3c
00000230: add7 643c 9a8c 313d fd4c 77bd 5a80 bf3b
00000240: d1fc debc f0f7 b7bc d3fe 12bd 1480 24bc
00000250: 0ac2 57bd b2a1 5dbd ca85 233d 4c3b 0f3d
00000260: 981f cfbc 1074 8ebc 64f2 b7bc 5f5e bf3b
00000270: a414 77bc 6acf ec3c 5076 a6bb 9e6b bc3c
00000280: abc3 c7bc ecf4 06bd 0ec4 b53c 6c3f 393d
00000290: 2ad1 e9bc 2633 e53c e16a 53bb 1453 793d
000002a0: eaaa 0dbd 2354 333d 54b0 9f3c 4a3e 1c3d
000002b0: 5a65 a23b 03eb 483d a2f8 17bc 4330 ee3b
000002c0: 52bc ecbb 8f1e c73b 20c6 553d 8056 2c3d
000002d0: e8d8 10bd b50e d2bc 5115 053d 10db cabc
000002e0: bbcf 9ebc dd31 593c f01a 17bd 9228 34bd
000002f0: 20d2 413d 31bf 74bd d556 24bd 7727 a93c
00000300: 18ae 65bc 2b8e d33c 0fea 5abc 44fc fabb
00000310: d4cc 8ebc 6ff8 0f3c 91ca 5e3c a089 0fbc
00000320: 07e1 1e3d 3ecd 20bd 3c6e 6ebc 4639 913b
00000330: c20b d03c cd7a b2bc c521 553a c650 85bd
00000340: aae4 a33c f249 e03c 5398 71bd 2e69 67bd
00000350: 543f 91bb ca15 213d f51f 423c 5f20 0f3d
00000360: dc85 21bd ef04 363d 2271 4a3d df51 12bd
00000370: 27cf 983c b458 7bbc 1ce6 893d 755c debc
00000380: a267 7abd 6fe1 48bd 9970 313d 04c5 973c
00000390: 7fb8 62bd 9ff6 3cbd 61a7 073d 617c efbc
000003a0: dd34 1cbd 7352 c0bc cec6 f6bc 9b3d 2cbd
000003b0: bed7 08bd 069d b73a 337f d13b baa6 2c3d
000003c0: 5a7d 84bd 639c b6bc a93e e4bc 56c3 13bd
000003d0: 251f 863c 8f2e 0bbd b0c6 c6bc e1c5 47bd
000003e0: 6c72 e8bc ca69 e0ba 99ed 17bd b5d8 95bc
000003f0: 1a1e 18bd 0b3c 1b3c df3d 9c3c acbc 15bd

bias f4 [32]
0.0620102 -0.012495965 -0.005208 -0.041840937 0.03276396 0.059656776 -0.05301563 0.07596867
0.04270388 0.04625647 0.009433727 0.014372013 0.07014546 0.048384648 -0.016618822 -0.021971798
0.061989773 -0.021418123 -0.005466803 -0.03886372 0.030321974 0.005633257 0.06612053 -0.006227034
0.023336967 -0.029348642 -0.02144026 -0.042310894 0.015808662 0.029849578 0.037003603 0.07704809
00000000: 68fe 7d3d e0bb 4cbc dfa7 aabb 6761 2bbd
00000010: 8133 063d aa5a 743d eb26 59bd 7695 9b3d
00000020: 44ea 2e3d 6d77 3d3d eb8f 1a3c 9778 6b3c
00000030: 6ca8 8f3d fb2e 463d 3224 88bc 33fe b3bc
00000040: fde8 7d3d 0f75 afbc de22 b3bb 902f 1fbd
00000050: ca65 f83c 2f97 b83b 336a 873d 260c ccbb
00000060: 2b2d bf3c 906c f0bc 7ca3 afbc 304e 2dbd
00000070: 2b81 813c 1a87 f43c 1791 173d 64cb 9d3d

weight f4 [32, 32, 3, 3]
0.02186794 -0.0055617057 0.033456888 -0.05918097 0.053383425 -0.04695619 0.04120612 -0.028930929
0.06537663 0.025845801 0.036350425 0.026395733 -0.01835109 0.01062075 0.02337207 0.03156891
0.030053757 0.06042277 0.0059562237 -0.022564135 0.03980635 0.048929166 0.040149443 -0.043818302
-0.0010639324 0.009060189 -0.008834855 0.029425457 -0.05442596 0.03302037 -0.014505851 0.011618157
-0.010634661 -0.04626865 0.027716469 0.006657926 -0.013645691 0.036932144 0.04085876 -0.03520314
-0.025827583 -0.028153265 -0.05097825 -0.06215407 -0.03643132 -0.02550146 -0.0021252274 0.0014394496
0.051399242 0.0032375674 0.03879937 -0.04339956 0.0066948296 0.002754427 0.024903918 0.045534
0.045281924 0.018469851 0.030927662 0.049442653 0.05897382 0.032984268 -0.030732375 0.02901628
0.016222084 0.047329474 0.012242834 0.015655516 0.009974124 0.030137183 0.04746796 0.06404844
-0.057124577 0.023163106 0.041192483 -0.039345272 -0.058070138 0.024322214 -0.008948896 0.040872563
0.017745372 0.055433393 -0.039629847 -0.007918792 -0.044851005 0.019621555 0.050066512 -0.027530681
0.05263307 -0.037204295 0.03692649 -0.053183094 -0.050581224 -0.031789917 0.013410781 -0.057759516
0.028607612 -0.056869432 -0.008087136 -0.027613401 -0.018457264 -0.04584146 0.04945525 0.047477692
-0.0662447 -0.005680219 -0.04108818 -0.045722153 -0.015487096 0.03700481 -0.05594439 0.061157934
0.053587634 0.024758134 0.05328694 0.013273671 0.03195372 0.012778959 -0.06611837 0.0036020626
-0.019282898 -0.070569605 0.033987306 -0.035371274 -0.0066945367 -0.042206623 0.035034176 0.0004921309
-0.025772393 -0.02806144 0.0122098075 -0.05494098 0.026318371 -0.04995512 -0.038422637 0.0020408854
-0.0347456 0.012886512 -0.035227545 -0.014454415 0.021247407 0.051304746 0.0060910303 0.03855092
-0.056300018 -0.01919839 0.030332366 -0.0155415 -0.059169054 -0.012706605 -0.019211497 0.012755151
-0.018133683 -0.02317297 0.027119292 0.059109986 0.0033350908 0.03263037 0.02558223 0.0287375
0.008954345 0.014633351 -0.05576641 0.03797196 -0.028156867 -0.047734145 -0.036058396 0.022069316
-0.018385591 -0.038261518 0.03909567 -0.040381823 -0.053591534 0.016287254 -0.035842624 -0.050521962
-0.029588206 -0.04327386 -0.014064481 -0.04087146 0.0073621785 -0.0015211356 0.045363706 0.040370923
-0.027988365 0.023248428 -0.049745273 -0.04796465 -0.03852726 -0.018102849 -0.047708936 0.033970963
0.057166614 -0.036670182 -0.050924994 -0.0069072135 0.058282964 0.023448028 -0.004912312 0.04512864
0.033837877 0.02120034 -0.03763329 -0.025192026 -0.016861575 -0.018379945 0.0042464035 0.03025362
-0.04269702 -0.06732918 -0.05992327 0.004397723 -0.049847607 0.018890928 0.0072208075 0.005434621
-0.020936863 0.029962013 0.0409647 0.020290071 0.0038636783 0.02573909 0.009895233 0.016598191
0.02591151 0.0504299 -0.012329982 0.026888186 0.043371975 -0.050046872 -0.0039931713 -0.050805163
-0.045678712 0.035817813 -0.029446645 0.06837852 0.06554777 -0.02544276 -0.040440254 0.0021758536
-0.035806645 0.04631853 -0.0049516815 0.017038 0.0011450411 -0.0030910755 -0.027622575 0.019218396
0.02625918 0.014037585 0.0046902914 -0.014002615 -0.011188238 0.03320768 0.03977623 -0.009443259
00000000: 6524 b33c f83e b6bb 170a 093d bf67 72bd
00000010: 94a8 5a3d 2255 40bd c0c7 283d 8e00 edbc
00000020: 2fe4 853d 93ba d33c 2fe4 143d dd3b d83c
00000030: 0655 96bc a702 2e3c c976 bf3c 674e 013d
00000040: 4c33 f63c de7d 773d 6d2c c33b 6cd8 b8bc
00000050: fc0b 233d f369 483d be73 243d d27a 33bd
00000060: a673 8bba 3071 143c 11c0 10bc a80d f13c
00000070: c1ed 5ebd 5e40 073d f3a9 6dbc 155a 3e3c
00000080: 003d 2ebc 3284 3dbd a60d e33c bb2a da3b
00000090: 2d92 5fbc 2946 173d 845b 273d 2b31 10bd
000000a0: 5e94 d3bc ada1 e6bc 92ce 50bd 4495 7ebd
000000b0: 0239 15bd 70e8 d0bc 6647 0bbb eaab bc3a
000000c0: 0388 523d 5e2d 543b 17ec 1e3d bdc3 31bd
000000d0: 4d60 db3b 9e83 343b 4d03 cc3c dc81 3a3d
000000e0: 8a79 393d 164e 973c 025c fd3c 6184 4a3d
000000f0: 888e 713d 831a 073d 76c2 fbbc 8db3 ed3c
00000100: 2de4 843c 8ddc 413d 2b96 483c ff3f 803c
00000110: 826a 233c 41e2 f63c c36d 423d d42b 833d
00000120: 76fb 69bd 8ec0 bd3c 73b9 283d 8228 21bd
00000130: f4da 6dbd 613f c73c 649e 12bc fd69 273d
00000140: be5e 913c 200e 633d e852 22bd d2bd 01bc
00000150: b0b5 37bd 62bd a03c 8b12 4d3d 0688 e1bc
00000160: c695 573d 8863 18bd 3b40 173d 84d6 59bd
00000170: 422e 4fbd 2536 02bd e4b8 5b3c 3e95 6cbd
00000180: 835a ea3c ecef 68bd e87f 04bc 8035 e2bc
00000190: b033 97bc 41c4 3bbd 9791 4a3d f877 423d
000001a0: 4dab 87bd 2121 babb 144c 28bd 2747 3bbd
000001b0: 97bd 7dbc 5b92 173d f225 65bd be80 7a3d
000001c0: b57e 5b3d 92d1 ca3c 6843 5a3d d079 593c
000001d0: e7e1 023d d75e 513c 1169 87bd 9510 6c3b
000001e0: 2bf7 9dbc cc86 90bd 4636 0b3d 78e1 10bd
000001f0: d85d dbbb dae0 2cbd ff7f 0f3d 5802 013a
00000200: a020 d3bc 1be1 e5bc a50b 483c cb09 61bd
00000210: a099 d73c bd9d 4cbd 0e61 1dbd 60c0 053b
00000220: 6751 0ebd f321 533c c24a 10bd 36d2 6cbc
00000230: 0b0f ae3c ed24 523d 4497 c73b 92e7 1d3d
00000240: d99a 66bd f145 9dbc 957b f83c c7a1 7ebc
00000250: 405b 72bd 5d2f 50bc 6e61 9dbc fbfa 503c
00000260: 178d 94bc 3ed5 bdbc 4729 de3c 501d 723d
00000270: 8a91 5a3b 6ca7 053d d391 d13c e86a eb3c
00000280: 3fb5 123c b9c0 6f3c 526b 64bd 7c88 1b3d
00000290: 3ba9 e6bc e184 43bd f8b1 13bd b6ca b43c
000002a0: 619d 96bc 1cb8 1cbd c822 203d 6967 25bd
000002b0: cc82 5bbd d96c 853c b7cf 12bd 1ef0 4ebd
000002c0: f762 f2bc ee3f 31bd b56e 66bc d568 27bd
000002d0: 6e3e f13b d760 c7ba 4bcf 393d fb5b 253d
000002e0: db47 e5bc 7d73 be3c b3c1 4bbd 9576 44bd
000002f0: c3ce 1dbd 6d4c 94bc 726a 43bd 2325 0b3d
00000300: 8a27 6a3d 7933 16bd ba96 50bd e855 e2bb
00000310: 1eba 6e3d 1416 c03c 76f7 a0bb cfd8 383d
00000320: 9699 0a3d 56ac ad3c 5d25 1abd 825f cebc
00000330: 4921 8abc 8a91 96bc 6a25 8b3b 71d6 f73c
00000340: 12e3 2ebd e2e3 89bd 1a72 75bd c61a 903b
00000350: 012d 4cbd 26c1 9a3c 869c ec3b e814 b23b
00000360: c983 abbc e572 f53c 9aca 273d 5d37 a63c
00000370: c435 7d3b c9da d23c 9e1f 223c eef8 873c
00000380: 6044 d43c 958f 4e3d b103 4abc 9d44 dc3c
00000390: d0a6 313d f3fd 4cbd 26d9 82bb 1319 50bd
000003a0: 9a19 3bbd b3b5 123d 173a f1bc 0a0a 8c3d
000003b0: e93d 863d 566d d0bc aea4 25bd c498 0e3b
000003c0: fda9 12bd 80b8 3d3d b741 a2bb 4793 8b3c
000003d0: 3415 963a a493 4abb bd48 e2bc e66f 9d3c
000003e0: 7e1d d73c e6fd 653c 04b1 993b 396b 65bc
000003f0: df4e 37bc c704 083d 66ec 223d e6b7 1abc

bias f4 [32]
-0.046657063 0.038059995 -0.03140421 -0.020362807 -0.038764652 -0.013164186 0.014233932 0.018097887
0.008005942 0.052231893 0.04374659 0.016416281 0.015859637 -0.06552695 0.047500707 -0.029444747
-0.01371902 0.02360564 0.06495513 -0.05630749 0.0023418178 0.04455649 0.009370743 -0.00035539432
0.050767012 0.040098205 0.073985845 0.074600756 0.022740828 0.07632781 0.001054307 0.061276004
00000000: 7a1b 3fbd cce4 1b3d b3a1 00bd e7cf a6bc
00000010: afc7 1ebd 99ae 57bc 7035 693c 0542 943c
00000020: 5b2b 033c 1cf1 553d a02f 333d 707b 863c
00000030: 12ec 813c fe32 86bd 1a90 423d 1c36 f1bc
00000040: bec5 60bc 9d60 c13c 3207 853d afa2 66bd
00000050: 2f79 193b de80 363d bf87 193c 3854 bab9
00000060: 12f1 4f3d 043e 243d e485 973d 48c8 983d
00000070: f94a ba3c c151 9c3d ac30 8a3a 8cfc 7a3d

weight f4 [32, 16, 3, 3]
0.07346637 -0.00054755074 0.004217384 -0.044621117 0.043890968 0.014269158 0.060093828 0.07639923
0.089025185 -0.033847716 0.03401413 -0.05655439 -0.021051837 -0.0431502 0.06128186 -0.012564365
-0.0007312614 -0.059644505 0.059099235 0.009608454 0.05950274 -0.03752046 -0.052346006 0.0053733904
0.083996914 -0.06377737 0.040987916 -0.01569581 0.02722337 -0.048446663 0.05305556 0.030459644
-0.049740937 0.08338995 -0.023007363 -7.024268e-05 -0.060322315 0.04697893 0.045097392 -0.024610281
0.09436907 0.04658725 -0.011837574 0.06868405 0.0038826643 0.00845373 0.045319945 -0.08994096
0.07239106 0.06028189 0.017248277 -0.077829696 0.015120327 0.0339323 -0.07199951 0.07563309
0.007322081 -0.007310082 -0.0459246 -0.049801376 -0.06427966 0.046424814 -0.036373537 -0.026668556
0.01303807 0.08482907 -0.051512294 0.004866951 0.00080960663 0.03942084 -0.02910268 0.020950023
0.07561472 -0.05111282 0.09048129 0.049930166 -0.059128642 -0.00103086 0.051907275 0.004897111
-0.037749033 -0.038294785 0.0072359466 -0.04772605 0.0093333945 0.04375065 0.04844404 -0.010715159
0.043089647 -0.025825387 -0.021070182 -0.032441925 -0.030288817 0.039486848 0.065513045 0.092018984
0.057030633 0.072932355 0.0399547 0.00174316 0.06165513 -0.015590725 0.06780037 -0.0072438195
0.025231726 0.058261983 0.055631317 0.0250829 0.04456134 0.07500898 0.034511004 0.017924039
-0.04843207 0.03847712 -0.06334575 -0.012286272 0.00879068 0.020868171 0.08313089 0.016470158
0.058321007 0.048094194 0.033148743 -0.017798202 0.024846913 -0.050828155 0.046730466 0.053381115
0.011625509 0.0377452 -0.04128653 0.067656875 0.035228495 0.03856932 -0.0032795044 0.0053518494
-0.03606009 3.0091745e-05 -0.03575071 0.044926874 0.04189709 -0.034047324 -0.031319242 0.048414145
0.027536482 0.035896756 0.08228735 0.0034398534 0.0034868831 -0.0077258805 0.079468496 0.015715871
0.059400707 -0.028147623 -0.040140867 0.018081114 -0.048227657 0.021737851 -0.037472583 0.06298757
0.018530535 -0.04428123 -0.07688397 -0.08468134 -0.052448213 -0.014275651 -0.02929125 0.050483692
0.03770804 0.016349671 0.025071247 -0.025602503 -0.046093386 0.04581744 -0.047833454 -0.04331486
0.017193198 0.014896047 -0.06821642 -0.0035266536 0.01758987 0.014530339 -0.024090094 -0.025952479
0.06327575 -0.04233919 -0.031631883 -0.02448685 0.0542552 -0.0033588824 -0.026782578 0.04329276
0.051700782 0.040673625 -0.064055264 0.0023383559 -0.04090251 -0.08450829 0.06861121 0.018758548
0.017898895 -0.042038236 -0.025299385 -0.027485682 -0.07571108 -0.08882771 -0.032896303 0.0002430034
0.06515105 0.05141746 -0.014601005 0.0414382 0.002290143 -0.056002863 0.053716514 0.061941724
-0.041558046 0.0082569 0.04402491 -0.08300631 -0.08512154 -0.087180346 0.026401063 -0.030234376
0.03837309 0.03541172 -0.033679105 -0.020965517 0.013775483 0.02480016 0.00072492554 0.025419643
0.026824275 0.03914765 0.009385289 0.04926904 -0.008959052 0.07425631 0.055894077 -0.04847172
0.04468782 -0.042490564 0.046045337 0.10027897 -0.054429606 0.021981042 0.0011360061 0.10219467
0.031049605 0.021628156 0.09173103 0.028221 -0.011906001 -0.07976801 0.013929935 0.047591407
00000000: 8975 963d 8289 0fba fb31 8a3b a2c4 36bd
00000010: 04c7 333d 30c9 693c f224 763d 3377 9c3d
00000020: d652 b63d e7a3 0abd 6652 0b3d 93a5 67bd
00000030: e774 acbc 44be 30bd b002 7b3d c4da 4dbc
00000040: 1fb2 3fba cc4d 74bd 0a12 723d c76c 1d3c
00000050: 25b9 733d 0eaf 19bd c468 56bd 4413 b03b
00000060: 9306 ac3d b69d 82bd f2e2 273d 8094 80bc
00000070: 8b03 df3c 0270 46bd c950 593d 8186 f93c
00000080: 27bd 4bbd 5ac8 aa3d f079 bcbc 404f 93b8
00000090: 8814 77bd fa6c 403d 0bb8 383d 809b c9bc
000000a0: 9244 c13d 46d2 3e3d 62f2 41bc 39aa 8c3d
000000b0: 4c74 7e3b 8381 0a3c 68a1 393d f732 b8bd
000000c0: c441 943d 25ea 763d 424c 8d3c 2d65 9fbd
000000d0: 3fbb 773c 98fc 0a3d 7b74 93bd 86e5 9a3d
000000e0: 11ee ef3b 6a89 efbb 6f1b 3cbd 87fc 4bbd
000000f0: 0ea5 83bd f227 3e3d 6bfc 14bd 0478 dabc
00000100: a19d 553c ddba ad3d 8efe 52bd f27a 9f3b
00000110: c83b 543a bf77 213d be68 eebc 629f ab3c
00000120: e4db 9a3d ad5b 51bd 414e b93d 9383 4c3d
00000130: e030 72bd ec1d 87ba b99c 543d f277 a03b
00000140: bb9e 1abd feda 1cbd 851b ed3b 647c 43bd
00000150: 18eb 183c e233 333d 426d 463d a28e 2fbc
00000160: c57e 303d c38f d3bc 609b acbc d3e1 04bd
00000170: 4120 f8bc f6bc 213d b42b 863d 7374 bc3d
00000180: f498 693d 8f5d 953d 8aa7 233d be7a e43a
00000190: 178a 7c3d 3d70 7fbc ecda 8a3d 905d edbb
000001a0: c4b2 ce3c 1ea4 6e3d aadd 633d a77a cd3c
000001b0: f485 363d 4f9e 993d 695b 0d3d 6fd5 923c
000001c0: b560 46bd 2f9a 1d3d 6bbb 81bd 5c4c 49bc
000001d0: c906 103c baf3 aa3c 8740 aa3d 6dec 863c
000001e0: 02e2 6e3d 6bfe 443d fac6 073d 89cd 91bc
000001f0: c18b cb3c 2f31 50bd 7268 3f3d 28a6 5a3d
00000200: eb78 3e3c b69a 1a3d 111c 29bd b08f 8a3d
00000210: c14b 103d ddfa 1d3d f4ec 56bb 915e af3b
00000220: bfb3 13bd 886d fc37 566f 12bd 3e05 383d
00000230: 489c 2b3d 3575 0bbd 9b48 00bd e94d 463d
00000240: 3094 e13c 7a08 133d 4586 a83d 2a6f 613b
00000250: 3184 643b 6229 fdbb 61c0 a23d 92be 803c
00000260: 284e 733d d895 e6bc c06a 24bd d81e 943c
00000270: 5d8a 45bd 9413 b23c da7c 19bd a1ff 803d
00000280: 59cd 973c 3c60 35bd 5875 9dbd 696d adbd
00000290: f0d3 56bd 6ce4 69bc 34f4 efbc fdc7 4e3d
000002a0: bf73 1a3d bfef 853c 3762 cd3c 57bc d1bc
000002b0: 6bcc 3cbd 11ab 3b3d 03ed 43bd ec6a 31bd
000002c0: c0d8 8c3c 8d0e 743c 0db5 8bbd 6e1f 67bb
000002d0: a218 903c a910 6e3c 9758 c5bc 4b9a d4bc
000002e0: b796 813d dc6b 2dbd 6f90 01bd a598 c8bc
000002f0: b33a 5e3d b220 5cbb 2367 dbbc c053 313d
00000300: 33c4 533d 6399 263d 682f 83bd 1a3f 193b
00000310: 6489 27bd af12 adbd 0984 8c3d 87ab 993c
00000320: b4a0 923c 4930 2cbd a840 cfbc a729 e1bc
00000330: 690e 9bbd 4deb b5bd 46be 06bd bace 7e39
00000340: ea6d 853d 1d9b 523d 0e39 6fbc 1abb 293d
00000350: 3916 163b 4263 65bd d905 5c3d 9bb6 7d3d
00000360: c538 2abd f347 073c 7753 343d 36ff a9bd
00000370: 3454 aebd 9c8b b2bd 0b47 d83c 15ae f7bc
00000380: 1a2d 1d3d e10b 113d 1af3 09bd e0bf abbc
00000390: 90b2 613c b529 cb3c ee08 3e3a db3c d03c
000003a0: 95be db3c 4959 203d c1c4 193c 55ce 493d
000003b0: fdc8 12bc b113 983d 30f1 643d 488a 46bd
000003c0: 930a 373d 960a 2ebd 099a 3c3d 105f cd3d
000003d0: 94f1 5ebd 9611 b43c 0ae6 943a 704b d13d
000003e0: be5b fe3c 882d b13c 7add bb3d ba2f e73c
000003f0: 6311 43bc 695d a3bd 623a 643c 35ef 423d

bias f4 [16]
0.04970265 -0.09867213 0.09340555 0.042907316 0.069171555 -0.040648166 -0.0714877 -0.021605492
0.04354648 -0.03664502 0.010097664 0.024578474 -0.04548318 -0.05020659 0.078942336 0.012489355
00000000: 0295 4b3d 9d14 cabd 694b bf3d 95bf 2f3d
00000010: d1a9 8d3d b17e 26bd 2568 92bd 00fe b0bc
00000020: cb5d 323d 1719 16bd ac70 253c cc58 c93c
00000030: 924c 3abd 6da5 4dbd 85ac a13d 27a0 4c3c
