Baseline/bestKernel_Num_Set_2.pt (torch_old, 925735 bytes, 16 tensors)

weight f4 [64, 3, 3, 3]
000000 48 25 2e be ee 42 c3 bd ed 53 9a bd 68 b4 27 be
       -0.17006409 -0.0953425 -0.07535539 -0.16377413
000010 87 ea 1f 3d f9 1d a7 3d 3b a6 ab bc cd 49 81 bd
       0.039042022 0.08160014 -0.020953288 -0.063129045
000020 33 17 47 3c 1d af 28 be fe 88 04 be b6 4c 94 bc
       0.012151527 -0.1647305 -0.12942883 -0.018102985
000030 b7 90 23 3e 78 27 91 bd 20 2c a8 3d 93 f2 b4 bd
       0.15973173 -0.07087606 0.08211541 -0.0883533
000040 11 3a 84 bd e1 d7 4a be 0c e9 32 3e df 67 50 3e
       -0.06456388 -0.19808914 0.17471713 0.20352124
000050 10 b9 46 3c b1 3f 0c 3e 9b 0e 31 3e db 96 e3 3d
       0.012129083 0.13696171 0.17290728 0.11112758
000060 f8 5b e6 3d 55 e4 2c be fb 79 29 be b6 fe 03 be
       0.112480104 -0.16883977 -0.16550438 -0.12890133
000070 86 4f 9f 3d fc a8 17 be cb 9d 03 be ba 4a 98 bd
       0.0777884 -0.14810556 -0.12853162 -0.07436128
000080 c5 cb 22 be 22 e0 a2 3c e3 ed 45 3d 29 57 bd bd
       -0.15898044 0.019882265 0.04832257 -0.0924514
000090 23 ec 11 3e 94 81 65 bd 99 6a 18 bd 6c 4c 27 3e
       0.14250235 -0.05603178 -0.037211034 0.16337746
0000a0 c7 bf 3a 3e b9 55 9f bb cb 93 f8 bd 5a 8e a2 bd
       0.1823722 -0.004862514 -0.12137564 -0.07937308
0000b0 05 f4 2c 3d 0f 45 c1 3d f3 20 9e 3d f9 71 d2 bd
       0.042224903 0.09437 0.07721128 -0.10275645
0000c0 00 17 4e be 4e 1a 40 be be f7 a1 bd cd d5 8c bc
       -0.20125961 -0.18760034 -0.07908581 -0.017191792
0000d0 3e 0a d9 bd 5e 3e 2f be b3 7d 00 3d 29 a2 0e be
       -0.10597657 -0.17113635 0.031369876 -0.13929047
0000e0 40 20 0c be 5d 84 14 be 47 6e 29 bd a4 7c 34 3e
       -0.13684177 -0.14503618 -0.041364934 0.17625672
0000f0 5a 9b aa 3d c4 f2 7d bc 07 1d 3a 3d 8d a0 80 3d
       0.08330412 -0.015499774 0.04543784 0.06280623
000100 b6 89 4d bc 41 8b 2e be 66 f9 08 be d0 2e 15 be
       -0.01254504 -0.17045309 -0.13376388 -0.14568639
000110 8d a6 ab bc d1 5b 44 be bc db 4e bd e7 44 b2 bd
       -0.020953441 -0.1917565 -0.050502524 -0.08704548
000120 d6 e8 54 3e 09 c4 33 3e 3f 50 08 3e d1 af f9 3c
       0.20791945 0.1755525 0.13311861 0.030479344
000130 3e cc 34 bd cf 3b 8d 3d 46 19 e7 bd f8 19 82 bd
       -0.044140093 0.06896173 -0.112841174 -0.063526094
000140 44 85 96 bc 96 06 14 bd 87 8b 2f be 3d e6 ab 3d
       -0.018374093 -0.036139093 -0.17143069 0.08393524
000150 3a dc 28 3e ab 36 c8 bd 7e 12 6d 3d 01 79 77 bc
       0.1649026 -0.09776052 0.057878964 -0.015104533
000160 a9 4c 06 39 0c ad 91 3c b1 a4 25 3e f1 a6 c4 3c
       0.00012807794 0.01778271 0.16176106 0.024005385
000170 1c 17 06 be cb 92 96 bd 83 66 bd 3d 4b 87 55 3d
       -0.13094753 -0.07352217 0.09248068 0.05213098
000180 e7 31 84 bb dd 1b f4 bc fa 21 ae bd fa f1 4a bd
       -0.004034269 -0.029798442 -0.08502574 -0.049547173
000190 51 1b a8 bd f7 66 4e 3d 05 33 95 3d 2c 88 2a 3e
       -0.08208335 0.050391164 0.07285122 0.16653508
0001a0 7e bf c8 bc 24 fd 0a 3d 2c 25 14 3e 88 07 d5 3d
       -0.024505373 0.03393282 0.14467305 0.10401827
0001b0 a8 c8 9f 3c c8 ae 5c 3d 35 9d 9d 3b 44 5a 2e be
       0.01950486 0.053877622 0.0048100003 -0.17026621
0001c0 96 fd 12 3b 6a 66 41 bd 66 c5 2c 3e 06 c5 2c 3e
       0.002242898 -0.04721681 0.16872177 0.16872033
0001d0 56 7d 07 3d c3 50 26 3e 5a ab d5 bd bf 28 23 3e
       0.033078514 0.16241746 -0.10433073 0.15933512
0001e0 09 33 21 3e 6c 4e 72 bc a4 ea 26 be 7b d8 8e bd
       0.15742125 -0.014789205 -0.16300446 -0.06974884
0001f0 92 a2 72 bd 76 30 9a bb 70 21 20 be cf aa 5a 3d
       -0.05923707 -0.004705484 -0.15637755 0.053385552
000200 94 4f 87 bd bd a3 f8 bc 2b e5 a7 bd 5d c0 d6 bc
       -0.06606975 -0.030351514 -0.08198007 -0.026214773
000210 61 b1 25 be 84 03 b1 bd 89 18 fa 3c 57 cd fc 3d
       -0.16180946 -0.08643249 0.030529277 0.12343853
000220 a2 b7 31 3e ad 31 13 be 27 bf a1 3d 46 47 db bd
       0.17355207 -0.14374419 0.078977875 -0.10706954
000230 62 e0 11 be b3 ff 18 bc 28 76 da bd 1a bc 20 be
       -0.14245752 -0.009338307 -0.10667068 -0.15696755
000240 1c c3 49 be b6 79 15 be 70 ef 0f 3e 38 cb b8 3d
       -0.19703335 -0.1459721 0.14056182 0.09023136
000250 47 c4 be bd 38 e9 15 be 81 dc 28 be 72 7f 05 be
       -0.09314781 -0.14639747 -0.16490366 -0.13036898
000260 87 a7 c4 bd d4 e0 0a 3e 31 fa a9 3d df 63 5e bd
       -0.09602266 0.13562328 0.08299673 -0.054294463
000270 8a f2 1b 3e b5 6c cc bd ec 9d 0c be 5c 58 7c 3d
       0.1522924 -0.09981672 -0.13732117 0.061607704
000280 18 8e b1 bd 44 ec 96 3d ef 48 29 3e 1c b8 ab bd
       -0.0866968 0.07369283 0.16531728 -0.083847255
000290 2b 75 01 be 91 4d 9c 3d ce 9f 29 be 5c 2d 34 3e
       -0.12642352 0.07631982 -0.16564867 0.17595428
0002a0 65 f7 ad bd 36 c5 c8 3d 83 39 14 be d5 91 db bd
       -0.084944524 0.0980324 -0.14475064 -0.10721175
0002b0 76 19 2d 3d 66 56 c0 3d ea a3 31 3e 85 54 40 3e
       0.04226061 0.09391479 0.17347685 0.18782242
0002c0 8a af 84 3c 06 8a 2b 3b de d8 6e 3d d8 ff 9c bc
       0.016196985 0.0026174798 0.05831229 -0.019164965
0002d0 9c f7 e0 3c 23 d2 24 be 74 03 0b be 69 68 1d 3e
       0.02746182 -0.16095786 -0.13575536 0.1537186
0002e0 44 e6 b8 bd e1 ac 32 3e 57 22 34 3d a6 e7 8f 3d
       -0.09028295 0.1744876 0.04397806 0.07026605
0002f0 ba 7a 4b 3e 4f 1c bb bd f4 92 7f bc 81 34 41 3d
       0.19871035 -0.09136259 -0.015599001 0.047169212
000300 5b e7 a3 3d ec b8 30 be 86 b3 a5 3d fb fa c9 bd
       0.08003112 -0.17258042 0.08090882 -0.09862324
000310 54 3d 1f 3d cb 43 12 3e 87 c0 d7 bc b8 77 55 bc
       0.038876846 0.14283673 -0.026336921 -0.013029031
000320 b2 5e c4 bc 7b 21 20 3e 8c 98 dd 3d 1d 05 df 3c
       -0.023970935 0.15637772 0.10820112 0.027224118
000330 84 45 fc bd 97 b5 de bd cd 1f 15 3e 7d 6b 25 3e
       -0.123179466 -0.10874479 0.14562912 0.16154285
000340 b8 47 09 3e de b0 01 be 77 0a 30 3e fd f7 6d 3b
       0.13406265 -0.12665126 0.17191492 0.0036311143
000350 f7 fc 27 3e 48 1e 43 3e a6 53 35 3d 2a ee 66 bd
       0.16405092 0.1905452 0.044269226 -0.056379475
000360 0e 71 3d 3e a4 ee bb bd 59 0e 07 3e 21 02 33 be
       0.18500158 -0.091763765 0.13189067 -0.17481281
000370 85 91 44 bd ef 6c 1f be e6 14 98 bd cc 10 bc 3d
       -0.04799034 -0.15568899 -0.07425861 0.09182891
000380 cd 5c f9 bd 94 1a 39 be 19 15 04 3e e7 5f be 3d
       -0.121759035 -0.18076545 0.12898673 0.09295636
000390 c6 74 91 bc 05 09 19 be 77 b3 85 bd c4 6d 9e bd
       -0.017755877 -0.14944847 -0.06528371 -0.0773578
0003a0 12 bf d7 3d da 2b a0 bd dc dd 1c bd 6f 42 f1 bd
       0.10534491 -0.07820864 -0.03829752 -0.11780249
0003b0 59 7b 93 bd 9f 4a fe 3d ea 24 15 3e fe 9c 49 3d
       -0.07201261 0.124165766 0.14564863 0.049221985
0003c0 1c ed 52 bd 0c 05 54 3e 57 3f 76 3d 25 e8 a0 bd
       -0.051495656 0.2070505 0.060119 -0.07856778
0003d0 6f 9f 91 bd ba c1 00 bd b7 f6 b1 3d 55 57 87 3d
       -0.07110488 -0.031434752 0.08689635 0.06608454
0003e0 e1 49 0a 3e 76 71 54 bc ff 8a 1e 3e 08 e3 a8 bd
       0.13504745 -0.012966504 0.1548271 -0.08246428
0003f0 23 fa c4 bd 52 45 a8 bd d8 a6 45 be fa 1b 0a be
       -0.09618022 -0.08216347 -0.19301927 -0.13487235

bias f4 [64]
000000 0b a6 e0 3d 64 3c 0c 3e 86 de 3c 3e f6 bf 88 3d
       0.1096917 0.13694912 0.18444261 0.06677239
000010 32 63 87 3d 1d be 6f 3d f0 ed db bd e0 ac 75 3d
       0.06610717 0.058530916 -0.10738742 0.05997932
000020 d7 a9 6f 3d 7f b9 1e be 22 aa 60 bd 05 4e ea bd
       0.05851158 -0.15500449 -0.05484975 -0.11440662
000030 71 ce f2 bd 10 26 06 3e a8 a5 15 3e ae fc d5 bb
       -0.11855782 0.13100457 0.14613974 -0.006530366
000040 82 62 79 3d 4d bc 33 bd 34 19 30 3d a4 92 5b bc
       0.06088496 -0.04388075 0.042992786 -0.013401661
000050 64 c1 c9 bd 81 62 98 bd 12 df 3f 3e 56 ea 04 3d
       -0.098513395 -0.07440663 0.18737438 0.032450043
000060 0b 1e c4 bd 14 96 bc 3c 2e cf 3e be d5 c3 23 3b
       -0.09576043 0.023020782 -0.1863372 0.002498855
000070 e1 a9 19 3e f7 72 0d 3d 39 4f 31 3d 59 95 3b be
       0.1500621 0.034533467 0.043288443 -0.1831869
000080 61 e6 cd bc af da 07 3e c9 b9 0f be 5e 7f b4 bd
       -0.025134267 0.13267015 -0.14035715 -0.08813356
000090 12 a1 0b 3e ab 28 58 3d de fd bd 3d 0e 7d 26 be
       0.13635662 0.05277316 0.09276937 -0.16258642
0000a0 6d 22 03 3e 44 9c 27 bd 7c 0c 7c 3d c1 4e 2c 3e
       0.12806101 -0.04092051 0.061535344 0.16826917
0000b0 dd b6 2d be e1 35 38 3d 39 5d 22 be ed 54 11 3e
       -0.16964288 0.044973258 -0.15855874 0.14192553
0000c0 3d fe 6a 3d 90 28 2d 3d 93 4f a3 bd 52 c8 a0 3d
       0.057371367 0.04227501 -0.07974162 0.07850708
0000d0 1d b2 d0 bd a3 d3 11 3d b5 0a 25 3e 62 c6 0e be
       -0.101902224 0.035602223 0.16117366 -0.13942865
0000e0 79 c6 74 bd cf 2b 56 3d 9f 09 22 3d ed ae 61 3b
       -0.05975959 0.052287873 0.039559957 0.003443654
0000f0 6c 23 2f 3e c4 eb 08 bd d0 ed 6f 3d f0 6e da 3d
       0.17103356 -0.03342797 0.058576405 0.10665691

weight f4 [64, 64, 3, 3]
000000 22 14 16 bc 10 06 83 3c da 40 95 3c a3 46 95 3c
       -0.0091600735 0.015994102 0.0182194 0.018222159
000010 ac e6 84 bc 1a 6f ea 3c 9b 87 b0 bc f1 79 c0 3b
       -0.016223274 0.02861743 -0.021549037 0.0058739115
000020 c7 64 9c 3b af 4f 33 3d 1c 83 e4 bc b6 c0 98 3c
       0.004772756 0.043777164 -0.02789455 0.01864658
000030 2c 6f f5 bb c8 a6 10 3d 3b 30 e1 3c 39 53 91 bc
       -0.0074900594 0.035315305 0.027488818 -0.017739879
000040 ef 42 f9 3b dd f7 c6 3c d7 bf 7a 3c df 1d ff 3c
       0.007606856 0.024288112 0.015304527 0.031142173
000050 77 cb b3 3c 09 c8 fd 3b af 3b b5 3c 37 af 1c bd
       0.021947606 0.0077447933 0.022123186 -0.038253035
000060 45 12 0c 3d 68 d0 dc ba a9 5b f4 3c 89 5c 9e 3c
       0.03419711 -0.0016846778 0.029828863 0.019331234
000070 08 1e ff 3b 34 7e 11 3d f1 8d 9f bc 64 02 b2 3c
       0.0077855624 0.035520747 -0.019476863 0.021729656
000080 82 8b b0 3c 3e 61 1e bc f1 b5 93 3c e9 d1 0a bd
       0.021550898 -0.009666739 0.018031092 -0.033891592
000090 8c 71 68 bc 8f ee c6 3c 9e 91 c3 3c 55 2a fa bc
       -0.014187228 0.024283675 0.023873147 -0.030537764
0000a0 82 d6 a7 3c 66 e2 dd 3b 76 18 48 3d e9 44 0e bd
       0.020488027 0.0067713736 0.048851453 -0.034733687
0000b0 e8 03 9f bb 38 6e 48 bc 67 03 3a bc bd fe f2 3b
       -0.0048527606 -0.012233309 -0.01135335 0.007415621
0000c0 21 0c bf bc ba 33 35 3d 45 af fb bb 14 24 ec 3c
       -0.023321213 0.044238783 -0.007680806 0.028825797
0000d0 27 87 e1 bb c2 4d 48 3c 64 cf e2 bc 88 c2 46 3d
       -0.0068825665 0.01222557 -0.027686782 0.048525363
0000e0 f6 e4 5d 3d b5 05 31 3d a8 da f6 3a 71 57 27 3d
       0.054173432 0.043218333 0.0018833475 0.040854875
0000f0 77 ef 9f bc f0 dc f5 3c 73 48 1d 3c d5 0e e6 bc
       -0.019523365 0.030012578 0.009599793 -0.028083244
000100 16 ac 16 bd 39 15 09 bd 04 f5 0f 3c 2a ae 5a bc
       -0.036785208 -0.033467505 0.008786444 -0.013347188
000110 c6 32 83 bc 30 7e 2f 3d 72 34 17 bc f3 9d c5 3c
       -0.016015422 0.04284495 -0.0092288125 0.024123168
000120 75 86 35 bb 1b 2b 32 3d 8a cf ca 3c 22 15 1e 3d
       -0.002769855 0.04349814 0.024757165 0.038594373
000130 c6 c9 d0 3c fa f8 05 bb 5c d7 49 3d 35 09 07 3c
       0.025486838 -0.002044259 0.04927765 0.008241941
000140 b1 a5 9b bc 52 d2 3b 3c 4d 5d 2d bc 5f 6f 15 bd
       -0.018999906 0.0114637185 -0.010581327 -0.036483165
000150 12 15 14 3b 07 35 6e bc d3 60 b8 bc 23 4b b3 bc
       0.0022595567 -0.01453901 -0.022507107 -0.021886414
000160 eb 2e bf bc 45 28 b6 bc 10 48 c2 3b 4b ec 1f 3d
       -0.023337802 -0.022235999 0.0059290007 0.039043706
000170 f7 04 d2 bc c2 4c a8 bc f8 df dd bc 88 7c bc ba
       -0.025637133 -0.020544413 -0.027084336 -0.0014380375
000180 8f 4f a6 3a 27 ec d8 bc 6a cc 86 3c 0e a7 09 bd
       0.0012688505 -0.026479794 0.016454894 -0.03360658
000190 44 a3 3e 3d e7 e1 4a 3c ea 3d 68 bb 45 02 30 bc
       0.04654242 0.012382961 -0.0035437294 -0.010742729
0001a0 d2 03 98 3c f4 9c 0f 3d d5 05 b9 bc 8c 6e b4 bb
       0.01855651 0.03506179 -0.022585789 -0.0055063423
0001b0 9c fb 15 3d 42 cf 25 bc 86 26 de bc cf da 1c bc
       0.036616907 -0.010120215 -0.027117979 -0.009573652
0001c0 76 9b 6f 3b 8c 0e 3c bb ca c2 a5 bc 58 68 ae bc
       0.0036561168 -0.0028695194 -0.020234484 -0.02128999
0001d0 f9 0c 93 3c b6 21 0d 3d ed 09 26 3d 20 fc f1 ba
       0.017950522 0.034455977 0.04053681 -0.001846198
0001e0 91 fe bb 3c e1 8b ef bc 5b 2d d5 3c cb 33 44 3d
       0.022948535 -0.029241504 0.026022604 0.047900956
0001f0 b2 ee e5 3c 87 11 87 bc 92 f1 2a 3d f0 07 1b bd
       0.02806792 -0.01648785 0.041734286 -0.037849367
000200 5e e5 4a ba 1a 8b 4f bb 01 2b 16 bd 04 0d b2 bc
       -0.0007739867 -0.0031668604 -0.036662105 -0.021734722
000210 9f b8 bb bc 37 e3 93 3c 8c 79 a4 ba b2 04 92 3c
       -0.022915183 0.01805268 -0.0012548431 0.017824505
000220 fe 80 48 3b 55 55 10 3d df 77 f9 3b fd ac 5e 3d
       0.0030594463 0.03523763 0.0076131667 0.054364193
000230 6a 67 43 3d e1 c3 e3 bc 24 a3 20 bc 1f 07 99 3c
       0.047706045 -0.027803363 -0.009804521 0.018680153
000240 47 9d 1f 3d fa f7 15 bd 7e 27 bc 3a 22 46 9b bc
       0.03896835 -0.036613442 0.0014355031 -0.01895434
000250 44 3c 21 3d 02 7c 0d 3d da ac dc 3c 61 a7 b8 3c
       0.039364114 0.03454209 0.02693789 0.02254075
000260 0f 89 cc 3a 2d 19 2c 3d 62 e5 ad bc 04 8f 9f ba
       0.0015604811 0.042016197 -0.021227542 -0.0012173359
000270 f8 aa 00 bc 21 90 f8 bc 35 17 a4 bc a2 03 76 3c
       -0.007853262 -0.030342164 -0.020030597 0.015015515
000280 d0 3f 10 bb b1 c8 ef bc f1 10 99 bb 4e ab dc 3b
       -0.0022010691 -0.029270502 -0.004671209 0.0067342883
000290 e5 86 f8 bc 95 1d d0 3c ee c3 1a bd 8c 4b 47 bb
       -0.03033776 0.02540473 -0.03778451 -0.003041002
0002a0 4d 43 05 bd 3e 07 1c bd 9b 0a 0c bc bc ba 29 3d
       -0.032534886 -0.038092844 -0.00854745 0.04143785
0002b0 77 cb 55 3d 75 b3 01 3d 01 49 26 3d a9 37 9f bb
       0.052195992 0.031665284 0.040596966 -0.00485893
0002c0 ed 19 15 3d 77 bf 18 3d c6 9d cc bc 71 7d 86 bc
       0.036401678 0.03729197 -0.024977576 -0.016417237
0002d0 fc 93 bf 3c 8b 25 84 3b ff a7 fd bc d8 aa e7 bc
       0.023385994 0.004032796 -0.030963896 -0.028279707
0002e0 4c f8 03 3d 6c ab 71 3b 69 15 1c 3b 92 6e 22 bd
       0.032219216 0.0036875857 0.0023816472 -0.03965623
0002f0 c9 40 1d 3d b6 5a ac bc 65 13 ea 3c 2f a3 13 ba
       0.038391862 -0.021039348 0.028573701 -0.0005631921
000300 4c 66 51 3b 0d 67 d3 3c 52 43 1b bc eb 13 4a bc
       0.0031951843 0.025805974 -0.0094765 -0.01233385
000310 66 ac fd 3c 62 a0 d8 bc 48 92 8f 3c 89 f7 63 bc
       0.030965995 -0.026443664 0.017525807 -0.013913997
000320 1f 02 86 bc 52 8d d2 3c d0 2d 49 3b d7 ff 2a bd
       -0.016358433 0.025702152 0.0030697472 -0.041747894
000330 af 9b 09 3d 1f de d4 bc 7e 2e 06 3d 52 d8 5a bc
       0.033595737 -0.025984822 0.032759182 -0.013357239
000340 18 6a 24 3d cc d0 23 3c 42 c3 39 bb 00 a2 57 3c
       0.04014024 0.0099985115 -0.0028345142 0.013161182
000350 04 2b ac bb 76 dd b3 bc ee d9 ab 3c da 5a c2 3c
       -0.0052541513 -0.021956187 0.02097794 0.023724962
000360 3c bf 96 bb 87 5b 44 3d cb 87 81 3c 9f 09 53 bc
       -0.0046004336 0.04793885 0.015811821 -0.012880712
000370 34 fd 44 bc de 4e 0c 3d da a3 73 bb 9d 73 19 3d
       -0.012023259 0.0342549 -0.003717652 0.037463773
000380 3d 2c 0b bd 86 4a a7 b9 79 3b fd bc 13 45 22 3c
       -0.033977736 -0.00031908246 -0.030912148 0.009904164
000390 6b e1 05 3d 1e 87 26 3c 29 55 9c bc ec 03 2c bd
       0.03268568 0.01016405 -0.019083576 -0.041995928
0003a0 05 b9 b4 bc 8c 10 f4 bc 60 46 43 3d 4c 2c fb bb
       -0.02206088 -0.029793046 0.047674537 -0.0076651927
0003b0 22 7b e4 3c aa 97 43 3d 1e 9c e3 3c 72 36 cd bc
       0.027890746 0.04775206 0.027784403 -0.025050376
0003c0 1c 4c fe 3b 7f b3 c7 3a 4a 7b 2a 3d 51 ae 91 bb
       0.007760538 0.0015235989 0.041621484 -0.004445829
0003d0 6e d4 e3 ba f9 28 0d 3d eb 2e 1e 3c e2 a5 8c 3c
       -0.0017382035 0.034462903 0.009654741 0.017168943
0003e0 22 d5 8e bc 65 d8 d7 3c b1 55 a2 3b b6 5e 10 bc
       -0.017435614 0.026348302 0.004954063 -0.008811643
0003f0 aa 81 1a 3c 39 e0 1f bd e2 2a b4 ba ab ef a6 3c
       0.009430328 -0.039032195 -0.001374569 0.020377954

bias f4 [64]
000000 c0 0e 18 bd 99 18 91 bc 89 a6 25 bd 33 c5 de bc
       -0.03712344 -0.017711924 -0.040442023 -0.027193641
000010 57 fe 9f bb 89 86 0a bd b8 75 46 3c 37 14 de bc
       -0.0048826146 -0.03381971 0.012113027 -0.027109249
000020 54 09 ae bc 4d 78 b5 bc 6a f9 e1 3c 34 93 71 3c
       -0.021244682 -0.02215209 0.02758475 0.014744569
000030 f9 b3 66 bc 4e 45 09 bd f6 d7 0c bd 45 dd 5c 3c
       -0.014080995 -0.03351336 -0.034385644 0.013480489
000040 86 f2 e6 3c 4d bb 0d ba 39 15 29 bd e2 ce 39 3c
       0.028191816 -0.0005406633 -0.041280005 0.011340829
000050 e7 b8 f5 bc 9c b0 97 bc c4 c5 e9 3c c2 25 c7 3c
       -0.029995395 -0.018516831 0.028536685 0.024309997
000060 fa 3a ae bc 08 aa 62 3b 26 a2 e3 bc 3d 59 1e bd
       -0.021268357 0.003458621 -0.02778728 -0.038659323
000070 40 08 e8 bc 99 16 c0 3c c5 d2 1f 3c 75 67 21 bc
       -0.028324246 0.023448275 0.009754841 -0.009851326
000080 b7 7a 9c 3c 5d 98 bd bc d3 da 32 bc a3 b1 12 bd
       0.019101484 -0.023143942 -0.01091643 -0.03581394
000090 4d fb 8d 3b 67 6b 69 3c e0 b0 8a bc ba fc 18 3d
       0.004332936 0.014246798 -0.016930044 0.037350394
0000a0 1c d9 4a bc 64 a2 b5 3b bb 4d c1 bc 16 65 08 bc
       -0.0123808645 0.00554304 -0.023596635 -0.008324882
0000b0 87 7a 40 3b 80 65 85 3c d5 8a 29 bd 5a e6 05 3d
       0.0029369907 0.01628375 -0.041392166 0.032690383
0000c0 01 e8 b8 bc 0d 75 e9 bc 7b 55 72 bc a6 98 80 38
       -0.022571566 -0.028498197 -0.014790888 6.1319486e-05
0000d0 34 72 1c bd 0f d9 ec 3a 76 5b c3 bb ef 27 1e 3c
       -0.03819485 0.001807006 -0.0059618307 0.009653076
0000e0 b2 c7 29 3b c2 9a 40 bc 99 f5 4d 3c 06 9d d2 3c
       0.0025906381 -0.011755647 0.012570762 0.02570964
0000f0 86 12 bb 3c 84 66 7e 3c 01 5b 76 bc 04 fc b5 3c
       0.022835981 0.015527371 -0.015036345 0.022214897

weight f4 [64, 64, 3, 3]
000000 61 0b 9e bc 93 b8 17 3c bf 16 fc 3b be b2 19 bd
       -0.019292535 0.0092603145 0.0076931412 -0.037523977
000010 57 4f 94 bc 1c 85 bb 3b 8e 84 b1 3c 06 d5 06 bb
       -0.018104238 0.005722655 0.021669652 -0.002057375
000020 c4 a5 41 3c 51 01 97 bb 03 fc e7 bc c4 72 9a 3c
       0.011819307 -0.004608311 -0.02831841 0.018853553
000030 1d 7a a9 3c 72 82 5b 3c 37 2e 6c 3c dc 7c b3 3c
       0.020688111 0.0133978 0.014415315 0.021910124
000040 bc cc 01 3c 0d 8d c1 bb 02 3f 23 bd 30 83 16 3b
       0.007922348 -0.005906707 -0.03985501 0.0022966377
000050 94 70 2a 3d 61 8e 45 3c 12 33 8e 3c ce 89 f9 3a
       0.04161127 0.012057872 0.017358337 0.0019038261
000060 f8 62 13 ba a1 4c 06 3d 1d cf 06 bc 92 ec d9 bb
       -0.00056223525 0.032787923 -0.008228091 -0.006650516
000070 4c 5a e3 bc 86 7e 1f bd 3a d8 e7 3c 3b 97 7b bb
       -0.027753018 -0.03893902 0.028301347 -0.00383897
000080 fb e7 15 bd 53 f4 03 3d 55 31 d3 ba 83 4e f8 bb
       -0.036598187 0.032215428 -0.0016112725 -0.0075777187
000090 da 42 e6 bb 03 fe ae bc 1a d8 ee bc a0 7b 6d 3b
       -0.0070270123 -0.021361357 -0.02915578 0.0036237016
0000a0 f8 12 c2 bb 69 e7 04 3d 2c 1f 7a bc 3e 20 d3 bb
       -0.0059226714 0.032447252 -0.015266221 -0.0064430526
0000b0 ab 33 85 bb b8 91 7c bc 4d 0e ca 3c 19 a4 cf bc
       -0.004064997 -0.015415601 0.024665022 -0.025346803
0000c0 ce e5 95 bc d4 ef 3a bb 59 e7 e6 3c 19 c7 0f bb
       -0.018298056 -0.0028524296 0.028186487 -0.002193874
0000d0 ad 82 99 bc 15 ea 36 3c fa 54 88 3c 16 d8 24 3c
       -0.018739069 0.011164208 0.016642082 0.0100612845
0000e0 db 63 29 3d 97 6d f4 3c d0 44 92 bb f3 c4 1d 3d
       0.041354995 0.029837413 -0.0044637695 0.038517904
0000f0 38 f1 4e 3d d2 b0 e4 3c 15 c5 da bc 62 59 87 bb
       0.050523013 0.027916346 -0.026705304 -0.0041305283
000100 bd e9 9e bc 45 93 8f bc fb 74 0a bd a8 cb 5b 3c
       -0.019398564 -0.017526278 -0.033802968 0.013415255
000110 9d d8 c5 bc 54 f3 78 3c 4e 29 69 bc 86 47 0b 3d
       -0.02415114 0.015194733 -0.014231039 0.034003757
000120 a2 f6 cb bc 9a 50 23 3d da 12 21 3d df d9 80 bc
       -0.024897877 0.03987179 0.03932462 -0.015728889
000130 12 50 3f 3d de 2a fc bc 7e 63 96 3c df a0 7a bc
       0.04670722 -0.03078216 0.018357988 -0.015297144
000140 a9 d9 3f 3d 38 59 69 ba c7 45 1b bd 61 96 f0 3b
       0.046838436 -0.0008901539 -0.03790834 0.0073421453
000150 f6 4a c5 bc 4a 94 f5 bc 80 41 a2 3c c6 28 ee 3c
       -0.024083596 -0.029977936 0.019806623 0.029072177
000160 18 f8 07 3d ae 14 b8 3b 5a f6 58 3d 15 d7 08 3d
       0.033195585 0.0056176996 0.052969314 0.033408243
000170 b2 a0 5a 3d 4a 65 21 3d 4d e7 26 3c 20 0a 0e 3d
       0.053375907 0.039403237 0.010186982 0.034677625
000180 a2 95 01 3d 6f ec 0d 3d 9e 1e 5a 3c ba e8 1a bd
       0.03163684 0.03464931 0.013312964 -0.0378196
000190 e4 4d 00 3d 5a b6 2a bd a7 dc 0a bd 26 13 3d bc
       0.031324282 -0.04167781 -0.033901837 -0.01154021
0001a0 7c 78 88 bc 60 fd c9 3c aa 8e e6 b9 1e e3 0f bd
       -0.016659014 0.024656951 -0.00043975312 -0.035128705
0001b0 07 61 04 3d 62 48 77 3c ed 22 1b bd 5e e5 31 3d
       0.032319095 0.015092941 -0.037875105 0.043431632
0001c0 27 9c 07 bd ef fb 1a bc e4 77 34 3d 07 de a9 3c
       -0.033107903 -0.00945948 0.04405965 0.020735754
0001d0 9f a7 f7 3c 60 26 b6 bb 0c 14 02 bd 0f da ee bb
       0.030231295 -0.005558774 -0.0317574 -0.007289178
0001e0 ab 18 db 3c 33 4f 0f 3d 17 3e c7 3c ce 1c 0a bc
       0.026745161 0.03498764 0.024321599 -0.008429719
0001f0 af a8 d0 3c 50 8a 20 3d 85 f6 13 bd 25 c7 49 bc
       0.02547106 0.039194405 -0.03612377 -0.012315546
000200 a5 91 eb bc 00 3f 0a bd eb 49 aa 3c cb c3 13 3d
       -0.028755972 -0.033751488 0.0207872 0.036075395
000210 9c 33 99 bb 3d 20 f9 bb 17 a0 0c 3b e3 9b f8 bc
       -0.004675342 -0.00760272 0.0021457726 -0.03034777
000220 6e 42 12 3d b6 02 6e 3b 10 66 05 3d 93 6f 38 3d
       0.035707884 0.0036317534 0.032568038 0.04502828
000230 3f 1e 12 3d c6 7a b8 3c 2b c9 e2 3a 84 04 d6 ba
       0.035673376 0.02251948 0.0017302384 -0.001632825
000240 52 b5 2d 3d fa 1b c7 bb 3f 04 21 3d df 55 03 bd
       0.04240925 -0.006076333 0.03931069 -0.032064315
000250 e5 9f 1b bd 6d a7 1c 3d 22 7e bc 3c 7f 09 17 bd
       -0.037994284 0.038245607 0.023009364 -0.03687429
000260 73 e4 5f 3c d3 dd a3 bc 37 a1 4b 3c 70 72 2e 3c
       0.013665306 -0.020003235 0.012428573 0.010647401
000270 42 78 72 bc ef 4c b0 3b 11 6f 60 bc d3 62 fe 3c
       -0.0147991795 0.005380265 -0.013698355 0.031052982
000280 b3 d1 a7 bc f2 de 41 3d 20 73 99 bc cc 4c 1a 3d
       -0.020485735 0.047331758 -0.018731654 0.037670895
000290 ea 60 28 3d 22 9d 95 3c ed e3 8d 3c 61 66 fd bc
       0.04110805 0.018263403 0.017320598 -0.030932607
0002a0 40 10 4a 3b a9 21 e7 3c 3f 07 0e bc 1c 4c e0 bb
       0.003083244 0.028214293 -0.00866872 -0.0068450104
0002b0 a1 2a a1 bb d9 9b ba bb 98 22 09 bc 2e 48 ca 3c
       -0.004918412 -0.005694848 -0.008370064 0.024692621
0002c0 3f a3 8e 3c 5a 0a 0e bc 36 33 5a bc be 57 ad bc
       0.017411826 -0.00866946 -0.013317874 -0.021160003
0002d0 2e ce 04 bd 7f 98 bc ba 92 d3 21 3b 6d d7 c7 3c
       -0.03242319 -0.0014388709 0.0024692756 0.024394715
0002e0 7a f7 5f bc d7 fc bb 3c 3a 63 94 bb c7 f0 d0 3c
       -0.013669843 0.022947712 -0.0045284303 0.025505437
0002f0 a9 2e 2e 3d 9e 34 f3 3c c2 0c 23 3d 63 88 5d 3c
       0.042524967 0.029688176 0.03980709 0.013521287
000300 a1 40 43 3b 87 e4 af 3c a2 09 17 bd 98 25 0e 3d
       0.002979316 0.021471275 -0.03687442 0.03470382
000310 ff d1 94 bc f7 f2 26 bd df 4c c9 3c 43 fd c3 bc
       -0.01816654 -0.040759053 0.024572788 -0.023924476
000320 c2 4b 26 3c bf 2d 5d bc 57 63 ce bb 5c ac 4d 3b
       0.010149898 -0.013499676 -0.0062984633 0.0031383252
000330 44 b3 13 3d f0 99 08 bd 7e 78 45 bc dd c0 bb 3c
       0.036059633 -0.03334993 -0.012052653 0.022919113
000340 0a 98 2b 3d ae a4 40 3d 93 33 f7 bc 11 02 26 bc
       0.041893043 0.04703205 -0.03017596 -0.010132329
000350 5c 9e cf ba ca 28 a7 bb 34 b0 6f 3c 76 a6 f4 3c
       -0.0015840041 -0.005101298 0.014629412 0.029864531
000360 43 af c6 3b c4 95 8c 3c 42 20 32 3d a1 87 f0 bc
       0.0060633733 0.017161258 0.043487795 -0.029361548
000370 af 32 e1 3c dd 67 35 bc bf f4 1c 3c 94 ae 18 3d
       0.027489988 -0.011072126 0.009579836 0.037275866
000380 0c b8 c0 3c 53 11 b8 3b 8c a1 ad bc 70 0c 5e 3c
       0.02352526 0.0056172996 -0.021195196 0.01355277
000390 14 83 5c 3b 3b 94 3d 3d 14 87 22 3d 2e 56 94 bb
       0.0033647465 0.04628394 0.0396796 -0.004526875
0003a0 88 cb fe 3c 74 85 a8 3c f7 5e d4 3c 05 71 41 bc
       0.03110291 0.020571448 0.025924189 -0.011806731
0003b0 f2 81 61 39 4c 84 60 3c c2 bc f2 3b 2f 45 0f bd
       0.0002150608 0.013703417 0.0074077556 -0.034978088
0003c0 73 4a 42 3c c3 a2 29 3d 4e 55 ad bc c3 cb df 3b
       0.01185857 0.041414987 -0.02115884 0.00682971
0003d0 f3 b5 0c bc 96 2c c0 bc d7 28 b9 bb 01 be b7 3c
       -0.008588302 -0.02345876 -0.0056506204 0.022429468
0003e0 08 ed 89 bc b6 14 a5 bc 76 41 9a bc 57 f2 97 bb
       -0.016836658 -0.020151477 -0.018830042 -0.0046370435
0003f0 4c af e9 bc f8 e4 22 3c 85 26 8d 3c 02 0e a0 3c
       -0.02852597 0.009942286 0.017230282 0.01953793

bias f4 [64]
000000 f9 89 84 3a 3b db 3f ba b7 44 fa bc 09 93 39 bc
       0.001011192 -0.00073187397 -0.030550344 -0.01132656
000010 2d c5 be bc 8d f7 aa bc 8c c7 a2 3b 6c b8 b6 bc
       -0.02328738 -0.020869995 0.0049676355 -0.022304736
000020 38 36 c2 bc b5 54 1a bd a2 0d 09 3d be cc d6 3c
       -0.023707494 -0.03767844 0.033460267 0.026220676
000030 eb fb e8 bc 90 38 5b 3c 20 b8 e8 bc 3c 7a a1 3c
       -0.028440436 0.013380185 -0.02840811 0.019711606
000040 51 0d c1 3c 54 84 f3 3b d4 32 d3 3c 62 fc 24 3d
       0.02356592 0.007431546 0.025781073 0.040279754
000050 86 d5 53 bb 2c 62 c2 3c fd 54 30 3d 43 63 0f bd
       -0.0032323315 0.023728453 0.0430498 -0.035006773
000060 ee 0d c4 bc 43 60 27 bd aa 4d 24 bd 72 99 ec bc
       -0.023932423 -0.040863287 -0.04011313 -0.028881762
000070 19 70 e2 3c 9c 5f 2e bd 49 55 b6 3c 0b a2 02 bd
       0.027641343 -0.04257165 0.022257464 -0.031892817
000080 ee 7e 11 3d 14 f0 09 3d e4 dd 0c 3d 10 a5 b7 bc
       0.03552144 0.033676222 0.0343913 -0.022417575
000090 d8 50 a1 bc 4e 7b ef bc 8a 0c d3 3c e8 8e 0e bd
       -0.01969187 -0.029233601 0.025762815 -0.034804255
0000a0 6d f3 c4 3c a4 d8 99 3b 92 71 48 bb a9 a0 b0 3c
       0.024041856 0.004695015 -0.0030585271 0.021560984
0000b0 98 4c 0d ba 89 0f 07 bd 0c 5d db 3c e8 9c 0a bd
       -0.00053901365 -0.0329738 0.026777767 -0.033841044
0000c0 42 d3 15 bc c9 8c 56 3c bf b0 0e 3d 32 08 11 bd
       -0.009144606 0.013095089 0.034836527 -0.035408206
0000d0 6d 44 fb bc f2 e4 ec 3c 5a fe 80 bc fd fa 71 3c
       -0.030672276 0.028917763 -0.015746284 0.014769313
0000e0 db 99 0c 3d 5f 48 f8 3c 50 21 78 bb 72 5d c6 3c
       0.034326416 0.030307947 -0.0037861653 0.02421448
0000f0 e2 4d ae bc a2 5b cf bc d2 89 ce 3c bd 69 4a bc
       -0.021277372 -0.025312249 0.025212202 -0.0123543115

weight f4 [64, 64, 3, 3]
000000 78 07 e1 ba 99 9a a0 bc 19 90 8d bc 6c f0 0a 3d
       -0.0017168364 -0.019604968 -0.017280625 0.03392069
000010 cb f7 20 bd 6c bc 3c 3c f6 7e eb ba c1 80 ad 3c
       -0.039298814 0.011519533 -0.0017966914 0.021179559
000020 d7 b7 0c bd 50 0d 12 bd b8 e3 f4 bb 17 14 ae bc
       -0.03435501 -0.035657227 -0.0074734353 -0.021249814
000030 08 a9 da 3c cc cd c3 3c e8 3e 37 bc 5a 7f c6 3c
       0.026691929 0.023901843 -0.011184432 0.024230648
000040 42 8a 1d bd a5 ec 96 3c 5b ad f9 bc 84 0a 96 bb
       -0.03846193 0.018423388 -0.03047817 -0.0045788903
000050 08 0f 95 bc fa 1b e3 bc 6d ee f1 bc 4f 7b 09 3d
       -0.018195644 -0.027723301 -0.029532636 0.033564862
000060 95 b3 c9 bc b2 bb 74 3c c3 58 a5 3b e0 de 2b bd
       -0.024621764 0.014937328 0.0050459816 -0.041960597
000070 de 73 9d bc 05 75 8c bb db 71 83 bc 90 57 e3 bc
       -0.019220289 -0.0042864108 -0.016045501 -0.027751714
000080 27 b7 71 ba 4c 9a 03 3c da 6b 38 3c 49 99 b8 3b
       -0.0009220712 0.008032393 0.011256183 0.0056335074
000090 c6 3e b6 3c 15 a6 aa 3c ed bd d6 3c 43 f8 db 3b
       0.02224673 0.020831147 0.02621361 0.0067129447
0000a0 10 41 f7 3c cf 01 54 3c e9 48 7e bc 54 27 8b 3c
       0.030182391 0.012939884 -0.015520313 0.016986527
0000b0 ba 50 41 3c 31 56 f0 3c 0d 70 2d 3d c6 c7 ed bb
       0.011799032 0.029337974 0.042343188 -0.007256481
0000c0 4b 9c 27 bd 60 98 cf bc 5c f5 bd b8 62 58 b3 bc
       -0.040920537 -0.025341213 -9.057924e-05 -0.02189273
0000d0 01 b8 15 3b 02 d6 3d 3c 28 f2 c4 bc 5c 9a 95 3c
       0.002284527 0.011586668 -0.02404125 0.01826208
0000e0 24 5d d7 bb 5f b4 93 3c e2 a5 d2 bc 49 3c 96 bc
       -0.0065723825 0.018030344 -0.025713865 -0.018339293
0000f0 af f1 63 3c bb db 0a 3c 41 b5 22 3d f3 69 30 3b
       0.013912602 0.008475239 0.03972364 0.002691862
000100 54 a1 05 3b 51 78 31 bc ca 1b 08 3d ff 74 0d bb
       0.0020390349 -0.010831908 0.033229627 -0.0021584628
000110 67 e3 f5 bc 48 d1 37 3c e8 1c 19 bd c7 14 e7 bc
       -0.03001566 0.01121933 -0.037381083 -0.02820815
000120 b3 e6 6b 3c 53 cb f4 3b c4 ea d0 3c 9f 2d 85 3c
       0.014398265 0.007470527 0.02550257 0.016257105
000130 6d ff d5 3c 3c b2 56 bc a9 b1 f6 bc bd 13 47 3c
       0.026122773 -0.013104018 -0.030114012 0.012150702
000140 9b 48 a2 bb e5 fd ca bc 0d ad 76 3b 00 93 4d 3c
       -0.004952503 -0.02477927 0.0037639767 0.012547255
000150 65 06 e2 3c d5 85 60 ba 59 b8 fc 3c 87 7a 07 3d
       0.02759094 -0.00085648644 0.030849623 0.033075836
000160 a4 d4 12 3d ff 71 1f 3d 5e c3 46 bc 25 2b ac 3b
       0.03584732 0.038927075 -0.01213154 0.0052541667
000170 1b 03 ca 3c 9d 6f 63 bb 1a 5d a0 3c db e6 15 3c
       0.024659684 -0.0034703978 0.019575644 0.0091492785
000180 65 27 7f bb 5a 9d 92 bc 3e 4a da bc 2c cc 72 3c
       -0.0038933393 -0.017897297 -0.02664673 0.014819186
000190 82 80 d3 3b f9 a3 0a 3c e9 6e e8 bc 55 b7 ab 3c
       0.0064545283 0.008461946 -0.028373199 0.020961443
0001a0 3a b9 cd 3b 8b 6b 38 3d 93 0d d3 bc b2 54 85 bc
       0.0062781842 0.045024436 -0.025763309 -0.016275737
0001b0 09 51 b7 bc 32 66 0e 3d 47 6f 28 bd f8 c4 1a 3d
       -0.022377508 0.03476543 -0.041121747 0.0377855
0001c0 de 66 85 3b 4b 1d 2f bd f9 68 70 3b b0 71 88 3c
       0.0040711006 -0.042752545 0.0036683662 0.016655773
0001d0 a2 47 03 3d b3 8e 02 3d 95 0a c7 bc e5 d0 a7 3c
       0.032050736 0.03187437 -0.024297038 0.02048535
0001e0 37 a1 0c ba c1 e2 06 bd 67 ee 0b 3d 02 38 b1 bc
       -0.0005364599 -0.032931093 0.034162905 -0.021633152
0001f0 1c 9a 22 3d 7f cd f0 3c 42 18 d9 3c 93 ca ff 3c
       0.03969775 0.029394863 0.026500825 0.031224525
000200 d0 51 ac bc fd db 08 3d 79 ce c3 3c c4 b8 10 3d
       -0.021035105 0.033412922 0.023902165 0.035332456
000210 41 61 dc bc 4c 63 fd 3c 4d 33 f9 3a be 8a 00 bd
       -0.026901843 0.030931138 0.0019012481 -0.031382315
000220 82 ab 08 bd 1f 68 3f bc 98 39 e3 bc 74 a8 5c b7
       -0.033366688 -0.011682539 -0.027737424 -1.3152243e-05
000230 06 24 17 bd 52 bc b3 bc 1e 6e cb 3c 3b 95 03 bd
       -0.03689959 -0.021940384 0.024832781 -0.03212474
000240 10 17 79 bc b3 79 fe bb d2 d4 60 bc 00 f6 46 bd
       -0.015203252 -0.0077659725 -0.013722615 -0.048574448
000250 9e ef cc 3b b9 22 7f 3c e7 07 e8 3c c9 f2 d9 bc
       0.0062541505 0.015572243 0.02832408 -0.026605027
000260 9b a3 36 3c 17 d0 fc 3c cf cd 02 3c 55 3a 22 bc
       0.011147405 0.030860944 0.007983639 -0.009901603
000270 b7 17 35 bb b9 10 d3 ba 63 7c 2e bd f7 18 83 bb
       -0.0027632543 -0.0016103006 -0.042599093 -0.004000779
000280 0a 9b 0e bb 24 a3 31 bd 28 f4 d3 bb 2c 45 19 3b
       -0.002175989 -0.043368474 -0.0064683147 0.0023387177
000290 aa 12 0b 3d 4a b4 cd bc 55 ee 80 3c 04 96 de bc
       0.033953346 -0.025110383 0.015738646 -0.027171142
0002a0 61 92 69 3a b0 ec f2 bb b5 0a 17 3c 1b 0c f2 3c
       0.0008910057 -0.0074134693 0.009218861 0.029546788
0002b0 90 65 33 3d 4b a1 6e bc 32 78 aa bc 21 a8 27 3d
       0.04379803 -0.014564822 -0.020809267 0.040931825
0002c0 7c 20 c0 3c 6b 21 35 3d e3 7a a8 3c 43 08 10 bd
       0.02345299 0.044221323 0.02056641 -0.03516413
0002d0 81 4b 1e 3c a7 80 0a bc 69 2e aa bc 56 b0 d4 3c
       0.009661556 -0.008453525 -0.020774083 0.02596299
0002e0 57 66 8e 3b ee 6f 42 3a 2d 13 c8 bc 56 a5 d7 bc
       0.004345696 0.00074171915 -0.024423206 -0.026323956
0002f0 12 bf fe 3c 57 57 9d 3c 31 f6 35 3c dc 79 e8 3c
       0.031096969 0.019206686 0.01110606 0.02837842
000300 69 81 95 3b 9d 01 d0 3c 7b 7e 48 3b d4 62 0c 3d
       0.004562546 0.025391394 0.0030592966 0.034273937
000310 73 fc 6c bc 91 98 ce 3c 43 f3 de bb 78 18 6c 3c
       -0.014464485 0.025219234 -0.0068039014 0.014410131
000320 a1 da 32 bd bd 88 b0 3c 4a c1 51 bc 2a c0 06 bd
       -0.043665532 0.021549577 -0.012802431 -0.032898106
000330 d7 87 18 3d 61 61 25 bd 60 a8 03 3d ca 92 68 3c
       0.037238922 -0.04037607 0.032142997 0.0141951535
000340 9e 8a ef ba 75 70 e5 3c 90 b8 de bc b0 6c 81 3b
       -0.0018275564 0.028007725 -0.027187616 0.003949724
000350 5e 6a 03 bd c9 f6 0e bd c0 72 07 3d 90 b7 3f 3c
       -0.03208386 -0.03490332 0.03306842 0.01170148
000360 42 9f d9 39 c6 3c f8 3c 30 f1 98 bc 94 4d 92 3b
       0.00041508122 0.030302417 -0.018669695 0.0044648144
000370 aa fe 10 3d 52 f7 29 bd 51 c0 7a bc fa e6 9e 3b
       0.035399117 -0.04149563 -0.015304641 0.004849312
000380 71 3a 14 3d 8f eb 37 3c eb a5 19 3d b8 2d 70 3c
       0.036188547 0.011225595 0.037511747 0.014659338
000390 ff 51 d1 3c 46 7e a4 3b a0 f7 cc bb 95 c2 18 3d
       0.025551794 0.005019936 -0.006255105 0.037294943
0003a0 3f 4b a0 3c 9a 1a b7 bb 9a ac 17 3d b4 af e2 bc
       0.01956713 -0.005587888 0.03702984 -0.027671672
0003b0 9b 3e b5 3c b5 dd 9b 3c 46 e8 3c 3d 1d 98 c9 3c
       0.02212458 0.019026617 0.04611995 0.024608666
0003c0 01 22 20 3d a5 a8 03 3d 08 c0 bd bb 12 0f b3 3c
       0.03909493 0.032143254 -0.005790714 0.021857772
0003d0 dc c5 dd ba 01 c9 c2 3b 55 e2 fa 3c d5 c3 04 3c
       -0.0016919929 0.0059443717 0.030625502 0.008103331
0003e0 bb 35 23 3d 83 03 26 3a ef cc ac 3c 0c 48 0c 3d
       0.039846163 0.0006332921 0.021093814 0.034248397
0003f0 9a bb 2a bd 46 4c e7 3c 97 48 90 bc d1 84 d8 3b
       -0.041682817 0.028234612 -0.017612739 0.00660763

bias f4 [64]
000000 70 74 d1 3c 05 51 d3 3c 24 d8 1f bd 61 f8 1d 3c
       0.025568217 0.025795469 -0.039024487 0.009641738
000010 f6 3a 03 bd 50 16 ce 3c 86 c9 a1 bc d2 9e e3 bc
       -0.03203865 0.025157124 -0.019749414 -0.027785692
000020 39 5a 3a 3c a9 ac 4e bc f5 20 ac bb 42 13 69 3b
       0.01137405 -0.012614408 -0.005252952 0.0035564457
000030 79 f8 73 3b c4 54 0e bd a7 88 af 3c 9f 2c 4e bc
       0.0037226959 -0.034748808 0.021427466 -0.012583881
000040 b8 69 11 3c 56 1c 3a bc 32 3e 30 3d a4 62 65 bc
       0.008875303 -0.011359295 0.043028064 -0.014000569
000050 d9 72 2b 3c df b9 3e bc e2 07 d4 bc 82 b7 94 3c
       0.0104643935 -0.011640995 -0.025882665 0.01815391
000060 bd f8 3f 3d 95 02 f6 3c 95 bf c2 3c fd e8 cc 3c
       0.046868075 0.030030528 0.023772994 0.025013441
000070 74 2d bc bc f2 e8 e5 3c 10 20 74 bc 4b f5 a1 3c
       -0.022970892 0.028065179 -0.014900222 0.019770285
000080 0f e2 e0 bb 63 b3 84 bc e2 3e f4 bc e1 61 0e bd
       -0.006862886 -0.01619882 -0.029815141 -0.034761313
000090 35 c1 f3 3c 48 3a 3a 3d d9 dd 0d 3d 48 34 b7 bc
       0.029755214 0.045465738 0.0346354 -0.022363797
0000a0 b4 75 44 bc 3f 52 a0 bc 18 85 15 3c cb 50 1c bd
       -0.011990953 -0.019570468 0.00912597 -0.038162988
0000b0 52 db 00 b9 4d f6 24 3b ee 89 6d bc 52 71 ed bc
       -0.00012288734 0.002517122 -0.014498217 -0.0289847
0000c0 ae 92 ad bc dd 70 ee bc be 2f cc bc 07 b6 ba 3c
       -0.021188106 -0.029106552 -0.024925109 0.022791876
0000d0 0f e7 c2 3c e3 23 c9 bc 71 ed ec bc 76 9e 35 3d
       0.023791818 -0.024553245 -0.028921815 0.044340573
0000e0 f5 a3 7c 3b 6e c5 50 bc 06 1b 59 bc df 11 97 bb
       0.0038549874 -0.012742383 -0.013251072 -0.0046102847
0000f0 22 e1 d4 3c 4d f5 20 bd 58 1d ad bc b2 7b 82 3c
       0.025986258 -0.039296437 -0.021132156 0.015928123

weight f4 [64, 64, 3, 3]
000000 f6 af 67 3c 57 04 fc ba f0 4d 31 bc de a1 1b bd
       0.014141073 -0.0019227368 -0.010821804 -0.037996165
000010 72 5b c6 bc 5c 98 e5 3b 32 b4 bf 3c f2 b7 e7 3b
       -0.024213526 0.007006688 0.023401354 0.0070714885
000020 b6 5b 1c bd 62 f0 bb 3c d2 35 55 3a 2c e5 f5 3b
       -0.0381734 0.022941772 0.0008133325 0.007504126
000030 91 d6 63 bc 97 e9 d0 bc 59 79 0d bd 0c c2 06 3c
       -0.013906137 -0.02550201 -0.034539554 0.008224975
000040 06 8b d2 3c 97 40 37 bc f6 ea c7 3c e0 35 cd bc
       0.025701057 -0.011184833 0.02440403 -0.025050104
000050 15 c9 7b bb 9f 43 c3 3c 52 67 45 bc 5a 6b 23 bd
       -0.0038419415 0.023835955 -0.012048559 -0.0398973
000060 84 f7 3a ba 02 52 8d bb 30 d1 62 39 57 c9 a9 3b
       -0.00071322196 -0.0043127546 0.00021630968 0.0051814723
000070 dd 0f e4 bc fb 65 38 3c 0d b9 7c 3c cc bb b7 3c
       -0.027839595 0.011254783 0.015424979 0.022428416
000080 53 ca 89 bc db e4 fc 3c 9d ad c6 bc ee 82 b6 3c
       -0.016820109 0.030870846 -0.024252707 0.022279229
000090 dd 30 79 ba 14 27 da 3c 9b a3 31 bd 2a 20 df 3a
       -0.00095058774 0.026629962 -0.043368917 0.0017023135
0000a0 4a af cd b9 cc 8a 16 3d cb 97 2c 3d bf 3f 1e 3d
       -0.00039231248 0.03675346 0.04213695 0.03863501
0000b0 32 2b 3c bc f2 f3 e2 bb 0a 1b c2 3c 3e 5e cd 3c
       -0.011484908 -0.006926053 0.023694534 0.025069352
0000c0 ee c0 10 3d 73 4e 6f bc 77 93 c5 3c cf 1d e3 bc
       0.035340242 -0.014606106 0.024118168 -0.027724175
0000d0 d1 6f 07 3d ff e5 b2 3b 42 b2 18 3c 75 74 e5 bc
       0.03306562 0.0054595466 0.009319844 -0.028009633
0000e0 24 d5 d7 3c 45 94 e5 3b cb 2b 54 3b 49 1c b7 bc
       0.02634675 0.0070062005 0.0032374735 -0.022352355
0000f0 9b ec 8e bc 09 ac 95 bb 32 24 7c bb df 58 cf 3c
       -0.017446807 -0.0045676273 -0.0038473723 0.025310932
000100 d0 6b 8b bb 2b a1 2e 3b 8a 26 df 3c 86 fe 32 3d
       -0.0042547956 0.0026646357 0.027240057 0.043699764
000110 55 ae e2 3c 85 bd 8e bb 5c ae 9f 3c 93 b7 03 bd
       0.027671019 -0.0043560886 0.01949232 -0.032157492
000120 e5 99 fb 3c d9 19 c7 bc a7 09 1f 3d d7 d4 59 3c
       0.030713031 -0.024304317 0.038827565 0.013295374
000130 bc d6 05 bd 47 d4 f9 3c c2 b5 fd 3b 89 ac 24 3c
       -0.03267549 0.03049673 0.0077426145 0.010050901
000140 3c f7 06 3c 07 56 9b bc 39 e2 27 3d 8b bc 0b 3c
       0.008237656 -0.01896192 0.040987227 0.008528839
000150 68 ff 43 bc e6 e6 eb 3b 55 0e 03 bd 85 d4 1d bd
       -0.011962749 0.007199156 -0.03199609 -0.038532753
000160 96 f5 29 bd e2 a4 6c 3c ce 1e ac bc 0a a0 67 bb
       -0.041493975 0.014443608 -0.021010783 -0.0035343193
000170 82 7b 49 3b d2 2e b9 3c ea 73 85 bc 70 83 c3 3c
       0.0030743782 0.022605333 -0.016290624 0.023866385
000180 a8 75 7b 3c 02 2e 08 bd a7 5a 11 bc c9 c6 c8 3c
       0.015347876 -0.033247 -0.008871711 0.02450885
000190 93 c1 ba 3c c7 86 e3 3c 1b 5e d8 3c 93 c2 93 3b
       0.022797382 0.027774228 0.02641206 0.004509279
0001a0 d6 be c8 3b 48 ff 9c bb ac bd 9f 3c 28 96 94 bc
       0.006126265 -0.004791174 0.019499622 -0.018138006
0001b0 5b 98 27 3d e6 ea 73 bc df f9 09 3d db 64 e0 bc
       0.040916782 -0.014887547 0.03368556 -0.027391842
0001c0 4c 9e 20 bc a9 5a e4 3c f7 42 15 3d 36 4d 9a 3c
       -0.009803366 0.027875261 0.036440816 0.018835645
0001d0 71 d6 17 bd c8 98 23 bd 54 39 04 bd c3 05 a1 3a
       -0.03706974 -0.039940625 -0.032281235 0.0012285042
0001e0 61 cd 04 bd a7 93 b6 bc 64 07 af bb 52 ef e4 bb
       -0.032422427 -0.022287203 -0.005341457 -0.006986537
0001f0 bf 67 e6 ba 90 a7 81 3b e3 fe 72 bc aa 6b ce bc
       -0.0017578526 0.0039567426 -0.014831278 -0.025197823
000200 95 05 cf 3c b2 9c 8b 3a 84 3f a6 bc 42 fc 20 bd
       0.025271216 0.0010651557 -0.020293958 -0.03930307
000210 8a f2 21 3d 19 05 ba 3c 5c 42 d8 bc 29 8b 00 bc
       0.039537944 0.022707509 -0.02639883 -0.007845678
000220 19 e5 08 3d 18 ce 4a b9 38 41 08 bd c0 cb 99 bc
       0.03342161 -0.00019340997 -0.033265322 -0.018773913
000230 38 50 0d bd 68 b3 8e bc 67 00 15 bb 94 3b a0 3b
       -0.03450033 -0.017419532 -0.0022735836 0.0048899148
000240 e6 5f b9 3c 2f 16 83 3c cd ad 3d bd 15 5c ea bc
       0.022628736 0.016001789 -0.046308327 -0.028608361
000250 37 d9 dc 3c fd 59 94 3c 0e 5c 91 3c 96 1d c3 bc
       0.026959045 0.018109316 0.01774409 -0.023817819
000260 77 c8 92 bc 08 7c e0 bc d0 a2 e0 bc 85 d9 ba 3c
       -0.017917855 -0.027402893 -0.027421385 0.0228088
000270 40 7b 35 bd 98 79 c9 bc bb 7a 03 3d 56 13 47 3c
       -0.044306993 -0.024594113 0.032099467 0.012150606
000280 ee a4 0d 3d 65 c5 1f 3c 15 6d b5 bb d3 3d 9d 3b
       0.034581117 0.009751652 -0.005536685 0.00479863
000290 dc 57 00 3d eb 43 2e bd 4a 6b 0c 3d e5 68 25 3c
       0.03133379 -0.04254524 0.034282006 0.01009581
0002a0 db 02 09 bd f7 b0 b7 3c 7f 13 3f 3a c0 9f 1b bd
       -0.03344999 0.02242325 0.0007288977 -0.037994146
0002b0 82 af a2 bc 90 84 f2 3b 10 2c c2 3c 72 16 af 3c
       -0.01985908 0.0074010566 0.023702651 0.021373007
0002c0 c9 58 1a bd 84 e2 70 bc 4b b3 20 bc 45 d1 72 3c
       -0.03768233 -0.014702443 -0.009808372 0.014820402
0002d0 6c 8a 1b bd 3e 11 0d 3d 8b e2 2f 3d bb 7f 39 bd
       -0.037973806 0.03444027 0.042940658 -0.04528783
0002e0 35 68 af 3a 6c 30 1e b9 1d 68 16 bc de 8b d4 3c
       0.0013382497 -0.00015086093 -0.009180096 0.0259456
0002f0 4a f9 3b 3c e3 34 06 3d 3e 10 68 bc 10 e9 99 3c
       0.011473009 0.03276528 -0.014164029 0.01878789
000300 29 14 9a ba 60 b5 9e 3c 4a d4 94 3c 73 fa fe bc
       -0.0011755276 0.019373596 0.018167634 -0.031125283
000310 31 71 5e 3b 16 65 4e 3b c2 d9 95 3c 95 08 b6 bc
       0.003394198 0.0031493357 0.018292312 -0.02222089
000320 31 06 03 3d d6 3f c3 3b 78 2c 0d bd fa 92 4e 3b
       0.031988326 0.0059585376 -0.034466237 0.003152071
000330 8f 76 d5 bc 85 8f 2c bc 98 fe 16 3d 4f 83 0f 3d
       -0.02605751 -0.010532265 0.036863893 0.035037335
000340 f9 f9 09 3d e1 4e 1a 3a 3f 1c 8e bc b9 76 61 3c
       0.033685658 0.00058863877 -0.017347453 0.013761216
000350 93 23 8c 3c 23 42 a5 bc 10 5d d5 bc 6b 1a a9 bc
       0.017106807 -0.020173138 -0.026045352 -0.02064248
000360 0e d1 c3 ba 7f 6b 13 bd 81 3d 70 3b 21 f8 db 3c
       -0.0014939622 -0.03599119 0.0036657753 0.026851716
000370 cf f6 0c bd 2f d6 46 bc 8c 55 66 3c f8 2c 15 3c
       -0.034415063 -0.012136026 0.014058482 0.00910496
000380 1e 52 c1 bc 7e 5a c8 3c dc fd fc bb 62 3e 15 3d
       -0.023598727 0.024457213 -0.007720692 0.036436446
000390 70 0e 17 bd a9 58 1c 3d 07 bc 14 bd 44 90 26 3d
       -0.036879003 0.03817049 -0.03631213 0.040664926
0003a0 35 ec 2c 3d 8e 30 85 3b 37 af 0e bb 27 3f 57 bc
       0.042217452 0.004064626 -0.0021771917 -0.013137615
0003b0 0d 58 29 3c e1 db aa bc d5 52 e6 3c b0 1c a9 bc
       0.010335934 -0.0208568 0.02811567 -0.020643562
0003c0 c3 93 db 3c 0c 8b cc 3c fc 06 05 3c 4a 9b 5c 3c
       0.026803857 0.024968646 0.008119341 0.013464758
0003d0 97 8c 90 3c 40 54 28 3d de 97 ed bc aa 8c 01 3b
       0.017645163 0.041095972 -0.02900308 0.001976768
0003e0 e2 8f e4 bb 2a 26 2b 3c e4 96 bf 3c 12 bf 12 3c
       -0.00697516 0.010446111 0.02338738 0.0089566875
0003f0 0a f9 e6 3c 7b 81 0c 3d 95 61 e5 bc 5d 2f 97 3c
       0.028194923 0.03430317 -0.028000632 0.018455202

bias f4 [64]
000000 69 ad bd bc 42 ff 10 3c 7f 3c 85 bc 2d 3a 2b 3d
       -0.023153977 0.008849921 -0.016264198 0.041803528
000010 aa b8 c4 bc e9 7f 95 3c a9 92 d8 bc 71 30 04 bd
       -0.024013836 0.018249469 -0.02643712 -0.03227276
000020 5d 4f 87 bc 23 af a3 3c 77 61 c9 3c 05 91 26 3c
       -0.016517336 0.019980973 0.024582608 0.010166411
000030 b3 1d c0 3a 59 d2 3b bc 5b eb e9 bc 84 cc 28 bc
       0.0014657289 -0.011463725 -0.028554609 -0.010302667
000040 d1 c5 84 bc 27 92 0d 3d 8e 29 24 3d 7f 0a 93 3c
       -0.016207607 0.03456321 0.040078692 0.01794934
000050 82 53 e8 bc 73 bf 1e 3c 81 7c ef bc 59 55 cb bc
       -0.028360132 0.0096892 -0.029234173 -0.02482097
000060 a9 7f 51 3d 16 03 2f bd 7e 68 04 bc 75 e6 06 bd
       0.051147137 -0.042727552 -0.0080815535 -0.032934625
000070 84 a0 23 bd f3 84 63 3c c9 89 ba bc d8 3c 02 3d
       -0.039948 0.013886678 -0.02277078 0.031796306
000080 b1 c7 1a 3d f5 5f 5a 3d 45 c6 90 3c 93 79 37 3d
       0.037788097 0.053314168 0.017672667 0.044793677
000090 e0 b5 a1 3c cf 3a 41 3c 5f 57 cb 39 0f 08 12 bc
       0.019740045 0.011793806 0.00038784274 -0.008913054
0000a0 01 ba 28 bc 41 d3 8e 3c a7 96 0c 3d 67 e9 a7 3c
       -0.010298253 0.017434718 0.03432336 0.020497037
0000b0 5e fe ce bc d7 95 05 3d 84 9d 31 bc 11 5c f1 3b
       -0.025267776 0.0326136 -0.010840777 0.0073657115
0000c0 24 9c db 3b e4 08 d4 bc 0f 62 90 bc 51 91 b9 ba
       0.006701963 -0.025883146 -0.017624883 -0.0014157688
0000d0 45 e0 93 3c 6f 06 c5 bc fe d3 ac bc 77 51 1f 3d
       0.018051276 -0.02405092 -0.02109718 0.03889605
0000e0 3c 21 8c bc 33 96 06 bc 54 35 31 3d 87 c3 8b 3c
       -0.017105691 -0.008214521 0.04326375 0.017061008
0000f0 37 90 86 bb 88 ae 09 3c 89 a4 1a 3c 24 17 f8 3c
       -0.004106547 0.008403428 0.009438642 0.030284472
