Baseline/bestKernel_Num_Set_6.pt (torch_old, 176997 bytes, 16 tensors)

weight f4 [16, 3, 3, 3]
000000 d8 ec 2d be e7 ef c0 bd 0a 67 97 bd 8c b0 26 be
       -0.1698488 -0.09420758 -0.073927 -0.16278285
000010 28 a3 24 3d bd 32 aa 3d cc 12 9f bc de 44 7a bd
       0.04019466 0.08310459 -0.019418143 -0.061100833
000020 11 af 61 3c 8c 42 1e be 77 d9 f3 bd d8 c5 cf 3a
       0.013774649 -0.15455073 -0.119067125 0.0015851809
000030 ba 63 30 3e 98 c2 6c bd ac bb d0 3d 7c 09 b7 bd
       0.17225543 -0.057802767 0.101920456 -0.08937356
000040 fb 02 89 bd 48 b7 48 be 4c f3 33 3e 58 6b 50 3e
       -0.066900216 -0.19601166 0.17573279 0.20353448
000050 16 97 3c 3c b7 d1 0d 3e 8c b0 31 3e 60 cb e3 3d
       0.011510631 0.13849531 0.17352504 0.11122775
000060 0f 2d e9 3d 5d 03 2b be 35 94 2a be d9 c8 11 be
       0.11385547 -0.16700502 -0.16658099 -0.14236774
000070 44 25 8b 3d 3e 36 25 be d1 73 17 be ce d7 bc bd
       0.06794217 -0.16133973 -0.14790274 -0.09220849
000080 23 f4 35 be e6 2b b3 39 c9 43 d5 3c c8 06 e6 bd
       -0.17768912 0.00034174247 0.026033299 -0.11231762
000090 70 5d 01 3e c2 81 8f bd 4b 95 53 bd 90 3c 16 3e
       0.126333 -0.07007171 -0.05165605 0.1467154
0000a0 fd 45 2b 3e a8 4a a0 bc 02 d3 0c be e5 ae c0 bd
       0.16725917 -0.019566849 -0.13752368 -0.094083585
0000b0 dc 1c dd 3c 4d a8 eb 3d 4e 5d bb 3d 33 2c b6 bd
       0.0269913 0.1150671 0.09148656 -0.08895149
0000c0 4f e1 33 be 62 a0 2d be f6 3a 7b bd 05 72 ca 3b
       -0.17566417 -0.16955712 -0.061335526 0.006178143
0000d0 13 f4 b6 bd 44 f8 1e be 81 f1 19 3d c5 66 09 be
       -0.08933272 -0.15524393 0.03758383 -0.1341811
0000e0 ee 83 06 be 56 80 0e be d3 43 11 bd 0e 30 3b 3e
       -0.13136265 -0.13916144 -0.035465073 0.1828005
0000f0 41 76 b8 3d c6 7b 05 bc a9 bb 53 3d df 02 95 3d
       0.0900693 -0.008147186 0.05169264 0.07275938
000100 6d 28 95 bb d1 ce 29 be 90 59 05 be e7 d2 12 be
       -0.0045519383 -0.165828 -0.13022447 -0.14338265
000110 c1 ba 8f bc 15 63 43 be 2f a4 4d bd 52 62 b0 bd
       -0.017545106 -0.19080766 -0.050205406 -0.08612503
000120 e7 08 58 3e 1d 70 37 3e c1 2e 09 3e a1 68 06 3d
       0.21097146 0.17913862 0.13396741 0.032814626
000130 85 ca 22 bd 0f b9 92 3d dd 0d e4 bd 71 4e 76 bd
       -0.03974392 0.071642034 -0.11135457 -0.0601334
000140 06 c7 86 bc 08 d2 11 bd 3a 3a 30 be 69 70 ad 3d
       -0.016452324 -0.035600692 -0.17209712 0.08468706
000150 e3 83 2a 3e 43 47 c7 bd c5 ad 73 3d 33 97 62 bc
       0.16651873 -0.09730389 0.05949189 -0.013829994
000160 9c a0 c9 3a ed a8 9a 3c a2 30 3b 3e 34 6b 2e 3d
       0.0015382948 0.018879378 0.1828027 0.042582706
000170 e4 63 da bd f6 96 4f bd a9 f5 e8 3d 52 05 9b 3d
       -0.10663584 -0.050681077 0.11374981 0.07569374
000180 42 d6 bf 3c 26 2c b2 bb 46 9e 70 bd b8 bb 3f bd
       0.023417596 -0.005437392 -0.05874469 -0.046809882
000190 c7 df a8 bd b2 c7 4c 3d d5 d9 9b 3d af 68 2b 3e
       -0.08245807 0.04999513 0.076099075 0.16739152
0001a0 bb 40 c7 bc a7 c0 09 3d fa ed 12 3e 4b cd cf 3d
       -0.024322858 0.033630993 0.14348593 0.101465784
0001b0 78 34 c9 3c c7 a3 71 3d 53 1b 1e 3c 4c 60 29 be
       0.024561152 0.05899408 0.009650069 -0.1654064
0001c0 c2 34 e8 3b 4a 12 2e bd 1f 9c 31 3e 2c aa 31 3e
       0.0070863673 -0.04249791 0.17344712 0.17350072
0001d0 c6 8d 1b 3d a4 83 47 3e d6 d7 9b bd 58 fc 42 3e
       0.037977003 0.1948381 -0.07609527 0.19041574
0001e0 0e d7 41 3e fa 3d 86 3c 2d b1 05 be e6 66 21 bd
       0.18929693 0.016386975 -0.13055868 -0.039404772
0001f0 aa 5c e7 bc 06 00 dd 3c 9f b8 16 be ad 94 81 3d
       -0.028242428 0.02697755 -0.14718865 0.06327186
000200 a4 9f 56 bd ac e3 b2 bc 67 d5 92 bd 8a 6e 52 bc
       -0.05239834 -0.021837078 -0.071696095 -0.012843737
000210 bc d6 1a be df dc 97 bd a3 4a 3b 3d 11 ee f9 3d
       -0.15120977 -0.07415175 0.045725476 0.12203611
000220 6d 30 30 3e 62 bf 0f be 79 de 9e 3d 0b 45 e2 bd
       0.17205973 -0.1403785 0.07757277 -0.11048325
000230 73 90 0e be 74 bb 23 bc 3e 25 d7 bd b0 09 1b be
       -0.1392229 -0.009993423 -0.1050515 -0.15140414
000240 38 fd 49 be e9 0b 1a be c9 b5 11 3e 97 94 b8 3d
       -0.19725502 -0.15043606 0.14229502 0.09012716
000250 9a a0 c3 bd bd 88 13 be fb 10 2b be af dd 08 be
       -0.09552117 -0.1440763 -0.16705696 -0.13365816
000260 28 4c c1 bd d7 3b 10 3e 94 c1 b5 3d 78 71 52 bd
       -0.09438354 0.14085327 0.08874813 -0.051377743
000270 3d d3 1d 3e f7 2e c3 bd 3d c2 09 be 22 15 83 3d
       0.15412612 -0.09530442 -0.13453002 0.06400515
000280 74 53 a7 bd fe 29 9a 3d f5 30 2d 3e 49 eb a9 bd
       -0.08170214 0.075275406 0.16913207 -0.0829683
000290 e3 0f 01 be d2 80 a1 3d e6 87 29 be 74 df 36 3e
       -0.12603717 0.07885899 -0.16555747 0.17858678
0002a0 f6 b2 a9 bd d5 30 ce 3d bd 7a 13 be ff 2f f8 bd
       -0.08286087 0.10067908 -0.1440229 -0.121185295
0002b0 a6 78 f6 3c 6a 73 9f 3d 5a 90 26 3e ec 2f 34 3e
       0.030086827 0.07785685 0.16266003 0.17596406
0002c0 a7 fe 27 3b b6 4d 03 bc 61 22 4a 3d 8d c4 ea bc
       0.0025633962 -0.008014133 0.049349193 -0.028658176
0002d0 eb 81 8a 3c 73 d7 30 be 11 25 17 be dd 64 16 3e
       0.016907653 -0.17269687 -0.14760233 0.14686914
0002e0 0d 54 c5 bd 84 a2 2a 3e 41 52 0f 3d a5 d4 78 3d
       -0.09635172 0.16663557 0.034990553 0.06074967
0002f0 79 49 41 3e 50 66 c3 bd c7 3f 9a bc 6f 45 38 3d
       0.18875684 -0.09540999 -0.01882924 0.044988092
000300 09 b2 9d 3d 9e 39 34 be d8 9b a1 3d 5e 1c d1 bd
       0.07699973 -0.17600104 0.07891053 -0.10210489
000310 a5 69 15 3d fa 05 10 3e 50 90 58 3a 54 87 6c 3c
       0.036477704 0.1406478 0.00082612503 0.014436562
000320 b4 6f de 3b c4 01 39 3e 50 13 05 3e 67 b6 5a 3d
       0.0067882184 0.1806708 0.12995648 0.05339661
000330 9b 31 c3 bd 2a f8 aa bd ee 08 33 3e 57 6e 27 3e
       -0.09530946 -0.08348115 0.17483875 0.16350685
000340 31 0a 0c 3e 87 59 ff bd 0a 51 33 3e 05 c3 e9 3b
       0.13675763 -0.12468248 0.17511383 0.007133844
000350 78 71 2b 3e 2a 14 45 3e 53 45 3f 3d f1 ec 5e bd
       0.16742504 0.19245973 0.046696972 -0.054425184
000360 60 9c 3f 3e 36 e9 b7 bd 0b db 07 3e d5 1c 32 be
       0.18711996 -0.08980028 0.13267152 -0.17393811
000370 11 89 4b bd d7 92 20 be ba 55 96 bd 63 83 be 3d
       -0.049691264 -0.15681015 -0.0734057 0.09302404
000380 09 76 00 be e3 bd 26 be 16 bc 1b 3e b2 f2 f0 3d
       -0.12545027 -0.16283374 0.15208468 0.117650405
000390 4c 5f e1 3b 95 2b f8 bd 3f 85 16 bd 49 b2 4d bd
       0.0068778154 -0.121176876 -0.036748167 -0.050218854
0003a0 35 ca 09 3e 63 54 43 bd 04 28 12 bd ed 32 f0 bd
       0.13456042 -0.0476879 -0.035682693 -0.11728463
0003b0 42 5e 92 bd 46 8f ee 3d b4 b9 0c 3e 40 e7 29 3d
       -0.071468845 0.11648421 0.13742715 0.041480303
0003c0 72 ca 73 bd 5e 9d 4c 3e 8f 7d 57 3d 09 e6 95 bd
       -0.05951924 0.19981906 0.052609976 -0.07319266
0003d0 46 2c 86 bd 3f ee d2 bc dd 44 bd 3d ba f6 92 3d
       -0.06551413 -0.02574837 0.0924165 0.071759656
0003e0 73 e5 0f 3e ee f5 f6 bb dc 51 24 3e 67 ca 9d bd
       0.14052372 -0.0075366413 0.16046852 -0.07704621
0003f0 b8 18 97 bd 4e d1 72 bd a9 2a 2c be 31 3b e8 bd
       -0.073777616 -0.05928164 -0.16813149 -0.11339415

bias f4 [16]
000000 26 55 34 bc ac 22 2b 3d 69 e3 97 bd e7 d3 3b 3e
       -0.011006629 0.041781113 -0.07416422 0.18342553
000010 cf 71 04 be e4 38 45 bc eb 6f 0b be 89 a2 86 3d
       -0.1293404 -0.01203749 -0.13616912 0.0657397
000020 1f ba 2b 3e b7 e3 3b 3e 90 99 bb 3c 23 86 ae bd
       0.16770218 0.18348585 0.022900373 -0.08521678
000030 02 34 4c 3e 31 fd 05 3c 7c 15 08 3e 10 97 a2 bd
       0.19941714 0.008178041 0.13289446 -0.07938969

weight f4 [32, 16, 3, 3]
000000 18 d0 4e bc a8 04 33 bd a7 b2 d4 3d 13 46 ff 3c
       -0.012622856 -0.043705612 0.10385638 0.031161344
000010 af 18 27 bd e6 6c c9 3c 65 c4 49 bc e1 ef ed 3c
       -0.040795024 0.02458806 -0.0123148905 0.029045047
000020 9f 11 52 3d ec 14 7c bd 94 f1 eb bb f2 af 93 bd
       0.051286336 -0.06154339 -0.007200429 -0.07211293
000030 ea 0d 04 3c 24 7e ad bd be 94 2a 3a f9 6d 65 3d
       0.008059958 -0.08471325 0.00065071497 0.05601308
000040 77 76 4d 3d 90 23 91 3b 7f 67 a6 3d a2 5d d0 3d
       0.050161805 0.004429288 0.08125209 0.10174109
000050 0c ae 36 3d a4 ec 28 3d e7 31 e0 3c 82 c1 b7 3d
       0.044599578 0.041241303 0.027367545 0.089724556
000060 94 2b ba 3d 02 98 98 bc d5 93 94 3c f4 6b ad bc
       0.09090343 -0.01862717 0.018136898 -0.02116964
000070 3c 92 4e 3d 34 be 74 bd 33 cb 37 3d 84 9e c4 bb
       0.05043243 -0.059751704 0.04487152 -0.006000342
000080 1d bf 43 3d 6f 9b 2d 3d 8e 64 ac bc ee 37 84 3d
       0.04778968 0.04238456 -0.021044042 0.0645598
000090 eb 42 04 3d 45 bb 98 bd 4b e0 a2 3d f5 6d 8c 3d
       0.03229038 -0.07457594 0.07952937 0.0685691
0000a0 8b 9e 44 3d fa 56 41 bc 08 29 dd 3c 83 6c 45 bd
       0.04800276 -0.011800522 0.026997104 -0.048199188
0000b0 41 15 ff bc da be 22 3d 21 74 10 3d 2a 15 17 3d
       -0.031138064 0.03973279 0.035267 0.036885418
0000c0 d7 6c b1 bd c0 75 6d 3d d6 88 20 bd 7f ea 80 3d
       -0.08663338 0.057973623 -0.039192997 0.062947266
0000d0 37 17 68 3d 8b 01 c4 3c 32 be ca 3d 8d 91 7b 3d
       0.056662764 0.023926517 0.09899558 0.061418105
0000e0 68 ad 87 3d 8a 4d 52 bc a8 e0 be 3d 6c dd 0c 3d
       0.066248715 -0.01283587 0.093201935 0.03439085
0000f0 68 f5 81 3d 86 3a 8b bb 0f ee 99 3d eb 48 c2 3d
       0.06345636 -0.00424892 0.07516109 0.09486564
000100 0e a1 2a bd 62 9d b8 3d 2d b5 1b bd 4e 8c 12 bd
       -0.0416575 0.090143934 -0.03801458 -0.035778336
000110 c9 fd 49 bd e7 ac 29 3d 22 f4 2d bd bb 9f 27 bc
       -0.049314294 0.04142466 -0.04246915 -0.010230954
000120 95 e6 d6 bc 80 9d 0a 3d 74 8c 89 bd 21 15 1f bd
       -0.026232997 0.03384161 -0.067162424 -0.03883851
000130 55 82 e1 3a 04 35 9a 3b 2b 3e 0e bd 42 5e 08 3d
       0.001720498 0.004706027 -0.034727257 0.033293016
000140 9f cd 53 bd d1 64 7a bd c4 ab a7 ba f5 37 10 bd
       -0.051709767 -0.061131302 -0.0012792279 -0.035209615
000150 d8 18 6e 3d e6 d5 4c bd c8 29 f9 39 4b 64 25 3d
       0.05812916 -0.050008677 0.0004752411 0.04037885
000160 7e 55 87 bd 84 0a 93 3d 1d 43 fe bc 93 28 7e bc
       -0.06608103 0.0717974 -0.031037861 -0.015512603
000170 59 08 35 bd 17 4e d8 bc de c5 e0 bc f3 20 8e bd
       -0.044197414 -0.026404424 -0.0274381 -0.06939878
000180 52 fb 07 3d 29 a5 93 3b a3 c9 b0 3d 82 41 9d 3d
       0.033198662 0.0045057726 0.08632209 0.0767851
000190 a6 13 be 3d 0f 88 38 3d 82 5c 7e 3d 16 ee c6 3d
       0.092810914 0.04505163 0.06209994 0.0971338
0001a0 77 b2 b3 3d 0a 8b 49 bd ce 2a c0 39 a7 5b 7b bd
       0.08774274 -0.049204864 0.00036652986 -0.061366703
0001b0 f1 8c ce 3c 15 5a e6 bb 2d 04 c3 3d 97 f1 06 3d
       0.02521369 -0.0070297816 0.09522281 0.03294524
0001c0 7d e5 b9 3c af 2d 21 bd 48 61 34 bd ad 9a 0f 3d
       0.022692436 -0.039350208 -0.044038087 0.03505962
0001d0 ac 37 9f bc d3 e4 31 bd 8e e3 5b 3d 7d 47 47 bd
       -0.019435726 -0.043431114 0.05368381 -0.04865216
0001e0 64 03 2f bd b4 85 71 3d 61 4e e3 3c d1 7d 58 bd
       -0.042727843 0.0589654 0.027747335 -0.052854363
0001f0 59 ee a4 3c d3 43 19 3d 35 d9 9c bd ac 71 56 3c
       0.020133184 0.037418198 -0.076586165 0.013088625
000200 c6 d6 83 3c 75 70 c4 bb 77 2f 9e 3d 5a ec 6e bd
       0.016093623 -0.0059948512 0.07723897 -0.05833087
000210 77 29 31 3d 28 70 3d bd f9 9f 98 bd 23 64 71 3d
       0.043252435 -0.04624954 -0.07452387 0.05893339
000220 a2 7f b9 bc f1 60 18 3c 6b 71 dd 3c c6 92 5d bd
       -0.022643868 0.009300456 0.027031621 -0.054095052
000230 e5 d1 ac bd 88 32 cd 3c 23 67 63 3d d3 0c 86 bc
       -0.08438472 0.02504851 0.05551828 -0.016363537
000240 a9 3e ae 3d ba ab 62 3d 0e 15 50 3d 72 96 f2 bc
       0.08508045 0.055339552 0.05080133 -0.029612754
000250 6b c5 d5 3d d8 a2 7d 3d 5c 1d 23 3d 23 e8 aa 3d
       0.10438045 0.061922878 0.03982292 0.08345058
000260 19 dd 34 bd e9 48 65 3a c9 5d 21 bd 9d d1 a7 bc
       -0.044156168 0.0008746521 -0.03939608 -0.020485694
000270 28 0f b7 3b f6 6a 78 3c 8a c2 95 3b ce 4d a1 bd
       0.0055865236 0.01516222 0.00457031 -0.07876168
000280 46 98 56 bd e2 cb 36 bc a4 d5 b9 3b 6b cb 48 bd
       -0.052391313 -0.011157008 0.00567122 -0.04902212
000290 e5 e5 d2 3d 3c a5 f8 3c 50 5a 18 bd 3d 8f 6a 3d
       0.10297755 0.030352227 -0.037195504 0.05726551
0002a0 7e 50 68 3d 31 ba 9f bc 89 dd 80 3d 20 96 f0 bc
       0.05671739 -0.019497963 0.062922545 -0.02936846
0002b0 46 d0 53 3d 69 c0 cf 3d d0 f6 9e 3d 2d 0e 82 3d
       0.051712297 0.10144121 0.077619195 0.0635036
0002c0 cf f1 bc 3b 38 15 1d 3d 3e be 56 3d 28 86 31 3d
       0.0057661305 0.038350314 0.052427523 0.043340832
0002d0 73 48 ab bb ca 2c c1 3c 44 6a b4 bc e8 a8 12 bd
       -0.0052271425 0.023580927 -0.022023328 -0.035805613
0002e0 30 6e 85 bd b3 ce 66 bd d0 20 26 bd ac 62 bb 3d
       -0.06515157 -0.056349467 -0.040558636 0.091496795
0002f0 48 4d e7 3c 69 b0 82 bd df f8 14 bd ef 37 0c 3d
       0.028235093 -0.06381304 -0.036370154 0.03423303
000300 b7 b5 7a bc 05 0c 87 bc 1a 35 a5 bc 30 39 4d bc
       -0.015302113 -0.016485224 -0.020166922 -0.012525842
000310 4a 17 86 3c bf f7 81 3c d6 c3 97 3d 47 ea 93 3d
       0.016368527 0.015865205 0.074103996 0.07222419
000320 31 91 b5 3d 49 70 8c 3c 24 ab 92 bc 30 c5 a4 3c
       0.08865584 0.017143385 -0.017903872 0.020113558
000330 78 51 0c bd dd f7 5c 3d 21 bb 2b 3c bc 31 85 bb
       -0.034257382 0.05394732 0.010481627 -0.0040647667
000340 7b 63 40 bd 21 24 81 3d 40 1c 8e 3d fd 1f cc 3d
       -0.046969872 0.06305719 0.06938982 0.09967039
000350 5f 48 d4 bb 54 5a 47 3d ae 8d e0 3c 4a e6 f0 bc
       -0.006478354 0.048670128 0.027411308 -0.029406685
000360 da 53 05 bd 2c f1 6f 3d 74 30 01 bd 17 1b 87 3d
       -0.03255067 0.05857961 -0.03154035 0.06596964
000370 29 ff 2c 3d 74 84 1a 3d 19 fb 93 3d 67 09 62 3d
       0.042235527 0.037723973 0.072256275 0.055184748
000380 fa 03 59 3d 0d 10 73 3d 96 ed 98 bc 48 ad e4 bc
       0.052982308 0.05934148 -0.018667977 -0.027914658
000390 fa bf 77 3a a9 a0 80 3d 59 e2 98 3d 56 58 9e 3d
       0.0009450909 0.062806435 0.074650474 0.077316925
0003a0 71 ce 1d bc d7 75 c2 3b 7d 51 2c bd 17 83 87 3d
       -0.009631739 0.0059344578 -0.0420699 0.066168
0003b0 57 a6 24 bd 17 7e 9b bc 48 d5 ab 3d 66 c6 10 3d
       -0.040197697 -0.018981023 0.083902895 0.035345457
0003c0 0a d9 a0 bc d9 8a 27 bd 48 e8 2b bd 89 30 b6 3d
       -0.019634742 -0.0409039 -0.041969568 0.08895976
0003d0 4b bd 5d bd a3 30 c0 3d df 4e b6 3d 96 78 de 3c
       -0.054135602 0.09384277 0.08901762 0.02715711
0003e0 03 56 81 3c df 50 b2 3d bb af 73 3d 02 0d d0 3d
       0.015788084 0.08706831 0.05949376 0.10158731
0003f0 43 b0 b9 3d e0 3f fe bc c3 d7 99 3d 47 73 85 3d
       0.090668224 -0.031036317 0.075118564 0.06516128

bias f4 [32]
000000 bb 22 14 3d 8f d5 22 3d be f9 69 3d f8 3b 10 bd
       0.036165934 0.039754447 0.05712294 -0.03521344
000010 b6 42 b6 bc 58 2f e2 3c 0b 7b 70 bd cd 5b b3 39
       -0.022248607 0.027610466 -0.058711093 0.00034209937
000020 da 39 d4 3c 55 65 93 bd db c1 2d 3a 24 29 0d 3c
       0.025906492 -0.07197062 0.0006628313 0.008615766
000030 4d 7c 51 bd 59 ca 90 3d db e8 be 3b 16 8e 96 bd
       -0.051143933 0.07069845 0.0058260984 -0.073513195
000040 be af fe bc 41 72 c5 3c a8 c7 71 3d d5 52 af bc
       -0.03108966 0.024102332 0.059028298 -0.021401802
000050 1c fb 9b 3d 48 85 f8 bc 60 51 45 bd bf 9d 41 bc
       0.07616255 -0.030336991 -0.04817331 -0.011817395
000060 e6 3f 67 bd 53 20 08 3d a4 f8 60 3d 2e 21 99 bd
       -0.056457423 0.03323395 0.054924622 -0.07477032
000070 64 1f 78 bd a7 22 26 3d 53 60 59 bc 98 f6 92 3d
       -0.06057681 0.04056039 -0.013267594 0.0717594

weight f4 [32, 32, 3, 3]
000000 ba 4d 87 3d 21 d5 d3 bc a0 dc 4a 3d 0f c3 36 bd
       0.06606622 -0.025858464 0.04952681 -0.044619616
000010 ec 1e 0a 3d 3c 07 9c bc 2f f2 4c 3c a9 3b 8c 3d
       0.033720896 -0.019046418 0.012508913 0.06847317
000020 ee 8a a9 3c e1 91 19 bc 71 ef 4c 3d 53 b9 6b 3c
       0.02069613 -0.009373159 0.050033037 0.014387446
000030 e7 cb 99 3d 60 db af bc 70 ea 5f 3c 32 a9 d5 bc
       0.075095944 -0.02146691 0.013666734 -0.026081655
000040 b3 fd 1c bc d2 8e fe 3b 81 a2 86 bc bf 26 97 bc
       -0.009581971 0.0077684904 -0.01643491 -0.018451093
000050 76 33 f6 3b 09 9b 3b bc aa f9 69 bc 05 16 cd 3c
       0.007513459 -0.0114505375 -0.014280716 0.025034914
000060 ad b3 ae bc 34 2e 67 3d 09 e7 7c 3d c3 69 9c 3d
       -0.02132591 0.056440547 0.06174377 0.0763736
000070 2e b0 27 3d 40 e6 94 3c ad 33 45 3c fc 86 ad bb
       0.040939502 0.018176198 0.012036246 -0.0052956324
000080 0c e9 82 3d af 6a 65 3d 07 97 88 3d 51 61 60 3c
       0.063921064 0.056009945 0.06669431 0.013695077
000090 7e 4e 1d bd 3a 16 b4 3c 03 b8 5c 3d 1a 50 d4 bb
       -0.038404934 0.021983255 0.053886425 -0.0064792754
0000a0 1d 40 4f 3d 13 62 36 3d a7 82 c5 3c ac 64 48 bc
       0.050598253 0.044527125 0.024110151 -0.012231033
0000b0 a8 5a 84 bc 38 6e 50 3b cb 3c 40 3c c4 52 a8 3b
       -0.01615651 0.0031803977 0.011733244 0.0051368196
0000c0 a1 cc 2c bd a7 e3 d3 bc 7e a1 0f ba 64 ef 77 3d
       -0.042187337 -0.025865389 -0.00054790813 0.060531035
0000d0 1c 45 22 3d b7 ad 0d bd d0 28 06 bd 86 b0 d1 bc
       0.03961669 -0.034589496 -0.032753766 -0.025596868
0000e0 68 d2 86 3d 22 c5 c7 3c b5 8c 68 3d 77 f7 17 bd
       0.065831006 0.024385992 0.056774814 -0.037101235
0000f0 35 30 85 3d e6 8a 6d 3d ff 0e 77 3c 03 37 df bc
       0.065033354 0.057993792 0.015079259 -0.027247911
000100 1d 1c c2 3c f0 dd fc bc 88 49 c0 bc 9d 38 bf 3c
       0.023695046 -0.030867547 -0.023472562 0.023342425
000110 87 3d 33 bd 92 5e 85 3c 4c bc 2d ba 74 ea 5f 3b
       -0.04375985 0.016280446 -0.00066274847 0.0034166845
000120 1d 41 86 3b 56 b4 82 3c 3e 29 0a bd bf f9 d6 3c
       0.0040971176 0.015955132 -0.033730738 0.026242135
000130 db ba 58 bd 94 1e dc 3c 56 a7 3a bd 7f 9a 73 3d
       -0.052912574 0.02687005 -0.04556974 0.05947351
000140 c0 76 88 3c 31 a9 12 3d f8 ef 0b 3d 0a e7 e8 3c
       0.016658187 0.035805885 0.0341644 0.02843048
000150 81 a3 54 bb ee 93 1f bd 74 f2 4f 3d 1e f4 64 3d
       -0.0032446089 -0.038959436 0.05076833 0.05589687
000160 5f c0 a4 3b 3e f4 bc 3c ff da 22 bb 64 15 45 bc
       0.0050278152 0.023065683 -0.002484977 -0.012029026
000170 52 b7 29 3d 4b 40 0b bd c8 26 5c bd 08 31 09 bc
       0.041434593 -0.03399686 -0.053747922 -0.008373506
000180 c9 a1 07 bd 43 1e 19 bd ff 8e 79 bc ad b5 26 bb
       -0.033113275 -0.037382375 -0.015231847 -0.0025437877
000190 e5 97 22 3d 77 dc 0b 3d f8 b1 3c 3d 81 de 2f 3d
       0.03969564 0.0341458 0.04606816 0.042936806
0001a0 5b f4 99 3c cc 72 91 ba 3d 26 48 bb d6 6e 39 bd
       0.018793276 -0.0011096834 -0.003054037 -0.045271717
0001b0 51 70 bc 3c 3d 8f 70 3b 77 27 78 3b 0b 4a 88 3d
       0.023002775 0.003670647 0.003786532 0.066547476
0001c0 09 8d 2f 3d cd d3 66 3d 92 22 6a 3d 85 29 76 bc
       0.04285911 0.056354333 0.057161875 -0.015024547
0001d0 a6 65 0d 3d f1 46 46 bb 78 69 d0 3c ea f4 21 3d
       0.034520768 -0.0030254687 0.025440916 0.03954021
0001e0 f2 f7 22 bc b1 98 4b 3d 3f b5 03 3c ba 67 c3 bb
       -0.00994681 0.049706165 0.008038818 -0.005963293
0001f0 0b 27 37 3d 4c c5 54 3d ea c9 79 bc 83 dd 12 3d
       0.04471497 0.05194597 -0.015245894 0.03585578
000200 fb 3c 37 bc 50 91 34 b7 2e da 21 bd 74 4e ba bc
       -0.0111839725 -1.0762669e-05 -0.039514713 -0.022742487
000210 df f1 20 3c 48 d4 30 bc 46 a6 44 bb 8a fe 9c 3c
       0.009823292 -0.010792799 -0.0030006333 0.019164342
000220 76 52 97 bc a9 78 13 3d 73 62 81 3d 8c c8 56 3d
       -0.018471938 0.036003742 0.06317606 0.05243735
000230 ea c7 6a 3d 4f 41 2e bc 09 43 01 3c d6 24 61 bc
       0.05731956 -0.010635688 0.007889518 -0.0137416925
000240 14 08 02 bc 77 d3 03 3c 91 9a 6d 3d d0 a2 0d bd
       -0.007936496 0.008046023 0.058008734 -0.0345791
000250 9a 2f 2a bc 40 79 55 3d fb b5 53 3d 8a fa d1 3b
       -0.010387326 0.052117586 0.051687222 0.0064080404
000260 8c b5 13 3c e6 ac 47 3c a9 fa 84 3d 58 71 86 3d
       0.009015452 0.012187218 0.06493122 0.06564587
000270 29 db f6 bb fe 77 fe 3c 68 f2 0b bd cc b2 8e bc
       -0.00753345 0.031063076 -0.034166723 -0.017419241
000280 8c ad 90 3c 5e 6b 89 3b 9a e0 92 bb 4e 4b 94 3d
       0.017660879 0.0041937074 -0.004482341 0.07240926
000290 e4 c8 5e 3d 67 1f de 3c e5 ea bd 3b 24 d2 ce 3c
       0.054390803 0.027114583 0.005795824 0.025246687
0002a0 5b 36 92 3d 03 69 50 3c 4a aa f0 3c 5e d2 16 3d
       0.07139274 0.012720349 0.029378075 0.036821716
0002b0 6a c2 5a 3d 1e 69 62 3d 7a 06 13 bc d3 fc 2a 3d
       0.053408064 0.05527603 -0.008973712 0.04174502
0002c0 df d6 ea 3c 02 dd e4 3c ef 17 fe bc 74 a6 99 3d
       0.028666912 0.027937416 -0.031017272 0.075024515
0002d0 a6 f3 b3 3c e3 55 e2 3b ee 5c bf 3c b1 c3 96 bc
       0.021966767 0.006907211 0.023359742 -0.01840386
0002e0 24 a1 3a bd 0b 47 80 bc c9 ba 68 bd 81 89 40 3d
       -0.045563832 -0.015658876 -0.056818757 0.047006134
0002f0 99 63 b7 3c 09 f4 8e 3c f1 63 1a bd d7 c5 14 bd
       0.022386359 0.01745035 -0.037692968 -0.036321487
000300 ed 30 13 3d 96 f6 38 bd e2 d8 64 3c e7 08 3f 3d
       0.03593533 -0.045157038 0.0139677245 0.04663935
000310 ff 3b 46 bd 1a de 36 3d cf 6f db bc 90 72 34 3c
       -0.04839706 0.044645406 -0.026786713 0.011013642
000320 94 6c 83 3d d6 c9 86 3d 07 89 9b 3d ae 9d 93 3d
       0.06417194 0.06581466 0.07594495 0.072078094
000330 58 56 08 bd 8c b0 08 3d ff 0e e9 bc 47 4d 58 3d
       -0.03328547 0.033371493 -0.028449534 0.052808072
000340 e7 12 1c 3d d5 e4 8a 3d e1 47 00 3d 7b 01 72 3d
       0.038103964 0.067819275 0.03131855 0.059083443
000350 58 00 8c 3c 88 e0 e2 bc a9 5f 9c bc 17 6e 94 3c
       0.017090008 -0.027694955 -0.019088583 0.018118901
000360 02 fd 50 bd 6e 54 54 3d 46 f6 02 bd dc ad 30 bd
       -0.051022537 0.05183833 -0.031973146 -0.043134555
000370 60 ed 71 3d c1 75 0f bd d8 ec d3 bc f4 ca 0b 3b
       0.05906427 -0.03502441 -0.025869772 0.0021330686
000380 b4 17 b0 3c 1e 26 a1 bc d6 ac 08 3d 1f b8 13 bd
       0.021495678 -0.019671496 0.033367954 -0.036064263
000390 fe b0 58 3c bc 58 64 bd 2f 2e 50 bd c5 6e ba 3c
       0.013225792 -0.055748686 -0.050825294 0.022757897
0003a0 f1 20 fc 3c a1 e4 c3 bc 2c 68 b0 3c dd 71 68 bc
       0.030777426 -0.02391273 0.021534048 -0.014187303
0003b0 98 32 0b 3d 88 f2 f1 3b 4e 60 3e bc 13 fc 4c 3c
       0.033983797 0.0073836483 -0.0116196405 0.012511271
0003c0 30 4a 61 bd 36 76 0d 3d df 59 65 3d 5a 06 61 3d
       -0.05500239 0.034536563 0.05599391 0.054937698
0003d0 e5 b2 ea bc 1f 0e 95 bc 47 a7 ac bc 5c f9 6c 3c
       -0.028649757 -0.01819521 -0.021075858 0.014463749
0003e0 ec cb 10 bd 2c 1c 21 bd f9 bd 8a bc 4f 5e 6e 3d
       -0.035350725 -0.039333507 -0.01693629 0.05819541
0003f0 0a 39 12 3d f2 f8 0f bd 8f f9 13 bc d9 c9 dc bc
       0.035698928 -0.035149522 -0.009031667 -0.026951717

bias f4 [32]
000000 3f b2 12 bd 46 31 2c bd 9f c9 54 3d 30 f3 47 3d
       -0.03581452 -0.04203918 0.051950093 0.048815906
000010 e9 08 1a 3d 4b e8 5c 3d e6 08 5d 3d 90 c1 21 3d
       0.037606154 0.05393247 0.053963564 0.039491236
000020 ea 45 49 3d b5 10 88 bc 5f c8 a4 3c 50 12 59 bd
       0.04913894 -0.016609529 0.020115076 -0.05299598
000030 de 43 f7 bc dc a7 b1 ba 49 38 82 3b bc 50 77 3d
       -0.030183729 -0.0013554054 0.003973995 0.06037973
000040 12 f1 63 3d 08 94 96 3c 9d 10 70 3d 0e 19 db bc
       0.055649824 0.018381134 0.058609594 -0.026745345
000050 48 08 96 3c 5d df 42 bd e8 68 34 bd f8 a5 1c 3d
       0.018314496 -0.047576297 -0.04404536 0.038244218
000060 5a 0b c4 3c ed f3 44 3b 64 fb 11 bd 9f 19 32 3d
       0.023931194 0.0030052618 -0.035640135 0.043481465
000070 97 5d 03 3b 56 c3 40 3d f1 03 0e bd 77 df 0f 3d
       0.0020044798 0.047061287 -0.034671728 0.035125222

weight f4 [16, 32, 3, 3]
000000 6d 2b c8 bb 21 77 b5 bc 85 2d 1b bc 86 c5 4a bd
       -0.0061086924 -0.022151532 -0.009471302 -0.04950478
000010 32 2a 7c bc 1c 47 07 bb 84 e3 47 bd 58 f9 d3 3c
       -0.0153909195 -0.002064175 -0.04880096 0.025875732
000020 07 05 48 3d 20 d0 df 3c 60 5e 02 bd 84 73 2f bd
       0.04883292 0.027320921 -0.031828284 -0.042834774
000030 28 e1 4f bd c0 3f 27 bd 78 64 e0 3c b2 76 9e 3c
       -0.050751835 -0.04083228 0.027391657 0.019343708
000040 d9 4c ed bc 4d da 16 bc 62 24 a5 bc c8 fa 25 bc
       -0.028967308 -0.00920732 -0.02015895 -0.010130592
000050 33 a2 91 bd 46 3d 1d 3d a3 e9 04 bd 15 d6 83 bd
       -0.07111015 0.038388513 -0.032449376 -0.06437317
000060 8e af 74 bc bd 79 29 3b 82 cd 25 3c ce 58 04 bd
       -0.014934434 0.0025859915 0.010119798 -0.032311253
000070 c0 68 e9 bb 09 59 42 bd a7 1b 43 bd 01 48 2e bd
       -0.007123083 -0.04744819 -0.047633793 -0.042549137
000080 de b9 28 bd 5e 68 06 3d 88 95 6d bd b7 b0 90 bc
       -0.04119288 0.032814376 -0.058003932 -0.01766239
000090 bb 9e d5 bc 65 ff 16 3d e5 95 c4 bb 8b 43 0e bd
       -0.026076665 0.036864657 -0.005999314 -0.034732383
0000a0 8f d5 38 3d 04 fc 43 bd 1e 78 d1 bc 48 56 6c bd
       0.04512554 -0.047847763 -0.025569972 -0.05769947
0000b0 bb 69 17 bc 30 f4 5f 3c 0e e3 44 3d e9 be 41 bd
       -0.009241517 0.013669059 0.0480681 -0.047301207
0000c0 4a 58 31 bd 92 e9 5e 3d 60 db 99 3b 40 1a 3a bd
       -0.04329709 0.05442197 0.004695341 -0.04543519
0000d0 05 2a 9d 3c b1 47 4a 3d 55 d0 e6 39 89 d9 ee bc
       0.019185076 0.049384777 0.00044024238 -0.029156463
0000e0 9f ed 0a bd 2b 76 c0 bc d0 b9 de 3c 15 e6 37 bd
       -0.03391802 -0.023493847 0.027188212 -0.044897158
0000f0 f6 63 4f 3d 1d b0 24 bd a5 1d 4a 3c 7a 52 32 3d
       0.05063244 -0.040207017 0.012336169 0.043535687
000100 9a 73 32 bd 1c 1e 67 bd f2 26 3b bd 1d 3c 25 bd
       -0.043567277 -0.0564252 -0.045691438 -0.04034053
000110 5b b2 5a bd 3c 60 99 bd 90 f2 43 bd 6d f2 21 bd
       -0.05339275 -0.074890584 -0.047838748 -0.039537836
000120 ea a0 38 3d 76 1e 82 bc ef 70 e0 39 45 1b ce bc
       0.045075335 -0.015883666 0.00042808751 -0.025159488
000130 bf c5 1e 3b 7b ae a8 3c ed 45 20 3b f3 bc 7e bc
       0.0024226753 0.020591011 0.0024455742 -0.015547979
000140 62 f2 88 bb 2d 19 4f 3d 66 ae 31 bd d1 8a 5c 3d
       -0.004179285 0.05056112 -0.04337921 0.053843323
000150 1d 80 97 bc 24 d6 19 3d ae 98 28 3d 9a 36 71 bb
       -0.018493706 0.037557736 0.04116123 -0.0036806227
000160 d8 e3 85 bb 56 7c 12 3d a5 af 5a bc 92 95 34 3c
       -0.004085999 0.035763107 -0.013347541 0.0110219885
000170 15 32 49 3d 20 2b 8b bc 16 7a d6 bc ba 46 18 3d
       0.049120028 -0.016988337 -0.026181262 0.037176825
000180 7b a7 45 3d 8e 8b 49 3d 7a 89 82 bd bf 5b 05 3d
       0.048255425 0.049205355 -0.06373878 0.0325582
000190 65 72 be 3c e1 37 22 bd ff 35 02 3d a7 48 0b bd
       0.023247907 -0.03960407 0.031789776 -0.034004834
0001a0 c6 6b b6 3c e9 35 ce 3a 43 3a 57 3c 91 1f 1e bd
       0.022268187 0.0015732619 0.013136449 -0.038604323
0001b0 ef 43 6d bc d7 d7 0f bd f6 ce e6 3c 76 69 4c bd
       -0.014481529 -0.03511795 0.028174859 -0.049905263
0001c0 f8 26 04 3a 20 be 8f 3c 61 2b 80 bb be 51 ab bc
       0.0005041207 0.017546713 -0.003911421 -0.020913001
0001d0 11 db 1f 3c a9 9f 3f bc 29 f9 3f bd ce af 00 bd
       0.009756819 -0.011695781 -0.046868477 -0.03141766
0001e0 f5 50 00 bd d8 02 49 bd de a8 80 bc 79 1a 16 bd
       -0.031327207 -0.049074978 -0.015705522 -0.03664634
0001f0 a3 27 4c bd a4 3d 86 bd eb b4 26 bd 29 8d 77 bc
       -0.049842488 -0.06554726 -0.04069988 -0.015109339
000200 7d ba 35 3d 84 6f 23 bc f5 ce 0e bd 56 5e 47 bd
       0.044367302 -0.009975318 -0.03486534 -0.04867395
000210 be 55 c0 3b bc 60 3a 3d 9f 91 6e bd d9 8e 37 3d
       0.0058695963 0.04550241 -0.058244344 0.044813965
000220 d5 bb 53 3d 80 ff 3d 3c a3 47 e4 3c 99 78 80 3c
       0.051692802 0.0115965605 0.02786619 0.015682505
000230 a8 e3 5c bd 36 5a d8 bc de b7 8b bc 45 22 1f bd
       -0.053928047 -0.026410203 -0.017055448 -0.03885104
000240 56 04 80 bb f4 98 23 3c d6 32 a0 ba 6c 0b f2 3c
       -0.003906767 0.009985197 -0.0012222182 0.029546462
000250 d6 36 1b bd a6 83 3a 3d 09 3d e2 bc 52 4b 2f 3d
       -0.037894093 0.045535706 -0.027616994 0.04279644
000260 f0 b0 44 3d cb 19 49 bd 90 1f 6d bd ed c9 2a 3d
       0.048020303 -0.049096864 -0.05789143 0.041696478
000270 0b cd 30 3d 66 12 0d bc d8 78 17 3c 30 50 c0 3b
       0.043164294 -0.008610344 0.00924512 0.005868934
000280 36 7d b1 bc d8 89 d9 3c c2 7b 9d 3c ad 20 6b bd
       -0.02166615 0.026554987 0.019224051 -0.05740421
000290 52 c3 8d bc 17 46 14 bd f0 2a c5 3c 4b 29 78 bd
       -0.01730505 -0.036199655 0.024068326 -0.060586255
0002a0 1d 96 58 bd 0d bb 5e bd 18 cb bd bc 43 27 47 bd
       -0.052877534 -0.054377604 -0.023168132 -0.048621427
0002b0 99 df 7b bc d3 9d 1b bd df d5 0c 3d a9 83 42 3d
       -0.015373134 -0.03799231 0.03438365 0.047488842
0002c0 5b c2 8f 3c 77 85 e1 bc f5 a2 98 3c 9a 10 6a bd
       0.01754873 -0.027529461 0.018632391 -0.05714474
0002d0 69 a0 f6 bc 19 c5 51 bc 71 3b 65 bd a4 f4 5d 3d
       -0.030105786 -0.012803339 -0.05596489 0.054188386
0002e0 ce b5 19 3d ae eb d2 3c 8f 2b d4 3c f1 05 65 3d
       0.037526898 0.025747146 0.025899677 0.05591387
0002f0 31 ea cc bc ce 2a 95 3c d4 ed 89 bc 35 f2 00 bc
       -0.025014015 0.018208887 -0.016837038 -0.007870247
000300 29 88 31 bd 42 24 1a 3d 20 e8 2b bd d4 26 ab bc
       -0.043342743 0.037632234 -0.04196942 -0.020892538
000310 b6 a6 5d 3d 4b ec 15 bd 43 17 9f 3b a6 1c 6a bd
       0.054114066 -0.0366023 0.004855068 -0.057156228
000320 c3 44 1b bd 7b a8 4d 3d ec 2f e4 3c 1f cc 08 bb
       -0.037907373 0.050209504 0.027854882 -0.0020873619
000330 1f 60 0a bd 7c 8e 22 3d f7 58 4a 3d 0e 26 07 3c
       -0.033783074 0.039686665 0.04940125 0.008248819
000340 cc 17 2b bd fe ce 1e bb d4 a9 c7 3c 7b 66 4c 3c
       -0.04177074 -0.0024232264 0.024372973 0.012475605
000350 f9 ce 42 3d 68 c6 43 3d 8b 02 c4 3c d8 6e 43 bd
       0.047560666 0.047796637 0.023926994 -0.04771313
000360 77 57 1f bc 3b 0b a3 3b 1d df ee bc 1b dc 29 3c
       -0.009725443 0.004975704 -0.029159123 0.010367419
000370 94 37 fc 3c 1c cf 26 bd 3f 0b df bc fe 95 60 bd
       0.03078822 -0.04072486 -0.027227042 -0.054830544
000380 87 79 f6 ba 8d 16 06 3d fb 4c 4d 3d 13 6b 83 ba
       -0.0018804529 0.03273635 0.050122242 -0.0010026417
000390 9c 77 0c 3d 41 94 7c bd 7e 08 e2 bb 88 bc 8c bc
       0.034293756 -0.061664823 -0.006897985 -0.017179742
0003a0 5b 4f 0b bd 4e b7 40 3d e9 09 04 3d 25 2f 5c bd
       -0.034011226 0.047049813 0.032236014 -0.053755898
0003b0 42 da 6f bd 5c ec 07 bd 21 a3 67 3c 07 52 b1 3c
       -0.058557756 -0.033184394 0.014138014 0.021645559
0003c0 f6 da c3 3c 57 a6 1c 3d bc 40 3b bd ec 11 4e 3b
       0.02390812 0.03824457 -0.045716032 0.0031443788
0003d0 19 0e eb bc 16 ae 02 bd cd 9b 00 bb 07 55 0a bc
       -0.028693246 -0.031904303 -0.0019624115 -0.008443124
0003e0 30 cc 54 bd c3 89 9b bb bb 8c c1 3c e7 8a 41 3d
       -0.05195254 -0.004746647 0.023626676 0.04725161
0003f0 52 ae 9a bc 79 2d 15 3d 8d 01 8e bc 5e 74 40 bd
       -0.01888195 0.03642032 -0.017334724 -0.046985976

bias f4 [16]
000000 e5 ce 6a bd 78 1a 14 bd 49 05 73 bc 30 76 d9 bb
       -0.057326216 -0.036158055 -0.014832803 -0.0066364035
000010 8a 86 36 bc 51 e0 e1 bc 48 29 e2 3b 51 c6 24 3d
       -0.011140475 -0.027572783 0.0069018938 0.04022819
000020 04 da dd bc 48 23 37 3d 93 67 ac bc b5 35 1a 3d
       -0.027081497 0.04471138 -0.021045482 0.037648875
000030 14 c3 93 bc 05 cf 04 bd de b4 08 bc 45 c7 3b bc
       -0.018037356 -0.03242399 -0.008343903 -0.011461084

weight f4 [16, 32, 3, 3]
000000 3c ae 3d bd 38 e6 07 3d 6e 6e 71 bd e1 03 02 bc
       -0.04630874 0.033178538 -0.058943205 -0.007935495
000010 6c db 7c bd 55 44 39 bd d0 c9 8c b9 46 4b 85 bc
       -0.061732695 -0.045231182 -0.00026853243 -0.016271245
000020 b1 f1 b5 bc 34 fb 77 3c fb 5c f0 bb 1a d2 42 bd
       -0.022209974 0.015135575 -0.007335303 -0.04756365
000030 df 2e 02 3c 35 6a d3 3c 45 f9 40 3d 53 20 bf bc
       0.007945745 0.02580748 0.047112722 -0.023330843
000040 d8 bc ef bc 7d e9 25 bd 42 ab 02 3d 84 28 3d bd
       -0.029264852 -0.040505875 0.031901605 -0.046181217
000050 3c 95 53 3d 87 13 e0 3c ba dd 3c 3d b3 8f 7f bc
       0.051655993 0.027353061 0.046109892 -0.015598225
000060 48 08 31 3d 69 b4 a7 bc 18 cf af ba 3d c9 0a 3d
       0.04322079 -0.020471768 -0.0013413159 0.033883322
000070 2a c9 24 bd 44 7e bd bc e0 b5 8e bb ff a3 2f 3c
       -0.040230907 -0.023131497 -0.0043551773 0.010720252
000080 04 00 89 bc d5 5f 6e bd 85 ee bc bc cc 46 5f 3c
       -0.01672364 -0.05819686 -0.023062954 0.013627719
000090 93 ad 1d bd 6f e0 2b bd 4c e0 79 bc c1 6f 8d 3c
       -0.03849561 -0.041962083 -0.01525123 0.017265202
0000a0 4e 73 98 bc 99 5e 86 3c da ce dc 3b 98 14 1c 3d
       -0.018609669 0.01640253 0.006738526 0.038105577
0000b0 2e 2d 5f bc 1f b1 13 bd 08 96 b4 bc f6 4a 48 bd
       -0.0136216115 -0.036057588 -0.022044197 -0.048899613
0000c0 4d f0 d3 bc 14 fd 03 bd 69 ea 53 bd be d5 84 bd
       -0.02587142 -0.032223776 -0.051737223 -0.064860806
0000d0 d5 82 6e bd 6b c7 88 3c 3f b4 48 bc 16 41 7d 3d
       -0.05823024 0.016696652 -0.012250005 0.06182965
0000e0 ac 9f 9b bc a3 ad 07 3d 7a ca e2 bc 19 5b 6f 3d
       -0.018997036 0.033124577 -0.027684439 0.058436487
0000f0 72 a5 5c 3b 9b e7 05 bb 82 92 be 3b d2 a0 d6 3b
       0.003366795 -0.0020432237 0.005815805 0.006549933
000100 d9 9b ea bc fe 4f f6 3b 0a 60 2a bd 07 c2 bc 3c
       -0.028638767 0.00751686 -0.041595496 0.023041738
000110 72 96 4b 3d 7f 69 3e 3d db 33 ab bc 20 21 b5 bc
       0.049704023 0.046487328 -0.02089875 -0.022110522
000120 c9 f6 6c 3d d8 d7 09 bd 6d 88 73 3c e2 09 8b 3c
       0.05785254 -0.03365311 0.014864069 0.016972486
000130 b7 7f 41 3d d6 03 13 bd 83 cc 4b 3d 5d b7 52 bc
       0.04724094 -0.03589233 0.049755584 -0.0128611
000140 76 f4 35 3d a0 ff 80 bd 58 82 10 bd 46 8d 5a bc
       0.04442259 -0.062987566 -0.035280555 -0.013339346
000150 85 d6 7e bd a4 82 e9 bb 96 01 47 bd af ee f5 3c
       -0.0622163 -0.0071261693 -0.048585497 0.03002104
000160 fd 99 37 3d 0c f2 21 bc f1 aa 00 3d ff aa f4 3c
       0.04482459 -0.009884369 0.031413022 0.029866694
000170 19 f4 e9 3c 88 4a 68 3b 8d 00 20 bd 3a d3 45 bd
       0.028558778 0.0035444815 -0.039063025 -0.048297144
000180 0a 4b 84 3c a6 74 38 bd 9f c2 36 3d 44 e4 15 bb
       0.016149063 -0.04503312 0.0446192 -0.0022871653
000190 03 97 25 bd d4 a3 0a bd 3d 86 93 39 21 32 49 bc
       -0.04042722 -0.033847645 0.0002813804 -0.012280018
0001a0 81 cc 30 3d dd 34 1f bd d3 61 42 bd 44 88 85 bd
       0.04316378 -0.038868774 -0.047456574 -0.06520131
0001b0 f6 82 1f 3a 77 d9 4e bd 49 77 36 bc 40 d3 49 3d
       0.00060848834 -0.05050036 -0.011136838 0.04927373
0001c0 fc b1 fd bc f9 a9 46 3d 4f 0d c8 3c a2 63 35 bd
       -0.030968659 0.048501942 0.024420409 -0.04428447
0001d0 a4 99 c8 3c 5d 4c 06 bd 2d e4 c4 3c 53 a3 31 bd
       0.024487324 -0.03278767 0.024034584 -0.04336865
0001e0 d8 36 e4 3b 08 4f d9 3c cb 52 10 3d 08 92 04 bd
       0.0069645457 0.026526943 0.035235208 -0.03236583
0001f0 f0 04 d8 3c 8c ee 03 3d dc 04 9c bc 73 87 1d 3d
       0.026369542 0.032209918 -0.019045286 0.038459253
000200 cc 05 88 bc 7f 8e 1c bd 19 62 8d 3c d7 af 34 3c
       -0.016604327 -0.038221832 0.01725869 0.011028252
000210 e0 28 7b bd 3a 59 00 bd 8a fb c7 bc eb 03 18 3d
       -0.06131828 -0.031335093 -0.024411935 0.03711311
000220 49 3a 23 bb 2e f3 54 bd 65 90 c9 3b c6 08 76 3c
       -0.0024906567 -0.051989727 0.0061512464 0.01501674
000230 5f 99 33 3c 6d b1 21 3d fc 23 83 bd 18 57 9e 3a
       0.0109618595 0.039475847 -0.06403348 0.0012080399
000240 9c dc e9 bc fe 35 bd bc 83 d4 11 bd 7f 7d 3e bc
       -0.028547578 -0.023097035 -0.035603058 -0.0116266
000250 0a 1b 5b bd 14 0d 5d bd c5 84 1a 3d 4c 01 0a 3d
       -0.053492583 -0.05396755 0.037724275 0.033692643
000260 b4 58 d2 bc 92 e1 9d bc fc c0 c4 bc f4 d7 ef 3a
       -0.025677063 -0.0192726 -0.024017803 0.0018298612
000270 9d d8 92 bc 8c 74 f5 3c 31 16 1d bc 7b cb bf 3c
       -0.017925555 0.0299628 -0.00958781 0.023412457
000280 7b 8a aa bc d6 1d 16 bd 41 bf a3 3c 29 2c 35 3d
       -0.020817986 -0.036649548 0.019988658 0.044231568
000290 74 ed e8 bc e7 d5 d5 3c bd e0 83 bb b4 28 79 3d
       -0.028433539 0.026102973 -0.0040245936 0.060829833
0002a0 02 bb 0e bd 1e 13 35 3d 64 34 a2 3c cf 6b 20 3d
       -0.034846313 0.044207685 0.019800372 0.039165314
0002b0 34 22 8b 3b b0 aa 3c 3d 1f 86 18 bc 4c 7d 81 3b
       0.0042460207 0.046061218 -0.009309321 0.003951704
0002c0 f6 bd 53 bc 55 94 e5 3b fd 7f 6b 3d 44 43 4e 3d
       -0.012923708 0.007006208 0.057495106 0.05035712
0002d0 18 7e 1a bd 72 a4 db bc 5b a5 00 3d 50 ab db bc
       -0.03771791 -0.026811812 0.031407695 -0.026815087
0002e0 33 8e a5 bc 48 71 4c 3c 5e 1f 22 bd 93 b3 39 bd
       -0.020209407 0.01247818 -0.039580695 -0.04533727
0002f0 0e 27 3c 3d ed 39 72 bd 31 f4 20 bd 57 ce b0 3c
       0.045935683 -0.059137274 -0.03929538 0.021582766
000300 9a 91 53 bc d3 18 df 3c 90 cd 42 bc 7b dc d3 bb
       -0.012913132 0.027233517 -0.01188983 -0.0064654923
000310 e4 52 81 bc 27 d3 2b 3c 2c a4 5c 3c 3b 5f 0f bc
       -0.015786596 0.010487354 0.013466876 -0.008750732
000320 03 70 1d 3d 59 a1 1e bd b4 19 61 bc 9e 3b 9b 3b
       0.0384369 -0.038728092 -0.013739038 0.0047373315
000330 1b 8e d0 3c d7 86 b0 bc d6 c0 92 3a e6 22 82 bd
       0.025458386 -0.021548672 0.0011196386 -0.063543126
000340 2c fa b1 3c 66 df ee 3c 64 ab 6b bd 68 6f 60 bd
       0.021725737 0.029159259 -0.057536498 -0.054793745
000350 95 a2 2c bb ab 94 25 3d 6e af 58 3c cb 39 15 3d
       -0.0026342024 0.040424984 0.013225419 0.03643207
000360 df 6d 2a bd 9d 0a 33 3d 30 81 48 3d 5e c2 16 bd
       -0.041608687 0.043711293 0.048951328 -0.036806457
000370 1d 3e 99 3c 87 03 70 bc 49 97 8a 3d 6a 01 d1 bc
       0.018706376 -0.0146492785 0.067671366 -0.02551337
000380 71 63 75 bd 10 e8 42 bd 6f 0c 3c 3d 60 af bb 3c
       -0.059909288 -0.047584593 0.045910295 0.022910774
000390 53 51 62 bd f9 7f 38 bd bd 2c 14 3d b8 cd ea bc
       -0.055253338 -0.04504392 0.03617548 -0.028662547
0003a0 ba 4a 16 bd 16 f0 a0 bc 1b 9c 06 bd d6 fb 34 bd
       -0.03669236 -0.019645732 -0.032863718 -0.044185482
0003b0 1b 8f 11 bd 2c 59 85 ba d9 d4 94 3b c2 8c 24 3d
       -0.035536867 -0.001017367 0.004541975 0.0401733
0003c0 40 38 8a bd c8 75 ca bc 2a ec f8 bc f6 e4 17 bd
       -0.0674901 -0.024714366 -0.03038605 -0.03708359
0003d0 e6 c2 79 3c 9c fb 12 bd fa c3 c2 bc 08 9f 46 bd
       0.015244221 -0.035884485 -0.02377509 -0.048491508
0003e0 e2 f7 ed bc ce 32 50 ba 4c ef 14 bd c0 6e 96 bc
       -0.029048864 -0.0007942141 -0.036361024 -0.018363357
0003f0 11 f7 1e bd b3 b8 0a 3c 46 41 99 3c e4 7a 1b bd
       -0.03880984 0.008466887 0.018707883 -0.037958995

bias f4 [32]
000000 4e 11 74 3d d6 f4 8a bc 8f 58 af bb fd 84 2c bd
       0.059586816 -0.01696245 -0.005351133 -0.042119015
000010 a7 03 03 3d 19 90 6a 3d 04 2b 57 bd c1 17 96 3d
       0.031985905 0.05726633 -0.052531257 0.073287494
000020 1d 97 33 3d 62 41 31 3d 83 96 01 3c 7a e5 53 3c
       0.043845285 0.043275245 0.00790942 0.012933129
000030 2a 12 8f 3d b5 fb 3e 3d df 32 9e bc 49 a2 ba bc
       0.069858864 0.046626765 -0.019311367 -0.022782462
000040 f4 51 77 3d 53 b9 b6 bc 47 f5 86 bb ab 2e 24 bd
       0.06038089 -0.022305166 -0.004118595 -0.04008357
000050 e1 ec f7 3c af 65 2f 3b da e1 81 3d 48 af 21 bc
       0.03026432 0.002676349 0.06341906 -0.00986845
000060 18 2b b6 3c 4a fb 11 bd 99 b4 b7 bc ff 28 31 bd
       0.022237346 -0.03564004 -0.022424983 -0.043251988
000070 70 fa 61 3c 64 f5 e9 3c 6a c2 10 3d cf a3 99 3d
       0.013792619 0.028559394 0.035341658 0.07501947

weight f4 [32, 32, 3, 3]
000000 20 f8 bd 3c a8 3d c3 bb 9c aa f2 3c af 3a 61 bd
       0.023189604 -0.0059582777 0.029622369 -0.054987606
000010 45 16 60 3d cc 10 4a bd 2c 62 29 3d 35 4f f7 bc
       0.054708738 -0.049332425 0.04135339 -0.030189136
000020 0e a5 80 3d 53 8b cd 3c 29 d3 11 3d 95 8b d8 3c
       0.06281482 0.025090849 0.03560177 0.026433745
000030 50 bc 9e bc ab 15 13 3c f4 f1 b4 3c 5b 8f 03 3d
       -0.019376904 0.008977334 0.022088028 0.032119136
000040 65 10 f6 3c b2 da 78 3d 0c 91 d5 3b 6b ef b5 bc
       0.030037114 0.06075544 0.006517535 -0.02220889
000050 14 5f 23 3d 3e 6a 46 3d 2a 8a 22 3d ad 2e 36 bd
       0.039885595 0.048441164 0.039682545 -0.044478107
000060 20 4f a2 ba c6 db 0c 3c 75 70 37 bc f8 fb ec 3c
       -0.00123832 0.00859732 -0.011196245 0.028928742
000070 46 f7 61 bd 19 f1 04 3d 1f 8f 6b bc bc a7 39 3c
       -0.05516746 0.03245649 -0.014377384 0.011331495
000080 49 27 30 bc 02 84 38 bd 83 9d e8 3c 7a 98 f2 3b
       -0.010751554 -0.045047767 0.02839542 0.0074034305
000090 76 d0 50 bc 30 2f 1a 3d 2f c8 26 3d df b7 0a bd
       -0.012745013 0.037642658 0.040718254 -0.03386676
0000a0 7d 4b ca bc 26 56 df bc 1b 5b 49 bd 4e fa 77 bd
       -0.024694199 -0.027262758 -0.04915915 -0.060541444
0000b0 af 62 0f bd 8a 41 c6 bc 06 94 c3 ba 22 d0 b2 3a
       -0.03500622 -0.024201173 -0.0014921434 0.0013642351
0000c0 1d 23 5a 3d 5e 6c 8c 3b 8d b9 21 3d ba 06 27 bd
       0.053256143 0.0042853793 0.039483596 -0.0407779
0000d0 95 d8 0a 3c dd ff 87 3b 4d d8 c5 3c ca 3a 35 3d
       0.008474489 0.0041503743 0.024150992 0.04424552
0000e0 37 5a 34 3d a9 66 96 3c b8 ef f6 3c e2 51 47 3d
       0.044031348 0.018359499 0.030143604 0.048662074
0000f0 00 f3 75 3d eb 76 08 3d e9 ca f9 bc 14 f0 f7 3c
       0.060046196 0.033316534 -0.030492263 0.030265845
000100 a6 05 6a 3c 1d 94 3d 3d e8 3e 2e 3c 5c 2e 57 3c
       0.014283573 0.04628383 0.010635115 0.0131336115
000110 e2 ca 0e 3c dc 52 d9 3c 0c ba 36 3d b3 0d 80 3d
       0.008715363 0.026528768 0.044611022 0.06252613
000120 47 86 6b bd 2d ba be 3c 4a dd 29 3d e2 f7 20 bd
       -0.057501104 0.023282135 0.041470803 -0.0392989
000130 8d 1a 6b bd fc a4 c8 3c b9 5e b3 bb b3 e7 29 3d
       -0.057398368 0.024492733 -0.0054739383 0.04148073
000140 e1 5d 94 3c 9b 40 6f 3d 30 f2 17 bd 68 38 a9 bb
       0.018111171 0.058411222 -0.037096202 -0.005164195
000150 3d bf 2b bd dd 25 b4 3c a4 91 57 3d 13 14 c5 bc
       -0.041930426 0.02199071 0.052629128 -0.024057424
000160 07 b5 63 3d 36 25 0c bd c3 f0 1b 3d aa 51 56 bd
       0.055592563 -0.034215175 0.038071405 -0.052323975
000170 ca 1e 4e bd 7d ca fd bc e9 1f 66 3c 7c 34 6c bd
       -0.05032233 -0.030980343 0.014045694 -0.05766724
000180 c8 50 ec 3c 6a 8d 67 bd f0 1b 04 bc 36 ee e4 bc
       0.028847113 -0.056531347 -0.008063301 -0.02794562
000190 98 4b 9a bc 7f 9a 3c bd 46 fc 47 3d e0 d6 40 3d
       -0.018834874 -0.046045776 0.04882457 0.04707992
0001a0 be 3d 88 bd 4d a9 f0 bb 97 23 2f bd 39 43 42 bd
       -0.066524014 -0.007344401 -0.04275855 -0.04742739
0001b0 de 91 73 bc fd 91 16 3d fa e9 60 bd a7 80 73 3d
       -0.01486632 0.03676032 -0.054910637 0.059448864
0001c0 db 57 45 3d d2 de aa 3c e8 a2 47 3d 1e 12 26 3b
       0.04817949 0.020858202 0.048739344 0.0025340389
0001d0 95 57 c1 3c b7 e4 56 3c 7f 49 88 bd e9 7b 65 3b
       0.023601333 0.013116053 -0.06654643 0.0035016483
0001e0 39 00 9e bc be bc 91 bd 79 76 0b 3d 98 d9 11 bd
       -0.019287216 -0.07116078 0.03404853 -0.035607904
0001f0 c2 39 eb bb 12 52 2d bd 46 b5 1d 3d 74 fd 3b 3b
       -0.007178516 -0.042314596 0.038502954 0.0028685005
000200 a5 cd c2 bc ee 91 cd bc 44 17 65 3c 6d 96 5b bd
       -0.0237797 -0.025093999 0.013982598 -0.053610254
000210 98 06 f0 3c 38 1a 45 bd 49 41 18 bd 4a dc e1 3b
       0.02930002 -0.048120707 -0.037171636 0.0068927156
000220 7a b9 07 bd 3f 4a b0 3c 84 82 12 bd 11 67 93 bc
       -0.03313587 0.021519778 -0.035769 -0.017993482
000230 cc 9e e7 3c d2 5e 5b 3d ce e8 f1 3b 9d d9 21 3d
       0.028273962 0.053557225 0.007382489 0.039514173
000240 55 90 6d bd c5 f6 9a bc 76 00 f8 3c cc 46 8d bc
       -0.057998974 -0.018916497 0.030273657 -0.017245673
000250 eb 90 73 bd 6e d9 47 bc 2f 6f ab bc a3 b6 4e 3c
       -0.059464376 -0.012197835 -0.02092704 0.012616786
000260 76 52 94 bc 72 f0 c8 bc 4f 14 cf 3c 8a 6a 6a 3d
       -0.018105727 -0.024528716 0.025278239 0.05723051
000270 9b 7e 15 3b 59 ce fc 3c 17 ca b3 3c 3d 88 ea 3c
       0.0022811058 0.030860113 0.02194695 0.028629417
000280 52 81 06 3c 0a 37 62 3c ef 13 62 bd 49 71 12 3d
       0.008209543 0.013807068 -0.05519479 0.03575257
000290 21 04 00 bd f2 87 44 bd 6a f8 1d bd be 2d 91 3c
       -0.031253938 -0.04798121 -0.038566984 0.017722007
0002a0 df 54 6d bc d3 e7 1e bd fb d9 05 3d fd 7c 22 bd
       -0.014485567 -0.038795304 0.032678585 -0.03966998
0002b0 b8 6e 59 bd e8 82 89 3c 79 c5 0f bd 34 ef 4c bd
       -0.053084105 0.016786054 -0.035100434 -0.05003281
0002c0 bd 99 ed bc 75 eb 29 bd 4b fa 4c bc b0 aa 22 bd
       -0.029003972 -0.041484315 -0.012510846 -0.03971356
0002d0 0d 3f 45 3b 9a 87 9d bb 34 7d 32 3d 70 38 19 3d
       0.0030097396 -0.0048074247 0.043576434 0.03740734
0002e0 a5 89 ee bc 2d a9 c9 3c b6 67 56 bd f5 b4 43 bd
       -0.029118368 0.024616802 -0.052345 -0.047779996
0002f0 33 4f 23 bd 7a ed 9b bc 1b 6c 4c bd cd 12 04 3d
       -0.039870452 -0.019034136 -0.049907785 0.032244492
000300 49 3a 6b 3d 7a eb 1a bd 0a 6d 56 bd b5 9a 98 bb
       0.057428632 -0.037822224 -0.05235008 -0.0046571144
000310 b2 5f 74 3d 55 de d2 3c 6a 54 b3 bb d2 0e 39 3d
       0.059661575 0.025740782 -0.0054727094 0.04518015
000320 86 d9 08 3d 96 3c ac 3c 57 60 19 bd aa 21 cd bc
       0.03341057 0.021024983 -0.037445392 -0.025040466
000330 4c 23 8d bc 33 fc 93 bc 8c 4b 7a 3b 27 e1 fa 3c
       -0.017228745 -0.018064594 0.0038192002 0.03062494
000340 a4 09 2c bd f9 bf 88 bd 25 c3 73 bd 1d 3e a1 3b
       -0.04200138 -0.06677241 -0.059512276 0.0049207346
000350 40 3c 4b bd be 22 99 3c 3b e5 f3 3b 54 e0 b4 3b
       -0.049618006 0.018693324 0.007443098 0.005519906
000360 49 f9 bf bc 69 3a df 3c ce 5c 1e 3d 66 86 8e 3c
       -0.023434298 0.027249532 0.038662724 0.01739807
000370 12 9e 34 3a bb a9 bb 3c 82 d7 ba 3b 94 0f 46 3c
       0.00068900094 0.022908082 0.00570196 0.012088675
000380 9f cb b1 3c 34 28 50 3d c5 e5 45 bc 5e a0 df 3c
       0.02170354 0.05081959 -0.012078707 0.027298149
000390 e1 ca 33 3d fe 38 4c bd 5e 9f 6a bb 43 6a 4f bd
       0.043894652 -0.04985904 -0.0035800557 -0.05063845
0003a0 ad 25 3a bd 23 1f 14 3d 72 f1 e0 bc 0f ae 91 3d
       -0.045446087 0.036162507 -0.02745888 0.07113277
0003b0 81 e9 90 3d f0 30 c6 bc fb c4 23 bd a3 95 94 3b
       0.07075787 -0.024193257 -0.039982777 0.0045344396
0003c0 3e 44 0c bd f8 c1 42 3d 7b 85 4f bb 5a 08 a7 3c
       -0.03424477 0.047548264 -0.0031665254 0.020389725
0003d0 e8 0c 82 3b 00 68 c0 b9 ba 26 c5 bc 6e bf b5 3c
       0.0039688237 -0.0003669858 -0.024066318 0.022186007
0003e0 8f 43 ee 3c 42 09 92 3c 1f cb 00 3c ef ea 36 bc
       0.029084949 0.01782668 0.007860928 -0.011164411
0003f0 8a 21 2b bc 58 28 04 3d 60 a6 20 3d b5 9c 06 bc
       -0.010445008 0.032265037 0.039221168 -0.008216073

bias f4 [32]
000000 99 e0 37 bd d3 05 1a 3d 69 e9 ff bc 36 aa ae bc
       -0.044891927 0.03760321 -0.031239228 -0.021321397
000010 39 22 1e bd c2 62 78 bc 50 da 53 3c e3 d3 8b 3c
       -0.038606856 -0.015160264 0.012930468 0.017068809
000020 3d d0 02 3c c5 b7 54 3d a2 a1 2c 3d dc 89 73 3c
       0.007984218 0.05193307 0.042146333 0.014864411
000030 2d d7 75 3c 69 60 86 bd ea 20 45 3d b7 2b ce bc
       0.015004915 -0.065613575 0.048127092 -0.02516733
000040 fe 91 63 bc e7 7b ba 3c 6d 7f 7e 3d fc 10 65 bd
       -0.013889788 0.02276416 0.06213324 -0.0559244
000050 4c b0 8b bb 39 bb 37 3d 85 bb 1b 3c 31 18 0a ba
       -0.0042629596 0.044856284 0.009505157 -0.0005267887
000060 46 4e 43 3d d2 d1 22 3d f2 09 97 3d 69 15 97 3d
       0.04768207 0.03975088 0.07374944 0.073771305
000070 eb 0c a2 3c 56 4e 9a 3d ef ce 16 bb 80 9f 7c 3d
       0.01978155 0.07534473 -0.0023011526 0.06167555
