Baseline/bestKernel_Size_Set_3.pt (torch_old, 150117 bytes, 16 tensors)

weight f4 [16, 3, 3, 3]
0	0xbe2978e8	-0.16550028
1	0xbdb889b8	-0.09010643
2	0xbd8e4201	-0.06946183
3	0xbe22cb07	-0.15897761
4	0x3d3601e5	0.0444354
5	0x3db4c932	0.088274375
6	0xbc7ca39b	-0.015419866
7	0xbd68e0c3	-0.056854974
8	0x3c967e67	0.01837082
9	0xbe244e96	-0.16045603
10	0xbdffe5ff	-0.1249504
11	0xbc2e4112	-0.010635631
12	0x3e29dc6f	0.16587995
13	0xbd83da42	-0.06438114
14	0x3db92406	0.09040074
15	0xbdb7f223	-0.08981731
16	0xbd871fd4	-0.065978676
17	0xbe4a70aa	-0.1976954
18	0x3e38127c	0.17975801
19	0x3e549f16	0.20763811
20	0x3c7f7538	0.015591912
21	0x3e111cff	0.14171217
22	0x3e350226	0.17676601
23	0x3deae213	0.114689015
24	0x3deeeb1e	0.11665939
25	0xbe29ccd2	-0.16582039
26	0xbe28370f	-0.16427253
27	0xbe0d548a	-0.1380178
28	0x3d8dbe3e	0.069210514
29	0xbe20a7dd	-0.15689035
30	0xbe0c7c95	-0.137194
31	0xbdab921e	-0.08377479
32	0xbe2ba917	-0.16763721
33	0x3c1a49d3	0.009417015
34	0x3d0d2904	0.034462944
35	0xbdd3790e	-0.10325824
36	0x3e09e193	0.13464956
37	0xbd8a8e27	-0.06765395
38	0xbd46c3d3	-0.048526596
39	0x3e2076fb	0.15670387
40	0x3e32e975	0.1747187
41	0xbc64f300	-0.013973951
42	0xbe02bdba	-0.12767687
43	0xbdb0846f	-0.0861901
44	0x3d0e14ec	0.03468792
45	0x3dd289be	0.102801785
46	0x3db6decc	0.08929214
47	0xbdbb6769	-0.09150583
48	0xbe44287c	-0.19156069
49	0xbe35fe17	-0.17772709
50	0xbd8e5ca0	-0.069512606
51	0xbbfe5fa7	-0.0077628675
52	0xbdc59327	-0.09647208
53	0xbe260edb	-0.16216604
54	0x3d23a445	0.03995158
55	0xbe06959c	-0.13143009
56	0xbe03082b	-0.12796085
57	0xbe0c0b0a	-0.13676086
58	0xbd08ead4	-0.033427075
59	0x3e3dc08f	0.18530487
60	0x3dbb85fd	0.091564156
61	0xbbe80c20	-0.0070815235
62	0x3d5df280	0.054186344
63	0x3d8b1b7f	0.06792354
64	0xbc09e174	-0.008415569
65	0xbe2ab84c	-0.16671866
66	0xbe06817d	-0.13135333
67	0xbe137e3e	-0.14403626
68	0xbc8ea638	-0.017413244
69	0xbe4616e6	-0.19344673
70	0xbd57001d	-0.052490342
71	0xbdb0e7e1	-0.086379774
72	0x3e5c40cc	0.21509093
73	0x3e3aff62	0.18261483
74	0x3e0cc6df	0.13747738
75	0x3d14f1bc	0.03636335
76	0xbd16fe51	-0.03686363
77	0x3d988621	0.07447458
78	0xbddc4c26	-0.10756712
79	0xbd6738a4	-0.0564505
80	0xbc55b0ac	-0.01304261
81	0xbd21940a	-0.03944782
82	0xbe34d057	-0.176576
83	0x3da81f58	0.08209103
84	0x3e2804c2	0.16408065
85	0xbdcdc484	-0.10047248
86	0x3d6ad5c1	0.057332758
87	0xbc862684	-0.016375788
88	0xba93bf30	-0.0011272188
89	0x3c8ab958	0.016934082
90	0x3e42d869	0.19027866
91	0x3d495cb1	0.049160663
92	0xbdc916aa	-0.09818776
93	0xbd3a812a	-0.045533337
94	0x3df12b8a	0.117758825
95	0x3dab6b59	0.08370084
96	0x3ce8be94	0.028411187
97	0xba4c083f	-0.0007783211
98	0xbd4e1843	-0.050316107
99	0xbd326e86	-0.043562435
100	0xbd9cd266	-0.07657318
101	0x3d675820	0.056480527
102	0x3da15f43	0.07879498
103	0x3e3064dd	0.17225976
104	0xbc9855e9	-0.018595653
105	0x3d1ed1b1	0.038774196
106	0x3e190632	0.1494377
107	0x3ddeb40d	0.10874186
108	0x3cd1c87b	0.025608292
109	0x3d769ad5	0.060206253
110	0x3c33f978	0.010984771
111	0xbe2834bb	-0.16426365
112	0x3c0961ee	0.008385165
113	0xbd2852ed	-0.04109471
114	0x3e32ec41	0.17472936
115	0x3e33339a	0.17500153
116	0x3d213fcd	0.039367486
117	0x3e3cb1d6	0.18427214
118	0xbdb3db69	-0.087820835
119	0x3e36ecab	0.17863719
120	0x3e33b742	0.17550376
121	0x3af94eae	0.0019020641
122	0xbe151625	-0.14559229
123	0xbd528020	-0.05139172
124	0xbd28e212	-0.041231222
125	0x3c64bceb	0.013961057
126	0xbe1a2bd8	-0.15055788
127	0x3d75105f	0.059830066
128	0xbd650f61	-0.05592287
129	0xbcd1e348	-0.025621071
130	0xbd9a9562	-0.07548024
131	0xbc893ae1	-0.016751708
132	0xbe1ea7c3	-0.15493684
133	0xbd9fc27b	-0.07800766
134	0x3d2b409e	0.04180967
135	0x3e00fdb6	0.12596783
136	0x3e34a140	0.17639637
137	0xbe0fe918	-0.14053762
138	0x3da4b485	0.08042244
139	0xbdd924e7	-0.10602742
140	0xbe0d1601	-0.13777925
141	0xbc12b803	-0.008955005
142	0xbdd4bf8e	-0.10388099
143	0xbe1e3820	-0.15451097
144	0xbe475cdf	-0.19469021
145	0xbe10709e	-0.1410546
146	0x3e186309	0.14881529
147	0x3dbcdcc1	0.09221793
148	0xbdbac9e3	-0.09120538
149	0xbe1166ac	-0.14199322
150	0xbe26975b	-0.16268675
151	0xbe03d2c8	-0.12873375
152	0xbdbb6323	-0.09149768
153	0x3e0b1d33	0.13585357
154	0x3dab4dd1	0.08364452
155	0xbd5f5a2f	-0.054529365
156	0x3e1b951f	0.15193604
157	0xbdcc82b1	-0.09985865
158	0xbe0d9187	-0.13825046
159	0x3d7c2185	0.061555404
160	0xbdb1ddea	-0.08684905
161	0x3d943d00	0.07238197
162	0x3e32e52f	0.17470239
163	0xbd9e018f	-0.07715141
164	0xbdf55c34	-0.11980477
165	0x3dad1f65	0.08453254
166	0xbe23be3a	-0.15990534
167	0x3e3c5f38	0.18395698
168	0xbd9e5f90	-0.07733071
169	0x3dd9d3f3	0.10636129
170	0xbe0de6c8	-0.13857567
171	0xbde2d224	-0.110752374
172	0x3d20993d	0.03920864
173	0x3db184b5	0.0866789
174	0x3e2d3d4b	0.16917913
175	0x3e385f23	0.18005042
176	0x3c02e105	0.007988219
177	0xbb651ad4	-0.0034958618
178	0x3d57a3a8	0.05264631
179	0xbcc4822a	-0.023987848
180	0x3cee9fe3	0.029128974
181	0xbe23756d	-0.15962763
182	0xbe0a8e70	-0.13530898
183	0x3e1e9e4b	0.15490071
184	0xbdb70c9e	-0.089379534
185	0x3e32e1ec	0.17468995
186	0x3d377596	0.044789873
187	0x3d90d0e5	0.070710935
188	0x3e4b7e85	0.19872482
189	0xbdbfea54	-0.093708664
190	0xbc8f0082	-0.017456297
191	0x3d3d23b3	0.046176624
192	0x3da04242	0.07825138
193	0xbe32c8ef	-0.17459463
194	0x3da3dbdc	0.08000919
195	0xbdce2e0b	-0.10067376
196	0x3d1997da	0.037498333
197	0x3e111b4c	0.14170569
198	0x3ba489ed	0.005021325
199	0x3c9533ae	0.01821312
200	0x3c181905	0.009283309
201	0x3e3cfb25	0.18455179
202	0x3e089819	0.1333927
203	0x3d64d09f	0.05586302
204	0xbdbb2e06	-0.09139638
205	0xbda45da9	-0.08025677
206	0x3e3576e7	0.17721139
207	0x3e29a3b0	0.16566348
208	0x3e0e0479	0.13868894
209	0xbdfbcaa2	-0.122945085
210	0x3e352678	0.17690456
211	0x3c0db8ac	0.008649986
212	0x3e2cb92a	0.1686751
213	0x3e4713e4	0.19441181
214	0x3d467668	0.048452765
215	0xbd58857c	-0.052861676
216	0x3e46c4a9	0.19410957
217	0xbdab38ee	-0.08360468
218	0x3e0f2105	0.1397744
219	0xbe2a03c0	-0.16602993
220	0xbd2d0712	-0.04224307
221	0xbe186780	-0.14883232
222	0xbd8b6adf	-0.068074934
223	0x3dcb4088	0.09924418
224	0xbdf41fe1	-0.11920143
225	0xbe1807ba	-0.14846697
226	0x3e1f8d3b	0.15581219
227	0x3df798a8	0.12089664
228	0x3c938b55	0.018010775
229	0xbdeac27b	-0.114628755
230	0xbd06a072	-0.032867856
231	0xbd229f92	-0.03970296
232	0x3e12c606	0.14333352
233	0xbd1d8cf5	-0.038464505
234	0xbd001698	-0.031271547
235	0xbde6f96e	-0.11278044
236	0xbd8a469d	-0.0675175
237	0x3e000553	0.12502031
238	0x3e147942	0.14499381
239	0x3d49e900	0.04929447
240	0xbd4eaad2	-0.050455876
241	0x3e548b28	0.20756209
242	0x3d789db2	0.060697265
243	0xbda19c1c	-0.078911036
244	0xbd92cacf	-0.07167589
245	0xbd02ebb0	-0.03196305
246	0x3db1337a	0.086523965
247	0x3d861272	0.06546487
248	0x3e09ad4f	0.13445018
249	0xbc574d7b	-0.013141031
250	0x3e1e09a1	0.1543336
251	0xbdaa27d7	-0.0830838
252	0xbd8e2c41	-0.069420345
253	0xbd691ccc	-0.05691223
254	0xbe2c3d4f	-0.16820262
255	0xbddb13c3	-0.106971286

bias f4 [16]
0	0xbbb8b6a7	-0.005637008
1	0x3d304db1	0.043042842
2	0xbd92f9ce	-0.07176553
3	0x3e3e77fb	0.18600456
4	0xbe02d519	-0.12776603
5	0xbc077a2b	-0.008268873
6	0xbe040d61	-0.12895729
7	0x3d893c7d	0.0670099
8	0x3e33508e	0.17511198
9	0x3e35b830	0.17746043
10	0x3cd594ac	0.026071869
11	0xbdb5b098	-0.08871573
12	0x3e4cf689	0.2001592
13	0x3c3690d8	0.011142932
14	0x3e05afb8	0.13055313
15	0xbd9982bb	-0.07495638

weight f4 [16, 16, 5, 5]
0	0xbcbb917b	-0.022896519
1	0xbd321a03	-0.043481838
2	0x3d0d6311	0.034518305
3	0x3ba8e4b3	0.005154216
4	0xbd252bcf	-0.040324982
5	0xbc0d227b	-0.008614178
6	0xbcdea061	-0.027176084
7	0xbbb6a47b	-0.005573807
8	0x3c33ecb3	0.010981726
9	0xbcd80d62	-0.026373569
10	0x3bb439ba	0.0055000456
11	0xbce2bd48	-0.027678147
12	0x3c67ab43	0.014139953
13	0xbd3523b3	-0.0442235
14	0xb9490c64	-0.0001917347
15	0x3d1f1015	0.038833696
16	0x3d0784f0	0.033085763
17	0x3c20ad5f	0.00980696
18	0x3cc3fea1	0.023925127
19	0x3d1d90fc	0.038468346
20	0x3c6f5785	0.014608269
21	0x3bd87f6b	0.0066069863
22	0x3b1cf9b0	0.0023952536
23	0x3d02fbbe	0.03197836
24	0x3cfc00f2	0.03076217
25	0xbccd8a4f	-0.025090365
26	0x3a88cfeb	0.0010437941
27	0xbca4802a	-0.020080645
28	0x3d0097a5	0.03139462
29	0xbd0e5e22	-0.03475774
30	0x3bd09e84	0.006366553
31	0xbc2fbc3e	-0.010726033
32	0x3cb2134c	0.021737717
33	0x3cec954e	0.028879788
34	0xbc3c308e	-0.011486186
35	0x3cc3521a	0.02384286
36	0x3c96d8ec	0.018413983
37	0xbd2e8fec	-0.042617723
38	0x3d63837d	0.05554532
39	0x3d2ae830	0.041725338
40	0x3d0a6427	0.03378692
41	0xbb70848f	-0.0036700105
42	0x3c9d223b	0.019181361
43	0xbcc94937	-0.024571044
44	0xbca3b73f	-0.01998484
45	0x3cd444f0	0.025911778
46	0x3cbff5f9	0.023432719
47	0x3ca33d02	0.019926552
48	0xbd503f13	-0.050841402
49	0x3d0e4976	0.034738027
50	0xbce8836e	-0.028382983
51	0x3d1520f5	0.036408383
52	0x3cf2fbe1	0.02966112
53	0x3c0c8c27	0.008578337
54	0x3d1fa77d	0.03897809
55	0x3cc1b88e	0.023647573
56	0x3ce21fa7	0.027602984
57	0xbca2db7a	-0.019880045
58	0x3d204c66	0.03913536
59	0x3c078af7	0.008272878
60	0x3cc5fe68	0.024169162
61	0xbc6ea763	-0.014566275
62	0x3d132852	0.035927124
63	0x3d1f2dfb	0.03886221
64	0xbd346ab3	-0.04404707
65	0x3d21d945	0.039513845
66	0xbd0e9499	-0.034809683
67	0xbd157b60	-0.036494613
68	0xbd48f33d	-0.049060095
69	0x3bf11ac1	0.0073579256
70	0xbd24ed34	-0.040265277
71	0xbcce6356	-0.025193851
72	0xbd14d475	-0.036335427
73	0x3aa51287	0.0012594023
74	0xbd7f0e9d	-0.062269796
75	0xbd14b039	-0.03630087
76	0xbc3d6cb6	-0.011561563
77	0xbc1fafc4	-0.009746496
78	0xbd115263	-0.03547896
79	0x3baaad2c	0.005208632
80	0xbd3c352d	-0.04594915
81	0xbd5cd8ac	-0.053917572
82	0xbcb87e10	-0.022521049
83	0xbcf85266	-0.030312728
84	0x3cb3c4c4	0.021944411
85	0xbd3799fc	-0.044824585
86	0xbc7ab485	-0.015301828
87	0x3c1402bf	0.009033858
88	0xbd676efa	-0.05650232
89	0x3cd9d3c1	0.02659023
90	0xbd111f87	-0.035430457
91	0xbcc275c3	-0.023737794
92	0xbd2dad93	-0.04240186
93	0xbcf4fef9	-0.029906737
94	0xbd022bbc	-0.03177999
95	0xbd672b5d	-0.05643784
96	0x3bd85f98	0.0066031925
97	0xbc470a89	-0.012148508
98	0x3d13a6df	0.036047813
99	0x3caf55f3	0.021403288
100	0x3d017146	0.031602167
101	0x3b409e9e	0.0029391418
102	0x3c77b836	0.015119603
103	0x3d177153	0.03697331
104	0x3d01779c	0.03160821
105	0xbd4bd508	-0.04976371
106	0xbcb52420	-0.022111952
107	0xbd7115a1	-0.058858518
108	0xbbf066c5	-0.00733647
109	0xbcdabd43	-0.026701575
110	0x3d0504e2	0.03247536
111	0xbb4b1c67	-0.003099227
112	0xbc2acf9e	-0.010425476
113	0xbd402534	-0.04691048
114	0xbd4c38a6	-0.04985871
115	0xbb3307e5	-0.0027317938
116	0xbd136ecb	-0.035994332
117	0xbd0a6e11	-0.033796374
118	0x3cc8727d	0.024468655
119	0xbd1627d4	-0.036659077
120	0xbd0607e8	-0.032722384
121	0x3cdc7125	0.02690942
122	0x3c0baa97	0.0085245585
123	0xbd21cf23	-0.03950418
124	0x3b8b1728	0.004244704
125	0x3c5358c4	0.012899581
126	0xbd5e7a2c	-0.05431573
127	0x3c071aa6	0.0082461
128	0x3b8210e8	0.0039693005
129	0xbc379c4e	-0.0112067
130	0x3d036393	0.032077383
131	0xbd4884d8	-0.048954815
132	0x3cdd3c5f	0.027006326
133	0xbd099faa	-0.033599533
134	0xbd608c09	-0.054821048
135	0x3cc90bb8	0.02454172
136	0xbcf40b0e	-0.029790428
137	0xbc3beb3c	-0.011469658
138	0x3c6afe8b	0.014342914
139	0xbd67f113	-0.05662639
140	0xbd5a1e84	-0.05325176
141	0x3c05ebf2	0.0081739295
142	0x3d040e70	0.03224033
143	0xbc8ba1e0	-0.017044961
144	0x3cb8cfcd	0.022560025
145	0x3bbcad5c	0.0057579707
146	0x3b519a18	0.0031982716
147	0xbd2c1864	-0.04201545
148	0x3d162915	0.036660273
149	0x3c362a3b	0.011118467
150	0xbbd52b74	-0.006505424
151	0x3cce5ac4	0.025189765
152	0xbd2c68ab	-0.042092007
153	0x3c082c92	0.008311408
154	0xbd0c8b1d	-0.034312356
155	0xbca041e2	-0.019562665
156	0x3c003128	0.00782422
157	0x3c93bc08	0.018033996
158	0x3c813959	0.015774416
159	0xbd197112	-0.037461348
160	0xbd3be33d	-0.04587101
161	0xbbe64eb4	-0.007028425
162	0xbca0afcd	-0.019615078
163	0xbd5c126d	-0.05372851
164	0x3d1006e3	0.035162818
165	0xbb937b65	-0.0045007938
166	0xbd467c3e	-0.04845833
167	0x3c2ea173	0.01065861
168	0x3c052bcb	0.008128117
169	0xbd1f2b91	-0.038859908
170	0x3c6a5146	0.014301604
171	0xbd20c066	-0.039245985
172	0x3b8d03e0	0.0043034405
173	0x3d16a07c	0.036774144
174	0x3cababc9	0.020955937
175	0x3c4c8cde	0.012484757
176	0xbcbb1b46	-0.022840153
177	0xba285e43	-0.00064227375
178	0x3b6722d1	0.0035268555
179	0xbaf891a2	-0.00189643
180	0xbcb0a405	-0.021562586
181	0xbbe82c95	-0.0070853927
182	0xbd0ed4ea	-0.03487102
183	0xbd25c4f4	-0.040471032
184	0xbd6d7f6e	-0.057982855
185	0xbd4b7587	-0.04967263
186	0xbd2b6f9f	-0.041854497
187	0x3d0f68c1	0.03501201
188	0xbb0e1fcf	-0.002168644
189	0xbd6927f0	-0.056922853
190	0xbd11fb3c	-0.035639986
191	0x3ab035c8	0.0013443762
192	0xbcdacd9f	-0.026709376
193	0xbcd8f878	-0.026485667
194	0xbcfca69c	-0.030841164
195	0xbcd0235b	-0.025407484
196	0xbb924c8a	-0.0044646906
197	0xbc2ca967	-0.010538436
198	0x3ca4eb4a	0.020131726
199	0x3c993b4b	0.01870503
200	0x3cc8858c	0.024477743
201	0xbb6811c9	-0.0035410991
202	0xbd169352	-0.03676159
203	0xbbf33cb1	-0.0074230065
204	0xbd228f27	-0.039687302
205	0x3bf61187	0.0075094136
206	0xbc9e95e1	-0.019358577
207	0xbd07906f	-0.033096727
208	0xbd75ed9f	-0.060041066
209	0x3bd51966	0.006503272
210	0x3c496239	0.0122914845
211	0x3cf27cac	0.029600464
212	0xbcece731	-0.028918834
213	0xba4fe6d2	-0.0007930818
214	0xbc7ce7ac	-0.015436094
215	0xbd17c122	-0.03704942
216	0xbd3679f5	-0.0445499
217	0x3c418e12	0.011813657
218	0xbd2b28dd	-0.041787017
219	0x3cb4138e	0.02198198
220	0x3b2d2ae9	0.0026423282
221	0x3c24d5ff	0.010060786
222	0x3cb600a1	0.022217097
223	0x3c3cff31	0.011535452
224	0x3c597958	0.0132735595
225	0x3c778fd1	0.015109972
226	0xbd04a369	-0.032382403
227	0xbd1c722a	-0.038194813
228	0xbcb01df7	-0.021498663
229	0x3c7ac2cf	0.015305235
230	0x3cc82bd1	0.024434956
231	0x3cd65d01	0.026167395
232	0xbce291cf	-0.027657418
233	0xbc972016	-0.018447917
234	0xbd3ede8f	-0.046598967
235	0x3cac1180	0.021004438
236	0xbd31484a	-0.04328183
237	0xbcfdb240	-0.030968785
238	0x3cf96b7a	0.030446757
239	0x3aae1288	0.0013280669
240	0xbcfeecd9	-0.031118797
241	0xbd359bef	-0.044338163
242	0xbd375485	-0.04475834
243	0x3cf06d23	0.029348915
244	0xbd686a7f	-0.056742188
245	0x3d071dd0	0.032987416
246	0x3cebd9d6	0.028790396
247	0xbc032734	-0.008004952
248	0xbc7d6ead	-0.015468282
249	0x3ce12273	0.027482247
250	0x3c2c277a	0.010507459
251	0x3d1331dd	0.035936225
252	0x3ce6c392	0.028169427
253	0xbd371311	-0.044695918
254	0x3c93f0d4	0.018059172
255	0x3c60f4b7	0.01373022

bias f4 [16]
0	0xbc8d9fa8	-0.017288044
1	0xbce23555	-0.027613321
2	0x3d0fdcd2	0.0351227
3	0xbd1b42c5	-0.037905473
4	0xbd3d1e03	-0.0461712
5	0xbcd6c735	-0.026218036
6	0xbbc2857e	-0.0059363237
7	0x3ce0e9de	0.027455267
8	0x3cb9b9d3	0.022671616
9	0x3d5e1782	0.054221638
10	0xbb92521e	-0.0044653555
11	0x3c827f56	0.01592986
12	0xbc02991f	-0.007971077
13	0x3cf85237	0.03031264
14	0x3cf84278	0.030305132
15	0x3d0d5d15	0.034512598

weight f4 [16, 16, 5, 5]
0	0x3ced54e3	0.028971141
1	0x3d14af7f	0.03630018
2	0xbb5937dd	-0.003314487
3	0x3cf26f53	0.0295941
4	0xbd09f72f	-0.033683
5	0xbc75cf14	-0.015002985
6	0xbc9dffd3	-0.019287026
7	0xbca9b8e8	-0.020718053
8	0xbb1d331d	-0.0023986765
9	0xbd56ecee	-0.052472048
10	0xbd087b40	-0.033320665
11	0xbc26f04a	-0.010189125
12	0x3b905d7b	0.004405675
13	0x3cf4cd6e	0.029883113
14	0xbd218573	-0.039433908
15	0x3bd99755	0.0066403546
16	0x3c8ff54c	0.017573021
17	0xbd037a38	-0.03209898
18	0x3b5db986	0.0033832504
19	0xbcffa8e1	-0.031208457
20	0xbbd04df2	-0.006356948
21	0xbd0677b3	-0.032828998
22	0xbc9f250e	-0.019426849
23	0xbccd9689	-0.025096195
24	0x3d1a5372	0.037677236
25	0x3bf085f1	0.007340186
26	0xbd5b5c0a	-0.053554572
27	0x3aaa0d2f	0.00129739
28	0x3cb27891	0.021786006
29	0xbced9b60	-0.029004753
30	0xbd0eb7c0	-0.034843206
31	0xbc798ba0	-0.015231043
32	0xbd507d13	-0.05090053
33	0xbcc29f76	-0.023757678
34	0x386cbbcc	5.6441684e-05
35	0xbd32e71c	-0.043677434
36	0xbd5b70f4	-0.053574517
37	0xbd17abdc	-0.037029132
38	0xbd31fc45	-0.043453474
39	0xbbd276d7	-0.006422858
40	0x3c277db4	0.010222841
41	0x3cc95322	0.024575774
42	0x3d3152c1	0.04329181
43	0x3c9823d7	0.018571777
44	0xbcfe75e6	-0.031062078
45	0xbc512bc4	-0.012766782
46	0xbd04dd8b	-0.032437842
47	0x3cd0f034	0.025505163
48	0x3c1c43b4	0.009537626
49	0x3c7445fd	0.014909265
50	0xbd0aae41	-0.033857588
51	0x3d34ae28	0.0441114
52	0xbd53ece3	-0.051739585
53	0x3ccd3f62	0.025054637
54	0xbd490ce4	-0.04908456
55	0x3d08ed9a	0.03342972
56	0xbd130415	-0.035892565
57	0xbd3ac566	-0.04559841
58	0x3cd0042a	0.02539261
59	0x3d193cf8	0.03741166
60	0xbc0dd6d4	-0.008657176
61	0x3c4c570f	0.012471928
62	0x3d29c5c4	0.04144837
63	0xbd395015	-0.045242388
64	0x3c779da0	0.015113264
65	0x3bafea78	0.005368527
66	0xbd1d016e	-0.03833144
67	0x3ccdac04	0.025106438
68	0x3d136fae	0.035995178
69	0x3d02f5c5	0.031972665
70	0xbd1f6ad6	-0.038920246
71	0x3d230296	0.039797388
72	0x3d12e0c5	0.03585889
73	0x3c40abd9	0.011759722
74	0xbc5bcf95	-0.013416191
75	0x3d03435b	0.032046657
76	0xbd19cfcf	-0.037551697
77	0xbd13a4a4	-0.036045685
78	0x3cb94c48	0.022619382
79	0x3cdab497	0.02669744
80	0xbc1c1d46	-0.009528464
81	0x3d22b6a4	0.03972496
82	0x3ca40b77	0.020024998
83	0x3c9ddf79	0.0192716
84	0x3d073d35	0.033017356
85	0x3d326a6d	0.043558527
86	0x3cf1f209	0.029534357
87	0x3d0d6afb	0.034525853
88	0xbace91ca	-0.0015760001
89	0x3d045ebb	0.032316905
90	0x3c9b4c42	0.018957261
91	0xbd02767f	-0.031851288
92	0x3ca8202a	0.02052315
93	0xbb8b8d7d	-0.00425881
94	0xbcc57a02	-0.02410603
95	0x3cf08323	0.029359406
96	0x3badb6ba	0.0053013237
97	0x3d03775a	0.032096244
98	0x3b53d582	0.0032323305
99	0x3bed96a9	0.007250626
100	0x3cceb749	0.025233882
101	0xbc87d823	-0.016582554
102	0x3cdc2bfe	0.026876446
103	0xbcf7b2f4	-0.030236699
104	0xbc38c0fd	-0.011276481
105	0x390edede	0.000136252
106	0x3cfb09e2	0.03064436
107	0x3c9a808c	0.018860124
108	0x3d31d657	0.0434173
109	0xbcfa5fdc	-0.030563287
110	0xbc1390e3	-0.009006712
111	0xbc153e6b	-0.00910912
112	0x3d17ee43	0.03709246
113	0x3d2f9645	0.042867918
114	0x3c031f11	0.008003012
115	0xbd394013	-0.04522712
116	0xbd29bea8	-0.04144159
117	0x3b8d931d	0.004320516
118	0xbd46626e	-0.048433714
119	0xbcae8576	-0.021303874
120	0xbd2b9236	-0.041887484
121	0x3cad7ea8	0.021178558
122	0xbc2b5fbf	-0.010459839
123	0xbd314992	-0.043283053
124	0x3ce6890f	0.028141527
125	0xbd4a372d	-0.049369026
126	0xbc235108	-0.00996805
127	0x3d2f5a25	0.042810578
128	0x3ca22324	0.019792147
129	0xbd47f961	-0.04882181
130	0x3981df48	0.00024771155
131	0xbc4c8a26	-0.012484109
132	0x3c894b8c	0.016759656
133	0x3d26f8c1	0.040764574
134	0x3d174831	0.03693408
135	0xbc1d39b9	-0.009596282
136	0x3c91d492	0.017801557
137	0xbd5fa30a	-0.054598846
138	0x3d0a024a	0.03369359
139	0x3caa09f7	0.020756705
140	0xbd26bf15	-0.040709574
141	0xbca6b400	-0.020349503
142	0xbccd140d	-0.025033975
143	0xbd0ee9c4	-0.034890905
144	0x3c6ff83e	0.014646588
145	0xbcaafb8c	-0.0208719
146	0x3c6beca7	0.014399684
147	0xbcb12b87	-0.0216272
148	0x3d061cbb	0.032742243
149	0xbcd24b38	-0.025670633
150	0xbc55ea6d	-0.01305638
151	0xbc865482	-0.016397718
152	0xba2f50e4	-0.0006687774
153	0xbcba9f66	-0.022781085
154	0xbd26dd90	-0.040738642
155	0xbd4e9a10	-0.050439894
156	0x3ceefff9	0.029174792
157	0x3ba60f55	0.0050677457
158	0xbd179dab	-0.0370156
159	0x3c9cf77e	0.019160982
160	0x3b443c69	0.0029943234
161	0xbc9e8093	-0.019348418
162	0xbbe223f5	-0.006901259
163	0x399f2a90	0.00030358555
164	0x3ce561d4	0.02800075
165	0xbd53dccc	-0.05172424
166	0xbd34c4f1	-0.04413313
167	0xbd3cb143	-0.046067487
168	0xbd39dac4	-0.045374647
169	0xbbdc6bcb	-0.006726717
170	0x3cb393d1	0.02192107
171	0x3bfd837c	0.0077366214
172	0x3c853ebf	0.016265271
173	0xba901210	-0.0010991711
174	0xbbe2bc22	-0.0069194
175	0xbd4847ba	-0.04889653
176	0x3d2452ec	0.040118143
177	0x3d369d0a	0.044583358
178	0xbbba25cc	-0.0056807753
179	0x3b83f9ed	0.004027596
180	0x3b9e4b5a	0.00483076
181	0x3d37cdcd	0.044874
182	0xbb644e21	-0.0034836608
183	0xbc640b62	-0.0139187295
184	0xbd01604c	-0.031585976
185	0x3c096bcd	0.008387518
186	0x3c897b1c	0.016782336
187	0xbd47959e	-0.04872667
188	0x3c395d65	0.011313771
189	0x3bdec3a9	0.006798227
190	0x3c867086	0.016411077
191	0x3c8e8101	0.017395498
192	0xbcad141a	-0.02112775
193	0xb951dc27	-0.00020013806
194	0xbd24948f	-0.04018074
195	0x3ccf2618	0.02528672
196	0xbd3f966a	-0.046774305
197	0xbd48dd30	-0.049039066
198	0xbd32e580	-0.0436759
199	0xbd0d2e13	-0.034467768
200	0x3c025482	0.007954719
201	0x3cab1681	0.020884754
202	0xbc121ced	-0.008918029
203	0x3cc93e95	0.024565974
204	0xbb0e7434	-0.0021736743
205	0x3ce367df	0.02775949
206	0x3c9cb95d	0.019131357
207	0x3c8b7816	0.017025035
208	0x3c12b687	0.008954651
209	0xbca894d3	-0.020578777
210	0x3d02041a	0.031742193
211	0xbd23c0f9	-0.039978955
212	0xbcc8b661	-0.024501028
213	0xbcef949f	-0.029245673
214	0xbc9b7d70	-0.018980712
215	0x3c74dbe9	0.014945009
216	0x3b70a22b	0.0036717753
217	0xbd05fdde	-0.03271281
218	0x3d1a3b3d	0.03765415
219	0x3d1d4201	0.038393024
220	0x3c8c8afb	0.017156115
221	0xbd341439	-0.0439646
222	0x3d02aecb	0.031904977
223	0x3bdda68d	0.006764239
224	0xbc4859d7	-0.012228451
225	0xbd4226fa	-0.047400452
226	0x3d178383	0.036990654
227	0xbca8130b	-0.020516893
228	0xbd3bee78	-0.04588172
229	0x3d06dbf6	0.032924615
230	0x3c67187b	0.014104958
231	0x3c22b847	0.00993163
232	0x3ce0d2a4	0.027444191
233	0x3c3eb55b	0.011639918
234	0xbc8839d8	-0.016629145
235	0xbc606b2f	-0.01369743
236	0x3d163cf9	0.03667924
237	0xbbd3ed9b	-0.0064675338
238	0xbd42d620	-0.047567487
239	0xbd25ce9b	-0.040480237
240	0xbd33efac	-0.04392974
241	0xba7c574f	-0.0009626047
242	0x3cfcc736	0.03085671
243	0x3cc1918d	0.023628974
244	0x3bd7e729	0.0065888357
245	0x3c1939db	0.009352173
246	0xbcfaea6b	-0.030629357
247	0x3d235a03	0.039880764
248	0x3c464103	0.012100461
249	0xbd1ce850	-0.038307488
250	0xbd0eb6aa	-0.03484217
251	0xbd3f78a3	-0.046745908
252	0xbc8f301e	-0.017478999
253	0x3d033ee9	0.032042418
254	0xbadd0661	-0.0016862863
255	0xbcd5128b	-0.026009819

bias f4 [16]
0	0x3c87603d	0.016525382
1	0xbcfc22b5	-0.030778268
2	0xbc6bd73f	-0.01439458
3	0xbd0f0b98	-0.034923166
4	0xbc9dab80	-0.019246817
5	0x3cfdc2b1	0.030976625
6	0xbd060214	-0.032716826
7	0x3c64762a	0.013944188
8	0x3ba15b66	0.0049242256
9	0x3c86eb5e	0.016469654
10	0xbd033482	-0.032032497
11	0x3cb17930	0.021664232
12	0x3c8c5f14	0.01713518
13	0x3cfdc071	0.030975552
14	0x3d2500e1	0.04028404
15	0x3c6e2f74	0.014537681

weight f4 [16, 16, 3, 3]
0	0x3d95a6e5	0.07307223
1	0xbd764490	-0.06012398
2	0xbcd8c4a1	-0.026460947
3	0x3d184ff3	0.03718562
4	0x3d43a44c	0.047764108
5	0xbd6efb83	-0.05834533
6	0xbca82aa2	-0.020528141
7	0x3d8c2d5d	0.0684459
8	0xbd8ecad6	-0.06972282
9	0x3d19a4e4	0.037510768
10	0x3daa7911	0.08323873
11	0xbcf635d4	-0.030054964
12	0xbc10c84b	-0.008836816
13	0x3cafb226	0.021447252
14	0x3d1ecebc	0.038771376
15	0xbc3c8129	-0.011505404
16	0xbd960864	-0.07325819
17	0xbb4fa0fd	-0.003168165
18	0xb957200c	-0.00020515936
19	0x3d3ff84e	0.04686766
20	0x3bb4f34b	0.005522167
21	0x3d52053d	0.051274527
22	0xbd2d5f99	-0.042327497
23	0xbcbf687e	-0.023365255
24	0x3c4e2c64	0.012583826
25	0x3d579cce	0.052639775
26	0x3cc891cc	0.024483584
27	0x3d99ed6f	0.0751599
28	0x3cdc9880	0.026928186
29	0x3d2fc2f4	0.04291053
30	0x3c91d4e4	0.01780171
31	0x3d850867	0.06495743
32	0x3d8161ab	0.06317457
33	0x3d41b597	0.04729232
34	0xbd91eb54	-0.071249634
35	0xbc677d3d	-0.01412898
36	0xbcca90e7	-0.024727298
37	0xbc143d91	-0.009047882
38	0x3d809c0a	0.06279762
39	0xbd55f7e3	-0.052238356
40	0xbd26c41b	-0.040714364
41	0xbcff3ad4	-0.031155981
42	0x3c091da3	0.008368882
43	0xbd347a3e	-0.04406189
44	0x3c980f2d	0.018561924
45	0xbd9a7b5d	-0.07543061
46	0xbd452acd	-0.04813652
47	0x3d33cb69	0.04389516
48	0x3d55b175	0.05217119
49	0xbd035feb	-0.032073896
50	0xbb055720	-0.002034612
51	0xbc093a11	-0.0083756605
52	0xbd85c50a	-0.06531723
53	0xbcd0cf7c	-0.025489561
54	0x3d360505	0.04443838
55	0xbaae4aac	-0.00132974
56	0x3d9adde4	0.075618535
57	0xbd9325b8	-0.07184929
58	0xbd812820	-0.06306481
59	0xbd9a37ff	-0.07530212
60	0xbd65e662	-0.056127913
61	0x3c5579c9	0.013029524
62	0x3d50c385	0.050967712
63	0xbd49bb65	-0.04925098
64	0xbd5668cd	-0.05234604
65	0xbcd52570	-0.026018828
66	0x3d002951	0.031289402
67	0x3cd6c3be	0.026216384
68	0xbc3548a6	-0.011064684
69	0x3d570480	0.052494526
70	0x3c5d8cd3	0.013522345
71	0x3d68265d	0.05667721
72	0xbb8b3a34	-0.0042488817
73	0xbd677adc	-0.056513652
74	0xbb8b439e	-0.004250004
75	0x3cb0ce97	0.021582885
76	0x3cdf4baf	0.027257768
77	0xbbc4e0a7	-0.006008226
78	0xbb07d59e	-0.002072669
79	0x3c287e92	0.010284083
80	0xbcc783ad	-0.02435478
81	0x3c83e301	0.016099455
82	0xbd6ac54c	-0.057317063
83	0xbcbf7d2c	-0.023375116
84	0x3d2dae5f	0.04240262
85	0x3cb5034a	0.022096295
86	0x3d31387e	0.043266766
87	0xbd70a4a2	-0.058750756
88	0xbceeeee7	-0.029166652
89	0xbd42d436	-0.04756566
90	0xbd7167f8	-0.058937043
91	0xbcfa144d	-0.030527258
92	0xbc50771f	-0.012723713
93	0xbb3912c1	-0.0028239938
94	0xbbb33ee1	-0.0054701422
95	0xbd5ea73e	-0.054358713
96	0xba7a5d1d	-0.0009550618
97	0x3ccfe7bb	0.025379052
98	0x3d4e0adf	0.050303336
99	0x3d40c6d0	0.047064602
100	0xbd95d058	-0.07315129
101	0xbd685dd0	-0.05673009
102	0x3d7f88c2	0.06238628
103	0x3d564702	0.052313812
104	0x3d2b95a8	0.04189077
105	0xbd3f2c54	-0.046673134
106	0x3d86c766	0.06581001
107	0xbdafd017	-0.08584612
108	0xbd8fa5a3	-0.070140146
109	0x3b4c6a4a	0.0031191283
110	0x3d0ca4c0	0.034336805
111	0xbda9daa0	-0.082936525
112	0x3bf147cf	0.0073632966
113	0xbbcbbdb4	-0.0062176827
114	0xbc80478d	-0.015659118
115	0xbd905d8d	-0.070490934
116	0xbd394d30	-0.045239627
117	0x3afb56eb	0.0019175684
118	0x3c9c4822	0.019077364
119	0x3d4e6a61	0.05039442
120	0xbcf71357	-0.03016059
121	0x3da0340e	0.07822429
122	0x3cea6c30	0.028616041
123	0xbd6c4280	-0.057680607
124	0xbdabe7ff	-0.08393859
125	0x3d59111c	0.052994832
126	0x3ac3ed8e	0.0014948116
127	0xbc5d8270	-0.013519868
128	0xbd06529e	-0.032793634
129	0x3d0abe13	0.033872675
130	0xbd124b90	-0.035716593
131	0xbd88d2a7	-0.06680804
132	0x3d56aac0	0.052408934
133	0xbd2ac3d0	-0.041690648
134	0x3d2c12f7	0.042010274
135	0xbd798f70	-0.06092781
136	0xbcaa50b3	-0.020790434
137	0xbd4c49be	-0.049875014
138	0xba05a368	-0.0005097897
139	0xbc6b1b69	-0.014349797
140	0x3ca58047	0.020202769
141	0xbd8d520a	-0.06900413
142	0xbda06e0e	-0.07833491
143	0x3d7b058c	0.061284587
144	0xbd81aff5	-0.06332389
145	0x3cd11ba4	0.025525875
146	0xbda6aa89	-0.08137996
147	0x3c6bdfb0	0.014396593
148	0xbb9903df	-0.004669651
149	0xbd333041	-0.04374719
150	0xbb76bb6b	-0.003764833
151	0x3bb95b9f	0.005656674
152	0xbb7ed9ad	-0.003888707
153	0x3d7c41ae	0.061586075
154	0xbd4ab24a	-0.049486436
155	0x3d143507	0.036183383
156	0x3d9d0308	0.07666594
157	0xbd778076	-0.060425244
158	0xbd877c7a	-0.06615539
159	0x3ce81a52	0.028332863
160	0xbcf1e25d	-0.029526884
161	0xbadc00a0	-0.0016784854
162	0xbdac0401	-0.08399201
163	0x3d27283c	0.040809855
164	0xbc73ef4c	-0.014888596
165	0xbb864ed9	-0.004098755
166	0xbd1a1cf5	-0.03762527
167	0x3c94e974	0.018177725
168	0xbc4f3b84	-0.012648467
169	0xbd2f4346	-0.042788766
170	0x3c0a89f9	0.008455747
171	0xbcf9b7a0	-0.030483067
172	0x3cafaa52	0.02144352
173	0xbdb0c5ea	-0.08631499
174	0xbd12bb1a	-0.035822965
175	0xbd800f01	-0.06252862
176	0x3d0ea3be	0.034824125
177	0xbd831bf5	-0.06401817
178	0x3d670397	0.056399908
179	0x3c49a246	0.012306755
180	0x3d58a995	0.0528961
181	0xbd55c8d3	-0.052193474
182	0xbd86ba6d	-0.06578527
183	0xbc4c88f7	-0.012483827
184	0xbd3523fe	-0.044223778
185	0xbcde85f4	-0.027163483
186	0x3d8dac10	0.06917584
187	0x3d39ab4f	0.04532939
188	0xbcc77a85	-0.024350414
189	0x3d2c07e4	0.041999713
190	0xbd8142cb	-0.06311568
191	0xbd659da5	-0.056058545
192	0x3cf0aefa	0.02938031
193	0x3cf31433	0.029672718
194	0xbd0d5114	-0.03450115
195	0xbd8064ef	-0.062692516
196	0x3bd215ca	0.006411289
197	0x3d9233aa	0.071387604
198	0x3d9b3ce7	0.075799756
199	0x3d81aac7	0.06331401
200	0xbd8ad75f	-0.0677936
201	0x3d4e07ab	0.05030028
202	0x3c17279a	0.00922575
203	0xbd97d7fd	-0.07414243
204	0xbb4a3472	-0.0030854014
205	0xbdb037ed	-0.08604417
206	0x3c04a14c	0.008095097
207	0xbcd12b65	-0.025533387
208	0xbd14c476	-0.036320172
209	0x3b6f5947	0.003652172
210	0x3d25491a	0.04035292
211	0x3cf2c327	0.029634072
212	0xbd238057	-0.039917316
213	0x3d0b20a4	0.033966675
214	0x3c78821d	0.01516774
215	0xbd207d03	-0.03918172
216	0xbcdb5025	-0.026771614
217	0xbcd33f36	-0.025786977
218	0xbd97d6f8	-0.07414049
219	0xbda7f866	-0.08201675
220	0xbd8187f1	-0.06324757
221	0x3d887106	0.066621825
222	0xbce743fd	-0.028230662
223	0xba548b38	-0.00081079034
224	0xbda0f92a	-0.07860024
225	0xbcb34c3c	-0.021886937
226	0x3ce064b7	0.027391775
227	0xbb9cc1c9	-0.004783843
228	0xbc6f5f98	-0.014610194
229	0xbc0dd104	-0.00865579
230	0x3d58d72c	0.05293958
231	0xbd89b247	-0.06723457
232	0xbda48c5f	-0.08034586
233	0xbdabb443	-0.083839916
234	0x3cd7246d	0.026262486
235	0xbd50757d	-0.050893296
236	0xbd2b0ae4	-0.041758433
237	0xbc82df97	-0.015975757
238	0x3d1def0c	0.03855805
239	0xbba58dd4	-0.0050523076
240	0x3c3055c7	0.010762638
241	0xbce89cc0	-0.028395057
242	0x3d1bae8c	0.038008258
243	0xbd3a9828	-0.045555264
244	0x3d75dc2b	0.06002442
245	0x3d83cd8c	0.06435689
246	0xbda287f4	-0.07936087
247	0xbd0012bd	-0.03126787
248	0xbc745c85	-0.0149146365
249	0xbd4ad018	-0.04951486
250	0xba5b186e	-0.00083578273
251	0xbd06a8cb	-0.032875817
252	0x3d82f1e0	0.0639379
253	0xbc49dc29	-0.012320557
254	0xbd576799	-0.052589033
255	0xbd40e0c8	-0.047089368

bias f4 [16]
0	0xbd3790f8	-0.044815987
1	0x3c0425c0	0.008065641
2	0x3cd38d25	0.025824139
3	0xbd30534c	-0.043048188
4	0xbd8d749a	-0.069070056
5	0xbcecf90b	-0.028927347
6	0x3db5ef68	0.08883554
7	0x3d2d4f4a	0.042311944
8	0x3d53b186	0.05168297
9	0x3d3c817f	0.046021935
10	0xba97e1eb	-0.0011587715
11	0xbd80283a	-0.062576726
12	0x3d9b9719	0.07597179
13	0x3cdc5dba	0.026900161
14	0xbcb1b596	-0.021693032
15	0x3d28e501	0.04123402

weight f4 [16, 16, 3, 3]
0	0xbd7f05ab	-0.062261265
1	0x3a7725fa	0.0009427961
2	0x3d9c1474	0.076210886
3	0x3cd3dde2	0.025862638
4	0xbda03191	-0.07821954
5	0x3d969448	0.07352501
6	0x3c96a6e4	0.018390127
7	0xbca5abad	-0.020223463
8	0x3d8d1831	0.0688938
9	0x3cee7518	0.029108569
10	0x3d2b62e4	0.041842356
11	0x3d07286d	0.032997537
12	0xbd5bf657	-0.053701725
13	0xbd87998e	-0.06621085
14	0x3d5884a5	0.052860875
15	0xbc531c57	-0.012885175
16	0x3d79953a	0.06093333
17	0x3d099768	0.033591658
18	0xbdaed1e4	-0.08536127
19	0x3d2aa8fd	0.041665066
20	0x3d172aff	0.03690624
21	0xbdb029cc	-0.08601722
22	0xb5bbbf00	-1.3988174e-06
23	0xbd946442	-0.07245685
24	0x3d0be231	0.03415126
25	0x3d1d1514	0.03835018
26	0x3c92bcdd	0.017912323
27	0x3d451a08	0.04812053
28	0xbd50839f	-0.050906774
29	0xbc07d644	-0.008290831
30	0xbcd05c6c	-0.025434695
31	0x3d7dca2c	0.061960384
32	0x3d6203d5	0.055179436
33	0xbd022df7	-0.031782117
34	0xbd9443ab	-0.07239469
35	0xbbae954c	-0.005327856
36	0x3d77ac23	0.060466897
37	0xbcafc765	-0.021457383
38	0x3cdd254e	0.026995327
39	0xbd873cf8	-0.06603426
40	0xbd74892b	-0.059701126
41	0xbd9be2e8	-0.07611638
42	0xbd9ef805	-0.0776215
43	0xbd1e5d4d	-0.038663197
44	0xbd255f2e	-0.040373974
45	0x3d0f1280	0.034929752
46	0x3d8dd1ed	0.06924806
47	0x3c1369a4	0.008997355
48	0x3d0a9e7a	0.03384254
49	0xbd62edeb	-0.055402678
50	0xbd1ff1b2	-0.039048858
51	0xbd9c9270	-0.07645118
52	0x3da0fa58	0.07860249
53	0x3c1ed508	0.009694345
54	0xbc5db3e6	-0.013531661
55	0xbd8a0f0f	-0.067411534
56	0x3cb51d71	0.022108765
57	0xbd9ae87d	-0.07563875
58	0x3d7960a5	0.060883183
59	0xbd9f6159	-0.077822395
60	0x3bdcecf0	0.0067421123
61	0x3d26c12a	0.04071156
62	0xbda494a9	-0.08036167
63	0x3d3bd55f	0.045857783
64	0x3d92f050	0.07174742
65	0x3d7c506c	0.061600134
66	0x3d80a384	0.06281188
67	0xbd39ef1b	-0.045394044
68	0xbc25ab3f	-0.010111629
69	0x3d98eb41	0.07466746
70	0x3d2a4303	0.041567814
71	0xbd4a923a	-0.04945586
72	0x3dacfd51	0.08446754
73	0xbb94188a	-0.004519527
74	0xbd16a35f	-0.036776897
75	0x3b8040da	0.003913981
76	0x3d9f85c9	0.07789189
77	0xbd3da730	-0.04630202
78	0xbc0303b8	-0.007996492
79	0xbcb01323	-0.0214935
80	0xbd117a4d	-0.035517026
81	0x3d581ac1	0.05275989
82	0x3c29200f	0.010322585
83	0xbd9d0907	-0.076677375
84	0x3afe05e5	0.0019380419
85	0x3d5780ee	0.05261319
86	0xbd455d34	-0.04818459
87	0x3d95866d	0.0730103
88	0xbd9627cc	-0.073318094
89	0x3c8c1ee9	0.017104583
90	0x3d11fd61	0.03564203
91	0x3c9369e5	0.01799483
92	0x3d0e8c16	0.034801565
93	0xbb5b15d4	-0.0033429759
94	0xbce7e031	-0.028305145
95	0x3d4e24e1	0.05032814
96	0xbd102ea5	-0.035200734
97	0x3d6b48ed	0.057442594
98	0x3d8b7a00	0.06810379
99	0xbd90ea59	-0.07075948
100	0x3d8162e2	0.063176885
101	0x3c2db9f4	0.010603417
102	0xbd5e9ee7	-0.05435076
103	0xbd506307	-0.05087569
104	0xbca4c7f4	-0.020114876
105	0x3dace1c9	0.084415026
106	0x3d506690	0.05087906
107	0xbcef09f4	-0.02917955
108	0xbd63b0da	-0.05558858
109	0xbd600960	-0.05469644
110	0xbd1c592e	-0.038170986
111	0xbbdd0be2	-0.0067458013
112	0xbd930814	-0.07179275
113	0xbd89ca08	-0.067279875
114	0xbd6ef45d	-0.05833851
115	0x3cab95d3	0.020945465
116	0x3cfbd471	0.030740948
117	0x3c2b0291	0.010437624
118	0x3d9970d6	0.07492225
119	0x3c7e8a07	0.015535838
120	0xbd392620	-0.045202374
121	0x3d204bba	0.03913472
122	0xbd30108c	-0.04298453
123	0x3d8130c8	0.063081324
124	0xbcfac826	-0.030613016
125	0xbd48d8b1	-0.049034778
126	0xbcb8fa42	-0.02258027
127	0xbd55feaf	-0.05224484
128	0xbc6a4577	-0.014298788
129	0xbca0a852	-0.019611511
130	0x3b9bf89c	0.004759861
131	0xbc870deb	-0.016486129
132	0xbd84fb8f	-0.064932935
133	0xbdacca40	-0.084370136
134	0xbd8a6a4e	-0.06758557
135	0xbda9c01c	-0.08288595
136	0xbdb35994	-0.0875732
137	0x3d991b0c	0.07475862
138	0x3d3b9893	0.045799803
139	0x3d124c1e	0.035717122
140	0x3d4bac73	0.049725007
141	0x3ca4aaac	0.020100914
142	0xbcf12471	-0.029436322
143	0xbc6f933d	-0.014622507
144	0xbd1ea487	-0.038731124
145	0x3d0f0e50	0.03492576
146	0x3ca1dc44	0.019758351
147	0xbd94133a	-0.0723023
148	0x3c4854b6	0.012227228
149	0xbd82b78f	-0.06382667
150	0x3d805a38	0.06267208
151	0x3c2d51c9	0.010578581
152	0x3ad12607	0.0015956768
153	0xbd6bda35	-0.057581145
154	0x3bb9df66	0.005672383
155	0x3b2d5c6f	0.00264528
156	0x3c66ebd0	0.014094308
157	0xbd843ac1	-0.06456519
158	0xbd2d20e7	-0.042267706
159	0xbd870b4c	-0.065939516
160	0xbd713eb8	-0.058897704
161	0xbd5af8e4	-0.053460017
162	0xbd94e94b	-0.072710596
163	0x3d9f17cd	0.077682115
164	0xbdab4c17	-0.08364122
165	0xbce573f0	-0.028009385
166	0xbace6698	-0.0015747128
167	0xbd21b0da	-0.0394753
168	0xbcf63488	-0.030054346
169	0x3d06a090	0.032867968
170	0xbcd9aa17	-0.026570363
171	0xbc6c4acd	-0.014422131
172	0x3d8c22c0	0.068425655
173	0xbd11c0d9	-0.035584304
174	0xbbe3ca36	-0.0069515957
175	0x3d50cab7	0.050974574
176	0xbcc52adb	-0.024068287
177	0xbd8dbb45	-0.069204845
178	0x3d7f2bdd	0.06229769
179	0xbd9c7af5	-0.0764064
180	0xbdb2cb99	-0.087302394
181	0xbd3f4374	-0.046695188
182	0x3be83de3	0.0070874556
183	0x3d7c9be6	0.061672114
184	0xbd8ec663	-0.06971433
185	0xbd3deb87	-0.046367195
186	0x3d8d5dee	0.06902681
187	0x3d75df79	0.060027573
188	0x3cd946c5	0.026523003
189	0xbd8ba1c7	-0.06817966
190	0x3d3d8d59	0.046277378
191	0xbbd38022	-0.0064544836
192	0xbd82e4aa	-0.063912705
193	0x3d819805	0.063278235
194	0xbd763b7d	-0.060115326
195	0x3c75fa6c	0.0150133185
196	0xbd36292e	-0.044472866
197	0x3d92d88a	0.07170208
198	0x3c41657f	0.011803984
199	0xbc3de5b3	-0.011590409
200	0x3d5a4106	0.053284667
201	0x3da7b822	0.081894174
202	0xbafd39a8	-0.0019319551
203	0x3d672417	0.056430902
204	0xbd2b57be	-0.041831724
205	0xbd68fb14	-0.05688007
206	0xbd70c5ce	-0.05878239
207	0xbdc296be	-0.09501408
208	0x3d85b25a	0.065281585
209	0x3cbeb481	0.02327943
210	0xbd933835	-0.07188455
211	0xbda0f26c	-0.07858738
212	0x3d6614bd	0.05617212
213	0x3b7feaa2	0.0039049764
214	0xbd61e990	-0.055154383
215	0xbacce242	-0.0015631395
216	0xbce820d4	-0.028335966
217	0x3ca621fc	0.020279877
218	0xbd317972	-0.04332871
219	0xbd3f574d	-0.046714116
220	0xbd516405	-0.051120777
221	0xbd16aeba	-0.036787726
222	0xbc643b4f	-0.013930156
223	0x3cebc37e	0.028779741
224	0x3bf121eb	0.0073587797
225	0x3d87f04b	0.06637629
226	0xbcaf656a	-0.021410663
227	0xbd19311c	-0.03740035
228	0xbd3b90f6	-0.045792542
229	0xbd92e8ef	-0.07173335
230	0xbd75d96a	-0.060021795
231	0xbc95512b	-0.01822718
232	0x3d9754ae	0.07389198
233	0xbdbd726d	-0.092503406
234	0x3d3c11fd	0.045915592
235	0x3cff03c8	0.031129733
236	0x3d2aef03	0.041731846
237	0x3ce87109	0.028374212
238	0x3d0a6ff0	0.03379816
239	0x3d7ff81a	0.062492467
240	0x3c62ec53	0.013850289
241	0xbcf7d97d	-0.030255074
242	0x3ca25c49	0.019819396
243	0xbb9e7064	-0.0048351754
244	0xbd36f9ab	-0.044671696
245	0x3caa341c	0.0207768
246	0x3daf87f7	0.08570855
247	0x3d6dd480	0.058063984
248	0xbd3503d9	-0.044193123
249	0xb63eff00	-2.8460636e-06
250	0x3d03e0fd	0.032196987
251	0x3d22990b	0.039696734
252	0xbda320b3	-0.07965221
253	0x3c1675c2	0.009183349
254	0xbbeb67a5	-0.0071839863
255	0x3d9764db	0.073922835

bias f4 [16]
0	0xbd31e3b3	-0.04343004
1	0xbd74a2fb	-0.059725743
2	0x3cbd855e	0.023134883
3	0xbc2b72c3	-0.010464373
4	0x3c504bdf	0.012713402
5	0x3d08e19e	0.03341829
6	0x3d031d4b	0.032010358
7	0xbbce1b38	-0.006289866
8	0x3cdc408b	0.026886245
9	0xbd626b98	-0.05527839
10	0x3da9ece7	0.08297139
11	0xbd78cf4f	-0.06074458
12	0xbd175975	-0.036950547
13	0xbc82ca86	-0.015965711
14	0xbd04f1c2	-0.03245712
15	0x3c9b1a4c	0.018933438

weight f4 [16, 16, 5, 5]
0	0x3d150e42	0.03639055
1	0xbbf6373a	-0.0075139077
2	0xbbec0314	-0.0072025154
3	0xbc9b26a7	-0.01893933
4	0x3cf6d9ed	0.030133212
5	0xbce23f98	-0.027618214
6	0x3d2ba2d9	0.04190335
7	0x3c7809e9	0.0151390815
8	0xbd0ce637	-0.034399237
9	0x3b5ba1af	0.003351312
10	0x3c9523ac	0.018205486
11	0x3d520e6a	0.051283278
12	0xbc8c0e40	-0.017096639
13	0xbd20c346	-0.039248727
14	0xbcbc4414	-0.02298168
15	0x3c57ed5e	0.013179151
16	0x3d073412	0.033008642
17	0x39b480d1	0.0003442825
18	0x3d33bac7	0.043879297
19	0xbd04b96a	-0.032403387
20	0xbd4ac501	-0.049504284
21	0x3bb883e2	0.005630956
22	0x3cf80839	0.030277358
23	0x3d3d8839	0.04627249
24	0x3bb41942	0.005496175
25	0x3c1e8781	0.009675861
26	0x3d0fce56	0.035108887
27	0x3d2040a2	0.03912414
28	0xbd15e693	-0.036596846
29	0xbc6b8220	-0.014374286
30	0x3d3f037b	0.04663418
31	0xbbea0487	-0.007141653
32	0xbd0a89e1	-0.033822898
33	0xbcf0d723	-0.02939946
34	0xbc83cba6	-0.016088318
35	0x3ac74662	0.0015203471
36	0x39d096be	0.00039785163
37	0xbd1c82a3	-0.038210522
38	0x3d52a8a1	0.05143035
39	0x3c0c2ca1	0.008555562
40	0x3d5929db	0.053018432
41	0xbc86a0f7	-0.016434176
42	0x3d1bccb8	0.038037032
43	0x3c8c753d	0.017145747
44	0xbd260bf5	-0.040538747
45	0x3d1b531a	0.03792105
46	0x3d021198	0.03175506
47	0xbd1a4dc4	-0.03767182
48	0x3d2d63c2	0.042331465
49	0xbbcb7f81	-0.006210268
50	0x3ac6f0da	0.001517798
51	0x3b2a5e20	0.0025996044
52	0xbcb5e42e	-0.022203531
53	0x3d696cac	0.056988403
54	0xb9c700fc	-0.0003795697
55	0xbc27531a	-0.010212684
56	0x3d811886	0.063035056
57	0xbd227dd5	-0.039670784
58	0xbcd4ea10	-0.025990516
59	0x3cdb87fa	0.026798237
60	0x3d7996c3	0.060934793
61	0xbc67157f	-0.014104246
62	0xbc9f5d98	-0.019453809
63	0xbcabe1f1	-0.02098176
64	0x3d2bc92e	0.041939907
65	0x3c2b59ec	0.010458451
66	0xbcf7d4c3	-0.03025282
67	0xbc88a1cf	-0.016678719
68	0xbd1791f6	-0.037004434
69	0x3cde1682	0.027110342
70	0xbc5eb45a	-0.013592804
71	0x3c24d822	0.010061296
72	0x3d1c8193	0.03820951
73	0x3d228134	0.039674
74	0xbd2cce2b	-0.042188805
75	0x3d143764	0.036185637
76	0x3d61cfa6	0.05512967
77	0x3d54a5ce	0.051915936
78	0x3d0a3c80	0.033749104
79	0x3c8ca0f1	0.017166587
80	0xbd34ce4c	-0.044142053
81	0xbd1a51cf	-0.037675675
82	0xbd045332	-0.032305904
83	0xbbef8910	-0.0073100403
84	0x3d301123	0.042985093
85	0x3d0229b5	0.031778056
86	0x3c5beac6	0.013422674
87	0xbcbd64e6	-0.023119401
88	0x3bb8978d	0.0056333006
89	0xbc0ab236	-0.00846534
90	0xbcf83f36	-0.030303579
91	0xbcc5620d	-0.024094606
92	0xbc408b43	-0.011751953
93	0x3b0c0c8a	0.0021369779
94	0x3cfa160c	0.03052809
95	0x3c311804	0.010808948
96	0x3cd8dccd	0.026472474
97	0x3a60e3bc	0.0008578857
98	0xbd243a3f	-0.04009461
99	0x3c29e201	0.010368825
100	0x3d22c0aa	0.03973452
101	0xbcfbcb7b	-0.030736675
102	0x3c7275ad	0.014798564
103	0x3d2ecdc7	0.042676713
104	0xbca8a85f	-0.020588098
105	0x3d1d0d8c	0.038342997
106	0xbcaea57a	-0.02131914
107	0x3cd7b13d	0.026329631
108	0x3ccc3e33	0.024932003
109	0x3cf20ab5	0.029546121
110	0xbcbdc543	-0.02316535
111	0x3cddada2	0.027060334
112	0xbd07a389	-0.033114944
113	0xbcb63b7a	-0.022245158
114	0x3cd35770	0.02579853
115	0xbcd265ef	-0.025683371
116	0x3cf8cc84	0.030370958
117	0x3cd594b5	0.026071886
118	0x3d4ae4fd	0.049534786
119	0xbcce42cf	-0.025178341
120	0x3caf58af	0.021404592
121	0x3d2cc9c0	0.04218459
122	0x3c91fc91	0.017820628
123	0xbc2d4c22	-0.0105772335
124	0x3d44eaef	0.048075613
125	0x3d30e9fe	0.043191902
126	0x3cb71b12	0.022351775
127	0xbc16889a	-0.009187842
128	0xbcc7d4d3	-0.024393475
129	0x3d55a080	0.052155018
130	0x3c1d0b3c	0.009585198
131	0xbad7e8d3	-0.0016472585
132	0x3b808f5e	0.0039233407
133	0xbcb98add	-0.022649223
134	0x3ce86a61	0.028371038
135	0x3c8e98e7	0.017406894
136	0x3c533709	0.012891539
137	0xbbd96f8b	-0.0066356114
138	0x3c8ea071	0.017410489
139	0x3d34967d	0.04408883
140	0x3cf7f1f9	0.030266749
141	0x3d412c33	0.047161292
142	0x3c72e7bb	0.014825757
143	0x3ccadbd4	0.024763025
144	0xbc857616	-0.01629166
145	0xbd0191ad	-0.031633068
146	0x3cd8d453	0.026468432
147	0x3bbf745a	0.0058427276
148	0xbb4c74d5	-0.0031197567
149	0x3be1d345	0.0068916404
150	0x3d1e552e	0.038655452
151	0x3c779668	0.015111543
152	0x3d20e0c4	0.039276853
153	0x3d8773b4	0.066138655
154	0x3c395b51	0.011313275
155	0xbc9ff8d5	-0.019527832
156	0xbcfcb11c	-0.030846171
157	0x3d04f978	0.032464474
158	0xbb8e160d	-0.0043361248
159	0x3cd7f834	0.02636347
160	0xbd21fa6b	-0.039545458
161	0x3bce445b	0.0062947697
162	0xbd2690b9	-0.040665362
163	0x3c4d83b4	0.0125436075
164	0xbc93fbbe	-0.018064376
165	0xbd4019fb	-0.046899777
166	0xbb622bd4	-0.0034510987
167	0x3c32688a	0.010889182
168	0xbd0bdbcc	-0.03414516
169	0xbc9d20a5	-0.019180605
170	0x3d1b75b5	0.03795405
171	0xbbffa9a1	-0.0078022038
172	0x3cec33eb	0.02883335
173	0xbcf6a96c	-0.030110084
174	0xbc74eb9f	-0.014948755
175	0x3d2ad4c2	0.041706808
176	0xbcf99bf1	-0.030469866
177	0x3cd7612c	0.026291452
178	0xbca07498	-0.019586846
179	0xbc335813	-0.0109462915
180	0x3cb56aba	0.022145618
181	0x3d1dc420	0.038517118
182	0xbc91f2fb	-0.017816057
183	0x3c5c804d	0.013458324
184	0x3b7f7775	0.0038981114
185	0xbcd755b8	-0.026285991
186	0xbac11f9c	-0.0014734152
187	0x3c22bfcf	0.009933426
188	0xbc943709	-0.018092649
189	0xbc5517a0	-0.013006121
190	0x3d3fd5f4	0.0468349
191	0xbcd73250	-0.026269108
192	0xbb09f247	-0.002104895
193	0x3d2a1aa5	0.041529316
194	0xbc189ed9	-0.009315216
195	0xbd0371b2	-0.03209085
196	0xbcad25eb	-0.021136245
197	0xbd147c93	-0.036251616
198	0x3d1e3e03	0.038633358
199	0xbc5755a2	-0.013142975
200	0x3ce57c9e	0.028013524
201	0x3d106c13	0.035259318
202	0xbbb71b2e	-0.005587957
203	0x3ce38408	0.027772918
204	0x3d48b689	0.049002204
205	0x3b114d18	0.0022171196
206	0x3cb665ce	0.022265341
207	0xbcab5820	-0.020916045
208	0x3d27e6ab	0.040991466
209	0xbd31923c	-0.04335235
210	0xbbbead99	-0.0058190343
211	0x3bfb563a	0.007670191
212	0xbd1754c8	-0.036946088
213	0xbd146388	-0.036227733
214	0x3cde1931	0.027111622
215	0xbd1c85bc	-0.038213477
216	0x3a9f4bfe	0.0012153385
217	0x3d3ad43a	0.04561255
218	0xbd29b21b	-0.04142962
219	0x3d4cd522	0.050007947
220	0x3d30606f	0.043060716
221	0xbc452cd2	-0.012034612
222	0x3c821308	0.015878215
223	0xbc676435	-0.014123012
224	0xbcd7d035	-0.026344398
225	0x3d58c71d	0.052924264
226	0x3cf1ae07	0.029501928
227	0x3d200543	0.039067518
228	0x3d872888	0.065995276
229	0x3c74944b	0.014927934
230	0x3c81107c	0.01575493
231	0xbcbc5745	-0.022990832
232	0xbccf9464	-0.025339313
233	0xbc23b20d	-0.009991181
234	0xbc557aff	-0.013029813
235	0x3d683c3e	0.056698076
236	0xbbb710c0	-0.0055867136
237	0x3b3730f4	0.0027952762
238	0x3d336a5a	0.043802597
239	0xbca6a0dc	-0.020340376
240	0x3c8f0227	0.017457081
241	0xbd040dd5	-0.032239754
242	0x3d35a0d7	0.044342842
243	0xbd3ea66e	-0.04654544
244	0x3ce5f594	0.028071202
245	0x3ba60bf1	0.0050673415
246	0xbc8733a1	-0.01650411
247	0xbc18e3ec	-0.009331685
248	0xbd2ade1c	-0.041715726
249	0xbcbf46b8	-0.023349151
250	0x3d68c27c	0.0568261
251	0x3d761b5c	0.060084686
252	0x3d3aa37d	0.04556607
253	0xbb83c046	-0.0040207235
254	0x3b01e1e6	0.0019818484
255	0x3d11dd57	0.035611477

bias f4 [16]
0	0x3d7ec9f6	0.062204324
1	0xbbd1d9a3	-0.006404118
2	0xbc9748e7	-0.01846738
3	0x3d0c723a	0.034288622
4	0x3cdfaf35	0.027305225
5	0x3d04e5ec	0.032445833
6	0x3ca7704f	0.020439295
7	0x3bfe89a9	0.007767875
8	0xbcdcdde7	-0.02696128
9	0x3d41882f	0.047249015
10	0xbbc8e5fe	-0.006130933
11	0x3d86e60f	0.06586849
12	0xbb5f81fe	-0.003410458
13	0x3d887ebf	0.066648
14	0x3d128ae7	0.035777
15	0x3c1da195	0.009621044
