Baseline/bestKernel_Num_Set_1.pt (torch_old, 254375 bytes, 16 tensors)

weight f4 [32, 3, 3, 3]
000000 9b 47 22 be 27 1e ab bd 7f 58 81 bd a2 ad 1b be
       -0.15847628 -0.083553605 -0.063157074 -0.15202954
000010 0b ca 50 3d 74 36 c0 3d 90 d3 13 bc 26 5f 4f bd
       0.050973933 0.09385386 -0.009022608 -0.05062785
000020 a8 1c c7 3c 8b fd 33 be e9 c5 0f be 41 a2 e1 bc
       0.024305657 -0.17577188 -0.1404034 -0.027543189
000030 a9 3b 18 3e 0d dc a7 bd ea 8d 94 3d 05 bd cb bd
       0.14866509 -0.08196268 0.072536305 -0.09948162
000040 cb 96 9a bd a7 72 54 be 16 e8 3e 3e 2d 9c 5b 3e
       -0.07548293 -0.20746861 0.18643221 0.21446295
000050 a6 fd ba 3c 90 a1 18 3e 73 bb 3c 3e 48 79 fa 3d
       0.022826027 0.14905381 0.18430881 0.12230164
000060 b0 86 00 3e 3a 89 20 be e1 4b 1e be c9 c3 04 be
       0.12551379 -0.15677348 -0.15458633 -0.12965311
000070 07 ec 9f 3d e8 27 18 be 5e 10 04 be 7d 4b 9a bd
       0.078086905 -0.14858973 -0.12896869 -0.075339295
000080 a7 74 23 be 43 0a 98 3c 0b 37 3d 3d 8f 2f c1 bd
       -0.15962468 0.01855958 0.04619507 -0.09432899
000090 93 80 12 3e a6 fa 65 bd 72 49 18 bd 48 73 27 3e
       0.1430686 -0.05614724 -0.037179418 0.1635257
0000a0 99 5f 3a 3e 20 91 aa bb 1b 26 f8 bd 0b 41 a3 bd
       0.1820053 -0.0052052885 -0.12116643 -0.0797139
0000b0 4d 90 29 3d 07 24 c2 3d 5a 84 9f 3d 65 73 d2 bd
       0.04139738 0.09479528 0.07788916 -0.10275916
0000c0 4a d3 4c be 7d de 3e be c8 74 a1 bd 61 68 82 bc
       -0.20002475 -0.1863956 -0.078836024 -0.015918912
0000d0 d6 1f d6 bd 3b 1a 2e be 91 48 2e 3d c8 b7 04 be
       -0.10455291 -0.17002194 0.042549673 -0.12960732
0000e0 1c 96 00 be 73 94 09 be 8a 74 f8 bc cd 1e 42 3e
       -0.12557262 -0.13435535 -0.030329008 0.18957062
0000f0 7d 52 c4 3d d4 39 1b bb bf fe 71 3d d9 88 6c 3d
       0.09586046 -0.0023685591 0.059080835 0.057747696
000100 45 8e 92 bc b2 a6 32 be a3 87 0d be 42 e5 19 be
       -0.017890105 -0.17446402 -0.13821273 -0.15028861
000110 3c 49 cb bc 2e 91 49 be c8 9a 62 bd 5f 40 ba bd
       -0.024815194 -0.19684288 -0.055323392 -0.09094309
000120 c1 6c 5d 3e 77 28 3c 3e d7 54 0e 3e 9c 6e 1a 3d
       0.21623518 0.18374811 0.13899551 0.03770314
000130 1f 14 11 bd ba 44 9b 3d 93 fb d8 bd c2 51 62 bd
       -0.03541958 0.07581468 -0.10594859 -0.05525375
000140 40 ff 42 bc 6f 15 1e bd ac 3c 32 be 04 b9 a4 3d
       -0.011901677 -0.03859466 -0.17405957 0.080431014
000150 48 96 25 3e 72 8b cf bd 03 3b 5d 3d 84 ee 96 bc
       0.16170609 -0.10134019 0.054011356 -0.01842428
000160 b0 79 5a bb a3 38 65 3c 61 c8 29 3e 2a 28 fd 3c
       -0.0033336692 0.013990554 0.16580345 0.03090294
000170 20 8e fd bd c2 9b 94 bd cd 1d cb 3d 1c 48 77 3d
       -0.12380624 -0.07256271 0.099177934 0.060371503
000180 14 bd cc 3b b6 73 71 bc 05 6c 93 bd 14 87 5e bd
       0.006248126 -0.01473706 -0.071983375 -0.05432804
000190 cd 06 b4 bd a4 ec 39 3d 7d 8d 8c 3d a6 d1 25 3e
       -0.0879036 0.045391694 0.06862924 0.16193256
0001a0 72 2f ee bc 94 17 e5 3c cc 42 0e 3e 13 3d c9 3d
       -0.029075358 0.027965344 0.13892668 0.09826102
0001b0 5f 5d b0 3c 86 0c 68 3d c8 bb f9 3b 1d 2c 2c be
       0.021528898 0.05665257 0.007621262 -0.16813703
0001c0 51 23 a4 3b 08 3c 35 bd a2 c8 2e 3e ff 7e 2f 3e
       0.005009093 -0.044246703 0.17068723 0.17138289
0001d0 2d 78 13 3d c1 85 2e 3e 43 12 c8 bd 33 50 37 3e
       0.03600328 0.1704321 -0.09769108 0.17901687
0001e0 b4 d7 26 3e f9 24 b8 bb 86 b2 11 be 27 d2 82 bd
       0.16293222 -0.005619642 -0.14228258 -0.0638774
0001f0 65 7b 54 bd b1 f2 48 3c b1 7f 47 be 5f 36 9d 3c
       -0.05187549 0.012264893 -0.19482304 0.019190965
000200 7f 4f c8 bd a7 3c 8e bd 9b a9 ee bd dd b9 6d bd
       -0.09780788 -0.06945162 -0.116534434 -0.05803858
000210 bb ff 4b be 2b 02 f3 bd a4 e4 c8 39 29 4a 06 3e
       -0.19921772 -0.11865648 0.00038317323 0.13114227
000220 4b ab 3b 3e c8 18 07 be c0 92 ac 3d 29 86 c9 bd
       0.18327062 -0.13193047 0.08426428 -0.09840042
000230 33 01 08 be 99 b6 82 bb 25 d6 c3 bd bd eb 19 be
       -0.13281707 -0.0039890525 -0.09562329 -0.15031333
000240 68 e1 4c be 70 08 17 be 6e 8d 14 3e 85 37 b3 3d
       -0.2000786 -0.14749312 0.14507076 0.08750824
000250 4f 2d c2 bd 38 ca 10 be 1c 6f 2d be 08 3b 09 be
       -0.09481298 -0.1413964 -0.16936916 -0.13401425
000260 37 21 cb bd 60 99 0c 3e 2e 03 a9 3d 1d f0 79 bd
       -0.099184446 0.13730383 0.082525596 -0.061020005
000270 73 b0 1e 3e 76 bc c9 bd 25 93 10 be 6c d8 84 3d
       0.15496998 -0.09850399 -0.14118631 0.06486592
000280 dd 86 ad bd 9b 56 99 3d 45 91 35 3e 16 96 98 bd
       -0.08472989 0.07487222 0.17731197 -0.074505016
000290 17 49 f0 bd f2 2c b3 3d 26 09 21 be 96 4a 3f 3e
       -0.11732691 0.08748807 -0.15726146 0.18680796
0002a0 78 69 98 bd bd 9d df 3d 38 03 0b be c5 ed e3 bd
       -0.074419916 0.10918758 -0.13575447 -0.11129335
0002b0 b0 a1 12 3d 92 e4 a5 3d e3 38 2e 3e 01 51 37 3e
       0.03579873 0.08100237 0.17013888 0.17901994
0002c0 d0 40 88 3b 9e ae d5 ba 6f 2c 5e 3d e7 34 c2 bc
       0.004158117 -0.001630265 0.054241594 -0.023706866
0002d0 23 b4 0c 3d 24 97 1e be 1a a7 05 be e5 07 23 3e
       0.03435148 -0.15487343 -0.13052025 0.1592098
0002e0 e1 40 ae bd ee 37 37 3e 76 53 47 3d d3 fa 97 3d
       -0.085084684 0.17892429 0.04866358 0.07420888
0002f0 f2 22 4f 3e 78 f2 bd bd f3 50 88 bc 96 f9 3f 3d
       0.20228174 -0.09274763 -0.016640162 0.046868883
000300 e0 8a a2 3d 37 bd 31 be c1 38 a5 3d 34 22 cc bd
       0.079366446 -0.17357336 0.080674656 -0.09967461
000310 3a ee 1c 3d b7 d8 11 3e 26 cd 8b bc be c6 a3 ba
       0.038313128 0.14242826 -0.017065596 -0.0012495143
000320 0e bb 69 bc a0 cf 2b 3e b3 53 f5 3d dd 5e 1b 3d
       -0.014265789 0.16778421 0.11978855 0.037932266
000330 22 5d e8 bd 81 e0 c9 bd 51 c6 1e 3e 26 b4 26 3e
       -0.11345889 -0.09857274 0.15505339 0.16279659
000340 eb 32 0b 3e 7d 3b 00 be 03 2d 32 3e 51 f8 be 3b
       0.13593642 -0.12522693 0.17399983 0.0058279415
000350 80 7a 2a 3e 2e 5f 44 3e b3 95 3b 3d bf 34 61 bd
       0.16648293 0.19176933 0.04579706 -0.054981943
000360 e8 84 49 3e 82 c8 ac bd 6c d2 11 3e d9 a5 29 be
       0.19679606 -0.08436681 0.14240426 -0.16567172
000370 ae 80 2a bd 07 aa 18 be 45 4e 89 bd e2 33 ce 3d
       -0.041626625 -0.1490861 -0.06704382 0.100684896
000380 ad e6 f1 bd d5 6a 3c be 3b f2 f6 3d 9c 77 ac 3d
       -0.11811576 -0.18400128 0.120579205 0.08421251
000390 16 b0 a3 bc 51 38 1b be 48 55 89 bd d4 47 a1 bd
       -0.019981425 -0.15158202 -0.06705719 -0.07875028
0003a0 83 b2 da 3d f0 f9 9a bd 2b 55 0b bd 6b a5 ea bd
       0.1067858 -0.07567203 -0.03401677 -0.11457332
0003b0 5a 74 8d bd b3 cd 01 3e e5 8a 16 3e 83 ce 4f 3d
       -0.06906958 0.12676124 0.14701422 0.050734054
0003c0 96 80 49 bd 5a 15 55 3e 43 26 7a 3d 34 df 94 bd
       -0.049194895 0.20808926 0.061071645 -0.07269135
0003d0 90 4c 85 bd 0a 88 d1 bc 23 6e bd 3d 31 ba 92 3d
       -0.06508744 -0.025577564 0.092495225 0.071644194
0003e0 c3 fe 0f 3e f1 97 ee bb fc 6a 24 3e 39 5c 9d bd
       0.14062028 -0.0072812964 0.16056436 -0.07683606
0003f0 0a 06 ba bd c6 0c 9b bd 81 03 40 be 12 a0 01 be
       -0.09083183 -0.07570796 -0.18751337 -0.12658718

bias f4 [32]
000000 e0 02 a7 bd 76 64 0b bd a9 40 2f be 03 ca 22 3e
       -0.08154845 -0.034031354 -0.1711451 0.15897374
000010 3a 88 25 bd 62 b0 11 be 51 e7 a5 3b 20 6e 5d 3c
       -0.04041312 -0.14227441 0.0050629755 0.013515025
000020 b0 30 8a 3d 43 c3 80 bc 9c f0 fb 3d 5e 59 76 bd
       0.06747568 -0.015718108 0.12301752 -0.06014382
000030 03 a5 30 bd ac fb 32 bd 02 86 1f 3d 68 d9 25 3e
       -0.043126117 -0.043697044 0.03894616 0.16196215
000040 8c f1 23 bc 3d 49 1e 3e 16 ca 1e 3e 48 4d a6 bd
       -0.01000632 0.15457626 0.15506777 -0.08120209
000050 f2 5c 3e bc 6c d0 a7 bd 30 b9 a8 3d 53 ce a6 bd
       -0.01161884 -0.0819405 0.08238447 -0.08144822
000060 74 16 a0 3d 27 68 a1 3c 88 3b 01 be 52 cb fb bd
       0.078167826 0.019702984 -0.12620366 -0.1229464
000070 2b 8e 38 be 33 64 b6 bd 0c 69 78 3d a3 7b 6b 3c
       -0.18022983 -0.0890583 0.060647056 0.014372739

weight f4 [32, 32, 3, 3]
000000 68 1f 57 3d 81 2f 26 bd 97 2e 20 3c 15 b3 1a bd
       0.052520186 -0.040572647 0.009776733 -0.037768442
000010 5b 48 55 3c 6b 77 08 3d 19 fe 0f bd 4c bd 8f 3d
       0.013017739 0.03331701 -0.035154436 0.070185274
000020 b0 73 cc 3a 25 e7 f3 3c 2b 5f 87 bc 8a b4 54 3c
       0.0015598442 0.029773304 -0.016524872 0.012982497
000030 c7 80 0f 3d 8c 21 0e bd 11 23 92 bc ce f4 54 3c
       0.03503492 -0.03469996 -0.017838987 0.012997819
000040 fb ed 5d bd 10 ce a7 3c bb 73 fc bc 20 10 77 3d
       -0.054182034 0.020484 -0.030816903 0.060318112
000050 20 45 03 bd 3b da 75 bc 5e 86 59 3d 3a 97 8d bc
       -0.032048345 -0.0150056435 0.05310666 -0.017284025
000060 b5 5d 84 3d 38 40 5c 3d ca a1 88 3d a4 16 4c bd
       0.06463186 0.05377218 0.06671484 -0.04982628
000070 5b 4c 16 3c bf f0 48 bc c3 9b ed 3c 19 ac ee bc
       0.009173478 -0.01226443 0.029004937 -0.029134797
000080 82 aa 26 3d 61 f8 0a 3c a0 e3 8b bc d1 ed 14 bd
       0.040689953 0.00848207 -0.017076313 -0.036359612
000090 01 94 0f 3d 83 46 6c bc ef f7 46 3d d2 dc 05 3c
       0.035053257 -0.014421108 0.04857629 0.008170323
0000a0 75 b4 b5 3c 53 17 cb bb d7 42 3b bc c2 84 b0 bc
       0.022180775 -0.006197849 -0.01142951 -0.021547679
0000b0 56 f7 50 bd 1b ff 0d 3d a1 c7 02 bd 09 70 1f 3d
       -0.051017128 0.034667116 -0.031928662 0.038925204
0000c0 42 f2 8f bc 2f ba 30 3d 71 81 5a 3d 7f 84 de bc
       -0.017571572 0.04314631 0.0533461 -0.027162788
0000d0 82 8e 66 3d d4 a5 04 3c cb 38 07 bd a5 99 12 3d
       0.05628825 0.008096177 -0.033013146 0.035791058
0000e0 01 07 3f 3d cd 51 8a 3d 5d a6 20 bd e2 bf 8d 3d
       0.04663754 0.067538835 -0.039221156 0.06921364
0000f0 4c 3a 56 3d a0 ca 86 3d fc c9 37 3d 58 5a 91 bc
       0.05230169 0.065816164 0.04487036 -0.017743275
000100 d1 fd 71 3d fb b0 7b 3d db 9d 24 bc eb 83 a9 3b
       0.05907995 0.06144808 -0.010047401 0.0051731966
000110 6d cf 7d 3d 8d b3 77 3d f3 26 5d 3d 2b 3c 7c 3d
       0.061965395 0.060473967 0.053992223 0.06158082
000120 a2 6b 67 bc 2a 29 46 3b 1b 33 e9 bb d8 c6 3c 3d
       -0.014124783 0.0030236938 -0.007116688 0.04608807
000130 d5 90 f5 3c 8e 5a f7 bc 70 12 86 3b 0f 6b fd bc
       0.029976288 -0.030194547 0.0040915534 -0.030934839
000140 35 84 26 bd 3b 1c 6f 3d fe eb bd bc 1a 4a 07 3d
       -0.040653426 0.058376532 -0.023183819 0.033029653
000150 af f3 b3 bb c1 66 52 bb 78 3e 15 3c cc 5a 5d 3d
       -0.005491696 -0.0032104703 0.009109132 0.05404167
000160 0f 5b 95 3a 1f 00 6e 3d 43 3d 25 3d a4 8d 39 3d
       0.0011394935 0.058105584 0.040341627 0.045301095
000170 de 99 3b bd 72 8c c2 bc a5 52 35 bd c6 14 a7 bb
       -0.045801036 -0.02374861 -0.04426827 -0.005098912
000180 3c c6 1d bc ec fa 8e 3c 26 d1 73 3d 3c e8 0f 3d
       -0.009629782 0.017453633 0.05952563 0.035133585
000190 b8 d3 fc bc c4 31 e9 bc 1a 2d 72 3d b5 30 b2 3c
       -0.030862674 -0.028466113 0.059125043 0.021751741
0001a0 87 53 0b 3d 8a 6e 7e bc 58 8e 19 3c 04 aa 0e 3d
       0.034015205 -0.015529284 0.009372316 0.03483011
0001b0 58 19 01 bd a5 b8 3d 3d 38 f3 16 3d ca df b6 bc
       -0.03151831 0.04631867 0.036853045 -0.022323508
0001c0 e1 a8 46 bc 08 78 0a 3a e1 7b c3 3c d4 82 dc bb
       -0.012125225 0.0005282168 0.023862781 -0.006729463
0001d0 c3 a7 93 3d 7e 7f 55 bd d6 a9 cc bc 40 36 f6 bc
       0.072097324 -0.05212354 -0.024983328 -0.030055165
0001e0 e6 ed 84 3c e6 3f 86 3c f9 25 24 bc 73 d6 3c 3d
       0.01622672 0.016387891 -0.010018819 0.046102952
0001f0 5c 0e 2d bd 5f 94 d7 3c 48 34 dc bc f8 cd d2 bb
       -0.042250022 0.026315866 -0.026880398 -0.006433245
000200 06 c1 4d bd 50 98 37 bd ad 06 3c bd d3 c6 0c 3d
       -0.05023291 -0.04482299 -0.045904804 0.0343693
000210 1f c0 9f bc c4 b6 1b 3d 36 88 ed bc 82 e2 94 bc
       -0.01950079 0.038016096 -0.028995614 -0.018174414
000220 f9 7f fb bb d3 bd cb 3c 0b 10 c9 bc 75 5b 87 3c
       -0.0076751676 0.024870789 -0.024543783 0.016523102
000230 fe be 4d 3a 00 0e 70 3c 3f 26 a0 3c fd 33 9c 3c
       0.00078485894 0.014651775 0.019549487 0.019067759
000240 d2 39 31 bc ee bc a9 bb 01 8d f9 3c 07 4b 1f 3d
       -0.010817008 -0.005179993 0.030462744 0.03888991
000250 72 b5 b8 3b fb f8 1d 3d b6 2c f4 bc 77 76 3f 3d
       0.0056368643 0.038567524 -0.029806476 0.046743836
000260 fb 08 bb 3b e3 b0 12 bd 6a c6 ae bc 5d 92 1c bd
       0.0057078577 -0.035813224 -0.021334846 -0.03822552
000270 6e 57 80 3c 03 66 df bc b5 d5 18 bc 24 19 cf ba
       0.01566669 -0.027270323 -0.0093282955 -0.0015800339
000280 2e 9f df bc a9 e0 d0 3b cf 4e 0f ba d7 19 de 3c
       -0.027297582 0.006374438 -0.00054667605 0.02711193
000290 58 f1 4e 3d df 58 fa bc 74 b6 25 3d 79 81 e5 3b
       0.050523132 -0.030559955 0.040457204 0.0070039597
0002a0 4d 7e e8 bc 51 18 8e bc 61 2e c3 3c d0 c9 ca bb
       -0.028380537 -0.01734558 0.023825826 -0.0061886087
0002b0 f3 07 51 bc f9 cb f6 bc 51 fe 48 3c 5d 64 b3 3b
       -0.012758243 -0.030126559 0.012267665 0.0054746107
0002c0 8e 87 5a bd fa ac 99 bc fa a5 a3 bc b8 f2 20 bd
       -0.05335193 -0.01875924 -0.019976605 -0.039293975
0002d0 51 7e ef bc b3 2d 23 bd 6b b8 80 3d 5f 28 51 bd
       -0.029235037 -0.039838504 0.06285175 -0.05106389
0002e0 ea 43 7d 3d 9e d6 23 bd e8 84 19 bc 8d f1 65 bc
       0.061832346 -0.039999597 -0.009370066 -0.014034641
0002f0 ef 5c d6 bc 18 4e e1 3c 3e e5 33 3d 83 16 f8 bc
       -0.026167361 0.027503058 0.043919794 -0.030284172
000300 ce 4d 4e bc a4 c7 39 3d fc 19 05 3c 6e 4c db 3c
       -0.012591792 0.045356408 0.008123871 0.026769843
000310 04 84 36 3d 4a 02 b3 bb c8 24 e1 bc 83 a2 ea 3c
       0.044559494 -0.0054629194 -0.027483359 0.028641945
000320 2d 39 80 bc 96 35 02 bd d4 7b b0 bc e5 7a 9f bc
       -0.015652264 -0.031789385 -0.02154342 -0.01946778
000330 1c 32 86 3d ca 08 9b 3c e8 35 08 3d 82 f2 5b 3c
       0.06552526 0.01892509 0.033254534 0.013424518
000340 0a 55 08 bd ed 4c 48 3d 90 a4 68 bb 5b a7 0b bc
       -0.033284225 0.048901487 -0.0035498478 -0.008523787
000350 bd ba 5f 3d 2f 18 ca bc d3 56 9a 3c 54 76 31 bd
       0.054621447 -0.024669735 0.01884023 -0.043325737
000360 45 6c 1e 3d 00 c6 0e 3d b6 35 f3 bc c8 d3 46 3d
       0.038677473 0.034856796 -0.029688697 0.048541814
000370 fa b4 c2 3c d2 d8 53 bc 29 81 80 3d 0b 60 29 3d
       0.023767937 -0.012930112 0.06274635 0.04135136
000380 a7 38 2c 3d a2 3c 7f bc fd 51 c3 bc ad ad c2 bc
       0.042046215 -0.015578421 -0.023842806 -0.023764456
000390 f7 07 00 3d 3e 87 d7 3c 16 e8 c9 bc 08 94 80 3d
       0.031257596 0.026309606 -0.0246468 0.06278235
0003a0 f0 fd 3b 3d 10 f3 3c bc 91 69 bd 3c 9b 22 f1 bc
       0.04589647 -0.01153256 0.023121627 -0.029435446
0003b0 ac 25 2b 3c 31 6c 39 3d 37 96 5a bd ee e5 08 bd
       0.010445993 0.045269195 -0.053365912 -0.033422403
0003c0 04 d1 64 bc 58 0a b4 ba 97 03 5e bd 89 c8 07 bd
       -0.013965849 -0.0013735993 -0.054202642 -0.03315023
0003d0 95 4f 91 3a 58 3b e2 ba fa f9 94 3c 6f d7 6e 3c
       0.0011086339 -0.0017260117 0.018185604 0.014577731
0003e0 01 a1 9e 3c 55 54 23 3c 52 65 69 3c d1 16 95 3b
       0.019363882 0.009968837 0.014245348 0.004549839
0003f0 20 04 d3 3c c6 eb 48 3d e8 aa ba bc 55 59 c3 bc
       0.025758803 0.049052976 -0.022786573 -0.023846308

bias f4 [32]
000000 d6 ab 29 3d a8 38 06 3d cb 0c 28 3d 07 33 e6 bc
       0.04142364 0.032768875 0.041027825 -0.028100504
000010 44 3e 77 bc 03 02 c1 3c 7d 12 99 3c c8 d2 2b 3c
       -0.015090529 0.02356053 0.018685574 0.010487266
000020 dd e5 71 3b ed b1 56 bd 27 b6 cd 3c 22 8b ee bc
       0.003691069 -0.052415777 0.025111271 -0.029119078
000030 d8 9a 33 bd 95 ec 79 3d d6 12 0b 3d 4f ab 13 3d
       -0.043848842 0.061016638 0.03395351 0.036052044
000040 65 67 94 bc 4a ec e4 3c 1d 00 40 3c 0e 28 4f 3d
       -0.018115709 0.027944703 0.011718777 0.05057531
000050 04 ed 85 3b 11 c5 1c 3d ae bb 8f bc a8 81 46 3d
       0.0040870924 0.038273875 -0.017545547 0.048463494
000060 06 01 79 3d c8 c0 2e 3c a3 69 22 bd bc 87 53 3b
       0.06079199 0.01066608 -0.039651524 0.003227695
000070 04 40 60 3d a1 89 2e bd 04 f3 a1 bc 9a 2f ca 3c
       0.05474855 -0.042611722 -0.0197692 0.024680901

weight f4 [32, 32, 3, 3]
000000 dd 70 ce 3c 20 e7 8f 3d d1 3c d3 3c 53 53 96 3c
       0.025200302 0.070265055 0.025785835 0.018350279
000010 92 80 cd 3c ca ce f9 3b fd d2 0e bd 41 63 0d ba
       0.025085721 0.007623528 -0.034869183 -0.0005393513
000020 21 4c 04 bd 9c b1 18 3d 44 5b 85 3c 4f 28 eb 3c
       -0.032299165 0.037278756 0.01627887 0.028705744
000030 16 fa 33 ba 33 04 af bc 2c f7 ad bc 41 80 b6 bb
       -0.0006865574 -0.021364307 -0.021236025 -0.0055694883
000040 39 18 a2 3c 79 ca eb bc 0f 51 0d bd a4 f0 24 3d
       0.01978694 -0.02878307 -0.03450113 0.040268555
000050 9b 17 93 bc a7 35 11 3d 86 34 72 3d 98 85 6f 3d
       -0.017955592 0.035451557 0.05913212 0.058477014
000060 05 77 2e bd 53 f8 f8 3b fb 74 2e bd d6 ef 9a 3b
       -0.042593975 0.007597962 -0.04259203 0.0047282977
000070 b4 9c 39 3c 05 d0 b4 bc a2 4d b1 3c e4 05 42 bc
       0.011328865 -0.022071848 0.021643464 -0.011842225
000080 e9 1f 23 3d 6f ce 8c 3b ff 23 3a 3d 3f 83 36 3d
       0.039825354 0.0042970697 0.045444485 0.04455876
000090 0e 37 2a 3c 6f c2 2c 3a 61 fb 0f bd 62 8c 2f bd
       0.010389103 0.0006590252 -0.035151843 -0.04285849
0000a0 a4 56 fb 3c 52 3b da 3c f7 f4 04 3b 69 27 09 3d
       0.030680962 0.026639614 0.0020287612 0.03348485
0000b0 9a 9c 90 3c 5f f7 34 3d 98 af cd bb 44 c9 7b 3c
       0.017652798 0.044181224 -0.006277036 0.01536781
0000c0 48 26 34 bd 60 08 3c bd e1 31 16 3d 2e 3b ca bc
       -0.04398182 -0.045906425 0.036668662 -0.024686422
0000d0 e5 42 61 3d ba 7b 17 bd bf fd 41 bd 61 ad 42 bd
       0.054995436 -0.03698323 -0.04736113 -0.04752863
0000e0 4a 51 2f 3d 2a 22 04 bd 33 2b 41 bd 1a fc 02 3d
       0.042802133 -0.032259144 -0.04716034 0.031978704
0000f0 30 5a b5 bb af 8b 47 bd 45 06 4c 3d c2 d9 4b 3d
       -0.005534433 -0.048717197 0.049810667 0.049768217
000100 85 fa 4a 3d ab b8 29 3d da 17 15 bd 9a a4 a8 bc
       0.04955532 0.04143588 -0.0363997 -0.0205863
000110 14 ae 93 bc ac 58 33 bd 30 d1 3f 3d 85 32 97 bc
       -0.018027343 -0.043785736 0.046830356 -0.018456707
000120 e0 9d aa 3c 0d 7f f0 bc aa 3e 5e 3d 0f b2 32 3d
       0.020827234 -0.029357458 0.05425898 0.04362684
000130 f6 11 2e 3d c4 ff fa 3c 08 b5 53 3d 21 2f b0 3c
       0.042497598 0.030639537 0.051686317 0.021506848
000140 bc 06 51 3c 5e 60 a3 bb 65 3b 5b 3d 24 28 3a bd
       0.012757953 -0.004985853 0.05352344 -0.045448437
000150 08 b1 56 3d 01 ed f7 3b 0c 44 94 3b 8c 72 dc bc
       0.052414924 0.007566095 0.0045247134 -0.026910089
000160 b8 f4 5d bc cd a8 ad 3c f5 43 e5 bc 74 3b cc 3c
       -0.013547115 0.021198655 -0.027986506 0.024930693
000170 38 b1 2d 3c 94 fd 4c bd 55 cf d9 3c 99 9b 83 bc
       0.010601334 -0.05004652 0.026588121 -0.016065406
000180 1e 9e f9 bc 37 c2 97 bc 60 d0 cf 3c 98 d7 68 bd
       -0.030470904 -0.018525226 0.025367916 -0.05684623
000190 bf 77 28 bd f4 f8 cf 3c 75 cc 83 bc 87 05 14 bc
       -0.041129824 0.025387265 -0.016088704 -0.009034521
0001a0 66 4f 4f bd b2 52 03 3c 7c 3b fb 3c f5 69 94 bc
       -0.05061283 0.008015322 0.030668013 -0.01811693
0001b0 b8 f0 37 3c 30 49 ce 3b b6 83 95 bb 3c 41 65 3d
       0.011226825 0.0062953457 -0.0045628203 0.055970415
0001c0 c0 83 b3 3c c1 15 8c 3c be 05 94 3b c0 39 c3 3b
       0.02191341 0.017100217 0.004517286 0.005957812
0001d0 23 6d 21 3d ee 33 1a bc 89 c3 01 ba c9 25 09 3d
       0.03941072 -0.009411795 -0.00049500965 0.0334833
0001e0 9d 54 ee 3c cc af 0e bd b5 36 7f bd ca 2b 1c 3b
       0.029093081 -0.03483562 -0.062308032 0.0023829811
0001f0 bd c7 5d bd 7c 7b 95 bd 4e af 2f 3d a4 99 3d bd
       -0.054145563 -0.072989434 0.042891793 -0.0462891
000200 f2 c5 79 3d 07 ad 50 bd ce df 36 bd 2f 35 18 3d
       0.06097979 -0.05094626 -0.04464703 0.037160095
000210 6a d2 06 3c dd f3 b2 bc 0f b4 d9 3c 72 4b 06 bd
       0.008228878 -0.021844799 0.026575116 -0.032786794
000220 cf d1 c6 bc 4e 94 53 bd 9b 64 a8 bc 82 92 25 bd
       -0.024269966 -0.051655106 -0.020555785 -0.040422924
000230 20 72 79 3d c7 e3 7e bc ef f4 a5 3c 01 09 91 bc
       0.060899854 -0.015557236 0.020258395 -0.017704489
000240 79 67 ef bb d4 88 42 3d dd 68 97 3c 2c d2 12 3d
       -0.007306036 0.04749377 0.01848262 0.035844967
000250 c7 44 c9 3c fc 9e 30 bd 5b e3 2e 3d f2 2e 5d 3d
       0.024568928 -0.04312037 0.04269729 0.05399985
000260 4e 66 bc 3c 44 4b 47 3d 08 87 d2 bc 97 18 14 bd
       0.022998001 0.048655763 -0.025699154 -0.036156263
000270 fb e3 38 bd 2d 4d d0 bb 76 bb 45 bb e5 50 fe bc
       -0.045139294 -0.0063568563 -0.003017155 -0.031044433
000280 d8 82 88 bc 0f 34 73 bc ae 92 8d 3d 1a 98 f2 3b
       -0.016663954 -0.014843955 0.069127426 0.007403386
000290 62 ca 78 3d e2 0e 8e 3c b4 4e 08 3d 92 0a 42 3d
       0.060739882 0.017341081 0.033278182 0.047373362
0002a0 14 90 29 bd ad 19 24 bc b0 18 f5 bc 8d 61 98 3d
       -0.04139717 -0.010015887 -0.029918998 0.07440481
0002b0 ee 8f 55 3c f6 a9 0a bd 94 10 f5 bc db f7 98 3c
       0.013034804 -0.033853494 -0.029915132 0.018672874
0002c0 0e fc 04 3b ca ca 5c bc 95 b3 4e bd 80 0a 28 bd
       0.0020291838 -0.013476083 -0.05046423 -0.04102564
0002d0 39 cf 52 3c b9 87 52 bd 18 de f7 bb 9a c1 07 3d
       0.012866789 -0.051398966 -0.0075643174 0.033143617
0002e0 2d eb f3 3c 97 a4 b3 3b ae 47 a3 3b f6 c9 50 3c
       0.029775226 0.005482267 0.00498291 0.012743464
0002f0 bf c8 b3 3c 93 3d 6e 3d e0 6f de 3c 78 60 11 3d
       0.02194631 0.05816419 0.027152956 0.03549239
000300 e6 d1 47 3d 5c 8d 1c bd 3c a8 e8 bc 73 8c 03 3d
       0.04878416 -0.03822075 -0.028400533 0.032116365
000310 27 36 71 3c 05 7c e8 bc 6e fc 12 3c 78 81 88 bd
       0.014722384 -0.02837945 0.008971317 -0.06665319
000320 84 94 eb bc 35 36 d7 3c 99 5e b1 bb e4 cc 19 bd
       -0.028757341 0.026270965 -0.0054128882 -0.037548915
000330 6c db bc 3c b1 2c 76 bb be 98 dc bb fe 76 52 bd
       0.023053847 -0.003756326 -0.0067320755 -0.05138301
000340 d2 eb ae bc e9 1f 82 3b 4a b0 9c bc 0e cb 09 3b
       -0.021352682 0.003971089 -0.01912703 0.002102557
000350 96 55 30 bd f2 6e 08 3d 2f 51 12 3d c0 32 03 3d
       -0.04305037 0.03330893 0.035721954 0.03203082
000360 72 f9 8f bb dd 6f 56 bd 52 bd 95 bc e3 99 83 ba
       -0.00439375 -0.052352775 -0.018278752 -0.0010040369
000370 f3 21 3d bd 2e ed 6a 3d 9b a8 c9 3c 94 c8 61 3d
       -0.046174955 0.0573551 0.02461653 0.055122927
000380 38 a3 35 bd c6 60 d8 bc 1b 47 8e 3c a7 94 87 3b
       -0.04434511 -0.026413333 0.01736789 0.004137594
000390 33 16 df bc c5 0a 52 3d 5d 3a 06 3d ab 03 54 3b
       -0.027232265 0.051279802 0.032770503 0.003235082
0003a0 92 5c 83 3d 68 64 48 bd 56 e7 55 bd e0 cf 5d 3c
       0.06414141 -0.04892388 -0.052222572 0.013538331
0003b0 57 ff 63 3d 43 bb 10 3d 40 28 f7 bc 48 a5 37 3d
       0.055663433 0.035334837 -0.03017056 0.04483536
0003c0 80 34 07 3d 9a 70 c9 3b bb 3b 26 3d 2a 9b 9f 39
       0.033009052 0.0061474564 0.040584307 0.0003044245
0003d0 1b 72 4c bc f7 b6 f8 bc a8 e9 2f bd d9 6e 49 bd
       -0.012478377 -0.030360682 -0.04294744 -0.04917798
0003e0 03 11 b2 bc 06 e5 56 bd da 75 4c 3c 68 46 98 ba
       -0.021736627 -0.052464508 0.01247927 -0.0011617662
0003f0 c0 c5 64 bd 39 4c 2a bd 94 27 35 3d 4f 16 ec bc
       -0.05585265 -0.041576598 0.044227198 -0.028819231

bias f4 [32]
000000 5c 14 d1 3c d8 b2 2d bc 81 fe 5a 3c c2 72 e3 bb
       0.025522403 -0.010601722 0.0133663425 -0.0069411704
000010 fb 6c 28 bc 82 d2 44 bd 29 4e 1d 3d 8d f4 2b bd
       -0.010279889 -0.04805232 0.038404617 -0.04198127
000020 09 15 51 3c 00 ca 31 3d 6a 6f 7f 3d 9a 44 c2 bc
       0.012761363 0.043405533 0.062362112 -0.023714352
000030 dd af 62 3d cb bd ff bc 63 b2 d7 bc 54 12 e5 3b
       0.055343498 -0.03121843 -0.026330179 0.0069907103
000040 1a ef 9c bc ac 36 33 bd 64 1d 4c 3c 75 34 63 3d
       -0.019156981 -0.04375331 0.012458179 0.05546995
000050 f6 7e 37 3d 96 b5 e8 3c c2 e3 a8 3c 64 83 34 3d
       0.044798814 0.0284069 0.020616416 0.044070616
000060 37 39 a5 bc 5f 83 24 3d 12 3f a3 3c 4d 9a 47 3d
       -0.020168884 0.040164348 0.019927535 0.048731137
000070 d6 f0 56 bd c8 58 5f 3c 96 4c e1 b9 a9 e5 2c bc
       -0.052475773 0.013632007 -0.00042972405 -0.010552802

weight f4 [32, 32, 3, 3]
000000 79 57 17 bd b9 78 11 ba 22 4c f7 bb dc 25 5b bc
       -0.036948655 -0.00055493 -0.0075469175 -0.013375726
000010 9c 97 63 3d de 02 3d bd db 4a 5f 3c a5 4d 0a 3d
       0.055564508 -0.046145312 0.013628687 0.033765454
000020 05 91 95 3c e7 ea 3d 3d 30 27 58 3c 69 d7 2d 3d
       0.018257627 0.0463666 0.013192937 0.04244176
000030 14 5e 0b 3d b1 f4 05 bd 46 ac 35 bd d3 d6 bb bc
       0.034025267 -0.03270406 -0.044353746 -0.022929585
000040 9d e7 e0 bc a9 81 19 bd 2d f9 b2 3c f6 cb 15 bd
       -0.027454192 -0.03747717 0.021847332 -0.036571465
000050 50 d1 09 bd 4f 1f 2f bc ed 0c 3a bd 83 1b db bc
       -0.03364688 -0.010688617 -0.045422483 -0.026746517
000060 c8 d2 3e bb 60 a0 6e 3c 3e 07 14 3d 8f 04 59 3d
       -0.0029117335 0.014564604 0.03613972 0.052982863
000070 04 09 03 bc 4e fa 05 bd 33 78 0d bd af f0 1e bd
       -0.007997755 -0.032709412 -0.03453846 -0.038803753
000080 cd be 23 3d 7d cb 58 3d 69 37 7f 3c e1 da 67 3c
       0.039976884 0.052928437 0.015577176 0.014151306
000090 3d c6 dd 3c 5f 4b 43 3d 2f c7 26 3d e0 b4 43 3d
       0.027072066 0.0476793 0.0407173 0.047779918
0000a0 c7 ea eb 3c 19 b0 82 3c ed c5 d1 bb b2 21 3c 3d
       0.028798474 0.01595311 -0.0064017684 0.04593057
0000b0 0e 61 d6 3c c1 a4 34 3d da 05 82 3d 08 62 53 3d
       0.026169326 0.044102434 0.06348772 0.05160716
0000c0 7d 47 80 3d 0c 11 58 3d 7a 3c c2 bb 5f 1e 5b bc
       0.06263635 0.052750632 -0.0059276195 -0.01337394
0000d0 bc b5 b2 3c 5e 73 3c 3d 83 49 28 bd 16 5e d2 3c
       0.021815173 0.04600846 -0.04108573 0.02567963
0000e0 c8 dc 0e 3d 93 92 a0 bc ff 22 ab bc 84 e0 95 bc
       0.034878522 -0.019601142 -0.02089071 -0.018295534
0000f0 7c ab 89 3d c4 3f dc 3b c0 ec bf bc 1d 02 0c 3d
       0.06722161 0.0067214686 -0.02342832 0.034181703
000100 76 29 0a bd 80 1b 55 bd c7 0c 35 3d 94 3c d0 3b
       -0.033730946 -0.05202818 0.04420164 0.0063548777
000110 f9 07 38 3c d8 4e 1c 3d 13 10 d0 ba cf e7 fc 3a
       0.01123237 0.03816113 -0.0015873931 0.0019295159
000120 77 7a 7a bc 13 25 ee 3c 1d 73 90 bc 84 b3 a7 ba
       -0.015287987 0.029070413 -0.017633015 -0.0012794589
000130 88 8e 31 bd df 59 0f bd e7 7c 56 bd 1e 85 21 3d
       -0.04334882 -0.034997817 -0.05236521 0.03943359
000140 82 f1 58 3d e7 6d fb 3c 7f 19 ec 3c 18 b5 a7 bc
       0.052964695 0.030692054 0.028820751 -0.020472094
000150 1a 3c e3 3c 90 49 05 3d 3c 53 81 3d 6b 6f 1e bd
       0.02773862 0.032540858 0.06314704 -0.038680475
000160 8d bc d6 bc b5 d1 a6 bc 53 04 61 3d 36 c8 e5 3b
       -0.026212955 -0.020363668 0.054935765 0.0070123924
000170 50 ac 5e 3d b6 c0 65 bc e5 5f d3 b9 de d8 8d 3c
       0.05436355 -0.014022997 -0.00040316503 0.017315324
000180 fb 4c f9 bb 44 fd 5b 3d 90 54 4f 3d b9 0d dc bc
       -0.0076080537 0.05370833 0.050617754 -0.026862012
000190 71 5a 23 bc 66 2e 9c 3c dc 21 88 3c 4f cb 12 bb
       -0.009970293 0.019065093 0.016617708 -0.0022399013
0001a0 47 be d1 3c 56 b9 30 ba ce 35 0f bd 34 44 62 bb
       0.025603427 -0.00067414844 -0.03496342 -0.0034525516
0001b0 4f d9 48 3d 0e 83 af bb c2 c5 14 bd e7 48 ad bb
       0.049035367 -0.005356199 -0.03632141 -0.0052882317
0001c0 65 ad da bc 53 8a 04 3d f5 01 e0 3c 49 02 95 bc
       -0.02669401 0.03235848 0.027344683 -0.018189566
0001d0 c1 d5 c8 3c 12 af 29 3d 84 43 37 3d d4 73 08 3c
       0.024515988 0.041426726 0.044742122 0.008328397
0001e0 a4 b5 b2 3c 62 e7 b9 bc 35 66 15 bd 13 c3 fa 3c
       0.021815129 -0.02269334 -0.036474425 0.030610597
0001f0 08 07 bd 3c 43 62 5c 3d 29 c9 db 3b 42 33 31 3d
       0.023074642 0.053804647 0.00670733 0.043261774
000200 d5 3f 2f 3d 78 13 1e 3c ad 2e dc bc 0f 30 2b bd
       0.042785484 0.009648196 -0.026877725 -0.04179388
000210 38 5b 47 3d a2 1b 45 bd b5 74 0e 3d 67 42 b6 bc
       0.048670977 -0.048122056 0.03477927 -0.02224846
000220 91 93 90 bb db c0 06 3d 44 37 72 bd 9f be 1b 3d
       -0.0044121225 0.032898765 -0.059134737 0.038023587
000230 f8 b0 8c 3a ea 4f 22 3d 25 2f 72 3c 73 13 e8 3c
       0.0010733893 0.039626993 0.014781748 0.028329587
000240 bf be 13 bc e9 dd 9d bc d3 45 0a 3d 1d 51 3f bd
       -0.009017645 -0.019270854 0.033757996 -0.046708215
000250 e2 d3 0c bd 4c e4 09 3c be ea 76 3d fa 95 be 3c
       -0.034381755 0.008416247 0.06028246 0.023264874
000260 28 37 8c bc 74 28 1e 3d 70 9a 04 3d 1e 39 e6 3c
       -0.017116144 0.038612798 0.032373846 0.028103407
000270 5a a4 7c 3d 0a 42 54 3d 7f 72 dd 3c 28 6e 58 bd
       0.061680175 0.051820792 0.027032135 -0.05283943
000280 62 70 02 3d 2f b0 1c 3d d2 2f 08 bd c3 3a 13 3d
       0.031845458 0.03825396 -0.03324873 0.03594471
000290 43 59 76 3d 9e 44 b3 3c 45 14 33 3d cb b4 1c 3d
       0.06014372 0.021883305 0.043720502 0.038258355
0002a0 30 1f 9e bb c8 3e 42 bd f1 9c 9e bc 3f bc 1e 3d
       -0.004825495 -0.047423154 -0.019361945 0.038753744
0002b0 6c 00 22 bd 3a 9b 66 3d a2 54 8b 3c a4 49 6b bc
       -0.039551184 0.05630038 0.01700813 -0.014360819
0002c0 dd e1 4f 3d 8f 81 2e bd 07 65 2d 3b 56 3b 54 bd
       0.05075251 -0.042604025 0.0026457922 -0.0518144
0002d0 a5 cc 15 3d e0 57 86 3c 8e 39 42 3d 67 cb ab bc
       0.036572117 0.016399324 0.04741817 -0.020971013
0002e0 cb aa 58 3d 7d 4e 4a bd 9e cf 6f 3d 11 67 0e 3d
       0.052897256 -0.04939126 0.05854761 0.03476626
0002f0 74 c3 da 3c b1 44 03 bd fe fd 86 bc b8 83 9b 3b
       0.026704527 -0.03204793 -0.016478535 0.0047459267
000300 99 f4 34 3d 54 4c 70 3d 47 16 90 3d 6a 5e ef 3c
       0.04417858 0.058666542 0.07035499 0.029219825
000310 8c 56 37 3b 91 da 06 bd 5f e7 57 3c 71 0f 84 3c
       0.002797517 -0.032923285 0.013177722 0.016120644
000320 e5 4c 6c bc 86 80 f3 3c ad 38 14 bd df 60 17 3c
       -0.01442263 0.02972437 -0.036186863 0.009239404
000330 f0 23 8b bb 5d 24 28 bd 03 88 5a bd d8 88 4a bd
       -0.0042462274 -0.041050304 -0.053352367 -0.04944691
000340 7f 28 5f 3d 98 98 ba bc 59 12 69 3c 43 12 99 bc
       0.05448198 -0.02277784 0.014225566 -0.018685466
000350 b4 60 5e 3c fd 1b 48 bd cb 40 e1 3c 70 8c 53 3d
       0.0135728605 -0.048854817 0.027496716 0.051647604
000360 88 2b 4a bc 2f 35 a6 bb 6d 66 75 bd e8 df 3e bd
       -0.01233948 -0.005072258 -0.059912134 -0.046600252
000370 ce 6c 64 bd 63 98 3a 3d 2e a5 72 bc 66 1d 02 3c
       -0.055767827 0.045555484 -0.01480989 0.007941579
000380 0d ff 93 bc 2a 28 0d 3d 49 d4 4d 3d aa fc 17 bd
       -0.018065954 0.03446213 0.05025128 -0.037106194
000390 b9 02 0a bd ae 43 2d bc 98 e0 25 3c 16 d8 ae bb
       -0.033694003 -0.010575218 0.010124348 -0.005335818
0003a0 9e 19 00 3d 31 f5 06 3d 42 f3 9f 3c ef b0 2d bd
       0.03127443 0.032948676 0.019525174 -0.042405065
0003b0 75 22 e4 bc d9 45 19 3d 82 9b 5f bc be dd 01 bd
       -0.027848462 0.037420128 -0.013647916 -0.03170561
0003c0 58 7a ce bb 0b 81 5b 3d a4 90 c0 3c 99 a7 91 bc
       -0.0063012056 0.05358986 0.02350647 -0.017780112
0003d0 23 9f 68 3d 2a d9 5f bb e5 39 62 3d 9c 89 85 3d
       0.05679239 -0.003415654 0.055230994 0.065203875
0003e0 a0 9f 17 bd 01 11 b0 bb 3c 32 5a 3d 22 43 44 bd
       -0.037017465 -0.005373121 0.053270563 -0.047915585
0003f0 e3 c8 43 3d be 0d 5d 3d 0f dc 79 3d b0 8a 81 bc
       0.047799002 0.053968184 0.06100088 -0.015813202

bias f4 [32]
000000 e8 49 21 bd b6 2c 72 3d 97 20 30 3b ca 8c 23 bc
       -0.039377123 0.05912467 0.0026874894 -0.009982297
000010 82 55 ca 3c bd 23 e1 bb 9d 1e 88 3b b0 a8 0d bd
       0.024698976 -0.0068707154 0.00415404 -0.0345847
000020 05 ca ed 3b bb 02 33 bd ce 1c 6b bd 20 12 f8 bc
       0.0072567486 -0.043703776 -0.057400517 -0.03028208
000030 98 86 63 bc bd 30 65 3c 34 da cf bc a7 0e 65 3d
       -0.01388707 0.013988671 -0.025372602 0.055922177
000040 85 00 83 3d ac 23 7e bd d1 37 8b bb 71 52 26 bd
       0.063965835 -0.062045738 -0.004248597 -0.040605966
000050 20 52 12 3d cb 91 9f bc 04 d5 2a 3d 95 bf 4f bd
       0.03572285 -0.0194787 0.041707054 -0.050719816
000060 5e 9c a9 bc d0 5a 80 3c dc 69 28 3c d5 f4 65 3c
       -0.020704444 0.015668303 0.010279145 0.014035423
000070 7c 89 09 3d ab 6f ac bc 35 06 24 bd ec 8f 24 3d
       0.03357838 -0.021049341 -0.040044982 0.040176317

weight f4 [32, 32, 3, 3]
000000 d3 e1 d5 bc c4 6d 85 bc 22 7f f9 3c 45 59 68 3c
       -0.026108658 -0.016287692 0.03045613 0.01418144
000010 f9 21 a3 3c f9 b6 80 bd 0a ae 33 bd 92 4f 0c 3d
       0.01991366 -0.06284899 -0.04386715 0.03425557
000020 bc 11 07 3d 0c 6a 80 3c 21 a0 6e 3d 10 1b cb bb
       0.032975897 0.015675567 0.05825818 -0.0061982945
000030 5d 27 63 3d 91 67 0d bd a3 04 2f bd 2c 0f de 3c
       0.05545746 -0.034522597 -0.04272903 0.027106844
000040 91 c4 d2 bc 2e 56 9c 3c f1 ea 5b 3c 52 60 43 3d
       -0.025728496 0.019084062 0.013422714 0.04769928
000050 1b d8 42 bd 84 59 27 bd 8e b8 fb 3c 68 d4 10 3b
       -0.047569375 -0.040856853 0.030727651 0.002209926
000060 fe 2d 9f 3b 8f 54 80 bc a1 25 54 3d ab 15 a0 bb
       0.0048577776 -0.01566532 0.0517937 -0.0048853955
000070 ae 34 b9 bc 87 6c 63 3d 91 61 ed bb 13 de 09 3d
       -0.022608127 0.05552342 -0.007244297 0.033659052
000080 7f 86 b4 bc 28 87 f8 3b 97 59 67 bb f7 f3 0f 3d
       -0.022036789 0.0075844713 -0.0035301202 0.035144772
000090 a4 57 e3 bc 0d 63 3a bd cb ad 64 bd be 10 12 bd
       -0.027751751 -0.04550462 -0.055829804 -0.035660498
0000a0 57 10 91 ba 2b dc 32 3c 8f 77 71 3d 91 f3 fb 3c
       -0.0011067492 0.01091675 0.05895191 0.03075579
0000b0 66 ff c2 bc 34 8a ba bc 20 22 d5 3b 9f fb 44 3d
       -0.023803424 -0.022770979 0.006504312 0.048091527
0000c0 99 11 58 bd 28 f1 32 bc f6 6a 5c bd 3c e8 a6 bc
       -0.052751157 -0.010921754 -0.053812943 -0.02037441
0000d0 c2 4e 03 3d 7e 0a 7b 3c 87 dd 24 bd 4d 9a 2d bd
       0.03205753 0.015322326 -0.040250327 -0.04238348
0000e0 6e 85 29 3d a5 49 25 3d fe 1f 00 bd b6 c1 0e bd
       0.041387014 0.040353436 -0.03128051 -0.034852706
0000f0 58 20 22 bd 74 e3 45 3d 9e cd 46 bb 14 1f 62 3d
       -0.039581627 0.04831262 -0.003033496 0.05520542
000100 e1 50 5f 3d 29 5d 0c bd 36 73 11 bd 2f 3c 1a bd
       0.05452049 -0.034268532 -0.035510264 -0.03765505
000110 0c 2f 3a 3d ee aa 0f bd d9 ae 1e bd 44 ae 1c 3d
       0.045455024 -0.03507512 -0.038740966 0.03825213
000120 6e 34 0e bd 6b 37 03 bd 1d ca f3 bc 52 3c 05 bd
       -0.03471797 -0.032035273 -0.029759461 -0.03252823
000130 81 b8 82 3d e6 a4 36 3d 6f 5b 67 3d ca 52 3d 3d
       0.063828476 0.044590853 0.056483682 0.046221532
000140 18 49 d3 3c 16 da c5 ba 24 ea f5 3b cd 51 8b 3c
       0.02579169 -0.0015094902 0.0075047184 0.01700678
000150 d2 32 2d 3d 52 41 26 3d c3 bb 50 3d 83 7e dc bb
       0.042284794 0.040589638 0.050960314 -0.0067289486
000160 38 03 6f 3d 4b d6 29 bc b6 90 7e 3c d4 36 79 3c
       0.05835268 -0.010366033 0.015537431 0.015210826
000170 d4 f6 20 3d 52 6c 01 3c 66 f1 de 3a 02 1b 8d bb
       0.039297894 0.007899361 0.0017009198 -0.004306198
000180 1e 88 a3 bc d6 96 32 3d 8c 45 44 3d 09 0f 86 3c
       -0.019962367 0.04360088 0.047917888 0.016364591
000190 08 9d ff bc 9a 14 af ba 9a 01 e2 bc 8f 8a 78 3c
       -0.031202808 -0.001335758 -0.027588654 0.015169754
0001a0 7f 9a 9c 3c 0b 18 3b 3d 4a d1 0d 3d 61 ab 71 bd
       0.019116638 0.045677226 0.03462342 -0.05900133
0001b0 ce b4 fd bc f5 d6 d5 3c 90 5b 61 3d b6 e0 2a bd
       -0.030970003 0.026103476 0.05501896 -0.041718207
0001c0 12 aa e7 bc b2 7a ec 3c b2 16 c2 bc df 3f 3e 3d
       -0.028279338 0.0288671 -0.023692463 0.04644763
0001d0 40 c1 b2 bc 7b 3b 3a 3d c7 aa bb 3c 98 de 6f bc
       -0.021820664 0.04546688 0.022908581 -0.014640473
0001e0 db 22 0f bd c3 4e 1f 3d c4 5e 53 bd ea 46 be bc
       -0.03494535 0.038893472 -0.051604047 -0.023227174
0001f0 07 9b 48 bd 44 e9 69 3d 1b 72 be 3b c6 bf 20 bc
       -0.04897597 0.057107225 0.0058119423 -0.009811347
000200 38 76 95 3c 53 ea 5f 3d 8d a5 f8 3c 7f 19 4b 3d
       0.018244848 0.05466683 0.030352378 0.04958486
000210 c4 d4 0b bd ce b4 f8 bc ac 44 36 3d 7e f2 01 3d
       -0.034138456 -0.030359652 0.044499084 0.0317254
000220 e9 1e 39 bb 8f eb 4d 3d 92 1f 3d bd 82 c2 17 3d
       -0.0028247184 0.050273474 -0.046172686 0.03705073
000230 aa 2e 1e bd 2a 5d 11 bd ae 2f 5b 3c 2a 8e 4a 3d
       -0.03861872 -0.03548924 0.013378067 0.049451984
000240 70 9c 43 3d a0 a7 3f 3c de bd ff 3c e5 e1 a9 bc
       0.047756612 0.01169768 0.031218465 -0.020737598
000250 bf 8c 66 3d 72 4a 1c 3d 3c c8 e6 3c 27 7a 82 3d
       0.05628657 0.038156934 0.028171651 0.06370955
000260 7c c9 46 bc a6 34 0c bd 11 11 2b bd be b7 11 3d
       -0.012132999 -0.034229897 -0.041764323 0.03557562
000270 5e 1c 42 bd 69 ea 8c 3a 65 97 83 3d 14 59 ba bc
       -0.047390334 0.0010751012 0.064253606 -0.022747554
000280 e1 87 8c bb 8e 38 f5 3c 45 cc 1d bd 40 eb 62 bc
       -0.004288659 0.029934194 -0.038524885 -0.013850033
000290 c6 49 a1 3c 37 6d 08 3d 7d 00 6a bd b8 41 78 bd
       0.019688498 0.03330728 -0.057129372 -0.06060955
0002a0 ba 2d 00 3d d1 2c bd 3c 77 cd 35 bc 4f d7 45 bd
       0.03129361 0.02309266 -0.01109635 -0.048301037
0002b0 70 b7 3d 3d b7 e3 77 3d e3 de 03 bd ac 66 2f 3d
       0.046317518 0.0605199 -0.032194983 0.042822525
0002c0 a8 c5 5c 3d 9c f6 47 b9 4a 2e 5d bc 15 34 c7 bc
       0.053899437 -0.00019069988 -0.013499806 -0.024316827
0002d0 97 65 87 3d 10 73 3d 3d ae 62 2c 3d 2c 9e 74 3d
       0.066111736 0.04625231 0.042086296 0.059721157
0002e0 51 e4 81 bb 63 97 07 3c 07 40 6d 3d d9 6b 63 3d
       -0.003963985 0.0082758395 0.05792239 0.055522773
0002f0 69 50 e2 3c b5 d6 6b 3c 92 7d 85 ba 1d 07 ec ba
       0.027626233 0.014394452 -0.0010184518 -0.0018007491
000300 87 5b 2a 3d 61 08 3e 3d 72 36 5f bc 70 d9 1e bd
       0.041591194 0.04639471 -0.013623821 -0.038781583
000310 be 0c 51 3b 02 0d 6e bc 41 01 4a 3d 20 10 77 bd
       0.0031898464 -0.0145294685 0.049317602 -0.060318112
000320 02 ef c7 3c 65 90 c3 3c e1 24 a9 3c f8 df 3c 3c
       0.02440596 0.023872564 0.020647468 0.011528008
000330 98 64 e3 bc 92 3d 6c bd 46 e0 22 3d 7a dc 60 bd
       -0.027757928 -0.057675906 0.039764665 -0.054897763
000340 0c 48 6e bd 37 cb 33 bd 36 09 c5 3c 6a b7 4b 3d
       -0.058174178 -0.043894973 0.024052244 0.049735464
000350 4e 5c 88 3a 6a 49 f5 bc bd 52 36 bd 93 f9 84 ba
       0.0010403486 -0.029942233 -0.0445125 -0.001014518
000360 fb 87 74 bd 49 68 e8 bc 8b ff 1e bd 39 25 36 bd
       -0.059699994 -0.02837004 -0.038817924 -0.044469092
000370 63 58 84 bd 66 87 82 bc d4 13 32 bd bb 86 3c 3b
       -0.06462171 -0.015933704 -0.04347594 0.002876683
000380 3a fd 89 3a cf 4c c1 bc 65 93 92 3b b4 05 99 bc
       0.0010527738 -0.023596196 0.004473137 -0.018679477
000390 84 25 1a bc ed d6 55 3d 83 3b 62 3d 6e 1a 2c bd
       -0.0094083585 0.052206922 0.055232536 -0.042017393
0003a0 75 eb 17 bd 72 f1 9a 3c 09 3d 76 bc b1 91 e6 3c
       -0.037089784 0.018913958 -0.0150292 0.028145643
0003b0 88 73 e2 3c d4 26 28 3d 43 23 7f bc 50 78 9f bc
       0.02764298 0.041052654 -0.015572372 -0.01946655
0003c0 32 32 0f 3d ac e4 75 bd 0f 24 ec 3c 2e 18 5a bd
       0.03495998 -0.06003253 0.028825788 -0.053245716
0003d0 69 85 c1 bc 3a a4 b9 bc 36 a7 80 ba 31 65 50 3d
       -0.023623185 -0.022661317 -0.0009815458 0.050877754
0003e0 85 77 48 bd af b0 5d bd 05 d2 ae 3c c3 fb 85 3c
       -0.048942108 -0.054123577 0.02134038 0.0163554
0003f0 31 23 59 bd bf ce 1e bd 31 9d 33 3d e9 a1 32 3c
       -0.053012077 -0.038771387 0.04385108 0.01090286

bias f4 [32]
000000 70 83 32 3d 6f df fb 3c d3 50 f4 bb ea 9f d0 bc
       0.04358238 0.03074619 -0.007455924 -0.025466878
000010 61 e1 9b bc 74 4e b9 bc 4e f9 1a 3d 0a 16 5d 3d
       -0.019028367 -0.022620417 0.03783541 0.053976096
000020 8b 10 3b 3d ed 8c d2 bc d6 a8 0d 3d 35 7f d1 3c
       0.045670073 -0.025701964 0.034584843 0.025573352
000030 14 ad 8c bc 9b d3 6a 3d 20 42 22 bd d5 9b 0e 3d
       -0.017172374 0.05733071 -0.039613843 0.03481658
000040 58 97 30 3d f7 fe 78 bc 1c 0d 58 3d d4 65 e8 bb
       0.043113083 -0.015197507 0.052746877 -0.007092217
000050 44 94 82 3d 1c cb 89 3c 59 fb e3 bb 95 85 1b bd
       0.06375936 0.016820483 -0.006957453 -0.03796919
000060 66 17 06 bd 8e bd 16 3d 12 9c ff bc 99 53 11 3c
       -0.03273716 0.036801867 -0.03120235 0.008870029
000070 04 1f 24 3d e3 ee 80 bc a4 36 0f 3c b6 cb bb 3c
       0.04006864 -0.01573891 0.008741055 0.022924285

weight f4 [32, 32, 3, 3]
000000 90 9a fc bc 7f b1 01 3d a4 82 f0 3b 75 43 dc bc
       -0.03083542 0.031663414 0.0073397923 -0.026887635
000010 7f 5d 00 bd 6a 40 ab 3c a1 5c 06 bd 20 99 6b 3d
       -0.031339165 0.020904738 -0.03280318 0.05751908
000020 f5 34 2b 3d 7c 56 00 3d 4a b5 bb 3c b1 c8 b7 bc
       0.04179855 0.031332478 0.022913594 -0.022434564
000030 73 a7 74 bc f7 e8 31 3d 2e 8f 8e bc 8f 03 d8 bc
       -0.014932501 0.043435063 -0.017402258 -0.026368884
000040 f5 c5 e9 bc b6 b7 76 3d 52 58 88 bc 68 3b 31 bc
       -0.028536776 0.060233794 -0.016643677 -0.010817386
000050 0c cc e4 3c 21 44 8c bc 11 5a 3b bc 9a 98 61 3b
       0.027929328 -0.01712233 -0.011435048 0.0034423233
000060 e7 16 7e 3d d1 b9 b6 bc 86 6f 20 3d 41 11 37 bd
       0.06203356 -0.022305401 0.039168857 -0.04469419
000070 71 bd fc 3c e2 14 1f bd 20 5a 69 3c d6 c5 37 3d
       0.030852051 -0.038838275 0.014242679 0.044866405
000080 2c 96 b5 bc 4e a2 15 bc 05 35 13 bc a0 ee 7f bd
       -0.022166334 -0.009132935 -0.008984809 -0.06248343
000090 aa 4f ce bc 2f 53 be bc 0e 52 37 3d 49 32 c4 3c
       -0.025184471 -0.023233024 0.044755988 0.02394976
0000a0 88 76 80 3d df 53 46 3c 70 3f 93 3d 86 16 1d 3d
       0.06272608 0.012104957 0.07189834 0.03835156
0000b0 8d c7 ef 3c 3d d3 0b 3c 0f 50 e3 bc 73 ec 37 3d
       0.029269958 0.00853425 -0.027748136 0.04490323
0000c0 f3 e4 ef 3c d4 8d da bc 72 30 86 3c 86 e2 23 3d
       0.029283976 -0.026678957 0.016380522 0.04001095
0000d0 eb 34 d0 3c 7f 6f 12 3d f0 b8 4b 3d 1b 7f 11 bd
       0.025415858 0.035750862 0.049736917 -0.035521608
0000e0 62 be 65 3d d7 34 cc bc a8 de 06 3c ee 81 9f bc
       0.056089766 -0.02492754 0.008231796 -0.019471135
0000f0 92 c3 39 bc 7d 61 09 3d 8c 0c 3d 3d 5f dc b2 bc
       -0.0113381315 0.033540238 0.046154544 -0.021833597
000100 66 df 11 3d 46 50 45 3d e4 0f 6d 3d a8 76 70 3d
       0.03561344 0.048172258 0.057876483 0.05870691
000110 25 7f 2d 3d 32 ee be bc 2c 4e e9 ba 5d c1 ad 3c
       0.042357583 -0.02330694 -0.0017799786 0.021210367
000120 9a f3 83 3c 69 2e 07 3c 1c 3e 5d 3d af f0 e1 ba
       0.01610737 0.008250811 0.05401431 -0.0017237867
000130 68 10 03 bd 01 d8 88 bc fb 29 83 3d 31 2a 0b bd
       -0.031998068 -0.016704561 0.064044915 -0.033975784
000140 67 0c 71 bc 48 d3 00 3d a6 fd 7d 3d 7f f6 85 3d
       -0.01471243 0.031451494 0.062009476 0.06541156
000150 95 2c 2c 3d 5a 02 a9 3b 6f 5f 6e 3d ac 5b a1 bb
       0.042034704 0.005157751 0.05819648 -0.004924258
000160 0b 0c 3d 3d 61 dc 80 3c 63 5a c6 bc 63 07 59 3d
       0.046154063 0.015730085 -0.024213022 0.05298556
000170 d4 68 a3 3c 32 cd 7e 3c 50 4c 09 3d 06 7b 5c 3d
       0.019947447 0.015551852 0.033520043 0.05382826
000180 02 90 18 bc 52 d0 1f 3d 1a cb 64 3d c7 7e 44 3d
       -0.009311678 0.03901703 0.055857755 0.047972467
000190 30 25 40 39 7a 42 fa 3c a0 93 19 bd 70 82 29 3d
       0.000183244 0.030549277 -0.0374943 0.04138416
0001a0 bb b5 74 bd b4 16 df bb 3e a6 e6 3b dd 35 49 bd
       -0.059743624 -0.0068081263 0.0070388606 -0.049123634
0001b0 c5 3a 06 bd 41 f5 0c bd 15 33 d9 bc ba 85 a9 bc
       -0.03277089 -0.03441358 -0.026513616 -0.020693649
0001c0 bc 1f aa ba 47 a7 1f bd c6 40 4e 3d cc 93 1a bd
       -0.0012979428 -0.038977887 0.05035474 -0.037738606
0001d0 c3 cf 60 bd 2e 17 23 3d 6e dc 4f 3d f2 22 ee bc
       -0.054885637 0.039817028 0.050747328 -0.029069398
0001e0 d8 aa ff bc 11 28 8f 3b 88 1f 60 bb 91 30 3e 3d
       -0.031209394 0.00436879 -0.0034198482 0.046433035
0001f0 a5 f2 08 3d c2 9b 68 bd 2f c5 65 3d 11 77 9d bb
       0.03343453 -0.056789167 0.056096252 -0.0048054536
000200 19 ff 59 ba cd 56 45 3d dc be e9 bc cc b2 2c 3d
       -0.00083159056 0.048178483 -0.028533392 0.0421627
000210 e7 3f 17 bd 21 89 fb bb c5 f3 42 bb 7a a0 fd bc
       -0.036926176 -0.007676259 -0.0029747349 -0.03096031
000220 b2 0e 65 3c 4d 10 4c 3d b4 44 dc bc 72 19 d2 bc
       0.013980554 0.049820233 -0.026888229 -0.025646899
000230 04 ac 89 bc 27 92 dc 3c f7 f1 61 bd e1 25 01 3d
       -0.016805656 0.02692516 -0.055162396 0.031530265
000240 8a 47 5a bb 8c c1 89 3c 73 ba ac bc fe fc 28 bd
       -0.00333068 0.016815923 -0.021085 -0.041256897
000250 b8 5f ef bc 53 20 d2 bb 5b f2 4a 3d eb d2 e0 bc
       -0.029220447 -0.0064125448 0.049547534 -0.027444324
000260 8a 93 46 3d 9f 1a df bb 52 45 ad 3c ee 2b 8b bc
       0.048480548 -0.0068085934 0.021151219 -0.01698872
000270 ae f1 f8 bb 3d bd 85 3c 0b bf ad bc 0d a7 80 3b
       -0.00759717 0.016325587 -0.02120926 0.003926164
000280 ae a2 00 bd 69 ab ae 3c de b1 89 3d 40 e0 84 3a
       -0.031405143 0.02132197 0.067233786 0.0010137632
000290 8d dd 8c ba 82 03 20 bd 43 05 43 3d 56 56 aa bc
       -0.001074718 -0.039065845 0.04761244 -0.020793121
0002a0 2d c3 0c bd 83 d0 3b 3d 32 21 81 3c e2 ad 5f 3d
       -0.03436582 0.04585315 0.0157629 0.054609187
0002b0 6b 09 6d 3c e1 68 f1 3c 14 05 80 bc c1 2c f4 bc
       0.014467577 0.029468955 -0.015627421 -0.029806497
0002c0 65 b7 76 bd 45 2b 73 bd 34 08 da 3b 49 dd 87 bc
       -0.060233492 -0.059367437 0.00665381 -0.01658501
0002d0 a0 48 a7 3d 4c 2a 07 3a 42 e3 e8 bc 27 7f 09 3d
       0.08168149 0.0005156144 -0.028428677 0.033568528
0002e0 5e 56 b5 bc 19 ea d5 bc f8 69 54 3d 52 fa 4f 3d
       -0.02213591 -0.026112603 0.051858872 0.050775833
0002f0 78 f1 02 3b 7f 01 16 3d 82 50 62 3d fb 89 fe 3b
       0.0019980352 0.03662252 0.05525256 0.0077679134
000300 c4 03 d3 3c 90 89 88 3d 3b dc cd bc 48 c0 f7 ba
       0.025758632 0.06666863 -0.025129428 -0.0018901909
000310 51 26 c1 3c e7 28 c7 3c 80 5d 7f 3d dd 83 a9 3b
       0.023577841 0.024311496 0.062345028 0.00517319
000320 67 06 57 3d e0 95 05 3d f5 64 a4 bc c2 c1 1e bc
       0.05249634 0.032613635 -0.020067671 -0.00968975
000330 b9 e9 a0 3c bb 00 11 bd 93 74 c3 3c bc 04 fc bc
       0.019642698 -0.035401087 0.023859298 -0.030763976
000340 5f 3f f4 bc 58 ff 41 3c 6c 9e 91 bc 4a 99 04 3d
       -0.029815374 0.011840664 -0.017775737 0.03237275
000350 a5 71 51 b9 31 8c 8d bc 3d fd 23 3d af 47 f5 bc
       -0.00019974129 -0.017278763 0.04003643 -0.029941408
000360 0d c5 24 3d 47 74 26 3a e5 63 01 3d 2c 73 e7 3c
       0.040226985 0.0006349724 0.031589407 0.02825316
000370 cc 9e ad bc ad ae 9c bc 4a 9a 46 bc 55 44 00 3d
       -0.021193884 -0.01912626 -0.012121746 0.031315167
000380 86 70 8c bc b2 5b be 3a 97 cf 83 3c 48 3f e0 39
       -0.0171435 0.0014523177 0.016090197 0.00042771758
000390 c3 aa 88 3d c0 cf 96 3d 2e c4 78 bc f4 0f 91 3d
       0.06673195 0.07363844 -0.015183492 0.07083121
0003a0 6c ce 99 3d 35 41 f6 bc 08 51 ef 3c cb 8b f9 bc
       0.07510075 -0.03006039 0.029213443 -0.030462166
0003b0 fd e9 08 bd 4e 27 60 3d 4b 01 ce 3b 38 58 b9 bc
       -0.033426274 0.054724984 0.006286775 -0.022625074
0003c0 98 ea e4 3a b0 7b f1 3b 11 0b 07 bd 09 84 08 3d
       0.0017464934 0.007369481 -0.032969538 0.033329044
0003d0 bd 9b 8f 3c 56 48 ac 3b b0 66 08 bc df a5 2a bd
       0.017530316 0.0052576466 -0.008325264 -0.041662093
0003e0 4d af 00 bd 31 eb ad 3c 0b 57 35 bd e6 1f ec 3c
       -0.03141718 0.021230312 -0.044272464 0.028823804
0003f0 90 29 42 3b 82 cb 93 bb 3a fd 15 3d 10 43 02 bd
       0.0029626824 -0.004510344 0.03661845 -0.031802237

bias f4 [32]
000000 22 5a 55 3d 9b 0e 8a 3d c9 6f 05 bd c3 92 1e 3b
       0.05208791 0.06741067 -0.03257731 0.0024196364
000010 8d 65 8c 3d 6a 71 14 bd ba 98 17 39 40 9d 0e 3d
       0.06855307 -0.036240973 0.00014457377 0.034817934
000020 1b 29 76 3d 01 11 56 3d 69 a9 73 bc 62 35 65 bd
       0.060097795 0.05226231 -0.0148719335 -0.055959113
000030 52 b4 ed 3b 07 6f 81 3d 89 c6 8f 3d b3 15 97 3d
       0.007254162 0.06320005 0.070202895 0.07377186
000040 55 6d eb ba e0 60 5c bd 03 db 6a 3d cc a3 46 bd
       -0.0017961661 -0.053803325 0.057337772 -0.048496053
000050 68 dd 66 3d 1e df 14 3d a2 2c 03 bc ca bb ad bb
       0.056363493 0.036345594 -0.008006247 -0.005301927
000060 de 9d 85 3d da 74 5f 3c 25 7c 14 3d 7b 60 cf 3c
       0.065242514 0.013638699 0.036251206 0.02531456
000070 7a 9e 8c 3d 48 89 95 3d 25 46 c3 3c dd db 77 3d
       0.068661645 0.07301575 0.023837158 0.060512412
