Baseline/bestKernel_Num_Set_4.pt (torch_old, 804393 bytes, 16 tensors)

weight f4 [16, 3, 3, 3]
00000000: 1d3e 27be 8f15 b4bd 7820 8bbd 0a81 20be
00000010: 311f 3d3d 138b b33d d17c 39bc bad9 65bd
00000020: 2f78 9f3c 8cad 20be 7396 fabd dec8 a7bb
00000030: 4b2e 2c3e ecaa 80bd 388d c03d e353 b6bd
00000040: 602a 86bd 52d8 49be a0dd 3b3e d4bc 563e
00000050: 82a8 8f3c c63d 143e 2e49 3a3e 52b2 f03d
00000060: 4ea3 ef3d 0b33 29be b71c 28be 95d8 19be
00000070: f649 843d 3efd 37be 4f4f 27be 517e dabd
00000080: abeb 41be ec34 00bc a7d9 253c ed01 f4bd
00000090: 1e4b f93d caf7 9dbd d15a 71bd 5886 063e
000000a0: b876 193e 9187 0bbd a5c6 1dbe a86d e6bd
000000b0: 1e61 3f3c 0bb4 ed3d 5e8a cb3d 4358 aabd
000000c0: 3ed5 2abe 69c7 1cbe 9c7e 4abd ed73 8f3c
000000d0: a0f9 91bd 58de 0fbe 8fb6 0f3d 9b62 08be
000000e0: 8744 0abe a9d0 11be 77e4 24bd 2a04 323e
000000f0: 4833 ab3d 2a59 81bc dfd8 313d 0e46 873d
00000100: 7b78 53bc 4718 2dbe b034 08be c5f2 14be
00000110: 0e48 97bc 838a 48be c86a 5dbd c4a4 b6bd
00000120: 0a31 5e3e df7f 3d3e 9259 0f3e f524 233d
00000130: 0e21 07bd dc1d a03d 3aaa d4bd 4006 58bd
00000140: 7e9f 1fbc e0b4 1fbd 85b8 33be bcc9 a73d
00000150: 5d26 283e c8c1 ccbd 89d4 693d 0f9c 84bc
00000160: afb9 94ba 5dc7 883c 068f 373e 6c4d 1e3d
00000170: 6834 debd cf07 62bd fd83 de3d 738d 983d
00000180: 2d39 853c 23c8 4dbc eb54 7ebd dd77 31bd
00000190: cace 9bbd 853a 673d 2a54 a33d bd61 313e
000001a0: ba1c 93bc 5020 203d b56c 193e f0b3 de3d
000001b0: 41e6 b43c 386c 673d ded5 ee3b eed5 2bbe
000001c0: 8e56 9a3b 9693 37bd 2c20 2f3e 7d2a 2f3e
000001d0: 7c81 113d 7a45 283e 708d e4bd 8578 1f3e
000001e0: 96e2 203e d971 afbc 3fcf 2dbe 3f67 98bd
000001f0: 2112 88bd dd42 4dbc 3e37 1dbe 784f 653d
00000200: 8e98 7dbd e7d0 ebbc 9330 a4bd eba8 c0bc
00000210: 2a1c 22be 9829 a9bd de76 0f3d f560 fa3d
00000220: 2860 303e 2c54 12be ae79 9e3d 2655 e1bd
00000230: b30f 12be 5395 39bc 2c06 e1bd 7793 21be
00000240: 133a 4fbe 8160 1abe d395 0d3e 2bdb b03d
00000250: d6c9 c6bd 1f39 17be dfdb 2cbe 7ce4 09be
00000260: cef0 cabd ad97 103e 5076 b13d b056 57bd
00000270: f746 223e 2059 c4bd 62f2 09be 4bf5 883d
00000280: ba0a aabd af30 9d3d 4a12 243e 9fdd b3bd
00000290: f383 05be 1f7f 923d f515 2ebe b906 2f3e
000002a0: 4f45 babd dd5f bd3d fe0c 19be 5685 f2bd
000002b0: 80af 113d 347b ab3d 122b 293e 2cf5 353e
000002c0: f2b8 c63b 1d3d 1bbc 7996 3f3d 25a2 eebc
000002d0: 89f9 c43c 9f45 27be a33b 0fbe 3dca 183e
000002e0: 5439 c0bd 0942 2f3e 2f27 163d e291 7b3d
000002f0: abdb 433e 0574 b9bd d2ef 7abc 3233 3f3d
00000300: b800 a43d 937e 30be 0f25 a33d b7b0 c9bd
00000310: 35e5 1e3d b9b1 103e e31a 92bb f247 093c
00000320: d6c0 033a 8e14 353e 99a1 003e 8265 483d
00000330: 5cad cdbd 508e b5bd 797b 2d3e 25ab 263e
00000340: 4832 0b3e a5ce 00be a06c 333e 78a5 e53b
00000350: 261e 2b3e 1c9f 443e af3a 3c3d 9e9c 62bd
00000360: 49ed 3e3e 5b94 b6bd 3df7 083e 7fa0 2dbe
00000370: cc87 37bd 4010 1bbe adb0 8bbd f64b c53d
00000380: 9f79 f6bd c196 3bbe a537 0a3e 942e d53d
00000390: a040 513b 7fa0 03be 5f75 2abd ef5d 6cbd
000003a0: eb16 023e 79ff 56bd 7434 02bd 4295 e6bd
000003b0: 77e0 8dbd 85da 053e e093 1a3e d6f0 593d
000003c0: f0f1 3ebd 9d61 583e f0af 803d 94c5 96bd
000003d0: e42d 87bd 7ae8 d6bc 4e4a bc3d edcc 913d
000003e0: 1879 0f3e 98c0 02bc 53d3 233e 96c2 9ebd
000003f0: a5e1 b3bd d152 97bd 8def 3dbe 47b8 fcbd
-0.16332288 -0.087931745 -0.06793302 -0.15674224 0.046172325 0.08766761 -0.011321262 -0.056115843
0.019466488 -0.15691203 -0.12235727 -0.005120381 0.16814534 -0.06282601 0.09401935 -0.08902719
-0.06551051 -0.19711426 0.18346262 0.2097047 0.017536405 0.1447669 0.18191978 0.11752762
0.1170107 -0.16523378 -0.16417204 -0.15024026 0.064594194 -0.17967698 -0.16338848 -0.10668624
-0.18937556 -0.007825118 0.010122693 -0.1191443 0.121725306 -0.07713278 -0.0589245 0.13137186
0.14986694 -0.034064833 -0.15407808 -0.11251384 0.011680869 0.11606606 0.09938501 -0.08317616
-0.16682908 -0.15310444 -0.04943715 0.017511332 -0.0712769 -0.14049661 0.03508621 -0.13318865
-0.13502704 -0.14239754 -0.040256944 0.17384401 0.083593905 -0.015789587 0.043419715 0.06605159
-0.012907143 -0.16903792 -0.13301349 -0.14545734 -0.018466976 -0.19584088 -0.054056913 -0.08918145
0.21698394 0.1850581 0.13999012 0.039830167 -0.032990508 0.07818195 -0.10384031 -0.052740335
-0.009742616 -0.038990855 -0.17550857 0.08192775 0.16420884 -0.09997898 0.057087455 -0.016187696
-0.0011346842 0.016696626 0.17925653 0.038648054 -0.108498394 -0.055183228 0.108650185 0.07448854
0.016262615 -0.012559923 -0.062092703 -0.0433272 -0.07607801 0.056452293 0.079750374 0.1732244
-0.017958034 0.039093316 0.14982875 0.10874164 0.02208245 0.05649969 0.0072886785 -0.16780826
0.004710025 -0.044818483 0.17102116 0.17106052 0.035523877 0.16432753 -0.111597896 0.15573318
0.15711436 -0.021416591 -0.1697359 -0.07441568 -0.06644083 -0.0125281485 -0.15353104 0.05598399
-0.061913066 -0.028786136 -0.08017077 -0.023518046 -0.15831056 -0.082598865 0.03502547 0.12225524
0.1722418 -0.14289922 0.07738052 -0.11002569 -0.14263801 -0.011327106 -0.10987505 -0.1577891
-0.20236997 -0.15075876 0.13826685 0.08635553 -0.09706466 -0.14767884 -0.16880749 -0.13466066
-0.09909211 0.1412036 0.086651444 -0.052572906 0.15847383 -0.09587312 -0.13471368 0.06687411
-0.08302827 0.07675301 0.16022602 -0.08782505 -0.13038616 0.07153153 -0.17000563 0.17092408
-0.09095251 0.092468 -0.14946362 -0.11841838 0.03556776 0.083731085 0.16520336 0.17769307
0.0060645277 -0.00947502 0.04677436 -0.02913005 0.024044769 -0.16335152 -0.13987593 0.14920898
-0.093859345 0.17115034 0.036658462 0.06141842 0.19126765 -0.09055332 -0.015315967 0.046679683
0.080079496 -0.17235784 0.07966053 -0.09848159 0.038792808 0.14130296 -0.0044587716 0.0083789695
0.0005025988 0.17683622 0.12561645 0.04892493 -0.10042831 -0.088650346 0.16941632 0.16276224
0.135934 -0.12578829 0.17521906 0.007008251 0.1671072 0.1920132 0.045954403 -0.055325143
0.18645205 -0.08915015 0.13375564 -0.16955756 -0.04480724 -0.15142918 -0.068208076 0.09633629
-0.12034916 -0.18319227 0.13497789 0.10409275 0.0031929389 -0.12854193 -0.04161584 -0.05770677
0.12704055 -0.05248973 -0.031788304 -0.112589374 -0.06927579 0.1307164 0.15095472 0.053208195
-0.04661745 0.21130987 0.062835574 -0.07361904 -0.0660055 -0.0262339 0.0919386 0.071191646
0.14011037 -0.007980488 0.15998583 -0.07751958 -0.08783273 -0.07388843 -0.18548413 -0.123398356

bias f4 [16]
00000000: d759 11bc 14ac 1b3d 4746 a9bd f098 3a3e
00000010: 91be 09be eedb 63bc 22ba 11be 3b24 823d
00000020: ee8c 293e 0105 393e e811 ca3c a3f1 bfbd
00000030: fa16 403e 0f99 6b3c 2de8 053e a10c d2bd
-0.008871517 0.038005903 -0.082653575 0.18222404 -0.13451602 -0.013907416 -0.1423116 0.06354567
0.16557667 0.18068315 0.024666741 -0.093722604 0.18758765 0.014379754 0.1307685 -0.10256315

weight f4 [32, 16, 3, 3]
00000000: 4ea5 9ebc 7027 42bd 7a4f c53d 481c 203d
00000010: 9f04 15bd 6ff5 013d cfbb 3dbc facb dd3c
00000020: 1b3a 463d 97ae 53bd d0b2 213c f28d 87bd
00000030: b88a 3a3c 9631 afbd 3830 4cba b96d 973d
00000040: abc0 8d3d 0d31 943c 51f0 973d f723 b63d
00000050: 9429 f63c 79d3 093d 9703 9d3c 910c a53d
00000060: 3268 a73d 7f8c 02bd 07d2 d43b fdd9 02bd
00000070: ddd7 1f3d 1397 94bd b5d0 103d 4b07 95bc
00000080: 1a15 163d 0afd f43c 8c23 19bd b8cc 443d
00000090: 45fd 0d3d 3e28 92bd 99c2 a83d e9d6 913d
000000a0: 49e5 523d e168 12bc 450f ee3c d506 3abd
000000b0: 662c ebbc b60a 203d 6c86 0d3d c8b0 0c3d
000000c0: 6ea9 a5bd 750f 8d3d 5a4f 07bd 0443 963d
000000d0: 97cc 8d3d c5ef 023d 92de c03d 6976 623d
000000e0: a15f 663d f95a b8bc a196 aa3d 1fb8 e23c
000000f0: 7763 5b3d ae29 89bc 88c3 823d 475b bb3d
00000100: 0692 52bd 6805 a93d 9be0 20bd cc9b 3fbd
00000110: 5c02 5fbd b1b3 173d e306 5dbd 955c 8fbc
00000120: c956 1fbd 0b75 bc3c d162 a6bd a95a 11bd
00000130: e1fe ac3b e1d1 d43b 2b00 10bd 9c2b 093d
00000140: 0267 63bd fea8 8fbd abbf 36bc c97d 34bd
00000150: 19b7 5b3d f772 65bd 5b22 c2bb 8a6e 0f3d
00000160: 7619 94bd 3bb3 853d d1d1 16bd 4a47 b2bc
00000170: 21f5 4cbd 41d5 f6bc 9ce1 ffbc 8deb 95bd
00000180: d00f ed3c 15d0 8839 de4e a83d 62af 923d
00000190: 5e81 b03d 4ec3 193d aac7 663d de45 b53d
000001a0: 70d0 a03d 95d0 5bbd c199 0cbc f4c0 8fbd
000001b0: 8eec 8c3c 0766 acbc 252f a53d ba46 c43c
000001c0: d79c 283c 8b26 46bd a5ae 66bd 1de7 a73c
000001d0: 24e7 00bd 6565 1fbd 0899 6e3d 7d06 34bd
000001e0: 0457 19bd f1d3 823d 141d 043d a615 43bd
000001f0: a9f5 cd3c ffed 2a3d 5035 99bd 4e88 773c
00000200: e5c6 963c f063 62bb 3176 a33d 277b 62bd
00000210: 60bb 373d 55b9 35bd f781 92bd 038d 593d
00000220: 4daf 2abd bd3c f23a ce04 233d 3c55 98bd
00000230: 92d5 96bd 6261 aa3c ac28 893d e048 85bc
00000240: a3a8 983d 4376 373d 7045 273d df64 0bbd
00000250: 67f0 c73d 66ce 6b3d 3d82 013d dc8d 9f3d
00000260: 5234 56bd 6898 a33b e555 1dbd 303e 31bc
00000270: 84c2 4e3c 892f 803c 90b6 4a3b a982 6fbd
00000280: 618d 56bd 0650 8a39 08e1 6fbb 5c12 70bd
00000290: a5b9 bc3d 497b d33c 9670 2dbd ef44 523d
000002a0: ea59 4a3d 5077 dcbc 03ff 623d 9263 14bd
000002b0: 87c3 323d 720a c03d eb57 913d b4fd 653d
000002c0: 0f94 8eba 93fa 123d 30b8 3d3d 71c0 133d
000002d0: 3e3b eebb b51c ba3c 1f00 bcbc ffda 1bbd
000002e0: ddc1 78bd 5472 52bd c7f3 30bd 4ccb c23d
000002f0: aae5 023d f3a5 90bd 44a8 24bd 8db9 da3c
00000300: bf9a 8cbc fb69 87bc 9ac6 b4bc 221c 73bc
00000310: 21e1 4a3c e0da 373c faa9 8e3d d7f8 893d
00000320: 248a a53d 8472 6d3c 9279 cebc c721 233c
00000330: 38c5 1abd 943e 563d 8ecd c23b a82f debb
00000340: a6c3 56bd 3762 5f3d aa26 893d 4800 be3d
00000350: 6311 6fbc 10ae 3d3d 35ca af3c 4ac0 1abd
00000360: 9f20 22bd 4552 613d c88f 09bd 2188 8d3d
00000370: 490c 223d c12a 253d 21a8 833d 7ea4 443d
00000380: d8d0 213d 1bdd 6d3d 1329 a4bc 1e27 eebc
00000390: 4160 b539 b3f2 7d3d aee4 973d 6b4f 9c3d
000003a0: b656 35bc a82a 9e3b b008 2dbd 10a0 853d
000003b0: b279 2abd 58ce 96bc 359a aa3d 245d 0d3d
000003c0: 1376 a2bc e30f 2bbd f192 30bd cb1e ac3d
000003d0: 3d74 76bd edb0 b13d e15a ac3d f12c a93c
000003e0: b2d4 083c e2d4 a93d 8aab 5a3d 881f bf3d
000003f0: 33e9 a93d 6cf9 26bd 3552 863d db65 6d3d
-0.019365933 -0.04740089 0.096342996 0.03908947 -0.03638136 0.031728204 -0.011580422 0.027074803
0.048395257 -0.051680174 0.009869292 -0.06618871 0.011385612 -0.0855438 -0.00077891676 0.07393975
0.06921514 0.018089795 0.074188836 0.088935785 0.030049123 0.03364894 0.01916675 0.080590375
0.081741706 -0.03187227 0.006494764 -0.03194617 0.039024223 -0.072553776 0.03535529 -0.018191954
0.036641218 0.029905815 -0.037387416 0.048046798 0.034665365 -0.07136582 0.082402416 0.07121069
0.051488195 -0.008936138 0.029060015 -0.04541667 -0.028707694 0.039072715 0.034552023 0.03434828
-0.08088957 0.06887714 -0.03303466 0.07337001 0.06923788 0.031966943 0.09417452 0.055288706
0.056243543 -0.022504317 0.083295114 0.027675686 0.053561654 -0.016743507 0.06384951 0.09148269
-0.05140879 0.08252984 -0.0392767 -0.04677944 -0.05444561 0.0370366 -0.053961646 -0.017500201
-0.038901124 0.02300503 -0.081243165 -0.03548685 0.0052794074 0.006494746 -0.03515641 0.033488855
-0.055518158 -0.070146546 -0.011154096 -0.04406527 0.053641412 -0.056017842 -0.0059245056 0.035017528
-0.07231419 0.06528326 -0.03682119 -0.021762509 -0.05003846 -0.030130984 -0.031235509 -0.07320318
0.028938204 0.00026094975 0.08218168 0.07162358 0.08618425 0.037539773 0.05634276 0.08851217
0.07852256 -0.053665716 -0.00858158 -0.07019225 0.017202642 -0.021044744 0.08065633 0.023959506
0.0102913 -0.0483766 -0.056318898 0.020495946 -0.031470433 -0.038915057 0.05825141 -0.0439515
-0.0374365 0.06388081 0.032254294 -0.047628067 0.025141554 0.041730877 -0.07480872 0.015108181
0.018405387 -0.003454443 0.079815276 -0.05529323 0.04485643 -0.0443662 -0.07153695 0.053112995
-0.041671086 0.0018481236 0.039799504 -0.07438132 -0.07364954 0.020798389 0.06697211 -0.016270101
0.0745404 0.044790518 0.040837705 -0.034031745 0.0976265 0.057569884 0.031618346 0.077907294
-0.05229599 0.0049925335 -0.038411994 -0.010818049 0.012619618 0.015647667 0.003093157 -0.058474217
-0.052380923 0.00026381033 -0.0036602635 -0.05861126 0.092150964 0.025815623 -0.0423437 0.05133527
0.049402155 -0.026912361 0.05541898 -0.03622777 0.0436435 0.09376992 0.07096847 0.056150153
-0.0010877865 0.035883497 0.046318233 0.0360722 -0.007270246 0.022718767 -0.022949276 -0.038050648
-0.060731757 -0.051378563 -0.043201234 0.09511432 0.031957306 -0.07062902 -0.040199533 0.026699806
-0.017163632 -0.016530028 -0.022067357 -0.01483825 0.0123827765 0.011221617 0.06966014 0.067369156
0.08082989 0.014492635 -0.025204454 0.009956784 -0.03778574 0.052305773 0.005944914 -0.0067805834
-0.05243268 0.054537024 0.06696828 0.092773974 -0.014591548 0.046308577 0.021458725 -0.037781037
-0.03958189 0.0550101 -0.033584386 0.0691073 0.039562497 0.040323976 0.064285524 0.048008434
0.03950581 0.05807219 -0.020039117 -0.029071387 0.00034594725 0.061999034 0.07416664 0.07632335
-0.011068037 0.0048268624 -0.042244613 0.0652467 -0.041619964 -0.01840894 0.08330194 0.034512654
-0.019831693 -0.041763198 -0.043108884 0.08404311 -0.060169447 0.08676324 0.08415771 0.020651313
0.008351492 0.08292557 0.05338625 0.09332186 0.08296432 -0.04076521 0.065586485 0.057958465

bias f4 [32]
00000000: c21d 0b3d 3225 133d 4d09 583d 0d38 00bd
00000010: ef55 d5bc 159d bd3c 3a15 7cbd ce8f 283b
00000020: 6e71 143d 54be 9bbd 9250 c9bb 8a47 d03b
00000030: 36bf 6fbd cf24 893d 2b0f 053b 609d 9cbd
00000040: 05d1 e0bc ced6 b93c c690 823d f493 b5bc
00000050: a390 943d 50e4 04bd d194 65bd e155 20bc
00000060: 8e9a 5abd eb13 df3c ea95 6c3d 73fe 8bbd
00000070: 1b3a 86bd a6cc 423d 81b8 76bc fe1d 8f3d
0.033963926 0.035924144 0.052743245 -0.031303454 -0.026041953 0.023146192 -0.06154368 0.002572048
0.036240987 -0.076046616 -0.006143638 0.0063561844 -0.058531962 0.06696474 0.002030323 -0.076472044
-0.027443418 0.022685435 0.063752696 -0.022165276 0.0725415 -0.0324443 -0.056050126 -0.0097861
-0.05337005 0.027231177 0.057760157 -0.06835642 -0.065540515 0.04755845 -0.015058638 0.069881424

weight f4 [64, 32, 3, 3]
00000000: aa2b 553d f890 28bd 20fc 043d d948 6ebd
00000010: 950d b53c 7ff9 10bd 52f0 84ba 8049 663d
00000020: 4000 f23b 183b 4cbc 8200 453d 41f7 463c
00000030: 901f 973d 73e9 bdbc e0ed 423c 41ed d7bc
00000040: 1011 2abc 3f41 e93b da07 c2bc be0b d9bc
00000050: 8ed6 1cba fb1c 93bc 71e2 afbc dc2e 923c
00000060: 542d dfbc bea3 4c3d 068d 633d e99f 703d
00000070: 866c c13c cc80 ba39 d165 afbb d905 b6bc
00000080: acd0 3e3d 7753 143d 4100 4a3d 8f16 78bb
00000090: ad66 23bd 81ec a63c b909 563d 0379 07bc
000000a0: 022d 473d e233 2e3d d2ad b43c 5d3b 6ebc
000000b0: 13a0 97bc a67c 0ebc ba60 33bb 6d07 20bc
000000c0: bb9d 69bd 3904 22bd 4061 85bc a8d1 3c3d
000000d0: c412 d53c 09e9 4dbd ed58 1ebd df9b fdbc
000000e0: d9be 743d 29a9 953c afdf 503d 433e 32bd
000000f0: e23e 673d 1130 533d 96e0 013c 23d0 e3bc
00000100: 7ca5 ba3c b3b6 03bd 7341 c8bc b52d b43c
00000110: 3862 3abd ea60 6a3c 83ee 4cbb 9968 053a
00000120: 8b9d 653b a920 783c 94f8 0cbd 9e21 cf3c
00000130: ab77 5dbd 1907 d43c 2b82 3fbd 99ce 6d3d
00000140: f903 7d3c 3fd5 8a3c a7ea 803c c38b 413c
00000150: 6f9d afbc f646 67bd cd9f 143d 55d9 183d
00000160: 9e35 18bc b335 9e3b 56c5 80bb 71aa 5fbc
00000170: 8dcf 223d 203b 11bd 9464 63bd eb26 27bc
00000180: 4035 0ebd bd71 21bd 0c65 8ebc 9e53 1dbc
00000190: a4de f63c 98cc bb3c a3ab 1b3d 5fd8 0a3d
000001a0: 69fe d83b ac60 31bc 625c 50bc 0cb9 62bd
000001b0: 546d 90bb ecc1 b7bc 9190 d0bc 3586 3e3d
000001c0: bc0a a53c 1efe 003d 6e5c 163d 4a93 14bd
000001d0: 7acf 853c cd46 c3bb 1b46 b53c 53e6 133d
000001e0: b90e 57bc b3b5 3c3d 9729 8d3b 131f 1abc
000001f0: 91a3 263d ef9b 433d 962a 88bc 6f8e 0b3d
00000200: aba9 55bc 43ed d4ba e1c5 29bd db20 cbbc
00000210: 42e6 043c 3ed0 54bc 9176 adbb 1c83 833c
00000220: 538e b0bc 53a5 063d 8870 753d bd37 493d
00000230: 79c2 5c3d 930b 66bc b40a 8d3b 2c58 8fbc
00000240: 8a02 d9bc 5783 30bc d0d7 1c3d 47b9 58bd
00000250: 0c3f ecbc 22d9 063d 9564 073d 9e28 4bbc
00000260: 20ad 2abc 8320 183c 0383 763d 32d8 763d
00000270: 8ce5 20bc 47b6 e33c cc12 1dbd 917f a2bc
00000280: 4f57 6a3c e62e 303a 3063 d0bc 8c91 523d
00000290: 5a21 053d c1f7 e63b 7ec3 67bc 9a70 923b
000002a0: 7c8b 523d ce9b edbb c4e7 0d3c c087 053d
000002b0: baee 473d 4033 4d3d fc3d 5dbc e01a 183d
000002c0: 4b92 c13c 4d05 c23c b86e 11bd b0d4 8f3d
000002d0: 1cef c83c fbb5 b73b 76b1 9c3c f4db 94bc
000002e0: 4420 36bd 73d2 8abc 57a9 69bd b260 423d
000002f0: e1fc bc3c 4195 873c 92f5 1ebd f330 19bd
00000300: f698 0e3d 427e 3ebd af64 4e3c 7cfa 393d
00000310: a06a 4cbd c84a 303d dc94 edbc c65d 0b3c
00000320: f5c1 7c3d 0072 823d fe29 973d e97a 903d
00000330: e9e1 0cbd 45ab 053d 1dff ebbc 589c 543d
00000340: 497b 103d b417 843d 57ad 033d 0443 733d
00000350: d667 8c3c 75e7 e0bc fe45 96bc c7ac a73c
00000360: a273 62bd 1f48 423d 87bd 1abd 0971 41bd
00000370: fd46 673d 4ea8 24bd 9f25 efbc cb84 8539
00000380: a9d5 843c 804f a8bc 272b 043d 8bed 17bd
00000390: 7c51 473c 54a4 69bd 5744 55bd 021d b13c
000003a0: 521f f03c 197f cfbc 96bc ae3c 0a4d 6fbc
000003b0: 6a9b 093d 8222 e93b 2c92 46bc 8dec 443c
000003c0: ca5b 62bd 01f0 0a3d 8ac4 623d 3221 523d
000003d0: dec0 05bd 5304 b8bc efaf cabc abf6 293c
000003e0: 993f 23bd 5a93 30bd e2d8 afbc 35a9 593d
000003f0: 442e 953c 908d 5bbd b8e1 d1bc ced3 3bbd
0.052043594 -0.041153878 0.032467008 -0.05817494 0.022101203 -0.035394188 -0.0010142422 0.05622244
0.0073852837 -0.012465261 0.048096187 0.012143911 0.07379067 -0.023182606 0.011897534 -0.026358249
-0.010380045 0.0071183736 -0.023685385 -0.026494857 -0.0005982899 -0.017958155 -0.02147028 0.01784461
-0.027243294 0.049960844 0.055554412 0.058746252 0.023611318 0.00035572646 -0.0053527136 -0.022219585
0.046585724 0.03621241 0.04931665 -0.0037855243 -0.03989284 0.020376446 0.052255366 -0.008268598
0.048626907 0.042529948 0.02205554 -0.0145405205 -0.018508947 -0.008696711 -0.0027370886 -0.009767395
-0.05703519 -0.03955481 -0.016281724 0.04609838 0.026009925 -0.050271068 -0.038659025 -0.030958114
0.05975232 0.018269138 0.05099457 -0.04351641 0.056456454 0.05155951 0.007927081 -0.027809208
0.022783987 -0.032156657 -0.024445271 0.021994451 -0.045503825 0.014305333 -0.0031270094 0.00050891336
0.003503653 0.015144506 -0.03441675 0.025284585 -0.054069202 0.02588229 -0.046754997 0.058058355
0.015442842 0.016947387 0.015736891 0.011813107 -0.021437375 -0.056464158 0.03628521 0.03731664
-0.009290127 0.004828179 -0.0039297743 -0.013651476 0.039748717 -0.035456777 -0.05551584 -0.01020215
-0.034718752 -0.03941511 -0.017382167 -0.009602455 0.03013546 0.022924706 0.038005482 0.033897754
0.006622125 -0.010826271 -0.012717338 -0.055352256 -0.004407564 -0.022431336 -0.02545956 0.04651471
0.02014672 0.031492345 0.03670924 -0.03627328 0.016334284 -0.005959368 0.022128155 0.036108326
-0.013126069 0.04607172 0.0043079364 -0.009406823 0.040683333 0.04775613 -0.016621869 0.034071382
-0.01304094 -0.0016245026 -0.041448478 -0.02479594 0.008111538 -0.012989102 -0.005293675 0.016053729
-0.02155224 0.03287251 0.05992177 0.04912542 0.0538964 -0.014040845 0.0043042544 -0.017498098
-0.026490469 -0.010773501 0.038291752 -0.05291107 -0.028838657 0.032921918 0.033054907 -0.012399821
-0.010417253 0.009285095 0.060183536 0.060264774 -0.009820353 0.027796878 -0.038348004 -0.019836219
0.014303043 0.00067208556 -0.025437921 0.051408336 0.03250251 0.0070485775 -0.01414573 0.0044689896
0.051402554 -0.0072512394 0.008661214 0.032600164 0.04881165 0.050097704 -0.013503548 0.037135005
0.023629328 0.023684168 -0.03550598 0.07022989 0.024528079 0.0056064106 0.019127589 -0.018171288
-0.044464365 -0.016946053 -0.05704626 0.047455497 0.0230698 0.016550662 -0.038808413 -0.037400197
0.034813844 -0.046507128 0.012597247 0.045404896 -0.049906373 0.043040067 -0.029001646 0.008506244
0.06170841 0.063694 0.07381056 0.07054693 -0.034395132 0.03263404 -0.02880817 0.051906914
0.035273824 0.064498335 0.03214773 0.059390083 0.017139357 -0.027454117 -0.018343922 0.020468129
-0.055286057 0.04743206 -0.037778404 -0.04722694 0.056464184 -0.04019957 -0.029192744 0.00025466675
0.016215162 -0.020545721 0.032267716 -0.037091773 0.0121654235 -0.05704148 -0.052067127 0.021620277
0.02931181 -0.02532916 0.02133016 -0.01460577 0.03359548 0.0071147094 -0.012119811 0.012019289
-0.055263318 0.03392029 0.055363216 0.05130119 -0.032654636 -0.022463 -0.024742095 0.010373752
-0.039855573 -0.043109275 -0.021465722 0.053139884 0.018210538 -0.0536018 -0.025620326 -0.04585629

bias f4 [64]
00000000: 55d9 043b da1a b53c db19 7c3d 9679 8d3b
00000010: 27fa 8d3b 2330 c6bc 5c4f 23bd 6d4e 49bd
00000020: b646 793c 635f 07bb a142 3a3d c316 203d
00000030: 4e7a 863b 16c8 39bc 7315 2a3d f74e 4bbd
00000040: 3aad b839 a51c b23c f480 7dbd dc00 3c3d
00000050: a315 54bc 548f 433d c8a7 e3bb fc87 26bd
00000060: ebbc fc3c 720b 19bd f004 25bd 8abb 97bc
00000070: 52c7 163d a879 a33c ffd9 463d d254 88bc
00000080: 15ad 97bb 88f7 7cbc f3bc 663d a0c4 3f3b
00000090: 57ee 5dbd 4985 723c 224c 13bd 7f2d 663c
000000a0: 08e2 8b3c 07f7 d0bc cb5b 47bd 6996 1bbb
000000b0: c023 18bd 40a8 6c3d ee7b b8bc 5d83 1cbc
000000c0: d303 1b3d 4534 cebb bcbd 653a e07f 62bd
000000d0: 53f6 f03c e20b 313d d7d6 5abd a00e 723d
000000e0: 7932 313d 11e9 923c e080 a8ba d27b 27bb
000000f0: 2948 6a3d e418 dc3c 5896 eabc 3b31 f0bc
0.0020271142 0.02210753 0.061548095 0.0043174727 0.004332799 -0.024192875 -0.039870605 -0.04914706
0.015214613 -0.002065622 0.0454737 0.039084207 0.0041039353 -0.011339208 0.04152436 -0.049635854
0.0003522428 0.021742174 -0.061890557 0.045899257 -0.012944612 0.04774411 -0.0069474913 -0.04065703
0.030851802 -0.03736443 -0.040287912 -0.018522043 0.03681118 0.019955471 0.04854774 -0.016642008
-0.0046287873 -0.015439875 0.05633254 0.0029261485 -0.054182377 0.0148022855 -0.035961278 0.014048933
0.017075554 -0.025508417 -0.048671525 -0.0023740774 -0.03714347 0.057777643 -0.022520032 -0.009552804
0.037845444 -0.006292852 0.00087639294 -0.055297732 0.029414332 0.043224223 -0.053427543 0.05909598
0.043261025 0.0179334 -0.001285579 -0.002555598 0.057197724 0.026867338 -0.028636143 -0.02932035

weight f4 [128, 64, 3, 3]
00000000: 02aa 083d 2735 d3bc ba98 93bc c78a 0abd
00000010: 2507 123c e4c6 45bc 76ed 063d 6f03 bebc
00000020: 3fef fd3b d888 01bd 33e0 05bd c9d6 38bd
00000030: f0c2 e2bb 2660 1a3b e3ff 0b3c fc44 fa3c
00000040: 975b 203c 59bd 2cbc b5ae fb3c e4ec 14bd
00000050: 34a9 253d c44e f0bc 14c7 b13c 3b61 efbc
00000060: 33e7 6c3d fd5e df3c ae46 0b3d f2cd 253c
00000070: bde1 b0bc 42da 39ba 4d9a 013c bc59 1e3c
00000080: 6830 1a3c d802 fc3c a9fe 12bc 83c0 f0bc
00000090: 4786 933c 0a36 f33c fa51 e93c b498 f4bc
000000a0: 72d0 0abb 1016 063c d5b7 e6ba f619 913c
000000b0: ab6c 27bd c53b a73c 9764 73bc d441 9d3b
000000c0: 7c02 34bc c028 23bd 9be3 5d3c 8a25 ffba
000000d0: 5da5 dfbb e603 eb3c db15 0a3d 94e1 a4bc
000000e0: bb1c 59bc a238 6fbc 2291 02bd 373e 23bd
000000f0: 70b2 abbc 479d d7bc 0dea 12bc 78e0 7fbc
00000100: 579d 8f3c 9fe1 85bc 51a2 193c b5ae 57bd
00000110: ff64 8fbc 15ac 9ebc 13fc 4eb9 8317 693c
00000120: 6498 883c f674 09bb e63d 053c 2be5 993c
00000130: e0c2 c13c 3173 d33b a9d4 28bd 8924 7b3c
00000140: 246b edb8 568b b43c 2949 e23b c66d aa3b
00000150: 83c5 7abb 4ac0 a63c 8326 dc3c 4827 0c3d
00000160: 3c3a 2cbd 5e65 6b3c cf47 fd3c 7e4c bbbc
00000170: ca96 1fbd 54a0 bd3c aaa5 ec3b 1897 0e3d
00000180: 657e b13c b5c6 223d 4357 e5bc 3a55 b8bc
00000190: 80f0 47bd d35f 5dbb 8113 923c fcd8 1ebd
000001a0: cc4f 8d3c 027e 41bd 2164 8f3c e0fc 3fbd
000001b0: 3b67 0dbd e28d bbbc 5fb8 273c 4872 23bd
000001c0: bbc8 913c f7c7 27bd 374a c3bb 8b48 81bc
000001d0: 2d7f 26bc 906f 2cbd d7e3 d43c 5641 c43c
000001e0: 5019 6abd 82e4 9dbc b57b 2dbd d9ab 50bd
000001f0: 7965 e5bc 8f3e 533c 4671 29bd 0618 153d
00000200: 1424 0e3d 5b53 6c3c 6407 eb3c cbe5 8f3b
00000210: ede8 8c3c b375 973c 7757 24bd dc82 123c
00000220: 1e7a 4fbb 8eec 2abd 519f f93c aa38 75bc
00000230: 2477 843b 3a28 bfbc 9a9b c63c c1c1 c239
00000240: 02af 8fbc 4364 a9bc 35f6 073c 84cf 1cbd
00000250: 1ac1 803c d2a3 19bd e665 e6bc ce0f 663b
00000260: 97dd ccbc b5d8 343c 563c eebc 12c2 80bc
00000270: c723 663c 630f 9d3c c3cf 44bc 79f9 3a3c
00000280: 8ad9 10bd d5f5 36bc 451d c43c 639a babb
00000290: d513 1dbd 8643 e4bb 57bf 17bc e55e 413c
000002a0: a520 42bc b458 03bd f5a9 be3b 9d5a e63c
000002b0: 02e8 49bc 2a7a 1a3c f6aa 933b 7526 883b
000002c0: ffde 13bc ff54 abbb 539e 2fbd bb09 b13c
000002d0: a89a dbbc 293a 0bbd e26d d8bc 1b72 243c
000002e0: 429a 24bc e496 d4bc 2323 ad3c 42f1 b6bc
000002f0: aef6 fcbc 327b ab3c 7858 8ebc 263f e1bc
00000300: 8379 36bc 5f22 a2bc 7bd7 0e3a 670b 7ebc
00000310: 2a24 763b 2aeb 5739 4e9e d13c 35e9 bd3c
00000320: 0b75 bcbc 5dca 503c 9b4b 24bd 1fd1 11bd
00000330: a886 01bd 153d acbc 7631 30bd 27a9 8f3c
00000340: dcdb df3c d7ed 23bd b598 34bd 8d88 a3bc
00000350: 7038 cc3c 1854 413b 9335 14bc b253 e53c
00000360: 7762 b93c f760 4e3c 8457 e7bc baa6 8bbc
00000370: f2dd 64bc 6767 83bc 3dde 1f3b b5c7 4e3c
00000380: 028f 17bd 61e1 2dbd df22 1bbd 4b6a 1b3c
00000390: 50f7 f0bc c02a 963c 62e7 303c 8ee1 073c
000003a0: 6a58 a3bc 4ca8 8c3c c9c4 d13c 3815 253c
000003b0: 46c1 4aba d4d8 6d3c 9498 993a 256b d83b
000003c0: 6389 543c 5293 073d 0748 39bc 63ec 9d3c
000003d0: 0df6 fa3c bcf2 10bd 62b4 3cbb 68e6 15bd
000003e0: b3ed 06bd 0ab8 c43c 15be 0cbd d5ff 163d
000003f0: a8a5 073d e242 01bd 7646 28bd 8532 2cbc
0.033365257 -0.025782181 -0.018017162 -0.033823755 0.008912836 -0.012071345 0.032941304 -0.023194997
0.0077494676 -0.031624645 -0.032684516 -0.04512671 -0.006920211 0.0023555844 0.008544895 0.030550472
0.009787462 -0.010543191 0.030722955 -0.03635873 0.040444568 -0.029334433 0.021701373 -0.029221168
0.057837676 0.027266974 0.034002952 0.010119902 -0.021592015 -0.0007089713 0.007910323 0.009664949
0.009410955 0.030763075 -0.0089718485 -0.029388672 0.018008364 0.029688854 0.028481472 -0.02985797
-0.0021181372 0.008183971 -0.0017602394 0.017712574 -0.04087512 0.020414243 -0.014855525 0.004799107
-0.01098692 -0.039833784 0.013543035 -0.0019466144 -0.0068251328 0.028688382 0.03371225 -0.020127095
-0.013251479 -0.014600905 -0.03187669 -0.039854255 -0.020959109 -0.026320113 -0.008966935 -0.015617482
0.01753108 -0.016342936 0.009377078 -0.052656848 -0.017504213 -0.019369164 -0.00019739596 0.014226797
0.016674228 -0.0020974255 0.0081324335 0.018786034 0.023652494 0.006452941 -0.041218434 0.015328535
-0.00011320997 0.022039097 0.006905694 0.0052010743 -0.0038264699 0.020355362 0.026873833 0.03421715
-0.042047724 0.01436743 0.03091803 -0.022863623 -0.038962163 0.02314774 0.007221897 0.034812063
0.021666715 0.039740283 -0.027995711 -0.022501577 -0.048813343 -0.003377904 0.017831566 -0.03878115
0.017249964 -0.04723931 0.0175038 -0.04687202 -0.034522276 -0.022894803 0.010236829 -0.03990391
0.017795911 -0.040962186 -0.005959775 -0.015781661 -0.010162157 -0.04209858 0.025987549 0.023956936
-0.057153046 -0.019274 -0.042354304 -0.050945137 -0.028002487 0.012893333 -0.04136779 0.036399864
0.034702376 0.01442417 0.028690048 0.004391407 0.017200911 0.01848874 -0.040122475 0.008942332
-0.003165848 -0.041729502 0.030471476 -0.014967123 0.004042523 -0.023334611 0.024244118 0.0003714692
-0.017539505 -0.020677691 0.008298446 -0.03828384 0.015717078 -0.037509747 -0.02812476 0.0035104635
-0.025008006 0.011037995 -0.029081505 -0.01571754 0.014046616 0.019172376 -0.012012425 0.011412018
-0.03536371 -0.011167009 0.023939738 -0.005694674 -0.03834899 -0.0069660572 -0.009261928 0.01180241
-0.011848603 -0.032067016 0.0058186003 0.02811938 -0.012323381 0.00942854 0.004506464 0.004154975
-0.009025334 -0.005228638 -0.0428756 0.021611085 -0.026807144 -0.033991013 -0.026419584 0.0100369705
-0.010046544 -0.025950857 0.021134919 -0.022331838 -0.030879345 0.020932768 -0.01737617 -0.027495932
-0.011137369 -0.01979178 0.0005448979 -0.015505648 0.0037558177 0.00020591603 0.02558818 0.02318249
-0.02300503 0.01274356 -0.040111165 -0.035599824 -0.03162256 -0.02102522 -0.04301592 0.017536713
0.027326517 -0.040021744 -0.044090945 -0.019962573 0.024929255 0.0029499587 -0.009045976 0.02799401
0.02262996 0.01259636 -0.028239973 -0.017047275 -0.0139689315 -0.016040517 0.002439394 0.012620856
-0.037001617 -0.042451266 -0.037875053 0.009485791 -0.029414803 0.018330932 0.010797353 0.0082935225
-0.01993962 0.017170094 0.02560653 0.01007586 -0.00077344885 0.014517028 0.0011718445 0.0066045695
0.012972209 0.03309948 -0.011308677 0.019277757 0.030634904 -0.03538774 -0.002879404 -0.036596686
-0.03294153 0.024013538 -0.034360964 0.036865074 0.033116966 -0.031557925 -0.04108282 -0.010510092

bias f4 [128]
00000000: dbbb c9bc 542e c93c aa10 31bd 3f76 0ebc
00000010: 3a06 e53a 16da fb3c 26aa aabb f9c6 273d
00000020: dc27 0b3d f3f7 21bd 9f36 f2bc 9880 36bd
00000030: 2158 9cbb 44c8 dcbc 1639 01bd 3d7c dbbc
00000040: 5703 013d 9e7d 0d3d 5ebd 503c 6303 853c
00000050: e365 973c f891 b7bc 989e 023d 68a8 193d
00000060: 4bd9 14bc de5a 5b3c 50bd 1dbd 75c4 04bd
00000070: ec80 5dbc 3810 f5bc ecc5 f23c 47cf e4bc
00000080: a3c9 b73b 131a e63b c1b3 753b 1fea 01bc
00000090: 2465 203d 21e4 eb3c 8c8c 553b a293 483c
000000a0: 28ac 47bc 2d6c a13a c7db 70bb 6b30 9fbc
000000b0: 1c9f ea3c 07dc efbc afea 0e3d bce3 f93c
000000c0: 9c01 363c 9b21 2dbc 1eb1 7e3c 8069 063c
000000d0: 40b5 9cbc c994 06bd cfd6 a1bc 24f7 3c3d
000000e0: 9182 f63c 6429 edbc 383c 383d df1d 25bc
000000f0: 9b7d e0ba 6886 4a3b 1a8b 1dbd cd68 50bc
00000100: e49c c1bc 4896 1fbd d6cd 063d d081 9c3b
00000110: e816 143d 389d 1e3a c9f7 193c 4fef 413c
00000120: 5eb6 02bc 3114 f8bb 88a5 913c a08c 98bc
00000130: a7de 24b9 04db f43b 8fdd 6e3b 556d 9f3c
00000140: d13f 893a c7dc a53c 142a 3abc e2aa f7bc
00000150: aeec 753b 358f 123d 4595 653c e776 123d
00000160: efd2 26bc 7ad2 633a c08f 293d e1a1 18bd
00000170: 6343 c83c 29dd cb3c f2db 02bd 45ef 613c
00000180: b7fb ddbc b201 94bc ee0e 983c 9105 fd3c
00000190: 0986 e0bc 8eeb 183d 69d7 26bd beea 623c
000001a0: 61e7 533c 048d 3bbb 71df b1bb 1fba b3bc
000001b0: dd10 cabc 38b1 22bb ec69 493b 6137 bebb
000001c0: ff6a 703c 4dd3 193d 0c89 00bd f457 8abc
000001d0: 69ad 18bd 3f8b aebb f7ed 053d c1c9 83bc
000001e0: cc17 21bd b5c0 88bc 428d eb3b 6609 19bd
000001f0: 8535 ff3a 8afa 1ebd 8a72 94bc ecaf 3fbc
-0.02462571 0.024558224 -0.043228783 -0.008695184 0.0017473169 0.03074364 -0.0052082716 0.04096124
0.03397356 -0.039543103 -0.029567061 -0.04455623 -0.004771248 -0.026950963 -0.031548582 -0.02679264
0.031497326 0.034543626 0.012740461 0.016236966 0.0184812 -0.02240847 0.031889528 0.03751412
-0.00908501 0.013388364 -0.03851062 -0.03241392 -0.013519507 -0.02991496 0.029635392 -0.027930869
0.0056087538 0.0070221513 0.0037491175 -0.007929354 0.039158955 0.028795304 0.0032584993 0.01224223
-0.012187041 0.0012315564 -0.0036752091 -0.019432267 0.028640322 -0.029279722 0.03489178 0.0305041
0.011108782 -0.010567094 0.015545158 0.008203864 -0.019129395 -0.032856736 -0.019755749 0.04613413
0.030091556 -0.0289504 0.044979304 -0.010077923 -0.0017127277 0.0030902866 -0.038462736 -0.012720299
-0.023634382 -0.03896168 0.032911144 0.004776217 0.036154658 0.0006050649 0.0093974555 0.011836841
-0.00797805 -0.0075707664 0.017779127 -0.018621743 -0.00015723203 0.0074723978 0.0036447977 0.019461313
0.0010471289 0.020246876 -0.011362571 -0.03023285 0.0037525105 0.035781104 0.014012639 0.035757925
-0.010182126 0.0008690726 0.041396856 -0.037263755 0.024446195 0.02488573 -0.031948037 0.013789956
-0.027097566 -0.018067215 0.018561807 0.030886443 -0.027407663 0.037334017 -0.040732775 0.013849912
0.012933583 -0.0028617987 -0.0054282476 -0.021939335 -0.024666244 -0.002482487 0.00307333 -0.0058049415
0.014673947 0.037555028 -0.031380698 -0.016887642 -0.03727475 -0.005326658 0.032697644 -0.016087415
-0.039329335 -0.016693452 0.00718847 -0.03736248 0.0019470906 -0.03881315 -0.018121023 -0.011699658

weight f4 [128, 64, 3, 3]
00000000: d157 f53b 0372 7c3b 202b 523a fb14 643c
00000010: 56d4 193d 7041 20bc 553b 0b3d 0488 0c3d
00000020: b31c f1bc 5080 d3bc 8ee7 05bc d61b 233c
00000030: c175 d63c ecd0 efbc e8ee 093d 5bf0 843c
00000040: 9545 26bc 53e4 0d3d cce5 b93c 8cb6 dd3b
00000050: d552 fa3b 15dc dc3c acf7 fc3c 69ea cf3b
00000060: 51d1 35bc 09c9 3e3c 80c7 9dbc ca71 91bb
00000070: ab1e bcbc 8821 e0bb 7e00 2bba a19c 023c
00000080: 8dd2 383a 003b 14bd 6914 803c 7932 6abc
00000090: b78e b6bc b177 f03b 8a0e 1d3d 7cb6 ddbc
000000a0: 4cde 7d3c b636 fb3c 7622 103d 3738 a83c
000000b0: dcb7 b2bc 0a04 1bbb 1931 edbb bbb2 b03c
000000c0: c8a2 0bbd b6a0 49bc 4603 0bbd 0149 27bd
000000d0: 4445 963c ec69 c7bc 67cb 9f3b 5fd4 1c3d
000000e0: a49b 933c 2a25 193d bd60 893b 3657 c4bc
000000f0: 24c7 19bd a888 fdbc 49d2 fa3c c32c 123d
00000100: 9369 05bc 2f78 193d 12d6 3a3c 085c debc
00000110: d0c4 fa3c d6a9 d23c ce33 d0bc ad81 bc3c
00000120: 9d6a 133c e89e 0cbd 28bd 093d 2c23 ddbc
00000130: da79 f63b a55a 0d3c b006 0ebd ed66 913c
00000140: d390 6abb caaa aebc de38 a2ba 0746 7dbc
00000150: 10ee 17bd 68b3 943c ff56 e6bb fd97 993a
00000160: 7df7 04bd fae8 c3ba a9b7 d23b 60a5 503c
00000170: 19c2 183d 6ada 923c 5899 d2bc 3b9f 09bd
00000180: a8c7 343d fe13 14bd 12ad f2bc 286f 07bd
00000190: 2350 433c 2fe6 12bd 2ded 0dbd 7f77 213c
000001a0: fb3c 0dbd 0daa 5a3b 38db d9bc ecb8 e2bc
000001b0: d643 693c c3c0 0bbc 3c02 d33c d8d7 6d3c
000001c0: 6474 77bc 88a1 fe3a f4df 493c fa41 9fbc
000001d0: bc09 0ebd f8f9 52bc bb45 11bc d470 80ba
000001e0: 38db 1dbd b6ce 193c 0b4c f1bb 2d78 02bd
000001f0: bff9 d03c 6927 90bb 7ade 573c 0674 bdbc
00000200: 4d93 143c 2450 ebbc af83 7ebc 4dbb 08bd
00000210: ece3 b9bc 7ebf a3bc ec79 253c bb09 9b3b
00000220: 32c6 023d d7ac 273d 6579 ca3c 58e0 bdbc
00000230: 1b2f 813c 25cd b33c 5898 e63c e43e 8a3c
00000240: c5ba 0d3d a3b0 933b 3e6d ee3c 21c9 c6ba
00000250: 9fd5 2ebd 0f33 8abc 27c0 ef3b 240c c43c
00000260: 6047 e33c ad04 303d 9483 213d 2d9c cebb
00000270: 7a85 a5bb da00 ff3c e89d 913c ac1a 033d
00000280: 91e3 f5bc 92a9 0f3c 1414 a2bc 89d4 21bd
00000290: 944d 5c3c 11ab 073b 57e7 13bd ad43 3bbd
000002a0: 1072 f7bb 3cc3 343c 5d19 e43c bc1e aabc
000002b0: 72b4 ce3a 50c4 ad3c d5e5 99bc 0aa3 9b3c
000002c0: 6d7b 2a3d 4c0e b33c 1b73 0a3d 552e 08bd
000002d0: a90a eebc 2545 123d 5ff2 e13c 3bc7 aa3c
000002e0: e178 8a3c 0976 663c 9920 d43c ad49 c7bc
000002f0: c00f 003d 35e0 1ebd f811 e7bc 15b9 d93b
00000300: 1c54 a73c 3e4c 1d3a 767d 423c 1acb d3bc
00000310: 0f0e c8bc f8fd e53c dd52 9cbc d995 c03b
00000320: 3fe7 a4bb 87f3 d63c 21e4 a43b 664b bdbc
00000330: e6ca 71bc 21a8 153d acad 033a 07e7 5abb
00000340: e39f 383a a021 e0bb d7f6 94bc 74da 9c3c
00000350: a1bb 82bc af2e 243d 7218 d8bc 1d5f 123d
00000360: bed3 413c 0c3d 303c 1a5f c0bc 9d37 17bd
00000370: a49b bebb 802b 75bc 9d0e c93c a077 08bc
00000380: 8a9b e63c 6e4a b8bb a15d b5bc 7163 79bc
00000390: 9fbb c43c 127b d0bb 6741 5e3c 5564 31bd
000003a0: 5c81 dd3c b3b1 ffbc b845 163b ce59 233c
000003b0: 63ae 033d 839d 443d abcd 03bc c101 373d
000003c0: 5e2a 513c 4d21 3b3d 06f0 073d 5762 343d
000003d0: 73c1 0a3a 47b0 80bc 7164 0abd 152d c0bb
000003e0: d67d b23c 26b8 99bc 559f 873c aef1 053d
000003f0: 58ea 23bc 18fa ddbc 9283 b83c a2cf b8bc
0.007487275 0.0038520105 0.00080172904 0.013921018 0.037556015 -0.0097812265 0.03399213 0.034309402
-0.02943263 -0.02581802 -0.008172883 0.009955367 0.026179196 -0.029274426 0.033675104 0.016227892
-0.010148426 0.034641575 0.022692584 0.006766146 0.007639269 0.026960412 0.030879818 0.0063450825
-0.011097268 0.01164461 -0.019260168 -0.0044386135 -0.022963842 -0.0068399347 -0.00065232057 0.007971914
0.00070504175 -0.03618908 0.015634732 -0.01429426 -0.022284849 0.007338487 0.038343944 -0.027064554
0.015494894 0.030665737 0.035189115 0.020534618 -0.021816187 -0.002365353 -0.007238519 0.0215696
-0.034090787 -0.012306383 -0.03393867 -0.040841106 0.018343575 -0.0243425 0.0048765424 0.03828847
0.018018551 0.037388958 0.0041924403 -0.023967367 -0.03754343 -0.030948952 0.03061785 0.03568722
-0.008142847 0.03746813 0.011403577 -0.027143493 0.030611426 0.02571575 -0.025415327 0.023011053
0.008997587 -0.034331232 0.03362766 -0.02699431 0.00752185 0.008627568 -0.034674346 0.017749274
-0.0035791888 -0.021321673 -0.0012376567 -0.01545859 -0.03709227 0.018151954 -0.0070294137 0.001171827
-0.032462586 -0.0014946752 0.0064305854 0.012734741 0.03729448 0.017926414 -0.025707886 -0.03359912
0.04413572 -0.03615188 -0.029623542 -0.03306499 0.011920962 -0.03586405 -0.034650017 0.00985515
-0.034481984 0.0033365518 -0.02659379 -0.027676068 0.014237365 -0.008529845 0.025757901 0.014516793
-0.015103433 0.0019426802 0.012321461 -0.01944064 -0.034677252 -0.01287698 -0.008866723 -0.000979925
-0.03853914 0.009387663 -0.0073638014 -0.03185289 0.025509713 -0.0043992293 0.013175601 -0.023126613
0.009068322 -0.028724737 -0.0155343255 -0.03338175 -0.02269169 -0.019988772 0.010099869 0.0047313846
0.031927295 0.040936317 0.024716089 -0.023178264 0.015769532 0.021948406 0.028148815 0.016875692
0.034601945 0.0045071407 0.029104825 -0.0015166142 -0.042684194 -0.01687005 0.0073166075 0.02393157
0.027743995 0.04297321 0.039432123 -0.0063052387 -0.005051312 0.031128336 0.01777549 0.03200786
-0.030015739 0.008768456 -0.019784965 -0.03950933 0.01344623 0.0020701329 -0.036109295 -0.045718838
-0.007551439 0.011032876 0.027844125 -0.020766608 0.001577033 0.021211773 -0.01878635 0.018998642
0.041621614 0.021857403 0.03380118 -0.03324731 -0.029057818 0.035710473 0.027581392 0.020846954
0.016903343 0.014066228 0.02589445 -0.024327124 0.03126502 -0.03878804 -0.02820681 0.006644378
0.020425849 0.00060004357 0.0118707325 -0.025853682 -0.024420766 0.028075203 -0.019082481 0.005877238
-0.0050324495 0.02623917 0.005032078 -0.023107242 -0.014757847 0.036537293 0.00050231325 -0.0033401863
0.0007042868 -0.006839946 -0.018184109 0.019147135 -0.015958609 0.040083583 -0.026378844 0.03573524
0.011830268 0.010756742 -0.023482848 -0.03691827 -0.0058168937 -0.0149639845 0.024543101 -0.008329302
0.028150339 -0.005624107 -0.022139372 -0.015221463 0.024015246 -0.0063623274 0.013565398 -0.043308575
0.027039222 -0.031212663 0.002292974 0.009970142 0.03214873 0.048001777 -0.0080446405 0.044679407
0.012766449 0.045686055 0.03318789 0.044039097 0.00052931084 -0.015709056 -0.033787195 -0.005864749
0.021788519 -0.018764567 0.016555468 0.032701187 -0.010004602 -0.027096793 0.022523675 -0.022559945

bias f4 [64]
00000000: 0e29 a1bc 00d4 483d 491e 643c 5ac5 18bd
00000010: 342f 9a3c fe46 a53b 9cd3 163d 4b91 b2ba
00000020: f804 21bd 7613 cdbc 8ef0 a63b 797e 3fbc
00000030: a245 0c3c 1980 203c b202 553d 8370 d93b
00000040: dd56 6e3d e89b cfbc ce6a 533b c898 8bbc
00000050: a9ed 6f3c 15dc ab3c a365 a53a 3409 4aba
00000060: 7aac 953c 52b1 01bc 95db 963c 53ab 123c
00000070: 7c96 373d 89c2 89bb d0af 5ebb 1835 2d3d
00000080: e506 c03c 98a3 adbc 08e9 c53c 7064 883c
00000090: eb4a 3b3d a0d9 c9bc 3adf a23c c079 3b3d
000000a0: 83a6 053d 248a 5d3c 9034 a5bb 70b3 223c
000000b0: c486 98bc a298 babc 35ee b83c 6654 be3c
000000c0: 2a59 73bc f521 eb3c d7b7 433d 42da 653c
000000d0: 3e5e 75bc 1704 8cbb c585 a2bb 8c24 703c
000000e0: ae3e fa3c 7daf 83bc b2fb 5fbb 5c47 8d3b
000000f0: 7d3c 32bb 6cc0 d8bc 96ee d9bb 7da5 833d
-0.019672897 0.049030304 0.013923236 -0.037297584 0.018821336 0.0050438633 0.0368229 -0.0013623623
-0.03931138 -0.025033694 0.0050945943 -0.011687868 0.008561524 0.009796166 0.052004524 0.006635727
0.058188308 -0.025342897 0.0032259705 -0.017040625 0.014644065 0.020978967 0.0012618791 -0.000770706
0.01827072 -0.007915812 0.018415252 0.00895198 0.044821247 -0.0042040986 -0.0033979304 0.042286962
0.023440788 -0.021196172 0.02415897 0.016649455 0.045725744 -0.024639904 0.019881833 0.045770407
0.0326295 0.013521705 -0.0050416663 0.009930477 -0.018618949 -0.02277786 0.022574523 0.023233604
-0.014852801 0.028702715 0.047782745 0.0140290875 -0.014976082 -0.0042729485 -0.004959794 0.014657151
0.030547466 -0.01607489 -0.0034177122 0.004311485 -0.0027196698 -0.026458941 -0.006650756 0.06428049

weight f4 [64, 32, 3, 3]
00000000: 8122 dbbc b1ce 3fbd 1d32 2d3d fc66 233d
00000010: c179 e7bc addb bcbb 900a 1bbd 974e 013c
00000020: 53b0 c9bc e09a 10bd ce7a 6abd 8b0b 71bd
00000030: b5d0 5fbd ba2d ad3c e965 ee3c 0a02 42bd
00000040: 67b8 453d 163e cc37 608f cf3c 8dad 263d
00000050: 2c1c 63bc 2e98 0c3d 7770 ad3c 606d 14bd
00000060: d85c c93c a0be 49bd e175 4ebd 148c 18bd
00000070: 56ed 453d a1b4 a43c 7c18 943b d4aa 463d
00000080: 2ed1 c5bc c90e 52bb 2a42 553d da41 00bd
00000090: a6fa 4ebd 0b28 3ebd 9f6a 003d 979f 2cbc
000000a0: 1e33 3c3b dbf9 02bd c6b0 5b3d 33eb abbb
000000b0: 6eed 393d 17d3 6b3c b125 dcbc 7169 233d
000000c0: 7b54 a1bc 3a53 143d d7fd fd3c 2609 77bb
000000d0: e44c d439 6829 6e3d d97c b2bb 3c14 3e3d
000000e0: 411d 29bd e646 f6bc 8090 f1bc e5bc 51bd
000000f0: 215a abbb 45f7 37bb c2bf 343d 7beb 083c
00000100: b1e7 343d 2b29 433d b8e6 da3b 495a cebc
00000110: d9df 43bd 99c8 82bb 6d94 1fbc 5bf2 963c
00000120: 0640 ab3b 1de1 9dbc ba76 253c 1ca4 1d3d
00000130: 58fd 4ebc c40d 23bc 3949 4c3d 215c a73c
00000140: 6dc1 4d3d 6b8b 7b3d 79e7 523d 7072 11bd
00000150: 1c90 653d 2441 92bc 4e99 333d 8f3a 7a3d
00000160: bd17 22bd 97df 573d a152 9fbc 7886 2d3c
00000170: 29e5 083d bff2 dabb 1330 bdbc 80a9 1abc
00000180: 1f00 9b3b 5657 ccba 3ea1 2f3d dea3 b9bc
00000190: 52d6 6d3d e370 f2bc f0a8 78bd 07eb 09bd
000001a0: fcff 36bd 0a55 52bd 9c33 1dbd eafd 373d
000001b0: 66d5 e7bc e913 0b3d a90a 793d 6e9e 08bd
000001c0: 9e1b 43bd 1dd6 623c 0dea 21bd f0ce 22bd
000001d0: a162 22bd 54a3 d53c 2649 96bc 9666 24bc
000001e0: 8929 d73c 78ee 3c3d 7816 81bc 1ca4 f2bb
000001f0: dfc9 3fbd 2072 463d 92b4 bcba 8c08 103b
00000200: 6d2a 70bc 718b 383c e362 9d3c b44b 943b
00000210: 2868 a5bc a229 0fbd 3646 26bc e90a 353d
00000220: 0ad6 22bd f129 7bbc 2605 42bd 2189 193d
00000230: bf78 3cbd 6b86 01bd 4a93 163d 2b5b 84bd
00000240: 7a73 d4bc ab74 133d b86a 473d e510 1dbd
00000250: ec91 683d faa5 f9bc c1fa 5dbd a77f 3f3d
00000260: 66a6 2cbd fb98 7f3a f30f 573c f16d 6abd
00000270: 923d 5d3d 9f25 013d cb5a 463c b940 e43c
00000280: 5447 273d b278 1b3c 9691 f4bc 150c 853b
00000290: cb36 6e3d f705 cfbc 86c2 3f3d be14 583d
000002a0: 6710 1cbd b89c 7dbc d408 db3b cbe6 f53c
000002b0: 8d67 4fbc e709 033d 7906 e6bc a793 113d
000002c0: d396 353b 035e 023c 1c07 793d e527 a33c
000002d0: b92e 8a3d f98c 313d d4e3 8d3d 0fa1 6d3d
000002e0: 11b9 d3bc d0b4 7d3b 5980 a43c 029c 98bc
000002f0: a4cf 363d d96c 14bd 785f 463d 8303 023d
00000300: 99d4 3cbd 6b2f 49bd ccdb d1bc 422d b53c
00000310: 80c3 39bd ce26 4abd d9cf 963c e7df 413d
00000320: 15ea 21bd 4e33 6f3d 8d55 b9bb 9aba a53c
00000330: 29e8 31bd 8416 efbb 8d51 863d 988a c7bc
00000340: 1c25 283d 69f1 0dbd 9b12 35bd 8a57 2c3a
00000350: a769 b83c e1b8 d53c a54c 7bbd cba4 87ba
00000360: fd11 d63c 1d94 193d 9e0f 5ebd 5ac8 4fbd
00000370: cb42 25bd c31f 913c e605 3cbc f64c c83c
00000380: 569b 14bc 1fbe 4bbd 2ccd a2bc 4610 213d
00000390: a5f7 3ebd 1ded d83c 39d1 6b3d 7ad8 ddbc
000003a0: 2b65 5cbd 57b1 2cbd 12c0 6a3d 4eac 1c3d
000003b0: 8730 c2bc bb53 0d3c 2a1d 793d 2814 13bd
000003c0: 3425 113d 905f 5cbd f48d 543d 469f 1f3c
000003d0: 282c 103d 58f0 f93c 016e 513b c074 593d
000003e0: cb77 d63b 90f0 69bc 0ded bb3c ac7a ac3c
000003f0: e7f7 2b3d ba07 55bd 200d 34bb 6580 abbb
-0.026749851 -0.046827976 0.04228412 0.039893135 -0.028256299 -0.005763492 -0.03785187 0.007892272
-0.02462021 -0.03530395 -0.057246022 -0.0588489 -0.054642398 0.021139968 0.029101329 -0.047365226
0.048271563 2.4347606e-05 0.025336921 0.040692855 -0.013861697 0.034324817 0.021171791 -0.03623712
0.024580404 -0.04925406 -0.050405387 -0.037242964 0.048322044 0.020105662 0.0045195203 0.04850276
-0.024147596 -0.003205227 0.052065052 -0.0313128 -0.050532006 -0.046424907 0.03135168 -0.010536096
0.0028716992 -0.031976562 0.05363538 -0.005246544 0.045392446 0.014393589 -0.026873441 0.03989548
-0.019693604 0.036212184 0.03100483 -0.0037694662 0.0004049308 0.058144957 -0.005447012 0.046406016
-0.041287664 -0.030063104 -0.029487848 -0.051205534 -0.00522925 -0.0028070968 0.044128187 0.008356924
0.04416627 0.047646683 0.006680336 -0.025189536 -0.0478209 -0.0039911983 -0.009739977 0.018426111
0.005226138 -0.019272381 0.010099107 0.038486585 -0.012633644 -0.009952012 0.049874518 0.020429673
0.050233293 0.061412256 0.05149028 -0.035509527 0.056045637 -0.017853327 0.043847375 0.061091002
-0.03957342 0.052703466 -0.01944858 0.010591142 0.03342167 -0.0066817696 -0.023094213 -0.009439826
0.004730239 -0.0015589993 0.042878382 -0.022661146 0.05806572 -0.029594844 -0.060707986 -0.033671405
-0.04467772 -0.05135063 -0.038379297 0.044919886 -0.028299998 0.033954535 0.060801182 -0.033354215
-0.04763376 0.013844994 -0.03952985 -0.039748132 -0.03964484 0.026078857 -0.018345427 -0.010034224
0.026264923 0.04612586 -0.015757784 -0.0074048173 -0.04682338 0.04844868 -0.0014397076 0.002197775
-0.014658553 0.011263714 0.019212192 0.004525626 -0.020191267 -0.034951814 -0.0101485755 0.044199858
-0.039754905 -0.015329824 -0.04736819 0.037484292 -0.04601359 -0.03162233 0.03676156 -0.064627014
-0.02593397 0.035999935 0.04868576 -0.03834619 0.056779787 -0.030474652 -0.054194216 0.046752598
-0.042150877 0.0009750274 0.013126361 -0.057233755 0.054013796 0.03153002 0.012106608 0.027862893
0.04083951 0.009489225 -0.029854577 0.004060278 0.058157723 -0.025271399 0.04681637 0.052754156
-0.03810158 -0.015479259 0.006684402 0.030017277 -0.012658966 0.031991865 -0.028079258 0.035541203
0.0027708306 0.007956984 0.060797796 0.019916484 0.06747193 0.043347333 0.069282204 0.058014926
-0.025845082 0.003871251 0.020080732 -0.018629078 0.044631615 -0.036236618 0.04843089 0.03174163
-0.046101186 -0.049117487 -0.025617503 0.022116307 -0.04535246 -0.049353413 0.018409656 0.04733267
-0.03952988 0.058398537 -0.0056559504 0.02023058 -0.043434296 -0.0072963852 0.06558523 -0.024358079
0.041051015 -0.034654055 -0.044207197 0.00065743236 0.022511316 0.026089134 -0.06135239 -0.0010348795
0.026131624 0.037494767 -0.054214112 -0.05072818 -0.040346902 0.01771534 -0.011476016 0.02445076
-0.009070238 -0.04974186 -0.019873224 0.03932216 -0.04662289 0.026480252 0.057572577 -0.027080763
-0.05380742 -0.042161312 0.05731208 0.03825026 -0.02370478 0.00862592 0.06081883 -0.035907894
0.03543587 -0.053802073 0.05189319 0.009742564 0.03519836 0.030510113 0.0031956437 0.053089857
0.006545042 -0.014278546 0.022940183 0.021054588 0.041984465 -0.05200932 -0.0027473643 -0.0052338117

bias f4 [32]
00000000: 22ef aebc 69fe 08bb 5b26 17bd 1bd4 923d
00000010: 2110 9c3c 0ce7 563d c247 333d 7721 fa3c
00000020: 07f8 613c e294 e839 da48 c93c 1e28 0f3d
00000030: ab32 9c3d c588 f63b aef2 02bd e8fd 11bd
00000040: 468c 233d aa9d 563d 8034 983c a2eb 433d
00000050: 0eb0 71bc 4c00 86bc cfd5 043d f4bd 31bc
00000060: 33de 7a3d b05d 0d3d 36e8 3e3d 82e6 8f3c
00000070: ae11 103c 3916 1fbd e7a5 49bc 71f4 dabc
-0.021354262 -0.0020903593 -0.036901813 0.07169362 0.01905066 0.052466437 0.043769605 0.030533535
0.0137920445 0.00044361415 0.024570871 0.034950368 0.07626852 0.0075236284 -0.03196972 -0.035642534
0.039928697 0.052396454 0.018579721 0.04783214 -0.014751447 -0.016357563 0.032430466 -0.010848511
0.061247062 0.034513175 0.046608172 0.01756597 0.008793278 -0.038839553 -0.012307621 -0.026727887
