Baseline/bestKernel_Num_Set_4.pt (torch_old, 804393 bytes, 16 tensors)

weight f4 [16, 3, 3, 3]
00000000: 7492 2fbe 30e7 c4bd cc0a 9bbd e745 29be
00000010: e956 1d3d 3411 a73d e46d b4bc ca6c 81bd
00000020: cf83 483c 0c10 28be 1e5b 03be ecb7 7bbc
00000030: 6dcd 233e 8d78 8fbd d075 ad3d 4563 b4bd
00000040: e212 82bd 7cd4 47be 66a3 313e 84f3 4d3e
00000050: c6f1 173c 196c 0b3e ff1e 2f3e d4b2 de3d
00000060: 672c e73d 66b0 2dbe 296e 2cbe a654 0fbe
00000070: 2653 8d3d 8bc7 20be 17db 11be edb6 b3bd
00000080: a7ba 2fbe 2595 043c 0d3e 113d 1a75 d4bd
00000090: d3f1 ec3d f9c8 aabd 0c21 84bd 829f 083e
000000a0: 38c8 1e3e 1d86 0ebd 68ec 0abe 97af b3bd
000000b0: f521 ef3c 3c04 003e df99 dd3d 1da6 94bd
000000c0: e6fd 32be 53b6 29be 617c 65bd 6fb1 c4bb
000000d0: 1ddc ccbd 32ff 26be 716b 143d 701c 0abe
000000e0: 4a6f 08be 67e8 10be bc95 1dbd 2656 373e
000000f0: 66c5 b13d 8944 47bc 8254 463d d239 7b3d
00000100: f727 60bc b8bd 2ebe e515 09be 705f 15be
00000110: f65f a1bc 7e17 44be 4897 4dbd a17e aebd
00000120: d18d 573e 8001 363e 3cdf 073e accc 013d
00000130: 0b5a 2abd 106b 8e3d a017 e8bd 6cb0 7fbd
00000140: 60ce 9dbc 15bc 16bd 66b5 31be f39a ac3d
00000150: d182 2a3e 798d c8bd 5559 733d a16a 67bc
00000160: 3546 6b3a 3f59 9a3c 0186 2f3e 169d f73c
00000170: a251 f2bd cc52 84bd 1f24 c93d 470f 833d
00000180: 1790 b33b 1a16 bdbc 7a13 95bd 4d3e 3dbd
00000190: 7180 a3bd 69cf 593d 3246 9c3d f593 2d3e
000001a0: af2e b3bc 43ef 133d bb1b 163e b53f d83d
000001b0: 4fd9 b43c 0474 673d 8bce ed3b f1d9 2bbe
000001c0: 03e8 9a3b 8e9b 37bd ea23 2f3e fb2d 2f3e
000001d0: 7782 113d c85c 213e d88f ebbd 9bac 1b3e
000001e0: d745 183e 2098 d8bc 76db 30be 5531 a4bd
000001f0: c16e 8fbd ccfa 66bc 43bf 1ebe 516c 5d3d
00000200: 7db9 83bd 6efb f3bc ceb8 a5bd ba92 ccbc
00000210: a532 23be fe5f aabd 1d44 093d fc6c 003e
00000220: feea 333e c960 0fbe 4063 a63d 4275 d8bd
00000230: 0eec 0fbe 3671 e9bb a1d3 d7bd 5099 1fbe
00000240: f84a 48be eca1 13be 60f9 123e e9b6 bb3d
00000250: 4cc0 bbbd 912c 13be ef2d 28be 1dca 04be
00000260: 94e4 c1bd b9ad 073e b33e a23d 5ba8 70bd
00000270: 0bdd 183e d74f d3bd 018a 10be fd31 713d
00000280: d39d b7bd 5988 903d 5409 2a3e 41c7 aabd
00000290: a690 febd 1c36 9f3d d891 29be d95e 353e
000002a0: 4268 aabd 5d39 c93d c389 13be 06a1 eebd
000002b0: ff35 143d 15b7 a83d cbf2 2b3e dd69 383e
000002c0: bd66 dc3b 910c e2bb d2e1 4d3d 1944 e3bc
000002d0: 732f 96bc 9fbf 52be 3cea 36be 0a1e ea3d
000002e0: 67f6 00be 50d1 113e 0eef 833c 3d75 3f3d
000002f0: 6da2 353e 4a98 b8bd fd7d 71bc e2fd 433d
00000300: e834 a53d 1602 30be 22b6 a53d 8eca c8bd
00000310: 2ace 213d a015 123e 8f34 67bc e85e 4739
00000320: 9475 febb dcc4 2a3e 99b0 ed3d 94a5 233d
00000330: b8db e3bd c8ce cabd 0661 233e dbd8 233e
00000340: d53a 083e 6d15 03be c2f0 2f3e 909c 823b
00000350: 4e3e 283e e585 413e 28a1 313d 85fc 6abd
00000360: ce74 3e3e 0304 bbbd aa7e 073e 50b1 30be
00000370: 58e3 44bd 235d 1fbe 34ec 94bd 43a4 bf3d
00000380: 53d7 febd 9602 33be 2e13 0b3e 3177 cd3d
00000390: 693a 85bc 21d7 17be 9a4c 7fbd 1659 9cbd
000003a0: ca1a dd3d 8b6e 95bd 4032 1fbd 214b f5bd
000003b0: 606c 99bd 83ab fb3d 63c1 123e 0b5e 3a3d
000003c0: a719 5bbd 5a4c 513e 9818 643d 7716 94bd
000003d0: 8493 84bd 2cda ccbc ddeb be3d a84f 943d
000003e0: 4abd 103e b334 dbbb 5721 253e aa38 9cbd
000003f0: 6dd0 cdbd bb27 abbd 2cbd 45be 87e3 0cbe
-0.17145711 -0.09614408 -0.07570419 -0.16530572 0.038412962 0.08157578 -0.022025056 -0.06319578
0.012238457 -0.16412371 -0.12827727 -0.015363675 0.15996332 -0.07005415 0.084697366 -0.08807997
-0.06351258 -0.1951465 0.17347488 0.20112425 0.009273952 0.13615455 0.17101668 0.108739525
0.11287766 -0.16961822 -0.16838898 -0.13997135 0.06900625 -0.1570112 -0.14243732 -0.08775125
-0.17161046 0.008092199 0.035459567 -0.10373898 0.11569562 -0.08339114 -0.06451616 0.13342097
0.15506065 -0.03479587 -0.13566744 -0.087737255 0.029190997 0.12501615 0.10820364 -0.07258246
-0.17479667 -0.16573457 -0.05602682 -0.006002597 -0.10002921 -0.16308287 0.036235277 -0.1348741
-0.13323703 -0.14151154 -0.038472876 0.17903957 0.08680229 -0.012162336 0.048420437 0.06133444
-0.013681403 -0.1706456 -0.13387258 -0.14587188 -0.019699078 -0.19149587 -0.0501931 -0.08520246
0.21050192 0.1777401 0.13268751 0.03168933 -0.041589778 0.06954014 -0.11332631 -0.06242411
-0.019263446 -0.036800463 -0.17354354 0.08427992 0.16651465 -0.09792609 0.059411366 -0.014124543
0.0008975 0.018841384 0.17140962 0.030226272 -0.118319765 -0.06461105 0.09821343 0.06399398
0.0054798233 -0.023081828 -0.072791055 -0.046201993 -0.07983483 0.053176317 0.07630576 0.16950972
-0.021872846 0.03611685 0.14659016 0.10559026 0.022076277 0.056507125 0.007257288 -0.16782357
0.004727365 -0.044826083 0.17103544 0.17107384 0.03552481 0.1575805 -0.115020454 0.15202563
0.14870392 -0.026439726 -0.17271218 -0.08017222 -0.070035465 -0.014097881 -0.15502648 0.054058377
-0.064318635 -0.029782977 -0.08091889 -0.024972308 -0.15937288 -0.0831909 0.033512224 0.12541574
0.17570111 -0.14001764 0.08124399 -0.1056924 -0.14054891 -0.0071240915 -0.10538412 -0.15585828
-0.19559848 -0.14417237 0.14352942 0.09165747 -0.09167537 -0.1437247 -0.16423772 -0.12967725
-0.09467426 0.13249864 0.07922115 -0.058754306 0.14928071 -0.103179626 -0.14115144 0.058885563
-0.089656495 0.07057256 0.16605121 -0.08338786 -0.12429933 0.077739924 -0.16559541 0.17711963
-0.08320667 0.09825394 -0.1440802 -0.116518065 0.036184307 0.08238045 0.16791837 0.18009134
0.0067261145 -0.0068984707 0.050264187 -0.027742432 -0.018333172 -0.2058091 -0.17862791 0.11431511
-0.12593995 0.14240003 0.016105201 0.046742667 0.17737742 -0.09013422 -0.014739511 0.047849543
0.08066732 -0.17188296 0.0809138 -0.09804259 0.039503254 0.14266062 -0.014111652 0.00019013474
-0.0077654812 0.16676658 0.11605949 0.03995283 -0.111258924 -0.09902722 0.1595498 0.16000693
0.13303693 -0.12801142 0.17181686 0.003985949 0.16430017 0.18898733 0.04336658 -0.057369728
0.18599245 -0.091316245 0.13231912 -0.1725514 -0.048068374 -0.15562873 -0.07271615 0.09357502
-0.124434136 -0.17481455 0.13581535 0.100324996 -0.016263204 -0.14828159 -0.062328912 -0.07634179
0.10796125 -0.07296475 -0.03886628 -0.1197722 -0.07491374 0.12288573 0.14331584 0.045499843
-0.05349126 0.20439282 0.055687517 -0.07230847 -0.06473449 -0.025006376 0.09322331 0.07241756
0.14134708 -0.006689632 0.16126 -0.07627995 -0.1004952 -0.08357187 -0.19310445 -0.1375867

bias f4 [16]
00000000: 946a 47bc 517a 3f3d 43c2 9dbd 1a5a 3e3e
00000010: 19de 09be 0e4a 2bbc 07b5 0ebe dd72 873d
00000020: 8007 2c3e 430d 3b3e b6d7 d43c 81c4 bbbd
00000030: fa65 463e a8b3 713c 21a4 033e c811 b8bd
-0.012171406 0.04674751 -0.07703068 0.18589059 -0.1346363 -0.010454668 -0.13936244 0.06613705
0.16799736 0.18266778 0.025981765 -0.091683395 0.19374838 0.014752306 0.12855579 -0.089877665

weight f4 [32, 16, 3, 3]
00000000: a552 d0bc 4322 71bd e445 af3d 2ec6 c93c
00000010: bc29 57bd e61c 993c 9bc5 ccbc 6ce7 393c
00000020: 1840 0e3d 24d6 24bd 6b6c 793c 5856 59bd
00000030: b59c a03c 976f 9ebd 6d0e 7e3c 0be4 b03d
00000040: 8cb4 a33d 4f8c 013d ab9a 913d c0b3 b53d
00000050: f6a5 ff3c bdf2 1b3d ed9a aa3c acad ab3d
00000060: b93e 9f3d b80b 04bd da0a 903b 2781 06bd
00000070: 71c4 1e3d 106d 92bd 8f20 153d f536 83bc
00000080: 0f3d 1a3d 154e 0c3d 1d52 08bd 2755 4f3d
00000090: cab1 123d dd50 91bd 1009 a93d 612d 963d
000000a0: 942d 5a3d 416f f4bb d6c8 fc3c 382f 33bd
000000b0: df88 dcbc 1906 363d 5cdc 223d 7dc1 193d
000000c0: e947 9dbd 2f8d 8e3d 266d fcbc 7935 9c3d
000000d0: 7fa7 973d cbd6 0a3d d094 c03d a47a 753d
000000e0: 3592 713d 9937 a2bc 045e ab3d 9bbf ce3c
000000f0: ec42 733d 4dc8 14bc 26f7 8c3d a5e7 b53d
00000100: 2217 58bd c661 a43d 3e27 25bd 8aa9 40bd
00000110: 43b6 67bd d5d6 193d 2ca5 54bd 474c 9ebc
00000120: 9751 11bd 4252 dd3c 6e3d 9cbd 87aa 10bd
00000130: d73a 7d3b 74d9 233c ed42 08bd 0eee 0d3d
00000140: 5eae 50bd 1352 8cbd 934f 22bc c5c9 2cbd
00000150: a517 633d f395 5dbd afb9 70bb 3439 183d
00000160: c0a8 8fbd ddbd 893d e5d1 11bd 1fe7 a8bc
00000170: 1f88 48bd b5a2 efbc fb62 f2bc c311 93bd
00000180: 4481 f63c 44c0 e43a bc4c ab3d f552 8d3d
00000190: de7a ad3d 2088 173d d6ab 643d 944e b53d
000001a0: 00fc a03d aa56 53bd 440d e5bb dc0e 8fbd
000001b0: ae9f 853c 9ddc a7bc 30e3 a73d 5859 cd3c
000001c0: 1847 213c c0df 4abd 8318 5fbd 3dfc ac3c
000001d0: 501b 02bd f557 1bbd acbc 723d a8ed 32bd
000001e0: d809 12bd 1391 853d 0c66 093d c769 3abd
000001f0: 5c6b de3c 0bef 323d 7a2f 96bd 4909 853c
00000200: f5d3 a13c 56d0 d2ba 6a32 a73d 85a6 5bbd
00000210: 89f7 3d3d 9f59 2fbd 361e 8fbd fba7 863d
00000220: 107d 30bd bc45 96ba 5574 1a3d a694 87bd
00000230: b405 91bd 875c d13c 38ef 943d d43a 2bbc
00000240: eb6f 833d e3e8 073d fb12 f03c 1e77 3abd
00000250: b668 b03d 944f 3e3d c1d2 b23c 7aa3 883d
00000260: a6b1 82bd e81e 1f39 f2ed 2bbd 354c 84bc
00000270: 137e ec3c ff79 583d 07d2 9d3c da4f 84bd
00000280: cc73 53bd 1a20 24bc 5d9b 1ebc 36a4 84bd
00000290: f502 b23d ff06 903c cf44 54bd 9537 363d
000002a0: 80bc 373d d435 04bd c63b 4c3d dbe9 26bd
000002b0: 5c96 283d ece6 b93d e9fc 893d ca9f 5f3d
000002c0: 153a 94bb b66f e33c 2548 2c3d 3af2 043d
000002d0: ba9b b3ba bd92 e43c a49e 9abc d2e3 06bd
000002e0: 1c32 7fbd 18d4 5abd 3cd9 1ebd 4ffe c03d
000002f0: cd18 003d 7d3b 93bd fdc0 23bd 2f12 c53c
00000300: 4ce3 8fbc 8411 92bc 40d9 ccbc 7106 5bbc
00000310: 5cb6 7a3c f035 313c 8585 873d b4c5 853d
00000320: d469 a33d 1089 133c bd13 cebc 1ae6 5e3c
00000330: 9043 35bd cb35 3a3d 7806 843a 5158 75bc
00000340: 8af2 73bd 5d18 4e3d d8e9 713d 61da b43d
00000350: e57b 8dbc 998c 1d3d 2710 873c b25b 26bd
00000360: 86ad 28bd d4ac 5c3d 5102 24bd e854 8d3d
00000370: 9f86 0c3d b86e 083d 0ca1 743d 90c9 3f3d
00000380: 2d4c 1d3d b80f 633d 61da bcbc f580 03bd
00000390: 866f 28bb 529f 713d 3922 913d 4c3a 973d
000003a0: 52ea 60bc 3afe f93a f952 2ebd 234d 863d
000003b0: a182 27bd 03f3 99bc 69b0 aa3d 1a0b 103d
000003c0: dc56 a2bc 80d4 27bd 1e5a 2dbd ab1b 9f3d
000003d0: 83ae 84bd 799d aa3d 0762 a23d 346a 953c
000003e0: 736b c63b 0e6e 9f3d 8513 4c3d 4d02 bb3d
000003f0: 3f6f 9b3d b53f 3cbd 9e1a 743d 3931 573d
-0.025430033 -0.058870565 0.085582525 0.024630632 -0.052530035 0.018690538 -0.02499657 0.011346679
0.034729093 -0.040243283 0.015223603 -0.05306086 0.019605974 -0.07736128 0.015506369 0.08637246
0.07993421 0.03162795 0.07109579 0.08872175 0.031207066 0.03807329 0.020825827 0.08382735
0.07775635 -0.03223774 0.004395825 -0.032838013 0.03876156 -0.07149708 0.036408003 -0.016017416
0.037655886 0.034254152 -0.033281434 0.050618317 0.035814084 -0.070955016 0.08253682 0.07332874
0.053266123 -0.0074595516 0.030857485 -0.043746203 -0.026920734 0.04443941 0.039760932 0.03753804
-0.076797314 0.069605224 -0.030813765 0.076273866 0.07404994 0.03389625 0.09403384 0.059931412
0.058977325 -0.019801902 0.083675414 0.025237849 0.059389994 -0.009080959 0.06883077 0.08882073
-0.052756436 0.08026461 -0.040320627 -0.047036685 -0.056570303 0.037558395 -0.051915333 -0.019323481
-0.0354782 0.027016763 -0.07628904 -0.035318878 0.0038639808 0.010000575 -0.03326695 0.034650855
-0.05094754 -0.06851592 -0.009906667 -0.04218461 0.05544247 -0.05409808 -0.003673177 0.03716393
-0.070146084 0.06725667 -0.03560056 -0.02061802 -0.04895794 -0.02925239 -0.029588213 -0.07181122
0.030090936 0.0017452319 0.08364245 0.069005884 0.08470701 0.036995053 0.055827938 0.08852878
0.07860565 -0.05159632 -0.006990107 -0.06985256 0.016311493 -0.020490939 0.081976295 0.025067016
0.00984361 -0.04952979 -0.054466736 0.02111637 -0.03176433 -0.03792568 0.059261963 -0.043683678
-0.03565392 0.06521811 0.033544585 -0.045511033 0.027150802 0.043685 -0.07333274 0.01623978
0.01975439 -0.0016083817 0.081639126 -0.053625602 0.046378646 -0.04281008 -0.06988184 0.065750085
-0.04308802 -0.0011464874 0.0377086 -0.06620149 -0.07081166 0.025556816 0.0727219 -0.010451037
0.06417831 0.033181082 0.029305926 -0.045523755 0.08613722 0.04646261 0.02182901 0.06671806
-0.0638154 0.00015174935 -0.04197497 -0.01614962 0.02886871 0.05285072 0.019265188 -0.06460543
-0.051624104 -0.010017419 -0.009680596 -0.06476633 0.0869197 0.017581461 -0.051823433 0.0444866
0.044857502 -0.032277897 0.049861692 -0.040750366 0.04115902 0.09077248 0.06737692 0.054595746
-0.0045235255 0.027763229 0.04206099 0.032457568 -0.0013703026 0.027902002 -0.018874474 -0.03293211
-0.062303647 -0.053424925 -0.03878139 0.094235055 0.031273652 -0.07189081 -0.03997897 0.024056522
-0.017564438 -0.017830618 -0.025005937 -0.013368235 0.015302267 0.010816082 0.06617264 0.065318495
0.079791695 0.009004846 -0.025155896 0.013604665 -0.044253886 0.045461457 0.0010072729 -0.01497467
-0.059557475 0.050316203 0.0590609 0.08830715 -0.017270992 0.038464162 0.016487194 -0.04061479
-0.04118111 0.05387576 -0.04004127 0.0690096 0.034308072 0.033308715 0.0597239 0.046823084
0.038402725 0.055434912 -0.02305335 -0.032105405 -0.0025701239 0.05898983 0.070866056 0.07384166
-0.013727741 0.0019072958 -0.042559598 0.065576814 -0.04089606 -0.018792635 0.08334429 0.035166837
-0.019816808 -0.04097414 -0.04232227 0.07768949 -0.06478598 0.08330817 0.079288535 0.018239118
0.0060552894 0.07784663 0.049823303 0.09131298 0.07589578 -0.045959193 0.059595697 0.052537177

bias f4 [32]
00000000: e5cc 113d 2d3d 1c3d 39cb 5e3d 1e1f f5bc
00000010: 8517 cfbc 2910 ce3c df6e 70bd 931f 5e39
00000020: df33 123d 1b27 9bbd 1838 c6bb 3c48 7b3b
00000030: 3b01 70bd 930c 8a3d 00ff 383b 5b47 98bd
00000040: 909c d2bc 39b9 cb3c 2ee3 863d 8e7e b1bc
00000050: f6bd 943d a3a5 01bd beb2 54bd 5f65 02bc
00000060: 7618 5bbd d2f3 e13c 2f70 6f3d 0a68 88bd
00000070: 282d 88bd e040 433d 0b0d 64bc 3669 983d
0.035595793 0.03814428 0.054393027 -0.029922064 -0.02527977 0.02515419 -0.058699485 0.00021183332
0.035694 -0.07575818 -0.0060491674 0.0038342616 -0.058594923 0.067406796 0.0028228164 -0.07435485
-0.02570942 0.024868594 0.065863 -0.021666791 0.07262795 -0.031652104 -0.051928274 -0.007958739
-0.053490125 0.027582083 0.058456596 -0.06660469 -0.06649238 0.04766929 -0.013919125 0.074419424

weight f4 [64, 32, 3, 3]
00000000: d57d 483d 4739 3cbd 643e db3c 6653 7abd
00000010: fde8 8f3c ed8d 27bd 7c52 5abb 55cb 5a3d
00000020: 1a5c e639 bfaa 7bbc 3bc4 2c3d b331 e83b
00000030: ecde 8e3d f846 e2bc cfdc 073c d58d 08bd
00000040: dc17 91bc 765a 6e3b e41f ffbc 4617 05bd
00000050: aaaf 96bb 0b94 cdbc 965f ddbc fe49 7d3c
00000060: 1567 0abd f030 3c3d f6cd 5a3d 5a47 6f3d
00000070: c598 bb3c d85d 3a38 4f6c aebb 11e6 b6bc
00000080: 4fd0 403d af8a 153d 5e97 413d 5c5e 4cbb
00000090: aa18 22bd fa31 a93c d480 573d cb19 03bc
000000a0: f430 483d 2a8b 2f3d b214 b63c bc61 6cbc
000000b0: f193 95bc 3030 b8bb 052c a5ba f013 31bc
000000c0: 1769 5cbd dd49 20bd fa85 84bc 39ef 4b3d
000000d0: e65e ef3c b483 3fbd ff30 26bd 2cc1 05bd
000000e0: 7e65 7a3d d890 993c 6daf 543d 79b5 29bd
000000f0: 21ea 6a3d c859 593d 1e22 2f3c e309 e4bc
00000100: 1b82 b83c d6f9 04bd cfd2 c8bc da08 b13c
00000110: 6b33 3cbd 4eb5 673c 434a 72bb f04a 19b9
00000120: 2672 943b 2081 833c ff6e 09bd 7df4 d63c
00000130: fe06 5abd fc68 da3c 81cb 3bbd c80b 713d
00000140: 1082 843c 006c 683c 0f13 5a3c f115 243c
00000150: 49e8 c1bc b520 70bd bb74 0e3d 4b97 0f3d
00000160: cca8 3dbc 00bd 573b 8567 84bb 1c2f 67bc
00000170: 5ebf 1f3d 112b 11bd 3ec7 64bd 9a7c 30bc
00000180: 7399 0dbd e867 22bd ad03 92bc d980 76bc
00000190: 140b bf3c e8ac 5d3c 6b88 0c3d 0eb1 e53c
000001a0: a09c dab9 9383 7dbc 9e98 9cbc 9b83 81bd
000001b0: dab8 afbb bc49 bcbc 92ab bfbc 26da 1f3d
000001c0: e40e 903c f28d c73c 6e50 ce3c ae83 3dbd
000001d0: a1f9 043b f0ec b4bb 21e8 b73c 94e7 153d
000001e0: efbf 4fbc 7031 3e3d a87f 9e3b 2898 13bc
000001f0: fd03 283d 6bc1 453d 0ff4 83bc 302f 0d3d
00000200: 92f1 50bc 25e2 9cba db9b 28bd 68dc c9bc
00000210: e883 0a3c c746 51bc 4ab6 abbb fb77 8c3c
00000220: 3b4f a8bc ed3c 0b3d 8cd9 793d 4f68 4d3d
00000230: 1796 613d 3103 74bc 02a5 b03b 57bc 84bc
00000240: bafa d8bc 64f2 37bc 7bb8 1b3d fa23 58bd
00000250: 573e eebc 79df 063d b595 083d 3ea6 4cbc
00000260: ff64 26bc c192 9e3b 45a7 613d 015c 693d
00000270: 1fd6 60bc f54b bb3c d165 27bd 6890 c0bc
00000280: 2f4c 2e3c 74e7 b4ba 3037 cabc f2ee 543d
00000290: 9f08 093d 7797 003c 1974 5cbc 77f0 663b
000002a0: 79f1 553d f46a d2bb 547b 223c 787d f73c
000002b0: 19b9 3d3d 8c7b 473d be06 7dbc dfa3 103d
000002c0: 34cb bd3c 0104 b53c 11fc 16bd 0d00 903d
000002d0: f55c c83c ef29 923b f0c5 8b3c 3df7 90bc
000002e0: 5c1c 3abd acbd 9dbc d49f 69bd b230 3d3d
000002f0: 2366 a73c 3368 8d3c b512 1cbd dc3c 16bd
00000300: 4341 113d 00cb 3bbd 49b8 593c 1384 3c3d
00000310: 82f1 49bd b81f 333d 24c2 11bd 9a95 583b
00000320: a949 623d ffda 753d e594 8f3d 0492 8a3d
00000330: 39f4 28bd 540f d43c b609 0bbd f811 343d
00000340: 9f14 f23c 7075 7a3d 0693 d43c f312 5e3d
00000350: 7dde 813c 9129 04bd 7a34 aebc d8dd a43c
00000360: b362 59bd 092c 4a3d 74a0 1cbd c5a3 37bd
00000370: 1b0a 603d af1c 26bd d5e8 d8bc 18f8 c5ba
00000380: 0aed 963c a6f2 9fbc 8db6 073d 9dd8 14bd
00000390: 3cc9 573c 3a1e 66bd 5b29 52bd 0110 b93c
000003a0: 2018 f73c fa83 c9bc e71f b73c ef8b 61bc
000003b0: 24b9 0c3d da30 053c 6ab9 38bc 3c29 513c
000003c0: 823c 5ebd d273 0e3d 4dea 653d 4af6 563d
000003d0: d26b 01bd cd85 aebc 2190 c0bc 7e04 3d3c
000003e0: 12f1 1dbd a563 2bbd 888d a5bc b179 5f3d
000003f0: 1435 b73c 325c 41bd 68cb a1bc 2970 1bbd
0.048948128 -0.04595306 0.026763149 -0.06111469 0.017567152 -0.040906835 -0.0033313325 0.05341657
0.0004393764 -0.015360533 0.042179327 0.0070860027 0.06976113 -0.027621731 0.008292391 -0.033338387
-0.017711572 0.0036369837 -0.031143136 -0.0324929 -0.0045985775 -0.025095006 -0.027023118 0.015459536
-0.033789713 0.045945108 0.053419076 0.058417656 0.022899995 4.4433255e-05 -0.00532297 -0.022326501
0.04707366 0.036509212 0.047263496 -0.0031184172 -0.039574303 0.020653713 0.052613094 -0.008001755
0.04887481 0.042857327 0.022226665 -0.014427599 -0.01825902 -0.005620979 -0.001260162 -0.010807976
-0.05381116 -0.03913294 -0.016177166 0.049788687 0.029220056 -0.04675646 -0.04057407 -0.032654926
0.061131947 0.018745825 0.05192511 -0.04143283 0.05735219 0.053064138 0.0106892865 -0.027836746
0.022522977 -0.032464825 -0.024514584 0.021610666 -0.045947473 0.0141423475 -0.0036970533 -0.00014619133
0.004530209 0.016052783 -0.03355312 0.026239628 -0.053229325 0.026661389 -0.045848373 0.058849126
0.0161753 0.014185905 0.013310208 0.010014997 -0.023670333 -0.05862494 0.03477929 0.035056394
-0.011575889 0.003291905 -0.004040661 -0.014110353 0.03900086 -0.035441462 -0.055854075 -0.010771895
-0.03457017 -0.039649874 -0.017824018 -0.015045368 0.023320712 0.013529994 0.034309786 0.028038528
-0.00041696895 -0.015473264 -0.019115742 -0.0632393 -0.005362612 -0.022984378 -0.02339724 0.039026402
0.017585225 0.024359677 0.025184836 -0.046268158 0.0020290392 -0.005521409 0.022449555 0.036597803
-0.012680038 0.046433866 0.004836995 -0.009008445 0.04101943 0.04828016 -0.016107587 0.03446883
-0.012752907 -0.0011969252 -0.04116426 -0.02464123 0.0084543 -0.012773222 -0.0052402364 0.017147055
-0.020545593 0.03399365 0.060998484 0.050148305 0.055074777 -0.014893339 0.005390764 -0.016203089
-0.026486743 -0.011227224 0.03801773 -0.052768685 -0.02908246 0.032927964 0.033345897 -0.012490807
-0.010155915 0.004839272 0.05509116 0.056972507 -0.013722925 0.022863368 -0.040868584 -0.023506358
0.010638281 -0.0013801889 -0.024684519 0.05198569 0.033455487 0.007848612 -0.013455414 0.0035238543
0.05223224 -0.006421441 0.009917099 0.030211195 0.0463191 0.048701808 -0.015443502 0.03531253
0.023168184 0.022096636 -0.036861483 0.0703126 0.024458388 0.0044605653 0.017062157 -0.017696017
-0.0454372 -0.019255482 -0.05703719 0.046189018 0.020434445 0.0172616 -0.038103778 -0.036679134
0.03546263 -0.045847893 0.013288566 0.046024393 -0.049302585 0.04373142 -0.035585538 0.0033048154
0.05524603 0.060023304 0.07010821 0.067661315 -0.041248534 0.025886215 -0.033944808 0.04396245
0.029550849 0.061147153 0.025949012 0.05421729 0.015853161 -0.032266203 -0.021265257 0.020125315
-0.053072643 0.0493584 -0.038238958 -0.044833917 0.054697137 -0.0405547 -0.02647821 -0.0015103845
0.018423576 -0.019524883 0.03313308 -0.03633939 0.013170537 -0.05618117 -0.05130897 0.02259064
0.03016287 -0.024599064 0.02235408 -0.013766273 0.03435625 0.008129323 -0.011274675 0.012766179
-0.054256923 0.034778424 0.05613165 0.052480973 -0.031596966 -0.021304036 -0.023506226 0.011536716
-0.03855998 -0.041843075 -0.020209089 0.054559413 0.022364177 -0.047207065 -0.019750312 -0.03794876

bias f4 [64]
00000000: 9e16 5e3b 41fa bc3c c241 243d c369 9b3b
00000010: 7487 873b ad42 bbbc 7509 1fbd fd9a 37bd
00000020: 2f28 7a3c a5f8 01bb 19bb 413d a292 293d
00000030: f644 ba3b f432 b7bc 8181 2e3d f650 47bd
00000040: 9aeb c93a 55c5 b93c 11f2 59bd e18c 3d3d
00000050: 1f6c 4cbc f7b9 4e3d 9468 c9bb ddd7 1fbd
00000060: e2b7 033d c11c f3bc 955a 1dbd 0a44 85bc
00000070: 491e 1a3d f9d4 ab3c c83d 4d3d 3473 7ebc
00000080: 2c1b 94bb 5622 6bbc 2901 6c3d f9d3 103c
00000090: 15f5 58bd d79b 853c 4f0f 09bd 7223 773c
000000a0: b1f1 b23c 31fc bbbc b915 43bd 1ea5 95ba
000000b0: 433e 11bd a50e 723d 3569 b3bc 64e1 04bc
000000c0: 420d 103d 770e a2bb b4af 0d3b 8110 5dbd
000000d0: 7010 fc3c 6dd2 343d 5e99 55bd f923 6d3d
000000e0: 8804 443d 9a92 ab3c 0df6 dab9 deee baba
000000f0: 880e 703d 44f6 cd3c 1984 e4bc f553 e9bc
0.0033887993 0.02306855 0.040101774 0.0047428324 0.0041360203 -0.022858942 -0.03882738 -0.044825543
0.01526837 -0.0019832042 0.04729757 0.041399606 0.0056844903 -0.022363164 0.042603973 -0.048661195
0.0015405298 0.022677103 -0.05320937 0.04627693 -0.01247695 0.05047032 -0.0061465 -0.039024223
0.032157786 -0.029676797 -0.038416464 -0.016267795 0.03762654 0.020975577 0.050107747 -0.015530396
-0.0045198407 -0.014351448 0.057618294 0.008839601 -0.052968103 0.016309662 -0.033461865 0.015084134
0.021843763 -0.022947403 -0.04762814 -0.0011417007 -0.035459768 0.059095997 -0.021900753 -0.008110378
0.035168894 -0.004945572 0.002161962 -0.053970817 0.030769557 0.04414599 -0.052148215 0.057895634
0.047855884 0.020943929 -0.00041763522 -0.0014261862 0.058607608 0.025141843 -0.02789502 -0.028482417

weight f4 [128, 64, 3, 3]
00000000: 256a 0a3d 04a9 d1bc 5438 98bc a978 09bd
00000010: 5251 123c 7a83 52bc 71cf 063d 9790 c0bc
00000020: 18d8 da3b 96f9 12bd 83f8 17bd 9f11 4cbd
00000030: 63d9 1abc 7da3 02b9 52bc a83b a61c 003d
00000040: 30c1 293c 9226 45bc 22e6 713c 79c2 3bbd
00000050: 7fdd 283d 2a85 31bd 84cf 7d3c 5040 05bd
00000060: ba28 043d 251e 8c3b 7562 453c cbcc 393c
00000070: 1997 a7bc 38a1 a238 0700 123c ef72 2c3c
00000080: 9a3a 213c f0ef 003d 0bee 08bc cbe7 efbc
00000090: 1802 a03c 62a3 003d 04ef fd3c 4ae4 edbc
000000a0: f1b9 98ba 2eaa 223c 5472 9aba b4c5 9a3c
000000b0: 510c 20bd 0e42 aa3c 53e5 6abc 145c 9f3b
000000c0: ed8d 32bc 4d59 22bd 82cc 583c d820 0abb
000000d0: 90a3 e3bb 8431 e53c e853 093d a58f a5bc
000000e0: f697 59bc e0cd 72bc 9600 03bd e871 23bd
000000f0: 1546 adbc 414a d8bc c771 13bc 54ab 42bc
00000100: 3c1e ac3c 4656 69bc 4ee4 473c bf64 4dbd
00000110: 4df6 85bc fea5 8dbc 6722 c03a 0a7c 6d3c
00000120: 98f7 b73c fdc4 883b c662 613c 9f63 c33c
00000130: 77c8 ef3c 0bf8 3c3c 5942 16bd c481 a63c
00000140: 46e7 8e3b a41e b43c d40e dc3b 4a3e 9e3b
00000150: d5ce 7abb 2800 a63c 706b d93c 5c6e 0d3d
00000160: 906c 2bbd 4847 6b3c 1106 0a3d d8f9 a6bc
00000170: 25e8 12bd cba9 cb3c be5d 2b3c 3443 1c3d
00000180: 7718 dd3c ecc0 2f3d aab7 c4bc 12fc 9bbc
00000190: 13a7 38bd 3a3d e33a 3cf6 c63c ba9e 03bd
000001a0: d771 af3c 17c7 32bd 67f4 aa3c 401f 38bd
000001b0: 3849 0cbd 206a b9bc 999a 1e3c 5d47 23bd
000001c0: ae6a 913c 8d56 2bbd 38ed c7bb 4aa1 83bc
000001d0: 3c54 38bc 02b1 c1bc 834c f93c 07e1 d83c
000001e0: a407 30bd 2a6e 38bc b815 06bd 1610 fbbc
000001f0: 5a0e 99bc d82c 753c bcc8 26bd 4f4e 183d
00000200: ad81 0f3d 1054 733c 183c ef3c 09e7 913b
00000210: 785d 8f3c 4123 9a3c eacf 24bd c555 173c
00000220: 86b2 4dbb 84ce 2bbd c924 fb3c 2e2b 76bc
00000230: 55b6 773b 9f3a bfbc e04e c43c d6f4 93b7
00000240: 2ffd 8dbc cd49 a7bc 60a5 073c 9560 1cbd
00000250: ce27 823c 1123 1abd ac6e e6bc de0c 673b
00000260: 7c27 cfbc a8e1 2f3c 886f f0bc 4bcb 84bc
00000270: 91dc 5d3c 8e04 993c 1120 51bc f79f 313c
00000280: 2a2e 13bd aebb 44bc 4292 9d3c af96 06bc
00000290: 98ec 2dbd a393 6bbc 0511 70bc 2acd 8c3b
000002a0: d77f b3bc faaf 26bd 0893 95bb 1546 f13c
000002b0: 43a6 34bc 8c94 293c 3b40 c13b 2664 b03b
000002c0: db53 07bc c832 85bb 1d4b 2bbd 3e21 b63c
000002d0: 8aaf dbbc b73e 0abd c7dd d6bc 89f3 233c
000002e0: 6dd2 20bc 153f d3bc 2400 ad3c 0b0d b5bc
000002f0: f845 fbbc fadd b13c e5e4 80bc 3040 d1bc
00000300: dd6b 2ebc 087e 99bc 9cc4 0d3b 0cd9 70bc
00000310: 2911 8b3b bd9c 933a 198b da3c 360d c63c
00000320: 5a45 b8bc 7609 5e3c 606e 21bd 9b36 11bd
00000330: 7f31 ffbc 8567 a9bc 7e06 31bd bece c33c
00000340: 71f2 0f3d c797 04bd 18a9 22bd 3e77 6bbc
00000350: c532 f53c 50ea 033c 8ab0 c8ba 72e7 0e3d
00000360: 5180 d13c ada9 b93c 52b4 babc 822e 93bc
00000370: 2343 e3bb a071 20bc 2007 84ba 4b94 b73c
00000380: 6864 efbc 8058 2ebd ff90 20bd 8a0b e93b
00000390: 90fd f3bc 0630 823c fd48 d23b 6a15 eb3b
000003a0: d6b0 bebc 073d 423c a693 d03c 1c9d 233c
000003b0: c055 82ba bb38 693c da5f 693a 4fc6 c93b
000003c0: c6f4 4d3c 73f2 053d 0b65 43bc 3a0d a33c
000003d0: 6f4e fe3c 1a7f 12bd ec68 27bb 0d4a 16bd
000003e0: b01c 0bbd e962 c53c 5590 0ebd 92f7 103d
000003f0: 6eb9 123d c234 eebc a0b9 22bd 883e 0bbc
0.033792634 -0.025593288 -0.018581547 -0.033562336 0.008930521 -0.012848729 0.032912675 -0.023506446
0.0066785924 -0.035882555 -0.037102234 -0.049821492 -0.009451243 -0.0001245867 0.0051494027 0.03127732
0.010361001 -0.012033122 0.014764341 -0.04583976 0.04122686 -0.043339886 0.01549137 -0.032532036
0.032265402 0.0042760544 0.0120474 0.01134033 -0.020457791 7.754791e-05 0.008911139 0.010525449
0.009840632 0.031478822 -0.008357535 -0.029285332 0.019532248 0.031405814 0.03099776 -0.02903952
-0.0011652095 0.009928269 -0.001178334 0.0188931 -0.039074246 0.02078345 -0.014336902 0.0048632715
-0.010898096 -0.039635945 0.013232352 -0.0021076705 -0.0069469884 0.027977712 0.033527285 -0.020210097
-0.013280859 -0.014819592 -0.03198298 -0.03990355 -0.021151582 -0.026402595 -0.008999295 -0.011881668
0.02101051 -0.014241761 0.012200428 -0.050144907 -0.016352797 -0.017291065 0.001465869 0.014494905
0.02245693 0.0041738735 0.01375646 0.023851214 0.029270394 0.011533747 -0.036684368 0.020325549
0.004361066 0.021987267 0.006715635 0.004829203 -0.0038270254 0.020263746 0.026540488 0.034529075
-0.04185158 0.0143602565 0.03369719 -0.020382807 -0.03586592 0.024861237 0.010459362 0.038150027
0.026989205 0.042908594 -0.02401336 -0.019041095 -0.04508121 0.0017336973 0.024287336 -0.032133795
0.021416588 -0.043646898 0.020868493 -0.044951677 -0.034249514 -0.022633612 0.009680414 -0.03986298
0.017751064 -0.041830588 -0.0061012767 -0.01606812 -0.011250552 -0.023643974 0.030431991 0.026474489
-0.042976037 -0.011256734 -0.032735556 -0.030647319 -0.018683601 0.014964305 -0.04071878 0.037184056
0.035035778 0.014851585 0.02920346 0.0044525904 0.017500624 0.018815638 -0.040237345 0.009236758
-0.0031386926 -0.041944996 0.030657189 -0.015024943 0.0037797887 -0.023343382 0.023963392 -1.7637776e-05
-0.017332641 -0.020420933 0.008279175 -0.038178045 0.015888121 -0.0376311 -0.028128944 0.0035255472
-0.025287382 0.010734953 -0.029350057 -0.016210219 0.013541357 0.01867893 -0.012763993 0.010841361
-0.035932697 -0.012007637 0.01923478 -0.008214637 -0.04246196 -0.014378461 -0.014652495 0.0042969184
-0.021911545 -0.040695168 -0.0045646466 0.029452363 -0.011025968 0.010350358 0.0058975494 0.0053830324
-0.008259739 -0.0040648915 -0.04181968 0.022232648 -0.026817102 -0.033751216 -0.026228799 0.010006794
-0.009815794 -0.025786916 0.021118231 -0.022100946 -0.030673012 0.021712292 -0.015734145 -0.025543302
-0.010645834 -0.018736854 0.002163208 -0.0147001855 0.004243989 0.0011261922 0.026677655 0.024176221
-0.022494007 0.01355206 -0.039411902 -0.035452466 -0.031151531 -0.020679245 -0.043219082 0.023902293
0.03514332 -0.03237131 -0.03971204 -0.014371691 0.029931435 0.00805147 -0.0015311402 0.034888692
0.025573881 0.022663916 -0.022791062 -0.017966513 -0.0069354936 -0.009792715 -0.0010072924 0.022409579
-0.029222682 -0.04256487 -0.03920078 0.0071119713 -0.029783994 0.01589204 0.0064173923 0.0071741836
-0.023277681 0.01185537 0.02546103 0.009986188 -0.0009943768 0.014234717 0.00089025276 0.0061576734
0.012570566 0.03270192 -0.011925946 0.019903768 0.03104326 -0.035765745 -0.0025544716 -0.036691714
-0.033962905 0.024095016 -0.034805615 0.03539235 0.03582137 -0.029077891 -0.039727807 -0.008498795

bias f4 [128]
00000000: e4cc d2bc d822 d83c cfdf 35bd 2e06 06bc
00000010: 942b 99b9 3727 ef3c 82b4 90bb 0cd6 243d
00000020: ec09 063d 6bb9 1cbd c110 d5bc fbe1 42bd
00000030: 3c1d 93bb bcdd dbbc f282 07bd 6300 f0bc
00000040: a822 fa3c 458e 103d d4b7 703c 0f2d 7c3c
00000050: 20e8 a73c e7ce c5bc 9b2e fc3c 7b91 213d
00000060: 4bd2 14bc 00f7 713c 9c2a 1abd 1c1f 0fbd
00000070: eb5d 70bc 6d4a f8bc 6df3 f43c ca45 d8bc
00000080: 7454 023c 1804 fe3b c82f 023b d4c5 25bc
00000090: aff3 253d 55f1 d83c 020d 8c3b 6676 5a3c
000000a0: d5b2 44bc 6a72 0c3c 5cca 1dbb ae40 a3bc
000000b0: 9c06 e03c 325b e8bc 801b 153d 4365 e43c
000000c0: 9a31 313c fa5f 4cbc df51 673c c755 ce3b
000000d0: fe8f 97bc 2898 05bd 5155 9bbc 901e 353d
000000e0: 71e2 ea3c 9ed6 f7bc 8622 3f3d 9daa d9bb
000000f0: 8049 dcb9 e325 e23a 525e 18bd eec1 30bc
00000100: daf4 cfbc 83c2 24bd bd0e 013d 400e 383b
00000110: 5572 163d 6cb5 d53a 0ac4 883c fea9 4d3c
00000120: 9e83 f5bb 95ee 1fbc 2796 9c3c c22d a5bc
00000130: 7bfb 1cbb 2ec3 033c 124f 2fbb 1a71 923c
00000140: 6f3a 8a3b c77e 913c 2827 f9bb 8192 fcbc
00000150: 3fa7 103c 5647 0f3d f595 583c 8fad 223d
00000160: 4d00 1ebc 6a58 1cba 18e2 2f3d c7eb 1dbd
00000170: 1f53 ba3c 4288 b33c 9f86 fabc e5b0 683c
00000180: 7725 d9bc 94d4 98bc 7722 733c 5f41 f33c
00000190: 1550 e6bc 2957 153d d96d 2dbd 08e7 543c
000001a0: c60f 393c 7cb5 86bb aa0c 49bb e8d1 c6bc
000001b0: 33c7 c8bc 698a 91bb e343 b93a b1ee dabb
000001c0: 0f68 3b3c 10cb 173d 5e33 0ebd c19a 8cbc
000001d0: c708 1abd f2e9 d3bb 4c3a 0c3d d47d 83bc
000001e0: 865e 28bd 4c93 90bc 308e 063c ca24 1abd
000001f0: 4e90 673b c6c3 22bd 2329 a3bc 3d89 2dbc
-0.025732465 0.026383802 -0.044402894 -0.008180184 -0.00029214902 0.029193504 -0.0044160495 0.040243194
0.032724306 -0.038262766 -0.026008965 -0.047578793 -0.004489569 -0.02683913 -0.033083864 -0.02929706
0.030534104 0.03529193 0.014692266 0.015391602 0.020496428 -0.02414651 0.030783942 0.03944538
-0.009083341 0.014768362 -0.03763829 -0.034941778 -0.014670829 -0.030308926 0.02990123 -0.026400466
0.0079547055 0.007751953 0.0019864906 -0.010117967 0.040515598 0.026482264 0.0042740116 0.013333892
-0.0120055275 0.0085722 -0.0024076914 -0.019928303 0.027346902 -0.028363798 0.03640318 0.027880317
0.010815049 -0.0124740545 0.014118641 0.0062968465 -0.018501278 -0.03261581 -0.01896158 0.0442186
0.028672429 -0.030253705 0.046663783 -0.006642653 -0.00042016432 0.0017253723 -0.037199326 -0.010788424
-0.025385309 -0.040224563 0.031508196 0.0028084666 0.03673013 0.0016304678 0.016695041 0.012552736
-0.0074924966 -0.009761472 0.019114567 -0.02016342 -0.0023953605 0.00804214 -0.002675001 0.017876197
0.0042183916 0.017760647 -0.0076035447 -0.030831577 0.008828937 0.03498014 0.013219346 0.0397163
-0.009643626 -0.00059641025 0.04294023 -0.038554933 0.022744713 0.021915559 -0.03058177 0.014202331
-0.026507122 -0.018656053 0.01483976 0.029694257 -0.028114358 0.036460076 -0.042341087 0.012994535
0.011295265 -0.00411099 -0.0030677714 -0.024270013 -0.024509048 -0.0044415486 0.0014134612 -0.0066812863
0.011438384 0.03705889 -0.034716956 -0.017163636 -0.037606027 -0.0064670974 0.034235284 -0.01605121
-0.04110577 -0.017648362 0.008212611 -0.03763274 0.0035333815 -0.039737485 -0.019917076 -0.010591802

weight f4 [128, 64, 3, 3]
00000000: 7278 0a3c 190a a43b b6a3 283b c52f 6c3c
00000010: 8748 1c3d ad24 0ebc 6863 0b3d 8110 0d3d
00000020: 50e7 ebbc 4a51 cfbc cb33 f1bb 2c96 323c
00000030: be79 d93c e0ba eabc bd06 0d3d 86b9 893c
00000040: 1cde 19bc 075f 113d 86f7 bd3c 25a5 013c
00000050: b232 093c 9170 e23c 0035 023d a688 f13b
00000060: 0654 40bc 5817 373c 68d2 a1bc 20ab 89bb
00000070: 4ceb b9bc 31e0 d3bb 26ff e1b9 1d10 053c
00000080: 544b 6c3a 4a66 14bd 318b 7c3c 6457 73bc
00000090: baf3 c9bc ea92 ca3b 04ef 103d 9ef1 debc
000000a0: 4ed2 623c 0947 e73c 0e9c 0c3d b7c6 9a3c
000000b0: 813f bdbc abd9 46bb f392 fdbb 1664 ad3c
000000c0: d3ff 0ebd b7e4 54bc bb9e 0dbd ec4c 2bbd
000000d0: 8e3e 8f3c 9023 cebc c569 9e3b 18ee 1d3d
000000e0: d6de 953c f58f 183d 1821 8e3b 5afb c2bc
000000f0: 441e 1bbd 179f fdbc 332f fb3c ae95 123d
00000100: 67cf fbbb e8bd 2d3d 3f70 2b3c bd1a e5bc
00000110: 6fd6 f33c 439d cb3c 72e1 d5bc 4cba b13c
00000120: 55c6 253c 825d 0abd e8cc 093d 4f6f e5bc
00000130: 5f45 013c 0e40 183c 1cb7 0dbd 4691 943c
00000140: 11ab 5cbb 0a01 40bc 5326 b93b 0ec5 4bbc
00000150: 732b e8bc e636 cc3c 2a8d 87bb 35b0 283c
00000160: 6220 cabc d7d9 1d3b 7e01 d33b 3bdc 523c
00000170: 1783 193d 0a79 923c c5b6 d1bc ab0a 09bd
00000180: 4382 343d 81ae 13bd dbab f1bc 4946 0cbd
00000190: 7b42 403c 515b 14bd 4322 14bd e686 1a3c
000001a0: 7ed2 0fbd 29c1 b03a d461 e0bc 1cb8 ebbc
000001b0: 4971 6d3c 8308 07bc 8276 d53c 0bb3 703c
000001c0: 9cdf 71bc 2760 173b 8e32 533c 3ffb 99bc
000001d0: c883 0bbd b90b 47bc 3053 07bc 9016 dab9
000001e0: 2799 1cbd 1ebe 1a3c 5f30 f3bb 1d3b 01bd
000001f0: 6116 d13c 85b7 97bb b358 483c 2e89 afbc
00000200: f877 133c 070e f7bc 2fd6 84bc b381 0abd
00000210: 3ecd c9bc 0d5b adbc 170a 363c f373 a93b
00000220: cceb 033d c81e 283d d0c0 cf3c 5d77 b6bc
00000230: 62fc 8e3c e2ba c03c 1a26 013d 7090 723c
00000240: 2876 043d 9809 223b fbd6 dc3c 86db 93bb
00000250: 965f 3abd 7be3 a1bc 6a90 593b d3aa a43c
00000260: 163a c43c c748 2f3d 10de 213d 27e0 d9bb
00000270: a530 b9bb 73b9 fd3c 2e4c 8e3c 8ea5 f73c
00000280: db1c ffbc 337f fa3b f1a8 76bc 3b6b 0ebd
00000290: fe1e 933c 8c86 d23b a115 04bd 7ac3 24bd
000002a0: 788b 2cbb b9b5 7a3c 2bd6 013d cfb8 aabc
000002b0: e4f1 d73a a7ce 8e3c 4808 96bc fe1f 993c
000002c0: b50e 223d 43c6 b73c 4ef7 083d ca16 07bd
000002d0: c2d0 e9bc e10d 143d 0f8c e33c 8dd5 aa3c
000002e0: d29e 8a3c 927d 663c 743b d43c b23a c7bc
000002f0: b214 003d d6f9 08bd 99db d6bc 0117 f33b
00000300: d6a6 cc3c 9c09 263b bce4 493c c517 b0bc
00000310: 6094 b6bc faa4 e73c e6c1 99bc fc1f d03b
00000320: 0720 80bb 9a49 db3c 7003 bf3b fb5a b9bc
00000330: d101 72bc 0a49 163d e93a bf3a 9de6 5abb
00000340: 8868 153a 9807 e4bb 94f6 94bc f2c1 9c3c
00000350: b5c4 82bc e232 243d c34d dcbc 2c44 103d
00000360: 5cbb 443c 9410 343c 58f7 bbbc c2cc 16bd
00000370: 4110 bfbb ba5b 71bc 9aaa c83c 9c9c 0ebc
00000380: a842 e43c 4834 9dbb 764d b5bc 9610 7cbc
00000390: 2be7 cb3c 1ae2 e5bb 96c6 423c f485 30bd
000003a0: 9aed d23c db39 0abd 87f6 d13a 6c0b 2e3c
000003b0: abf7 073d 7d4c 423d a00e 04bc b41c 383d
000003c0: 0469 503c 5e8c 3a3d 5514 083d a1a1 413d
000003d0: d105 113b 8c30 b5bc b70c 04bd ad13 98bb
000003e0: 7801 843c cbfc 97bc 3eae 0d3c 32d7 713c
000003f0: 5def 24bc 47ef dcbc 98ac ba3c 45b3 babc
0.008451568 0.0050060865 0.0025732345 0.014415686 0.038155105 -0.008675736 0.034030348 0.034439567
-0.028796822 -0.025307316 -0.0073609105 0.010900062 0.026547309 -0.028653562 0.034430254 0.016812097
-0.009391334 0.035491016 0.023189317 0.007912909 0.008373903 0.027641566 0.031788826 0.007371026
-0.011738783 0.011174999 -0.01975365 -0.004201308 -0.022695206 -0.0064659347 -0.00043105445 0.0081215175
0.00090139103 -0.036230363 0.015414045 -0.0148523785 -0.02465235 0.0061820643 0.035384193 -0.027214821
0.013844086 0.028232114 0.034328513 0.018893583 -0.02310157 -0.0030342143 -0.007738465 0.021165889
-0.03491194 -0.012993983 -0.034575205 -0.041821405 0.017485883 -0.025163442 0.004834386 0.038557142
0.018294733 0.037246663 0.004337441 -0.023801494 -0.03787066 -0.030959649 0.030662155 0.035787277
-0.0076846364 0.042417437 0.010463773 -0.027966851 0.029765336 0.024855262 -0.026108477 0.021695279
0.010118087 -0.033780582 0.03364268 -0.028007178 0.0078900745 0.009292616 -0.034598455 0.018135678
-0.00336713 -0.011718998 0.0056503206 -0.012437118 -0.02834103 0.024928521 -0.004136701 0.010295917
-0.024673644 0.0024086141 0.006439387 0.01286989 0.037478533 0.017879982 -0.025599847 -0.03345744
0.04406954 -0.03605509 -0.029500892 -0.034246717 0.0117346 -0.0362199 -0.036165487 0.009431576
-0.03511285 0.0013485301 -0.027390398 -0.028774314 0.014492341 -0.008241775 0.026057485 0.014691125
-0.014762785 0.0023098083 0.012890471 -0.018796561 -0.034061223 -0.012148791 -0.00825958 -0.0004159701
-0.038231995 0.0094447415 -0.007421538 -0.031550515 0.025523366 -0.0046300315 0.012228179 -0.021427717
0.009000771 -0.030158056 -0.016215412 -0.033815097 -0.024634 -0.02116158 0.011110804 0.005171293
0.032207295 0.04104498 0.025360495 -0.022273714 0.01745433 0.023526613 0.031530477 0.014804944
0.032339245 0.0024724957 0.02695798 -0.004512253 -0.045501314 -0.019761791 0.003319765 0.020100987
0.023953479 0.042794015 0.039518416 -0.0066490355 -0.005651551 0.030972218 0.01737031 0.03023031
-0.031141689 0.007644558 -0.015054927 -0.03477023 0.017959114 0.0064247306 -0.03224719 -0.040225483
-0.0026328247 0.015302115 0.031698387 -0.020840077 0.0016475287 0.017432524 -0.018314496 0.018692013
0.039564807 0.022433406 0.033438973 -0.032980718 -0.028541926 0.03614605 0.027776746 0.020853782
0.016921435 0.014068024 0.025907256 -0.02431998 0.031269737 -0.033441387 -0.02622776 0.0074185138
0.024981897 0.0025335317 0.012322601 -0.02149571 -0.022287548 0.02827691 -0.018769216 0.006351469
-0.003910068 0.026768494 0.005829267 -0.02262639 -0.014770941 0.03669075 0.00145897 -0.0033401616
0.00056994753 -0.006958913 -0.018183984 0.01913545 -0.015962938 0.040087588 -0.026892548 0.035221264
0.012007561 0.010990281 -0.022945091 -0.036816366 -0.005830795 -0.014731342 0.024495412 -0.008704331
0.027863815 -0.004797492 -0.022131663 -0.015384814 0.024890503 -0.007015479 0.011888167 -0.043096498
0.025748063 -0.03374658 0.0016018905 0.01062284 0.03319518 0.047436226 -0.0080601275 0.04494925
0.01272035 0.04554402 0.033222515 0.047273282 0.002212871 -0.022117876 -0.03223869 -0.0046410174
0.016113982 -0.018553158 0.0086475 0.014760779 -0.010066834 -0.026969565 0.022787377 -0.02279056

bias f4 [64]
00000000: 5975 9ebc 22d3 453d bc52 663c c591 1bbd
00000010: 7216 ba3c 9e66 c93b ea2e 183d 71ae 7439
00000020: 25ee 20bd c95d dfbc 6c38 a53b b681 20bc
00000030: b6de 063c 7756 3d3c 676c 533d 4dff ca3b
00000040: 24f5 793d eb1f afbc fc23 513a 69b4 9abc
00000050: 5168 6d3c 81d3 793c c067 1f3a b8fd 49ba
00000060: 1b11 903c ed6f 03bc 836a 963c 8ab4 a13c
00000070: c23e 3a3d f8ee 4fbc 8529 0a3b 23e7 2d3d
00000080: 0411 be3c d3c2 d5bc 9bfc ce3c f030 a13c
00000090: de8a 483d 6afd aebc 1f65 a83c 68aa 403d
000000a0: 02e6 0e3d 03dd 8e3c 926e a5bb ad0b 153c
000000b0: 90d4 a6bc 2a46 b8bc 1df9 fe3c bc2e be3c
000000c0: b71b 5fbc b3fe 883c 7439 453d 0317 6d3c
000000d0: 7f3d 76bc 4ab7 31bb 6448 83bb 9aec 723c
000000e0: bd46 053d 365f 82bc 89e6 8cbb e09f d23b
000000f0: 390d 14bb 6b13 dabc 8ad3 debb 8313 7a3d
-0.019343065 0.048297055 0.014057811 -0.037980814 0.02271578 0.006146266 0.037154116 0.00023334638
-0.039289612 -0.0272664 0.0050421264 -0.0097965505 0.008231809 0.011556259 0.051617052 0.006194985
0.0610248 -0.021377524 0.00079780794 -0.018884854 0.014490203 0.01524818 0.00060808286 -0.00077053485
0.017586282 -0.008022291 0.018361336 0.019739408 0.045470007 -0.012691252 0.0021081876 0.042456757
0.023201473 -0.026093876 0.025266936 0.019676656 0.04896056 -0.021361072 0.02055603 0.047037512
0.03488732 0.017439371 -0.0050485814 0.009097022 -0.02036503 -0.022494394 0.031124646 0.023215644
-0.013617448 0.016723013 0.048150495 0.014470818 -0.01502931 -0.0027117305 -0.0040064324 0.014826918
0.032538164 -0.01591454 -0.004299943 0.00642775 -0.002259089 -0.026620587 -0.0068001198 0.061053764

weight f4 [64, 32, 3, 3]
00000000: 99f1 cdbc f1d9 42bd f17d 233d e06b 263d
00000010: 2de4 ebbc ee41 07bc b318 1dbd fe2b 043c
00000020: 1547 d9bc f440 15bd 7cb9 77bd 7d03 76bd
00000030: 5e07 65bd 7043 923c 5b2e e43c 9e9b 46bd
00000040: 970c 413d ea17 8aba 33ef cd3c 0ea6 243d
00000050: 9dcd 6dbc 2fc1 033d b7d0 993c cbae 1ebd
00000060: 1701 b53c 8a4e 54bd e61b 59bd a7d9 1bbd
00000070: 5c0c 433d 7d68 9f3c 622f 8c3b 90e0 453d
00000080: 5854 c7bc 46d9 43bb 1232 563d 35cb febc
00000090: c8aa 57bd 239a 39bd 59f3 033d 358f 30bc
000000a0: f5cb 353b 3360 01bd 40f8 533d 5256 e1bb
000000b0: 55e2 343d d62e 6c3c fe54 dcbc 8a78 213d
000000c0: f690 99bc c983 173d d232 003d 9684 22bb
000000d0: 118b cd3a 7af2 703d aadc b1bb 3dd5 3d3d
000000e0: 192b 29bd 6187 f4bc 6050 f0bc 11d6 50bd
000000f0: fd6b a1bb 6dea 27bb b021 363d 2cac fd39
00000100: ad99 293d b79a 353d 90a7 d33a bbfe e0bc
00000110: e538 4fbd a524 19bc dfde 58bc 1501 773c
00000120: 0f15 833b 9eb2 a7bc c012 113c bc9c 193d
00000130: 6b0a 5ebc f510 33bc ceb7 483d f6cd a03c
00000140: 7f35 4a3d 19d1 7a3d ac9b 503d ef92 15bd
00000150: f805 663d d948 94bc 2ee2 303d aaff 7a3d
00000160: 28b8 22bd c2b5 553d dc36 a3bc 39e9 283c
00000170: 3c70 083d b6bf efbb 1a14 c0bc 1e81 1dbc
00000180: a26b 8e3b 04a4 cbba 3c05 323d 9eec bdbc
00000190: 492b 753d c6a4 f3bc 612f 78bd afe3 07bd
000001a0: 6a12 2cbd 871b 61bd 9488 1bbd be04 3b3d
000001b0: 035f e9bc 2282 093d 892f 753d bcaf 06bd
000001c0: 58be 41bd b0a3 5e3c 4ae6 1ebd 9734 20bd
000001d0: 122c 22bd 074b d73c 436e 91bc 83c0 1abc
000001e0: cdf3 da3c 03c2 403d 172f 72bc 4fbb e2bb
000001f0: 0daf 3bbd de8d 4a3d 89e1 3fb9 4984 5c3b
00000200: 92d7 5dbc 268c 503c a1d0 a83c 075e c03b
00000210: 8f01 98bc 95b4 08bd 944a 0dbc 9b5e 363d
00000220: 74dd 21bd a8f0 79bc bb85 40bd 1d1e 1a3d
00000230: e67f 3cbd cc22 00bd 3e1a 173d 4e50 84bd
00000240: 2f06 d5bc 915f 133d 804c 473d f294 1cbd
00000250: 7d42 693d 7d77 f8bc 0e16 5dbd 60a5 403d
00000260: 84a0 2bbd 1346 533b 0df7 243c b55a 85bd
00000270: 859e 6a3d 33fa 003d 4680 ed3b b32c 063d
00000280: a750 3b3d 0c29 473c 9e2b f2bc ca0a 8c3b
00000290: 6e6f 6e3d ef59 cbbc f85c 413d dc03 593d
000002a0: 1efb 19bd 6857 76bc 14f0 e33b daae ec3c
000002b0: 8490 60bc 4d05 fd3c e759 ebbc 19c4 0f3d
000002c0: f243 173b 25a9 fa3b 5cec 783d 765d a33c
000002d0: 5528 893d 1387 2e3d dfb9 8b3d 7785 6d3d
000002e0: ab43 d5bc 9d00 5d3b 8647 a63c ccdb 97bc
000002f0: 5621 363d bea8 12bd 9982 483d b5cd 043d
00000300: d946 3cbd 578f 48bd 40fc cfbc 45bd b13c
00000310: 34b6 3bbd 6129 4cbd 8f11 923c 3ad6 403d
00000320: 41c4 20bd 7dfb 643d 5ad9 ffbb 42d6 9c3c
00000330: 3ea0 43bd 2e33 26bc 07f6 823d 56dc cabc
00000340: e412 263d 3874 0fbd 6680 36bd 58c8 1b39
00000350: 5eca b63c 3e11 d13c 6f8f 7ebd e369 cfba
00000360: 191b d33c be5d 193d 5644 5dbd 95db 50bd
00000370: e514 25bd 3067 943c 69dd 33bc 274c cd3c
00000380: 2abc 0ebc c0d5 4bbd c45a a2bc fa99 213d
00000390: dd05 3fbd b719 d93c 788f 6c3d b6e4 dcbc
000003a0: 3e94 5bbd 912b 2bbd 1af7 643d 716f 1d3d
000003b0: 90f1 c2bc dd1b 1c3c 752d 7b3d 6b4e 12bd
000003c0: 38f4 163d 639c 58bd 9bc4 563d 7730 243c
000003d0: 6ff6 103d 7ba2 fa3c 840c 623b a445 5a3d
000003e0: c064 db3b 08b4 63bc d2bb be3c 112c af3c
000003f0: eec4 303d 4f78 57bd bee2 8aba 9450 7dbb
-0.025139617 -0.047571126 0.03991503 0.04063022 -0.028795326 -0.008255465 -0.038353633 0.008067129
-0.026523152 -0.036438897 -0.060479626 -0.06006192 -0.05591523 0.017854422 0.027854135 -0.048488252
0.047131147 -0.0010535691 0.025138473 0.040197425 -0.014514354 0.032166656 0.01877628 -0.038740914
0.022095246 -0.051832713 -0.05300512 -0.038049366 0.04761921 0.019459004 0.0042781094 0.048309863
-0.02433221 -0.0029884144 0.052293845 -0.031102756 -0.052653104 -0.04531301 0.032214496 -0.010776331
0.0027739976 -0.031585883 0.05175042 -0.0068767453 0.04416116 0.014415463 -0.026895996 0.039421596
-0.01874588 0.036990914 0.031298466 -0.0024798266 0.0015681704 0.058824994 -0.0054279165 0.046345938
-0.041300867 -0.02984971 -0.0293352 -0.0509854 -0.0049262033 -0.0025621906 0.04446572 0.00048384198
0.041406322 0.044337 0.001614796 -0.027465215 -0.05059137 -0.009347116 -0.01323673 0.015075942
0.004000313 -0.020470913 0.008854568 0.03750299 -0.0135522885 -0.010929336 0.049003415 0.01962946
0.049367424 0.061234567 0.05092971 -0.03651708 0.056158036 -0.018101143 0.04318445 0.061278977
-0.039726406 0.05217529 -0.01992362 0.010309511 0.03331016 -0.007316555 -0.023447085 -0.0096133035
0.004346327 -0.0015536551 0.043462023 -0.023184117 0.059855733 -0.029741656 -0.06059206 -0.03317612
-0.04200975 -0.054957893 -0.037972048 0.04565882 -0.028487688 0.03357137 0.059859786 -0.032882437
-0.047300667 0.013588831 -0.03879384 -0.039112654 -0.03959281 0.026280893 -0.017752772 -0.009445312
0.026727581 0.047060024 -0.014781735 -0.0069193016 -0.04582124 0.0494517 -0.00018299198 0.0033648184
-0.0135401655 0.0127287265 0.020607295 0.005870584 -0.01855543 -0.03337534 -0.008623738 0.044523817
-0.039517835 -0.015255131 -0.047002535 0.037626375 -0.04602041 -0.031283185 0.03689026 -0.064606294
-0.026003925 0.03597981 0.04865694 -0.038227983 0.056948174 -0.030330414 -0.05397611 0.047032714
-0.041901127 0.0032237812 0.010068667 -0.065114416 0.057280082 0.03148861 0.0072479574 0.032757472
0.045731213 0.012155782 -0.029561814 0.004273747 0.058211736 -0.024823157 0.047207803 0.052982196
-0.037593 -0.015035488 0.00695611 0.02889197 -0.01370633 0.030886317 -0.028729392 0.035099123
0.002308127 0.007649558 0.060772285 0.019942027 0.06697146 0.042609286 0.068225615 0.05798861
-0.026033243 0.003372229 0.020297777 -0.018537425 0.044465385 -0.035805456 0.048952673 0.03242274
-0.045966003 -0.048964825 -0.025388837 0.021696696 -0.04582806 -0.04984415 0.017830638 0.047079302
-0.039249662 0.0559039 -0.0078078927 0.019145135 -0.04776024 -0.010144038 0.06394582 -0.024763267
0.04054536 -0.035022944 -0.044556044 0.00014856586 0.022313293 0.025520917 -0.062148508 -0.0015824403
0.025769757 0.037442915 -0.05402025 -0.05099066 -0.04030313 0.01811561 -0.010978081 0.025060726
-0.008711854 -0.049764395 -0.019818671 0.039453484 -0.04663645 0.02650152 0.05775401 -0.026964527
-0.05360817 -0.041789595 0.055899717 0.038436357 -0.023796827 0.0095281275 0.061322648 -0.035719316
0.036854 -0.052883517 0.05243359 0.010021321 0.035391267 0.030595055 0.0034492323 0.05328907
0.00669536 -0.013897903 0.02328292 0.021383317 0.043156557 -0.05260497 -0.0010596139 -0.0038652765

bias f4 [32]
00000000: 9a4f b5bc 550f 07bb f039 17bd 8a5b 903d
00000010: 6c69 8f3c 88b4 623d 13a1 333d ee9c ad3c
00000020: 7e6c 6e3c a29a ba3a 1eca c83c 050e 063d
00000030: 5a7a 9f3d 2e6a 103c 4155 fdbc e683 10bd
00000040: 2137 233d ba98 603d 0331 9c3c 4c49 483d
00000050: 20f0 5bbc c561 9abc e478 fa3c 17ca 34bc
00000060: 7777 7a3d dde3 0f3d da33 403d 9d8c 963c
00000070: f8bc f53b fa4e 30bd 92e8 50bc da1d b9bc
-0.022132684 -0.0020608504 -0.036920488 0.0704871 0.017506324 0.05534795 0.043854784 0.021192994
0.014552234 0.0014236758 0.02451044 0.032728214 0.077870086 0.008814378 -0.030924441 -0.03528204
0.039847497 0.05483315 0.01906634 0.048898026 -0.0134239495 -0.018845448 0.030575223 -0.01103451
0.061149087 0.035129417 0.04692445 0.018377597 0.0074993335 -0.043044068 -0.012750762 -0.022597242
