Baseline/bestKernel_Size_Set_0.pt (torch_old, 84577 bytes, 16 tensors)

weight f4 [16, 3, 3, 3]
-0.18106991 -0.10598853 -0.08461371 -0.17570592 0.027758688 0.07262295 -0.03246715 -0.072333895
0.0027969403 -0.15079021 -0.115611956 0.0005656073 0.17294292 -0.056998573 0.100377254 -0.080079064
-0.056286857 -0.18414983 0.16355024 0.19171579 -0.0004356563 0.1264256 0.16158281 0.09920027
0.10245006 -0.17995127 -0.17732427 -0.15486218 0.048460536 -0.17404063 -0.1575354 -0.10415414
-0.18720224 -0.011122047 0.016331464 -0.123526566 0.115221925 -0.08158449 -0.063126646 0.13550735
0.15415998 -0.031511392 -0.1452586 -0.10452508 0.0145141855 0.12406056 0.10740435 -0.0731115
-0.16928579 -0.15560974 -0.048395354 0.014646801 -0.07396701 -0.13940969 0.012656411 -0.16041405
-0.15653166 -0.16651316 -0.061408337 0.16035888 0.06537828 -0.032688227 0.029989785 0.08417049
0.008907098 -0.1464822 -0.11358677 -0.12340456 0.004524832 -0.1726652 -0.027457349 -0.0609731
0.18276133 0.14963152 0.102930725 0.005475436 -0.069098 0.04131448 -0.13479759 -0.08523054
-0.043328006 -0.040324926 -0.17753686 0.082404934 0.16523582 -0.09881735 0.059217673 -0.014952781
0.00021860361 0.018181443 0.17134945 0.027495317 -0.120972954 -0.067488685 0.095457345 0.061156545
0.007190848 -0.023519626 -0.07399799 -0.061107256 -0.09463312 0.038096532 0.0617473 0.1545975
-0.03677322 0.023556493 0.13164341 0.09047779 0.027098708 0.061552253 0.012331664 -0.16283385
0.009604184 -0.039830398 0.17583188 0.17589699 0.040394902 0.17804313 -0.09413941 0.17288819
0.17231713 9.163085e-05 -0.14616537 -0.054872733 -0.041470546 0.015358689 -0.1676208 0.04186739
-0.07386176 -0.042651884 -0.09318448 -0.034221083 -0.17346558 -0.09645479 0.02421007 0.11329914
0.16094589 -0.15999411 0.0677828 -0.12229602 -0.16336744 -0.019413337 -0.12452615 -0.18024266
-0.16711144 -0.11537707 0.16787507 0.11964259 -0.06307896 -0.11919518 -0.13527708 -0.10034221
-0.069484755 0.10120321 0.048277467 -0.08741017 0.11836531 -0.13366623 -0.16921042 0.028004356
-0.12017807 0.041897822 0.17466867 -0.078931876 -0.122199036 0.083728656 -0.16156588 0.18366468
-0.07958308 0.10540434 -0.14108852 -0.121270694 0.029140487 0.07555012 0.15711349 0.16789794
-0.0041448055 -0.018174669 0.037379265 -0.038657393 0.018290665 -0.17064324 -0.14703427 0.14454986
-0.09971922 0.16372831 0.033303987 0.059000447 0.18668926 -0.10120383 -0.02522008 0.039287843
0.0715106 -0.18221785 0.073857844 -0.10751238 0.030803734 0.13600448 -0.012063252 0.0011172809
-0.0067871395 0.16700977 0.11561325 0.038779996 -0.11020463 -0.09869088 0.15936136 0.14411882
0.11671549 -0.14523803 0.15466848 -0.013985905 0.14576498 0.17183408 0.025363047 -0.07612841
0.18598667 -0.09526787 0.13047259 -0.17842624 -0.054973144 -0.16216569 -0.081651464 0.08643926
-0.1326929 -0.17839988 0.12876983 0.09463305 -0.013053399 -0.1456688 -0.059987612 -0.07264388
0.10949797 -0.07136527 -0.042831764 -0.13135456 -0.08580519 0.11551361 0.1301456 0.03388091
-0.06113266 0.19093405 0.043839045 -0.06848731 -0.06111466 -0.021323275 0.09665091 0.07580003
0.14482976 -0.0033250095 0.16443953 -0.07288272 -0.0891947 -0.071656935 -0.18236938 -0.13149114
00000000: 646a 39be 8410 d9bd f449 adbd 41ec 33be
00000010: 3066 e33c 57bb 943d 46fc 04bd cb23 94bd
00000020: df4c 373b c068 1abe f6c5 ecbd 4345 143a
00000030: f317 313e 5677 69bd 9792 cd3d 7e00 a4bd
00000040: 0c8d 66bd c691 3cbe b779 273e 2551 443e
00000050: cc68 e4b9 b675 013e f775 253e 8329 cb3d
00000060: 56d1 d13d 2545 38be 7e94 35be 3194 1ebe
00000070: 8e7e 463d b537 32be f650 21be c44e d5bd
00000080: f2b1 3fbe 3f39 36bc 90c9 853c 7ffb fcbd
00000090: 79f9 eb3d c515 a7bd 8b48 81bd 70c2 0a3e
000000a0: 1ddc 1d3e 1712 01bd acbe 14be 3f11 d6bd
000000b0: e8cc 6d3c 7613 fe3d d0f6 db3d 7bbb 95bd
000000c0: 4159 2dbe 2958 1fbe 353a 46bd 23f9 6f3c
000000d0: 047c 97bd 6ac1 0ebe d65c 4f3c 9543 24be
000000e0: d649 20be 6d82 2abe 4f87 7bbd 1e35 243e
000000f0: 0ce5 853d 17e4 05bd 23ad f53c 9461 ac3d
00000100: 14ef 113c 6eff 15be 2ea0 e8bd 88bb fcbd
00000110: 0b45 943b 25cf 30be 3cee e0bc eebe 79bd
00000120: c925 3b3e 0139 193e 58cd d23d 496b b33b
00000130: 4183 8dbd 5f39 293d 6108 0abe 598d aebd
00000140: b578 31bd c02b 25bd 39cc 35be ebc3 a83d
00000150: 9433 293e c060 cabd 3b8e 723d 82fc 74bc
00000160: f638 6539 40f1 943c 3b76 2f3e dc3d e13c
00000170: abc0 f7bd 8237 8abd 247f c33d 497f 7a3d
00000180: 34a1 eb3b 3bac c0bc 428c 97bd 9a4b 7abd
00000190: 02cf c1bd 1c0b 1c3d bdea 7c3d cf4e 1e3e
000001a0: 849f 16bd 8cf9 c03c 88cd 063e 6b4c b93d
000001b0: 1cfe dd3c 371e 7c3d bf0a 4a3c ebbd 26be
000001c0: de5a 1d3c 3325 23bd 460d 343e 571e 343e
000001d0: 2075 253d f050 363e 2acc c0bd 9a09 313e
000001e0: e773 303e f029 c038 60ac 15be 3bc2 60bd
000001f0: 05dd 29bd 03a3 7b3c c9a4 2bbe 247d 2b3d
00000200: d644 97bd beb3 2ebd 81d7 bebd 682b 0cbd
00000210: f6a0 31be 178a c5bd 3254 c63c 6109 e83d
00000220: 00cf 243e 7fd5 23be b5d1 8a3d 5676 fabd
00000230: cb49 27be b808 9fbc 9107 ffbd 8891 38be
00000240: 431f 2bbe d04a ecbd 71e7 2b3e 2d07 f53d
00000250: 8b2f 81bd 9a1c f4bd 1386 0abe 3780 cdbd
00000260: 064e 8ebd a143 cf3d 98be 453d 1a04 b3bd
00000270: 8369 f23d cddf 08be 7f45 2dbe 6469 e53c
00000280: ec1f f6bd 0d9d 2b3d 58dc 323e 09a7 a1bd
00000290: 7d43 fabd ee79 ab3d 8771 25be 9812 3c3e
000002a0: 74fc a2bd 3bde d73d 8279 10be c55c f8bd
000002b0: 08b8 ee3c 05ba 9a3d 5ce2 203e 70ed 2b3e
000002c0: 26d1 87bb 0be3 94bc 001b 193d 3757 1ebd
000002d0: 4ed6 953c 1abd 2ebe 2790 16be e104 143e
000002e0: 9739 ccbd 65a8 273e c369 083d 74aa 713d
000002f0: 782b 3f3e f443 cfbd 579a cebc 4aec 203d
00000300: 2674 923d 5197 3abe c842 973d 732f dcbd
00000310: 1d58 fc3c c244 0b3e f2a4 45bc ba71 923a
00000320: a766 debb 9c04 2b3e a4c6 ec3d c6d7 1e3d
00000330: f7b2 e1bd 721e cabd a02f 233e e293 133e
00000340: 8808 ef3d 47b9 14be 6a61 1e3e 2325 65bc
00000350: 6a43 153e 46f5 2f3e 2ac6 cf3c 36e9 9bbd
00000360: 4a73 3e3e cd1b c3bd 9b9a 053e 5eb5 36be
00000370: 852b 61bd c30e 26be e238 a7bd 1107 b13d
00000380: a6e0 07be 75ae 36be 3ddc 033e f9ce c13d
00000390: ecdd 55bc 342a 15be 92b5 75bd 51c6 94bd
000003a0: 7940 e03d f427 92bd 5c70 2fbd cf81 06be
000003b0: a2ba afbd 6692 ec3d e344 053e b6c6 0a3d
000003c0: 3d66 7abd 3784 433e 9290 333d 1343 8cbd
000003d0: 5e53 7abd 26ae aebc eaf0 c53d 0c3d 9b3d
000003e0: 414e 143e 67e8 59bb d662 283e 8943 95bd
000003f0: b6ab b6bd dfc0 92bd 0abf 3abe 9da5 06be

bias f4 [16]
-0.021753954 0.023411183 -0.09463918 0.1831682 -0.12962037 -0.023467569 -0.12957095 0.05922053
0.16737191 0.18463865 0.030336123 -0.08899083 0.1749598 0.025397396 0.13873936 -0.086974554
00000000: 5935 b2bc cfc8 bf3c 30d2 c1bd 7290 3b3e
00000010: 34bb 04be 0f3f c0bc 3fae 04be 3a91 723d
00000020: 8b63 2b3e ea11 3d3e 7683 f83c d340 b6bd
00000030: a928 333e 330e d03c b111 0e3e b71f b2bd

weight f4 [16, 16, 3, 3]
-0.0305982 -0.05989043 0.08527141 0.01663848 -0.05533789 0.009673228 -0.02479336 0.011294313
0.03195021 -0.051651377 0.004252791 -0.059780274 0.0025572276 -0.09294218 0.0006112836 0.070416
0.06495604 0.018987013 0.06253842 0.08173482 0.02608102 0.03597431 0.01860326 0.07764613
0.081584424 -0.03248781 0.0020899693 -0.03962901 0.032062482 -0.078819394 0.038473178 -0.014783203
0.037414003 0.031615842 -0.035824727 0.048456293 0.037027773 -0.069959216 0.08319108 0.07459773
0.053117502 -0.0065489914 0.033207998 -0.042042766 -0.024561659 0.039957218 0.034584846 0.035052877
-0.08038363 0.0719875 -0.037371587 0.0763351 0.07187871 0.026701177 0.085624635 0.052105065
0.05433854 -0.024363676 0.08141921 0.026845615 0.05464432 -0.014232348 0.06339593 0.07594063
-0.061365824 0.070807524 -0.053306498 -0.054527853 -0.06800895 0.025449608 -0.06003333 -0.026472187
-0.033115204 0.031228531 -0.07786426 -0.030934937 0.009356661 0.014735673 -0.036432754 0.03445324
-0.048682828 -0.0707914 -0.012018753 -0.04501557 0.057874475 -0.05188728 -0.0011814088 0.039027467
-0.06833148 0.06840518 -0.036028206 -0.020643378 -0.04816 -0.027273238 -0.02826077 -0.070239656
0.032480344 0.003403907 0.08465669 0.058735043 0.07510694 0.029261991 0.049173873 0.082968146
0.07398649 -0.05945122 -0.014419478 -0.07818744 0.0051817354 -0.027067596 0.077197954 0.01484066
0.0025261578 -0.05912454 -0.062109437 0.01864627 -0.038136747 -0.035841905 0.06119245 -0.040570464
-0.03413473 0.06438125 0.036316466 -0.044335198 0.025672548 0.04256683 -0.07204468 0.018612374
0.022579057 -0.00026511797 0.080899045 -0.05028079 0.048825674 -0.04112251 -0.06830832 0.04621492
-0.027784713 -0.0032282462 0.03155925 -0.072888784 -0.07288564 0.019961897 0.063564524 -0.014389649
0.06467788 0.03326523 0.029263752 -0.04576477 0.08512782 0.044272367 0.020662772 0.06604858
-0.06400053 0.011594747 -0.027642228 -0.0062976647 0.016873825 0.025371626 0.012888803 -0.055393152
-0.039650116 -0.0010680892 -0.0037333101 -0.06271115 0.09352287 0.01841401 -0.050907042 0.045966923
0.043475565 -0.03354489 0.051505033 -0.0446237 0.03640289 0.08632576 0.061889354 0.048812415
-0.009169469 0.023121282 0.037404798 0.028935343 -0.009732304 0.01754513 -0.027529545 -0.04213379
-0.07199389 -0.06303066 -0.04806554 0.08418184 0.021982655 -0.067534305 -0.032843046 0.026399283
-0.019826796 -0.017667338 -0.026100732 -0.015664833 0.010903414 0.010163834 0.061521914 0.06199931
0.07771779 0.0035892827 -0.030174034 0.008060115 -0.047578618 0.042088088 -0.0023505958 -0.020111213
-0.06386191 0.04669089 0.05327393 0.083358064 -0.022154989 0.0326216 0.011455863 -0.044885907
-0.04712865 0.050962403 -0.03507606 0.070737034 0.038401168 0.03691723 0.059258852 0.04671455
0.04144596 0.05140962 -0.027346142 -0.03636179 -0.0072346367 0.05424846 0.06639195 0.069519304
-0.018134495 -0.0025260719 -0.050163794 0.058357727 -0.04819896 -0.02728292 0.07600794 0.027905446
-0.027511396 -0.048663456 -0.049605772 0.074108146 -0.06929532 0.07949085 0.073867016 0.01260045
0.0015045016 0.07245726 0.044804726 0.08722804 0.075024426 -0.04689885 0.059754655 0.05001544
00000000: 14a9 fabc ab4f 75bd c7a2 ae3d 6c4d 883c
00000010: fca9 62bd 757c 1e3c 721b cbbc c80b 393c
00000020: 39de 023d 6590 53bd ff5a 8b3b 29dc 74bd
00000030: 2997 273b 7858 bebd 8c3e 203a 4436 903d
00000040: ac07 853d a78a 9b3c 2514 803d 9664 a73d
00000050: dda7 d53c cc59 133d dd65 983c ef04 9f3d
00000060: bc15 a73d f011 05bd def7 083b 0752 22bd
00000070: f353 033d 106c a1bd 0d96 1d3d 3f35 72bc
00000080: 6d3f 193d 9d7f 013d f3bc 12bd 1b7a 463d
00000090: 6faa 173d c746 8fbd 1660 aa3d b2c6 983d
000000a0: bd91 593d ec98 d6bb 1c05 083d 0935 2cbd
000000b0: 8835 c9bc 2eaa 233d d7a8 0d3d 9b93 0f3d
000000c0: 2ca0 a4bd 2f6e 933d f312 19bd 9455 9c3d
000000d0: 2535 933d 6dbc da3c f85b af3d 1f6c 553d
000000e0: 1792 5e3d 5596 c7bc 1dbf a63d 56eb db3c
000000f0: b9d2 5f3d cb2e 69bc bad5 813d c386 9b3d
00000100: bb5a 7bbd 8903 913d ea57 5abd 9958 5fbd
00000110: 4748 8bbd b27b d03c 82e5 75bd 33dc d8bc
00000120: cfa3 07bd fad2 ff3c 4c77 9fbd 446b fdbc
00000130: ae4c 193c e46d 713c 833a 15bd d71e 0d3d
00000140: a567 47bd 15fb 90bd 4eea 44bc 3f62 38bd
00000150: c90d 6d3d c287 54bd 80d9 9aba 44db 1f3d
00000160: 60f1 8bbd 0418 8c3d 5092 13bd 4d1c a9bc
00000170: 6c43 45bd 206c dfbc 2183 e7bc cfd9 8fbd
00000180: 1c0a 053d 1514 5f3b 7d60 ad3d 2894 703d
00000190: abd1 993d d8b6 ef3c 8b6a 493d 34eb a93d
000001a0: 3b86 973d 1f83 73bd ad3f 6cbc bd20 a0bd
000001b0: 8ccb a93b ddbc ddbc f619 9e3d 3d26 733c
000001c0: e58d 253b 932c 72bd 7766 7ebd 10c0 983c
000001d0: 4735 1cbd f6ce 12bd efa4 7a3d 372d 26bd
000001e0: dcd0 0bbd 51da 833d 93c0 143d d398 35bd
000001f0: 3c4f d23c 8e5a 2e3d 298c 93bd fa78 983c
00000200: b7f7 b83c 88ff 8ab9 66ae a53d 3bf3 4dbd
00000210: 6efd 473d 1470 28bd 3ce5 8bbd db4b 3d3d
00000220: c49c e3bc fc90 53bb 4644 013d b746 95bd
00000230: 1145 95bd 2287 a33c 1e2e 823d 90c2 6bbc
00000240: d675 843d 1f41 083d 89ba ef3c d773 3bbd
00000250: 7f57 ae3d f156 353d f944 a93c 7a44 873d
00000260: b612 83bd e5f7 3d3c f471 e2bc a45c cebb
00000270: fa3a 8a3c 28d8 cf3c 8f2b 533c eee3 62bd
00000280: 2968 22bd 20ff 8bba 8daa 74bb b46e 80bd
00000290: eb88 bf3d fad8 963c e783 50bd d047 3c3d
000002a0: 6f13 323d 5e66 09bd f1f6 523d 57c7 36bd
000002b0: 321b 153d 8fcb b03d b17f 7d3d 87ef 473d
000002c0: 8a3b 16bc d868 bd3c c635 193d d009 ed3c
000002d0: 3e74 1fbc ceba 8f3c a485 e1bc 7b94 2cbd
000002e0: 8871 93bd 3816 81bd 5fe0 44bd 8767 ac3d
000002f0: f814 b43c 6d4f 8abd 6e86 06bd 4f43 d83c
00000300: ce6b a2bc 18bb 90bc 34d1 d5bc 8953 80bc
00000310: 3ca4 323c 3686 263c 67fe 7b3d fdf2 7d3d
00000320: 812a 9f3d 2c3a 6b3b 892f f7bc 930e 043c
00000330: cce1 42bd 8f64 2c3d 740c 1abb 45c0 a4bc
00000340: 08ca 82bd f23e 3f3d c435 5a3d a2b7 aa3d
00000350: 617e b5bc 3a9e 053d 5fb1 3b3c 49da 37bd
00000360: f909 41bd f4bd 503d eaab 0fbd 94de 903d
00000370: 8b4a 1d3d 8536 173d 69b9 723d c257 3f3d
00000380: 3dc3 293d e592 523d 0405 e0bc 1af0 14bd
00000390: 8810 edbb a233 5e3d 81f8 873d 2360 8e3d
000003a0: cb8e 94bc 748c 25bb 8d78 4dbd 8308 6f3d
000003b0: 466c 45bd 6e80 dfbc 0daa 9b3d f699 e43c
000003c0: 945f e1bc 5553 47bd 6c2f 4bbd 03c6 973d
000003d0: b4ea 8dbd 19cc a23d 9747 973d 1e72 4e3c
000003e0: b232 c53a 7964 943d 2985 373d 9da4 b23d
000003f0: 68a6 993d 0219 40bd 4cc1 743d fddc 4c3d

bias f4 [16]
0.042099427 -0.009093527 0.062332314 -0.0014819604 0.0536866 0.09043019 -0.042194426 -0.070133306
0.08798844 -0.04545056 0.0066733314 0.04423825 -0.00345841 0.071646295 0.061165284 -0.024310857
00000000: 7370 2c3d 04fd 14bc 2b50 7f3d 573e c2ba
00000010: 7be6 5b3d 7733 b93d 10d4 2cbd 0da2 8fbd
00000020: 4933 b43d 5e2a 3abd f6ab da3b 2b33 353d
00000030: 7ea6 62bb 4bbb 923d 7388 7a3d 9027 c7bc

weight f4 [16, 16, 3, 3]
0.015995339 0.0012519072 0.07589865 0.05322594 -0.05837701 0.0030915814 0.04025948 0.0608598
0.025080627 0.034108687 -0.016454615 0.0011669835 -0.05802552 0.06790181 0.0649131 -0.04578699
-0.07145359 0.064328514 -0.07678767 0.05082491 -0.0835577 -0.046300158 -0.037614726 0.075722076
-0.01566763 0.0693441 0.021619348 0.078493156 0.053058352 0.059942685 0.070019454 -0.0269982
-0.025028922 0.024489027 0.0713597 -0.032910034 -0.06860363 -0.06821477 -0.04218496 0.010382941
-0.012591797 -0.025803989 -0.041998792 0.018446838 -0.072193995 0.0811043 -0.016007505 0.013831925
0.0268488 -0.03342445 0.065331064 -0.0016445967 0.006262236 -0.080004536 0.0021001452 0.019919777
0.0030595998 -0.016112467 0.054636814 0.057854306 0.04886421 -0.022877187 0.0056637013 -0.062235236
-0.06684663 -0.019018976 0.0056344136 -0.052670218 -0.07390124 0.034092918 0.026258053 -0.05954388
0.05122676 -0.066631675 0.05853687 0.03994302 -0.03266254 0.07461051 -0.051246 -0.042632304
0.061614655 -0.02646205 -0.03850971 0.008074967 -0.018587824 0.048420597 0.06364879 0.032574076
0.013147896 0.015731433 -0.0064105955 0.0010626963 -0.007415032 0.04837657 0.038147036 -0.01689778
0.023129486 -0.0040464583 0.020670975 0.058335874 -0.066963896 0.0016722161 -0.027437065 -0.0906444
-0.089907005 -0.020728836 0.0499581 -0.06365993 0.024897909 0.045940913 -0.058207117 0.032745082
0.013900307 -0.078902125 -0.003880174 -0.08021582 0.068526536 0.036174245 0.028943338 0.060824517
0.060929704 0.07996894 0.031344026 -0.063451566 0.07433037 0.019718483 -0.036856335 -0.03529336
0.07375287 0.014198405 0.05578195 0.0014674828 0.07271298 -0.065369375 0.014916009 0.012689767
-0.007930087 0.06766119 0.009213544 -0.0030853355 0.050021216 -0.014506692 -0.01339258 -0.07645022
0.0044684936 -0.034193516 0.052989565 0.07511665 -0.075376816 -0.044780374 0.08123127 -0.034858044
0.07651918 0.09057756 -0.012758387 -0.059084907 0.048231624 0.044404775 0.07996332 0.01852401
0.05195785 -0.06456073 0.019126758 0.026755707 0.05907567 -0.038010035 -0.0048895646 -0.043678686
-0.050017327 0.039856695 0.018339353 0.042340457 0.006052183 0.0061758384 0.0048813433 0.05213204
-0.04947802 0.025823869 0.052893035 0.05615144 -0.03396715 0.07085732 -0.04918712 0.04955623
0.07433975 0.009010892 0.031642325 -0.07271562 -0.026582122 -0.026782561 -0.07195866 -0.012750189
0.06357028 -0.0027357107 0.08646343 -0.0699793 0.037844066 0.07631683 0.08576731 -0.02834956
-0.07055327 -0.027099833 0.065394156 0.011249184 0.082456864 -0.057856727 -0.04885736 0.04813044
0.034295537 -0.04837506 0.08310967 -0.026435891 -0.063606754 0.02878098 -0.040980842 -0.033947296
-0.040919963 0.028436683 0.04501146 0.061855618 -0.041278385 -0.013497188 0.08363252 -0.036878463
-0.024136284 -0.00970889 -0.06881892 -0.054954913 0.078891 0.020286668 0.02147875 0.037578624
0.055855364 0.061947998 0.06381079 0.037359424 0.066848285 0.05827119 -0.012020542 0.010419409
-0.041248295 -0.06182589 0.081237845 -0.056782793 -0.04755915 -0.076833256 -0.068599306 0.016475545
0.038868908 -0.074248716 0.0036176953 -0.06416647 0.025310006 0.05727603 -0.02421182 -0.026872694
00000000: a808 833c 0917 a43a c070 9b3d 7103 5a3d
00000010: bb1c 6fbd 219c 4a3b 20e7 243d 2048 793d
00000020: e375 cd3c 8db5 0b3d d4cb 86bc 78f5 983a
00000030: 2bac 6dbd 1b10 8b3d 29f1 843d 248b 3bbd
00000040: 4356 92bd abbe 833d db42 9dbd c82d 503d
00000050: 4d20 abbd 3ca5 3dbd e611 1abd 2d14 9b3d
00000060: 6759 80bc 4804 8e3d 0f1b b13c 05c1 a03d
00000070: b753 593d 7686 753d 5c66 8f3d 542b ddbc
00000080: 7409 cdbc 369d c83c 0925 923d accc 06bd
00000090: 0f80 8cbd 2fb4 8bbd 23ca 2cbd 361d 2a3c
000000a0: d34d 4ebc e362 d3bc ed06 2cbd d31d 973c
000000b0: 72da 93bd 031a a63d 2c22 83bc 4c9f 623c
000000c0: 04f2 db3c 13e8 08bd 4bcc 853d 828f d7ba
000000d0: 7133 cd3b 6bd9 a3bd 97a2 093b cd2e a33c
000000e0: 9183 483b 4bfe 83bc daca 5f3d a3f8 6c3d
000000f0: d625 483d f068 bbbc 9296 b93b 60ea 7ebd
00000100: e3e6 88bd afcd 9bbc e3a0 b83b babc 57bd
00000110: 8959 97bd 04a5 0b3d 211b d73c 49e4 73bd
00000120: 27d3 513d 3076 88bd 5bc4 6f3d 4b9b 233d
00000130: 28c9 05bd 65cd 983d 53e7 51bd 369f 2ebd
00000140: a65f 7c3d f1c6 d8bc 5cbc 1dbd de4c 043c
00000150: 7e45 98bc ad54 463d 4c5a 823d 656c 053d
00000160: 466a 573c 35df 803c f90f d2bb 2c4a 8b3a
00000170: ccf9 f2bb 8326 463d 1140 1c3d 376d 8abc
00000180: 0c7a bd3c 2798 84bb 2d56 a93c 99f1 6e3d
00000190: 5e24 89bd 432e db3a b2c3 e0bc c5a3 b9bd
000001a0: 2a21 b8bd 85cf a9bc dda0 4c3d 2360 82bd
000001b0: b3f6 cb3c 8a2c 3c3d 966a 6ebd b51f 063d
000001c0: 1dbe 633c 7097 a1bd 844a 7ebb 3148 a4bd
000001d0: a457 8c3d 722b 143d 941a ed3c 2123 793d
000001e0: 6d91 793d c1c6 a33d 9862 003d e5f2 81bd
000001f0: 853a 983d a888 a13c abf6 16bd c58f 10bd
00000200: bf0b 973d 6da0 683c 9d7b 643d 8d58 c03a
00000210: 8bea 943d 61e0 85bd 4762 743c bee8 4f3c
00000220: 32ed 01bc f391 8a3d 68f4 163c 5733 4abb
00000230: 0ce3 4c3d 7aad 6dbc 8d6c 5bbc ef91 9cbd
00000240: 716c 923b 800e 0cbd 960b 593d c2d6 993d
00000250: 295f 9abd a06b 37bd 955c a63d 4fc7 0ebd
00000260: 16b6 9c3d ba80 b93d 8e08 51bc 0403 72bd
00000270: 868e 453d c8e1 353d cfc3 a33d aabf 973c
00000280: c1d1 543d 6a38 84bd b8af 9c3c c92e db3c
00000290: 54f9 713d 69b0 1bbd a438 a0bb 6ce8 32bd
000002a0: f8de 4cbd c640 233d 693c 963c 306d 2d3d
000002b0: 6451 c63b b05e ca3b adf3 9f3b 6888 553d
000002c0: 77a9 4abd 948c d33c 5ea6 583d 0dff 653d
000002d0: 2321 0bbd a51d 913d 6f78 49bd 79fb 4a3d
000002e0: 703f 983d 6ca2 133c 629b 013d edeb 94bd
000002f0: c0c2 d9bc 1a67 dbbc 105f 93bd 2be6 50bc
00000300: 2331 823d 9c49 33bb bd13 b13d 4f51 8fbd
00000310: 6102 1b3d 004c 9c3d c5a6 af3d 563d e8bc
00000320: 3c7e 90bd 7800 debc 5fed 853d 7f4e 383c
00000330: 25df a83d 2dfb 6cbd a81e 48bd 6d24 453d
00000340: 7a79 0c3d ed24 46bd 6735 aa3d 1590 d8bc
00000350: 4244 82bd 17c6 eb3c 87db 27bd 520c 0bbd
00000360: b19b 27bd 0cf4 e83c f05d 383d 515c 7d3d
00000370: 8613 29bd 4f23 5dbc 8747 ab3d df0d 17bd
00000380: 75b9 c5bc 0912 1fbc eff0 8cbd 6718 61bd
00000390: 9b91 a13d 3a30 a63c 34f4 af3c 0bec 193d
000003a0: 98c8 643d 2fbd 7d3d 3baf 823d 3206 193d
000003b0: c1e7 883d c5ad 6e3d cff1 44bc 2bb6 2a3c
000003c0: f9f3 28bd 253d 7dbd 0760 a63d 1395 68bd
000003d0: 62cd 42bd c15a 9dbd cb7d 8cbd b9f7 863c
000003e0: 0135 1f3d b60f 98bd db16 6d3b b669 83bd
000003f0: ee56 cf3c 459a 6a3d de57 c6bc 2024 dcbc

bias f4 [16]
-0.035107907 0.02191992 0.07081513 -0.022401404 0.081486575 -0.025165457 -0.0566598 -0.031565048
-0.057542343 0.035053134 0.067846134 -0.08243617 -0.05268804 0.05513672 -0.0052091884 0.08220709
00000000: 4fcd 0fbd 6791 b33c 8607 913d 2683 b7bc
00000010: 6fe2 a63d ca27 cebc 1b14 68bd 5a4a 01bd
00000020: 85b1 6bbd e093 0f3d eaf2 8a3d 4bd4 a8bd
00000030: 6acf 57bd 0bd7 613d d7b1 aabb 315c a83d

weight f4 [16, 16, 3, 3]
0.06258393 -0.068416774 0.035806462 -0.09353469 0.020373588 -0.060845133 -0.013614135 0.06773561
-0.0019782335 -0.055630922 0.027386205 -0.024310067 0.0639795 -0.07331079 -0.025111636 -0.08084725
-0.058298223 -0.034763318 -0.06593135 -0.067701794 -0.031598806 -0.058555808 -0.06145657 -0.0064289365
-0.07355104 0.037046745 0.04399574 0.065767385 0.014862513 -0.018810112 -0.025440875 -0.05054022
0.045769833 0.03528908 0.04928086 -0.027067268 -0.068610564 0.01662552 0.061870296 -0.02429437
0.056063883 0.047614362 0.018155556 -0.033762816 -0.039220903 -0.025784608 -0.017528286 -0.028489312
-0.09236135 -0.06844255 -0.037719734 0.052848514 0.023135427 -0.087239794 -0.069507 -0.056611117
0.070623115 0.010839112 0.058255494 -0.07494409 0.068109944 0.05804961 -0.0037444003 -0.050926283
0.020684084 -0.056690298 -0.04619785 0.019207267 -0.075869605 0.008946637 -0.016049402 -0.011132429
-0.0046005393 0.0147858765 -0.05200348 0.026358431 -0.08360357 0.031867534 -0.07339292 0.071709774
0.012825826 0.012070553 0.011052433 0.0051081665 -0.04284891 -0.0922352 0.03873371 0.03950984
-0.026351595 -0.0069290046 -0.016437473 -0.029952137 0.0457392 -0.060911447 -0.089000195 -0.024929877
-0.0596627 -0.06617107 -0.035084188 -0.014979536 0.042734846 0.034672897 0.055896048 0.050173067
0.012659888 -0.012667672 -0.015013655 -0.07575593 -0.0016788569 -0.02959704 -0.034470342 0.060369134
0.02848529 0.04144421 0.044664107 -0.05465997 0.014458424 -0.021082604 0.018470842 0.0383596
-0.031591665 0.0518523 -0.0072172405 -0.02653196 0.04391592 0.053869832 -0.03444333 0.036972925
-0.029528387 -0.013489515 -0.070207655 -0.04648963 6.0316816e-05 -0.030173026 -0.01928564 0.009062512
-0.04414578 0.032978196 0.07070576 0.055371273 0.062300246 -0.034089122 -0.008376257 -0.03899242
-0.02920308 -0.0071191913 0.062481053 -0.0665333 -0.03263111 0.05458684 0.05480767 -0.0097982185
-0.007143366 -0.00063623185 0.07144073 0.07134931 -0.027933732 0.02492146 -0.0694888 -0.044068918
0.003448678 -0.016724603 -0.02807459 0.07970169 0.052628584 0.017678458 -0.013288717 0.012428017
0.07963344 -0.0043165544 0.01754641 0.037109468 0.06066055 0.062321845 -0.027722059 0.044071093
0.024564857 0.023268027 -0.060520995 0.08840978 0.048572768 0.021240715 0.04348505 -0.009279679
-0.048335604 -0.010291021 -0.06317005 0.08357037 0.04718924 0.03348887 -0.044640247 -0.042540684
0.05910454 -0.05581317 0.027908767 0.073869236 -0.061012015 0.07054939 -0.058856107 -0.0062395325
0.06753187 0.07173072 0.08556505 0.07896819 -0.070491195 0.02381854 -0.06460226 0.05932357
0.036650706 0.07621083 0.031384673 0.06907081 0.008449237 -0.055389043 -0.043142032 0.010718785
-0.06795033 0.07718978 -0.042920694 -0.05724299 0.086454794 -0.04712805 -0.03140201 0.007176783
0.031890344 -0.018467627 0.056047767 -0.04191384 0.027607843 -0.070507415 -0.063333146 0.040946744
0.051572077 -0.02569059 0.040718667 -0.010300803 0.05800724 0.020590859 -0.006890519 0.027323313
-0.0676074 0.058205683 0.088534854 0.08248949 -0.03648111 -0.021823516 -0.025015831 0.024322908
-0.046548523 -0.050885737 -0.020543259 0.08494161 0.031631876 -0.06463324 -0.027075509 -0.05700391
00000000: 012c 803d 181e 8cbd cca9 123d 1e8f bfbd
00000010: 83e6 a63c bf38 79bd d20d 5fbc f8b8 8a3d
00000020: 40a5 01bb 40dd 63bd 0959 e03c e825 c7bc
00000030: af07 833d f823 96bd ebb6 cdbc 3e93 a5bd
00000040: 1eca 6ebd fb63 0ebd 0407 87bd 3da7 8abd
00000050: c06d 01bd 37d8 6fbd e2b9 7bbd d4a9 d2bb
00000060: eda1 96bd 54be 173d e134 343d 0db1 863d
00000070: e681 733c aa17 9abc 6269 d0bc 4303 4fbd
00000080: 2679 3b3d 488b 103d bada 493d 2dbc ddbc
00000090: b283 8cbd 3e32 883c b56b 7d3d fd04 c7bc
000000a0: 3ea3 653d 4707 433d f6ba 943c e14a 0abd
000000b0: 19a6 20bd 3e3a d3bc 7b97 8fbc 6b62 e9bc
000000c0: f327 bdbd 9c2b 8cbd 0280 1abd af77 583d
000000d0: 8286 bd3c c7aa b2bd b059 8ebd 0fe1 67bd
000000e0: daa2 903d 8896 313c 509d 6e3d 497c 99bd
000000f0: 3a7d 8b3d 6ec5 6d3d 9d64 75bb 1498 50bd
00000100: ab71 a93c 1634 68bd f539 3dbd 8f58 9d3c
00000110: 8661 9bbd ea94 123c 097a 83bc cb64 36bc
00000120: 1fc0 96bb 7640 723c 9a01 55bd a3ed d73c
00000130: 5938 abbd 8887 023d 074f 96bd 93dc 923d
00000140: 6a23 523c 92c3 453c 4415 353c 6862 a73b
00000150: 5782 2fbd cfe5 bcbd 3da7 1e3d 12d5 213d
00000160: 4ddf d7bc b40c e3bb e1a7 86bc 2f5e f5bc
00000170: 0759 3b3d 487e 79bd bc45 b6bd be39 ccbc
00000180: e060 74bd b384 87bd 70b4 0fbd ba6c 75bc
00000190: bc0a 2f3d 2b05 0e3d 41f3 643d 4682 4d3d
000001a0: 6b6b 4f3c 118c 4fbc d5fb 75bc ed25 9bbd
000001b0: 170d dcba 7e75 f2bc c630 0dbd a045 773d
000001c0: fc59 e93c 67c1 293d b6f1 363d 22e3 5fbd
000001d0: 07e3 6c3c 6db5 acbc 2a50 973c f51e 1d3d
000001e0: 4366 01bd 1463 543d 9a7e ecbb 8e59 d9bc
000001f0: 2ee1 333d 9da6 5c3d 7314 0dbd ec70 173d
00000200: 84e5 f1bc 2003 5dbc 08c9 8fbd e96b 3ebd
00000210: b0fc 7c38 6c2d f7bc ebfc 9dbc ee7a 143c
00000220: 35d2 34bd 2514 073d 2ece 903d fdcc 623d
00000230: 8b2e 7f3d 09a1 0bbd 913c 09bc 84b6 1fbd
00000240: 4c3b efbc 1b48 e9bb 22ec 7f3d 9c42 88bd
00000250: 33a8 05bd 7396 5f3d 027e 603d b588 20bc
00000260: e612 eabb ccc8 26ba 844f 923d 961f 923d
00000270: 48d5 e4bc 1728 cc3c 2550 8ebd 9c81 34bd
00000280: 3703 623b 0902 89bc affc e5bc a43a a33d
00000290: 1291 573d 6ad2 903c ebb8 59bc e29e 4b3c
000002a0: db16 a33d e271 8dbb 7dbd 8f3c 1900 183d
000002b0: 3277 783d 3145 7f3d 5f19 e3bc e483 343d
000002c0: 3d3c c93c 979c be3c dde4 77bd 3010 b53d
000002d0: 3df4 463d 0201 ae3c 611d 323d cb09 18bc
000002e0: 8efb 45bd ac9b 28bc 4d5f 81bd f126 ab3d
000002f0: 8149 413d a02b 093d b1d8 36bd 243f 2ebd
00000300: 9a17 723d 5a9c 64bd eda0 e43c c148 973d
00000310: bce7 79bd 337c 903d 1a13 71bd fe74 ccbb
00000320: 264e 8a3d 8ee7 923d bb3c af3d 13ba a13d
00000330: b05d 90bd 191f c33c 314e 84bd 46fd 723d
00000340: 0d1f 163d 6c14 9c3d 378d 003d ff74 8d3d
00000350: ab6e 0a3c 9fdf 62bd b3b5 30bd d89d 2f3c
00000360: 8b29 8bbd ad15 9e3d 9ccd 2fbd a077 6abd
00000370: 360f b13d 5809 41bd 659f 00bd 382b eb3b
00000380: 739f 023d 6c49 97bc 5892 653d d9ad 2bbd
00000390: d829 e23c 3166 90bd cfb4 81bd c6b7 273d
000003a0: 3e3d 533d 1275 d2bc 9ec8 263d b3c4 28bc
000003b0: 0099 6d3d 29ae a83c ddc9 e1bb 24d5 df3c
000003c0: c075 8abd 1569 6e3d c351 b53d 40f0 a83d
000003d0: 376d 15bd 3bc7 b2bc 00ee ccbc d640 c73c
000003e0: aaa9 3ebd 906d 50bd 564a a8bc def5 ad3d
000003f0: 6d90 013d 6f5e 84bd 75cd ddbc ef7c 69bd

bias f4 [16]
0.06634262 0.07585699 0.016154824 0.047778368 0.022006117 -0.06951084 -0.0019651998 -0.069922954
0.06846565 0.031894222 0.06585524 -0.0010285049 0.08013335 0.04814052 -0.02038135 -0.016206916
00000000: a4de 873d e95a 9b3d 1f57 843c 40b3 433d
00000010: 2c46 b43c b35b 8ebd 95ca 00bb c433 8fbd
00000020: b837 8c3d 84a3 023d 1ddf 863d e6ce 86ba
00000030: f41c a43d fe2e 453d caf6 a6bc 5ec4 84bc

weight f4 [16, 16, 3, 3]
0.051363453 -0.01904795 0.057422657 0.009781842 -0.04124884 -0.04659668 -0.049536224 0.04495415
0.054977912 -0.04649192 -0.083613195 0.03943341 -0.02657283 -0.08445014 0.009280184 -0.016345005
0.051565904 0.0090873 -0.04568917 -0.009201042 -0.051681843 0.043594535 0.028967876 0.056142833
-0.058538415 -0.044110533 -0.04854728 -0.07563071 -0.08601775 -0.07552148 0.05366653 -0.031491306
-0.021756465 0.023183908 0.016331973 0.032694783 -0.06946609 0.063459575 -0.017198294 -0.05027041
0.043130606 -0.07997017 -0.06041903 0.036235932 0.021508284 -0.042936876 -0.014379057 -0.021984883
0.023808872 0.008937033 0.023748176 0.058326866 -0.06759856 -0.071464874 -0.024762865 -0.04388406
-0.06595665 0.07120147 0.06271509 0.05995553 -0.05326943 -0.012757635 -0.067948155 -0.036461838
0.064880535 0.009268507 0.021567049 -0.08895174 0.027014798 0.050188534 -0.039079048 0.05500958
0.030012969 -0.06856828 -0.070640065 -0.0066721914 -0.088484615 -0.0688961 0.024300903 -0.035676252
-0.013780199 -0.036890123 0.055522475 0.07446817 0.05533814 -0.07366532 -0.017537875 0.03497092
0.04883465 -0.013729813 0.05217034 -0.0015799154 0.0025507146 0.056299645 0.054813184 -0.06533253
-0.05331842 0.026042007 0.045553148 -0.03060817 0.062344264 -0.021250794 -0.052545864 -0.019018667
-0.08176226 0.015635418 -0.08684095 0.06667664 -0.07037222 0.047178924 -0.06977377 -0.019551516
-0.05359405 0.035009626 0.040612403 -0.0856793 -0.07945687 0.006891972 -0.008552194 -0.004844558
0.01992971 -0.02409414 0.06770883 3.5239937e-06 -0.047576807 0.023724005 -0.07242716 -0.045082062
0.01928379 -0.041775323 -0.08413245 0.036867943 0.014368699 0.01950649 0.024137277 -0.089570925
-0.043534804 -0.047681715 0.071901575 -0.042910445 -0.06258552 -0.03747769 -0.0002882916 0.025166769
0.07027848 0.06904206 0.017043684 0.085256696 0.053549863 0.053286858 -0.061721727 0.016402021
-0.008664664 -0.07068667 -0.0327422 0.071835965 0.03909736 0.08569574 0.065709285 0.008181128
0.08605159 0.026879903 -0.015280017 -0.038812183 0.049108494 0.035403896 0.0564547 -0.019475799
-0.07843507 0.014741128 0.008544248 -0.0498444 0.024196908 -0.0065549454 0.07519616 0.004998026
-0.04374763 0.06778096 0.0015536265 -0.017608762 0.04948637 0.09035107 0.048284847 0.01160809
0.0777881 -0.026326051 0.08367604 -0.037487872 0.011945696 0.08279532 0.039867327 -0.010544916
0.058657475 0.056328163 -0.06829253 -0.0014845496 -0.058126096 -0.010749229 -0.006715988 -0.028596677
-0.024985984 0.047862947 0.0027920722 -0.07617386 0.013346328 -0.07975417 -0.054309916 0.054234665
0.062218327 -0.03763262 -0.04604921 0.038898427 -0.0805472 0.05631068 0.061208975 0.037460584
0.032401767 0.024572408 -0.05605746 -0.026192574 0.061576348 0.078485966 0.010053207 0.03180252
-0.07036887 0.060131535 -0.054952946 -0.05090422 0.08396279 -0.030798519 -0.04986777 0.014086123
0.058874518 0.06665106 -0.0032996086 0.05021238 0.06178218 -0.021740502 -0.069617644 0.0051806145
-0.026250405 0.028768156 -0.060347248 -0.044961125 -0.052757632 -0.053559203 0.07364264 -0.07346786
0.0059103468 -0.04168639 -0.026142497 -0.015349688 0.047311533 0.064240254 -0.010463379 0.011107214
00000000: 7c62 523d 720a 9cbc 0534 6b3d 0544 203c
00000010: 8bf4 28bd 29dc 3ebd 7fe6 4abd d821 383d
00000020: 8530 613d 506e 3ebd 653d abbd ed84 213d
00000030: 43af d9bc 32f4 acbd ea0b 183c f6e5 85bc
00000040: c536 533d e6e2 143c 9124 3bbd f8bf 16bc
00000050: 57b0 53bd 2f90 323d 0a4e ed3c 07f6 653d
00000060: fac5 6fbd 3fad 34bd 83d9 46bd 46e4 9abd
00000070: 132a b0bd 01ab 9abd 6fd1 5b3d 07fd 00bd
00000080: 9d3a b2bc 2eec bd3c a1ca 853c f7ea 053d
00000090: 3d44 8ebd 18f7 813d 70e3 8cbc 58e8 4dbd
000000a0: b8a9 303d 67c7 a3bd f279 77bd 216c 143d
000000b0: 2432 b03c 94de 2fbd 2396 6bbc a419 b4bc
000000c0: d30a c33c a26c 123c 898b c23c 27e8 6e3d
000000d0: 1d71 8abd 2d5c 92bd 7edb cabc c6bf 33bd
000000e0: 4814 87bd 14d2 913d c570 803d ee93 753d
000000f0: 0c31 5abd 6605 51bc 6728 8bbd 0259 15bd
00000100: 16e0 843d f0da 173c 61ad b03c 542c b6bd
00000110: 234e dd3c 7e92 4d3d 5a11 20bd ba51 613d
00000120: c2dd f53c 876d 8cbd bdab 90bd 66a2 dabb
00000130: 6c37 b5bd 6619 8dbd b012 c73c 4321 12bd
00000140: 58c6 61bc 191a 17bd 896b 633d c582 983d
00000150: 3faa 623d d8dd 96bd 97ab 8fbc ab3d 0f3d
00000160: d806 483d 02f3 60bc 91b0 553d 2a15 cfba
00000170: e429 273b 759a 663d ca83 603d 10cd 85bd
00000180: 6a64 5abd 0c56 d53c f095 3a3d fcbd fabc
00000190: b35c 7f3d 2516 aebc 553a 57bd 09cd 9bbc
000001a0: f972 a7bd d915 803c abd9 b1bd c38d 883d
000001b0: 4f1f 90bd b03e 413d 8de5 8ebd 802a a0bc
000001c0: 6f85 5bbd 4166 0f3d 3159 263d a178 afbd
000001d0: 49ba a2bd 0dd6 e13b 801e 0cbc 19bf 9ebb
000001e0: a243 a33c 1361 c5bc edaa 8a3d c07d 6c36
000001f0: e6df 42bd d858 c23c b154 94bd f8a7 38bd
00000200: 0af9 9d3c 9a1c 2bbd a24d acbd d702 173d
00000210: b16a 6b3c 13cc 9f3c 8abb c53c f670 b7bd
00000220: 8d51 32bd e74d 43bd 2241 933d ddc2 2fbd
00000230: d62c 80bd 3582 19bd d825 97b9 8a2a ce3c
00000240: 2aee 8f3d ec65 8d3d 329f 8b3c 109b ae3d
00000250: 1a57 5b3d 5243 5a3d eccf 7cbd 885d 863c
00000260: 3cf6 0dbc 2cc4 90bd af1c 06bd bc1e 933d
00000270: 8e24 203d 4081 af3d 9792 863d 230a 063c
00000280: d13b b03d 3e33 dc3c 0959 7abc 86f9 1ebd
00000290: fd25 493d ad03 113d 0b3d 673d b68b 9fbc
000002a0: 91a2 a0bd c684 713c 2cfd 0b3c a429 4cbd
000002b0: 9838 c63c deca d6bb 7200 9a3d 7bc6 a33b
000002c0: b730 33bd bed0 8a3d 0ea3 cb3a 4040 90bc
000002d0: 38b2 4a3d fb09 b93d 55c6 453d dc2f 3e3c
000002e0: 5e4f 9f3d bba9 d7bc 585e ab3d e28c 19bd
000002f0: e1b7 433c 9890 a93d ec4b 233d 95c4 2cbc
00000300: d242 703d 5cb8 663d f4dc 8bbd 3895 c2ba
00000310: a115 6ebd 891d 30bc ca11 dcbb 9443 eabc
00000320: 68af ccbc f00b 443d 33fb 363b 0a01 9cbd
00000330: 8faa 5a3c 2756 a3bd 1374 5ebd 2b25 5e3d
00000340: a5d8 7e3d aa24 1abd 199e 3cbd f553 1f3d
00000350: eef5 a4bd 07a6 663d 43b6 7a3d 4570 193d
00000360: b7b7 043d 134c c93c 829c 65bd cf91 d6bc
00000370: 7b37 7c3d 40bd a03d 35b6 243c 5c43 023d
00000380: 8e1d 90bd 7c4c 763d 5716 61bd f280 50bd
00000390: aff4 ab3d 2d4d fcbc 2642 4cbd 7bc9 663c
000003a0: 6826 713d 5a80 883d 3f3e 58bb 7fab 4d3d
000003b0: 500f 7d3d 2319 b2bc b293 8ebd 25c2 a93b
000003c0: 170b d7bc 32ab eb3c ad2e 77bd 2829 38bd
000003d0: 6318 58bd e560 5bbd f4d1 963d 5176 96bd
000003e0: 95ab c13b 59bf 2abd ca28 d6bc 427d 7bbc
000003f0: bdc9 413d 6590 833d 986e 2bbc 08fb 353c

bias f4 [16]
-0.011493603 0.03307833 0.06530483 -0.016392805 -0.0066940826 0.042330652 0.016324937 0.076170355
0.025709942 0.004895419 -0.06518752 0.035183176 0.04094822 0.04259246 -0.008225729 0.0035813781
00000000: aa4f 3cbc 257d 073d 8abe 853d 344a 86bc
00000010: 095a dbbb e862 2d3d e0bb 853c 34ff 9b3d
00000020: a89d d23c c069 a03b 0981 85bd 3c1c 103d
00000030: 52b9 273d 6e75 2e3d 35c5 06bc 8eb5 6a3b

weight f4 [16, 16, 3, 3]
0.028413689 0.006333311 -0.0051192124 -0.06347291 0.054185327 -0.0356226 0.036668416 0.04660481
0.05114209 0.0017269382 0.008550355 0.06722285 -0.03661521 -0.04777103 0.065146655 0.09078809
0.073917605 0.0627703 -0.03855228 0.058149014 -0.035627943 0.03796849 0.08349506 -0.018073767
-0.05734188 -0.05067638 -0.023327487 0.014934118 0.084993914 0.02387435 -0.03355463 0.0007578478
-0.014556653 0.030165402 0.043048814 -0.0391107 0.03812639 0.051278546 0.0071177147 -0.054077346
0.0601071 -0.06961771 0.041940555 0.01864659 -0.014836208 -0.021247609 0.028984847 -0.037362028
0.006890223 0.07269134 0.005559997 -0.044920906 0.07573707 0.062888145 0.073898986 -0.021467097
-0.07650943 -0.0202536 0.06036911 0.029084986 0.0756671 0.042742096 -0.07749018 -0.079711735
-0.0079671 -0.055713296 -0.051269464 0.010423693 -0.0142743485 0.06776315 -0.045391742 0.03893478
-0.037305072 -0.033047117 0.08322136 0.014480151 0.092208095 -0.060889892 -0.025589913 -0.061662607
0.07398948 0.029598556 -0.006400864 0.07016116 -0.060047004 -0.06216199 0.082728036 -0.018049285
0.058599383 0.047416616 0.033039723 -0.042033616 -0.017263627 0.08303596 0.043339625 -0.011794675
0.037875716 -0.009908665 0.004286299 0.01944966 0.0628571 0.08453519 0.07955686 -0.013761157
0.010204289 -0.079839796 -0.008498139 0.0028762324 -0.046173748 0.08495675 -0.025549509 -0.07439627
-0.030008223 -0.009839924 -0.06999821 0.055281643 0.014410471 -0.056403402 0.01793249 -0.061891086
0.027068857 0.009273411 0.0049952245 0.014497744 -0.02455499 0.06921039 -0.06648958 -0.00710328
0.06326348 0.015048494 -0.06245273 0.08038337 -0.050747655 -0.036739722 0.050002042 -0.037517432
0.015657503 0.04297547 0.058790058 -0.039157834 0.09185438 0.07487116 -0.020559587 0.013091388
-0.01688504 -0.030779911 0.08444095 0.07424737 0.033816975 0.0872078 -0.06840835 0.018565517
-0.028718276 0.056580823 0.01803281 -0.053808942 0.014034937 0.04564646 -0.013930467 0.0036808567
-0.047625545 0.08369201 -0.07281509 -0.040852293 -0.059655044 -0.030592453 -0.037958924 0.029349377
0.08061079 0.012387823 0.024652727 0.07205661 -0.07412895 0.014636595 0.046962745 0.024605516
-0.025274618 -0.018074134 -0.033817437 0.092303 -0.025743186 -0.0022276246 0.013742679 -0.054975174
-0.04475389 -0.04497306 0.015705558 -0.04455283 -0.055034332 -0.03654168 -0.017672794 -0.011367584
-0.041153233 0.034909073 0.00082937663 -0.04914159 0.050140824 0.03073159 0.018684004 0.08752299
-0.0042608515 0.057737764 -0.036795426 -0.030937502 0.025052149 -0.038398292 0.041920125 -0.07570331
-0.029132042 0.08405404 -0.0008658347 0.046740487 0.07633852 -0.020492582 -0.018131185 -0.010777467
-0.033468228 0.007947171 0.050250106 0.079491615 0.06803283 0.09252495 -0.034435816 -0.049230628
-0.07383376 0.037929002 0.025668284 -0.030988855 0.062523745 -0.06159974 -0.013995521 0.0021568837
0.04264936 0.07869343 -0.03653484 0.093912445 0.09020935 0.033181854 -0.043915454 0.038484775
0.028715992 -0.018952372 0.09155967 -0.062235624 -0.025282172 -0.027116543 -0.018841315 0.065718256
-0.00030041844 0.011527115 -0.0752928 -0.05836606 0.059774242 -0.019743681 0.037144903 -0.058068495
00000000: d3c3 e83c aa87 cf3b 11bf a7bb 16fe 81bd
00000010: 6ff1 5d3d 01e9 11bd 9f31 163d afe4 3e3d
00000020: 5e7a 513d 6e5a e23a ca16 0c3c 22ac 893d
00000030: d5f9 15bd 8eab 43bd 9c6b 853d 1bef b93d
00000040: 1d62 973d b78d 803d ffe8 1dbd a92d 6e3d
00000050: 9bee 11bd d984 1b3d 75ff aa3d 700f 94bc
00000060: 52df 6abd 0992 4fbd 4919 bfbc 3bae 743c
00000070: 4a11 ae3d 2494 c33c 9470 09bd 4eaa 463a
00000080: 077f 6ebc 6f1d f73c f453 303d 8b32 20bd
00000090: 6b2a 1c3d 7409 523d b83b e93b 3580 5dbd
000000a0: dd32 763d bb93 8ebd dcc9 2b3d bcc0 983c
000000b0: 9113 73bc 770f aebc a171 ed3c ed08 19bd
000000c0: 61c7 e13b 33df 943d a330 b63b fcfe 37bd
000000d0: 091c 9b3d 80cb 803d 5a58 973d c4db afbc
000000e0: fab0 9cbd e1ea a5bc 9a45 773d a343 ee3c
000000f0: 5af7 9a3d 5612 2f3d 2cb3 9ebd e83f a3bd
00000100: 7088 02bc a033 64bd eeff 51bd 23c8 2a3c
00000110: f5de 69bc 68c7 8a3d b1ec 39bd 137a 1f3d
00000120: 34cd 18bd 6a5c 07bd f66f aa3d 283e 6d3c
00000130: 99d7 bc3d ae67 79bd f0a1 d1bc ee91 7cbd
00000140: cc87 973d ac78 f23c 57be d1bb a7b0 8f3d
00000150: d9f3 75bd 929d 7ebd 516d a93d 18dc 93bc
00000160: e805 703d ed37 423d a954 073d 712b 2cbd
00000170: 736c 8dbc c20e aa3d e484 313d 743e 41bc
00000180: 9123 1b3d f457 22bc 1574 8c3b e554 9f3c
00000190: 39bb 803d c920 ad3d b5ee a23d 7a76 61bc
000001a0: e42f 273c 0c83 a3bd c73b 0bbc 2c7f 3c3b
000001b0: af20 3dbd cefd ad3d 344d d1bc 125d 98bd
000001c0: ced3 f5bc a237 21bc 395b 8fbd 016f 623d
000001d0: e519 6c3c 4107 67bd 28e7 923c 8281 7dbd
000001e0: 82bf dd3c 81ef 173c fbae a33b f287 6d3c
000001f0: 8c27 c9bc 2dbe 8d3d b02b 88bd a2c2 e8bb
00000200: 4990 813d f58d 763c 6fce 7fbd 09a0 a43d
00000210: c6dc 4fbd 647c 16bd f1ce 4c3d e1ab 19bd
00000220: 2a44 803c 0c07 303d d8cd 703d f763 20bd
00000230: 261e bc3d 0d56 993d 946c a8bc 437d 563c
00000240: 7f52 8abc 2726 fcbc 60ef ac3d 010f 983d
00000250: ab83 0a3d 019a b23d ad19 8cbd b616 983c
00000260: 9742 ebbc 4bc1 673d 8bb9 933c c466 5cbd
00000270: cbf2 653c c8f7 3a3d 9d3c 64bc 873a 713b
00000280: 0113 43bd b766 ab3d 1420 95bd bc54 27bd
00000290: d958 74bd 069d fabc d17a 1bbd 1b6e f03c
000002a0: 4517 a53d 4cf6 4a3c 84f4 c93c 6a92 933d
000002b0: ebd0 97bd 54ce 6f3c 025c 403d 8291 c93c
000002c0: b70c cfbc 3510 94bc 2784 0abd 5b09 bd3d
000002d0: 60e3 d2bc 57fd 11bb f928 613c a62d 61bd
000002e0: db4f 37bd ac35 38bd f1a8 803c 077d 36bd
000002f0: ae6b 61bd bbac 15bd 89c6 90bc 1a3f 3abc
00000300: 4b90 28bd d1fc 0e3d 866a 593a b148 49bd
00000310: 7760 4d3d d1c0 fb3c 320f 993c 413f b33d
00000320: 9d9e 8bbb 6f7e 6c3d cdb6 16bd a570 fdbc
00000330: 2a3a cd3c 8747 1dbd 70b4 2b3d 560a 9bbd
00000340: 52a6 eebc 8624 ac3d 2ff9 62ba f472 3f3d
00000350: 5f57 9c3d 0fe0 a7bc da87 94bc f993 30bc
00000360: fb15 09bd da34 023c 0ed3 4d3d 80cc a23d
00000370: cc54 8b3d b97d bd3d 920c 0dbd 0ea6 49bd
00000380: 2836 97bd 715b 1b3d 4b46 d23c 57dc fdbc
00000390: 730c 803d 0250 7cbd 784d 65bc 815a 0d3b
000003a0: 18b1 2e3d 052a a13d 8ea5 15bd 2b55 c03d
000003b0: aebf b83d b2e9 073d b1e0 33bd 36a2 1d3d
000003c0: cd3d eb3c 0142 9bbc a383 bb3d c8ea 7ebd
000003d0: 8f1c cfbc 8323 debc 1a59 9abc 4b97 863d
000003e0: 7b81 9db9 39dc 3c3c 1d33 9abd 4011 6fbd
000003f0: d6d5 743d 80bd a1bc 4125 183d 3bd9 6dbd

bias f4 [16]
0.088388704 0.056028802 -0.018096894 -0.013776195 0.06079685 0.07791196 0.09301027 0.038703002
-0.021134162 -0.03656569 0.09419512 -0.059691526 -0.059408665 0.005748929 -0.019564228 0.05676857
00000000: 2305 b53d 757e 653d f03f 94bc 8db5 61bc
00000010: 1e06 793d 4e90 9f3d 2b7c be3d 0a87 1e3d
00000020: 8d21 adbc e8c5 15bd 5fe9 c03d 1a7f 74bd
00000030: 8056 73bd 8361 bc3b 2945 a0bc 2986 683d

weight f4 [16, 16, 3, 3]
-0.06859312 -0.023041964 -0.07661792 0.043736003 0.009451342 -0.054926403 -0.036641106 0.046628203
0.051538754 -0.0896176 -0.05832466 0.0015231029 0.016514147 -0.06466877 0.024858922 -0.009696252
-0.055057775 -0.07741164 0.00039606838 0.03808596 0.027624302 0.04551917 0.07291313 0.088487044
-0.03824276 -0.017663797 -0.057636585 0.056853984 -0.09211937 -0.04890772 -0.090117544 -0.019617394
-0.0481485 0.040793594 -0.08018833 0.041490205 -0.02502532 0.029009877 -0.046685655 0.02388708
0.0692292 0.0283869 0.032018315 -0.008748284 -0.07133525 0.016250124 0.04639917 0.03990336
0.062436912 -0.0550959 0.0387484 0.048880633 0.048481688 -0.050444797 0.07146828 -0.0617969
-0.035036307 0.057041258 0.0777788 0.06659362 -0.012211526 -0.052919798 0.061066106 -0.04363113
0.05239407 -0.00346929 0.020953286 0.006819895 -0.023757147 -0.037787918 -0.023497893 -0.024810815
-0.07835107 0.017470924 0.020951137 -0.087703586 -0.052576892 -0.07177855 -0.010566641 -0.05729026
0.0546562 -0.07447424 -0.035717446 0.05880863 -0.010152651 0.052221105 -0.052992024 0.061046276
-0.065131664 -0.048101816 -0.06400274 0.091832206 0.04213976 -0.0137475785 0.019804165 0.011307624
-0.050211217 -0.042030275 0.045921337 0.06922848 0.015762063 0.0893843 0.008223189 0.06448182
0.045516662 0.09170487 0.04911631 -0.04418719 0.06437298 -0.026731767 -0.056639016 -0.052673157
0.09289232 0.0341159 0.045171034 -0.02299522 -0.056101177 0.018006701 -0.059285454 0.011707017
-0.008699485 -0.0029123616 0.053758062 -0.079307154 0.03266323 -0.041320723 -0.007573771 -0.033207607
-0.018798424 0.04138269 0.04568626 -0.05707215 0.01761407 0.010223193 0.057084363 0.009915393
0.08313861 0.076536804 -0.067878656 0.06552701 0.012947787 0.0021365192 -0.046675265 -0.041280966
0.011571101 -0.035505652 0.016898055 -0.023758994 -0.027525652 0.03685813 -0.074477375 -0.03289082
0.042609137 0.03182606 0.069558464 0.04979225 -0.060646586 0.035663467 0.0021903797 0.044847917
-0.030391937 0.030242492 -0.010315 0.049551275 -0.029612958 0.055536803 0.063173346 0.07738228
-0.033271197 -0.03382167 0.0323204 -0.060905024 -0.061384395 0.0019343608 0.063886 -0.06586063
-0.029649412 -0.06736861 -0.02381316 0.06495934 -0.05694499 0.069288455 0.05277855 0.011722283
0.058945525 0.04089175 0.03355619 0.024807684 -0.046870682 -0.087302096 0.042888988 -0.038323175
-0.08371144 -0.037759192 -0.06774568 0.05937465 0.04843049 -0.0825469 0.043230493 -0.023448749
0.089108065 0.019482754 0.007615989 0.044402894 -0.061967324 -0.023106776 0.07843909 0.061467346
-0.02017753 0.054480653 -0.08097755 -0.057190165 -0.029567245 -0.067387395 0.065930024 -0.017298227
-0.053558983 0.014659064 -0.024553748 0.04125831 0.034851734 -0.068876386 0.0096332375 -0.02752588
0.030896256 -0.06741973 -0.00716331 0.014631195 -0.07957195 0.011176736 -0.045543205 0.021384005
-0.04469567 -0.02862983 -0.07114546 8.3518564e-05 0.072204 0.042547215 -0.056386363 -0.056179985
0.07249061 -0.024601221 -0.0559843 -0.025471041 0.057673737 0.018789032 -0.029186063 0.055608135
0.096547864 0.027593538 -0.04853878 -0.013917176 -0.075430565 0.08418472 -0.046320472 0.011980082
00000000: 8d7a 8cbd 80c2 bcbc dbe9 9cbd 8624 333d
00000010: cdd9 1a3c 82fa 60bd fc14 16bd 37fd 3e3d
00000020: 4d1a 533d 6f89 b7bd d7e5 6ebd daa2 c73a
00000030: ad48 873c 0f71 84bd f0a4 cb3c 07dd 1ebc
00000040: 4384 61bd fe89 9ebd 66a7 cf39 0600 1c3d
00000050: 5c4c e23c 4f72 3a3d 7b53 953d b238 b53d
00000060: 71a4 1cbd abb3 90bc 5714 6cbd b9df 683d
00000070: 15a9 bcbd 7653 48bd 8c8f b8bd a8b4 a0bc
00000080: 5d37 45bd 2f17 273d c739 a4bd a2f1 293d
00000090: e601 cdbc 1fa6 ed3c 7539 3fbd d6ae c33c
000000a0: 0ac8 8d3d a58b e83c a325 033d f654 0fbc
000000b0: 3718 92bd fb1e 853c 0e0d 3e3d b571 233d
000000c0: d9bd 7f3d 3dac 61bd a4b6 1e3d 0f37 483d
000000d0: bc94 463d 349f 4ebd f65d 923d bf1e 7dbd
000000e0: 3b82 0fbd 18a4 693d 7e4a 9f3d 3c62 883d
000000f0: da12 48bc 6ec2 58bd 7420 7a3d 8eb6 32bd
00000100: 2a9b 563d 075d 63bb 3aa6 ab3c 6d79 df3b
00000110: 599e c2bc 81c7 1abd a77e c0bc 0d40 cbbc
00000120: 8776 a0bd 2f1f 8f3c b8a1 ab3c f09d b3bd
00000130: de5a 57bd a200 93bd b41f 2dbc 31a9 6abd
00000140: 2edf 5f3d f385 98bd 754c 12bd 51e1 703d
00000150: 4e57 26bc cce5 553d 2a0e 59bd a90b 7a3d
00000160: c063 85bd 6906 45bd de13 83bd 8612 bc3d
00000170: be9a 2c3d 863d 61bc 583c a23c 9d43 393c
00000180: 47aa 4dbd f027 2cbd 0318 3c3d a9c7 8d3d
00000190: 711f 813c 1e0f b73d 8eba 063c 0b0f 843d
000001a0: ae6f 3a3d c3cf bb3d 2f2e 493d a0fd 34bd
000001b0: fbd5 833d 94fc dabc 50fe 67bd cfbf 57bd
000001c0: 543e be3d 1dbd 0b3d 4305 393d 7960 bcbc
000001d0: 59ca 65bd ca82 933c 4ed5 72bd cace 3f3c
000001e0: 4988 0ebc 52dd 3ebb 6a31 5c3d ca6b a2bd
000001f0: e1c9 053d eb3f 29bd 652d f8bb b304 08bd
00000200: 27ff 99bc e580 293d 8421 3b3d 7dc4 69bd
00000210: 624b 903c 2e7f 273c 4bd1 693d 2c74 223c
00000220: 9344 aa3d 54bf 9c3d f703 8bbd 0633 863d
00000230: f422 543c d804 0c3b 902e 3fbd 3b16 29bd
00000240: b794 3d3c 606e 11bd ca6d 8a3c 39a2 c2bc
00000250: 7a7d e1bc 8df8 163d 9887 98bd 86b8 06bd
00000260: eb86 2e3d 0b5c 023d ab74 8e3d f5f2 4b3d
00000270: 8e68 78bd db13 123d 798c 0f3b 73b2 373d
00000280: 83f8 f8bc 1abf f73c 3f00 29bc 47f6 4a3d
00000290: e096 f2bc 8f7a 633d 0761 813d 9a7a 9e3d
000002a0: 6147 08bd 9788 0abd 6562 043d 8c77 79bd
000002b0: 346e 7bbd 618a fd3a aad6 823d f0e1 86bd
000002c0: 53e3 f2bc 8ef8 89bd d113 c3bc 6709 853d
000002d0: 263f 69bd 1be7 8d3d 522e 583d d20e 403c
000002e0: dd70 713d 1c7e 273d 3772 093d 7c39 cb3c
000002f0: 79fb 3fbd 71cb b2bd 5dac 2f3d c3f8 1cbd
00000300: e770 abbd 62a9 1abd 3fbe 8abd d532 733d
00000310: 0d5f 463d 590e a9bd 7512 313d 9717 c0bc
00000320: 4a7e b63d 4c9a 9f3c 8c8f f93b cfdf 353d
00000330: 73d1 7dbd 6c4a bdbc aca4 a03d 2fc5 7b3d
00000340: 594b a5bc 1b27 5f3d 8fd7 a5bd 3c40 6abd
00000350: 0237 f2bc 6702 8abd 5206 873d 03b5 8dbc
00000360: aa60 5bbd 922c 703c f124 c9bc 79fe 283d
00000370: b1c0 0e3d 100f 8dbd bad4 1d3c f47d e1bc
00000380: 251a fd3c 5b13 8abd 33ba eabb aeb7 6f3c
00000390: 9ef6 a2bd a11e 373c 838b 3abd 822d af3c
000003a0: cf12 37bd 1b89 eabc b6b4 91bd b026 af38
000003b0: b1df 933d fd45 2e3d 63f5 66bd fc1c 66bd
000003c0: f575 943d 8088 c9bc cb4f 65bd a5a8 d0bc
000003d0: 4c3b 6c3d 75eb 993c 9c17 efbc 5bc5 633d
000003e0: e3ba c53d d80b e23c 9ad0 46bd de04 64bc
000003f0: 577b 9abd 0a69 ac3d 89ba 3dbd 1b48 443c

bias f4 [16]
-0.0436518 -0.009927637 0.0025435511 -0.0097531155 -0.07022117 0.059297085 -0.013674559 -0.08463163
-0.013143162 0.012030538 0.05332294 -0.026533892 0.00987575 -0.07332029 -0.049645875 -0.04376956
00000000: 3bcc 32bd 87a7 22bc b5b1 263b 88cb 1fbc
00000010: 1ed0 8fbd 80e1 723d 420b 60bc 5953 adbd
00000020: 6b56 57bc bc1b 453c 2869 5a3d 9b5d d9bc
00000030: e6cd 213c f328 96bd 7959 4bbd b647 33bd
