Baseline/bestKernel_Size_Set_4.pt (torch_old, 247399 bytes, 16 tensors)

weight f4 [16, 3, 7, 7]
0	0xbd982521	-0.07428957
1	0xbd33fa43	-0.04393984
2	0xbd1db281	-0.038500313
3	0xbd9b51c6	-0.075839564
4	0x3c54f2f1	0.012997375
5	0x3d002fba	0.031295516
6	0xbc718c9c	-0.014742997
7	0xbcf373f2	-0.029718373
8	0x3bdf54d5	0.0068155327
9	0xbd813112	-0.063081875
10	0xbd403d7a	-0.04693363
11	0xb9f07314	-0.00045862107
12	0x3d92c318	0.071661174
13	0xbcacb404	-0.021081932
14	0x3d5c34e9	0.053761397
15	0xbc9c8314	-0.019105472
16	0xbc647a84	-0.013945226
17	0xbd9bf8ce	-0.07615815
18	0x3d8a3d86	0.06750016
19	0x3db23fdf	0.08703589
20	0x3bd0100a	0.0063495683
21	0x3d875832	0.06608619
22	0x3da89d0a	0.08233078
23	0x3d27b470	0.040943563
24	0x3d35fff8	0.044433564
25	0xbd96ae1a	-0.07357426
26	0xbd91761c	-0.07102606
27	0xbd7b7df6	-0.061399423
28	0x3d26d072	0.040726133
29	0xbd803544	-0.062601596
30	0xbd71fc9d	-0.0590788
31	0xbced6534	-0.028978921
32	0xbd924b5d	-0.07143281
33	0xb972e9ac	-0.00023165968
34	0x3c86d07c	0.016456835
35	0xbd32e62a	-0.043676533
36	0x3d770c99	0.06031475
37	0xbcbffb38	-0.02343522
38	0xbcacddc7	-0.021101845
39	0x3d899169	0.06717188
40	0x3d91c3ee	0.07117449
41	0xbb117e94	-0.002220069
42	0xbd72da8f	-0.059290465
43	0xbd0e944b	-0.034809392
44	0x3c794dbb	0.015216286
45	0x3d4a06a0	0.049322724
46	0x3d3fea39	0.04685423
47	0xbce3972a	-0.027782042
48	0xbd953cfc	-0.072870225
49	0xbd6794d7	-0.05653843
50	0xbc44eef4	-0.0120198615
51	0x3c742d9c	0.014903452
52	0xbcb1d408	-0.02170755
53	0xbd528820	-0.05139935
54	0x3cb143b8	0.021638736
55	0xbd4eeab1	-0.050516788
56	0xbd52d9cb	-0.051477235
57	0xbd8ab96e	-0.06773649
58	0xbcbfca19	-0.023411797
59	0x3d886e90	0.06661713
60	0x3ce1c73f	0.027560828
61	0xbc1a9424	-0.009434734
62	0x3c937282	0.017998938
63	0x3d30c7a8	0.043159157
64	0xba23ee02	-0.00062534225
65	0xbd8909d9	-0.066913314
66	0xbd672605	-0.056432743
67	0xbd7223db	-0.059116226
68	0xbaff2b2e	-0.0019467825
69	0xbd98621e	-0.07440589
70	0xbc17592c	-0.009237569
71	0xbd07a11b	-0.033112627
72	0x3db657b4	0.08903447
73	0x3d97cd65	0.07412223
74	0x3d616b65	0.05503406
75	0x3c7054c1	0.014668644
76	0xbc888286	-0.0166638
77	0x3cdafe3b	0.026732555
78	0xbd75562c	-0.059896633
79	0xbcdd6b9d	-0.027028853
80	0xbc1a35fe	-0.009412287
81	0xbc48748b	-0.012234817
82	0xbd8bb329	-0.068212815
83	0x3d2db40f	0.042408045
84	0x3d9549ea	0.072894886
85	0xbd468801	-0.048469547
86	0x3ceda503	0.029009348
87	0xbb69af8b	-0.003565761
88	0x3b027e69	0.0019911772
89	0x3c2bc944	0.010484997
90	0x3da16a5d	0.07881615
91	0x3c1c45b8	0.009538107
92	0xbd5a6d82	-0.05332709
93	0xbcac3af9	-0.021024214
94	0x3d4474d0	0.047962964
95	0x3d060e0c	0.03272824
96	0x3bedfa0e	0.007262475
97	0xbbacad93	-0.005269715
98	0xbd359f14	-0.04434116
99	0xbcf07ab2	-0.02935538
100	0xbd39b4ac	-0.045338318
101	0x3c4f925f	0.012669175
102	0x3cb8b478	0.022546992
103	0x3d7f69e2	0.062356837
104	0xbc60997c	-0.0137084685
105	0xbc139583	-0.009007814
106	0x3d290052	0.04126007
107	0x3cb05b3b	0.021527877
108	0x3bcbd970	0.006220989
109	0x3cb82259	0.022477316
110	0x3b971cf1	0.0046116044
111	0xbd8ebcc9	-0.06969602
112	0xbc412e6e	-0.011790855
113	0xbcf4752c	-0.029841028
114	0x3d76017f	0.06006002
115	0x3d8f3acf	0.06993639
116	0x3c6103cd	0.013733816
117	0x3d97a70c	0.074049085
118	0xbd28eef2	-0.0412435
119	0x3d7c5e19	0.061613176
120	0x3d90f0f5	0.07077209
121	0xbc5d12b1	-0.013493226
122	0xbd9b1812	-0.075729504
123	0xbd12cfcc	-0.0358427
124	0xbd01d121	-0.03169358
125	0xbc0b7646	-0.008512085
126	0xbdad278a	-0.08454807
127	0x3c7a41f8	0.015274517
128	0xbd358045	-0.04431178
129	0xbcf90654	-0.030398525
130	0xbd53453a	-0.05157969
131	0xbcdb2c38	-0.026754484
132	0xbdb064ac	-0.08612952
133	0xbd57a674	-0.052648976
134	0x3c0129ba	0.007883484
135	0x3d37da1c	0.04488574
136	0x3d8813eb	0.06644424
137	0xbd9018ca	-0.07035978
138	0x3ce952a1	0.028481783
139	0xbd596ff7	-0.053085294
140	0xbd7db8fe	-0.061944
141	0xbb2e23aa	-0.002657155
142	0xbd658a5b	-0.05604015
143	0xbda18955	-0.07887522
144	0xbdacd1fb	-0.08438488
145	0xbd79789d	-0.06090604
146	0x3d7e0b6d	0.062022615
147	0x3d4c7316	0.049914442
148	0xbce0e516	-0.027452987
149	0xbd4c1a30	-0.04982966
150	0xbd6fb6f4	-0.058524087
151	0xbd34e7c1	-0.04416633
152	0xbce956ee	-0.028483834
153	0x3d5fd41a	0.054645635
154	0x3cfdecc4	0.030996688
155	0xbcda87db	-0.026676109
156	0x3d7ba7ad	0.061439205
157	0xbd3f13a1	-0.04664958
158	0xbd80b50c	-0.06284532
159	0x3cbca908	0.02302982
160	0xbd27bf69	-0.040954027
161	0x3ce2c2e2	0.027680818
162	0x3d99af21	0.07504106
163	0xbd0c6d18	-0.034283727
164	0xbd58fe69	-0.052977
165	0x3d112f6a	0.03544561
166	0xbd8ec3c3	-0.06970932
167	0x3d9eace1	0.07747818
168	0xbd0c8585	-0.03430702
169	0x3d37f744	0.044913545
170	0xbd788415	-0.06067284
171	0xbd4ec500	-0.050480843
172	0x3c5622f5	0.013069858
173	0x3d09a2e2	0.033602603
174	0x3d8acf41	0.06777812
175	0x3d970334	0.07373658
176	0x39dd2828	0.00042182324
177	0xbbcb02ff	-0.0061954255
178	0x3c9c396c	0.01907035
179	0xbc7779b1	-0.015104697
180	0x3beaebea	0.0071692364
181	0xbd98874a	-0.07447679
182	0xbd8119c7	-0.06303745
183	0x3d7ae252	0.061250992
184	0xbd32d184	-0.04365684
185	0x3d8e9969	0.069628544
186	0x3c4da5c4	0.012551729
187	0x3cbcdb74	0.023053862
188	0x3da0365c	0.07822868
189	0xbd2acc9b	-0.041699033
190	0xbc14161e	-0.009038476
191	0x3c95e01e	0.018295344
192	0x3d00d3d0	0.031452
193	0xbd9d2c36	-0.07674448
194	0x3d03be87	0.032164123
195	0xbd3af781	-0.045646194
196	0x3c7ad564	0.015309665
197	0x3d7bd1d0	0.06147939
198	0xbac9dc88	-0.0015400806
199	0x3b6497d9	0.0034880547
200	0x3acc3906	0.0015580959
201	0x3d9be496	0.07611959
202	0x3d506785	0.050879974
203	0x3c863b79	0.01638578
204	0xbd34e137	-0.044160094
205	0xbd2c1d1e	-0.042019956
206	0x3d8cdf15	0.06878487
207	0x3d817ecc	0.06323013
208	0x3d5414fc	0.051777825
209	0xbd7aa5c1	-0.06119323
210	0x3d8f9a55	0.070118584
211	0xbab22288	-0.0013590613
212	0x3d8a7601	0.06760789
213	0x3da40fde	0.08010839
214	0x3c94a7dd	0.01814645
215	0xbcc1ac35	-0.023641685
216	0x3dad2106	0.08453564
217	0xbd1b0c28	-0.03785339
218	0x3d7b0f8a	0.061294116
219	0xbd901002	-0.07034303
220	0xbcb49bac	-0.022046886
221	0xbd870b80	-0.0659399
222	0xbd01739d	-0.031604398
223	0x3d2866e6	0.041113757
224	0xbd53c1ef	-0.05169862
225	0xbd7e5028	-0.06208816
226	0x3d8c6ff7	0.06857293
227	0x3d4ca27d	0.04995965
228	0x3c1646d2	0.009172158
229	0xbd505ae0	-0.050867915
230	0xbc7ecd5e	-0.015551893
231	0xbcbf1586	-0.023325693
232	0x3d72392c	0.059136555
233	0xbc8ec42b	-0.017427525
234	0xbc681f67	-0.014167643
235	0xbd447ae8	-0.047968775
236	0xbcfc86f5	-0.030826071
237	0x3d4d0c7d	0.050060738
238	0x3d731ee6	0.05935564
239	0x3ca1aa64	0.019734569
240	0xbcb8657c	-0.022509329
241	0x3db4b872	0.08824243
242	0x3cd5375e	0.026027378
243	0xbcd84640	-0.026400685
244	0xbccf4cff	-0.02530527
245	0x3c216dcb	0.009852837
246	0x3d7c3f2a	0.061583675
247	0x3d4b12b9	0.049578402
248	0x3da3df90	0.080016255
249	0x3c8c9a82	0.017163519
250	0x3db592f5	0.088659205
251	0xbc5976e6	-0.0132729765
252	0xbc8c47af	-0.017124025
253	0xbbf6880e	-0.007523543
254	0xbd6e25fd	-0.058141697
255	0xbd0c7b1b	-0.03429709

bias f4 [16]
0	0xbad41270	-0.0016179811
1	0x3da25644	0.0792661
2	0xbd1b13d8	-0.03786072
3	0x3c8c4777	0.01712392
4	0xbd66f126	-0.05638232
5	0xbc8d22c3	-0.01722849
6	0x3c0bfb46	0.008543795
7	0xbd64943a	-0.055805422
8	0x3ce3d3d6	0.027810972
9	0xbd7ec3fc	-0.062198624
10	0xbce8036e	-0.028321948
11	0x3d8aaaeb	0.06770881
12	0x3da3d89c	0.08000299
13	0xbb68c34a	-0.0035516792
14	0xbd628ac3	-0.055308115
15	0xbd6bc8ac	-0.057564422

weight f4 [16, 16, 5, 5]
0	0xbd01f1ca	-0.03172473
1	0xbd1d944b	-0.0384715
2	0x3cb9d5eb	0.022685012
3	0xbd441aea	-0.04787723
4	0x3c1de027	0.009635962
5	0xbacc9555	-0.0015608469
6	0xbcb45b4b	-0.022016188
7	0x3cd0be9a	0.02548151
8	0x3c8a0944	0.016850121
9	0xbc8a28a0	-0.016865075
10	0xbd63863a	-0.05554793
11	0xbce9539b	-0.028482249
12	0xbba193a1	-0.004930929
13	0x3cde5dac	0.027144276
14	0xbd1be524	-0.038060322
15	0xbc9385d0	-0.018008143
16	0xbd648a1a	-0.055795766
17	0x3cb6e925	0.022327969
18	0x3d19379b	0.037406545
19	0x3cc80bed	0.02441975
20	0xbd425be6	-0.047450922
21	0x3c9b6b99	0.018972205
22	0xbd04defa	-0.03243921
23	0x3c48daee	0.012259228
24	0x3c00bf71	0.007858143
25	0xbcae926c	-0.021310054
26	0x3d02bb84	0.03191711
27	0x3d1e3633	0.038625907
28	0xbc11e10f	-0.008903756
29	0x3d8e43cb	0.06946524
30	0x3d66e2cc	0.056368634
31	0x3d82ae6f	0.06380927
32	0x3ca84861	0.020542325
33	0xbb79c91e	-0.003811426
34	0xbb898b3a	-0.0041975053
35	0x3d1309da	0.035898067
36	0x3c112a8f	0.008860244
37	0x3d6fc123	0.0585338
38	0x3d7dc7a4	0.06195797
39	0x3cb7be87	0.022429718
40	0xbcababba	-0.020955909
41	0x3d23e18e	0.040010028
42	0x3d87d351	0.06632102
43	0x3c08536e	0.008320672
44	0xbb8af27e	-0.004240333
45	0x3bc17356	0.0059036417
46	0x3cd35a69	0.025799947
47	0xbc9b0142	-0.018921498
48	0x3d425402	0.047443397
49	0x3d2cedf8	0.042219132
50	0xbcb083d1	-0.02154723
51	0xbca9a0eb	-0.020706614
52	0xbcd724c2	-0.026262645
53	0x3d16258e	0.03665691
54	0x3cdd25b3	0.026995515
55	0x3c44829f	0.011994033
56	0xbb94fff8	-0.0045471154
57	0x3c265321	0.010151655
58	0x3d3b253f	0.045689818
59	0x3c5b50f9	0.013386005
60	0xbce07b49	-0.027402537
61	0x3c8c48f5	0.017124632
62	0xbcb7e5a5	-0.02244837
63	0xbb8aad46	-0.0042320816
64	0xbd0ef2a0	-0.034899354
65	0xbba4f4ce	-0.005034066
66	0x39aa1002	0.00032436854
67	0xbd05760b	-0.032583278
68	0x3cf2c543	0.029635077
69	0x3d33c940	0.0438931
70	0xbd34fa70	-0.04418415
71	0x3c4a1a91	0.0123354355
72	0xbd17ea60	-0.03708875
73	0xbc49abe0	-0.012309045
74	0x3cafaa81	0.021443607
75	0x3a0f387d	0.00054634345
76	0x3c897524	0.01677949
77	0xbc6e607e	-0.014549373
78	0x3d4b20ad	0.04959171
79	0xbcb232c6	-0.021752726
80	0x3c2ef666	0.010678863
81	0x3bd5a68c	0.006520098
82	0x3d11a5c2	0.03555847
83	0x3bdc551a	0.006724012
84	0x3d01ecc9	0.031719957
85	0x3c6e8139	0.014557176
86	0x3d09e604	0.033666626
87	0x3b26b393	0.0025436624
88	0x3c995ae9	0.018720107
89	0x3d5226b7	0.051306453
90	0xbc737bc5	-0.014861052
91	0xbc9a0aea	-0.018804032
92	0x3d1b69cb	0.03794269
93	0x3cab0871	0.020878049
94	0xbd3a610a	-0.0455027
95	0x3ca18fc2	0.01972187
96	0xbd408e3e	-0.047010653
97	0xbccc3b27	-0.02493055
98	0x3cb2ba2a	0.021817286
99	0x3cea4cbe	0.028601047
100	0xbc0368ce	-0.008020593
101	0x3d3dc3d6	0.04632934
102	0x3d5b4ba5	0.053538937
103	0x3d31b787	0.043387916
104	0xbd2acad2	-0.04169733
105	0xbc8b6c84	-0.017019518
106	0x3bde3886	0.0067816405
107	0x3d35c018	0.044372648
108	0xbb8b8133	-0.004257345
109	0x3c6d1e4b	0.014472554
110	0x3cf465fe	0.02983379
111	0xbcc5796b	-0.024105748
112	0xbce78d47	-0.028265608
113	0x3d5c99ad	0.053857494
114	0x3b5b3e02	0.0033453708
115	0x3d1e9e9b	0.038725477
116	0xbd3823e7	-0.044956114
117	0xbc8ce086	-0.017196905
118	0x3d204406	0.039127372
119	0xba28643d	-0.0006423628
120	0x3ca9cbab	0.020727
121	0xbd1a4f01	-0.037673
122	0x3d50db10	0.050990164
123	0xbcb8bf65	-0.022552202
124	0x3b071af7	0.0020615438
125	0xbcbec5c6	-0.023287665
126	0xbc700ff2	-0.014652239
127	0xbd048806	-0.032356285
128	0xbd1420be	-0.036164038
129	0xba7775ef	-0.0009439876
130	0xbc80b0ce	-0.015709307
131	0x3d3dd32a	0.04634396
132	0x3c00d5fa	0.007863516
133	0x3d4168a0	0.04721892
134	0x38839c40	6.2756706e-05
135	0x3ca8cfb6	0.020606857
136	0x3d6e745d	0.05821644
137	0xbce270ca	-0.027641673
138	0xbc2ff2d0	-0.010739043
139	0x3d5656ca	0.052328862
140	0xbb104b73	-0.0022017627
141	0xbb69a118	-0.0035648998
142	0x3c690164	0.014221523
143	0xbc958dc4	-0.018256076
144	0x3c6c54b2	0.01442449
145	0xbc2e110f	-0.010624184
146	0x3cd62859	0.026142286
147	0x3a03d4d5	0.0005028968
148	0xbc059fa5	-0.008155738
149	0xbc19cf55	-0.009387811
150	0x3c9b06cd	0.018924141
151	0x3ceb0285	0.028687725
152	0xbd20dba1	-0.039271954
153	0xbce3acba	-0.027792323
154	0xbd25895d	-0.040414203
155	0x3ce9f0ab	0.028557142
156	0x3d2f6840	0.04282403
157	0xbd21f8ac	-0.039543793
158	0x3cb1f3eb	0.021722754
159	0x3c970fba	0.018440116
160	0xbcae66e8	-0.021289304
161	0x3c678517	0.014130852
162	0x3d430376	0.047610722
163	0x3d67f498	0.056629747
164	0x3cf69cce	0.030104067
165	0xbba4b50a	-0.0050264644
166	0xbcb94869	-0.022617536
167	0xbc281435	-0.010258724
168	0x3c1c0310	0.0095222145
169	0x3b934058	0.0044937544
170	0x3d28cef9	0.04121301
171	0xbd26e780	-0.04074812
172	0x3c50c25e	0.012741653
173	0xbc172c7a	-0.009226913
174	0x3c3d8b43	0.011568847
175	0x3d65a715	0.056067545
176	0x3c399c12	0.011328714
177	0x3b21ad1a	0.0024669827
178	0xbbcde018	-0.0062828176
179	0xbd24540d	-0.04011922
180	0xbd086cc9	-0.03330687
181	0x3d07590f	0.033043917
182	0xbc8cc713	-0.01718477
183	0x3d30b3fe	0.043140404
184	0xba478df5	-0.0007612401
185	0x3cda1f93	0.026626384
186	0x3d39761d	0.045278657
187	0x3c7f0872	0.015565978
188	0x3ce49118	0.027901217
189	0x3d53e0a4	0.051727906
190	0xbb929f7c	-0.0044745784
191	0x3d47d537	0.048787322
192	0xbcf5f59b	-0.03002434
193	0x3d6bfc43	0.057613622
194	0xbb8545d8	-0.004067164
195	0x3bcb59ae	0.006205759
196	0x3d14c29d	0.03631841
197	0x3c4fdf15	0.012687464
198	0x3d65a80c	0.056068465
199	0xbc2534bc	-0.010083374
200	0xbc802769	-0.015643792
201	0x3d6a8ea5	0.057264943
202	0xbc946192	-0.018112931
203	0x3d43b4cb	0.04777984
204	0x3d766722	0.06015695
205	0x3d39721c	0.04527484
206	0xbbd9748a	-0.006636207
207	0x3c3d697a	0.011560792
208	0xbd03dc72	-0.032192655
209	0xbc68bf6b	-0.014205794
210	0x3a092e0e	0.0005232998
211	0xbca8623f	-0.02055466
212	0x3d27441c	0.04083644
213	0x3d2077b0	0.039176643
214	0xbacec2c2	-0.0015774595
215	0x3b6c48a2	0.0036054035
216	0x3d76986d	0.06020396
217	0x3c1245d5	0.008927782
218	0x3d61e967	0.05515423
219	0x3d69df7d	0.0570979
220	0xbbef42cc	-0.007301664
221	0xbd128c5f	-0.0357784
222	0x3d6cc13f	0.05780148
223	0xbc672d8b	-0.014109979
224	0x3d753180	0.05986166
225	0xbcf620e0	-0.030044973
226	0x3bd63aff	0.0065377946
227	0x3c6c593e	0.014425574
228	0xbc8325bf	-0.01600921
229	0x3d16cf28	0.036818653
230	0xbd271b41	-0.040797476
231	0xbc9da073	-0.019241547
232	0xbbd371eb	-0.006452789
233	0x3d174e26	0.036939763
234	0x3cb5ce84	0.0221932
235	0x3d229c35	0.039699752
236	0x3cc8d75e	0.024516758
237	0x3d46eac8	0.04856375
238	0xbc5fbddb	-0.013656105
239	0xbc6efec6	-0.01458711
240	0xb9916229	-0.0002772969
241	0x3ccde6e3	0.02513451
242	0xbc2a471a	-0.0103929285
243	0x3c96189c	0.018322282
244	0x3c8df7fd	0.017330164
245	0x3ca502b0	0.020142883
246	0x3d4014c8	0.04689482
247	0x3c8a2a7b	0.01686596
248	0x3d084ae9	0.033274565
249	0xbc03155f	-0.008000701
250	0xbd1b3649	-0.037893567
251	0x3d1e3126	0.03862109
252	0x3cd9ed11	0.0266023
253	0x3d479f1e	0.04873573
254	0x3ccfa925	0.02534921
255	0x3c083335	0.00831299

bias f4 [16]
0	0x3d036c58	0.032085747
1	0x3d161016	0.036636434
2	0xbd0aae9a	-0.03385792
3	0xbc7438b1	-0.014906094
4	0x3b8f6b2a	0.0043767886
5	0x37bd206c	2.2545653e-05
6	0xbd058d24	-0.032605305
7	0x3d241225	0.040056366
8	0xbcf96d6f	-0.03044769
9	0x3d1a688e	0.037697367
10	0xbcdc483d	-0.026889915
11	0xbd7c709f	-0.06163084
12	0x3c689095	0.014194627
13	0xbca37b92	-0.019956384
14	0x3d0465b3	0.03232355
15	0xbcd95679	-0.026530491

weight f4 [16, 16, 5, 5]
0	0x3bf0be4e	0.007346905
1	0x3d25a063	0.04043616
2	0xbce8d88b	-0.028423568
3	0xbc828c9d	-0.01593619
4	0x3d1f62c6	0.038912557
5	0x3d37c18b	0.04486231
6	0x3c4516b4	0.012029339
7	0x3d2ee2dc	0.04269682
8	0x3d10be4d	0.035337735
9	0x3d0a3b56	0.033747993
10	0x3a5993a4	0.0008299893
11	0x3d536d5a	0.051617958
12	0xbc3db231	-0.011578129
13	0x3c0e650f	0.008691086
14	0xbc17a9d3	-0.009256798
15	0xba4b1d8f	-0.000774824
16	0x3d090e58	0.033460945
17	0x3d2c916b	0.04213087
18	0x3c4bfd9b	0.012450601
19	0x3d1ea39c	0.03873025
20	0x3d1c5191	0.038163725
21	0x3ce454b4	0.02787242
22	0xbc19c7b2	-0.00938599
23	0x3d0c824e	0.034303956
24	0x3d434f19	0.047682855
25	0x3d335c1c	0.043789014
26	0x3c812208	0.015763298
27	0x3d24f8c2	0.040276296
28	0xbcfa5490	-0.0305579
29	0x3c61aa5a	0.013773525
30	0xbd2927c7	-0.0412977
31	0x3ceaa596	0.02864341
32	0x3bc12df3	0.00589537
33	0xbbac31a8	-0.005254943
34	0x3d1660ba	0.03671334
35	0xbbda34e3	-0.0066591366
36	0x3cb655dc	0.022257738
37	0x3cfaf42a	0.030634005
38	0xbca63eee	-0.02029368
39	0xbd1c6355	-0.038180668
40	0x3be054aa	0.0068460302
41	0xbcdfd15f	-0.027321516
42	0xbcc979f4	-0.024594285
43	0x3ce60072	0.028076384
44	0x3c8b7c9f	0.017027197
45	0xbc00bc5d	-0.007857409
46	0xbc715ae8	-0.014731146
47	0xbd07c1bd	-0.033143748
48	0xbc8ac7e6	-0.016941022
49	0x3c05ca2c	0.008165877
50	0xbcd47cd7	-0.025938435
51	0xbd2a3a61	-0.04155958
52	0xbd33bc5c	-0.043880805
53	0xbd2c1ff6	-0.042022668
54	0xbc8df339	-0.017327892
55	0x3c8a3919	0.01687293
56	0xbc9b5fe0	-0.018966615
57	0x3d1a9210	0.037736952
58	0x3d068915	0.032845575
59	0xbd073b34	-0.033015445
60	0x3c816a10	0.015797645
61	0xbc9064ba	-0.017626155
62	0x3d3cef73	0.046126794
63	0x3d31cc42	0.043407686
64	0x3cef1f60	0.029189765
65	0xbcb0d316	-0.021585029
66	0x3c199f80	0.009376407
67	0xbcdc1821	-0.026866974
68	0x3c5441a4	0.012955103
69	0x3d63dd45	0.05563094
70	0xbbfa0ea4	-0.00763114
71	0xbcc969a1	-0.0245865
72	0xbcac872a	-0.021060545
73	0xbcd269b7	-0.025685174
74	0x3d007ede	0.03137099
75	0xbd11b90a	-0.035576858
76	0x3ccea67f	0.025225876
77	0x3ca80349	0.020509379
78	0x3c9d670b	0.019214174
79	0xbc47ce38	-0.0121951625
80	0xbc87e1d0	-0.016587168
81	0x3c3f8c12	0.01169111
82	0xbc80ea57	-0.015736742
83	0x3c1c3a2c	0.009535354
84	0x3ac5a833	0.0015080034
85	0x3c3f1c53	0.011664468
86	0xbce52d31	-0.02797565
87	0x3cbb72f3	0.02288196
88	0xbc98507c	-0.018593065
89	0x3c9f9e8b	0.019484779
90	0xbc29fac9	-0.010374733
91	0xbd692b1b	-0.056925874
92	0xbc3a062d	-0.0113540115
93	0xbcbba252	-0.022904549
94	0xbd03afdc	-0.032150134
95	0xbc18fd13	-0.009337681
96	0xbcd99ab0	-0.026563019
97	0xbb6a7af8	-0.0035778861
98	0xbcae0ff1	-0.021247836
99	0xbd1a3e8b	-0.037657302
100	0x3ca49d3d	0.020094508
101	0xbd1f66ff	-0.038916584
102	0xbd14a755	-0.036292393
103	0xbba2b8d1	-0.0049658795
104	0xbaa04a3c	-0.0012229155
105	0xbd3865d9	-0.045019004
106	0x3ce0bb8f	0.027433185
107	0x3bd80952	0.006592908
108	0x3cc5e8c0	0.024158835
109	0x3b420b66	0.0029608845
110	0xbc156d04	-0.00912023
111	0xbc7ec020	-0.015548736
112	0xbafc884f	-0.0019266697
113	0xbd13bc71	-0.036068384
114	0x3cd25c8f	0.025678901
115	0x3c846caf	0.016165106
116	0x3d1b5359	0.037921283
117	0xbd349cc1	-0.044094805
118	0xbafb1b72	-0.001915796
119	0xbc80ee59	-0.015738653
120	0x3b76af40	0.0037641078
121	0x3c24022a	0.010010282
122	0xbb99f704	-0.004698636
123	0xba3eca72	-0.00072780915
124	0xbb90caf5	-0.0044187256
125	0x3c6c09fe	0.014406679
126	0xbcc5a90a	-0.024128456
127	0xbaa8376e	-0.0012833902
128	0x3cfa1dcf	0.030531792
129	0x3d25b143	0.040452253
130	0x3c0148d4	0.007890899
131	0xbb20ac7d	-0.0024516874
132	0x3c4ff0aa	0.012691656
133	0x3cebca9d	0.028783137
134	0x3c843091	0.01613644
135	0xbce8c4e1	-0.028414192
136	0xbd1539e1	-0.03643215
137	0x3ce07cbb	0.027403226
138	0xbc82e2b9	-0.01597725
139	0x3cd142f3	0.02554462
140	0xbd253f12	-0.04034335
141	0x3cfa8030	0.030578703
142	0x3cce1f61	0.025161447
143	0xbb95204f	-0.0045509706
144	0xbd01fc5f	-0.03173482
145	0xbb2628d6	-0.002535393
146	0x3d027022	0.03184522
147	0x3d2bbc85	0.041927833
148	0x3ab0a245	0.0013476094
149	0x3aedd704	0.0018145745
150	0x3d31b157	0.043382015
151	0x3c39c612	0.011338728
152	0x3d4e4386	0.050357364
153	0x3d4822ba	0.048861243
154	0xbce1701f	-0.027519284
155	0xbd0664a3	-0.03281082
156	0xbc733b78	-0.014845721
157	0xbb87df67	-0.0041465047
158	0x3d4a818d	0.049439956
159	0xbd057706	-0.032584213
160	0x3cbd047e	0.023073431
161	0x3d27743d	0.040882338
162	0x3bdb2b8b	0.0066885403
163	0xbd19cde9	-0.037549887
164	0xbd049c67	-0.03237572
165	0x3c073971	0.008253441
166	0x3c8c5f56	0.017135303
167	0x3c782b4b	0.015147041
168	0x3d10d948	0.035363466
169	0x3d125d8d	0.03573375
170	0xbd27df46	-0.040984415
171	0x3cd9da90	0.026593477
172	0x3d0c9b54	0.03432782
173	0xbcae187c	-0.02125191
174	0xbcd930a0	-0.026512444
175	0xbd396870	-0.045265615
176	0xbd48ace2	-0.048993
177	0x3ccfdf85	0.025375137
178	0x3c6638c4	0.01405162
179	0xbccd4f1b	-0.025062134
180	0xbd3700e9	-0.044678602
181	0xbd4531bb	-0.04814313
182	0x3d3c4a30	0.04596919
183	0x3c837ec6	0.016051661
184	0x3c26308e	0.010143412
185	0xbbb66b30	-0.005566977
186	0x3c9b744e	0.018976357
187	0x3b8dfa39	0.0043328074
188	0x3cba6bae	0.022756424
189	0x3c6f6679	0.014611834
190	0xbccf8402	-0.0253315
191	0xbcbc1f45	-0.02296413
192	0x3c6472b1	0.01394336
193	0x3c63e900	0.013910532
194	0x3d18219a	0.03714142
195	0xbd1412a1	-0.03615058
196	0x3ccc917e	0.02497172
197	0xbd38654f	-0.04501849
198	0x3baca3d4	0.0052685533
199	0xbd2631c2	-0.040574796
200	0xbcbb2388	-0.022844091
201	0xbcd9185d	-0.026500875
202	0x3d41540e	0.0471993
203	0x3d434147	0.047669675
204	0xbc97e6db	-0.018542698
205	0xb98afcc0	-0.00026509725
206	0xbd2349a1	-0.03986514
207	0xbd1d727c	-0.03843926
208	0xbcb52e81	-0.022116901
209	0x3c0e51a9	0.0086864615
210	0xbd3021b1	-0.04300088
211	0xbc07b307	-0.00828243
212	0x3c1a6052	0.009422379
213	0x3b76853e	0.003761604
214	0x3b18604c	0.0023250757
215	0x3c1a9a3e	0.009436188
216	0x3d4c3389	0.049853835
217	0xbd241a4f	-0.040064152
218	0xbd06a94b	-0.032876294
219	0x3cf660f6	0.030075531
220	0x3c91804c	0.017761372
221	0x3d386393	0.045016836
222	0x3d2e84cf	0.042607125
223	0xbd0a8687	-0.0338197
224	0xbbf2a97a	-0.007405457
225	0xbd229715	-0.039694864
226	0x3ce640a0	0.028106987
227	0x3d1a36e5	0.037650008
228	0xbceb3d82	-0.028715853
229	0xbc920c46	-0.017828118
230	0x3d055f67	0.032561686
231	0x3cad6a40	0.021168828
232	0xbcb9f262	-0.022698585
233	0x3c199a77	0.009375206
234	0xbcaba5d9	-0.020953106
235	0x3cdf3b55	0.027249971
236	0x3c884543	0.016634589
237	0x3cb56b44	0.022145875
238	0x3bf2bbdf	0.00740765
239	0x3c67b57a	0.0141423885
240	0xbcea798e	-0.028622415
241	0x3d657a55	0.056024868
242	0x3c088d7c	0.008334514
243	0x3c522201	0.01282549
244	0x3c887655	0.016657988
245	0xbd1cc193	-0.038270544
246	0x3ca75836	0.020427804
247	0x3d50bee6	0.050963305
248	0x3d2237c9	0.039603982
249	0x3c920124	0.01782281
250	0x3c8953ac	0.01676353
251	0x3c4488dd	0.011995521
252	0x3b869f4b	0.0041083447
253	0x3cd9cd31	0.0265871
254	0x3cbca94c	0.023029946
255	0x3ca5442a	0.020174105

bias f4 [16]
0	0xbd2f998f	-0.042871054
1	0xbcdf8afa	-0.027287949
2	0xbd0b28e8	-0.033974558
3	0x3bf91862	0.0076017836
4	0x3d1cd4ba	0.03828881
5	0x3d1d1f11	0.038359705
6	0xbd06a9c7	-0.032876756
7	0x3d07ecbd	0.033184756
8	0x3d491fb3	0.049102496
9	0xbbfd7382	-0.007734717
10	0xbc7b5047	-0.015338964
11	0xbd43e842	-0.04782892
12	0x3ab53467	0.0013824821
13	0xbc678d8b	-0.014132868
14	0x3c8de956	0.017323177
15	0xbd2504c5	-0.04028775

weight f4 [16, 16, 7, 7]
0	0xbb8a6558	-0.004223507
1	0x3b914bdb	0.0044340915
2	0xbc2a724d	-0.010403228
3	0xbbd0d827	-0.0063734236
4	0x3d096665	0.033544917
5	0x3c7f700f	0.015590682
6	0xbcc8860f	-0.024477987
7	0xbc95cee8	-0.018287137
8	0x3c82c9e8	0.015965417
9	0x3c82ab20	0.01595074
10	0xbcf2fe48	-0.029662266
11	0xbcc57caf	-0.024107305
12	0xbc4dfa75	-0.012571921
13	0xba9fd8d0	-0.0012195352
14	0x38a69115	7.9425205e-05
15	0x3c130ae8	0.008974768
16	0xbc815fd2	-0.015792761
17	0xbca5709f	-0.020195303
18	0x3cb50c2d	0.022100532
19	0xbcccf024	-0.025016852
20	0xbb305f7b	-0.002691238
21	0xbd09902b	-0.033584755
22	0xbce6dc82	-0.028181318
23	0x3c4f3c2a	0.012648622
24	0xb9a3eac4	-0.00031264697
25	0x3cff5882	0.031170134
26	0x3d1dd8ea	0.038536943
27	0xbcd1cc59	-0.025610136
28	0xbca24156	-0.019806545
29	0x3bf67340	0.007521063
30	0xbb9e73e3	-0.004835592
31	0xbcf94094	-0.030426301
32	0xbc980f74	-0.018562056
33	0xbc8fd804	-0.017559059
34	0x3bb445d7	0.0055014896
35	0x3c891430	0.016733259
36	0x3cb1ce08	0.021704689
37	0x3cfc1845	0.030773291
38	0xbc9395fd	-0.018015856
39	0x3ce893e9	0.028390842
40	0xbc9d29f5	-0.019185046
41	0xbceefce6	-0.029173326
42	0xbc5e386a	-0.013563255
43	0x3c8c0c4b	0.017095705
44	0x3bd174b8	0.006392088
45	0xbcf8207c	-0.030288927
46	0x3c420109	0.011841067
47	0x3a7469ff	0.0009323656
48	0x3cdf53c0	0.027261615
49	0xbcba3762	-0.022731487
50	0xbd030e77	-0.031996217
51	0xbb9d6b12	-0.0048040235
52	0xbc8937a4	-0.016750164
53	0xbc047257	-0.008083901
54	0xbc32e79b	-0.010919477
55	0x3d0cb971	0.03435654
56	0xbbeaa296	-0.007160495
57	0xbd1706e2	-0.0368718
58	0xbcbe4e17	-0.023230596
59	0xbb549e9b	-0.003244317
60	0x3c976abb	0.01848351
61	0x3bfbbe81	0.007682622
62	0xbd10bf61	-0.035338763
63	0x3b358f50	0.002770383
64	0x3cbe3be1	0.023221912
65	0xbc5f5cde	-0.013632981
66	0x3c729dde	0.014808146
67	0x3cea2081	0.028579952
68	0x3cf2c78d	0.029636169
69	0x3bd268f8	0.0064212047
70	0xbd14fd3b	-0.036374312
71	0xbd05b29e	-0.032641046
72	0x3cc82dec	0.02443596
73	0xbc5288f9	-0.01285004
74	0x3cf6ca3d	0.030125732
75	0x3cbf2c03	0.023336416
76	0xbcfbd5af	-0.03074154
77	0x3c7056ca	0.01466913
78	0xbcff32cc	-0.031152152
79	0xbcdec421	-0.02719313
80	0x3cc6e3bf	0.02427852
81	0x3d039702	0.032126434
82	0x3c94f62f	0.018183796
83	0x3c940e33	0.018073177
84	0x3b4e7bfe	0.003150701
85	0x3cb57581	0.022150757
86	0xbd0c36b6	-0.034231864
87	0x3c8b1ee3	0.016982501
88	0x3b8f2951	0.004368939
89	0xbc1f0ada	-0.009707177
90	0xbc9edd8c	-0.019392751
91	0x3c5276b0	0.01284568
92	0xbc073778	-0.008252971
93	0x3b68481c	0.003544337
94	0xbbf3c18f	-0.0074388455
95	0xba3cd0fa	-0.0007202771
96	0xbc42f5aa	-0.011899391
97	0xbd062410	-0.032749236
98	0x3bd8dbb3	0.006617987
99	0xbbbd5224	-0.005777614
100	0xbc289b2c	-0.010290902
101	0x3cc71570	0.024302214
102	0xbc45e879	-0.012079352
103	0x3abef7e4	0.0014569727
104	0xbcce37b9	-0.025173055
105	0xbc7228bf	-0.014780222
106	0x3cdfa934	0.027302362
107	0x3b8639a4	0.0040962268
108	0x3cbacc60	0.022802532
109	0x3d168d29	0.036755715
110	0x3c909bf8	0.017652497
111	0x3d125b39	0.035731528
112	0x3bc7923b	0.00609043
113	0x3cbf642c	0.023363195
114	0xbceca5fd	-0.028887743
115	0x3cf87186	0.03032757
116	0x3ca114dc	0.019663267
117	0x3c79686c	0.01522265
118	0xbcd415bd	-0.025889272
119	0x3ca4ee40	0.020133138
120	0x3caca4a2	0.021074597
121	0xbcb12488	-0.021623865
122	0x3d106003	0.035247814
123	0x3d22095b	0.039559703
124	0x3bc3e126	0.0059777675
125	0xbad1289b	-0.0015957536
126	0xba536c7c	-0.00080651767
127	0xbcdd511e	-0.027016219
128	0xbcdd9768	-0.027049735
129	0xb8e35fe0	-0.000108420616
130	0xbbd5a21d	-0.0065195695
131	0x3d21822e	0.03943079
132	0x3cf0b2f9	0.029382216
133	0xbbfef112	-0.0077802027
134	0xbcfda0f0	-0.03096053
135	0x3c9efe84	0.019408472
136	0x3a92b49c	0.0011192742
137	0xbc2980fd	-0.010345695
138	0x3d2ba073	0.041901063
139	0x3cf6c23e	0.030121919
140	0xbc16c2fc	-0.009201761
141	0x3d05df52	0.032683678
142	0xbccdeb03	-0.025136476
143	0xbccf799e	-0.025326546
144	0x3ca0eddd	0.019644672
145	0x3cd9fcad	0.026609743
146	0x3a8ee3bc	0.001090161
147	0xbc44dad2	-0.012015061
148	0xbd210efe	-0.03932094
149	0x3bfc8c51	0.0077071567
150	0xbb98a4ef	-0.0046583335
151	0xbcef7233	-0.02922926
152	0xbcf30438	-0.029665098
153	0x3c94c96b	0.01816245
154	0xbd1030d5	-0.03520282
155	0x3b5f0b61	0.0034033882
156	0x3ce5706d	0.02800771
157	0xbc72321c	-0.014782455
158	0x3c88360d	0.016627336
159	0x3c4cb902	0.012495281
160	0xbc36a87c	-0.011148568
161	0xbcdcff8d	-0.026977325
162	0xbccf311c	-0.025291972
163	0xbd218b74	-0.039439633
164	0x3a680664	0.000885105
165	0x3b9449f6	0.0045254184
166	0xbc532472	-0.012887107
167	0x3c804751	0.015659006
168	0xbbe10af9	-0.006867763
169	0x3bf36bdc	0.0074286293
170	0x3cfd4736	0.030917745
171	0x3cf02e02	0.029318813
172	0x3ccae0f9	0.024765478
173	0xbc99baea	-0.018765885
174	0xbb62e858	-0.003462335
175	0xbc7ded12	-0.0154984165
176	0x3bd550e5	0.0065098875
177	0x3c8ee92b	0.017445168
178	0x3b0c8c8c	0.0021446077
179	0xbc7fe745	-0.015619104
180	0x3ac39d69	0.0014924231
181	0xbd00c01f	-0.03143322
182	0xbd11c5af	-0.035588916
183	0xbc1daf8a	-0.009624371
184	0xbbca329b	-0.0061705834
185	0xbc2d2c3b	-0.010569627
186	0x3c50e5fa	0.012750143
187	0x3bf2f80c	0.0074148234
188	0x3b84d5de	0.0040538153
189	0x3bb260f8	0.0054436885
190	0xbbab67eb	-0.005230894
191	0x3b7a8354	0.003822525
192	0xbcdf4279	-0.027253376
193	0xbcd43bac	-0.02590736
194	0x3ac019e9	0.0014656159
195	0x3c9f7886	0.01946665
196	0xbb54f2a9	-0.003249327
197	0x3ce57d1e	0.028013762
198	0x3cede060	0.029037654
199	0xbd12f7cc	-0.03588085
200	0xbc8a9ded	-0.016921008
201	0x3c0124eb	0.007882337
202	0xbbd517bc	-0.0065030735
203	0x3c460d77	0.012088171
204	0xbc9f67d8	-0.019458696
205	0x3ca12cf9	0.019674765
206	0xbcb84b96	-0.02249698
207	0x3b3b6e53	0.0028599694
208	0xbce6e710	-0.028186351
209	0xbc559af3	-0.013037431
210	0x3ca35fea	0.019943196
211	0x3c60caf4	0.013720263
212	0xbceadd4b	-0.028669974
213	0x3c8a54e7	0.016886188
214	0xbc16d32e	-0.009205623
215	0xbcdb0f81	-0.026740791
216	0x3d0558fb	0.03255556
217	0x3c06a698	0.00821843
218	0xbb016ceb	-0.0019748758
219	0x3be642a8	0.007026989
220	0x3c8482ef	0.016175715
221	0xbd1868d8	-0.03720936
222	0x3caac473	0.020845627
223	0x3cd07491	0.025446208
224	0xba903415	-0.001100185
225	0xbc84ca53	-0.016209757
226	0xba28085d	-0.00064099376
227	0x3aac0d44	0.0013126512
228	0x3b0a78e9	0.0021129197
229	0xbcafec9c	-0.021475129
230	0x3cb4e89a	0.02208357
231	0xbb91e559	-0.004452389
232	0xbb952f75	-0.0045527765
233	0xbc9d2b77	-0.019185765
234	0x3cf47065	0.02983875
235	0xbccd9efb	-0.025100222
236	0xbc3b84ee	-0.011445267
237	0xbcc5a45f	-0.02412623
238	0x3caae5a1	0.020861449
239	0xbc725768	-0.014791347
240	0xb9580406	-0.00020600864
241	0xbc0f6598	-0.008752249
242	0x3cdaa12a	0.026688177
243	0xbcf491ef	-0.029854743
244	0xbc925cb6	-0.017866474
245	0xbcdd5e19	-0.027022408
246	0x3a8541f8	0.0010166755
247	0xbcac6a64	-0.021046825
248	0xbb06c997	-0.0020566934
249	0x3c948c81	0.018133404
250	0x3c259392	0.010105984
251	0x3c255090	0.010090008
252	0xba91b6cf	-0.0011117103
253	0xbc8bc65e	-0.017062362
254	0x3b738297	0.0037156695
255	0x3d0e5df9	0.034757588

bias f4 [16]
0	0xbcd5c1ce	-0.02609339
1	0x3d0f25b5	0.03494807
2	0x3c6bf236	0.014401009
3	0xbb6a6a92	-0.0035769087
4	0xbca4bfe3	-0.02011103
5	0xbbe8313c	-0.0070859473
6	0x3d1516ac	0.036398575
7	0x3c66ffb6	0.014099052
8	0xbcd65999	-0.02616577
9	0x3c967b2d	0.018369282
10	0xbd225dd1	-0.03964025
11	0x3cb8c9e7	0.022557212
12	0xbca37be7	-0.019956542
13	0xbd012208	-0.031526595
14	0x3be788f9	0.007065889
15	0xbd02f095	-0.03196772

weight f4 [16, 16, 7, 7]
0	0xbca2a51e	-0.019854125
1	0xbd03d69d	-0.032187093
2	0xbd100df1	-0.035169546
3	0x3c5a4da6	0.013324177
4	0x3c94382c	0.018093191
5	0x3ccd30df	0.025047718
6	0xbcd540aa	-0.02603181
7	0xbc8f2736	-0.017474752
8	0xbd17568c	-0.036947772
9	0xbd199634	-0.03749676
10	0xbc99044f	-0.018678812
11	0x3bc59833	0.0060301065
12	0x3cd85c96	0.026411336
13	0x3c2367fa	0.00997352
14	0xbd11ffc2	-0.0356443
15	0x3cd9e9d1	0.02660075
16	0x3cdaca71	0.02670786
17	0x3cdef1e0	0.027214944
18	0xbd1bd356	-0.038043343
19	0xbcc1e584	-0.023669012
20	0xbc8b705f	-0.017021356
21	0x3cf98a71	0.030461522
22	0x3ce35320	0.027749598
23	0xbb4d0439	-0.0031283034
24	0x3cbcb580	0.023035765
25	0xb939b327	-0.00017709714
26	0xbc8889f5	-0.016667346
27	0x3c1f2de2	0.009715529
28	0xbca04d18	-0.019568011
29	0x3c1069f3	0.008814323
30	0x3c2bf232	0.010494756
31	0x3cd963ff	0.02653694
32	0xbd2ac9c9	-0.041696344
33	0xbc539787	-0.012914545
34	0xbc10b0fa	-0.008831257
35	0x3c8ec4e5	0.017427871
36	0x3ce2732d	0.02764281
37	0xbb6d603e	-0.0036220695
38	0xb850065e	-4.9596994e-05
39	0xbd21bde0	-0.03948772
40	0x3a64171d	0.0008700954
41	0xbc11db8c	-0.008902442
42	0x3d0e51af	0.03474587
43	0x3779e394	1.4894544e-05
44	0xba1d3aa4	-0.0005997813
45	0xbc819d25	-0.015822003
46	0x3c9ff62d	0.019526565
47	0xbcc49824	-0.023998328
48	0x3cad4716	0.02115206
49	0x3c2a9497	0.010411403
50	0xbca12244	-0.01966966
51	0x3d058f65	0.032607455
52	0x3b9f1bfb	0.0048556305
53	0xbbcbb871	-0.0062170555
54	0x3bc4ff6f	0.0060118954
55	0xbc79df67	-0.015251017
56	0xbc980507	-0.018557085
57	0x3cad87aa	0.021182854
58	0x3cd66d5c	0.026175193
59	0xbcad1215	-0.021126786
60	0x3c002128	0.007820405
61	0xbce2b211	-0.0276728
62	0xbc907337	-0.017633064
63	0xbd0bc1b2	-0.03412027
64	0x3c8c71a9	0.017144041
65	0xbcda8a49	-0.026677268
66	0xbc113b42	-0.008864226
67	0x3c56276b	0.013070921
68	0xbcd49431	-0.02594957
69	0xbcd1f01f	-0.025627194
70	0x3cd49be0	0.025953233
71	0xbbfcf6fb	-0.007719872
72	0xbceed0f2	-0.029152367
73	0xbb481990	-0.0030532815
74	0x3b72727b	0.0036994505
75	0xbc989c3c	-0.018629186
76	0xbc9566a3	-0.018237418
77	0xbc44709f	-0.011989742
78	0x38341188	4.293167e-05
79	0xbc0d3520	-0.008618623
80	0xbcffea9e	-0.031239804
81	0x3cb9ae41	0.022666099
82	0x3c2d7f8e	0.010589493
83	0x3cfc8a60	0.030827701
84	0xbce593c7	-0.028024567
85	0x3be73695	0.007056067
86	0x3cc99e31	0.024611564
87	0xbd0508e7	-0.032479193
88	0x3cbe01e7	0.023194266
89	0xbcd6ec88	-0.026235834
90	0x3cca421a	0.024689723
91	0xb7b288c0	-2.1282933e-05
92	0x3c36e679	0.011163347
93	0xbce29cef	-0.027662722
94	0x3888ed89	6.52923e-05
95	0xbc1b999a	-0.009497071
96	0x3cf7f153	0.03026644
97	0xbc8ae2e6	-0.016953897
98	0x3cf57c44	0.029966481
99	0xbcc1cdf9	-0.023657786
100	0xbbdaca6c	-0.0066769626
101	0xbce6d434	-0.028177358
102	0x3cc207f1	0.023685427
103	0x3ae8c984	0.0017760252
104	0x3cc8e24b	0.024521967
105	0x3c844c4c	0.016149662
106	0xbac6a0fb	-0.0015154177
107	0x3bec255a	0.007206601
108	0xbcc5c61f	-0.024142323
109	0xbc983e90	-0.01858452
110	0xbc7c1d19	-0.015387797
111	0xbcb285a2	-0.021792237
112	0x3cfd00be	0.030884143
113	0xbd016522	-0.03159059
114	0x3a66874f	0.0008793966
115	0xbb22a641	-0.0024818333
116	0xbc3146ad	-0.010820073
117	0xbc2b0bb6	-0.010439804
118	0x3be0207c	0.00683981
119	0xbbe4ec52	-0.0069861794
120	0xbd062c02	-0.032756813
121	0x3cb06314	0.02153162
122	0xbbf4f105	-0.007475021
123	0xbcf87d02	-0.030333046
124	0xbcf9e947	-0.030506743
125	0x3c987fd9	0.01861565
126	0xbce1c768	-0.027560905
127	0xbc45e7b9	-0.012079173
128	0x3ce0d8ba	0.027447093
129	0xbce37037	-0.02776347
130	0x3caa2385	0.02076889
131	0x3c7c0e16	0.015384218
132	0x3c5f06b6	0.01361244
133	0x3d0edf17	0.034880724
134	0xbc99d8be	-0.018780109
135	0x3c0e1305	0.008671527
136	0xbcdd97f7	-0.027050002
137	0x3cf62d61	0.030050935
138	0xbaa61e83	-0.0012673888
139	0x3a527680	0.0008028522
140	0x3d2a3602	0.041555412
141	0xbc36a702	-0.011148216
142	0xbcfc5af1	-0.030805083
143	0xbcd6b329	-0.026208477
144	0x3c3bd687	0.0114647215
145	0x3cacaa20	0.021077216
146	0x3c6e5988	0.014547713
147	0xbc1cad6e	-0.009562833
148	0x3c188688	0.0093094185
149	0xbd0f95b4	-0.035054877
150	0x3ab274c8	0.0013615126
151	0x3c039958	0.0080321655
152	0xbbc8ed9c	-0.006131841
153	0xbc82a937	-0.015949829
154	0xbcd1bc1a	-0.02560239
155	0xbc420811	-0.0118427435
156	0xb9300604	-0.00016786909
157	0x397e7dee	0.0002427024
158	0x3ca05dca	0.019575972
159	0xbc7d72c3	-0.015469256
160	0x3cb45b3d	0.022016162
161	0xbd1560ac	-0.036469147
162	0x3ca26fc0	0.019828677
163	0xbcbd8639	-0.023135291
164	0x3c04731a	0.008084083
165	0xbba0b800	-0.004904747
166	0xba5a3db5	-0.0008325235
167	0x3d1caad9	0.03824887
168	0x3c84b377	0.016198857
169	0xbcd431d0	-0.025902659
170	0x3cc05043	0.023475772
171	0xba24b4d2	-0.0006283048
172	0x3c5dcb55	0.013537248
173	0x3bd41a18	0.006472837
174	0x3d34aced	0.044110227
175	0x3c9d2428	0.01918228
176	0x3b3e0ca7	0.002899924
177	0xbd036a8d	-0.032084037
178	0x3c8733ed	0.016504252
179	0xbd0a382f	-0.033744987
180	0x3cb5f777	0.022212727
181	0x3c8303b4	0.015992977
182	0x3c6a9788	0.014318354
183	0x3c4eff76	0.012634149
184	0xbcbe0579	-0.023195969
185	0xbc5a59df	-0.013327091
186	0xbbc64eed	-0.006051889
187	0xbce3c874	-0.027805544
188	0x3d11471d	0.03546821
189	0xbc15d834	-0.009145785
190	0xbc7396e7	-0.014867521
191	0xbc0c57aa	-0.008565823
192	0x3ccc844e	0.024965432
193	0x3bdec197	0.00679798
194	0x3cdc1237	0.026864154
195	0x3d0f9a7c	0.035059437
196	0x3b8292bf	0.0039847787
197	0x3ce4f55c	0.027949028
198	0x3c9130a7	0.017723395
199	0x3cae8524	0.02130372
200	0x3d1aa05a	0.03775058
201	0x3cb3070b	0.021853944
202	0x3d329fd4	0.043609455
203	0x3ca812a9	0.02051671
204	0xbc90eeba	-0.017691959
205	0xbb6c7952	-0.0036083055
206	0xbcb5b775	-0.022182206
207	0x3cc431e5	0.023949573
208	0x3c51b2b7	0.012798957
209	0xbc743528	-0.014905252
210	0x3d0aff92	0.033935137
211	0x3c8646af	0.016391126
212	0xbb85e143	-0.004085691
213	0xbcf052b7	-0.029336317
214	0xbcab7a45	-0.020932326
215	0xbd116248	-0.03549412
216	0xbca96036	-0.02067576
217	0x3d06cc0d	0.03290944
218	0xbbe731aa	-0.007055481
219	0x3cc602b8	0.024171218
220	0x3c617126	0.013759887
221	0x3ce62c1f	0.02809721
222	0x3be90040	0.0071106255
223	0xbc9783f6	-0.018495541
224	0x3d055f12	0.03256137
225	0xbd105039	-0.035232756
226	0x3b5b951b	0.0033505622
227	0x3b974799	0.0046166894
228	0x3c9938a1	0.01870376
229	0xbce6af11	-0.02815965
230	0x3c689c86	0.014197474
231	0x3bcb54ea	0.006205191
232	0xbcddd39d	-0.027078444
233	0x3b1faf8d	0.002436611
234	0xbc0ced31	-0.008601473
235	0x3cd250fb	0.02567338
236	0xbd0cfbd6	-0.034419857
237	0x3c311970	0.010809287
238	0x3d2efdb6	0.042722426
239	0xbc9c8dfb	-0.01911067
240	0x3d0cf2ea	0.03441135
241	0xbc23b1dd	-0.009991136
242	0x3cfbab9e	0.030721482
243	0xbac041b1	-0.0014668015
244	0x3d15afd0	0.03654462
245	0xbd047466	-0.03233757
246	0x3c38cce9	0.011279323
247	0xbc99ec3e	-0.018789407
248	0x3c75a1dd	0.0149922045
249	0xbcc93e05	-0.024565706
250	0xbb8df6dd	-0.004332407
251	0x3c908ab9	0.017644273
252	0xbcdab624	-0.02669818
253	0x3ca9988a	0.02070262
254	0xbc981779	-0.01856588
255	0xbbdb67db	-0.00669573

bias f4 [16]
0	0xbb253c70	-0.0025213026
1	0x3c941938	0.018078431
2	0xbc5e8815	-0.013582249
3	0xbc448266	-0.01199398
4	0x37aa2db8	2.0286869e-05
5	0x3d098e56	0.033583008
6	0x3cc6e802	0.024280552
7	0xbc10e84a	-0.0088444445
8	0xbc0c6a7d	-0.008570311
9	0x3c9cb75e	0.019130405
10	0xbc68b07a	-0.014202232
11	0xbb25ce8c	-0.0025300113
12	0x3c814b47	0.015782965
13	0xbcbcbd2e	-0.023039427
14	0x3cc0d5c5	0.023539433
15	0x3cc8ad38	0.02449666

weight f4 [16, 16, 5, 5]
0	0xbb809711	-0.0039242585
1	0x3b8f81ca	0.0043794857
2	0xbc5a7292	-0.01333298
3	0xbbb6ea4e	-0.0055821305
4	0xbcf49713	-0.029857194
5	0x3d2e38e8	0.04253474
6	0xbc848979	-0.016178833
7	0xbcd16a9c	-0.02556353
8	0x3ceb5f69	0.028732019
9	0x3d4361ff	0.04770088
10	0x3d1d2ef5	0.03837486
11	0xbcbcfedb	-0.023070743
12	0xbc12f367	-0.008969164
13	0xbc4db9e2	-0.012556525
14	0x39e48988	0.00043590018
15	0xbd374ab4	-0.044748977
16	0x3a2d0bae	0.00066011667
17	0x3d3c1bc5	0.04592492
18	0x3ba106c2	0.0049141357
19	0xbcd20643	-0.025637751
20	0x3c251563	0.0100759
21	0x3cf0cade	0.02939361
22	0x3bbc6baf	0.0057501416
23	0x3d12a686	0.03580334
24	0xbd0c1b4f	-0.03420573
25	0x3d65807c	0.056030735
26	0xbd2aa09f	-0.041657086
27	0x3d230e8c	0.039808795
28	0xbc75d3aa	-0.015004078
29	0x3d03f68c	0.032217547
30	0x3d50a4d9	0.05093846
31	0x3c59c6c2	0.013292016
32	0x3b6466b1	0.0034851248
33	0x3d51c1d2	0.051210232
34	0x3cee4844	0.029087193
35	0x3cd0e875	0.02550147
36	0xbc367afd	-0.011137721
37	0x3d13370b	0.035941165
38	0x3d26847e	0.0406537
39	0x3c18c7f6	0.009325018
40	0x3ce06394	0.027391233
41	0x3d48b35e	0.048999183
42	0x3cfb7574	0.030695654
43	0xbc9871a7	-0.018608881
44	0x3d455c81	0.04818392
45	0xbc64c5e4	-0.013963196
46	0x3cb44a63	0.022008127
47	0xbcf59d3a	-0.029982198
48	0x3d0591a6	0.032609604
49	0xbb2fd0d4	-0.0026827352
50	0xbba81ccf	-0.0051303874
51	0xbc64fedf	-0.013976782
52	0x3d56f766	0.05248203
53	0x3ca08197	0.019593043
54	0xbc7a6734	-0.015283395
55	0x3c72e0fa	0.014824146
56	0xbc83fa43	-0.016110545
57	0x3d4404e4	0.047856227
58	0x3d2f56b0	0.04280728
59	0x3d2270c6	0.03965833
60	0xbd1374be	-0.036000006
61	0x3c89c22e	0.016816225
62	0xbbd504a3	-0.006500797
63	0xbc99497f	-0.018711803
64	0x3d08f596	0.033437334
65	0x3bdee028	0.006801624
66	0xbbb3077b	-0.005463538
67	0x3d24ccee	0.0402345
68	0xbc912db9	-0.017721998
69	0x3d3003c3	0.042972337
70	0x3c2c720c	0.010525238
71	0x3d402852	0.046913452
72	0x3c8038a9	0.015652018
73	0x3a1ffbf8	0.0006102915
74	0x3d2a19e7	0.04152861
75	0xbcefc4cd	-0.029268647
76	0xbd42a470	-0.0475201
77	0xbd1fb9e3	-0.038995635
78	0x3c1e3cc8	0.009658046
79	0xbcaacd9d	-0.020849997
80	0x3d01ceff	0.031691547
81	0x3ce23441	0.027612807
82	0xbd5de6ac	-0.054175064
83	0x3d0837dd	0.0332564
84	0xbd23dd5b	-0.040006023
85	0xbc736ce6	-0.014857506
86	0xbd531f70	-0.051543653
87	0xbc6250fa	-0.013813252
88	0x3cd5511b	0.02603965
89	0x3c8e0521	0.01733643
90	0xbc1035b9	-0.008801871
91	0x3d26539c	0.04060708
92	0x3d20c3c2	0.03924919
93	0xbd13cc77	-0.036083665
94	0xbb758ad5	-0.0037466784
95	0xbb858485	-0.0040746354
96	0xbb83b2b1	-0.0040191044
97	0x3cf4dab5	0.029889444
98	0xbd03e412	-0.032199927
99	0xbc50c470	-0.012742147
100	0x3cbc40af	0.022980062
101	0x3912cf60	0.00014000898
102	0x3c89f52e	0.016840544
103	0x3c9e0adf	0.019292293
104	0x3d0dd802	0.03462983
105	0xbc1df638	-0.009641223
106	0x3d08d508	0.033406287
107	0x3c1f0887	0.009706623
108	0xbc142d98	-0.0090440735
109	0xbcd41c1b	-0.025892308
110	0x3d265e0a	0.040617026
111	0x3d069a97	0.032862272
112	0x3d2df9f0	0.042474687
113	0xbd2fd516	-0.042927824
114	0xbbb6c722	-0.0055779377
115	0xbba65840	-0.005076438
116	0x3d3627e7	0.044471648
117	0x3d3f00d1	0.046631638
118	0xbba4df62	-0.005031512
119	0x3d684f19	0.05671606
120	0x3d06770d	0.03282838
121	0xbd01b9ae	-0.03167122
122	0xbc5e28a0	-0.01355949
123	0x3d0d46ad	0.03449123
124	0x3c25f4b3	0.010129142
125	0xbd0a24a5	-0.033726353
126	0x3c8d3c4c	0.017240666
127	0x3d43696b	0.047707956
128	0x3ca312cb	0.019906422
129	0xbd32160f	-0.043478068
130	0x3c069cc0	0.008216083
131	0x3cc8e8bf	0.024525044
132	0xbc18c41d	-0.009324101
133	0xbc32b07f	-0.010906338
134	0xbd4afe84	-0.04955913
135	0x3bf07c7d	0.007339059
136	0xbce8b864	-0.028408237
137	0xbd2c4130	-0.042054355
138	0xbab39299	-0.0013700306
139	0x3c2db6f7	0.010602704
140	0xbd011e21	-0.031522874
141	0xbce67972	-0.028134082
142	0x3bbfa01b	0.0058479435
143	0xbd48e620	-0.04904759
144	0xbd371fe6	-0.044708155
145	0xbcf29599	-0.02961235
146	0xbd236f2c	-0.039900944
147	0x3d40b591	0.047048155
148	0x3d4f8e17	0.050672617
149	0x3cb0d167	0.021584226
150	0x3cc8eb71	0.02452633
151	0x3cc63082	0.024193052
152	0x3cc2260e	0.023699787
153	0xbccd31f5	-0.025048235
154	0xbd2b36b3	-0.041800212
155	0xbb2c1e5d	-0.0026263215
156	0xbcbda5de	-0.02315038
157	0x3cb165bf	0.021654962
158	0x3beaeb97	0.007169198
159	0xbcdada7a	-0.026715506
160	0xbccdef2f	-0.025138466
161	0x3b09b3b5	0.0021011655
162	0xbcdab0ab	-0.02669557
163	0x3b90a558	0.0044142418
164	0xbd413e99	-0.04717884
165	0xbd0edc62	-0.034878142
166	0x3c50b3e8	0.0127382055
167	0xbb8877a2	-0.004164652
168	0xbc6d55c4	-0.01448578
169	0x3ca9b61e	0.020716723
170	0xbc60e8c3	-0.01372737
171	0x3d30022a	0.042970814
172	0xbd330bab	-0.0437123
173	0x3ca6d9d3	0.020367539
174	0x3b09e01a	0.0021038116
175	0x3d2ecaa7	0.042673733
176	0xbd1e69b0	-0.03867501
177	0x3c690706	0.014222866
178	0xbc0ff2dd	-0.00878593
179	0xbc8b9eb8	-0.017043456
180	0x3c662659	0.014047229
181	0x3a14db77	0.0005678455
182	0xbd1bf93a	-0.038079478
183	0x3c796cf4	0.01522373
184	0x3ce95b4f	0.028485922
185	0x3c8bb88b	0.01705577
186	0xbc16bb98	-0.009199999
187	0x3d2d90b8	0.042374343
188	0xbc73c7dc	-0.014879193
189	0x3c070fe6	0.008243537
190	0xbcf9f5bc	-0.030512683
191	0xbd58daac	-0.052942917
192	0xbc874a67	-0.01651497
193	0xbd16140a	-0.036640204
194	0xbc12b23f	-0.00895363
195	0x3ca90245	0.020630965
196	0x3c939e0c	0.018019699
197	0xbbd1760e	-0.006392247
198	0xbcbb74d3	-0.022882855
199	0x3cd6d6aa	0.026225407
200	0xbbffe616	-0.007809411
201	0xbd3cbbc8	-0.04607752
202	0xbd245916	-0.04012402
203	0xbd4a8246	-0.049440645
204	0xbcf02fd6	-0.029319685
205	0xbcabea45	-0.020985732
206	0xbd32444f	-0.043522175
207	0x3bd3474c	0.0064477082
208	0x39c961c6	0.00038410554
209	0xbd4729fe	-0.04862403
210	0xbcc6f570	-0.024286956
211	0x3caf207d	0.021377796
212	0xbd6bed2e	-0.05759924
213	0xbd63a4a9	-0.055576954
214	0x3d091e28	0.033476025
215	0xb9a831a6	-0.00032080448
216	0xbb5f0f0b	-0.0034036066
217	0x3d078d50	0.03309375
218	0xbd1b5faa	-0.03793303
219	0x3cafb938	0.021450624
220	0xbd5b7e87	-0.053587463
221	0x3c7a5021	0.015277893
222	0xbc948188	-0.018128172
223	0xbd116b78	-0.03550288
224	0x3be73a7a	0.0070565315
225	0x3c493e8c	0.012282979
226	0xbd2d7969	-0.042352114
227	0x3af81089	0.0018925826
228	0xbd3a556e	-0.04549163
229	0xbaf71c3f	-0.0018853022
230	0x3d479588	0.04872659
231	0x3d10f624	0.035390988
232	0xbd56a141	-0.052399877
233	0xbd3c8f97	-0.046035375
234	0xbd24d9cd	-0.040246774
235	0x3cd1e063	0.025619691
236	0xbca442b2	-0.020051334
237	0xbcc6c23b	-0.024262538
238	0x3a83e0e5	0.0010061531
239	0x3b5ddadc	0.0033852374
240	0x3d52c984	0.05146171
241	0x3d396f25	0.04527201
242	0xbc2f693d	-0.010706243
243	0x3d30c34c	0.043155
244	0x3cc6ba08	0.024258628
245	0x3b9aa070	0.0047188327
246	0xbd29bc60	-0.041439414
247	0x3d3b2049	0.045685086
248	0x3d0f8734	0.03504105
249	0x3c98cab6	0.018651348
250	0x3ca22851	0.019794615
251	0xbcb41bd4	-0.021985926
252	0xbc93ed32	-0.01805744
253	0x3b7bdce1	0.0038431215
254	0x3cb15fd3	0.021652138
255	0x3bbbc0ff	0.005729794

bias f4 [16]
0	0xbb29f61f	-0.0025934053
1	0x3a57ce6b	0.0008232358
2	0x3a5f9c00	0.0008530021
3	0xbd10940e	-0.035297446
4	0xbc80850a	-0.015688438
5	0x3ca0c93d	0.019627208
6	0xbcc8f15d	-0.024529153
7	0xbcc2a9f5	-0.023762682
8	0xbb5daaae	-0.0033823657
9	0x3c9a45f9	0.018832194
10	0x3d7e8ae3	0.06214417
11	0x3a975e32	0.0011548458
12	0x3d43d67f	0.04781198
13	0x3c610235	0.013733436
14	0x3cd11dbf	0.02552688
15	0x3bbbf398	0.0057358257
