Baseline/bestKernel_Num_Set_2.pt (torch_old, 925735 bytes, 16 tensors)

weight f4 [64, 3, 3, 3]
0	0xbe2dc2d6	-0.16968855
1	0xbdc18da9	-0.09450848
2	0xbd975ed9	-0.07391138
3	0xbe27490f	-0.16336463
4	0x3d23a1a8	0.03994909
5	0x3daacfc2	0.08340408
6	0xbca4e0d3	-0.020126736
7	0xbd7bf8ef	-0.0615167
8	0x3c5f789e	0.013639597
9	0xbe2ac847	-0.16677962
10	0xbe060c6a	-0.13090673
11	0xbc8cc600	-0.017184258
12	0x3e20fdd6	0.1572183
13	0xbd94f808	-0.07273871
14	0x3da9999e	0.08281253
15	0xbdb6b8f2	-0.08921994
16	0xbd842942	-0.06453182
17	0xbe482005	-0.19543464
18	0x3e332970	0.17496276
19	0x3e4fb7cb	0.20284955
20	0x3c2df7ee	0.010618193
21	0x3e0d13df	0.13777111
22	0x3e30fa58	0.17282999
23	0x3de19bcc	0.11016044
24	0x3de80d9a	0.11330719
25	0xbe2d3d9b	-0.16918032
26	0xbe2c42d9	-0.16822375
27	0xbdff63fe	-0.12470244
28	0x3daa6ef1	0.08321942
29	0xbe132de5	-0.14372976
30	0xbdffac38	-0.1248402
31	0xbd9129c9	-0.07088048
32	0xbe1eac34	-0.15495378
33	0x3cbcf5a0	0.023066342
34	0x3d50fd85	0.051023025
35	0xbdb7d9e8	-0.08977109
36	0x3e11c27d	0.14234348
37	0xbd6790c3	-0.05653454
38	0xbd156bc6	-0.036479734
39	0x3e28ba8e	0.16477415
40	0x3e3c4b79	0.18388166
41	0xbb59da20	-0.0033241585
42	0xbdf4fcb9	-0.119622655
43	0xbd9f29c1	-0.07771636
44	0x3d31e74c	0.043433473
45	0x3dc0f05e	0.094208464
46	0x3d9df588	0.07712847
47	0xbdd599cd	-0.10429726
48	0xbe4f7870	-0.20260787
49	0xbe41fe3c	-0.18944639
50	0xbda8935f	-0.08231234
51	0xbc980dcc	-0.018561266
52	0xbddc8017	-0.10766619
53	0xbe31b1de	-0.17353007
54	0x3d16e23a	0.03683684
55	0xbe0a1139	-0.13483132
56	0xbe06c4f6	-0.13161072
57	0xbe101b71	-0.14072968
58	0xbd195306	-0.037432693
59	0x3e3764e9	0.17909588
60	0x3daf148b	0.0854884
61	0xbc5433e6	-0.012951827
62	0x3d4ccac0	0.049998045
63	0x3d6eb03d	0.058273543
64	0xbc8a4761	-0.01687974
65	0xbe2eff99	-0.1708969
66	0xbe0bda5a	-0.13657513
67	0xbe183383	-0.148634
68	0xbca50ed0	-0.020148665
69	0xbe46fc43	-0.19432168
70	0xbd5910ae	-0.052994423
71	0xbdb42727	-0.0879653
72	0x3e56a4c7	0.20961295
73	0x3e35591d	0.17709775
74	0x3e04ef30	0.12981868
75	0x3d019c20	0.031643033
76	0xbd2a067f	-0.0415101
77	0x3d89f893	0.06736865
78	0xbde6a8b9	-0.1126265
79	0xbd7cfb2d	-0.061762977
80	0xbc97fe08	-0.018553749
81	0xbd1b588f	-0.037926253
82	0xbe31a324	-0.1734739
83	0x3da86366	0.08222084
84	0x3e27bf93	0.16381674
85	0xbdcafa54	-0.099110276
86	0x3d68660d	0.05673795
87	0xbc8568d2	-0.016285334
88	0xba837898	-0.0010030447
89	0x3c83d95f	0.016094862
90	0x3e231283	0.1592503
91	0x3c8d5f6a	0.017257411
92	0xbe088be5	-0.13334616
93	0xbd9b1d85	-0.0757399
94	0x3db202bf	0.0869193
95	0x3d4bf35d	0.049792636
96	0xbba02272	-0.0048869187
97	0xbd0c9e99	-0.034330938
98	0xbdb10279	-0.0864305
99	0xbd61835c	-0.055056915
100	0xbdb3e6b2	-0.08784236
101	0x3d38b323	0.045092713
102	0x3d8a024f	0.067387216
103	0x3e253390	0.16132951
104	0xbcf5997b	-0.029980412
105	0x3cdfa99c	0.027302556
106	0x3e0dcffe	0.13848874
107	0x3dc7d539	0.09757466
108	0x3caaaba1	0.020833792
109	0x3d623001	0.05522156
110	0x3bc9831b	0.006149662
111	0xbe2d1685	-0.16903122
112	0x3b675acf	0.003530193
113	0xbd3c4a97	-0.045969572
114	0x3e2e04de	0.16994044
115	0x3e2e10e7	0.16998635
116	0x3d0ccf19	0.03437719
117	0x3e33938f	0.17536758
118	0xbdd1271a	-0.10212536
119	0x3e270894	0.16311866
120	0x3e280755	0.16409047
121	0xbc80f1c3	-0.015740281
122	0xbe2644a8	-0.16237128
123	0xbd83676f	-0.06416213
124	0xbd71d9fd	-0.05904578
125	0xbb68d270	-0.003552582
126	0xbe27d19c	-0.16388553
127	0x3d3aba28	0.04558769
128	0xbd91a3ba	-0.071113065
129	0xbd1c027f	-0.038088318
130	0xbdb62212	-0.08893217
131	0xbd00aa2a	-0.03141228
132	0xbe2cd320	-0.16877413
133	0xbdbdb770	-0.092635036
134	0x3cd47b8e	0.025937822
135	0x3dfca3a4	0.123358995
136	0x3e31fa93	0.17380743
137	0xbe11e993	-0.14249258
138	0x3da3042c	0.0795978
139	0xbdd9ac8e	-0.10628615
140	0xbe110e39	-0.14165582
141	0xbc0ff339	-0.008786016
142	0xbdd882d6	-0.1057183
143	0xbe20fa6e	-0.15720531
144	0xbe4762c3	-0.19471268
145	0xbe1308eb	-0.1435887
146	0x3e1380bf	0.14404581
147	0x3dbda1fc	0.09259412
148	0xbdba6789	-0.09101779
149	0xbe126c69	-0.14299168
150	0xbe26b47d	-0.16279788
151	0xbe039af4	-0.12852079
152	0xbdbf8d91	-0.093531735
153	0x3e060534	0.13087922
154	0x3da09536	0.0784096
155	0xbd72dacc	-0.059290692
156	0x3e173921	0.14767887
157	0xbdd539b2	-0.10411395
158	0xbe115f1e	-0.1419644
159	0x3d69aae8	0.057047755
160	0xbdba302e	-0.09091221
161	0x3d8dfdd7	0.06933182
162	0x3e2a2958	0.16617334
163	0xbdacc6dd	-0.08436368
164	0xbe023f27	-0.12719403
165	0x3d9dfc11	0.077140935
166	0xbe2a88d4	-0.16653758
167	0x3e34d2a2	0.17658475
168	0xbdaded0f	-0.08492481
169	0x3dc9b79a	0.09849472
170	0xbe1538f6	-0.1457251
171	0xbdf6b7bc	-0.12046763
172	0x3d00b11a	0.031418897
173	0x3da0c2aa	0.07849629
174	0x3e249cda	0.16075459
175	0x3e30b709	0.17257322
176	0x37977258	1.8053848e-05
177	0xbc63499c	-0.01387253
178	0x3d324e30	0.043531597
179	0xbd03382e	-0.032036
180	0x3cc29d92	0.023756776
181	0xbe294061	-0.16528465
182	0xbe0f528a	-0.1399633
183	0x3e17e0f3	0.14831905
184	0xbdc33a30	-0.09532583
185	0x3e2d1e63	0.16906123
186	0x3d1b43eb	0.03790657
187	0x3d83c08c	0.0643321
188	0x3e45769d	0.19283529
189	0xbdbfdf7c	-0.09368798
190	0xbc90a995	-0.017658988
191	0x3d3944b9	0.045231555
192	0x3d9fbcef	0.07799708
193	0xbe32cd11	-0.17461039
194	0x3da1e623	0.07905223
195	0xbdce3924	-0.100694925
196	0x3d171b67	0.036891367
197	0x3e101b98	0.14073026
198	0xbcd1ba7b	-0.025601616
199	0xbc4aaffd	-0.01237106
200	0xbcaa434c	-0.020784043
201	0x3e2045fe	0.156517
202	0x3dd6ac55	0.104820885
203	0x3ceb7a28	0.028744772
204	0xbdfbb378	-0.1229009
205	0xbde5d306	-0.1122189
206	0x3e160d77	0.14653574
207	0x3e1fea6e	0.15616772
208	0x3e043cfe	0.12913892
209	0xbe079072	-0.13238695
210	0x3e2c8054	0.16845828
211	0x39c29ac4	0.00037117873
212	0x3e23d898	0.16000593
213	0x3e3e0569	0.18556751
214	0x3d22e9ab	0.039773624
215	0xbd7d919f	-0.061906453
216	0x3e3b29fb	0.18277733
217	0xbdc0499a	-0.093890384
218	0x3e049fbe	0.12951562
219	0xbe3387b3	-0.17532234
220	0xbd4f661d	-0.050634492
221	0xbe217d2e	-0.15770409
222	0xbd9bc9d6	-0.076068565
223	0x3db8ae93	0.090176724
224	0xbe021842	-0.12704566
225	0xbe310bb8	-0.17289627
226	0x3e0f8fb2	0.14019659
227	0x3dd9469e	0.10609172
228	0xbc75e0e8	-0.015007235
229	0xbe1549c8	-0.14578927
230	0xbd7735c1	-0.060353998
231	0xbd990867	-0.07472306
232	0x3de6d18b	0.11270436
233	0xbd8bcdc7	-0.06826358
234	0xbd1d19e2	-0.038354762
235	0xbdf51aca	-0.11968
236	0xbd9db048	-0.076996386
237	0x3df8be36	0.12145655
238	0x3e1123a2	0.14173749
239	0x3d36cd9c	0.044629678
240	0xbd610ea4	-0.054945603
241	0x3e4f52bf	0.20246409
242	0x3d5de2ed	0.05417149
243	0xbda3587d	-0.07975862
244	0xbd93f816	-0.07225053
245	0xbd0587b1	-0.03260011
246	0x3daf9ba7	0.0857461
247	0x3d84fb0e	0.064931974
248	0x3e0920b9	0.13391389
249	0xbc68e5a5	-0.014214908
250	0x3e1d53ea	0.15364042
251	0xbdab73a2	-0.083716646
252	0xbdcb980d	-0.09941111
253	0xbdaa9f45	-0.083311595
254	0xbe464bb8	-0.19364822
255	0xbe0b8070	-0.13623214

bias f4 [64]
0	0x3de808bb	0.1132979
1	0x3e0b92a2	0.13630155
2	0x3e3f9b39	0.18711556
3	0x3d8837dc	0.06651279
4	0x3d884df6	0.06655495
5	0x3d7152f8	0.058917016
6	0xbdd8ff42	-0.105955616
7	0x3d6e67a2	0.0582043
8	0x3d6dc5a4	0.058049813
9	0xbe1f978c	-0.15585154
10	0xbd65dd67	-0.05611935
11	0xbdea2047	-0.11431938
12	0xbdf291e1	-0.118442304
13	0x3e066c04	0.13127142
14	0x3e153806	0.14572152
15	0xbbe39dfd	-0.006946324
16	0x3d786346	0.06064155
17	0xbd3ac163	-0.045594584
18	0x3d2f216a	0.042756476
19	0xbcd764e6	-0.02629323
20	0xbdcc5065	-0.099762715
21	0xbd984efc	-0.0743694
22	0x3e3ef3ac	0.18647641
23	0x3d02a1db	0.03189264
24	0xbdc02fe3	-0.09384134
25	0x3cc13dbb	0.023589006
26	0xbe43468d	-0.19069882
27	0x39287da8	0.00016068539
28	0x3e17a800	0.1481018
29	0x3d129a68	0.035791785
30	0x3d2de426	0.042453907
31	0xbe3e81f8	-0.18604267
32	0xbce67023	-0.028129643
33	0x3e01621e	0.12635085
34	0xbe11a9b3	-0.14224891
35	0xbdb418a4	-0.08793762
36	0x3e02cf36	0.12774357
37	0x3d54d90b	0.0519648
38	0x3db8744f	0.09006559
39	0xbe27a7d8	-0.16372621
40	0x3e077de4	0.13231617
41	0xbd1c9595	-0.03822859
42	0x3d67c8f3	0.056588124
43	0x3e209370	0.15681243
44	0xbe2fb540	-0.17158985
45	0x3d371d9f	0.044705983
46	0xbe25ac82	-0.16179088
47	0x3e0d767e	0.13814732
48	0x3d6d8622	0.057989247
49	0x3d20c9b0	0.039254844
50	0xbda1962e	-0.078899726
51	0x3da92100	0.082582474
52	0xbdd1ef49	-0.10250718
53	0x3d0f6412	0.035007544
54	0x3e226a14	0.15860778
55	0xbe113ac9	-0.14182581
56	0xbd79acf3	-0.060955953
57	0x3d6e03f2	0.05810923
58	0x3d2d6067	0.042328265
59	0x3b0d7b81	0.0021588507
60	0x3e2b8811	0.16751124
61	0xbd26062d	-0.040533233
62	0x3d639275	0.055559594
63	0x3dda3c97	0.10656088

weight f4 [64, 64, 3, 3]
0	0xbc7b664c	-0.015344214
1	0x3cb869ab	0.022511324
2	0x3cc41e1f	0.023940144
3	0x3c539eab	0.012916247
4	0xbc7ea4dc	-0.015542235
5	0x3d0255ed	0.031820226
6	0xbcc0e20b	-0.023545286
7	0x3c1891f2	0.00931214
8	0x3bfc3388	0.0076965727
9	0x3cd06194	0.025437154
10	0xbd1dd6be	-0.038534872
11	0xbb18da43	-0.0023323453
12	0xbcf1a5b0	-0.029497951
13	0x3c750211	0.014954106
14	0x3c147d18	0.009063028
15	0xbd0b6fa9	-0.034042034
16	0xbb91e4e7	-0.004452336
17	0x3bd8f4c6	0.006620976
18	0x3c84fb22	0.01623303
19	0x3d1a37c2	0.03765083
20	0x3c96856a	0.018374164
21	0x3ba8b6ab	0.005148729
22	0x3cb10b10	0.02161172
23	0xbd2c334e	-0.042041115
24	0x3d091638	0.033468455
25	0xbc023b82	-0.007948758
26	0x3cd5e0fd	0.02610826
27	0x3c97e69a	0.018542577
28	0x3bc28437	0.0059361714
29	0x3d1253bf	0.035724398
30	0xbca5f5cb	-0.020258805
31	0x3c92ea4a	0.017933983
32	0x3ca1c486	0.01974703
33	0xbc1a7963	-0.009428355
34	0x3c80ee77	0.015738709
35	0xbd0cf491	-0.034412924
36	0xbcbaf307	-0.022820963
37	0x3c8fb363	0.017541593
38	0x3c844a55	0.016148726
39	0xbd270842	-0.04077936
40	0x3c3b8bdb	0.011446918
41	0xbab94833	-0.0014135897
42	0x3d1d5e8d	0.03842025
43	0xbd322fdf	-0.043502685
44	0xbc4ece7c	-0.012622472
45	0xbcaf8513	-0.02142576
46	0xbc8b99fd	-0.0170412
47	0xba5a20dc	-0.00083209365
48	0xbd016d4c	-0.031598374
49	0x3d1246ba	0.03571198
50	0xbcb92981	-0.022602798
51	0x3c9f87b3	0.019473886
52	0xbcacf15b	-0.021111181
53	0xbba1b72c	-0.004935166
54	0xbcdb50e7	-0.026771976
55	0x3d2d8e24	0.042371884
56	0x3d26c1b1	0.040712062
57	0x3d2434fa	0.040089585
58	0xbb4a35b0	-0.0030854754
59	0x3cbd7d79	0.02313112
60	0xbd0e15dc	-0.034688815
61	0x3ca07252	0.019585762
62	0xbb8dcc48	-0.0043273307
63	0xbce8750c	-0.028376125
64	0xbd06bf98	-0.03289756
65	0xbd0b8e7e	-0.034071438
66	0x3c2d94fa	0.010594601
67	0xbc2730d1	-0.01020451
68	0xbc6ececf	-0.014575674
69	0x3d423eeb	0.047423285
70	0xbc273d7c	-0.01020753
71	0x3cccd80b	0.025005361
72	0xbb3ba111	-0.0028629939
73	0x3d1c667d	0.038183678
74	0x3cd104e5	0.02551503
75	0x3d112222	0.035432942
76	0x3cbbf992	0.022946153
77	0xbc4528a1	-0.0120336125
78	0x3d3a34de	0.045460574
79	0x3bfc1823	0.007693307
80	0xbcbd0e9c	-0.023078255
81	0x3c4778b6	0.012174776
82	0xbbeff4ad	-0.007322869
83	0xbd083da7	-0.03326192
84	0x3b62f7c5	0.0034632545
85	0xbc422b4c	-0.011851143
86	0xbc8bf67f	-0.017085312
87	0xbc9e7fca	-0.019348044
88	0xbca62e87	-0.020285858
89	0xbc8ff5a4	-0.017573185
90	0x3b9270d3	0.004469016
91	0x3d22f829	0.039787445
92	0xbcd37618	-0.025813147
93	0xbcb47639	-0.02202903
94	0xbce7dd53	-0.028303778
95	0xbb46c22e	-0.0030328142
96	0x3b0fb183	0.0021925874
97	0xbcf2e843	-0.029651767
98	0x3c967745	0.018367419
99	0xbcf01482	-0.029306654
100	0x3d40f234	0.047105983
101	0x3c7a9103	0.015293363
102	0xbadbf651	-0.0016781782
103	0xbc0a3eb5	-0.008437802
104	0x3ccf9caa	0.025343258
105	0x3d17065e	0.036871307
106	0xbcbbeca1	-0.022939982
107	0xbb66cff6	-0.003521917
108	0x3d02f0dd	0.031967986
109	0xbbcfb7ac	-0.006339034
110	0xbce96a9c	-0.028493218
111	0xbc5dbb1b	-0.013533379
112	0x3b8cc5aa	0.0042960243
113	0xbbaf4db7	-0.0053498405
114	0xbcc0f7dc	-0.023555689
115	0xbcc0543b	-0.023477664
116	0x3c91b0b9	0.017784463
117	0x3cda9236	0.026681047
118	0x3d0ddc36	0.034633838
119	0xbc25c03f	-0.010116636
120	0x3c684e6d	0.014178854
121	0xbd161d91	-0.03664929
122	0x3c8a29b5	0.01686559
123	0x3d17963a	0.0370085
124	0x3c995a8f	0.01871994
125	0xbca264c6	-0.019823443
126	0x3d06196e	0.032739095
127	0xbd2c1b48	-0.042018205
128	0xbc219b3e	-0.009863673
129	0xbc4b141a	-0.012394929
130	0xbd3440f1	-0.044007245
131	0xbcdbb019	-0.026817368
132	0xbd06b13e	-0.032883875
133	0x3c0d3038	0.008617453
134	0xbbbefd33	-0.0058285235
135	0x3c1b272f	0.009469791
136	0x3adef214	0.0017009401
137	0x3cc16937	0.02360974
138	0xbb8e44de	-0.0043417057
139	0x3d0caee9	0.034346495
140	0x3d286db4	0.041120246
141	0xbd2ec09f	-0.042664167
142	0xbc940b49	-0.018071787
143	0x3cc6b07d	0.024254078
144	0x3d248acb	0.040171426
145	0xbd15374e	-0.036429696
146	0xbac5a588	-0.0015079239
147	0xbc8e4638	-0.017367467
148	0x3d175a29	0.036951218
149	0x3cf472ab	0.029839834
150	0x3cf83dfc	0.030302994
151	0x3ca44724	0.020053454
152	0xbb37386d	-0.0027957216
153	0x3d1b0f75	0.037856538
154	0xbcc178ba	-0.023617137
155	0xbb175997	-0.0023094171
156	0xbc4a8373	-0.0123604415
157	0xbd042489	-0.032261405
158	0xbcb35095	-0.02188901
159	0x3c10f6c2	0.008847894
160	0xbbb1e1dc	-0.005428536
161	0xbcef1959	-0.029186891
162	0xbb851f9b	-0.0040626056
163	0x3bb919bc	0.0056488197
164	0xbcefbc2f	-0.029264538
165	0x3cd4bd3e	0.025969144
166	0xbd1aa1f1	-0.037752096
167	0xba3b71d6	-0.0007150447
168	0xbd0c9b50	-0.034327805
169	0xbd1c6cb6	-0.038189612
170	0xbbc83fc5	-0.0061111175
171	0x3d32fe18	0.043699354
172	0x3d2521c8	0.04031542
173	0x3ccff34b	0.025384566
174	0x3d0a30bf	0.033737894
175	0xbc6fe6b0	-0.0146424025
176	0x3cac2e2f	0.021018116
177	0x3ced3fd8	0.028961107
178	0xbd26f0c4	-0.040756956
179	0xbd0c097f	-0.034188744
180	0x3c7c4b08	0.015398748
181	0x3abdf46c	0.0014492399
182	0xbd057dc9	-0.03259066
183	0xbd108930	-0.035287082
184	0x3ce0d293	0.02744416
185	0x36f823b0	7.3951305e-06
186	0xbb0f71f2	-0.0021887985
187	0xbd3480c4	-0.044068113
188	0x3d14b56e	0.036305837
189	0xbcb4c3fb	-0.022066107
190	0x3cd4abf7	0.025960905
191	0xbb46ee26	-0.003035435
192	0x3ba32d39	0.004979756
193	0x3cc5c367	0.024141027
194	0xbc087b13	-0.008330124
195	0xbc1334f1	-0.00898479
196	0x3d1335f1	0.035940114
197	0xbcf97d95	-0.03045539
198	0x3ca2188f	0.019787101
199	0xbc4c422d	-0.012466949
200	0xbc831ce6	-0.01600499
201	0x3ce7cf51	0.028297098
202	0x3b7d7651	0.0038675258
203	0xbd2bb882	-0.041924007
204	0x3d1635b9	0.036672328
205	0xbcc16cbf	-0.023611424
206	0x3d0d354c	0.034474656
207	0xbc6fc827	-0.014635122
208	0x3d1e9483	0.03871585
209	0x3c3bc15b	0.011459674
210	0xbb0311b8	-0.0019999575
211	0x3c569abd	0.013098416
212	0xbb435b07	-0.0029808895
213	0xbcb08881	-0.021549465
214	0x3cb0a813	0.021564519
215	0x3cd000ca	0.025391001
216	0xbb0ad54c	-0.0021184264
217	0x3d551a40	0.052026987
218	0x3c8800b7	0.016601903
219	0xbc51c435	-0.012803127
220	0xbbdc539e	-0.006723835
221	0x3d03b0c8	0.032151014
222	0xbbd32ed6	-0.0064447923
223	0x3d163de7	0.03668013
224	0xbd055b9c	-0.03255807
225	0x3b729efa	0.0037021027
226	0xbcf37427	-0.029718472
227	0x3c5c71a9	0.013454833
228	0x3d10e78f	0.03537708
229	0x3c6a4c2a	0.0143003855
230	0xbc7cd2e6	-0.0154311415
231	0xbd1d737b	-0.03844021
232	0xbcb17fea	-0.02166744
233	0xbcced342	-0.02524722
234	0x3d152625	0.03641333
235	0xbc9c57c0	-0.019084811
236	0x3c94bc0d	0.018156076
237	0x3d06c65b	0.03290401
238	0x3c8d9915	0.01728491
239	0xbd377708	-0.04479125
240	0xbc06ffc8	-0.008239694
241	0xbc7e985a	-0.015539253
242	0x3cc47df0	0.023985833
243	0xbba9d627	-0.0051829997
244	0xbaf4b32c	-0.001866912
245	0x3d145fea	0.036224283
246	0x3c08d7ed	0.008352262
247	0x3c975066	0.018470954
248	0xbc88e44d	-0.016710425
249	0x3cdc21ed	0.026871646
250	0x3b9f807a	0.0048676105
251	0xbc221c8e	-0.009894503
252	0x3be8a962	0.00710027
253	0xbd0b8a68	-0.03406754
254	0x3afbdf33	0.0019216299
255	0x3c9d338d	0.01918962

bias f4 [64]
0	0xbd2468d5	-0.040139038
1	0xbca05441	-0.019571425
2	0xbd21546c	-0.03938715
3	0xbcdb979e	-0.026805695
4	0xbbad7f87	-0.0052947435
5	0xbd0d3c1b	-0.03448115
6	0x3c830b73	0.01599667
7	0xbce6d319	-0.028176831
8	0xbcb003a8	-0.021486118
9	0xbca8447c	-0.020540468
10	0x3c9e4e15	0.019324342
11	0x3c756ee9	0.014980056
12	0xbc63a91f	-0.013895302
13	0xbcc6084e	-0.024173882
14	0xbd0dd78a	-0.034629382
15	0x3c833d8f	0.016020564
16	0x3cdefa79	0.027219044
17	0x3b335809	0.0027365705
18	0xbd1c30f2	-0.038132615
19	0x3c5336c6	0.012891477
20	0xbcf58edd	-0.02997535
21	0xbca9ea58	-0.020741627
22	0x3cf04e3e	0.029334184
23	0x3ce46569	0.027880387
24	0xbcb21935	-0.021740535
25	0x3b42246e	0.0029623765
26	0xbcfd30e1	-0.030907096
27	0xbd12823b	-0.03576873
28	0xbcdf3593	-0.027247226
29	0x3cc111aa	0.023567993
30	0x3c181121	0.009281428
31	0xbc2b007a	-0.010437125
32	0x3c967414	0.018365897
33	0xbcba748a	-0.022760648
34	0xbc20b9ad	-0.009809894
35	0xbd1352f9	-0.0359678
36	0x3b8695d8	0.0041072182
37	0x3c713c72	0.014723884
38	0xbc8f4079	-0.017486798
39	0x3d187f18	0.03723058
40	0xbc501e6d	-0.012702567
41	0x3bb3f62f	0.005491994
42	0xbcdfe195	-0.027329246
43	0xbc1c58b7	-0.009542636
44	0x3b218ee9	0.0024651831
45	0x3c741e14	0.014899749
46	0xbd2cac33	-0.04215641
47	0x3d05de71	0.03268284
48	0xbcb82837	-0.022480113
49	0xbcd14e56	-0.025550049
50	0xbc4d57c1	-0.012533129
51	0xba6b10ea	-0.0008967059
52	0xbd2f1dd3	-0.042753052
53	0x3b974f90	0.004617639
54	0xbbeb6e71	-0.0071847965
55	0x3bea9b6f	0.0071596424
56	0x3afdc6b1	0.0019361583
57	0xbc3ba27e	-0.011452315
58	0x3c431337	0.011906437
59	0x3d1a3b36	0.037654124
60	0x3cc23b26	0.023709845
61	0x3b130562	0.0022433628
62	0xbc646385	-0.013939743
63	0x3cb217cf	0.021739868

weight f4 [64, 64, 3, 3]
0	0xbc4e4ed5	-0.012592037
1	0x3c8a5705	0.016887197
2	0x3c9060f6	0.01762436
3	0xbccdf214	-0.025139846
4	0xbc270c35	-0.0101957815
5	0x3c66df85	0.014091377
6	0x3d10ddac	0.035367653
7	0x3c126690	0.008935586
8	0x3cb200ca	0.021728892
9	0xbb98920b	-0.0046560816
10	0xbce90881	-0.028446438
11	0x3c989b9d	0.01862889
12	0x3ca6cd8d	0.020361686
13	0x3c59b255	0.013287147
14	0x3c689b50	0.014197186
15	0x3ca8bf0d	0.020598913
16	0x3be7e332	0.0070766443
17	0xbbd7e3ab	-0.0065884194
18	0xbd2821f7	-0.041048016
19	0x3a916a92	0.0011094382
20	0x3d25d0de	0.040482394
21	0x3c316943	0.010828319
22	0x3c85c250	0.016328007
23	0x3a81d49a	0.0009905279
24	0xb9253844	-0.00015756587
25	0x3d013cf5	0.031552274
26	0xbc18ac5c	-0.009318437
27	0xbbe5f30e	-0.0070175
28	0xbcd9e4f7	-0.026598437
29	0xbd1f0b4b	-0.03882913
30	0x3ce437ae	0.027858581
31	0xbb2bc5ea	-0.0026210495
32	0xbd15e922	-0.036599286
33	0x3d05807a	0.032593228
34	0x3afaad3e	0.0019125117
35	0xbbc8b055	-0.006124536
36	0xbc0a55a7	-0.008443273
37	0xbcb9dbe3	-0.022687858
38	0xbcf9b226	-0.030480456
39	0x3b168490	0.0022967197
40	0xbbe53fb9	-0.0069961217
41	0x3d00d01e	0.031448476
42	0xbc893a2e	-0.016751375
43	0xbbf9785f	-0.0076132263
44	0xbba44209	-0.005012755
45	0xbc8940b3	-0.016754484
46	0x3cbf0c9f	0.023321448
47	0xbcda56ba	-0.026652683
48	0xbca0ae00	-0.01961422
49	0xbb85fdd5	-0.004089097
50	0x3cdd3588	0.027003065
51	0xbb6bb299	-0.0035964607
52	0xbca3cc24	-0.019994803
53	0x3c23a88f	0.009988918
54	0x3c6f3333	0.014599609
55	0x3c50f906	0.012754684
56	0x3d3176d5	0.043326218
57	0x3ce118f1	0.027477713
58	0xbbe51e59	-0.006992143
59	0x3d1169fb	0.03550146
60	0x3d3eb584	0.046559826
61	0x3ccc898f	0.024967937
62	0xbcf0847d	-0.02936005
63	0xbbaddc07	-0.0053057703
64	0xbca8567f	-0.020549057
65	0xbc98769d	-0.018611247
66	0xbd0f0d62	-0.034924872
67	0x3c4b44de	0.012406556
68	0xbccdbc44	-0.025114186
69	0x3c6500a3	0.013977203
70	0xbc7a14d8	-0.015263759
71	0x3d0772a9	0.033068333
72	0xbce5a006	-0.028030407
73	0x3d1ea9f6	0.038736306
74	0x3d1533d4	0.03642638
75	0xbc8a4e05	-0.016882906
76	0x3d3b5aad	0.045740772
77	0xbd00e90f	-0.031472262
78	0x3c8aece1	0.016958656
79	0xbc862ad9	-0.016377853
80	0x3d3cc0ec	0.046082422
81	0x3b891a47	0.0041840407
82	0xbcf52ef0	-0.029929608
83	0x3ca074c4	0.019586928
84	0xbbdc7c3a	-0.006728676
85	0xbc5140a0	-0.012771755
86	0x3d2290dc	0.03968893
87	0x3d3b5e78	0.04574439
88	0x3d5cda3b	0.05391906
89	0x3cd3a073	0.025833344
90	0x3d21a362	0.039462455
91	0x3c83bafc	0.016080372
92	0x3d1eff9a	0.03881798
93	0x3d0b50c7	0.034012582
94	0xbb81c891	-0.003960677
95	0x3c935302	0.017983917
96	0x3c968292	0.018372808
97	0x3c8af8c0	0.016964316
98	0xbb9b8785	-0.00474638
99	0xbd02e60e	-0.03195768
100	0x3d0cfa9f	0.0344187
101	0xbd2179a7	-0.039422657
102	0xbd020fc5	-0.03175332
103	0xbc081d61	-0.008307786
104	0xbc5f614d	-0.013634038
105	0x3ceb2d43	0.028708106
106	0x3b736825	0.0037140932
107	0xbd0ae311	-0.033907954
108	0x3cfe5f1d	0.031051213
109	0x3c623a37	0.013807825
110	0xbd1fa57f	-0.03897619
111	0x3d2439fd	0.040094364
112	0xbd14c89c	-0.03632413
113	0xbc2c2f9f	-0.010509401
114	0x3d2586f0	0.04041189
115	0x3c9e14b9	0.01929699
116	0x3cedac5c	0.029012851
117	0xbc88e4fa	-0.016710747
118	0xbd3d9cba	-0.046292044
119	0xbcb9d38e	-0.022683885
120	0x3c88c8f0	0.016697377
121	0x3cb56433	0.022142505
122	0x3c0a4333	0.008438873
123	0xbc890325	-0.016725132
124	0x3c87bf3a	0.016570676
125	0x3cbe878c	0.023257993
126	0xbd1a3882	-0.037651546
127	0xbc61f3f1	-0.01379107
128	0xbcf72659	-0.030169653
129	0xbd106c71	-0.035259668
130	0x3c9efb76	0.019407015
131	0x3d063cd2	0.032772847
132	0xbbce78d4	-0.006301025
133	0xbc144c5c	-0.009051409
134	0x3a4c4e7d	0.0007793678
135	0xbd028cab	-0.031872433
136	0x3d0dd047	0.034622457
137	0x3b66fdf9	0.0035246594
138	0x3cf8068c	0.03027656
139	0x3d342401	0.04397965
140	0x3d0fe005	0.03512575
141	0x3ca76d32	0.02043781
142	0xbb06d886	-0.0020575835
143	0xbb620977	-0.0034490505
144	0x3d30cb5a	0.04316268
145	0xbbb4a9c7	-0.005513403
146	0x3d2531d4	0.040330723
147	0xbcea54a4	-0.028604813
148	0xbd0c5ceb	-0.0342683
149	0x3d2d0bb0	0.042247474
150	0x3ce76238	0.028245077
151	0xbd00e48a	-0.03146795
152	0x3c99c6a3	0.018771475
153	0xbcdb3fec	-0.026763879
154	0x3bc2a423	0.005939977
155	0x3b8b4a19	0.0042507765
156	0xbcafb49e	-0.02144843
157	0xba85f6e1	-0.001022067
158	0xbca472f1	-0.02007434
159	0x3cc92bf4	0.024557091
160	0xbcdb4297	-0.026765151
161	0x3d27fc14	0.041011885
162	0xbc6df44a	-0.014523575
163	0x3d2cc5d1	0.04218084
164	0x3d3a7141	0.045518164
165	0x3ca0d37e	0.019632097
166	0x3c9ddf3c	0.019271486
167	0xbceeda89	-0.02915694
168	0x3ba2e8bd	0.004971592
169	0x3cecffa9	0.028930502
170	0xbbc6df6b	-0.006069114
171	0xbbde7a13	-0.0067894547
172	0xbb9e9ae9	-0.004840244
173	0xbba9fdb4	-0.0051877145
174	0xbc09d4a0	-0.00841251
175	0x3ccbeb48	0.024892464
176	0x3c93fbd0	0.01806441
177	0xbc19b644	-0.009381834
178	0xbc5ee721	-0.01360491
179	0xbcab9588	-0.020945325
180	0xbd0507d0	-0.032478154
181	0xbabf8f8e	-0.0014614926
182	0x3b222853	0.0024743273
183	0x3cc83f4d	0.024444247
184	0xbc5fa33c	-0.013649758
185	0x3cbc5525	0.022989819
186	0xbb92917a	-0.0044729086
187	0x3cd1509c	0.025551133
188	0x3d2e74cf	0.042591866
189	0x3cf58d48	0.029974595
190	0x3d2529fb	0.04032324
191	0x3c6819a7	0.014166272
192	0x3b48bfbc	0.003063186
193	0x3cb29be4	0.02180285
194	0xbd14c5c0	-0.0363214
195	0x3d0df7e3	0.03466023
196	0xbc9428b6	-0.018085819
197	0xbd25aedc	-0.040449962
198	0x3ccfe4b2	0.025377605
199	0xbcbc086d	-0.022953236
200	0x3c3d7397	0.011563203
201	0xbc546834	-0.012964297
202	0xbbb2c43b	-0.0054555214
203	0x3b8e76b9	0.004347649
204	0x3d1325c0	0.035924673
205	0xbd0f30aa	-0.03495852
206	0xbc57de2b	-0.013175528
207	0x3cc4eeb1	0.024039598
208	0x3d2dc52f	0.042424377
209	0x3d3e6b5d	0.04648911
210	0xbcf11150	-0.0294272
211	0xbc21ddc6	-0.009879535
212	0xbb36fb2c	-0.0027920706
213	0xbbe644a4	-0.0070272256
214	0x3c499158	0.012302719
215	0x3cdbc6f4	0.026828267
216	0x3bf274f9	0.007399198
217	0x3c90e120	0.017685473
218	0x3d37ab66	0.044841193
219	0xbce64a54	-0.028111614
220	0x3ceb3011	0.028709443
221	0xbc270500	-0.010194063
222	0x3c3fca81	0.011705996
223	0x3d157fad	0.036498714
224	0x3ccaee7e	0.024771925
225	0x3bac8f34	0.0052660946
226	0xbcb10c43	-0.021612292
227	0x3c58a63c	0.013223227
228	0x3b25b418	0.0025284346
229	0x3d3abbbc	0.045589194
230	0x3d1fd4be	0.039021246
231	0xbbd81012	-0.0065937126
232	0x3cf0b9d3	0.029385483
233	0x3c9af5a3	0.018915957
234	0x3c84ff6f	0.016235081
235	0xbc9fd465	-0.019510457
236	0xbc2d6ac4	-0.010584537
237	0x3bf8ca9e	0.007592513
238	0x38266c62	3.9678423e-05
239	0xbd1dcfe0	-0.038528323
240	0x3be91922	0.007113592
241	0x3d11ed4f	0.035626706
242	0xbcdb173e	-0.026744481
243	0x3bb8ea60	0.005643174
244	0xbc16c0cc	-0.00920124
245	0xbccd7436	-0.025079828
246	0xbc1ccb7d	-0.00957
247	0x3cac1be6	0.021009397
248	0xbc999ccb	-0.018751523
249	0xbca8e51b	-0.020617059
250	0xbcad2930	-0.021137804
251	0xbbeaee74	-0.007169539
252	0xbcd3050e	-0.025759246
253	0x3c4e3f8e	0.012588395
254	0x3ca09066	0.019600105
255	0x3c9c406c	0.019073687

bias f4 [64]
0	0x3a2a5976	0.0006498316
1	0xb9812bfa	-0.00024637562
2	0xbd071f04	-0.032988563
3	0xbc1b3a75	-0.009474386
4	0xbcb06e09	-0.021536844
5	0xbc6e6827	-0.014551199
6	0x3c14a045	0.009071414
7	0xbcbb527a	-0.022866476
8	0xbcb657a5	-0.022258589
9	0xbd1f856e	-0.038945608
10	0x3d166875	0.03672071
11	0x3ca66290	0.02031067
12	0xbce9f46f	-0.028558938
13	0x3c456c35	0.012049724
14	0xbce8d9ee	-0.02842423
15	0x3ca2fa8a	0.019894857
16	0x3cc2c651	0.023776205
17	0x3bf2a427	0.0074048224
18	0x3cd3679e	0.025806244
19	0x3d31fd03	0.04345418
20	0xbb668ee9	-0.0035180396
21	0x3cc23131	0.023705097
22	0x3d30e617	0.04318818
23	0xbd102548	-0.035191804
24	0xbcbe89ae	-0.02325901
25	0xbd27f8d7	-0.041008797
26	0xbd3bc0db	-0.04583822
27	0xbd0395c8	-0.032125264
28	0x3ce8b51f	0.028406678
29	0xbd2d0cbe	-0.04224848
30	0x3cb17ca9	0.021665888
31	0xbcfae620	-0.03062731
32	0x3d175a5a	0.0369514
33	0x3d0640ef	0.03277677
34	0x3d0c2182	0.034211643
35	0xbcb6cd04	-0.022314556
36	0xbcbcec18	-0.023061797
37	0xbcf0365a	-0.029322792
38	0x3ce25c1a	0.027631808
39	0xbd0e1dea	-0.034696497
40	0x3cc096c5	0.023509393
41	0xbabe53f8	-0.0014520874
42	0xbb4a1480	-0.0030834973
43	0x3cb85ba2	0.022504631
44	0xbb6dcf83	-0.0036287017
45	0xbcffba2a	-0.0312167
46	0x3ccd96f7	0.0250964
47	0xbd0b161d	-0.033956636
48	0xbc2571b7	-0.0100979125
49	0x3c5695a3	0.0130972
50	0x3d0c6d2e	0.03428381
51	0xbd23a1bb	-0.03994916
52	0xbcfe742c	-0.031061254
53	0x3cfeb5b9	0.031092511
54	0xbc7ccf6b	-0.015430312
55	0x3c760dcd	0.015017939
56	0x3d211e72	0.039335676
57	0x3d0b76be	0.03404879
58	0xba8a381a	-0.0010545284
59	0x3cc2b72d	0.023768986
60	0xbcab4741	-0.020908
61	0xbcbf21fd	-0.023331637
62	0x3cd029d5	0.025410572
63	0xbc2f1c93	-0.010687965

weight f4 [64, 64, 3, 3]
0	0xb9f1fdd6	-0.00046156225
1	0xbc977cdf	-0.01849216
2	0xbc85ec14	-0.016347922
3	0x3d0f6e23	0.035017144
4	0xbd1d733b	-0.03843997
5	0x3c473e66	0.012160873
6	0xba24191c	-0.0006259845
7	0x3cb43c35	0.022001365
8	0xbd0a2e69	-0.033735666
9	0xbd23da80	-0.0400033
10	0xbc447194	-0.01198997
11	0xbd03518a	-0.032060184
12	0x3ca69764	0.02033586
13	0x3c6a9c9b	0.014319564
14	0xbcbab861	-0.022792997
15	0x3c825572	0.015909884
16	0xbd412089	-0.04715017
17	0x3b9eb2a5	0.0048430734
18	0xbd22702a	-0.03965775
19	0xbc36b868	-0.011152364
20	0xbcd50cd9	-0.026007103
21	0xbd1bf944	-0.038079515
22	0xbd233edf	-0.03985488
23	0x3cb19584	0.02167774
24	0xbd17b7dc	-0.037040576
25	0x3a2d889c	0.00066197827
26	0xbc2c8238	-0.010529093
27	0xbd207660	-0.03917539
28	0xbca1db30	-0.019757837
29	0xbbfae430	-0.0076565966
30	0xbc537eec	-0.0129086785
31	0xbcf27747	-0.029597891
32	0xbb929aea	-0.0044740336
33	0x3c282550	0.010262802
34	0x3c31c3cd	0.010849905
35	0x3a565411	0.0008175979
36	0x3cc5ccb1	0.024145456
37	0x3cb7a315	0.02241663
38	0x3cbc213e	0.02296507
39	0x3c1ea539	0.009682947
40	0x3ce3dc01	0.027814867
41	0x3c25ec6a	0.010127166
42	0xbc574e8e	-0.0131412875
43	0x3c663f77	0.014053217
44	0x3c224c18	0.0099058375
45	0x3ceb3826	0.028713297
46	0x3d2153b1	0.039386455
47	0xbc153948	-0.009107895
48	0xbd2e15a6	-0.042501114
49	0xbcf204bb	-0.029543271
50	0xbb5b4c5f	-0.0033462269
51	0xbcc72280	-0.024308443
52	0xbb3f820a	-0.0029221796
53	0x3bb31423	0.005465047
54	0xbcd26c1e	-0.02568632
55	0x3c85a467	0.016313745
56	0xbc14674b	-0.00905783
57	0x3c81df45	0.015853534
58	0xbce967df	-0.028491912
59	0xbcb15bd8	-0.02165024
60	0x3c3906e1	0.011293144
61	0x3ba60d22	0.0050674835
62	0x3d12c154	0.035828903
63	0x3b839484	0.004015507
64	0x3b574fa0	0.0032853857
65	0xbc22a3f3	-0.009926784
66	0x3d0cc4c5	0.03436734
67	0xbb432372	-0.0029775766
68	0xbcffe23b	-0.031235805
69	0x3c4b1181	0.01239431
70	0xbd14ad0a	-0.036297835
71	0xbcdf8468	-0.027284816
72	0x3c902c8c	0.017599367
73	0x3c2d805e	0.010589687
74	0x3cdc6df7	0.026907904
75	0x3c963973	0.01833794
76	0x3cd277ec	0.025691949
77	0xbc525a54	-0.012838919
78	0xbcfc8e5e	-0.030829605
79	0x3c46fd2e	0.012145324
80	0xbbd6d05a	-0.006555599
81	0xbcca3277	-0.024682267
82	0x3b9f2c9e	0.0048576137
83	0x3c5578fa	0.013029331
84	0x3ce31b95	0.027723113
85	0xbc4bfb77	-0.012450091
86	0x3c97263d	0.01845085
87	0x3d08146b	0.033222597
88	0x3cd21bca	0.025648016
89	0x3ced2104	0.028946407
90	0xbc2c6b9d	-0.010523704
91	0x3ba8aed5	0.0051477947
92	0x3cd8cd81	0.02646518
93	0xbbe53cda	-0.0069957795
94	0x3c8fd7b5	0.017558912
95	0x3c118164	0.008880947
96	0xbbe50d4d	-0.006990111
97	0xbcc431bb	-0.023949495
98	0xbceaa223	-0.028641766
99	0x3c4a41a6	0.012344753
100	0x3b95579f	0.0045575644
101	0x3bcaecc8	0.0061927773
102	0xbce5a5ee	-0.028033223
103	0x3c4ba55c	0.0124295615
104	0x3c04b3e7	0.008099533
105	0x3d262d20	0.04057038
106	0xbcecd855	-0.028911749
107	0xbc59872f	-0.013276859
108	0xbcb1e478	-0.021715388
109	0x3d1147e9	0.03546897
110	0xbd266836	-0.040626727
111	0x3d1d49c3	0.038400423
112	0x3b9750de	0.0046177944
113	0xbd2e2664	-0.04251708
114	0x3b8c7e9f	0.0042875553
115	0x3c8c42a3	0.017121619
116	0x3d0390e0	0.032120585
117	0x3d0887bc	0.03333257
118	0xbcce6862	-0.025196258
119	0x3cacab8d	0.021077896
120	0xbaa6d350	-0.0012727771
121	0xbd0c7663	-0.03429259
122	0x3d048fb5	0.032363612
123	0xbcb7a43b	-0.022417178
124	0x3d1ca0cf	0.038239297
125	0x3ce0bbc3	0.027433282
126	0x3cce213c	0.025162332
127	0x3cfe220f	0.0310221
128	0xbcb4893c	-0.022038095
129	0x3d02c5e3	0.031927
130	0x3cc13eaa	0.02358945
131	0x3d0b5926	0.034020565
132	0xbce24ae5	-0.027623603
133	0x3cfbc867	0.030735208
134	0x3a6919bc	0.00088920793
135	0xbcf97d51	-0.030455263
136	0xbd04de90	-0.032438815
137	0xbc322926	-0.010874068
138	0xbcdbb7df	-0.026821075
139	0x3a53272e	0.00080548495
140	0xbd146223	-0.036226403
141	0xbcab058a	-0.020876665
142	0x3cd32e8b	0.02577903
143	0xbd008a50	-0.031381905
144	0xbc6c6cc4	-0.014430229
145	0xbbdbf393	-0.006712386
146	0xbc520963	-0.012819621
147	0xbd3f7430	-0.046741664
148	0x3bea7759	0.0071553406
149	0x3c84fbd2	0.016233359
150	0x3cf72025	0.030166695
151	0xbcd230fb	-0.025658121
152	0x3c40bf79	0.011764401
153	0x3cfcedf5	0.030875186
154	0x3c02e4c7	0.007989115
155	0xbc218f10	-0.009860769
156	0xbb3793d5	-0.0028011699
157	0xbad5f6c4	-0.0016324152
158	0xbd2e8ed0	-0.042616665
159	0xbb8549c9	-0.0040676338
160	0xbb0eacee	-0.0021770555
161	0xbd31bbca	-0.04339198
162	0xbbaed7cd	-0.005335784
163	0x3b5f123a	0.0034037963
164	0x3d0f0a63	0.034922015
165	0xbcc5493d	-0.024082774
166	0x3c88185e	0.016613182
167	0xbcd806d2	-0.02637044
168	0x3afb1b47	0.001915791
169	0xbbd89f62	-0.006610797
170	0x3c237d71	0.009978638
171	0x3cd79f01	0.026320936
172	0x3d27349e	0.040821664
173	0xbc8042af	-0.015656797
174	0xbcc808da	-0.024418283
175	0x3d208af6	0.039195023
176	0x3caee471	0.021349164
177	0x3d20ee25	0.039289612
178	0x3c912489	0.017717617
179	0xbd1e47c9	-0.03864268
180	0x3c16df54	0.009208519
181	0xbc11727f	-0.008877396
182	0xbcab545d	-0.020914251
183	0x3cd006fc	0.025393955
184	0x3b8727c2	0.0041246125
185	0x399abffe	0.00029516214
186	0xbccb8bdb	-0.024846962
187	0xbcd868c9	-0.026417153
188	0x3d002040	0.031280756
189	0x3ca663b2	0.02031121
190	0x3c230a45	0.009951179
191	0x3ced70b9	0.028984414
192	0x3bba1102	0.005678297
193	0x3cd57a46	0.026059281
194	0x3b620e89	0.0034493527
195	0x3d10e5af	0.035375293
196	0xbc624be9	-0.013812044
197	0x3cc29d6d	0.023756707
198	0xbbbb74ab	-0.005720695
199	0x3c7cf91b	0.015440251
200	0xbd2fc032	-0.0429079
201	0x3cb7b0e2	0.022423211
202	0xbc452004	-0.012031559
203	0xbd04d4b8	-0.032429427
204	0x3d1be8ba	0.038063742
205	0xbd22953e	-0.03969311
206	0x3d052852	0.032509156
207	0x3c7b12a2	0.015324267
208	0xbb3a3c91	-0.0028417448
209	0x3ceb15cd	0.028696919
210	0xbce7714d	-0.028252268
211	0x3b29e4f3	0.0025923818
212	0xbd01ffe4	-0.031738177
213	0xbd0b516c	-0.034013197
214	0x3d012de4	0.031537905
215	0x3c4244f5	0.011857261
216	0x39da8e8e	0.00041686412
217	0x3cf8aca4	0.030355759
218	0xbca37b1c	-0.019956164
219	0x3b3e78c7	0.0029063688
220	0x3d0f423f	0.034975287
221	0xbd3718d7	-0.044701423
222	0xbcb6b94a	-0.02230515
223	0x3ac9f285	0.001540736
224	0x3cf987bf	0.030460237
225	0x3c45f101	0.012081386
226	0x3d1cf69a	0.038321115
227	0x3c5da8d8	0.013529025
228	0x3cc65a98	0.02421312
229	0x3baef1a8	0.0053388663
230	0xbc0448ce	-0.008073999
231	0x3d133ce4	0.03594674
232	0x3ca093c7	0.019601716
233	0xbbfbdbf3	-0.007686132
234	0x3d080b04	0.03321363
235	0xbd168542	-0.03674818
236	0x3c3e38a4	0.011610184
237	0x3c7f4047	0.01557929
238	0x3d151f35	0.036406714
239	0x3cbd9b98	0.023145482
240	0x3d11d59d	0.035604108
241	0x3cc075e8	0.023493722
242	0xbbd73ebf	-0.006568759
243	0x3c8c4627	0.017123295
244	0xbb3ce579	-0.00288233
245	0x3bde6162	0.0067865113
246	0x3cabffa8	0.02099593
247	0x3bac4e0c	0.0052583274
248	0x3d17ac84	0.037029758
249	0xbbb91ed7	-0.0056494283
250	0x3c918180	0.017761946
251	0x3cdb606e	0.02677938
252	0xbd303c83	-0.04302646
253	0x3ce1c2c3	0.02755869
254	0xbc974ba7	-0.018468691
255	0x3bb7a3d3	0.005604246

bias f4 [64]
0	0x3ccb0580	0.024782896
1	0x3ccc7e00	0.024962425
2	0xbd1b4537	-0.037907805
3	0x3c1c3b2c	0.009535592
4	0xbd00ccca	-0.031445302
5	0x3cd40806	0.025882732
6	0xbcaa5291	-0.020791324
7	0xbcdd74d4	-0.027033247
8	0x3c24b1d1	0.01005216
9	0xbc51a4a5	-0.012795602
10	0xbb430083	-0.0029754944
11	0x3b82916b	0.0039846203
12	0x3b106957	0.0022035444
13	0xbd107374	-0.035266355
14	0x3ca8a2cc	0.02058544
15	0xbc62b677	-0.013837448
16	0x3c2beb79	0.010493153
17	0xbc3dd2ec	-0.011585932
18	0x3d30d4cd	0.043171693
19	0xbc81d399	-0.015847968
20	0x3c3edd3c	0.011649426
21	0xbc38cbbe	-0.011279045
22	0xbccb0d6d	-0.024786675
23	0x3c9a1c6a	0.018812377
24	0x3d4181f4	0.047243074
25	0x3cfa2bc3	0.030538445
26	0x3cc1447d	0.023592228
27	0x3cc34d60	0.023840606
28	0xbcba73b1	-0.022760244
29	0x3ce27815	0.02764515
30	0xbc5bd2de	-0.013416974
31	0x3ca0dd80	0.01963687
32	0xbbc74f1f	-0.00608243
33	0xbc920069	-0.017822461
34	0xbcfca6c8	-0.030841246
35	0xbd104c2c	-0.035228893
36	0x3ce62637	0.028094394
37	0x3d39e23f	0.04538178
38	0x3d0eaf98	0.034835428
39	0xbcb33204	-0.021874435
40	0xbc45bc19	-0.012068772
41	0xbc9f7268	-0.019463733
42	0x3c2bab37	0.0104778325
43	0xbd1925d8	-0.037389606
44	0xba6468dc	-0.0008713135
45	0x3bf8e3a8	0.007595498
46	0xbc56da8a	-0.013113627
47	0xbcea3142	-0.028587941
48	0xbca69e58	-0.020339176
49	0xbd018f5c	-0.03163086
50	0xbcaee81a	-0.021350909
51	0x3cd8a093	0.026443755
52	0x3cc3543f	0.023843883
53	0xbcc0cf30	-0.023536295
54	0xbcdf8aa9	-0.027287798
55	0x3d21ce9f	0.03950369
56	0x3b469956	0.0030303798
57	0xbc857648	-0.016291752
58	0xbc3bd454	-0.011464197
59	0xbafbab70	-0.0019200873
60	0x3cca67e1	0.024707736
61	0xbd1fd351	-0.039019886
62	0xbca37eff	-0.019958017
63	0x3c8c0d82	0.017096285

weight f4 [64, 64, 3, 3]
0	0x3c8c2ec9	0.017112153
1	0xba7fc623	-0.00097570027
2	0xbc2531ef	-0.010082706
3	0xbd104a34	-0.035227016
4	0xbcd1028f	-0.025513915
5	0x3bb3bed2	0.005485394
6	0x3cd69730	0.026195139
7	0x3c005dcc	0.007834863
8	0xbd1a7815	-0.037712175
9	0x3cbc0145	0.022949824
10	0x3b086dbd	0.0020817362
11	0x3c3faac6	0.01169843
12	0xbc5e799d	-0.0135788
13	0xbcc84a18	-0.024449393
14	0xbcea2746	-0.02858318
15	0x3c05182b	0.008123438
16	0x3cd4d36a	0.025979716
17	0xbc1a0311	-0.009400145
18	0x3d216fe1	0.039413337
19	0xbc573298	-0.013134621
20	0x3bd6d804	0.006556513
21	0x3cf9b8c5	0.030483613
22	0xbc1505b2	-0.009095596
23	0xbd1f4728	-0.03888622
24	0xb90a4dfa	-0.00013189754
25	0xbc0a3b88	-0.008437045
26	0xbc109a37	-0.00882583
27	0x3b3864f7	0.0028136352
28	0xbce7785f	-0.02825564
29	0x3c34a76d	0.011026246
30	0x3c617b6e	0.013762338
31	0x3cb11ed2	0.021621142
32	0xbc6c0146	-0.0144046005
33	0x3cdfe905	0.027332792
34	0xbccd9085	-0.025093326
35	0x3ce50892	0.027958188
36	0x3a81c8b4	0.0009901733
37	0x3cfc9aa4	0.030835457
38	0xbd2de92f	-0.04245871
39	0x3b9cc5d5	0.0047843256
40	0x3b13a210	0.0022527017
41	0x3d227340	0.039660692
42	0x3d403e02	0.046934135
43	0x3d2e68cd	0.042580415
44	0xbbff8491	-0.0077977856
45	0xbc090c32	-0.008364724
46	0x3ccaf7aa	0.024776299
47	0x3cc7a25a	0.024369407
48	0x3d08a89e	0.03336393
49	0xbc682a62	-0.014170261
50	0x3cbc67e1	0.022998752
51	0xbcf31e37	-0.029677493
52	0x3d084dcf	0.03327733
53	0x3bc70ec6	0.006074759
54	0x3bda75a2	0.006666855
55	0xbcd2b3d4	-0.025720514
56	0x3cb1775c	0.02166336
57	0x3bf1b9fb	0.007376907
58	0x3bad7d0e	0.0052944487
59	0xbcd6c6b7	-0.026217801
60	0xbc885381	-0.01664138
61	0xb9b4637c	-0.00034406397
62	0xbba04a6d	-0.0048916847
63	0x3cd3e4d4	0.02586595
64	0xbb7b11f1	-0.0038310254
65	0x397dc04d	0.00024199598
66	0x3ce416f7	0.027842982
67	0x3d33f124	0.04393114
68	0x3cd397d0	0.025829226
69	0xbb795112	-0.0038042706
70	0x3ca0112c	0.019539438
71	0xbd03d930	-0.032189548
72	0x3d01032f	0.031497177
73	0xbcce96d9	-0.025218414
74	0x3d1b281f	0.03788006
75	0x3c68de1d	0.014213112
76	0xbd01d9cc	-0.031701848
77	0x3d015b5c	0.031581268
78	0x3c0f12b7	0.008732489
79	0x3c360703	0.01111007
80	0x3c1a432a	0.009415427
81	0xbc9e5d80	-0.019331694
82	0x3d23f278	0.040026158
83	0x3bc846d6	0.00611196
84	0xbc4d7ed8	-0.012542449
85	0x3bd884b4	0.0066076163
86	0xbd04da9c	-0.032435045
87	0xbd1a5875	-0.037682015
88	0xbd349444	-0.04408671
89	0x3c810eae	0.01575407
90	0xbc9cdcbc	-0.019148223
91	0xbaefad5c	-0.0018285918
92	0x3b3371b1	0.0027380998
93	0x3cc6adea	0.02425285
94	0xbc7240ed	-0.014785987
95	0x3ccfb783	0.02535606
96	0x3c8a2e2b	0.016867718
97	0xbd0286be	-0.03186678
98	0xbc1aa760	-0.009439319
99	0x3ce31d82	0.027724031
100	0x3ce30f1d	0.027717168
101	0x3d1c0954	0.038094833
102	0x3cef1e2a	0.029189188
103	0x3ba750e9	0.005106081
104	0x3c3f418f	0.011673345
105	0xbb972c86	-0.004613462
106	0x3cb12d60	0.021628082
107	0xbc8b8cfb	-0.017034998
108	0x3d31e106	0.04342749
109	0xbc810cf1	-0.015753241
110	0x3d0c1ddf	0.034208175
111	0xbcdeb768	-0.027187064
112	0xbc048082	-0.008087279
113	0x3ceaefd0	0.028678805
114	0x3d15dfce	0.03659039
115	0x3ca81181	0.020516159
116	0xbd1286e5	-0.035773177
117	0xbd236690	-0.039892733
118	0xbd031208	-0.031999618
119	0x3ac66b1d	0.0015138123
120	0xbd0464c0	-0.032322645
121	0xbcb3c99c	-0.02194672
122	0xbba4f3fc	-0.005033968
123	0xbc1224c0	-0.008919895
124	0xbab1bc47	-0.0013560139
125	0x3b8ea27c	0.0043528657
126	0xbc5b0a0b	-0.013369094
127	0xbceb1879	-0.028698193
128	0x3cc9e561	0.02464551
129	0x3b282487	0.0025656538
130	0xbcb877d2	-0.022518072
131	0xbd2f1a79	-0.042749856
132	0x3d27c303	0.040957462
133	0x3c9cc656	0.019137543
134	0xbcf07ace	-0.029355433
135	0xbcc0ac6c	-0.023519717
136	0x3d0baa81	0.034098152
137	0x3b06161d	0.0020459958
138	0xbd4a567f	-0.049398895
139	0xbc88c1f9	-0.016694056
140	0xbce1af24	-0.027549334
141	0xbcaa9b97	-0.020826144
142	0x3bcaea5d	0.006192489
143	0x3c313a93	0.010817188
144	0x3ccde478	0.025133356
145	0x3c8f1143	0.017464286
146	0xbd2aa41c	-0.041660413
147	0xbcc8d39d	-0.024514968
148	0x3cecb61f	0.028895436
149	0x3cbbf77b	0.022945156
150	0x3cb6fedd	0.022338325
151	0xbca74372	-0.020417903
152	0xbc469536	-0.012120536
153	0xbcd352c7	-0.025796307
154	0xbcd66bdc	-0.026174478
155	0x3cc32fc4	0.023826487
156	0xbd2fa816	-0.04288491
157	0xbcc11865	-0.023571203
158	0x3d06b068	0.032883078
159	0x3c5b97c7	0.013402886
160	0x3d112465	0.0354351
161	0x3c2982af	0.010346099
162	0xbc0800cb	-0.00830097
163	0xbae5a852	-0.0017521477
164	0x3cb820b5	0.022476533
165	0xbd322671	-0.04349369
166	0x3cf56160	0.029953659
167	0x3b5cc0c2	0.0033684229
168	0xbcf59ada	-0.029981066
169	0x3ca9abfc	0.020711891
170	0xbbab343e	-0.0052247336
171	0xbd14bd11	-0.03631312
172	0xbc8661b7	-0.016404016
173	0x3c11cfcb	0.008899639
174	0x3ccc7686	0.02495886
175	0x3cb82421	0.022478165
176	0xbd0d6692	-0.034521647
177	0xbc603979	-0.013685578
178	0xbc11e504	-0.008904699
179	0x3c81f021	0.015861573
180	0xbd09dc89	-0.033657584
181	0x3d17a1df	0.037019607
182	0x3d370300	0.044680595
183	0xbd2db511	-0.042409007
184	0x3ba0edd6	0.0049111648
185	0x3b132c71	0.002245691
186	0xbc0222cf	-0.007942869
187	0x3cfe1ee4	0.03102059
188	0x3c174211	0.00923206
189	0x3cf0450b	0.029329797
190	0xbc22faa4	-0.009947453
191	0x3ca74218	0.020417258
192	0xbaeca0ff	-0.0018053352
193	0x3cb6e305	0.022325048
194	0x3ca02134	0.019547082
195	0xbd01318c	-0.031541392
196	0x3b832c06	0.0040030507
197	0x3b6bd998	0.003598785
198	0x3ca0659e	0.019579705
199	0xbca9a16d	-0.020706857
200	0x3d104591	0.035222594
201	0x3be92937	0.007115509
202	0xbd07e550	-0.033177674
203	0x3bcedb72	0.006312781
204	0xbccf15b5	-0.025278905
205	0xbc1d441e	-0.00959876
206	0x3d1a1d28	0.03762546
207	0x3d14b3cd	0.036304284
208	0x3d0ee011	0.034881655
209	0x3ade90c0	0.0016980395
210	0xbc83299f	-0.016011057
211	0x3c75c385	0.015000229
212	0x3c952656	0.018206757
213	0xbc9986ff	-0.018741129
214	0xbcca8f9b	-0.02472668
215	0xbc9f7ebe	-0.019469615
216	0xba445114	-0.0007488888
217	0xbd10fff4	-0.035400346
218	0x3b8d42fd	0.004310964
219	0x3ce0723c	0.027398221
220	0xbd0b61d4	-0.034028843
221	0xbc60aa6f	-0.01371251
222	0x3c69522f	0.0142407855
223	0x3c16881d	0.009187725
224	0xbcd097c2	-0.025462989
225	0x3ca1c8ee	0.019749131
226	0xbc8b46bb	-0.0170015
227	0x3cf931e7	0.030419303
228	0xbd17dd8e	-0.037076525
229	0x3d0914d9	0.033467147
230	0xbcfd7ec0	-0.030944228
231	0x3d2775d7	0.040883865
232	0x3d281115	0.041031916
233	0x3c2f3db4	0.0106958635
234	0xba6c2624	-0.0009008369
235	0xbc1f68a3	-0.009729537
236	0x3c44dc5e	0.01201543
237	0xbca2acb0	-0.019857734
238	0x3cefe5c3	0.029284364
239	0xbc9d3691	-0.019191058
240	0x3ce20975	0.0275924
241	0x3cd49256	0.025948685
242	0x3c1a3a87	0.009413368
243	0x3c683313	0.014172333
244	0x3c97a382	0.018510584
245	0x3d0462e7	0.032320883
246	0xbcef1bec	-0.029188119
247	0x3a5f3427	0.0008514546
248	0xbbe7bac1	-0.0070718233
249	0x3c34e06d	0.011039835
250	0x3cc0cc0f	0.023534803
251	0x3c11ceff	0.008899449
252	0x3c932cf9	0.01796578
253	0x3ce7f702	0.028316025
254	0xbcf47578	-0.02984117
255	0x3c81e827	0.01585777

bias f4 [64]
0	0xbcba052d	-0.022707546
1	0x3c3eb98a	0.011640916
2	0xbcde7a48	-0.027157918
3	0x3d501d9f	0.0508095
4	0xbcd4589e	-0.025921162
5	0x3c9816ca	0.018565554
6	0xbc9d907b	-0.019233933
7	0xbcf5f211	-0.030022653
8	0xbc84b581	-0.016199829
9	0x3cb52422	0.022111956
10	0x3cc81c43	0.024427539
11	0x3c301df8	0.010749333
12	0xb8844398	-6.306841e-05
13	0xbc2d44d0	-0.010575488
14	0xbca65e2d	-0.020308578
15	0xbbce8112	-0.0063020075
16	0xbc8f8321	-0.017518582
17	0x3d0b90e7	0.034073737
18	0x3d27992a	0.040917553
19	0x3c92d2a7	0.017922712
20	0xbcf64d43	-0.030066138
21	0x3c390ca1	0.011294515
22	0xbce980d9	-0.028503822
23	0xbcd59c7d	-0.026075596
24	0x3d54f9f9	0.051996205
25	0xbd23007a	-0.039795376
26	0xbc0ed8fb	-0.008718724
27	0xbd054b91	-0.03254277
28	0xbd2bb59d	-0.041921247
29	0x3c6fe478	0.014641874
30	0xbcbc9083	-0.023018127
31	0x3d00fdbb	0.031491976
32	0x3d383547	0.044972684
33	0x3d519c11	0.051174227
34	0x3c9f7032	0.019462679
35	0x3d356122	0.044282086
36	0x3cac507d	0.021034474
37	0x3c38b801	0.011274339
38	0x3a866064	0.0010252115
39	0xbc11db92	-0.008902447
40	0xbc0743c4	-0.008255903
41	0x3c186779	0.009302014
42	0x3d027d93	0.03185804
43	0x3cb82b5c	0.022481613
44	0xbcc5da93	-0.024152076
45	0x3cc16394	0.023607053
46	0xbc341d42	-0.010993304
47	0x3bdf3d97	0.006812762
48	0x3bd9f278	0.006651219
49	0xbce165f0	-0.027514428
50	0xbcb491f3	-0.02204225
51	0x3b0f2124	0.0021839822
52	0x3b48491e	0.003056116
53	0xbcbea20f	-0.023270635
54	0xbcace636	-0.021105867
55	0x3d1a406b	0.03765909
56	0xbc8c8c8e	-0.017156865
57	0xbc7c9a77	-0.015417687
58	0x3d3e9a90	0.04653412
59	0x3c91a530	0.017778963
60	0xbb93e37f	-0.0045132036
61	0x3c0dada2	0.008647354
62	0x3ba691f4	0.005083317
63	0x3cec6044	0.028854497

weight f4 [64, 64, 3, 3]
0	0x3c5f0e39	0.013614231
1	0xbc8153bb	-0.015786996
2	0xbb586bc8	-0.0033023227
3	0x3c5fa61c	0.013650443
4	0x3c725bac	0.014792364
5	0x3c6a5501	0.014302493
6	0x3ce49215	0.027901689
7	0xbd0c357f	-0.034230705
8	0x3cf38d79	0.029730545
9	0x3b6eab53	0.0036418035
10	0x3c6724fc	0.014107939
11	0x3b372c4f	0.0027949994
12	0xbd06f08b	-0.032944243
13	0x3c9271d7	0.017876549
14	0x3bb2e176	0.005459006
15	0x3c6e393c	0.014540013
16	0xbc52feb2	-0.012878107
17	0xbc051d5d	-0.0081246765
18	0xbc2a67d3	-0.01040073
19	0xbd3bd76c	-0.04585974
20	0x3c856ae1	0.016286315
21	0x3d08b2b3	0.033373546
22	0x3b8e660c	0.004345661
23	0xbcb317d7	-0.021861954
24	0xbc9f554e	-0.019449856
25	0xba7fe4d5	-0.00097615767
26	0xbbc26898	-0.0059328787
27	0x3d360c57	0.044445362
28	0x3ce5df12	0.02806047
29	0x3d4291d5	0.047502358
30	0x3bda71d4	0.0066664014
31	0x3d155bd6	0.036464535
32	0xbc80a892	-0.01570538
33	0x3d1bfd55	0.038083393
34	0xbcc3af73	-0.023887372
35	0x3c44e8e9	0.012018421
36	0x3c996c12	0.01872829
37	0xbcfc93d5	-0.03083221
38	0xbcb3a283	-0.021928078
39	0x3cb9ce29	0.022681313
40	0x3ceb3849	0.028713362
41	0x3d10efef	0.03538507
42	0x3c23fee9	0.010009506
43	0xbc88f868	-0.016720012
44	0xbd1db80e	-0.038505606
45	0xbcd1e31f	-0.025620995
46	0x3d035e21	0.03207219
47	0x3be8ec8c	0.0071082767
48	0xbcbb3d0a	-0.022856254
49	0xb9c9ba92	-0.00038476713
50	0x3bc759a2	0.006083683
51	0x39b0e6ce	0.000337413
52	0xbcc33c9b	-0.02383261
53	0x3caca270	0.02107355
54	0x3c80d2fe	0.015725609
55	0x3d210dfc	0.039319977
56	0x3ba9bb64	0.0051798094
57	0x3c8e36f4	0.017360188
58	0xbaad6e3b	-0.0013231704
59	0xbc1a751f	-0.009427338
60	0x3c064977	0.008196226
61	0x3d16ddcc	0.036832616
62	0xbc8a0eb4	-0.016852714
63	0x3d240eb7	0.040053096
64	0x3d279409	0.04091266
65	0x3b4e7971	0.003150549
66	0xbcb88b4a	-0.022527356
67	0xbcc66c04	-0.024221428
68	0xbc8c90f7	-0.017158968
69	0xbca0fed8	-0.019652769
70	0x3a5107e0	0.0007973891
71	0x3d21958f	0.03944927
72	0xbd27a2b0	-0.040926635
73	0xbd1e4b1d	-0.038645852
74	0x3bffdbdc	0.0078081917
75	0xbc774a64	-0.01509342
76	0x3aa80d50	0.001282135
77	0xbb8202aa	-0.0039676027
78	0xbcf573e9	-0.029962497
79	0xbd191ae8	-0.037379175
80	0x3b245ad5	0.0025078554
81	0xbcb12c51	-0.021627577
82	0xbc259ab4	-0.010107685
83	0xbcc2a314	-0.023759402
84	0xbd0a14af	-0.03371113
85	0xbc0158e8	-0.007894732
86	0xbd15044b	-0.036381047
87	0x3d21803e	0.039428942
88	0xbc8dacf9	-0.017294394
89	0x3d21842f	0.0394327
90	0x3d26a091	0.04068047
91	0x3c4b81e1	0.012421102
92	0x3c18967d	0.009313223
93	0x3ca79724	0.020457812
94	0xbd0c4a1d	-0.034250367
95	0x3ae89774	0.0017745332
96	0xbc3af5ba	-0.011411125
97	0x3ca8358a	0.020533342
98	0x3c7484d6	0.014924249
99	0xbbcfeaa4	-0.00634511
100	0xbc835333	-0.016030883
101	0x3a340bfa	0.000686824
102	0xbd07d31d	-0.033160318
103	0xbd1274b8	-0.035755843
104	0x3c4a6218	0.012352489
105	0x3c3414dc	0.010991301
106	0xbcd5db99	-0.026105689
107	0xbca9bc28	-0.020719603
108	0x3ba48b66	0.0050215004
109	0x3cddb6b7	0.027064664
110	0xbcc46458	-0.023973629
111	0xbc1a990d	-0.009435904
112	0x3b2c094a	0.0026250654
113	0xbc0fa82f	-0.008768125
114	0xbcedb990	-0.029019147
115	0x3ac2a5ea	0.0014850472
116	0x3d2c0714	0.041998938
117	0xbc902748	-0.017596856
118	0xbc96a613	-0.018389737
119	0x3c9484ec	0.018129788
120	0xbc8106a3	-0.015750235
121	0xbcbd1aa8	-0.023084
122	0xbc921203	-0.017830854
123	0xbccdf1ac	-0.025139652
124	0x3bf02450	0.0073285475
125	0xbbf99762	-0.007616923
126	0xbd4224ca	-0.047398366
127	0xbd128191	-0.035768095
128	0x3c7f546c	0.015584093
129	0x3c75cb04	0.015002016
130	0xbc6cdbe1	-0.01445672
131	0x3ce2917c	0.027657263
132	0xbccd12ae	-0.025033321
133	0xbc165de9	-0.009177663
134	0xbc5d65a4	-0.013513003
135	0x3d0c7c35	0.03429814
136	0x3cd3a0cf	0.025833515
137	0xbcef6aed	-0.02922579
138	0x3d0da885	0.03458454
139	0xbc44e9e4	-0.0120186545
140	0xbc5eb5a1	-0.013593108
141	0xbc91d434	-0.017801382
142	0x3d27e518	0.040989965
143	0xbc8fd2d3	-0.017556584
144	0xbc998de4	-0.018744417
145	0x3cd47547	0.025934828
146	0xbcdb1025	-0.026741097
147	0xbcb05f15	-0.021529714
148	0xbd3864aa	-0.045017876
149	0xbcda9881	-0.026684048
150	0xbd081684	-0.033224598
151	0xbbcb89d2	-0.006211498
152	0x3d0f6ad0	0.035013974
153	0x3c99156d	0.018686974
154	0xbd036e3b	-0.032087546
155	0xbcdcd5a6	-0.026957344
156	0x3c7fce7e	0.015613196
157	0xbd223ad7	-0.039606895
158	0x3b003012	0.0019559902
159	0x3c8ee4f4	0.017443158
160	0xbd15b9d4	-0.036554173
161	0x3ca7c559	0.020479845
162	0x3d127229	0.035753403
163	0xbcf04c6d	-0.029333318
164	0x3cf1bd61	0.029509248
165	0xbc59f5e4	-0.013303254
166	0xbbbd1ffd	-0.0057716356
167	0xbd11d145	-0.035599966
168	0xba789226	-0.0009482227
169	0x3d1e1d9e	0.038602464
170	0xbb836c0d	-0.0040106834
171	0xbd12e7d0	-0.035865605
172	0xbd07ca19	-0.03315172
173	0x3c51f1cf	0.012813999
174	0x3b371720	0.0027937368
175	0xbcaf40f1	-0.021393271
176	0xbc8e9d44	-0.017408974
177	0xbd2acba4	-0.041698113
178	0xbc8ca0e2	-0.017166559
179	0x3cfc3592	0.030787263
180	0x3cc1930c	0.023629688
181	0x3cd4faac	0.025998436
182	0xbbe00369	-0.006836344
183	0x3d2a1acd	0.041529465
184	0xbca583d4	-0.020204462
185	0xbd037d33	-0.03210182
186	0x3d1a688a	0.037697352
187	0x3d226f6e	0.03965705
188	0x3ced7d41	0.02899039
189	0x3d11ee8d	0.03562789
190	0x3ced8a05	0.028996477
191	0x3ce62ab4	0.028096534
192	0x3cb0013e	0.021484967
193	0x3a079490	0.0005171979
194	0x3d0e9d04	0.03481771
195	0xba02ec69	-0.00049943343
196	0x3cd87a74	0.026425578
197	0x3d21b507	0.03947928
198	0x3ae33c70	0.0017336737
199	0xbcf6b7db	-0.030116966
200	0x3d147933	0.036248397
201	0x3d160230	0.03662318
202	0x3c8513b2	0.016244743
203	0x3ca94494	0.020662583
204	0x3d1aa18b	0.037751716
205	0xbc9c9a7d	-0.019116635
206	0x3c4f6bda	0.012659991
207	0x3cdea8cf	0.027180104
208	0x3ca1ae0e	0.019736316
209	0xbd027b50	-0.03185588
210	0x3c91e27b	0.01780819
211	0xbccce5c9	-0.025011914
212	0xbb6df31c	-0.0036308235
213	0x3cc6686f	0.02421972
214	0xb596ac80	-1.1226075e-06
215	0xbca8fe8d	-0.020629192
216	0x3c93acfc	0.018026821
217	0xbb62a56b	-0.003458346
218	0xbbb3e405	-0.0054898285
219	0xbb5cb4b3	-0.003367704
220	0x3c262427	0.010140455
221	0xbd2ee96c	-0.042703077
222	0xbbe896ee	-0.0070980703
223	0x3cac96f1	0.021068068
224	0xbc8b3c17	-0.016996427
225	0x3c319dfa	0.010840887
226	0x3a9ab95c	0.0011804509
227	0x3bad986d	0.0052977116
228	0xbd0dc329	-0.034609947
229	0x3d1a7a41	0.037714247
230	0xbb31f0d7	-0.0027151608
231	0x3ce14687	0.02749945
232	0xbce5fa21	-0.028073372
233	0xbcaeca2d	-0.02133664
234	0xbd07d497	-0.033161726
235	0xbcd27c8d	-0.025694156
236	0xbd078dde	-0.03309428
237	0xbc9078d6	-0.017635744
238	0xbbde3eb0	-0.0067823753
239	0x3c12dc2a	0.008963624
240	0x3c82a03a	0.015945543
241	0x3c551d6b	0.013007502
242	0x3cdcaf89	0.02693917
243	0x3c90b6b6	0.017665248
244	0x3d037f35	0.032103736
245	0x3d16cc8c	0.036816165
246	0x3b32e39d	0.0027296313
247	0xbcff2996	-0.03114776
248	0xbc8b839c	-0.01703053
249	0x3cd9fd47	0.02661003
250	0x3c9e0b7c	0.019292586
251	0xbca4ac2c	-0.02010163
252	0xbd183d6e	-0.03716796
253	0xbc89152e	-0.016733732
254	0xbce234ae	-0.02761301
255	0x3cc2c7e0	0.023776948
