ColourUclean/'fish'_G.pt (torch_old, 450078 bytes, 12 tensors)

weight f4 [32, 3, 3, 3]
0	0xbe62cd85	-0.22148712
1	0xbe887285	-0.2664987
2	0xbdac07a7	-0.08399897
3	0x3dce0ec9	0.10061414
4	0xbebb5f89	-0.36596325
5	0xbe4e6712	-0.20156506
6	0xbbd258e2	-0.006419287
7	0xbe1d497c	-0.15360063
8	0xbebb0278	-0.3652532
9	0xbe04efa6	-0.12982044
10	0x3d1912b1	0.03737134
11	0x3d3b76a7	0.045767453
12	0xbe71416e	-0.23560116
13	0xbd9f10a3	-0.07766845
14	0xbd6710ac	-0.056412384
15	0xbdd404ff	-0.103525154
16	0xbecef50d	-0.40421334
17	0xbe4dc407	-0.2009431
18	0xbd8462e2	-0.06464173
19	0xbd5a0e84	-0.0532365
20	0xbd905f09	-0.070493765
21	0x3ddb7fce	0.10717736
22	0x3e680cdb	0.22661154
23	0x3c8d8864	0.01727695
24	0x3e461644	0.19344431
25	0xbd8e3ce8	-0.06945211
26	0x3e7d17d8	0.24716127
27	0xbf04f85b	-0.5194146
28	0xbeb3dcc3	-0.35129365
29	0xbea0dc62	-0.3141814
30	0xbec2b6f8	-0.3803022
31	0xbf26562f	-0.64975256
32	0xbe9d82e3	-0.3076392
33	0xbdd77ad7	-0.10521477
34	0xbed46448	-0.4148276
35	0xbe25f0a3	-0.16205077
36	0xbe5ba32b	-0.21448962
37	0xbe786692	-0.24257877
38	0xbda26029	-0.07928497
39	0xbdb6837a	-0.08911796
40	0x3ecba5b8	0.3977487
41	0x3ed1bed6	0.4096591
42	0x3e8ae271	0.27125886
43	0x3df5977e	0.119917855
44	0x3a3c0b65	0.0007173329
45	0x3caeddc0	0.021345973
46	0x3d495a49	0.04915837
47	0xbe79e61b	-0.24404185
48	0xbdf2aba9	-0.11849148
49	0x3eac6812	0.3367315
50	0x3dfc60ef	0.12323176
51	0xbb42a240	-0.002969876
52	0x3eb2adf3	0.34898338
53	0x3e414b9c	0.18876499
54	0xbaeb0cb1	-0.001793286
55	0x3d8e055d	0.06934617
56	0xbdfa1b1f	-0.12212204
57	0x3dbd750e	0.09250842
58	0xbcfc5f4b	-0.030807158
59	0xbc945f27	-0.018111778
60	0xbd797177	-0.060899224
61	0xbe8a9f2c	-0.27074564
62	0x3e6983ef	0.22804235
63	0xbdfcee6c	-0.12350163
64	0xbf2cb8e7	-0.6746964
65	0xbf15d814	-0.58532834
66	0xbf1d04db	-0.61335534
67	0xbf057981	-0.52138525
68	0xbf0997dc	-0.53747344
69	0xbf37eee4	-0.71848893
70	0xbf27f566	-0.65608823
71	0xbf1610de	-0.5861949
72	0xbe24394c	-0.16037482
73	0xbed8d6e3	-0.42351446
74	0xbf5e99b6	-0.86953294
75	0xbeab07de	-0.3340444
76	0xbe4fe0e4	-0.20300633
77	0xbecb5711	-0.39714864
78	0xbe45d283	-0.19318585
79	0xbe32618c	-0.17420024
80	0xbeb7f780	-0.35931015
81	0x3d819ddd	0.06328938
82	0xbe8c64f7	-0.2742078
83	0xbdbe9d25	-0.09307317
84	0xbe3d91bc	-0.18512625
85	0xbe654dde	-0.22392985
86	0xbe1427d8	-0.14468324
87	0xbe3d46f6	-0.184841
88	0xbd572c70	-0.052532613
89	0xbdf0f57c	-0.117655724
90	0xbe609abf	-0.21934031
91	0x3b12c767	0.0022396685
92	0xbc37e096	-0.011222979
93	0x3e02c4cf	0.12770389
94	0xbe0f0f84	-0.13970762
95	0x3d176c8c	0.036968753
96	0xbdbc7855	-0.09202639
97	0x3dc68948	0.09694153
98	0x3da19244	0.07889226
99	0x3d80b3f1	0.06284321
100	0x3d3c3ffb	0.045959454
101	0x3e03ffb9	0.12890519
102	0x3e1cef0b	0.15325563
103	0xbd7fde38	-0.062467784
104	0xbd17b388	-0.03703645
105	0xbb8a9d3a	-0.0042301686
106	0x3cb834a9	0.022486048
107	0xbe4ec7d9	-0.20193423
108	0xbeed6934	-0.46369326
109	0xbee960b9	-0.45581606
110	0xbeee6a50	-0.46565485
111	0xbdcd2df2	-0.10018529
112	0xbe579ca0	-0.21055841
113	0xbdce41f7	-0.100711755
114	0xbe342048	-0.1759044
115	0xbeb54256	-0.35402173
116	0xbe24642a	-0.16053835
117	0x3e696492	0.22792271
118	0x3c900bbf	0.017583726
119	0xbdd7a4d7	-0.105294876
120	0x3cc3fa1a	0.023922969
121	0xbc42c994	-0.01188888
122	0x3dc9d718	0.09855479
123	0x3dcd9614	0.10038391
124	0x3e086053	0.13317995
125	0xbd229669	-0.039694224
126	0x3e0ab230	0.13544536
127	0x3dca117f	0.09866618
128	0x3d3d412b	0.046204727
129	0x3d6ced3c	0.05784343
130	0xbe05d93c	-0.1307115
131	0x3ddbc305	0.107305564
132	0x3da5376e	0.08067213
133	0xbcef457f	-0.029207943
134	0xbd9c8aa4	-0.07643631
135	0x3e6280a6	0.22119388
136	0xbe223ba7	-0.15843068
137	0x3d895754	0.0670611
138	0x3ddd3898	0.1080181
139	0xbe40dcb7	-0.18834196
140	0xbe9c56e7	-0.3053505
141	0x3e8d7319	0.27626875
142	0x3a0279ba	0.0004977245
143	0x3d32ccb3	0.043652248
144	0xbe4bdf06	-0.19909295
145	0x3e5771ac	0.21039456
146	0xbe86d1fe	-0.26332086
147	0x3c49fe9b	0.012328769
148	0x3dffedf4	0.12496558
149	0x3b82fa9a	0.003997159
150	0x3e4e725e	0.20160815
151	0x3e2fb7ed	0.17160006
152	0xbb2b404c	-0.0026130853
153	0xbcd95e7b	-0.02653431
154	0x3e127274	0.14301473
155	0xbd9a9edc	-0.07549831
156	0x3e2653fb	0.16242974
157	0x3d0f85cf	0.03503972
158	0x3e0db8e9	0.13840069
159	0x3e36f584	0.17867094
160	0x3ed6430d	0.4184803
161	0x3c794b43	0.015215698
162	0xbe8f3947	-0.27973387
163	0xbdc0f382	-0.094214454
164	0xbec3bc14	-0.3822943
165	0xbe4427f3	-0.19155864
166	0x3e150c9d	0.14555593
167	0xba9df468	-0.0012050988
168	0xbd1e170f	-0.03859621
169	0x3d88ae67	0.066738896
170	0x3e7a285e	0.24429461
171	0xbd40b1dd	-0.047044624
172	0xbc7d8066	-0.015472507
173	0xbefeca8d	-0.4976391
174	0xbe9aadfc	-0.30210865
175	0xbdf2046d	-0.118172504
176	0x3e109b86	0.14121827
177	0xbe5ad158	-0.21368921
178	0x3e8072ca	0.25087577
179	0xbe2e9a2b	-0.17050998
180	0xbe52147a	-0.20515624
181	0x3e056180	0.13025475
182	0xbeba8981	-0.36433032
183	0xbd809211	-0.0627786
184	0x3d877bf6	0.066154405
185	0x3eac2ebb	0.33629403
186	0x3eee9e53	0.46605167
187	0x3f0f4be6	0.55975187
188	0xbaff1d28	-0.0019463645
189	0xbe50bdd8	-0.2038492
190	0xbec16a58	-0.37776446
191	0xbe01f923	-0.12692694
192	0xbed334f5	-0.4125134
193	0xbecdb4ec	-0.40177095
194	0x3d49584a	0.049156465
195	0xbeecf7ff	-0.46282956
196	0xbdb9453b	-0.09046408
197	0x3e408b52	0.18803146
198	0xbd08d855	-0.033409435
199	0xbc2e2408	-0.010628708
200	0xbde8c5d1	-0.113658555
201	0xbe300ea0	-0.17193079
202	0x3eaf7d5c	0.3427533
203	0x3d9fcac8	0.07802349
204	0xbcff1f04	-0.03114272
205	0xbc45d7e6	-0.0120754
206	0x3cc62e2f	0.024191944
207	0x3e11678b	0.14199655
208	0xbe4f79f7	-0.2026137
209	0xbe8b5010	-0.2720952
210	0xbe953f2c	-0.2914976
211	0x3e43f89f	0.1913781
212	0x3b1b7556	0.002372106
213	0x3e2bef65	0.1679054
214	0x3e81bae9	0.25337914
215	0x3e223c90	0.15843415
216	0xbdd16bfc	-0.102256745
217	0xbd2a65a9	-0.041600857
218	0xbeb01392	-0.3438993
219	0xbef188c4	-0.47174656
220	0xbeba8407	-0.36428854
221	0xbeb7bb7e	-0.35885233
222	0xbe4fb464	-0.20283657
223	0xbe2a36dc	-0.1662249
224	0xbdce1947	-0.10063415
225	0xbe0dbf5e	-0.13842532
226	0xbd546cdc	-0.05186163
227	0xbe94d236	-0.29066628
228	0xbdf15397	-0.117835216
229	0xbd52b78f	-0.051444586
230	0xbda99327	-0.0828002
231	0x3cac102d	0.021003807
232	0xbe1f8394	-0.15577537
233	0x3d02016d	0.03173964
234	0x3d4d425d	0.050112117
235	0x3db0407c	0.086060494
236	0xbc00a2f2	-0.007851349
237	0x3c3fe45d	0.011712161
238	0x3de0e858	0.10981816
239	0x3d28bedc	0.041197643
240	0x3d2ada14	0.04171188
241	0xbe8111bf	-0.25208852
242	0x3d0db526	0.034596585
243	0xbe6b9d68	-0.23009264
244	0x3d2d7387	0.042346504
245	0xbea55dad	-0.3229803
246	0xbecb8ab7	-0.3975427
247	0xbe9b429b	-0.30324253
248	0xbe141418	-0.1446079
249	0xbf0a893f	-0.5411567
250	0xbe666843	-0.2250071
251	0xbe57f8d5	-0.21091016
252	0xbc7c9403	-0.015416148
253	0xbea905de	-0.3301229
254	0x3cf02045	0.029312262
255	0xbddf6bf5	-0.10909263

bias f4 [32]
0	0xbe761bc4	-0.24034029
1	0x3ee55e25	0.4479839
2	0xbc80d729	-0.015727596
3	0xbf07e830	-0.53088665
4	0xbe76a13a	-0.2408494
5	0xbf025bb2	-0.50921166
6	0xbf3692e6	-0.713179
7	0xbe24c63a	-0.16091242
8	0xbe2ab26a	-0.16669622
9	0x3f51aad1	0.8190127
10	0x3f1c0f7c	0.6096113
11	0x3f041c6a	0.51605856
12	0x3d85a137	0.0652489
13	0xbf23af9a	-0.6393982
14	0x3f169fc5	0.5883754
15	0x3f146bdf	0.579771
16	0x3ef77ce6	0.48337477
17	0xbe84162e	-0.25798172
18	0xbf2e09a7	-0.6798348
19	0x3f25406e	0.64551437
20	0x3f224f3f	0.6340217
21	0xbe2562f0	-0.16151023
22	0xbe8e8226	-0.2783367
23	0x3ea5dd86	0.3239557
24	0xbd01f8b8	-0.031731337
25	0xbdda996e	-0.10673796
26	0xbd2430ed	-0.04008572
27	0xbe97d0a8	-0.2965138
28	0xbeb07d6b	-0.34470686
29	0xbf3532ee	-0.7078084
30	0x3ecc6a6b	0.3992494
31	0x3de41594	0.11136928

weight f4 [16, 32, 3, 3]
0	0xbd969787	-0.0735312
1	0xbe02fd7f	-0.12792014
2	0xbcb461fd	-0.02201938
3	0xbd8a6720	-0.06757951
4	0xbdb33b8f	-0.08751594
5	0xbcb48504	-0.022036083
6	0xbd27f47f	-0.041004654
7	0xbdfa8772	-0.122328654
8	0xbd5e7ed6	-0.05432018
9	0xbda4f248	-0.08054024
10	0xbd15fca8	-0.036617905
11	0xbc86433b	-0.01638948
12	0xbd755459	-0.059894893
13	0xbd80d415	-0.062904514
14	0xbc268483	-0.010163429
15	0xbda4a70f	-0.080396764
16	0xbde28770	-0.11060989
17	0xbcfd9a63	-0.030957406
18	0xbc14bfdf	-0.009078949
19	0xbdac2fb2	-0.08407535
20	0xbd219a5e	-0.039453857
21	0xbde6b95f	-0.112658255
22	0xbd9d015f	-0.07666277
23	0xbd3c9629	-0.04604164
24	0xbd990aef	-0.074727885
25	0xbd041291	-0.03224427
26	0x3b4bebaf	0.003111582
27	0xbd92f127	-0.071749024
28	0xbdd4bded	-0.10387788
29	0xbd7a599a	-0.061120607
30	0xbd0ae49f	-0.033909436
31	0xbbd67cf7	-0.0065456587
32	0xbd2f0f31	-0.042739097
33	0x3a5027be	0.00079404924
34	0xbd8adc12	-0.06780256
35	0xbd8ee472	-0.06977166
36	0xbd528537	-0.051396575
37	0xbdb54be6	-0.08852367
38	0xbdb8eeca	-0.090299204
39	0xbb2bea23	-0.0026232086
40	0xbd9f9b62	-0.07793309
41	0x3aa77a17	0.0012777474
42	0xbd7ce705	-0.061743755
43	0xbd42f2ff	-0.04759502
44	0xbd638724	-0.055548802
45	0xbd9a52e3	-0.07535341
46	0xbd9cdfb6	-0.07659857
47	0xbd4f2575	-0.05057283
48	0xbd7b2829	-0.061317597
49	0xbdcae527	-0.099069886
50	0xbd966dee	-0.07345186
51	0xbdde336e	-0.10849653
52	0xbdd7892a	-0.10524209
53	0xbe4afb01	-0.19822313
54	0xbce17417	-0.027521176
55	0x3b9bb9b8	0.004752364
56	0xbdd1fbcc	-0.102531046
57	0xbdd8b40a	-0.10581215
58	0xbdd4195b	-0.10356399
59	0xbc5cbcda	-0.01347276
60	0xbdc796cb	-0.09745558
61	0xbd2544e5	-0.040348906
62	0xbcd360fd	-0.025803084
63	0xba556210	-0.00081399176
64	0xbdf0226c	-0.117253155
65	0xbcb0df6a	-0.021590907
66	0xbdcae066	-0.09906082
67	0xbe0431bd	-0.12909599
68	0xbdc5ba60	-0.09654689
69	0xbcdebd1f	-0.02718979
70	0xbd96dac7	-0.07365947
71	0xbdcf44f6	-0.10120575
72	0xbce567cf	-0.028003601
73	0xbd8570f3	-0.06515684
74	0xbdb2f1ce	-0.08737527
75	0xbcbfed54	-0.023428597
76	0xbd87a5bd	-0.06623409
77	0xbda5b264	-0.08090666
78	0xbd7abeae	-0.061217003
79	0xbc5ab17a	-0.013347978
80	0xbd8afb8e	-0.067862615
81	0xbd0ac353	-0.033877682
82	0xbde7ef2c	-0.11324915
83	0xbd1ab14e	-0.037766747
84	0xbd8834bf	-0.066506855
85	0xbda2d0f9	-0.079500146
86	0xbd074485	-0.03302433
87	0xbd802683	-0.062573455
88	0xbd7f7f2e	-0.062377147
89	0xbbfe1ed7	-0.0077551412
90	0xbdca286e	-0.098709926
91	0xbd2557bc	-0.040366873
92	0xbd0d22d0	-0.034457028
93	0xbcd765bf	-0.026293634
94	0xbce099f7	-0.027417166
95	0xbdd08a97	-0.10182684
96	0xbcc862d9	-0.024461197
97	0xbc638c99	-0.013888502
98	0xbdafdbb0	-0.08586824
99	0xbc940e09	-0.018073099
100	0xbd363be5	-0.044490714
101	0xbdbf0792	-0.09327616
102	0xbce87de4	-0.028380342
103	0xbd8ee930	-0.06978071
104	0xbc3488ee	-0.011018975
105	0xbdacbc0b	-0.08434304
106	0xbcdcaac9	-0.026936905
107	0xbc910eee	-0.017707314
108	0xbc595463	-0.013264748
109	0xb96d4aba	-0.00022629919
110	0xbd0531a8	-0.03251806
111	0xbd28753d	-0.041127432
112	0x3cd28108	0.025696293
113	0xbab0b2fe	-0.0013481078
114	0xbdbf2135	-0.093325056
115	0x3c42bc5e	0.011885731
116	0xbccc31a1	-0.024926009
117	0xbc83753f	-0.016047118
118	0xbd388bbc	-0.045055136
119	0xbcf7ac47	-0.030233515
120	0xbd2a1ad0	-0.041529477
121	0x3b7379af	0.0037151386
122	0xbd95e247	-0.073185496
123	0xbd16d11f	-0.036820527
124	0xbd965919	-0.07341213
125	0xbd0cac00	-0.03434372
126	0xbd74cbc3	-0.059764635
127	0xbd762733	-0.060095977
128	0xbc63a2cf	-0.013893797
129	0xbde1cb63	-0.11025121
130	0xbd318112	-0.04333598
131	0xbb947a1a	-0.004531157
132	0xbc1da5d5	-0.009622057
133	0xbde3dc22	-0.111259714
134	0x3a4a1485	0.0007708746
135	0xbdf3ef24	-0.11910847
136	0xbdf626c5	-0.120191135
137	0xbdc12f57	-0.094328575
138	0xbbd74acc	-0.006570196
139	0xbd18e6d4	-0.03732951
140	0xbdb59cab	-0.08867773
141	0xbd5d5376	-0.054034673
142	0xbd1488b2	-0.036263175
143	0xbdbaa642	-0.091137424
144	0xbc710c22	-0.014712365
145	0xbd914ffb	-0.07095333
146	0x3c097151	0.008388833
147	0xbd9b1079	-0.07571501
148	0xbd966937	-0.07344287
149	0x3bacf2fc	0.0052779894
150	0xbdb4cdfc	-0.08828351
151	0xbd30c2f4	-0.04315467
152	0x3ca2c4dc	0.01986926
153	0xbcf0b74d	-0.02938428
154	0xbdd052b3	-0.101720236
155	0xbde733f5	-0.11289207
156	0xbdbe23de	-0.09284185
157	0xbe043c5a	-0.12913647
158	0xbd3e18fa	-0.04641054
159	0xbd981d60	-0.07427478
160	0xbd3fef7f	-0.04685926
161	0xbd8b671f	-0.06806778
162	0xbb8ac2c0	-0.004234642
163	0xbd1e16af	-0.03859585
164	0xbdc0714e	-0.09396611
165	0xbd6afec5	-0.057371873
166	0xbdb19f4f	-0.08672964
167	0xbd3d77c8	-0.04625681
168	0xbd8cfc4d	-0.0688406
169	0xbccc377b	-0.024928799
170	0xbd95bcb6	-0.073113844
171	0xbbfc4b54	-0.0076994095
172	0xbd7cc8d7	-0.061714973
173	0xbd8c6005	-0.06854252
174	0xbddbb248	-0.10727364
175	0xbbc80af0	-0.0061048195
176	0xbd59b0bb	-0.05314706
177	0xbda81010	-0.08206189
178	0xbdf66f3f	-0.12032937
179	0xbdbc0232	-0.09180106
180	0xbd5b0f64	-0.053481475
181	0xbcda22a1	-0.02662784
182	0xbd3aa34a	-0.04556588
183	0xbd71bbc4	-0.059016958
184	0xbd6adb0e	-0.057337813
185	0xbce4284f	-0.027851252
186	0xbde241b5	-0.11047689
187	0xbe001f87	-0.12512027
188	0xbdecc63b	-0.11561247
189	0xbd57e54d	-0.052708913
190	0xbd25800b	-0.040405314
191	0xbdda9654	-0.10673204
192	0xbdee3a06	-0.11632161
193	0xbe06b6fc	-0.1315574
194	0xbd3cb881	-0.046074394
195	0xbd0d0f9d	-0.034438718
196	0xbdf6720d	-0.12033472
197	0xbdac4c04	-0.08412936
198	0xbccf372c	-0.025294863
199	0xbd816083	-0.06317236
200	0xbbe401a5	-0.006958204
201	0xbddb8be2	-0.1072004
202	0xbd53150c	-0.051533744
203	0xbdddb491	-0.10825456
204	0xbd891b65	-0.06694678
205	0xbdf3375f	-0.118757956
206	0xbdb82604	-0.08991626
207	0xbb52425d	-0.0032083013
208	0xbd9c36e1	-0.07627655
209	0xbd8fac01	-0.07015229
210	0xbce00a70	-0.027348727
211	0xbd9eb6cb	-0.07749709
212	0xbcb23d05	-0.021757612
213	0xbd7f9a2d	-0.062402893
214	0xbdd2be1d	-0.102901675
215	0xba47869f	-0.00076113077
216	0xbc913082	-0.017723326
217	0xbdb60cac	-0.08889136
218	0x3adf45ab	0.0017034312
219	0xbb40dc61	-0.002942823
220	0xbdbe11b8	-0.09280723
221	0xbcdbfe7a	-0.026854742
222	0xbdc15506	-0.09440045
223	0xbc4dbd9d	-0.012557414
224	0xbc38ade4	-0.0112719275
225	0x3c3e84c2	0.011628332
226	0xbd994b46	-0.074850604
227	0xbd246306	-0.0401335
228	0xbd1a02ca	-0.037600316
229	0xbdd202d7	-0.10254448
230	0xbc36b906	-0.011152511
231	0x3bc1f8f6	0.005919571
232	0xbd5414e1	-0.051777724
233	0xbd424d3b	-0.047436934
234	0xbd942b4b	-0.0723482
235	0xbdab35b4	-0.083598524
236	0xbd31ff90	-0.043456614
237	0xbd7a57fb	-0.06111906
238	0xbc28a0ef	-0.010292276
239	0xbde510f7	-0.111848764
240	0xbceffa23	-0.02929408
241	0xbda19e98	-0.078915775
242	0xbd316d6f	-0.043317255
243	0xbc19c5ad	-0.0093855085
244	0xbe15df81	-0.14636041
245	0xbd9762c4	-0.07391885
246	0xbd14bc72	-0.036312528
247	0xbe0cad9c	-0.13738102
248	0xbd70492d	-0.058663536
249	0xbe11ff64	-0.1425758
250	0xbdc652c8	-0.09683758
251	0xbd4416ff	-0.047873493
252	0xbdb89dcd	-0.09014473
253	0xbdf690b4	-0.12039319
254	0xbda9a49b	-0.08283349
255	0xbd03f8a7	-0.032219555

bias f4 [16]
0	0xbde1ab77	-0.110190324
1	0xbedaff4a	-0.42772895
2	0xbd50c702	-0.05097104
3	0x3d924961	0.07142902
4	0xbf18152e	-0.5940732
5	0xbdaf6b6f	-0.08565413
6	0xbe4ddef5	-0.20104583
7	0xbd63cdfa	-0.055616356
8	0xbdb24b9b	-0.08705827
9	0xbe2449a4	-0.16043717
10	0xbded5d6b	-0.11590084
11	0xbdd20619	-0.10255069
12	0xbceab15b	-0.028649023
13	0xbf33d833	-0.7025177
14	0xbde5e0fd	-0.11224554
15	0xbc917784	-0.017757185

weight f4 [64, 16, 7, 7]
0	0x3d9dc869	0.07704241
1	0x3d76340a	0.060108222
2	0x3dd7ebd6	0.10543029
3	0x3db23e3d	0.08703277
4	0x3dfa56c4	0.122235805
5	0x3e037a67	0.12839662
6	0x3d5a677a	0.05332134
7	0x3d9f3e92	0.07775606
8	0x3dbfb66a	0.093609646
9	0x3d8cc617	0.0687372
10	0x3dc48c40	0.09597063
11	0x3ddf66c8	0.10908276
12	0x3de6751e	0.11252807
13	0x3d5225fc	0.051305756
14	0x3d92716c	0.0715054
15	0x3d795874	0.06087537
16	0x3dc34aad	0.09535728
17	0x3e045f3b	0.12926953
18	0x3daa403e	0.083130345
19	0x3dbd13c6	0.09232287
20	0x3d7c22ea	0.061556734
21	0x3dcfffa5	0.10156182
22	0x3d6320d1	0.055451218
23	0x3deb0d8d	0.11477194
24	0x3da46ba0	0.0802834
25	0x3dcc8152	0.099856034
26	0x3e03ca94	0.12870246
27	0x3daccce9	0.08437521
28	0x3d929311	0.07156957
29	0x3d95db9c	0.07317278
30	0x3d35cf74	0.044387296
31	0x3d94bc6d	0.07262502
32	0x3dd80eab	0.10549673
33	0x3da2c0dd	0.07946942
34	0x3db6a372	0.089178935
35	0x3d80fdc7	0.06298404
36	0x3dd43366	0.10361366
37	0x3d92bb4d	0.07164631
38	0x3dca1875	0.09867946
39	0x3d8f7ef3	0.070066355
40	0x3df1760b	0.11790093
41	0x3de1d61b	0.110271655
42	0x3d8c3164	0.06845358
43	0x3d89b98e	0.06724845
44	0x3dc40330	0.095709205
45	0x3d3f91ca	0.046769895
46	0x3dd612e9	0.104528256
47	0x3dde6fcb	0.108611666
48	0x3da089fe	0.0783882
49	0x3f0adc6e	0.542426
50	0xbe2e9ecf	-0.17052768
51	0x3e109b5a	0.14121762
52	0x3e7ff076	0.24994072
53	0x3ed9b60d	0.42521706
54	0x3e457705	0.19283684
55	0xbedab734	-0.42717898
56	0xbf1618ac	-0.58631396
57	0xbf35bedb	-0.7099435
58	0xbea6bbb1	-0.32565072
59	0xbec6ac05	-0.38803115
60	0xbd5fa737	-0.054602828
61	0x3c08b37f	0.008343576
62	0xbe254194	-0.16138297
63	0xbf1a3280	-0.60233307
64	0xbc3d1bac	-0.011542242
65	0x3defb57d	0.11704538
66	0xbeec887b	-0.46197876
67	0xbd04bcc1	-0.032406572
68	0xbe1682a5	-0.14698274
69	0xbea18a75	-0.31550947
70	0x3ebdd442	0.37076002
71	0x3e89d2c9	0.2691863
72	0x3e14ed78	0.14543712
73	0xbcdf4167	-0.027252866
74	0x3e6df71e	0.23238799
75	0xbe9c2699	-0.30498198
76	0x3e00dfda	0.12585393
77	0x3c7f8603	0.015595916
78	0x3eda3ab9	0.42622927
79	0x3dca296d	0.098711826
80	0x3e1ed726	0.1551176
81	0x3f592690	0.84824467
82	0x3f004392	0.50103104
83	0x3ecec20d	0.40382424
84	0x3e9e369e	0.30901045
85	0x3ed87efc	0.4228438
86	0x3dffa29c	0.12482187
87	0x3e66905e	0.22516009
88	0x3e827c69	0.25485542
89	0xbe9d65f3	-0.30741844
90	0x3f075eef	0.5287923
91	0xbf27cd63	-0.6554777
92	0xbe61ed43	-0.22063164
93	0xbdaaddb4	-0.08343068
94	0x3d0d859d	0.03455125
95	0x3e1c2d9f	0.15251778
96	0xbeda38de	-0.4262151
97	0xbf5aa340	-0.8540535
98	0x3d75fc23	0.06005491
99	0x3dca0f68	0.0986622
100	0x3df169b7	0.11787742
101	0x3d79f042	0.061020143
102	0x3d8ea938	0.0696587
103	0x3dd827db	0.10554477
104	0x3dd725da	0.105052665
105	0x3d987bea	0.0744551
106	0x3df41763	0.11918523
107	0x3df98e04	0.121852905
108	0x3db54519	0.0885107
109	0x3dca9c27	0.09893065
110	0x3dbbaf41	0.091642864
111	0x3d7d15d4	0.061788395
112	0x3dbc9dca	0.092097834
113	0x3dc4ab6d	0.096030094
114	0x3def5fa7	0.11688166
115	0x3de923a7	0.11383753
116	0x3df16c7c	0.1178827
117	0x3da10420	0.07862115
118	0x3dc86e78	0.09786695
119	0x3db6ea34	0.089313895
120	0x3df3d246	0.11905341
121	0x3dab3e60	0.083615065
122	0x3da11607	0.078655295
123	0x3dba563d	0.0909848
124	0x3dc4e00a	0.096130446
125	0x3d80d0a1	0.06289793
126	0x3d6473f9	0.055774663
127	0x3dcc08ca	0.09962614
128	0x3db04bd4	0.08608213
129	0x3dd0962f	0.10184895
130	0x3dbb6169	0.09149439
131	0x3dcf2991	0.1011535
132	0x3d8a0d27	0.0674079
133	0x3ddcfe0d	0.10790644
134	0x3d61b2a0	0.05510199
135	0x3d51397e	0.05108022
136	0x3dbfb192	0.09360041
137	0x3db94ea9	0.09048206
138	0x3df61213	0.12015166
139	0x3dc2f143	0.09518673
140	0x3deda7a2	0.11604239
141	0x3de7dc1b	0.11321279
142	0x3d7587bf	0.05994391
143	0x3dc6d5c1	0.09708739
144	0x3d7ca54f	0.061681088
145	0x3d8146f7	0.063123636
146	0x3d9183f1	0.07105244
147	0x3e889ac4	0.26680577
148	0x3d95542b	0.072914444
149	0xbd859cd4	-0.06524053
150	0xbccfc4f0	-0.025362462
151	0x3f77679a	0.9664246
152	0x3d7148f0	0.05890745
153	0xbece61b8	-0.40308928
154	0x3f0a60d7	0.54054016
155	0xbe08c41a	-0.13356057
156	0xbdcf95c0	-0.101359844
157	0xbf6b0cee	-0.91816604
158	0xbe2aebd6	-0.16691527
159	0xbea3c052	-0.31982666
160	0xbf7074ae	-0.9392804
161	0x3dc6d540	0.09708643
162	0xbeb3d07f	-0.35120007
163	0xbe1d4d06	-0.15361413
164	0xbeb13ba2	-0.3461581
165	0xbd8313fe	-0.064002976
166	0xbee382c0	-0.44435692
167	0xbf1b6b30	-0.6071043
168	0x3deb2dcf	0.11483347
169	0xbebb5117	-0.36585304
170	0xbe91a723	-0.28447828
171	0xbf2a5263	-0.6653196
172	0xbf5870e6	-0.8454727
173	0xbece129d	-0.40248576
174	0xbdda9ffb	-0.10675045
175	0x3d37f59a	0.04491196
176	0x3e230392	0.1591933
177	0x3e7d7509	0.24751677
178	0x3dcff299	0.10153694
179	0x3e92602c	0.28588998
180	0xbe937630	-0.28801107
181	0x3ea3073d	0.3184146
182	0x3d415662	0.04720152
183	0x3ebdf4ac	0.37100732
184	0xbecd595a	-0.40107232
185	0x3ccfe5b0	0.025378078
186	0xbe90f988	-0.28315377
187	0xbf265a6b	-0.64981717
188	0xbec2321f	-0.37928864
189	0x3e2953ac	0.16535825
190	0x3db04303	0.086065315
191	0x3eaccbfb	0.33749375
192	0xbf0ee987	-0.55825084
193	0xbd4d4ab0	-0.050120056
194	0x3e870ecd	0.2637848
195	0xbcb2f81b	-0.021846822
196	0xbe2dfae2	-0.16990235
197	0x3f193673	0.5984871
198	0x3f83b2a7	1.0288895
199	0x3ee1a1a3	0.44068632
200	0xbd013158	-0.0315412
201	0x3f2aae9a	0.6667267
202	0xbd02b554	-0.03191121
203	0xbe8514a9	-0.25992325
204	0x3f767e3a	0.96286356
205	0x3e56f1d8	0.20990694
206	0xbd81f914	-0.06346336
207	0xbf02ea05	-0.51138335
208	0xbf94b1fe	-1.1616819
209	0x3d4ce413	0.050022196
210	0x3f26f2a4	0.6521399
211	0xbee9c251	-0.45656064
212	0x3e85fe15	0.26170412
213	0xbed6c807	-0.41949484
214	0xbf0c34e7	-0.5476822
215	0xbf223b63	-0.63371867
216	0xbf68c6c4	-0.9092829
217	0x3eee0489	0.46487835
218	0x3edf1ebf	0.43578145
219	0x3f424bc2	0.7589685
220	0xbe27f6c8	-0.16402733
221	0xbf88a54a	-1.0675442
222	0xbd879b00	-0.06621361
223	0x3e2e5017	0.1702274
224	0x3df92362	0.12164952
225	0xbe9413a5	-0.28921238
226	0xbf096dd1	-0.5368319
227	0xbf206ff3	-0.6267082
228	0xbc7ef1d7	-0.015560589
229	0x3eb45b59	0.35225943
230	0xbe6f1b8c	-0.23350352
231	0x3f4bb9a0	0.79580116
232	0x3ee9108d	0.4552044
233	0x3f0db68d	0.55356675
234	0xbf03b414	-0.5144665
235	0x3e24c06c	0.16089028
236	0x3ed6aa64	0.41926873
237	0xbf26916f	-0.65065664
238	0x3f50cb88	0.81560564
239	0x3ed94862	0.42438036
240	0x3efcc0db	0.49365887
241	0x3f025e95	0.5092557
242	0x3e6ceca6	0.23137149
243	0x3f37b809	0.7176519
244	0x3f0e7e13	0.55661124
245	0x3d5b0c54	0.053478554
246	0x3d37ebe3	0.044902693
247	0x3dbade13	0.091243885
248	0x3d96d824	0.07365444
249	0x3ddfaab8	0.10921234
250	0x3da38dcd	0.07986031
251	0x3dc1af74	0.09457293
252	0x3db3a67e	0.0877199
253	0x3d8cdba0	0.06877828
254	0x3d4a5583	0.049397957
255	0x3d4d2749	0.050086293

bias f4 [64]
0	0xbea3b943	-0.3197728
1	0x3e188a75	0.14896567
2	0xbe53be4d	-0.20678063
3	0xbf0d9755	-0.5530904
4	0x3e4328f0	0.19058585
5	0x3f6bf607	0.9217228
6	0x3db9b7f1	0.09068287
7	0xbe9f23de	-0.31082052
8	0xbe645a45	-0.2230006
9	0x3e273861	0.163301
10	0x3ece1024	0.4024669
11	0xbf724b1b	-0.9464585
12	0x3ebe0deb	0.37119994
13	0xbf16ff87	-0.58983654
14	0x3ed6541e	0.4186105
15	0xbe551c87	-0.20811664
16	0xbf1ce783	-0.6129076
17	0x3e30ab96	0.17252955
18	0xbdb932a5	-0.09042863
19	0x3ef294ea	0.47379237
20	0xbf28d64f	-0.6595201
21	0xbe8050c2	-0.25061613
22	0x3f8bc54b	1.0919584
23	0xbed8fe1a	-0.42381364
24	0x3eca85e2	0.3955527
25	0xbf1d540b	-0.61456364
26	0xbebee40a	-0.37283355
27	0x3e3824f3	0.17982845
28	0x3edbe8cb	0.42951044
29	0xbf0dd1c3	-0.55398196
30	0x3db3c82a	0.08778413
31	0x3eb84f26	0.35997885
32	0x3f132a8b	0.5748679
33	0xbe99a7e2	-0.30010897
34	0xbf12f8e0	-0.57411003
35	0x3e813971	0.25239137
36	0xbd38f85a	-0.04515872
37	0x3f944473	1.1583389
38	0xbe301f69	-0.17199482
39	0x3f2f460f	0.68466276
40	0x3eafd4b8	0.3434198
41	0xbea79898	-0.32733607
42	0x3dccb85e	0.09996103
43	0x3e204951	0.15652968
44	0x3f56375e	0.83678234
45	0x3d88f6b4	0.0668768
46	0x3eb80eb9	0.35948732
47	0xbf2d57d4	-0.6771214
48	0x3f166dff	0.5876159
49	0x3e1ba505	0.15199669
50	0xbf4624f4	-0.77400136
51	0x3eab31f2	0.33436543
52	0x3e10779c	0.14108127
53	0xbe711380	-0.23542595
54	0x3ee21401	0.44155887
55	0x3d69404b	0.05694608
56	0x3dc26536	0.09491961
57	0x3e952953	0.2913309
58	0xbe703f04	-0.23461539
59	0x3f1b4928	0.606585
60	0x3ef536f6	0.47893494
61	0x3ddc056f	0.10743224
62	0x3e90cf1f	0.2828302
63	0x3f0648a9	0.5245462

weight f4 [64, 16, 7, 7]
0	0xbd9d6e76	-0.076870844
1	0xbf33d0ec	-0.70240664
2	0x3e34fde2	0.17674974
3	0xbe9e4f9e	-0.30920118
4	0xbed95971	-0.4245105
5	0xbf0c6f46	-0.5485729
6	0xbed4248b	-0.4143413
7	0xbf2a85df	-0.6661052
8	0xbf264f28	-0.6496453
9	0xbd3a5c12	-0.04549796
10	0xbede7cb4	-0.43454516
11	0xbf5d8c8a	-0.8654257
12	0xbea67901	-0.32514194
13	0xbe8649ef	-0.26228282
14	0xbe871b04	-0.263878
15	0xbe177a2c	-0.14792699
16	0x3dd15ec0	0.1022315
17	0xbdc9587a	-0.09831329
18	0xbf14eff3	-0.58178633
19	0xbee05e1b	-0.43821797
20	0xbf6fccb3	-0.9367172
21	0x3ed2e51b	0.4119042
22	0xbe4c33b2	-0.19941595
23	0x3d4c48f6	0.04987427
24	0xbc6d2489	-0.014474043
25	0xbe3680b5	-0.17822535
26	0xbefbf65f	-0.49211404
27	0xbf2a2b36	-0.66472185
28	0x3eda9c0d	0.42697182
29	0x3c87f6c4	0.01659716
30	0xbdbf2cf2	-0.093347445
31	0xbc6cd90e	-0.014456047
32	0xbf651be7	-0.894957
33	0xbdfa065e	-0.12208246
34	0xbf877a95	-1.0584284
35	0x3e4f30d5	0.20233472
36	0x3e0a3e1a	0.13500252
37	0x3e746000	0.23864746
38	0xbe62e198	-0.2215637
39	0xbe704ed6	-0.23467574
40	0xbe4d2bc4	-0.20036227
41	0xbe673396	-0.22578272
42	0xbe3c9016	-0.1841434
43	0x3d954d9c	0.072901934
44	0x3ce72bc1	0.028219106
45	0x3f0a0c5e	0.5392512
46	0xbe3bbdd5	-0.18334134
47	0xbf06fbd6	-0.5272802
48	0xbf4e1a4f	-0.80508894
49	0x3dcebb8d	0.10094366
50	0xbf06f496	-0.5271696
51	0xbeea00f0	-0.4570384
52	0xbee92498	-0.4553573
53	0xbf0028e5	-0.500624
54	0x3eaba4f4	0.33524287
55	0x3ead82e5	0.33888927
56	0x3f0840e8	0.5322404
57	0x3ef04af4	0.46932185
58	0xbeed5fc0	-0.46362114
59	0xbf8d2057	-1.1025494
60	0xbf6a2140	-0.91456985
61	0xbef55664	-0.47917473
62	0xbf2657fc	-0.64978004
63	0xbcff5849	-0.031170027
64	0xbf59a4ef	-0.85017294
65	0xbf64a792	-0.8931819
66	0xbeb80b83	-0.35946283
67	0xbdfeb526	-0.12436895
68	0xbf3ba966	-0.73305357
69	0xbf2d2182	-0.67629254
70	0xbee7860e	-0.45219463
71	0xbeff2f88	-0.4984095
72	0xbe1d385e	-0.15353534
73	0x3f24296f	0.6412572
74	0x3e984ec7	0.29747602
75	0xbec39a93	-0.38203868
76	0xbd92a760	-0.071608305
77	0xbe1e76ac	-0.15474957
78	0xbf083bf7	-0.532165
79	0xbf40b31f	-0.7527332
80	0xbdc08a85	-0.094014205
81	0x3eb68692	0.35649544
82	0x3e872041	0.26391795
83	0xbe8cd89d	-0.27509013
84	0x3d1eef0b	0.038802188
85	0x3c76b0c8	0.015056796
86	0xbe286179	-0.16443433
87	0xbe66abfe	-0.22526547
88	0x3dfee8ce	0.12446748
89	0xbe25c0e0	-0.16186857
90	0x3e520f1c	0.20513576
91	0x3e42c664	0.19020993
92	0x3e839c8e	0.2570538
93	0xbd37fa70	-0.04491657
94	0xbddf1392	-0.108924046
95	0x3e170fe0	0.1475215
96	0xbd15af09	-0.03654388
97	0xbdbc5a6e	-0.091969356
98	0xbe0b291e	-0.13589904
99	0x3c23b3dc	0.009991612
100	0xbbdab60b	-0.0066745332
101	0x3e16bfbd	0.1472158
102	0xbdc954ae	-0.098306045
103	0xbe688c4d	-0.2270977
104	0xbf050d5a	-0.519735
105	0xbddd132c	-0.10794672
106	0xbe659f83	-0.2242413
107	0xbcada8ba	-0.02119862
108	0x3cb20dce	0.021735098
109	0x3c581a06	0.013189798
110	0xbe19615e	-0.14978549
111	0x3cdf175d	0.02723282
112	0xbd8845f1	-0.06653965
113	0xbd99ee35	-0.075161375
114	0xbea2490b	-0.31696352
115	0xbe3846aa	-0.17995706
116	0x3e31a8b2	0.17349508
117	0xbe219e39	-0.15783013
118	0xbdd0aa5e	-0.10188745
119	0xbe8ec5a6	-0.2788517
120	0xbc980d84	-0.018561132
121	0xbdec0feb	-0.115264736
122	0x3dbec340	0.09314585
123	0x3c91c34b	0.017793318
124	0xbdf5edc0	-0.12008238
125	0xbe67d0c4	-0.22638232
126	0xbe3fc22e	-0.18726417
127	0xbd8c2912	-0.06843771
128	0xbdb23aac	-0.08702597
129	0xbcf3f57e	-0.029780146
130	0x3dc6b34b	0.09702166
131	0xbe8e9d6c	-0.27854478
132	0x3ada3b04	0.0016649668
133	0x3d282c64	0.04105796
134	0xbe64cc3e	-0.22343537
135	0x3ded34bb	0.11582323
136	0x3ddd59b8	0.10808128
137	0xbe0beed9	-0.13665332
138	0x3e85caab	0.26131186
139	0x3e8d45b0	0.2759223
140	0x3dcb876d	0.0993794
141	0xbe2423c0	-0.16029263
142	0xbf53e5b9	-0.82772404
143	0xbf23050e	-0.6367959
144	0x3ebed104	0.3726884
145	0xbd9df7b7	-0.077132635
146	0xbeeb675e	-0.459773
147	0x3c3507a6	0.011049187
148	0xbf15f078	-0.5857005
149	0x3e746612	0.23867062
150	0x3deeb194	0.11654964
151	0x3e8f78b8	0.2802179
152	0xbe79b203	-0.24384312
153	0xbf676478	-0.9038768
154	0x3f049a07	0.5179753
155	0xbe88002e	-0.26562637
156	0xbe313758	-0.17306268
157	0xbebd7dbf	-0.3701
158	0xbe3859f3	-0.18003063
159	0xbe8b4c64	-0.2720672
160	0xbd606236	-0.05478116
161	0x3dfd6469	0.12372667
162	0x3dc9337b	0.09824272
163	0x3e8df6c5	0.27727333
164	0x3defdfb7	0.11712592
165	0x3e786b76	0.24259743
166	0x3d588d8a	0.052869357
167	0xbe874359	-0.2641857
168	0xbe19b371	-0.15009858
169	0xbd3289a3	-0.04358829
170	0xbee0c283	-0.438984
171	0x3dbd29a3	0.09236457
172	0x3e595d14	0.21226913
173	0x3eeb1d2a	0.45920688
174	0x3efd7edc	0.4951085
175	0x3d5b30ba	0.053513266
176	0x3c52a084	0.012855653
177	0xbd252bd9	-0.04032502
178	0xbdb8274f	-0.089918725
179	0x3e27958a	0.16365638
180	0x3ee38148	0.4443457
181	0x3ee33868	0.44378972
182	0x3cb5e00a	0.022201557
183	0xbbe8be49	-0.007102762
184	0x3dcf6ab0	0.10127771
185	0xbe46d055	-0.1941541
186	0xbeb71851	-0.3576074
187	0x3dec0e19	0.115261264
188	0xbe05f30f	-0.13081001
189	0xbdb0d200	-0.08633804
190	0xbdc30311	-0.09522069
191	0xbc806898	-0.015674874
192	0x3e398e34	0.18120652
193	0x3b41135c	0.0029461002
194	0xbd9ba912	-0.07600607
195	0xbd8dbc59	-0.0692069
196	0xbdd288a5	-0.10279969
197	0xbf267e87	-0.65036815
198	0xbd0f48cf	-0.034981545
199	0xbf334038	-0.70019865
200	0x3de35783	0.11100676
201	0x3ef951ef	0.48695323
202	0xbc93c5b4	-0.018038608
203	0xbef71067	-0.48254701
204	0x3e7825ab	0.24233119
205	0x3f12b92d	0.57313806
206	0x3e1a7d33	0.15086822
207	0x3e3d68ec	0.18497056
208	0xbdad5e50	-0.08465254
209	0xbe814c9b	-0.25253758
210	0xbe478869	-0.1948563
211	0x3c1cdeca	0.009574601
212	0x3e94931e	0.29018492
213	0xbef73119	-0.48279646
214	0x3ee91023	0.45520124
215	0xbec8c93c	-0.3921603
216	0xbce2818d	-0.027649665
217	0xbe0cce3b	-0.13750546
218	0xbca312fb	-0.019906512
219	0xbeee6bc9	-0.4656661
220	0x3e31f487	0.17378436
221	0x3b28a2c3	0.002573178
222	0xbeadfe2f	-0.3398299
223	0xbe67adc2	-0.22624877
224	0x3e16ee37	0.14739309
225	0xbe6f706e	-0.23382732
226	0xbe9738d9	-0.2953556
227	0x3e949646	0.290209
228	0xbe7ed407	-0.2488557
229	0x3e1ec3cf	0.15504383
230	0xbe830a28	-0.25593686
231	0x3dc83ea3	0.09777572
232	0xbe3d9b8a	-0.18516365
233	0xbdf234c9	-0.11826474
234	0xbd628b73	-0.05530877
235	0x3e64b542	0.2233477
236	0x3e48d2e4	0.19611698
237	0xbe75e2fb	-0.24012367
238	0x3ecc69ee	0.39924568
239	0xbd86a4de	-0.06574415
240	0xbf06d5a8	-0.52669764
241	0xbed5017a	-0.4160269
242	0xbd4f587b	-0.05062149
243	0xbd877ffe	-0.066162094
244	0xbe2c4437	-0.16822897
245	0x3f19cb84	0.60076165
246	0x3f27e1b4	0.6557877
247	0x3dbaba48	0.091175616
248	0xbf6d9263	-0.92801493
249	0x3c8addac	0.016951405
250	0xbed24584	-0.4106866
251	0xbec769b1	-0.38947824
252	0xbec6e70a	-0.38848144
253	0xbee9e897	-0.45685264
254	0xbc8f9c6e	-0.017530646
255	0x3e27f319	0.16401328

bias f4 [16]
0	0xbe5b8134	-0.21436006
1	0x3f8a5b2e	1.0809076
2	0x3d45bed5	0.048277695
3	0x3f66f218	0.90213156
4	0x3fc3151c	1.5240817
5	0x3d2843f1	0.04108042
6	0x3ea89fbb	0.32934365
7	0x3f375e05	0.7162784
8	0x3fc606c9	1.5470821
9	0x3f42937a	0.7600628
10	0xbd74c9a1	-0.0597626
11	0x3fbff7b0	1.4997463
12	0x3fa4dcc8	1.2879877
13	0x3d62d5ef	0.055379804
14	0x3fbfaaf4	1.4974046
15	0xbe0ef33e	-0.13959977

weight f4 [16, 32, 3, 3]
0	0x3dc1732c	0.094457954
1	0x3e27d6cb	0.16390531
2	0xbe15681b	-0.14590494
3	0xbb936816	-0.004498492
4	0x3e3d6bc5	0.18498142
5	0x3e8b2a4a	0.27180701
6	0x3e3a6281	0.18201639
7	0x3d584583	0.052800667
8	0xbd2a9838	-0.041649073
9	0xbf621b34	-0.8832276
10	0xbfc66c10	-1.5501728
11	0xbe6a0259	-0.22852458
12	0xc008116c	-2.1260633
13	0xbdf8fe12	-0.12157835
14	0xbf15f8cb	-0.5858275
15	0xbe989626	-0.29802054
16	0x3e15eba9	0.14640678
17	0xbe3e9052	-0.18609741
18	0xbefa31e6	-0.48866194
19	0xbde9f161	-0.114229925
20	0xbf98829f	-1.1914862
21	0x3d0bb6e5	0.03410997
22	0xbe265750	-0.16244245
23	0xbe779874	-0.2417925
24	0xbdbf343a	-0.09336133
25	0xbe90f947	-0.28315184
26	0xbf633e08	-0.8876653
27	0x3e43d870	0.19125533
28	0x3e557635	0.20845874
29	0xbdf89016	-0.12136857
30	0xbddca878	-0.1077432
31	0xbeed4c56	-0.46347302
32	0xbf703b9f	-0.93840975
33	0xbd5c7849	-0.05382565
34	0xbed93796	-0.4242522
35	0xbea3289e	-0.31866926
36	0xbe96865a	-0.29399377
37	0xbe5b2868	-0.21402133
38	0xbdda37d4	-0.106551796
39	0xbe215f4f	-0.15759014
40	0xbe13fb37	-0.144513
41	0xbe1b589e	-0.15170524
42	0x3c8f48aa	0.017490704
43	0xbf2d4e79	-0.67697865
44	0xbe3408e6	-0.1758152
45	0xbeb1883f	-0.3467426
46	0xbda7182b	-0.081589065
47	0x3d9f588c	0.07780561
48	0xbf6de080	-0.92920685
49	0xbe443521	-0.19160892
50	0xbe172c71	-0.14763047
51	0x3df41c46	0.11919455
52	0xbf723404	-0.9461062
53	0xbe85344a	-0.26016456
54	0xbe0c9c8e	-0.13731596
55	0xbf8a525c	-1.0806384
56	0x3df6bd69	0.12047846
57	0xbf5f1650	-0.8714342
58	0xbf851e69	-1.0399905
59	0xbf715e80	-0.9428482
60	0x3e3aa486	0.18226823
61	0x3ddb6994	0.10713497
62	0x3e665cb3	0.224963
63	0x3e818226	0.25294608
64	0xbea69e0a	-0.3254245
65	0xbd2e53c7	-0.042560365
66	0xbf138762	-0.5762845
67	0xbd918bb6	-0.07106726
68	0x3e8139c6	0.2523939
69	0x3e4da7a4	0.20083481
70	0xbed6d60d	-0.41960183
71	0x3e42978c	0.19003123
72	0xbd8af181	-0.067843445
73	0x3ccc0dc8	0.024908915
74	0x3ba07bd2	0.004897573
75	0xbefa6dbd	-0.4891185
76	0x3e95e68f	0.29277465
77	0xbfa15071	-1.2602674
78	0x3d670447	0.056400564
79	0x3d696cf8	0.056988686
80	0xbd2237f7	-0.039604153
81	0xbe4a6f08	-0.19768918
82	0xbe4b7635	-0.19869311
83	0xbed4598a	-0.41474563
84	0xbf4d7a71	-0.80264956
85	0xbeed07d2	-0.4629503
86	0xbe1126d0	-0.14174962
87	0xbe381c5d	-0.1797957
88	0x3ef13e8c	0.47118032
89	0x3d455699	0.04817829
90	0xbe2ab1bb	-0.16669361
91	0xbe898f75	-0.26867262
92	0xbd061c63	-0.032741915
93	0xbe046a10	-0.12931085
94	0xbe802e2b	-0.25035223
95	0xbd2cbb41	-0.042170767
96	0xbd55d3e0	-0.052204013
97	0xbe7ac7d3	-0.2449029
98	0xbe3be3bc	-0.18348593
99	0xbf50089c	-0.81263137
100	0x3dede95e	0.11616777
101	0x3e357803	0.17721562
102	0xbefa4a58	-0.48884845
103	0x3e88526e	0.2662539
104	0xbf218e45	-0.6310771
105	0x3e33038e	0.17481825
106	0x3e9327d3	0.2874132
107	0x3df473b0	0.11936128
108	0x3d96723c	0.07346007
109	0xbde24617	-0.11048525
110	0x3cf5293a	0.029926885
111	0xbe67c96b	-0.22635429
112	0xbeaaaf10	-0.33336687
113	0xbe192f2e	-0.14959404
114	0x3df960e6	0.12176685
115	0xbe22e428	-0.15907347
116	0x3db285e5	0.087169446
117	0xbdfc82f6	-0.12329666
118	0x3e47f5b2	0.19527319
119	0xbdb34f25	-0.0875533
120	0xbe40dc64	-0.18834072
121	0x3ddf9bca	0.10918386
122	0xbe81a96e	-0.25324577
123	0xbde12340	-0.109930515
124	0x3f0c174f	0.54723066
125	0xbe4a4508	-0.19752896
126	0xbe0d5133	-0.13800506
127	0xbf0d40ad	-0.5517681
128	0xbe86a9d0	-0.26301432
129	0xbfa2de1b	-1.2724031
130	0xbe166807	-0.14688121
131	0xbea34405	-0.31887832
132	0xbef4de77	-0.47825977
133	0xbf3cf792	-0.7381526
134	0xbe28881a	-0.16458169
135	0x3ea16a27	0.315263
136	0xbf02240f	-0.5083627
137	0x3e64068f	0.22268127
138	0x3e47333d	0.1945314
139	0xbfb0ee60	-1.3822746
140	0x3e33625b	0.17517988
141	0x3de8118f	0.11331474
142	0x3e92f259	0.28700522
143	0x3e642db6	0.22283062
144	0x3d284bb7	0.041087832
145	0x3e7e4db0	0.24834323
146	0xbf090920	-0.5352955
147	0x3e41ff3a	0.18945017
148	0xbe8bf90a	-0.2733844
149	0xbea443df	-0.32083032
150	0x3d3a69bb	0.04551099
151	0xbdb009c2	-0.08595611
152	0x3df9feb7	0.12206786
153	0xbfd900c2	-1.6953356
154	0x3d56f59c	0.052480325
155	0xbf1f1ae4	-0.62150407
156	0x3e3c77d6	0.18405089
157	0x3e52ddfc	0.20592493
158	0xbfc14bd8	-1.5101271
159	0x3eccc190	0.39991426
160	0xbe06cc86	-0.13163957
161	0xbfcbe262	-1.5928462
162	0x3e1cbdf0	0.1530683
163	0xbe7ff0f3	-0.24994259
164	0x3d8b4b20	0.06801438
165	0x3e9aae0e	0.30210918
166	0xbee223db	-0.4416798
167	0xbdc14760	-0.09437442
168	0xbe953c12	-0.29147393
169	0x3d970504	0.073740035
170	0xbedbe7f1	-0.42950395
171	0xbdbbdb26	-0.091726586
172	0xbf57e302	-0.8433076
173	0xbe6d94f6	-0.23201355
174	0xbc890b5b	-0.016729048
175	0xc0023b14	-2.0348558
176	0xbf0eb453	-0.557439
177	0xbd606066	-0.054779433
178	0x3ddbd686	0.107342765
179	0xbe830803	-0.2559205
180	0xbe412031	-0.18859936
181	0xbd8512fb	-0.06497761
182	0xbf3433c1	-0.7039147
183	0x3c5ac98e	0.013353718
184	0xbfca00e1	-1.5781518
185	0x3dd89d24	0.10576847
186	0x3cdc1987	0.026867641
187	0xbe89c1f5	-0.2690579
188	0xbe301a43	-0.17197518
189	0xbe39c3b3	-0.1814106
190	0xbe68b6ed	-0.2272603
191	0xbe7375f1	-0.2377546
192	0xbe7cd0bd	-0.24689002
193	0xbf7fb453	-0.9988453
194	0xbe9d6864	-0.30743706
195	0xbe9e7100	-0.30945587
196	0xbe6901ae	-0.22754547
197	0xbe4ee29f	-0.20203637
198	0x3e1440b3	0.14477806
199	0xbdeacd98	-0.11464995
200	0xbefc2a63	-0.49251089
201	0xbe92ed43	-0.2869664
202	0xbca49968	-0.020092681
203	0xbe6968aa	-0.22793832
204	0xbec52414	-0.38504088
205	0xbe90cde3	-0.2828208
206	0x3d8272dd	0.06369565
207	0xbdc0512c	-0.09390482
208	0xbf1b5977	-0.6068339
209	0xbd74fd28	-0.05981174
210	0xbe17b87f	-0.14816473
211	0xbe89cd96	-0.26914662
212	0xbe54c54f	-0.20778392
213	0xbe882ab8	-0.26595092
214	0xbeced174	-0.40394175
215	0xbe3f37f6	-0.18673691
216	0xbe4bc797	-0.19900356
217	0xbea284b9	-0.31741884
218	0xbce89e52	-0.028395806
219	0xbf800d67	-1.000409
220	0xbf3b6411	-0.73199564
221	0xbea02404	-0.31277478
222	0xbe1b1e8f	-0.15148376
223	0xbf8a34b8	-1.0797338
224	0xbf3b6317	-0.73198074
225	0xbd6670a6	-0.056259774
226	0xbd3c56f0	-0.045981348
227	0x3e96a218	0.29420543
228	0x3d914600	0.070934296
229	0xbe98d838	-0.29852462
230	0xbed331cf	-0.41248938
231	0xbed99d93	-0.42503032
232	0xbdb923f3	-0.0904006
233	0xbd0769b3	-0.033059787
234	0x3dceb493	0.100930355
235	0xbe02f979	-0.12790479
236	0xbb42b86e	-0.002971198
237	0xbf563ecd	-0.83689576
238	0xbe4fa67b	-0.20278351
239	0x3e0b9963	0.13632731
240	0x3dbbc741	0.09168864
241	0xbe2890b6	-0.16461453
242	0x3d9982bf	0.07495641
243	0xbf8b11cb	-1.0864805
244	0xbd965475	-0.07340328
245	0x3d870913	0.06593528
246	0x3e27f40f	0.16401695
247	0xbec5e15b	-0.38648495
248	0x3e0ddb34	0.1385315
249	0xbf0c3d42	-0.5478097
250	0x3d80aa93	0.062825345
251	0xbd6e3c01	-0.058162693
252	0xbea4a9d9	-0.32160833
253	0xbe3a4a25	-0.18192346
254	0xbe79a4bd	-0.24379249
255	0xbfbc659e	-1.4718511

bias f4 [32]
0	0x3fff4472	1.9942763
1	0x3f47bc9a	0.7802216
2	0x3f705b58	0.9388938
3	0x4036a9ad	2.8541062
4	0x3fe98df9	1.8246452
5	0x4000ac1f	2.0105054
6	0x3ee38cf7	0.44443485
7	0x3fec40da	1.8457291
8	0x400ef922	2.2339559
9	0x3f7b2518	0.98103476
10	0x3fb832ed	1.4390541
11	0x3fd0444f	1.6270846
12	0x3fe5c1bf	1.7949752
13	0x3f6330fd	0.88746625
14	0x3f7eae40	0.99484634
15	0x3e6e1b11	0.23252513
16	0x3fb5ec06	1.4212654
17	0x3ee4ec9a	0.44711763
18	0x3fe361f9	1.7764274
19	0x3fff052b	1.9923452
20	0x40129355	2.2902424
21	0x3f4565c7	0.77108425
22	0x4001f98c	2.0308561
23	0x3f802261	1.0010492
24	0x3fa603ad	1.2969872
25	0x3ff4b1dd	1.911678
26	0x3f810ac4	1.008141
27	0xba5bd02b	-0.00083852065
28	0x3ff564ad	1.9171349
29	0xbdd4afb9	-0.10385079
30	0x3fe89852	1.8171484
31	0x3fb9ce37	1.4516057

weight f4 [32, 3, 3, 3]
0	0x3e3de5ff	0.18544768
1	0x3eb0cc56	0.34530896
2	0x3e40a36b	0.18812339
3	0x3eca12eb	0.39467558
4	0x3f3c1eab	0.73484296
5	0x3ecf0d5c	0.4043988
6	0x3e6fe5c4	0.23427492
7	0x3ee31634	0.44352877
8	0x3e767a10	0.2407
9	0x3e1d51d0	0.1536324
10	0x3ea10ece	0.31456608
11	0x3e154ffd	0.14581294
12	0x3eb01fac	0.34399164
13	0x3f3f92c7	0.7483334
14	0x3ec5dbe7	0.38644335
15	0x3e59f057	0.21283089
16	0x3ee0e614	0.43925536
17	0x3e6a716f	0.22894834
18	0x3d5b5edc	0.05355726
19	0xbdf018d2	-0.11723484
20	0xbd877cd6	-0.066156074
21	0x3d57b544	0.052663103
22	0xbd275a84	-0.040857807
23	0xbd9db385	-0.07700256
24	0x3d905dde	0.07049154
25	0xbd517034	-0.051132396
26	0x3d96697e	0.0734434
27	0xbe2b50c1	-0.16730024
28	0xbe903697	-0.2816665
29	0xbe8ebd54	-0.2787882
30	0xbe78250e	-0.24232885
31	0xbef22b6d	-0.47298756
32	0xbed47cb3	-0.41501388
33	0xbe3f5182	-0.18683437
34	0xbea19fa9	-0.31567124
35	0xbe98d6fb	-0.29851517
36	0x3cf86121	0.030319752
37	0x3cd646eb	0.026156863
38	0x3e1539dc	0.14572853
39	0x3c936f68	0.017997459
40	0x3d1a7c1c	0.037716016
41	0x3e44b364	0.19209057
42	0x3d4374e5	0.0477189
43	0x3d34b21d	0.044115175
44	0x3e28ec05	0.16496284
45	0x3de22876	0.110428736
46	0x3ca68478	0.020326838
47	0x3d113b30	0.035456836
48	0xbc9bc808	-0.01901628
49	0xbdeb4b38	-0.11488956
50	0x3da8482e	0.08216892
51	0xbda6b655	-0.08140246
52	0x3e27a1b7	0.16370283
53	0xbe0cf98c	-0.1376707
54	0xbe071c78	-0.13194454
55	0xbe9cb0d6	-0.30603665
56	0xbe4f995e	-0.20273349
57	0xbe9ed829	-0.31024292
58	0xbf291587	-0.66048473
59	0xbee35e17	-0.44407722
60	0xbdf8ef31	-0.12154997
61	0xbe9f9b11	-0.31172994
62	0xbe4eb26d	-0.20185252
63	0x3cbd0763	0.023074811
64	0x3e1ed1da	0.1550974
65	0x3dec7cd6	0.11547248
66	0x3df88239	0.12134213
67	0x3edcea0c	0.43147314
68	0x3eae7c4f	0.34079215
69	0x3d3e3c3f	0.046444174
70	0x3e5e75e0	0.21724653
71	0x3e171d0f	0.14757179
72	0xbe1ff99d	-0.15622564
73	0xbdb9e4a3	-0.09076812
74	0xbe40a6b9	-0.188136
75	0x3d8ae25e	0.06781457
76	0x3c8a5038	0.016883954
77	0x3df04692	0.1173221
78	0x3dbe8f12	0.09304632
79	0xbdab73ac	-0.08371672
80	0xbdf03b94	-0.117301136
81	0x3df50327	0.11963492
82	0x3f50d94f	0.81581587
83	0x3f117099	0.56812435
84	0x3e87bd33	0.26511535
85	0x3fa87bf5	1.3162829
86	0x3f755c46	0.95843923
87	0xbcc5c340	-0.024140954
88	0x3f1dcb5c	0.61638427
89	0x3ef99b43	0.48751268
90	0x3dd2e230	0.10297048
91	0x3f421b07	0.7582249
92	0x3f0c10a4	0.5471289
93	0x3ee7d1b0	0.45277166
94	0x3fd7b1eb	1.6851171
95	0x3f8d46c5	1.1037222
96	0x3df1cac4	0.118062526
97	0x3f51846f	0.818427
98	0x3f215223	0.63015956
99	0x3bee0a20	0.0072643906
100	0x3e0c5de3	0.1370769
101	0x3bd61080	0.0065327287
102	0xbc50b650	-0.012738779
103	0x3c4ee730	0.012628362
104	0x3dcd5c96	0.10027425
105	0xbc9ed478	-0.019388422
106	0xbdd9bbef	-0.106315486
107	0xbde45f17	-0.111509494
108	0x3eead5db	0.45866284
109	0x3f5c7640	0.86117935
110	0x3edd4251	0.43214658
111	0x3f730820	0.9493427
112	0x400a2c9e	2.1589732
113	0x3f89b4fb	1.0758356
114	0x3ec39724	0.3820125
115	0x3f8dbcc1	1.1073228
116	0x3f04fd44	0.5194895
117	0x3ec5b52a	0.3861478
118	0x3fad00b0	1.3515835
119	0x3f426fbc	0.75951743
120	0x3f71f4fb	0.94514436
121	0x401b3154	2.4248857
122	0x3faaa70f	1.3332232
123	0x3f13f54f	0.57796186
124	0x3fb62b52	1.423197
125	0x3f6512bb	0.89481705
126	0xbd18d1e8	-0.037309557
127	0x3db6aa3a	0.08919187
128	0xbe0231aa	-0.12714258
129	0x3c71ea50	0.014765337
130	0x3e25e11b	0.16199152
131	0xbcbd8838	-0.023136243
132	0x3e13dded	0.14440127
133	0x3d84094a	0.06447084
134	0x3dcde312	0.10053076
135	0x3ee79e23	0.45237836
136	0x3f746c1d	0.9547747
137	0x3f22f6b6	0.636577
138	0x3f47e571	0.78084475
139	0x3fde1c3f	1.735237
140	0x3f571515	0.84016544
141	0x3ec77083	0.38953027
142	0x3f29215a	0.66066515
143	0x3ecc27fa	0.3987425
144	0x3f150a15	0.5821851
145	0x3fb35074	1.4008927
146	0x3f46cddd	0.7765787
147	0x3faf5c6e	1.3700082
148	0x403806cf	2.8754156
149	0x3fdb40cf	1.7129153
150	0x3f215612	0.6302196
151	0x3fc7d8bd	1.5613018
152	0x3f4650ff	0.7746734
153	0xbe14a254	-0.14515048
154	0x3e122c49	0.14274706
155	0x3e378a63	0.17923884
156	0xbbc168c0	-0.0059023798
157	0x3e3550d3	0.17706613
158	0x3dd51cce	0.10405885
159	0xbe0e7cc9	-0.1391479
160	0x3ce8b7b8	0.028407916
161	0xbe0ac8a6	-0.13553104
162	0x3dfd921f	0.12381386
163	0x3e8c6b42	0.2742558
164	0x3e31ed38	0.17375648
165	0x3e9f59f9	0.3112333
166	0x3f0c15cd	0.54720765
167	0x3eaffb4c	0.34371412
168	0x3e72c48e	0.23707792
169	0x3ede3b9c	0.43404853
170	0x3e954513	0.29154262
171	0xbe6bf703	-0.23043446
172	0xbec36df6	-0.3816983
173	0xbe8b29d0	-0.27180338
174	0xbeebedab	-0.46079764
175	0xbf490027	-0.7851586
176	0xbf0b10bd	-0.54322416
177	0xbeb3131d	-0.3497552
178	0xbf1d55ec	-0.6145923
179	0xbee606a8	-0.44926953
180	0x3c842dc8	0.016135111
181	0x3d1fd998	0.039025873
182	0xbe02fe42	-0.12792304
183	0x3daf90aa	0.08572514
184	0x3bf39760	0.007433817
185	0x3dd0cf62	0.10195805
186	0xbc4b7010	-0.0124168545
187	0xbe1e0a84	-0.15433699
188	0x3d836492	0.06415667
189	0x3eb0d93e	0.34540743
190	0x3f1cc9f6	0.6124567
191	0x3eccfbab	0.40035757
192	0x3f03a536	0.51423967
193	0x3f7f8e42	0.99826443
194	0x3f16e1c6	0.5893825
195	0x3e8075fc	0.25090015
196	0x3f123a26	0.5711998
197	0x3eb6714a	0.35633308
198	0x3e716fde	0.2357783
199	0x3ede4c3a	0.4341753
200	0x3e99d389	0.300442
201	0x3e92840b	0.28616366
202	0x3f2d8a83	0.6778948
203	0x3ebca08c	0.36841238
204	0x3e2b00af	0.1669948
205	0x3ec365e3	0.3816367
206	0x3e8685f1	0.26274064
207	0xbdbafb04	-0.09129909
208	0x3dd2f7d6	0.10301177
209	0xbe057d4f	-0.13036083
210	0xbd2a78e0	-0.04161918
211	0x3e359357	0.17731987
212	0x3e413027	0.18866025
213	0x3d9a4976	0.07533543
214	0x3c5209e0	0.012819737
215	0xbd802170	-0.06256378
216	0x3de21f6e	0.11041151
217	0x3eb980c1	0.36231044
218	0x3e3b46d6	0.1828874
219	0x3ec8fb35	0.39254156
220	0x3f5e16fe	0.86753833
221	0x3ef7bcc3	0.483862
222	0x3e4deed9	0.20110644
223	0x3f09735f	0.5369167
224	0x3e977ce0	0.2958746
225	0x3e700450	0.23439145
226	0x3ee22201	0.44166568
227	0x3ecb217a	0.39673978
228	0x3f09db3d	0.53850156
229	0x3f8357d2	1.0261176
230	0x3f451e10	0.76998997
231	0x3e82363d	0.25432006
232	0x3efed66e	0.49772972
233	0x3ec8a53d	0.39188567
234	0x3d231bec	0.03982155
235	0xbe29cc0f	-0.16581748
236	0xbe32e03b	-0.1746835
237	0xbe019470	-0.1265428
238	0x3d6c3dd4	0.05767615
239	0xbe0bb57f	-0.13643454
240	0x3b3af8c0	0.0028529614
241	0x3cf8b358	0.030358955
242	0x3d3a58a0	0.045494676
243	0x3dac6489	0.08417613
244	0x3e29e583	0.16591458
245	0x3dc44cc1	0.09584952
246	0x3e18a878	0.14908016
247	0x3e9a776b	0.30169234
248	0x3e4ae31b	0.19813196
249	0x3def111b	0.116731845
250	0x3e4b6c5d	0.19865556
251	0x3e007de8	0.1254803
252	0x3e0dff16	0.13866839
253	0x3e82b0c6	0.25525492
254	0x3e1e7c48	0.15477097
255	0x3e89a17b	0.26881012

bias f4 [3]
0	0xbf1cfbac	-0.6132152
1	0x3efe8f88	0.4971888
2	0xbe326fb0	-0.17425418
