ColourUclean/fish2_G.pt (torch_old, 121240 bytes, 12 tensors)

weight f4 [32, 3, 3, 3]
-0.18260905 0.04967216 -0.07453404 -0.016507532 0.045707628 0.06485076 0.09484924 -0.23672834
-0.055022195 0.14414537 -0.86683285 -0.2014176 -0.026309753 0.6845859 -0.79563457 -2.1084895
1.0943198 0.24321128 -0.06285951 0.087110534 0.26276362 0.16990371 -0.9878803 0.38706362
0.45409024 -0.59500813 -1.0290316 0.01249473 0.09001149 -0.365432 -0.12629054 -0.09198752
-0.044050932 -0.09952272 0.06964533 0.2297502 -0.091773696 -0.77569306 -0.13588084 -0.35946763
0.69785225 -0.23365499 -0.30161637 -0.5461484 -0.67760646 0.8705359 -0.15879487 -0.74272925
0.8206831 0.6436142 -0.7678046 -0.0342318 0.005455859 -0.29631716 0.012243179 0.028637648
-0.04086963 -0.023455283 -0.051158935 0.033748925 0.014483892 0.010777475 0.018226065 -1.813267
-0.9366511 -2.1893883 -1.8839306 -3.0233173 -3.7651653 -3.5340967 -3.0378525 -0.41447014
-1.7937995 0.2976494 -0.21224307 -0.31273994 0.51719546 -0.29309237 0.6012069 0.18829998
-0.86499697 0.014118016 -0.18735445 0.1066131 0.4468986 -0.05380864 -0.19408901 -0.34325865
-0.08529991 0.0975007 -0.25060737 0.5122231 -0.1698648 0.058131937 -1.1644552 -1.1134175
-0.19471934 -0.59492475 -1.2620088 0.73983574 0.48779783 -0.5971737 0.5923437 -0.7080644
-0.71736294 -0.579448 -0.44281116 -0.26857683 -0.023739034 0.07606345 0.37502968 -0.047728777
-0.5817786 -0.49261788 -0.0019330704 -0.19647849 -0.11827093 -0.6095956 0.3530902 0.0038033796
-0.7124937 -1.0679032 -0.08758465 0.49157584 -1.2929623 -0.22998698 -0.3322801 0.14376432
0.8603503 -0.6353685 0.47686768 0.39899597 -0.40831125 0.47420102 0.8638843 -0.1173417
-0.3969795 -0.7865169 0.1645611 -0.66906023 0.44899794 -0.89490527 0.20821606 0.703216
0.091198996 -0.798988 -0.58168757 -1.2762357 0.3227225 -0.00095645123 -0.6594691 0.22585733
-0.114628986 0.17484887 0.09854415 0.48545742 -0.29868114 -0.459096 -0.59163624 -0.018294286
-0.5881848 -0.227639 -0.20017943 -0.35441995 0.21743101 -0.34993222 -0.054579347 -0.3013915
0.14596486 0.048223812 -0.46911475 0.21835627 1.2013186 1.2861104 -0.18287806 -0.7539668
0.026725605 0.17910263 -0.53519404 -0.20615007 -0.5305431 0.0968164 -0.015983336 -0.023792803
-0.47085652 -0.42759567 0.5725135 -0.16394436 0.19293809 -0.21679227 -0.10888978 0.03093358
0.15558705 -0.037285537 0.108603545 0.06913961 0.17516254 0.023233019 -0.5402954 -1.6418128
-0.8957364 -0.2953317 -1.6701458 -1.7614765 -0.6050969 -1.8139161 -1.8950261 0.33017352
0.25434715 -1.0983258 -0.26506117 -0.23868039 -1.0140679 -0.27956465 -1.0270901 -0.8944972
0.36275235 -0.04541731 -0.21637645 -0.09607361 -0.2942483 -0.22403327 0.036426306 0.041815117
0.08438747 -1.1177598 0.33902302 0.47523734 -1.236338 0.06315272 -0.20245393 -0.8994723
-0.27947918 -0.5680724 -0.68340385 0.028835045 0.8891064 -1.5942729 -0.4984422 0.5654313
-0.017002802 -0.43769357 -1.0773473 -0.17953181 0.13226683 -0.45084965 -0.13332711 0.28405154
-0.24819694 -0.42426184 0.2427672 0.11044305 -0.25158966 -1.9059436 -0.27631596 -0.23858352
00000000: defd 3abe 0975 4b3d 4ea5 98bd ce3a 87bc
00000010: ec37 3b3d 7ad0 843d 5140 c23d ea68 72be
00000020: f45e 61bd d89a 133e c2e8 5dbf 6a40 4ebe
00000030: 8d87 d7bc 0641 2f3f b5ae 4bbf 7ef1 06c0
00000040: ac12 8c3f 610c 793e 7dbc 80bd 0267 b23d
00000050: f488 863e 3dfb 2d3e b9e5 7cbf 342d c63e
00000060: 847e e83e 7452 18bf 4fb7 83bf b2b6 4c3c
00000070: f257 b83d e719 bbbe 4f52 01be f463 bcbd
00000080: c06e 34bd 91d2 cbbd 36a2 8e3d a343 6b3e
00000090: d9f3 bbbd d293 46bf 5924 0bbe 240c b8be
000000a0: 72a6 323f 4143 6fbe 766d 9abe 62d0 0bbf
000000b0: 9e77 2dbf 71db 5e3f 1f9b 22be 8123 3ebf
000000c0: 4a18 523f e6c3 243f d88e 44bf a536 0cbd
000000d0: 10c7 b23b e2b6 97be 9d97 483c 8099 ea3c
000000e0: ea66 27bd 4b25 c0bc 088c 51bd 503c 0a3d
000000f0: d94d 6d3c 0294 303c d44e 953c 2219 e8bf
00000100: 5ec8 6fbf f01e 0cc0 a324 f1bf 087e 41c0
00000110: 78f8 70c0 a42e 62c0 2d6c 42c0 6e35 d4be
00000120: 399b e5bf 8165 983e 3f56 59be 731f a0be
00000130: ec66 043f 3410 96be b2e8 193f b6d1 403e
00000140: 7170 5dbf 404f 673c d8d9 3fbe f857 da3d
00000150: e5cf e43e 7366 5cbd 45bf 46be 99bf afbe
00000160: b8b1 aebd 72ae c73d 9c4f 80be 0e21 033f
00000170: 0af1 2dbe c11b 6e3d de0c 95bf 7784 8ebf
00000180: 8264 47be fd4c 18bf 8189 a1bf e065 3d3f
00000190: a3c0 f93e 60e0 18bf d6a3 173f b543 35bf
000001a0: 19a5 37bf b456 14bf 25b8 e2be e782 89be
000001b0: 5d78 c2bc 27c7 9b3d e403 c03e 407f 43bd
000001c0: 71ef 14bf 6938 fcbe 145f fdba a831 49be
000001d0: 0838 f2bd 750e 1cbf 3dc8 b43e 1f42 793b
000001e0: fd65 36bf 0db1 88bf 955f b3bd d4af fb3e
000001f0: ca7f a5bf b581 6bbe 9e20 aabe f436 133e
00000200: eb3f 5c3f 83a7 22bf 0028 f43e 3349 cc3e
00000210: 2c0e d1be 7aca f23e 8627 5d3f d850 f0bd
00000220: e640 cbbe 2c59 49bf b482 283e 8847 2bbf
00000230: 0fe3 e53e 8318 65bf 9736 553e f705 343f
00000240: 8ac6 ba3d 7a8a 4cbf 7ae9 14bf b15b a3bf
00000250: e23b a53e 5bba 7aba f8d2 28bf 2547 673e
00000260: 9ac2 eabd 950b 333e 84d1 c93d e08d f83e
00000270: bcec 98be a20e ebbe 7975 17bf e6dd 95bc
00000280: 4793 16bf 331a 69be d6fb 4cbe 8876 b5be
00000290: 3ca6 5e3e 512a b3be 988e 5fbd fd4f 9abe
000002a0: d077 153e 5586 453d cf2f f0be c998 5f3e
000002b0: cfc4 993f 449f a43f 6344 3bbe f803 41bf
000002c0: a8ef da3c ae66 373e 7a02 09bf 0119 53be
000002d0: acd1 07bf ad47 c63d 7cef 82bc 20e9 c2bc
000002e0: 1b14 f1be d2ed dabe 3f90 123f 08e1 27be
000002f0: 9091 453e cbfe 5dbe 9b01 dfbd 6b68 fd3c
00000300: 3652 1f3e b8b8 18bd 896b de3d 1199 8d3d
00000310: cf5d 333e 2c53 be3c cd50 0abf ec26 d2bf
00000320: fb4e 65bf b735 97be 56c7 d5bf 1078 e1bf
00000330: a1e7 1abf 672e e8bf 3790 f2bf 810c a93e
00000340: ca39 823e f195 8cbf 19b6 87be a268 74be
00000350: facc 81bf 1923 8fbe b077 83bf c5fd 64bf
00000360: adba b93e 8007 3abd ca91 5dbe 3ec2 c4bd
00000370: b7a7 96be fa68 65be c033 153d 5446 2b3d
00000380: 56d3 ac3d c112 8fbf 6d94 ad3e 4f52 f33e
00000390: 5340 9ebf 3756 813d 1550 4fbe d143 66bf
000003a0: e517 8fbe 316d 11bf 8ef3 2ebf 7937 ec3c
000003b0: 7a9c 633f 2211 ccbf d133 ffbe 1bc0 103f
000003c0: 7649 8bbc 5f19 e0be 84e6 89bf 30d7 37be
000003d0: f570 073e c4d5 e6be e786 08be 346f 913e
000003e0: 5727 7ebe d938 d9be f797 783e f72f e23d
000003f0: 5cd0 80be f6f5 f3bf 4979 8dbe 3d4f 74be

bias f4 [32]
6.1324134 -3.4338949 -0.19224039 -1.9385282 -4.079465 1.8945838 2.8912327 -2.6970081
-2.298556 0.30459467 0.9882497 0.23477288 -1.6421096 2.2854302 -1.6519603 -3.9864001
0.043671247 -0.07863061 0.19983852 3.4451754 0.21524975 1.0079955 0.7707438 -2.522932
-1.0931027 0.5386486 -1.4229721 -0.4260538 -0.7811758 3.9933598 0.5185969 1.2185463
00000000: bb3c c440 efc4 5bc0 aada 44be b121 f8bf
00000010: fa8a 82c0 b981 f23f f509 3940 c89b 2cc0
00000020: 8b1b 13c0 d5f3 9b3e effd 7c3f 4d68 703e
00000030: a630 d2bf 7d44 1240 6f73 d3bf 2e21 7fc0
00000040: 9fe0 323d 1609 a1bd 78a2 4c3e c17d 5c40
00000050: 6e6a 5c3e ff05 813f 774f 453f b877 21c0
00000060: caea 8bbf e0e4 093f f323 b6bf b923 dabe
00000070: 23fb 47bf 3593 7f40 c4c2 043f 53f9 9b3f

weight f4 [16, 32, 3, 3]
-0.05267563 -0.05806853 -0.048779733 -0.09872578 -0.1090336 -0.078569934 -0.1149648 -0.08753472
-0.057343923 -0.09886393 -0.084497094 -0.07064313 -0.066843435 -0.09258279 -0.057223592 -0.068325825
-0.043202583 -0.05739351 -0.08948065 -0.08034214 -0.06073419 -0.09682369 -0.05544204 -0.0642155
-0.037193175 -0.046109367 -0.015956141 -0.061997525 -0.1035954 -0.033714764 -0.09987913 -0.068154454
-0.07913526 -0.08241397 -0.081856504 -0.0059071253 -0.026322715 -0.04372455 -0.004726504 -0.113454655
-0.05054635 -0.022332313 -0.020911401 -0.10695113 -0.03908404 0.02645702 -0.062336575 -0.07234464
-0.1092456 0.0038209935 -0.09881258 -0.033311035 -0.033086427 -0.11129724 -0.08218403 -0.05909249
-0.11100101 -0.026853163 -0.006684241 -0.04963332 -0.10383755 -0.046314355 -0.038664218 -0.013395253
-0.09140752 -0.112847 -0.034166057 -0.056386534 -0.079254515 -0.08474614 -0.09043796 -0.012355002
-0.07022196 -0.01755752 -0.0074551636 -0.052590564 -0.04750284 -0.06406812 -0.019584075 -0.113152124
-0.036621336 -0.069655664 -0.03314863 -0.06031748 -0.081873134 -0.06641601 -0.028235666 -0.100980565
-0.09730181 -0.07325411 -0.08142865 -0.03690662 -0.020399798 -0.066365704 -0.0043364083 -0.08467515
-0.09312146 -0.08643547 -0.10065294 -0.101357855 -0.11255853 -0.11227944 -0.04467539 -0.024118962
-0.004732836 -0.009862233 -0.06344863 -0.04862062 -0.09531107 -0.037278865 -0.11655508 -0.03226123
-0.04924701 -0.041946772 -0.038479377 -0.08710789 -0.009490522 -0.03193266 -0.021347169 -0.052272223
-0.023050599 -0.020398086 -0.033347905 -0.015167401 -0.0707428 -0.021309378 -0.04647863 -0.024599792
-0.0026616424 -0.046712097 -0.08192623 -0.06591789 -0.043465808 -0.050119635 -0.07615171 -0.013885734
-0.024652094 -0.09665679 -0.06485629 -0.06571145 -0.096985415 -0.051460396 -0.07814469 -0.09047596
-0.078968175 -0.081045665 -0.0036726964 -0.03744164 -0.0020498217 -0.043890238 -0.0467014 -0.03582539
-0.04992946 -0.10629809 -0.09490083 -0.07433139 -0.059169147 -0.037856884 -0.037365813 -0.013308577
-0.048059355 -0.08016589 0.015724164 0.016894337 0.024852725 0.077819385 0.09188687 0.111606956
0.04140872 0.055403326 0.042552605 -0.060270105 -0.04113961 -0.0613495 -0.05732688 -0.052589733
-0.038109858 -0.07793295 -0.095192 -0.046152875 -0.0670313 -0.08674944 -0.035308022 -0.059519924
-0.068626195 -0.08857951 -0.06780724 -0.11016049 -0.046649713 -0.059170753 -0.024296885 -0.056250177
-0.0553438 -0.04400294 -0.015216387 -0.08790074 -0.024876207 -0.045644116 -0.09936524 -0.039537925
-0.09539464 -0.07860365 -0.08814299 -0.1001429 -0.0136469705 -0.11272391 -0.030591395 -0.11308855
-0.067226425 -0.056540404 -0.01816412 -0.081379674 -0.043094464 -0.050927017 -0.025384055 -0.0565517
-0.037990518 -0.09565131 -0.10100291 -0.007547608 -0.102992 -0.070086315 -0.06717772 -0.0024327345
-0.072789446 -0.104915306 -0.074992575 -0.02966002 -0.036703415 -0.011306405 -0.072118066 -0.032298412
-0.11550633 -0.037254397 -0.032980867 -0.022042941 -0.09384541 -0.07578685 -0.045799177 -0.10192837
-0.10692916 -0.11674391 -0.056765635 -0.023462992 -0.044919413 -0.056462634 -0.039523844 -0.09708407
-0.053842742 -0.07469349 -0.08923162 -0.009239222 -0.105642915 -0.05141957 -0.11183362 -0.062054165
00000000: 67c2 57bd 44d9 6dbd 42cd 47bd be30 cabd
00000010: 024d dfbd 46e9 a0bd aa72 ebbd 6745 b3bd
00000020: 76e1 6abd 2c79 cabd d00c adbd 58ad 90bd
00000030: 36e5 88bd 0c9c bdbd 4963 6abd 69ee 8bbd
00000040: 31f5 30bd 7515 6bbd a241 b7bd 6b8a a4bd
00000050: 6ac4 78bd 804b c6bd 3117 63bd 6b83 83bd
00000060: df57 18bd 2ddd 3cbd 74b6 82bc 1ef1 7dbd
00000070: d329 d4bd 7e18 0abd 6e8d ccbd 9094 8bbd
00000080: ab11 a2bd a8c8 a8bd 62a4 a7bd 8f90 c1bb
00000090: bca2 d7bc 8418 33bd cae0 9abb ea5a e8bd
000000a0: b109 4fbd 41f2 b6bc 634e abbc 3209 dbbd
000000b0: 9616 20bd 64bc d83c a354 7fbd 6d29 94bd
000000c0: 28bc dfbd a269 7a3b 405e cabd 2771 08bd
000000d0: a285 07bd cfef e3bd 1a50 a8bd f70a 72bd
000000e0: 7f54 e3bd 2afb dbbc 7a07 dbbb 4f4c 4bbd
000000f0: c8a8 d4bd 1fb4 3dbd 5f5e 1ebd c377 5bbc
00000100: de33 bbbd 541c e7bd b5f1 0bbd 91f5 66bd
00000110: 3150 a2bd 628f adbd 8a37 b9bd a26c 4abc
00000120: 88d0 8fbd cad4 8fbc 724a f4bb 3469 57bd
00000130: 5792 42bd 2636 83bd c86e a0bc 4dbc e7bd
00000140: 4100 16bd a1a7 8ebd dcc6 07bd 760f 77bd
00000150: 1aad a7bd 1e05 88bd 7c4e e7bc e6ce cebd
00000160: 2c46 c7bd 4006 96bd 10c4 a6bd 652b 17bd
00000170: 7a1d a7bc beea 87bd 6e18 8ebb 2a6a adbd
00000180: 77b6 bebd 1405 b1bd 2123 cebd b594 cfbd
00000190: 1685 e6bd c3f2 e5bd 8bfd 36bd 2195 c5bc
000001a0: e815 9bbb 3495 21bc 5bf1 81bd 6a26 47bd
000001b0: 7332 c3bd b9b1 18bd 6eb4 eebd 5a24 04bd
000001c0: 3cb7 49bd 61d0 2bbd 8d9c 1dbd 9f65 b2bd
000001d0: 227e 1bbc d2cb 02bd 42e0 aebc 661b 56bd
000001e0: 9cd4 bcbc e319 a7bc d097 08bd b180 78bc
000001f0: 9ae1 90bd 0191 aebc 6060 3ebd 8185 c9bc
00000200: f36e 2ebb 2f55 3fbd f0c8 a7bd f5ff 86bd
00000210: 3409 32bd 3f4a 4dbd 6df5 9bbd fd80 63bc
00000220: 30f3 c9bc fff3 c5bd 60d3 84bd ba93 86bd
00000230: 4aa0 c6bd 23c8 52bd 530a a0bd 764b b9bd
00000240: 11ba a1bd 45fb a5bd 9fb1 70bb 685c 19bd
00000250: 4d56 06bb 40c6 33bd f849 3fbd a5bd 12bd
00000260: d582 4cbd d0b2 d9bd 5e5b c2bd 0e3b 98bd
00000270: 595b 72bd d20f 1bbd e50c 19bd 380c 5abc
00000280: e3d9 44bd 042e a4bd f6cf 803c fe65 8a3c
00000290: f197 cb3c c55f 9f3d 2f2f bc3d 3092 e43d
000002a0: 319c 293d 99ee 623d a44b 2e3d c9dd 76bd
000002b0: 0282 28bd 9d49 7bbd 97cf 6abd 5568 57bd
000002c0: 1519 1cbd 4f9b 9fbd 06f4 c2bd cc0a 3dbd
000002d0: b547 89bd b1a9 b1bd 259f 10bd 2acb 73bd
000002e0: e48b 8cbd 2d69 b5bd 86de 8abd d39b e1bd
000002f0: c513 3fbd 085d 72bd 430a c7bc 9666 66bd
00000300: 2eb0 62bd 6d3c 34bd 274e 79bc 4e05 b4bd
00000310: 30c9 cbbc 53f5 3abd 0180 cbbd 85f2 21bd
00000320: 445e c3bd f3fa a0bd 5084 b4bd b917 cdbd
00000330: 8b97 5fbc cbdb e6bd ce9a fabc f89a e7bd
00000340: 02ae 89bd e996 67bd eccc 94bc 63aa a6bd
00000350: d283 30bd d998 50bd 39f2 cfbc c1a2 67bd
00000360: f29b 1bbd d6e4 c3bd 9dda cebd ed51 f7bb
00000370: 78ed d2bd 6a89 8fbd 7994 89bd 836e 1fbb
00000380: a212 95bd d6dd d6bd b595 99bd 92f9 f2bc
00000390: 5256 16bd 803e 39bc a3b2 93bd 574b 04bd
000003a0: 958e ecbd 1198 18bd f216 07bd 6693 b4bc
000003b0: 0632 c0bd 2336 9bbd eb97 3bbd d2bf d0bd
000003c0: adfd dabd 6e17 efbd 1583 68bd 7635 c0bc
000003d0: 6bfd 37bd 5d45 67bd c1e3 21bd 03d4 c6bd
000003e0: 358a 5cbd e7f8 98bd 11bf b6bd 1b60 17bc
000003f0: 505b d8bd 549d 52bd 0609 e5bd 822c 7ebd

bias f4 [16]
-0.10150985 -0.43442315 0.0251504 -0.99868363 -0.3298563 1.7989542 0.20696597 -3.4973395
-0.075660385 -0.12428898 -2.9280884 2.7714217 -0.076250225 -0.17062092 -4.5783005 0.19520706
00000000: 65e4 cfbd b66c debe 3608 ce3c bba9 7fbf
00000010: ede2 a8be 2244 e63f e3ee 533e 69d4 5fc0
00000020: d5f3 9abd 398b febd cd65 3bc0 f95e 3140
00000030: 1429 9cbd 40b7 2ebe 7081 92c0 5ce4 473e

weight f4 [64, 16, 3, 3]
-0.0017057633 -0.05875182 -0.13210689 -0.0377251 -0.1409515 -0.05425341 -0.14247404 -0.0838254
-0.07942212 -0.2952066 -0.122146696 -0.023821443 -0.067531295 -0.14603186 -0.21443033 0.06338582
-0.10641759 -0.44085065 -0.11659526 0.12150597 0.264735 -0.33219463 -0.36305648 0.36785275
-0.1807728 -0.10191768 -0.15113895 -0.46445513 -0.17451425 0.23952442 -0.54222083 1.1882985
0.3294184 0.8016159 0.8099803 -0.46131966 -0.25156364 -0.2555916 0.24538414 -0.26145217
0.23502018 -0.24759845 -0.24953875 -0.38887686 0.12012513 -0.34992605 0.36427963 -0.054444365
-0.21228056 -0.4988553 0.34006974 -0.34677896 -0.14578071 0.03993976 0.14163646 -0.025780438
0.21202342 0.2198093 -0.08464357 -0.16661559 -0.3189271 0.50634545 -0.6659124 0.30774444
0.56602895 -1.2156894 0.4041501 0.17662153 1.0470122 -2.0876849 1.3241637 1.5535685
-0.1369036 -0.10696574 -0.08725763 -0.025023185 -0.13600583 -0.011927873 0.015746303 -0.034267575
-0.14279547 -0.049812302 0.028927585 0.19938476 0.20933475 -0.42782113 0.48292497 0.028661702
0.39421687 1.1093509 -0.112837896 0.35679373 -0.34558862 0.35476807 0.22933672 0.45288116
-0.22458912 -0.58703387 -0.09148543 -0.32489493 -0.37060356 -0.2677058 -0.1472103 0.13778347
0.085731365 -0.31609032 0.088903874 0.21894257 -0.047324367 -0.14051601 -0.032550383 -0.067568384
-0.10042668 0.0013339487 -0.11491649 -0.13606597 -0.05096961 0.010924945 0.022130754 -0.24912174
-0.19693974 -0.11004433 -0.25184646 -0.23245782 -0.19418415 -0.0105612585 -0.57461774 0.6423183
0.8376033 -0.7245271 -0.76399046 0.5900787 -0.4257619 0.5116706 0.7838705 -1.0960928
1.5845985 0.96090823 -0.0705284 0.6719994 0.855405 -1.0215112 0.65861696 -0.44323778
-0.024950752 0.0022706762 -0.025211703 -0.07305783 -0.13465169 -0.061432436 -0.03838345 -0.12528099
0.010806556 0.1910016 0.056228116 0.022278218 0.10498427 -0.047862697 -0.07385485 -0.01333908
-0.18545982 -0.25821674 0.17693007 0.04722671 -0.048990224 -0.046225928 0.48342642 0.15288128
-0.7209399 0.1861937 -0.3795831 0.07468045 -0.35520583 -0.7445751 -0.23394072 -0.008676106
0.1531031 -0.24978821 -0.076277785 0.09763017 -0.28375208 -0.28383565 -0.26270708 -0.30609336
0.21471794 -0.384179 -0.29882306 -0.38617077 -0.32087788 0.228343 -0.024517601 -0.00068554736
-0.18116263 0.024213213 0.016551724 0.2053164 -0.11037377 -0.016099285 0.120252095 -0.26739413
-0.32810754 -0.077817366 0.11106578 0.107100755 0.031336155 0.060771067 -0.12060699 0.5258423
-1.4086248 -1.6190686 -0.42958647 -0.5328784 -0.124533944 -3.3611326 -0.24825144 -0.4181754
-0.05121524 -0.046001233 -0.12195816 0.0046218615 -0.13535847 -0.08898576 -0.018527992 -0.080838874
-0.1002091 -0.24622136 0.15142353 -0.061007757 0.0048746793 0.14844239 -0.33358848 0.2039994
0.2749661 -0.32897058 -0.18386634 -0.2258412 -0.049554523 0.22272076 0.08243109 0.12973805
0.018748067 -0.11646585 0.018988369 0.26587686 -0.1596626 0.26832074 -0.11332231 -0.1520909
0.18896346 -0.08448761 0.04899665 0.30312932 -0.06265053 -0.11377801 -0.00014914668 0.0077536553
00000000: eb93 dfba c0a5 70bd 0747 07be a285 1abd
00000010: 9755 10be d338 5ebd b7e4 11be a7ac abbd
00000020: 10a8 a2bd 5225 97be 0c28 fabd 3025 c3bc
00000030: d94d 8abd 6089 15be a093 5bbe 6dd0 813d
00000040: 77f1 d9bd 2db7 e1be 7fc9 eebd 1fd8 f83d
00000050: 598b 873e 6a15 aabe 8ae2 b9be 3257 bc3e
00000060: 811c 39be 37ba d0bd 2bc4 1abe 10cd edbe
00000070: ddb3 32be e445 753e fcce 0abf 2a1a 983f
00000080: 87a9 a83e b336 4d3f de5a 4f3f 1732 ecbe
00000090: f3cc 80be e7dc 82be fb45 7b3e 0fdd 85be
000000a0: 21a9 703e 738a 7dbe 1687 7fbe de1a c7be
000000b0: 2a04 f63d 8229 b3be dc82 ba3e 0e01 5fbd
000000c0: 1360 59be f669 ffbe 9f1d ae3e 038d b1be
000000d0: 8a47 15be e097 233d 2609 113e 7f31 d3bc
000000e0: ab1c 593e b015 613e 9c59 adbd 479d 2abe
000000f0: 6a4a a3be db9f 013f 3c79 2abf ae90 9d3e
00000100: 46e7 103f b69b 9bbf c3ec ce3e 46dc 343e
00000110: 7f04 863f a19c 05c0 327e a93f 55db c63f
00000120: 7530 0cbe db10 dbbd 21b4 b2bd 6cfd ccbc
00000130: 1d45 0bbe 206d 43bc 64fe 803c 285c 0cbd
00000140: fa38 12be fc07 4cbd 8bf9 ec3c 852b 4c3e
00000150: d95b 563e 5f0b dbbe f141 f73e f2cb ea3c
00000160: cbd6 c93e 36ff 8d3f 8e17 e7bd abad b63e
00000170: fef0 b0be 29a4 b53e 3fd7 6a3e 0ae0 e73e
00000180: b1fa 65be da47 16bf b75c bbbd a158 a6be
00000190: c0bf bdbe bc10 89be 4cbe 16be 1c17 0d3e
000001a0: ed93 af3d 97d6 a1be 3c13 b63d 7b32 603e
000001b0: 32d7 41bd 6ee3 0fbe 8d53 05bd 4b61 8abd
000001c0: 81ac cdbd e4d7 ae3a 5659 ebbd e154 0bbe
000001d0: 83c5 50bd 8afe 323c 8e4b b53c c519 7fbe
000001e0: 92aa 49be ec5e e1bd 05f2 80be 6c09 6ebe
000001f0: 36d8 46be 2109 2dbc 261a 13bf f96e 243f
00000200: 2b6d 563f 9c7a 39bf e194 43bf 660f 173f
00000210: 77fd d9be d8fc 023f bdab 483f c54c 8cbf
00000220: 20d4 ca3f 15fe 753f 3271 90bd 2708 2c3f
00000230: d2fb 5a3f e1c0 82bf 1f9b 283f 10f0 e2be
00000240: 8565 ccbc a0cf 143b c688 cebc 589f 95bd
00000250: 22e2 09be 94a0 7bbd f737 1dbd a949 00be
00000260: fb0d 313c ec95 433e 744f 663d cf80 b63c
00000270: fe01 d73d ad0b 44bd 3641 97bd 288c 5abc
00000280: 2ee9 3dbe fc34 84be 282d 353e cb70 413d
00000290: f9a9 48bd 6657 3dbd ab83 f73e e98c 1c3e
000002a0: 848f 38bf 90a9 3e3e b758 c2be 10f2 983d
000002b0: 8add b5be 799c 3ebf 288e 6fbe 3a26 0ebc
000002c0: 0fc7 1c3e 7bc8 7fbe 8737 9cbd 54f2 c73d
000002d0: f447 91be e852 91be 8b81 86be 45b8 9cbe
000002e0: 05df 5b3e 1cb3 c4be 56ff 98be 2db8 c5be
000002f0: 1b4a a4be bfd2 693e 23d9 c8bc 4eb6 33ba
00000300: b282 39be ca5a c63c 7b97 873c 763e 523e
00000310: a50b e2bd a6e2 83bc bb46 f63d e2e7 88be
00000320: b6fd a7be b65e 9fbd 7576 e33d a457 db3d
00000330: 575a 003d 15eb 783d cc00 f7bd 9a9d 063f
00000340: d14d b4bf a43d cfbf c2f2 dbbe b86a 08bf
00000350: a70b ffbd cc1c 57c0 a035 7ebe 161b d6be
00000360: 12c7 51bd ca6b 3cbd 33c5 f9bd fc72 973b
00000370: 699b 0abe 2b3e b6bd 04c8 97bc da8e a5bd
00000380: 6e3a cdbd 7421 7cbe c50e 1b3e 45e3 79bd
00000390: c6bb 9f3b 4801 183e 1ccc aabe 38e5 503e
000003a0: 5bc8 8c3e d56e a8be 7547 3cbe ea42 67be
000003b0: aff9 4abd e910 643e a2d1 a83d 0dda 043e
000003c0: 8c95 993c a685 eebd 7f8d 9b3c 0321 883e
000003d0: 987e 23be 5661 893e 8715 e8bd b8bd 1bbe
000003e0: a37f 413e d707 adbd b6b0 483d c433 9b3e
000003f0: ec4e 80bd 7204 e9bd 4264 1cb9 6012 fe3b

bias f4 [64]
-0.013200261 1.2172387 -0.896536 -0.0026696518 1.6565162 1.0116858 0.5649655 0.31824294
-0.7310631 -1.0666767 1.2639637 0.7514867 1.6601223 1.1440281 -0.80611837 -1.0505743
0.49558863 0.11673525 0.5562061 -0.51702774 -0.02329278 0.29980454 -1.2254817 -2.0425828
-0.27345628 -0.38976437 1.0953958 0.9461472 1.822187 1.207996 0.23802555 -1.0265732
-0.039381735 0.9641976 1.3352414 0.11006518 0.5706068 -0.51256543 -0.9781524 0.47749582
1.557575 -0.34789172 -1.2584932 0.26949754 1.2685695 -0.18553886 1.2114067 -0.662645
-0.48962626 -0.23262985 -0.7991165 -0.9369096 -1.1088042 -0.121140875 1.1086684 -1.3360202
0.72154576 0.8868466 -0.49011692 -0.744036 -0.10262746 1.1952842 1.1390308 -0.9912646
00000000: e845 58bc 7ace 9b3f 6283 65bf 53f5 2ebb
00000010: b908 d43f ec7e 813f 94a1 103f bdf0 a23e
00000020: f426 3bbf dd88 88bf 90c9 a13f 6f61 403f
00000030: e37e d43f 836f 923f c65d 4ebf 3879 86bf
00000040: cbbd fd3e e412 ef3d 8663 0e3f ee5b 04bf
00000050: 80d0 bebc fb7f 993e 96dc 9cbf adb9 02c0
00000060: 7602 8cbe 328f c7be ee35 8c3f b436 723f
00000070: 6c3d e93f 9d9f 9a3f f8bc 733e c066 83bf
00000080: be4e 21bd a7d5 763f 31e9 aa3f da69 e13d
00000090: 4a13 123f 7d37 03bf 3268 7abf 557a f43e
000000a0: 9e5e c73f dd1e b2be 4e16 a1bf 95fb 893e
000000b0: 7c60 a23f e6fd 3dbe 600f 9b3f 1aa3 29bf
000000c0: 4bb0 fabe 8536 6ebe e692 4cbf 4fd9 6fbf
000000d0: 4ced 8dbf b518 f8bd d9e8 8d3f b602 abbf
000000e0: 39b7 383f 6108 633f 9bf0 fabe 2579 3ebf
000000f0: 592e d2bd 13ff 983f c3cb 913f 84c3 7dbf

weight f4 [64, 16, 3, 3]
0.48930874 0.35581353 0.6389961 -0.109012894 -0.71801007 0.3954881 0.15781014 -0.2205386
0.5367734 -0.38078102 -0.10728031 -0.0010280849 -0.3898068 -0.23910691 0.13585322 0.23375899
0.59578496 -0.30406225 -0.294972 0.3668099 0.14819598 -0.06503602 0.09805392 0.035178874
-0.24240035 0.24085969 -0.019367717 -0.6296347 0.22236085 0.11744597 0.5726151 -0.6259467
-0.3269451 -0.21342485 0.35400277 0.6346349 0.43170244 0.03818694 0.97585434 0.1298931
0.1359282 0.97303706 0.28016394 0.19661966 0.22095905 0.18521895 0.03938619 -0.04252218
-0.013753945 0.33745906 -0.24646892 0.036579233 0.031390868 0.08377885 0.40860623 0.136218
0.013568978 0.5792915 -0.4120687 0.62731814 0.09082282 -0.35319242 -0.19047129 0.06999836
0.16883758 -0.3743898 0.01567823 0.12951687 0.36744985 -0.8025744 -0.48683792 -0.41177368
0.32801795 0.28287196 -0.6378613 -0.1556397 1.3831148 -0.15739197 -1.0594878 0.095949106
-0.6568165 0.1010857 -0.7640845 -0.06935051 -0.6500987 0.52731574 0.43418777 -0.68272877
0.14251609 -0.30394447 0.07850086 -0.009239901 0.34410977 -0.41371357 0.24570109 0.2409189
-0.2596619 0.010795161 0.10015637 -0.8170919 0.38989094 -0.49386266 0.73749924 1.3834785
1.4171855 0.3437581 -1.1064924 0.29718125 0.18298562 0.24684475 -0.008610311 -0.088577785
0.19300018 0.0060068914 0.49534795 0.09796771 -0.0376326 -0.20624346 -0.6977528 1.4341813
0.0144349625 0.6715473 0.97035897 0.1122509 0.30385983 0.0061199684 -0.30110583 0.92420805
0.19054149 0.056617532 -0.47651285 -0.14493886 -1.0720873 -0.11616552 0.13570978 0.1672182
-0.54660535 -0.64287776 -0.018682444 0.18959829 0.61139286 -1.0904698 -0.7084717 -0.2265544
-0.18837757 -0.5489796 -0.5816227 -0.08908445 -0.010104421 -1.110313 0.23584108 -0.3764115
-0.11887635 0.6890978 0.55613166 0.35020804 -0.7354806 -0.039610647 -0.28244314 0.029348176
0.04421279 -0.41927683 0.092551365 -0.08727809 0.056219727 0.085921414 0.052545447 -0.2502465
0.10725449 -0.22076026 -0.08465633 0.63241106 0.13569456 -0.11844788 -0.2106597 0.32934397
0.22755636 -0.38223666 -0.41076434 -0.23987947 -0.59030837 -0.06664777 0.536787 -0.048995826
0.14580676 0.20026466 -0.01628658 -0.038207058 -0.44330186 -0.043617908 -0.06587173 -0.08502644
-0.014701972 -0.09108692 0.06436056 0.028357208 -0.11264043 -0.092452 0.28280663 -0.1897579
0.051417563 -0.06516261 -0.06101361 0.2137387 0.6020042 0.50752133 -0.39710853 0.31017375
0.59395915 -0.05325466 -0.014137986 -0.069630116 0.4425731 0.27250546 0.04167381 0.62797743
0.20635685 0.07079936 0.45100346 0.2985042 0.24880123 0.065461844 -0.5921208 -0.18293208
0.3847153 -0.45713264 0.44999874 0.16484624 0.101980545 -0.129812 0.048589475 0.30435023
-0.25929707 -0.062072948 0.38047403 0.19660401 0.33703235 -0.111532636 -0.11554403 0.7871137
-0.1437126 0.47524074 0.8961284 0.09281373 0.23718056 1.1780372 -0.45108566 0.07179367
-0.63121307 -0.46927726 0.45091456 -0.17567164 -0.16981159 -0.2710409 -0.050150104 0.2637315
00000000: ad86 fa3e 312d b63e 4095 233f 2742 dfbd
00000010: 82cf 37bf 6b7d ca3e fb98 213e dfd4 61be
00000020: fb69 093f bbf5 c2be c7b5 dbbd cec0 86ba
00000030: c294 c7be 71d8 74be 1b1d 0b3e 845e 6f3e
00000040: 5d85 183f 0cae 9bbe 9206 97be 82ce bb3e
00000050: b0c0 173e 9b31 85bd 7ed0 c83d b917 103d
00000060: cc37 78be eca3 763e 0ca9 9ebc bd2f 21bf
00000070: 90b2 633e 8387 f03d e796 123f 0b3e 20bf
00000080: 5965 a7be 0b8c 5abe da3f b53e 6f77 223f
00000090: 1a08 dd3e e969 1c3d 97d1 793f b202 053e
000000a0: c330 0b3e f518 793f a671 8f3e aa56 493e
000000b0: 1743 623e 09aa 3d3e 6a53 213d bd2b 2ebd
000000c0: 3a58 61bc 6fc7 ac3e 5962 7cbe 1bd4 153d
000000d0: b693 003d 3f94 ab3d d634 d13e bb7c 0b3e
000000e0: 6b50 5e3c 734c 143f abfa d2be ec97 203f
000000f0: 5101 ba3d a3d5 b4be e80a 43be 4d5b 8f3d
00000100: c2e3 2c3e 05b0 bfbe a26f 803c 12a0 043e
00000110: 6322 bc3e 8475 4dbf d242 f9be 00d4 d2be
00000120: f8f1 a73e 98d4 903e e14a 23bf 0360 1fbe
00000130: e809 b13f 5c2b 21be 4c9d 87bf f780 c43d
00000140: 2025 28bf 0506 cf3d 0b9b 43bf a407 8ebd
00000150: de6c 26bf 2afe 063f dc4d de3e 50c7 2ebf
00000160: bdef 113e 9c9e 9bbe 0fc5 a03d f462 17bc
00000170: 282f b03e 44d2 d3be 1199 7b3e 72b3 763e
00000180: 68f2 84be 30de 303c c81e cd3d ef2c 51bf
00000190: c99f c73e 91db fcbe c0cc 3c3f d315 b13f
000001a0: 5666 b53f 1001 b03e 8ba1 8dbf 2428 983e
000001b0: 9560 3b3e dfc4 7c3e 4312 0dbc 4568 b5bd
000001c0: d7a1 453e 75d5 c43b 3f9e fd3e 4ba3 c83d
000001d0: a424 1abd 7c31 53be ed9f 32bf 4193 b73f
000001e0: 9f80 6c3c 86ea 2b3f 7269 783f cde3 e53d
000001f0: 8493 9b3e 048a c83b 8b2a 9abe e698 6c3f
00000200: 4f1d 433e c9e7 673d 7ef9 f3be da6a 14be
00000210: 283a 89bf 30e8 edbd 81f7 0a3e 3f3b 2b3e
00000220: 54ee 0bbf a393 24bf ed0b 99bc 0e26 423e
00000230: 3e84 1c3f 8494 8bbf 675e 35bf e0fd 67be
00000240: 0de6 40be ed89 0cbf 3ae5 14bf e871 b6bd
00000250: 038d 25bc bd1e 8ebf 5380 713e 02b9 c0be
00000260: 7275 f3bd b768 303f a55e 0e3f 784e b33e
00000270: 7548 3cbf c63e 22bd 639c 90be 966b f03c
00000280: 7818 353d 74ab d6be 928b bd3d dbbe b2bd
00000290: a846 663d 91f7 af3d e539 573d 4f20 80be
000002a0: 3ea8 db3d fa0e 62be 4c60 adbd b1e5 213f
000002b0: 84f3 0a3e cd94 f2bd 2db7 57be c69f a83e
000002c0: 8904 693e 86b4 c3be b44f d2be f7a2 75be
000002d0: 731e 17bf a07e 88bd df6a 093f d9af 48bd
000002e0: 5e4e 153e 2e12 4d3e 6f6b 85bc 017f 1cbd
000002f0: 76f8 e2be b1a8 32bd c2e7 86bd 5822 aebd
00000300: 8ae0 70bc c78b babd 78cf 833d 604d e83c
00000310: 07b0 e6bd 7957 bdbd 08cc 903e e54f 42be
00000320: 399b 523d f973 85bd 68e9 79bd 51de 5a3e
00000330: f21c 1a3f ebec 013f cf51 cbbe 18cf 9e3e
00000340: b50d 183f 8f21 5abd 03a3 67bc 3c9a 8ebd
00000350: f198 e23e d685 8b3e 28b2 2a3d 21c3 203f
00000360: 364f 533e 41ff 903d ede9 e63e 8bd5 983e
00000370: c0c5 7e3e dc10 863d 3b95 17bf 8c52 3bbe
00000380: 67f9 c43e 4a0d eabe 3c66 e63e 74cd 283e
00000390: 2ddb d03d 70ed 04be c205 473d cbd3 9b3e
000003a0: 96c2 84be 3440 7ebd 7ecd c23e 9052 493e
000003b0: 818f ac3e 396b e4bd 59a2 ecbd 4980 493f
000003c0: 6529 13be c152 f33e ac68 653f 2015 be3d
000003d0: 76df 723e ecc9 963f b3f4 e6be 8f08 933d
000003e0: 2e97 21bf 1c45 f0be 46de e63e 44e3 33be
000003f0: 17e3 2dbe dfc5 8abe 326a 4dbd d107 873e

bias f4 [16]
-0.95596826 0.75494593 2.3642902 -0.80473065 -0.1692873 0.76529413 -1.2617822 0.45865497
-0.1706596 -0.28496552 2.9778857 -0.31851202 0.7951208 0.72579676 1.0623927 -0.56424546
00000000: 56ba 74bf 2344 413f 8850 1740 d402 4ebf
00000010: a659 2dbe 51ea 433f 1482 a1bf d3d4 ea3e
00000020: 64c1 2ebe 00e7 91be ae95 3e40 0214 a3be
00000030: 098d 4b3f d1cd 393f 7cfc 873f 6472 10bf

weight f4 [16, 32, 3, 3]
-0.06680836 0.42537525 -0.14337374 -0.05334553 0.3935998 -0.13169369 -0.0143776415 0.4065388
-0.39771613 -0.35938668 -0.101955205 -0.09700444 0.057105374 0.11993793 0.04845186 -1.1012222
-0.19241676 -0.5166307 -0.2578688 0.06987731 -0.405131 0.104045376 0.34051615 -0.26747397
-0.8415255 0.24230438 -0.049786694 0.8921735 -0.7901029 -0.3790158 -1.2931304 0.37235808
-1.3651793 -3.7797897 1.1492416 -2.354201 0.13760154 -0.18500312 0.9973473 -0.56769145
0.055713393 0.073612094 -1.2706711 0.020424528 0.66132236 -2.1738956 0.51320934 0.45968342
-0.82921815 -0.27691242 -0.2778027 0.80910754 1.235868 -0.7224187 0.049680755 0.45957077
-2.1754675 -0.14454696 -0.5206497 -0.08178141 0.64659005 0.7057723 -0.87919587 -0.17208502
-0.8606794 0.561899 0.72315705 -0.27971426 -0.13757525 -2.5368748 -1.1160054 -0.4633157
-0.053355113 0.19315365 0.23619376 -0.09266493 -0.509946 -0.1325403 -0.82703173 0.0378882
-0.11016687 -0.46631113 -0.4487388 0.40968835 0.15076397 0.093832605 0.550062 -3.3980641
0.59623563 -2.1869571 -0.31908733 0.12009432 0.3432883 0.23044789 0.038258817 -1.0365504
0.48490536 -1.5849483 0.016990846 -0.1772864 0.026107803 -0.41841015 -0.25232232 0.056806
0.18086305 0.012416926 -1.2899581 0.19285129 -1.1222225 0.0070453333 -1.1194205 -0.1639218
0.08836487 -0.2538046 1.1130415 0.1402615 0.35074508 0.07134456 0.04045495 0.058385268
-0.13422678 -0.13530785 -0.033208344 -0.2412609 0.012893599 -0.074552864 0.23339804 0.21713847
0.12441756 0.44014248 0.4379809 0.3152844 0.14327201 0.070547394 0.07044507 -0.50397074
-0.7232615 -0.7398815 -1.3570993 -0.6578031 -1.7217185 -0.4857136 -0.51269096 -0.5945263
-0.93664694 -0.49061036 -3.2143292 0.6149946 0.81730306 0.55611855 -0.5327841 -0.4549388
0.44742173 0.1533716 -0.65120727 0.14526339 -0.08235645 0.11422825 0.24270873 -0.26798445
1.0164082 -0.84801745 0.14893867 0.109209 -1.1580247 0.3593721 0.26313826 0.28098732
0.5603233 -0.15896851 -0.7969695 -2.1044834 0.16042106 -2.2810395 -0.09382158 -0.04663
-0.009859254 -2.2028503 -1.5723844 -2.3960166 0.08223877 0.20278952 0.16741312 0.31697267
0.46145603 0.4615986 0.15776695 0.2515372 0.28408816 -0.09343439 -0.07647682 -0.68273926
-0.04948492 0.33126205 -0.041831262 0.06181255 -0.02424749 -0.968197 -0.8899333 0.48440528
-0.093949474 -0.109676555 0.14252692 0.23509055 0.31687257 0.114822514 -0.026876623 -0.77537984
-0.22052294 0.39696166 -0.79943514 0.13740651 -1.428376 -0.6614724 0.3008474 -0.24438049
0.39133757 0.1964243 0.58293897 -0.6960972 -0.33198518 -0.25149393 -1.4955491 0.26599234
-3.0025644 -0.42266405 -1.1619588 0.24979077 -0.0789066 -0.07196691 -0.10715439 0.34378353
-0.27591294 -0.19831067 0.91005117 0.0001674234 0.69186866 0.3992028 -0.7575483 0.36086056
0.67287844 0.24110292 0.5694702 1.6387681 -0.0008873725 -2.3772483 -0.8305541 0.31073022
-0.2605002 -2.7361276 -0.0061187996 1.4429312 -0.020869495 -0.043762006 -0.75266796 0.25067124
00000000: d2d2 88bd c9ca d93e 91d0 12be d880 5abd
00000010: ea85 c93e b6da 06be 3390 6bbc db25 d03e
00000020: 73a1 cbbe 8801 b8be e4cd d0bd 44aa c6bd
00000030: 53e7 693d 04a2 f53d 7575 463d d9f4 8cbf
00000040: e608 45be e941 04bf 6107 84be d61b 8f3d
00000050: 556d cfbe be15 d53d 2258 ae3e 59f2 88be
00000060: 376e 57bf a41e 783e 22ed 4bbd 7c65 643f
00000070: 2f44 4abf 5c0e c2be 4c85 a5bf b8a5 be3e
00000080: 32be aebf 13e8 71c0 591a 933f 3bab 16c0
00000090: 6be7 0c3e 7571 3dbe 2752 7f3f 3a54 11bf
000000a0: ba33 643d f0c1 963d 5aa5 a2bf 5751 a73c
000000b0: 6c4c 293f 1b21 0bc0 b061 033f a05b eb3e
000000c0: a447 54bf 77c7 8dbe 283c 8ebe ac21 4f3f
000000d0: ec30 9e3f 6ff0 38bf 0c7e 4b3d dc4c eb3e
000000e0: dc3a 0bc0 1e04 14be 4c49 05bf 037d a7bd
000000f0: ed86 253f 7ead 343f fb12 61bf 0e37 30be
00000100: 7c55 5cbf 9dd8 0f3f d220 393f b536 8fbe
00000110: 87e0 0cbe 285c 22c0 44d9 8ebf b737 edbe
00000120: e48a 5abd 12ca 453e c7dc 713e 1cc7 bdbd
00000130: d28b 02bf a5b8 07be 5ab8 53bf a830 1b3d
00000140: 2b9f e1bd 55c0 eebe 18c1 e5be acc2 d13e
00000150: df61 1a3e 4f2b c03d ddd0 0c3f e279 59c0
00000160: e6a2 183f 1bf7 0bc0 6a5f a3be 03f4 f53d
00000170: 7cc3 af3e 88fa 6b3e 47b5 1c3d afad 84bf
00000180: 8445 f83e 96df cabf 6330 8b3c 918a 35be
00000190: 08e0 d53c db39 d6be 6430 81be 69ad 683d
000001a0: 2a34 393e 5d70 4b3c 591d a5bf cf7a 453e
000001b0: fda4 8fbf 8adc e63b 2c49 8fbf 1edb 27be
000001c0: a4f8 b43d adf2 81be 2578 8e3f b6a0 0f3e
000001d0: dc94 b33e 191d 923d 17b4 253d 6425 6f3d
000001e0: bf72 09be 248e 0abe 7905 08bd 190d 77be
000001f0: ad3f 533c 2caf 98bd e5ff 6e3e 8c59 5e3e
00000200: a2ce fe3d 5b5a e13e 083f e03e f56c a13e
00000210: e6b5 123e 277b 903d 8145 903d 3a04 01bf
00000220: aa27 39bf e068 3dbf 6eb5 adbf c965 28bf
00000230: 4661 dcbf 74af f8be b73f 03bf e032 18bf
00000240: 18c8 6fbf 4831 fbbe 92b7 4dc0 4970 1d3f
00000250: c63a 513f c95d 0e3f 8a64 08bf bded e8be
00000260: 7614 e53e 720d 1d3e 85b5 26bf edbf 143e
00000270: 80aa a8bd 80f0 e93d a388 783e 4235 89be
00000280: aa19 823f ac17 59bf 6183 183e f8a8 df3d
00000290: 273a 94bf 9fff b73e 0fba 863e 92dd 8f3e
000002a0: 5971 0f3f a4c8 22be 3106 4cbf dbaf 06c0
000002b0: 6b45 243e 8dfc 11c0 8725 c0bd 19ff 3ebd
000002c0: b588 21bc 80fb 0cc0 e443 c9bf 5658 19c0
000002d0: cd6c a83d 0ea8 4f3e 586e 2b3e 3e4a a23e
000002e0: f743 ec3e a756 ec3e a98d 213e 7cc9 803e
000002f0: 0174 913e 885a bfbd e19f 9cbd 00c8 2ebf
00000300: b3b0 4abd 2e9b a93e 4257 2bbd 282f 7d3d
00000310: aca2 c6bc c2db 77bf abd2 63bf f803 f83e
00000320: 9568 c0bd 1a9e e0bd 94f2 113e 94bb 703e
00000330: 1f3d a23e 1128 eb3d 5d2c dcbc 4b7f 46bf
00000340: c4d0 61be 8f3e cb3e c8a7 4cbf 4bb4 0c3e
00000350: 06d5 b6bf 4156 29bf ac08 9a3e e13e 7abe
00000360: 665d c83e 7423 493e 7d3b 153f 6d33 32bf
00000370: f6f9 a9be d0c3 80be 276e bfbf 2630 883e
00000380: 042a 40c0 6c67 d8be 11bb 94bf 27c9 7f3e
00000390: c999 a1bd 6363 93bd c373 dbbd 6504 b03e
000003a0: 7644 8dbe f411 4bbe 1df9 683f 608e 2f39
000003b0: 4e1e 313f 4f64 cc3e afee 41bf b7c2 b83e
000003c0: c341 2c3f afe3 763e cdc8 113f 27c3 d13f
000003d0: 8f9e 68ba d624 18c0 329f 54bf 0818 9f3e
000003e0: 4860 85be b71c 2fc0 3680 c8bb f8b1 b83f
000003f0: 81f6 aabc ca3f 33bd d9ae 40bf fb57 803e

bias f4 [32]
-0.15180744 0.8239356 1.9057156 0.48139128 2.0169468 3.8524659 -0.6406885 0.97497743
0.21328726 0.7601076 1.8378172 2.3653696 0.22743396 1.4992677 0.7104137 1.7383722
0.22648558 3.4218926 0.3429422 0.889421 1.5596182 -4.2395577 4.630091 -4.7183876
0.0717353 1.7616992 -0.7903474 -1.5537007 -0.5941779 2.0553172 -0.5103621 0.03211585
00000000: 6973 1bbe 72ed 523f 7dee f33f eb78 f63e
00000010: a815 0140 cd8e 7640 2904 24bf 1f98 793f
00000020: fa67 5a3e 6996 423f 983d eb3f 3762 1740
00000030: 73e4 683e 01e8 bf3f acdd 353f fb82 de3f
00000040: d6eb 673e 4a00 5b40 1f96 af3e 18b1 633f
00000050: 92a1 c73f 75aa 87c0 b529 9440 08fd 96c0
00000060: f5e9 923d 5c7f e13f 3554 4abf aadf c6bf
00000070: 0b1c 18bf 518a 0340 17a7 02bf e98b 033d

weight f4 [32, 2, 3, 3]
0.046513516 0.24862592 0.018839227 0.014650858 0.33568308 -0.012698865 0.03201273 0.24134555
0.0073129823 -0.008303732 0.12490399 0.041031476 -0.0004621111 0.15698637 0.028592274 0.0050798077
0.099721044 -0.020926002 -0.009192454 0.02126609 0.016030358 0.062027697 0.18747923 0.11077813
-0.00595372 0.032733243 0.034333874 -0.007777687 0.013839807 -0.008228365 0.10758094 0.22661471
0.01717634 0.03160185 -0.026919834 -0.102482244 -0.09738596 -0.11591008 -0.08068963 -0.112019695
-0.105175905 -0.10248542 -0.074367516 -0.0830531 -0.0705802 -0.19922814 -0.2443235 -0.15637107
-0.35745928 -0.45731243 -0.2904728 -0.3212653 -0.42162082 -0.26312935 0.009700671 0.020065783
0.0031506633 0.005040456 0.028600095 -0.0067001665 0.016746487 0.037082028 0.011127616 -0.06940981
-0.09353719 -0.04464402 -0.20209794 -0.2594447 -0.18527956 -0.05198735 -0.09242129 -0.026312023
0.015743803 0.046432823 0.028698461 0.021433266 0.044074588 0.034487717 0.02219598 0.04077906
0.027160808 -0.2058261 -0.3727487 -0.24002582 -0.18975547 -0.39221695 -0.24265033 -0.16806635
-0.30696923 -0.18154971 -0.059865013 -0.06456941 -0.10075312 -0.07004809 -0.11398044 -0.13541535
-0.06071496 -0.07239281 -0.09942606 0.052474722 0.07267285 0.098062865 0.11838744 0.17434028
0.14927931 0.083117165 0.102105126 0.08865314 0.020206828 0.039567206 0.01907447 0.023978489
0.039349914 0.026522582 0.029528689 0.04757059 0.028371137 0.11886305 0.15306483 0.11724441
0.13222884 0.15512525 0.13485546 0.13778679 0.16411255 0.13219059 0.014454313 0.014228894
0.0138776675 0.015494072 0.029432274 0.018453993 0.018882891 0.03231249 0.013423147 -0.06853202
-0.19737746 -0.048728127 -0.08554158 -0.27098772 -0.06636903 -0.060007665 -0.19542095 -0.028727105
0.03997174 0.06941115 0.053503223 0.05143223 0.09829055 0.08906216 0.02166423 0.05564556
0.04353884 -0.03827727 -0.07098315 -0.06872678 -0.047531817 -0.10826786 -0.102392405 -0.0051112645
-0.015425263 -0.030775668 0.03722014 0.047699414 0.068604425 0.060762636 0.113140844 0.1271157
0.027180005 0.03306571 0.062485635 0.031595435 0.07519848 0.08750688 0.13313958 0.22085358
0.19407743 0.0609723 0.086858466 0.085131995 0.00048196537 0.016800653 0.0019324992 0.033317525
0.06551659 0.023496728 -0.005094025 0.0062899985 -0.0026980962 0.084989175 0.13995323 0.1347035
0.16027172 0.2129217 0.19464049 0.12188179 0.16363285 0.12541644 -0.006558233 -0.0017172487
-0.013285921 0.046017874 0.03378729 0.009775811 0.029028978 0.024778152 0.018684868 -0.19768347
-0.25530496 -0.22324808 -0.3977246 -0.44790062 -0.36964124 -0.24524958 -0.3201532 -0.24761076
0.031879365 0.062010545 0.038015217 0.046392053 0.05550141 0.07771058 0.02710314 0.05863903
0.043831345 0.062469564 0.12766153 0.072601564 0.08978222 0.1719171 0.11025467 0.06429041
0.13896838 0.07541778 -0.03963046 -0.08974959 -0.036003284 -0.12526967 -0.2412927 -0.12600566
-0.03839861 -0.09471295 -0.03991673 0.013472351 0.043318827 0.026569946 0.032262538 0.07844004
0.048896845 0.02604977 0.05357779 0.027140252 -0.01725597 0.04308607 0.032940198 0.050654467
00000000: f584 3e3d cb97 7e3e b954 9a3c 270a 703c
00000010: a7de ab3e e60e 50bc c81f 033d 4a23 773e
00000020: bea1 ef3b 600c 08bc aacd ff3d 9f10 283d
00000030: 8047 f2b9 09c1 203e 583a ea3c 8474 a63b
00000040: 8c3a cc3d 026d abbc f29b 16bc 3936 ae3c
00000050: 1952 833c c110 7e3d 8efa 3f3e a5df e23d
00000060: 6c17 c3bb 4b13 063d ada1 0c3d f8db febb
00000070: 5cc0 623c 44d0 06bc 6553 dc3d b00d 683e
00000080: 65b5 8c3c f170 013d fc86 dcbc 36e2 d1bd
00000090: 4a72 c7bd 4462 edbd 9b40 a5bd 956a e5bd
000000a0: 7766 d7bd e0e3 d1bd ff4d 98bd be17 aabd
000000b0: 5a8c 90bd 7602 4cbe f12f 7abe bd1f 20be
000000c0: e704 b7be db24 eabe dab8 94be e37c a4be
000000d0: afde d7be e4b8 86be 90ef 1e3c ff60 a43c
000000e0: 5c7b 4e3b 692a a53b bf4a ea3c 128d dbbb
000000f0: ee2f 893c 53e3 173d 9b50 363c bb26 8ebd
00000100: 6d90 bfbd a6dc 36bd c3f2 4ebe f0d5 84be
00000110: edb9 3dbe b0f0 54bd 6047 bdbd 508c d7bc
00000120: 26f9 803c 5830 3e3d 0919 eb3c d194 af3c
00000130: 8e87 343d fe42 0d3d 58d4 b53c f207 273d
00000140: 5880 de3c 14c4 52be ebd8 bebe 54c9 75be
00000150: 424f 42be a9d0 c8be 5479 78be 9619 2cbe
00000160: 122b 9dbe 2be8 39be 0435 75bd f83c 84bd
00000170: a757 cebd 5f75 8fbd 946e e9bd 52aa 0abe
00000180: 40b0 78bd ae42 94bd e49f cbbd bcef 563d
00000190: 81d5 943d 2fd5 c83d 1d75 f23d 4286 323e
000001a0: addc 183e 5539 aa3d 7e1c d13d c78f b53d
000001b0: ca88 a53c 3911 223d 1042 9c3c 896e c43c
000001c0: 602d 213d e345 d93c 26e6 f13c 61d9 423d
000001d0: 966a e83c 796e f33d 07bd 1c3e d61d f03d
000001e0: ff66 073e 27d9 1e3e 8d17 0a3e fb17 0d3e
000001f0: 1f0d 283e f85c 073e c8d1 6c3c 4f20 693c
00000200: 285f 633c d9da 7d3c f41b f13c d42c 973c
00000210: 4bb0 9a3c 1a5a 043d c2ec 5b3c 845a 8cbd
00000220: 511d 4abe 2597 47bd 6d30 afbd e7be 8abe
00000230: 7cec 87bd 99ca 75bd 6e1c 48be 1b55 ebbc
00000240: 68b9 233d 6f27 8e3d 3226 5b3d 9aaa 523d
00000250: 8e4c c93d 3966 b63d 2f79 b13c 99ec 633d
00000260: c855 323d a0c8 1cbd 9d5f 91bd a0c0 8cbd
00000270: b9b0 42bd 8abb ddbd 1cb3 d1bd 657c a7bb
00000280: 3eba 7cbc 411d fcbc 2574 183d 7660 433d
00000290: 7a80 8c3d 3ee2 783d 63b6 e73d 9e2a 023e
000002a0: 9aa8 de3c e96f 073d f0f0 7f3d 376a 013d
000002b0: a901 9a3d cf36 b33d be55 083e 7127 623e
000002c0: 3cbc 463e 17be 793d dae2 b13d af59 ae3d
000002d0: 4cb0 fc39 86a1 893c ea4b fd3a f577 083d
000002e0: 902d 863d 367c c03c c7eb a6bb 551c ce3b
000002f0: 8bd2 30bb ce0e ae3d e64f 0f3e b7ef 093e
00000300: 451e 243e 2508 5a3e d64f 473e 299d f93d
00000310: 5f8f 273e 2b6d 003e 72e6 d6bb 4e15 e1ba
00000320: 31ad 59bc 3d7d 3c3d 8b64 0a3d b92a 203c
00000330: 2ece ed3c 8dfb ca3c 0211 993c 896d 4abe
00000340: 55b7 82be 259b 64be 8fa2 cbbe 3b53 e5be
00000350: 9e41 bdbe b522 7bbe 1feb a3be ad8d 7dbe
00000360: f093 023d c5fe 7d3d d8b5 1b3d 9805 3e3d
00000370: 7255 633d b926 9f3d 6707 de3c 7b2f 703d
00000380: 7f88 333d 16e0 7f3d b4b9 023e 21b0 943d
00000390: bedf b73d 090b 303e 33cd e13d b1aa 833d
000003a0: ba4d 0e3e a374 9a3d 8d53 22bd a2ce b7bd
000003b0: 2e78 13bd b146 00be 6f15 77be a107 01be
000003c0: dc47 1dbd ddf8 c1bd ba7f 23bd 23bb 5c3c
000003d0: 156f 313d 37a9 d93c b925 043d 2ca5 a03d
000003e0: 0f48 483d 5466 d53c 6274 5b3d 3c55 de3c
000003f0: 645c 8dbc 057b 303d 4dec 063d 0f7b 4f3d

bias f4 [2]
-1.1773328 0.9958585
00000000: d7b2 96bf 95f0 7e3f
